gdn_smap.pth (torch, 17844 bytes, 16 tensors)

embedding.weight f4 [25, 64]
0	0xbd465d77	-0.04842898
1	0x3e2cd249	0.16877092
2	0x3da7886a	0.08180316
3	0xbe8431a5	-0.25819126
4	0x3dc79ecf	0.09747087
5	0x3d35fe3f	0.04443192
6	0xbe901a89	-0.28145245
7	0x3e0b9336	0.13630375
8	0x3dd82bdc	0.105552405
9	0xbeb516ab	-0.35368857
10	0x3e2cd21b	0.16877024
11	0xbe9c4db7	-0.30528042
12	0x3e11d998	0.14243162
13	0xbe8b0911	-0.27155355
14	0xbdc33766	-0.09532051
15	0xbc588985	-0.013216381
16	0x3e54e2d1	0.20789649
17	0xbf03181c	-0.51208663
18	0xbe81404c	-0.25244367
19	0x3e7ad3c6	0.24494848
20	0x3e5fb428	0.21846068
21	0xbe5a3469	-0.21309055
22	0xbd8228fa	-0.06355472
23	0x3dbb6637	0.09150355
24	0x3e9232fd	0.28554526
25	0x3e19594a	0.14975467
26	0xbdccc5c4	-0.09998658
27	0x3e885b9e	0.26632398
28	0x3dfbf049	0.1230169
29	0xbe0d2cf2	-0.13786677
30	0xbe3aa651	-0.18227507
31	0x3db64f6a	0.08901866
32	0x3db91e81	0.09039021
33	0xbe355867	-0.17709504
34	0x3e9ecb95	0.31014696
35	0x3e12863d	0.1430902
36	0xbd85a31c	-0.06525251
37	0xbe3756df	-0.17904232
38	0x3e1c6046	0.152711
39	0x3df70809	0.120620795
40	0xbe6ffc49	-0.23436083
41	0x3e897f7f	0.26855084
42	0xbec2fe6d	-0.38084736
43	0xbabf1ddb	-0.0014581041
44	0xbe952ee8	-0.2913735
45	0x3e82c0dd	0.25537768
46	0x3db682fe	0.089117035
47	0x3e297529	0.165486
48	0xbc70bff3	-0.014694202
49	0xbe096a20	-0.1341939
50	0xbeeb1cdb	-0.45920452
51	0xbede6078	-0.43432975
52	0x3dcc4c35	0.09975473
53	0xbe2904ff	-0.16505812
54	0xbdd9c3b0	-0.106330276
55	0xbe870852	-0.26373535
56	0xbe05441a	-0.1301426
57	0x3e8c503d	0.27404967
58	0xbed9d3d6	-0.4254443
59	0xbf2c80e7	-0.6738419
60	0x3dde449c	0.1085293
61	0xbe2b8b20	-0.1675229
62	0x3e382592	0.17983082
63	0x3ddf7504	0.10910991
64	0xbe044cbc	-0.12919897
65	0xbbf15575	-0.0073649236
66	0xbe0ed56c	-0.13948601
67	0xbd88d6ee	-0.066816196
68	0xbd83a88c	-0.06428632
69	0xbc68bbd3	-0.014204937
70	0xbbc0fb62	-0.005889342
71	0x3cf70bc2	0.030156974
72	0xbc96cec7	-0.018409146
73	0xbd91c041	-0.07116748
74	0xbd0ae77d	-0.03391217
75	0x3d9bd09d	0.07608149
76	0xbd1955d6	-0.037435375
77	0xbc906aff	-0.017629145
78	0xbc90816e	-0.017639842
79	0x3e089587	0.1333829
80	0xbc186b9d	-0.009303001
81	0xbd98fb31	-0.07469786
82	0xbc2c9f7c	-0.010536071
83	0xbb78439b	-0.0037882093
84	0xbc2f451a	-0.010697627
85	0xbbea51fa	-0.0071508856
86	0x3d3f7c3d	0.046749342
87	0xbdd9f67c	-0.10642716
88	0x3c861c01	0.016370775
89	0xbcc1d9d5	-0.02366344
90	0xbb363621	-0.002780326
91	0xbb14c5b6	-0.0022700853
92	0xbd985836	-0.074387
93	0xbdb62c97	-0.088952236
94	0xbd15a8d3	-0.036537956
95	0xbb8611d5	-0.004091481
96	0xbe5aca9e	-0.21366355
97	0xbc862259	-0.0163738
98	0x3c667dae	0.01406805
99	0xbde3f5bd	-0.11130855
100	0xbde7e45f	-0.11322855
101	0xbca414a7	-0.020029379
102	0xbd27079d	-0.040778745
103	0xbc6d2e2a	-0.014476338
104	0xbd6f0625	-0.05835547
105	0xba66bf8d	-0.0008802347
106	0xbde51608	-0.11185843
107	0x3dd66504	0.10468486
108	0xbb53d7a7	-0.0032324584
109	0xbc9536ef	-0.018214671
110	0xbcd21b82	-0.025647882
111	0x3b850a46	0.0040600626
112	0x3dd3943b	0.10331007
113	0xbe0fa7ec	-0.14028901
114	0x3a435842	0.0007451811
115	0x3dab5dd6	0.08367507
116	0xbe0cc9ef	-0.13748907
117	0x3cbdd74c	0.02317395
118	0x3d25a371	0.040439073
119	0xbd02d5b3	-0.03194208
120	0x3a16f840	0.0005759038
121	0xbb547e34	-0.0032423856
122	0x3d782aff	0.06058788
123	0x3e010e0c	0.12603015
124	0xbdc2948e	-0.09500991
125	0xbd8fb7a2	-0.07017447
126	0xbb3f8793	-0.0029225096
127	0xbc9ac725	-0.018893788
128	0xbce083fe	-0.027406689
129	0xbb2a34a2	-0.0025971313
130	0xbd9b7afc	-0.07591817
131	0x3d357ce8	0.044308573
132	0xbe1780cc	-0.14795226
133	0xbb9324c9	-0.004490469
134	0xbd8bbdb9	-0.06823296
135	0x3c0f43b3	0.008744168
136	0xbd95a42a	-0.073067024
137	0xbca898a2	-0.020580593
138	0xbde3c396	-0.111212894
139	0xbc9b54b0	-0.01896128
140	0xbe2dea18	-0.16983831
141	0xbd5684b5	-0.052372653
142	0xbd137c3e	-0.03600716
143	0xbe6e0a1b	-0.23246042
144	0x3c56512a	0.013080874
145	0xbe098ec5	-0.13433369
146	0xbd8d3137	-0.068941526
147	0xbd01c6c5	-0.031683702
148	0x3b3b5392	0.0028583747
149	0xbdd84623	-0.105602525
150	0xbdd68895	-0.1047527
151	0xbd8c980c	-0.06864938
152	0xbe0ca613	-0.13735227
153	0xbe033bf9	-0.12815847
154	0xbcd33b72	-0.025785182
155	0xb982b31c	-0.0002492898
156	0xbbeb55c6	-0.007181856
157	0xbc281116	-0.01025798
158	0xbe66c8bb	-0.2253751
159	0xbbdb75de	-0.0066974005
160	0xbd75addc	-0.05998026
161	0xbdbdf4f7	-0.09275239
162	0x3c2676aa	0.010160128
163	0xbe38cfce	-0.18048021
164	0x3c099015	0.008396168
165	0x3bc9a12f	0.006153248
166	0xbe45b55f	-0.19307469
167	0xbe01ae63	-0.1266418
168	0xbcfdd5da	-0.030985761
169	0xbdb8ce70	-0.0902375
170	0xbd72eeaa	-0.05930964
171	0x3daf556f	0.08561217
172	0xbdddeb81	-0.108359344
173	0xbced9590	-0.029001981
174	0xbd500af5	-0.0507917
175	0xbc7b7dae	-0.015349789
176	0xbe4110a4	-0.18854004
177	0xbd6fd3a7	-0.058551457
178	0xbcb56240	-0.022141576
179	0xbe2f5cfc	-0.17125314
180	0xbd79388a	-0.060844935
181	0xbe2b2987	-0.1671506
182	0xbdcd9b74	-0.10039416
183	0x3d1333f7	0.03593823
184	0xbc022af4	-0.007944811
185	0xbb5c0e7f	-0.0033577976
186	0xbe2e83e1	-0.17042495
187	0xbe2c84f6	-0.16847596
188	0xbcb0ffb1	-0.021606298
189	0x3c32e23e	0.010918198
190	0xbd3e2fe1	-0.04643238
191	0xbda34b80	-0.07973385
192	0xbdc9f4bb	-0.09861132
193	0xb987dfa6	-0.00025915838
194	0xbe27fe5e	-0.16405627
195	0xbd9dc8c3	-0.07704308
196	0xbe1f4aad	-0.1555583
197	0xb91c7dfe	-0.00014924255
198	0xbce5fd5a	-0.028074909
199	0x3d0f1664	0.034933463
200	0xbdb32d00	-0.087488174
201	0xbe36e902	-0.17862323
202	0xbcd19ea2	-0.025588337
203	0xbe6b9e63	-0.23009638
204	0xbce995ff	-0.028513907
205	0xbe18d79d	-0.14926
206	0xbc2ba6c6	-0.010476774
207	0x3df1eecf	0.11813127
208	0xbc23fb29	-0.010008612
209	0xbde6680e	-0.112503156
210	0x3c857332	0.016290281
211	0xbb0d79a8	-0.0021587405
212	0xbc0bb96a	-0.008528093
213	0x3c9ad536	0.018900495
214	0x3d32b06d	0.043625284
215	0xbe046ea6	-0.12932834
216	0x3c836740	0.016040444
217	0x3cbf94ec	0.023386441
218	0xbc0cd369	-0.008595326
219	0xbc7e26b8	-0.015512161
220	0xbdae6f90	-0.085173726
221	0xbdb2d488	-0.08731943
222	0xbd1a0203	-0.037599575
223	0x3a1d4b26	0.00060002727
224	0xbe258801	-0.16165163
225	0xbcfdc50f	-0.030977754
226	0x3c9ce7e2	0.01915354
227	0xbe2fa589	-0.1715299
228	0xbe1ef7be	-0.15524194
229	0xbd4d3090	-0.05009514
230	0xbc9f6ac1	-0.019460084
231	0xbe00ad19	-0.12566032
232	0xbd9231c7	-0.071384005
233	0xbb525e63	-0.0032099716
234	0xbc0c524c	-0.008564543
235	0x3dc6314e	0.09677373
236	0xbc9a3923	-0.018826073
237	0xbd99de4c	-0.07513103
238	0xbd041a1a	-0.032251455
239	0x3b688f00	0.0035485625
240	0x3de796ec	0.11308083
241	0xbd157750	-0.03649074
242	0x3ca7caba	0.02048241
243	0x3d54def6	0.051970445
244	0xbd39d8cc	-0.04537277
245	0xbbaf420f	-0.005348451
246	0x3c9980b4	0.018738128
247	0xbbb7113a	-0.0055867704
248	0x3dabae0d	0.08382807
249	0xbc25c275	-0.010117163
250	0x3d04513d	0.032304037
251	0x3de5b589	0.11216266
252	0xbd8829d2	-0.066486016
253	0x3c91af11	0.017783673
254	0xbc04af04	-0.008098368
255	0xbcc04b6b	-0.023473462

bn_outlayer_in.weight f4 [64]
0	0x3edc0203	0.42970285
1	0x3f197ed1	0.5995913
2	0x3f29cedc	0.6633127
3	0x3f113533	0.567218
4	0x3f16dc0c	0.58929515
5	0x3f324c13	0.6964733
6	0x3eb86c5a	0.36020166
7	0x3f0ebe53	0.5575916
8	0x3f21d9af	0.63222784
9	0x3e32f06a	0.17474523
10	0x3f19db23	0.601
11	0x3f1bbc8a	0.6083456
12	0x3f159fb0	0.5844679
13	0x3f387cfb	0.72065705
14	0x3f2ce29a	0.67533267
15	0x3b624854	0.0034527974
16	0x3f201002	0.62524426
17	0x16a8eb8a	2.729051e-25
18	0x3e542e0f	0.20720695
19	0x3f1f5528	0.62239313
20	0x3f0da6b2	0.5533248
21	0x3e0292c8	0.12751305
22	0x89c8fa22	-4.8383472e-33
23	0x3f1fde16	0.6244825
24	0x3f06244d	0.5239914
25	0x3f0e916e	0.5569066
26	0x3f18ac5b	0.59637994
27	0x3f1066d3	0.564069
28	0x3f2f3a0c	0.6844795
29	0x3daaec28	0.083458245
30	0x3f032798	0.5123229
31	0x3f0daba9	0.5534006
32	0x3f06d5c8	0.52669954
33	0x3f18c4fc	0.59675574
34	0x3f2121b7	0.6294207
35	0x3f26ea3e	0.65201175
36	0x3f139746	0.576527
37	0x3ddb30c3	0.1070266
38	0x3f150881	0.582161
39	0x3f0fc68e	0.56162345
40	0x3f1882ef	0.5957479
41	0x3f068ea2	0.5256139
42	0x3f122968	0.5709443
43	0x3f01c58f	0.50692075
44	0x3f070b9d	0.52752095
45	0x3f095b97	0.5365538
46	0x3f39417f	0.72365564
47	0x3f0d21a0	0.5512943
48	0x3ee0ec4c	0.4393028
49	0x3f0a5c52	0.5404712
50	0x3e3d8342	0.18507102
51	0x8121c6cc	-2.971366e-38
52	0x3f164b45	0.587086
53	0x3ea465eb	0.32109007
54	0x3db2e742	0.08735515
55	0x3d37b608	0.044851333
56	0x3e371e20	0.17882586
57	0x3f0e7795	0.5565122
58	0x160371d4	1.0618014e-25
59	0x3ef18711	0.4717336
60	0x3f1eddde	0.6205729
61	0x3e1be281	0.15223123
62	0x3eda349c	0.42618263
63	0x3f20e696	0.62851846

bn_outlayer_in.bias f4 [64]
0	0xbdabc587	-0.08387285
1	0xbe9b887f	-0.30377576
2	0xbde49035	-0.11160318
3	0xbdbd2a3a	-0.0923657
4	0xbde2c0cc	-0.11071929
5	0xbd67a2e5	-0.056551833
6	0xbd7b8f46	-0.061415933
7	0xbf3586fc	-0.70909095
8	0xbdc9b784	-0.09849456
9	0x3d5cf6ee	0.053946428
10	0xbd250699	-0.040289495
11	0xbdbb3075	-0.09140102
12	0xbddebd08	-0.108758986
13	0xbe277cbe	-0.16356179
14	0xbe2f408e	-0.1711447
15	0xb9003147	-0.00012225388
16	0xbe3d06c6	-0.18459615
17	0xacde6ee2	-6.32193e-12
18	0xbcf9e248	-0.030503407
19	0xbe3000c5	-0.17187794
20	0xbdf5e532	-0.12006606
21	0x3d548df1	0.05189318
22	0x9489de28	-1.392109e-26
23	0xbdd087b5	-0.10182134
24	0xbe7fe806	-0.24990854
25	0xbdccd292	-0.100011006
26	0xbd20ab28	-0.039225727
27	0xbd932c77	-0.07186215
28	0xbd890c10	-0.06691754
29	0xbda944c5	-0.0826507
30	0xbe0f28bf	-0.13980387
31	0xbeb5d95c	-0.35517395
32	0xbdcb55af	-0.09928452
33	0xbe1e5232	-0.15461043
34	0xbeae968b	-0.3409923
35	0xbdeee7d9	-0.11665315
36	0xbd16a89b	-0.03678189
37	0x3c9b5c0c	0.01896479
38	0xbdc1ec8f	-0.09468948
39	0xbdce1513	-0.10062613
40	0xbded7d28	-0.11596137
41	0xbe0c2f87	-0.13690005
42	0xbe57fc04	-0.2109223
43	0x3cd06f4d	0.025443697
44	0xbdbf4d58	-0.09340924
45	0xbd131f2e	-0.035918407
46	0xbe0994e4	-0.13435704
47	0xbe80728d	-0.25087395
48	0xbca297ed	-0.019847834
49	0xbda8042b	-0.0820392
50	0x3d0b91c2	0.034074552
51	0xa714a07d	-2.0626127e-15
52	0xbdd90cd7	-0.10598152
53	0xbd1efc36	-0.038814746
54	0x3d475493	0.04866464
55	0xbd15da73	-0.036585283
56	0xbdb75b2c	-0.089529365
57	0x3c4ac1e8	0.012375332
58	0x9a9a1655	-6.3728987e-23
59	0xbd85b546	-0.06528716
60	0xbd887a1c	-0.066639155
61	0x3d437c84	0.04772617
62	0xbe5474ce	-0.20747682
63	0xbdfd4b8d	-0.12367926

bn_outlayer_in.running_mean f4 [64]
0	0xb9e017ed	-0.00042742435
1	0xb83a4008	-4.440549e-05
2	0xbb03532c	-0.0020038588
3	0xba357ce5	-0.0006923213
4	0xbb29e4e2	-0.0025923778
5	0x3790924e	1.7234266e-05
6	0xbb062f1c	-0.0020474857
7	0x3a97e25f	0.001158785
8	0xbb1419fd	-0.0022598498
9	0xbb69fe30	-0.0035704486
10	0xb94b6eb6	-0.00019400832
11	0xbb092d9f	-0.0020931733
12	0xba51abc4	-0.00079983124
13	0xbaa55f96	-0.0012616988
14	0xba8bcd91	-0.0010666122
15	0x35128aa6	5.4591e-07
16	0xbb7aedad	-0.0038288638
17	0xa9f55e88	-1.0896584e-13
18	0xbb229d6e	-0.0024813074
19	0x39981eb8	0.00029014586
20	0x3891b4f1	6.947842e-05
21	0xbab618eb	-0.0013892924
22	0xa67a4919	-8.683524e-16
23	0xbb0c8804	-0.0021443376
24	0x3a5a3cf4	0.0008325123
25	0xbaad6b2a	-0.001323079
26	0xb8f27aee	-0.00011562357
27	0x39c27f38	0.0003709735
28	0xbaa071d4	-0.0012240955
29	0xb8b5ef92	-8.675376e-05
30	0xbbb28b0a	-0.0054487037
31	0x3a947241	0.0011325554
32	0xbb2acac6	-0.0026060804
33	0xba6b5928	-0.0008977824
34	0x39ea3f4d	0.0004467912
35	0xbb1b7017	-0.0023717934
36	0xb9282213	-0.00016034422
37	0xbb364afc	-0.002781569
38	0xba0cde7f	-0.00053737307
39	0xbacdcfff	-0.0015702246
40	0xbb0f4602	-0.0021861796
41	0x39f2836c	0.00046255754
42	0xbb106e9a	-0.002203858
43	0x3a15065c	0.00056848465
44	0xbaa1a615	-0.0012332821
45	0x38ea3854	0.000111684814
46	0xbb2cea06	-0.0026384606
47	0x39bf552a	0.0003649381
48	0xb7ca5473	-2.4119601e-05
49	0xb8d26240	-0.00010031881
50	0xbb11b651	-0.0022233913
51	0x8019f2b8	-2.382958e-39
52	0xbb024d3b	-0.0019882459
53	0xb91ae5eb	-0.00014772236
54	0xba2c00d9	-0.00065614056
55	0xb5b8ee2c	-1.3778385e-06
56	0x3bcf917a	0.006334481
57	0x39a8aedf	0.00032173746
58	0x80000004	-6e-45
59	0xbc701ad2	-0.014654832
60	0xbaf5cff4	-0.0018753991
61	0xbaaf9528	-0.0013395892
62	0xbbdb33d6	-0.006689529
63	0xbb13c7a0	-0.0022549406

bn_outlayer_in.running_var f4 [64]
0	0x379bcef6	1.8573814e-05
1	0x377f5780	1.5219557e-05
2	0x3971536c	0.00023014628
3	0x38f26412	0.00011558099
4	0x398cfe13	0.0002689218
5	0x34bd01dd	3.520535e-07
6	0x39189335	0.00014550689
7	0x37a196c5	1.9262903e-05
8	0x39a3cf70	0.00031244336
9	0x39cfc1f7	0.00039626632
10	0x3967d54f	0.0002210934
11	0x39a4e3ae	0.00031450152
12	0x3793b330	1.7607206e-05
13	0x38a6be2a	7.950918e-05
14	0x37b46410	2.1504267e-05
15	0x2f026d69	1.1862301e-10
16	0x3993ed34	0.00028214755
17	0x194607e2	1.0237952e-23
18	0x3981dc93	0.00024769138
19	0x372e87ea	1.0402853e-05
20	0x378c40db	1.6719501e-05
21	0x38a1dacc	7.717832e-05
22	0x1110e2b2	1.1429453e-28
23	0x396e0cab	0.00022702168
24	0x37bb2234	2.2308064e-05
25	0x390ac5b3	0.00013234354
26	0x36ec226c	7.0373553e-06
27	0x381611fc	3.5779536e-05
28	0x39809038	0.00024521514
29	0x3629c172	2.5295562e-06
30	0x38ef4518	0.00011409278
31	0x38212c0b	3.842641e-05
32	0x39a5906b	0.00031578852
33	0x3757dd16	1.2866474e-05
34	0x36eb5325	7.013225e-06
35	0x39c25316	0.00037064467
36	0x36de5ca6	6.6269013e-06
37	0x39114493	0.00013853823
38	0x37a864e7	2.0074147e-05
39	0x391ede3f	0.00015150847
40	0x39480292	0.00019074444
41	0x3724b867	9.818096e-06
42	0x38ac1ec5	8.2073304e-05
43	0x383ab5e2	4.4515247e-05
44	0x38ae8fef	8.323776e-05
45	0x380003e3	3.0521198e-05
46	0x39d209d3	0.0004006164
47	0x37158994	8.9131245e-06
48	0x35c95b40	1.5002224e-06
49	0x35d8891a	1.6133156e-06
50	0x39dc7921	0.00042051918
51	0x00000004	6e-45
52	0x393b9d30	0.00017892267
53	0x36b64deb	5.4330935e-06
54	0x38177a69	3.611521e-05
55	0x30c8ef76	1.4619974e-09
56	0x38a65823	7.9319136e-05
57	0x383c4492	4.4886554e-05
58	0x00000004	6e-45
59	0x3ac082b0	0.0014687385
60	0x39bb9317	0.0003577701
61	0x386c70ee	5.637196e-05
62	0x39410789	0.00018408721
63	0x398bfe05	0.00026701405

gnn_layers.0.gnn.att_i f4 [1, 1, 64]
0	0x3de4a350	0.11163962
1	0xbe3948c7	-0.18094169
2	0xbb9914a9	-0.0046716523
3	0x3ee2047e	0.44144052
4	0x3f02e7a9	0.51134735
5	0xbc31d21f	-0.010853319
6	0x3e271542	0.16316703
7	0xbf0a7677	-0.54087013
8	0x3f431d63	0.76216716
9	0x3f073350	0.5281267
10	0x3f6bfe0f	0.9218454
11	0xbc782399	-0.015145206
12	0xbf11e195	-0.56984836
13	0x3cf793cb	0.03022184
14	0x3d50ba7c	0.050959095
15	0x3e0ff743	0.14059167
16	0xbeee73cf	-0.4657273
17	0x34460299	1.8441132e-07
18	0x3dd0c1d5	0.101932205
19	0xbecc8c9f	-0.39951035
20	0xbeae6d19	-0.3406761
21	0x3f485cc5	0.78266555
22	0x3ea20371	0.3164325
23	0x3e1a8b41	0.15092184
24	0xbefe25ac	-0.49638116
25	0xbe30d878	-0.17270076
26	0x3dc6aba8	0.097007096
27	0x3d7a3646	0.061086915
28	0x3e28b300	0.16474533
29	0x3f0b4be0	0.5441265
30	0xbf28c9a7	-0.659327
31	0xbe97d109	-0.2965167
32	0x3f6c3212	0.922639
33	0xba888e84	-0.001041845
34	0xbeb04c6e	-0.3443331
35	0x3ee502e6	0.44728774
36	0xbc74073f	-0.014894306
37	0x3f0fce40	0.5617409
38	0xbf154af6	-0.58317506
39	0x3f1131a1	0.5671635
40	0x3dc68341	0.096930034
41	0xbf20e510	-0.6284952
42	0xbe8b0e91	-0.2715955
43	0x3e515dfe	0.20446011
44	0x3cdd27da	0.026996542
45	0xbe3bf31f	-0.18354462
46	0x3d6cbe8f	0.05779892
47	0xbea0d687	-0.3141367
48	0xbbbbddf7	-0.0057332474
49	0xbe326b93	-0.17423849
50	0x3ea812ba	0.32826787
51	0x3f15480e	0.5831307
52	0x3edd2223	0.43190107
53	0x3c99cf41	0.018775584
54	0xbe1998b6	-0.14999661
55	0xbf01b185	-0.506615
56	0x3eaa38f6	0.33246583
57	0xbe8dcfdf	-0.27697656
58	0x3f0737a9	0.52819306
59	0xbe53f003	-0.20697026
60	0x3daef918	0.085436046
61	0x3e5b3943	0.21408562
62	0x3eb101f0	0.3457179
63	0x3ea0ff38	0.31444716

gnn_layers.0.gnn.att_j f4 [1, 1, 64]
0	0xbe03ea67	-0.12882386
1	0xbe0d3ef5	-0.13793547
2	0xbcd5fe12	-0.026122127
3	0xbe4ce4fa	-0.20009223
4	0x3e065404	0.13117987
5	0xbe36fff3	-0.17871074
6	0x3c527f86	0.012847787
7	0xbe13a78f	-0.14419387
8	0xbdd8d5ab	-0.10587629
9	0x3af1b683	0.0018441234
10	0xbe865f72	-0.26244694
11	0x3df1a4b1	0.117989905
12	0x3dd07bfa	0.10179897
13	0x3e55ae49	0.20867266
14	0xbe693583	-0.2277432
15	0x3d41cf5c	0.047316894
16	0xbdebba2c	-0.11510119
17	0x35fc6007	1.8803411e-06
18	0xbd089c23	-0.03335203
19	0xbe3b4b5d	-0.18290468
20	0xbc7b0d3c	-0.01532298
21	0x3e4bc948	0.19901001
22	0xbe384961	-0.17996742
23	0x3e032889	0.12808432
24	0xbd902f2b	-0.070402466
25	0xbd90f7fc	-0.07078549
26	0xbe5ae6de	-0.21377131
27	0xbe2fcf40	-0.17168903
28	0x3d8e31df	0.06943106
29	0x3d8b0ea3	0.06789901
30	0xbe8c60e6	-0.27417678
31	0xbaea30fd	-0.0017867383
32	0x3d7cd8a6	0.06173005
33	0x3ddc5dc5	0.107600726
34	0xbe1a7da2	-0.15086988
35	0xbd67ca14	-0.0565892
36	0x3e0abaaf	0.13547777
37	0x3e4c6f7f	0.19964407
38	0xbe397b05	-0.18113334
39	0xbe10ea42	-0.14151862
40	0x3e7ec8f6	0.24881348
41	0xbe491cb0	-0.1963985
42	0x3daa3416	0.08310716
43	0xbc8caea8	-0.017173126
44	0x3e13ae89	0.14422049
45	0x3e355002	0.17706302
46	0xbd34cc1b	-0.044139963
47	0xbe085fc7	-0.13317786
48	0xbd34f475	-0.044178445
49	0xbc549cde	-0.012976853
50	0x3d231d14	0.039822653
51	0xbd4df598	-0.050283045
52	0xbe1dd1f1	-0.15412118
53	0x3e4d9923	0.20077948
54	0x3e4a9e51	0.19786955
55	0xbe27d623	-0.1639028
56	0x3dc98e49	0.09841592
57	0xbd8ea420	-0.06964898
58	0x3e6c3575	0.23067267
59	0xbda4d7b3	-0.08048954
60	0xbdae88b1	-0.085221656
61	0xbb21cde4	-0.002468937
62	0xbdaa2140	-0.08307123
63	0x3cc9cd92	0.024634156

gnn_layers.0.gnn.att_em_i f4 [1, 1, 64]
0	0xbd977064	-0.07394484
1	0xbd4a0427	-0.049320366
2	0xbe2a42ac	-0.16626996
3	0xbde9fe57	-0.114254646
4	0x3e8054fb	0.25064835
5	0xbe557d78	-0.20848644
6	0x3e752b86	0.23942384
7	0xbed68832	-0.41900784
8	0xbe5c5ae4	-0.21519047
9	0x3f18b055	0.5964406
10	0xbea0be46	-0.31395167
11	0x3d934ada	0.07192011
12	0x3f032862	0.51233494
13	0x3dede06a	0.11615069
14	0x3eca9316	0.39565343
15	0x3eda06ea	0.425834
16	0xbe40d35c	-0.18830627
17	0x3f805490	1.0025806
18	0x3edb1d2b	0.4279569
19	0xbe2c45d2	-0.1682351
20	0xbe20aa9e	-0.15690085
21	0x3eb7d4ea	0.35904628
22	0x3e84aab2	0.2591148
23	0xbdb627e2	-0.08894326
24	0xbe768c56	-0.24076971
25	0x3e22e817	0.15908848
26	0x3dfd78be	0.12376545
27	0xbdfdd273	-0.12393656
28	0xbec84d07	-0.39121267
29	0x3bbb4714	0.0057152603
30	0x3f0487fe	0.5177001
31	0xbdcb9b95	-0.09941784
32	0xbd479159	-0.0487226
33	0x3efd50d6	0.49475735
34	0xbeaa7a2b	-0.33296332
35	0xbe5ffebd	-0.21874519
36	0xbe233a0e	-0.15940115
37	0x3ea2a3d2	0.3176561
38	0x3dd59ea9	0.10430653
39	0x3c235e24	0.009971175
40	0x3c4b1118	0.012394212
41	0xbe961919	-0.29316023
42	0x3f544e85	0.8293231
43	0xbf0fe308	-0.562058
44	0x3ed3dbfa	0.41378766
45	0xbe885927	-0.26630518
46	0xbe46fa39	-0.1943139
47	0xbe2debaf	-0.16984437
48	0x3ec0357b	0.37540802
49	0x3e1457ab	0.14486568
50	0x3f2aeee8	0.6677079
51	0x3f4b56ed	0.79429513
52	0xbd9d5af7	-0.07683366
53	0x3edc11c9	0.4298232
54	0x3ec8343f	0.3910236
55	0x3e991936	0.29902047
56	0x3d10f0c7	0.035385873
57	0xbe36a318	-0.17835653
58	0x3f3c6568	0.73592234
59	0x3f94752f	1.1598262
60	0xbeb30e31	-0.34971765
61	0x3e9c2047	0.30493376
62	0x3e2993e2	0.16560319
63	0xbd855804	-0.06510928

gnn_layers.0.gnn.att_em_j f4 [1, 1, 64]
0	0xbe0790a7	-0.13238774
1	0x3e4f6925	0.20254953
2	0x3c1c91ad	0.009556216
3	0xbdcefaee	-0.10106455
4	0xbd6231cb	-0.055223268
5	0xb99c2a82	-0.0002978631
6	0xbd55d75e	-0.052207343
7	0x3e8076f5	0.25090757
8	0x3ee359ac	0.44404352
9	0xbf41cacc	-0.7570007
10	0x3f083e70	0.5322027
11	0xbe64a412	-0.22328213
12	0x3da54e8d	0.08071623
13	0xbd0e4360	-0.034732223
14	0xbe6a9201	-0.22907259
15	0x3f419ee1	0.75633055
16	0x3e6a56d5	0.22884686
17	0xbef4e131	-0.47828057
18	0xbd97a91e	-0.074053034
19	0x3ebef8d3	0.37299213
20	0x3e09fb33	0.13474731
21	0x3c31e71e	0.010858325
22	0x3e6010ac	0.2188136
23	0x3e216c07	0.15763865
24	0x3f1dc9e2	0.61636174
25	0x3f435b7a	0.7631146
26	0xbdb5cf8c	-0.08877477
27	0x3e11f369	0.1425301
28	0x3e5028a4	0.20328003
29	0xbe8a6ace	-0.2703461
30	0x3e881ad5	0.2658297
31	0x3d85ab96	0.06526868
32	0xbe9cc27c	-0.3061713
33	0xbdf14f1b	-0.11782666
34	0x3ecb9ab8	0.3976648
35	0x3f3347e7	0.7003159
36	0xbe09c9a0	-0.1345582
37	0x3dc97800	0.09837341
38	0x3e8fd1f8	0.2808988
39	0x3f0b0a0c	0.54312205
40	0xbdc92a32	-0.09822501
41	0x3ec43874	0.3832432
42	0xbf300dd5	-0.68771106
43	0x3ea3467a	0.31889707
44	0x3e8fcd41	0.28086284
45	0x3e822770	0.25420713
46	0x3efb6768	0.4910233
47	0x3e312fb2	0.1730335
48	0x3f23eebe	0.64036167
49	0xbe89fa19	-0.26948622
50	0xbe8e5de9	-0.27806023
51	0xbdab36d5	-0.08360068
52	0x3e7f6c21	0.24943592
53	0x3f02aeb0	0.510478
54	0x3e511320	0.20417452
55	0xbf0eceac	-0.55784106
56	0xbea521b9	-0.3225229
57	0x3e33e38b	0.1756727
58	0xbdb08341	-0.08618785
59	0xbe80ddfb	-0.25169358
60	0x3de50cee	0.11184107
61	0xbd4fc770	-0.050727308
62	0x3eba0671	0.3633304
63	0x3ef0e6a9	0.4705098

gnn_layers.0.gnn.bias f4 [64]
0	0x37cec8fb	2.4650702e-05
1	0xb9456801	-0.00018826129
2	0x37dd4a1c	2.6379763e-05
3	0xb7de8707	-2.652734e-05
4	0xb6ca0a6c	-6.0212824e-06
5	0x372c97bd	1.0287328e-05
6	0xb6c06d9e	-5.734807e-06
7	0x36a98c90	5.052956e-06
8	0xb6c0b167	-5.7426982e-06
9	0x35037c32	4.898203e-07
10	0xb6d52dad	-6.353212e-06
11	0xb89a6125	-7.361387e-05
12	0x385f99b3	5.3310487e-05
13	0x3858f618	5.1727606e-05
14	0xb92626c7	-0.0001584544
15	0x218869a5	9.243682e-19
16	0x37b222cd	2.1235459e-05
17	0x0072a350	1.0527832e-38
18	0x37cb7a70	2.42565e-05
19	0xb93d081c	-0.00018027466
20	0xb91bb1c2	-0.00014848172
21	0x3591f1c6	1.0873707e-06
22	0x01afeea6	6.462729e-38
23	0x3643716e	2.912329e-06
24	0xb703746e	-7.835317e-06
25	0xb836977b	-4.353326e-05
26	0x38cadac7	9.672861e-05
27	0x38cb9a38	9.70852e-05
28	0xb82e12eb	-4.150245e-05
29	0x359e8da5	1.1813141e-06
30	0x386adfd6	5.599841e-05
31	0x39867b06	0.0002565013
32	0x32bd1780	2.2013182e-08
33	0xb8e2cd56	-0.000108147666
34	0xb930aa67	-0.00016848148
35	0xb56bd92f	-8.7860366e-07
36	0x38d3afcb	0.00010094008
37	0xb5eac9c2	-1.7493078e-06
38	0xb8a9869c	-8.083621e-05
39	0x36e547ca	6.833089e-06
40	0x379d40de	1.8746065e-05
41	0xb6bbc47a	-5.595907e-06
42	0x36bb959c	5.590451e-06
43	0xb814ad73	-3.5447487e-05
44	0xb6a85a3e	-5.0172957e-06
45	0xb85db2e6	-5.2857118e-05
46	0xb6b074ad	-5.2587916e-06
47	0xb8c7c373	-9.525465e-05
48	0xb915012c	-0.00014210184
49	0x38a26842	7.7441815e-05
50	0xb65a6a92	-3.2546563e-06
51	0x01752680	4.5027016e-38
52	0xb7181cb4	-9.066589e-06
53	0xb8261ca4	-3.9604158e-05
54	0xb494d705	-2.7723596e-07
55	0x90eb20ae	-9.274151e-29
56	0xb6f45214	-7.281322e-06
57	0xb9792d21	-0.00023763302
58	0x014879d4	3.6821606e-38
59	0x3769a883	1.3927117e-05
60	0xb82a88c0	-4.0658517e-05
61	0xb4f68db1	-4.5924165e-07
62	0xb69d4ce7	-4.687917e-06
63	0xb7702370	-1.4313366e-05

gnn_layers.0.gnn.lin.weight f4 [64, 5]
0	0xbc18d198	-0.009327315
1	0xbe8b50f3	-0.27210197
2	0xbe7fc7fc	-0.24978632
3	0x3e1068ee	0.14102527
4	0x3df99ad7	0.121877365
5	0xbdb9c6bd	-0.090711094
6	0x3dfe00ed	0.1240252
7	0xbdac33b3	-0.08408298
8	0x3deb7905	0.11497692
9	0xbeba94f7	-0.36441776
10	0x3db5be3f	0.08874177
11	0x3df1a00f	0.11798107
12	0x3dd22c54	0.10262361
13	0x3cf686dc	0.030093603
14	0xbd5676e5	-0.05235948
15	0xbe40d68e	-0.18831846
16	0xbe477584	-0.19478422
17	0x3e3bb6ce	0.18331453
18	0x3e1fab8d	0.15592785
19	0x3e219042	0.15777686
20	0x3d5b44e5	0.0535325
21	0xbdef81eb	-0.11694702
22	0x3e689298	0.22712171
23	0x3e76cf95	0.24102624
24	0x3e9900c0	0.29883385
25	0xbe105f3c	-0.14098829
26	0xbe235fff	-0.15954588
27	0x3e56a4d3	0.20961313
28	0xbdbd8ccf	-0.09255373
29	0xbde22f1e	-0.11044143
30	0xbce14dae	-0.02750286
31	0x3d49ffd9	0.04931626
32	0xbd09a7a1	-0.03360713
33	0x3e1bb8cb	0.15207212
34	0x3ddb5b9b	0.10710832
35	0x3cd68a1f	0.026188908
36	0x3b4eb4fc	0.003154098
37	0xbca46f08	-0.020072475
38	0x3d26bfcf	0.040710267
39	0xbf297b4e	-0.66203773
40	0xbdf622ba	-0.12018342
41	0xbdbeb5de	-0.09312032
42	0x3e9ffed5	0.3124911
43	0x3eb830a2	0.35974604
44	0x3f185422	0.59503376
45	0xbdbe954b	-0.09305819
46	0xbd97aaeb	-0.07405647
47	0x3e74ad02	0.23894122
48	0x3eaad1b5	0.3336312
49	0x3e8db515	0.27677217
50	0xbe8d6f2e	-0.27623886
51	0xbe79469f	-0.24343346
52	0x3e6ba47c	0.23011965
53	0x3e806c69	0.2508271
54	0x3f1bbe25	0.6083701
55	0xbd2676d3	-0.040640663
56	0xbca8f2ba	-0.020623554
57	0x3eb8d712	0.36101586
58	0xbd036701	-0.032080654
59	0xbe49c46d	-0.19703837
60	0xbc50f077	-0.012752644
61	0xbdc4ece3	-0.09615495
62	0xbe506997	-0.2035278
63	0xbeaf5f38	-0.34252334
64	0xbec8e53b	-0.3923739
65	0xbd027f2b	-0.031859558
66	0x3d6ba49b	0.057530027
67	0x3da7d2e1	0.08194519
68	0xbe96efc8	-0.29479814
69	0x3eb6b113	0.35681972
70	0xbe6610b7	-0.22467314
71	0xbe424b8a	-0.18974128
72	0x3e2babad	0.16764708
73	0x3deb863c	0.115002126
74	0xbe720b22	-0.2363706
75	0xbbc43c57	-0.0059886384
76	0xbd58b871	-0.052910272
77	0x3dac10b4	0.08401623
78	0xbbd696a1	-0.006548718
79	0x3e0ea352	0.1392949
80	0xbc0a16c7	-0.008428282
81	0x3d44be2e	0.048032932
82	0xbdfee5df	-0.12446188
83	0xbe528aeb	-0.20560805
84	0xbece4954	-0.4029032
85	0x35ce9bfa	1.5393591e-06
86	0xb6fd1a12	-7.5430225e-06
87	0xb63e7942	-2.8382788e-06
88	0xb6825be0	-3.8849976e-06
89	0x371d2c9a	9.368314e-06
90	0x3dbf648f	0.09345352
91	0xbdd2b6ac	-0.10288748
92	0x3de6e46e	0.11274038
93	0x3dc48cd1	0.09597171
94	0xbd0bf254	-0.03416665
95	0xb98b4e32	-0.00026570406
96	0x3c38bec9	0.0112759555
97	0x3c475f6f	0.012168749
98	0x3d9e9547	0.07743316
99	0xbf0da10e	-0.55323875
100	0x3e8cd554	0.27506506
101	0xbe8fa924	-0.28058732
102	0xbd48be25	-0.04900946
103	0xbe798421	-0.2436681
104	0x3dbc8020	0.092041254
105	0xbe25596e	-0.16147396
106	0xbe2b45bc	-0.1672582
107	0x3da640be	0.08117817
108	0x3edca195	0.43092027
109	0x3ef8950c	0.48551214
110	0x3c9365b0	0.017992824
111	0x3c70ae75	0.014690031
112	0x3e2a16b4	0.16610223
113	0x3e7486a5	0.23879488
114	0x3d3a16b9	0.045431826
115	0x3e2459ca	0.16049877
116	0x3c82e226	0.015976977
117	0x3e2fc801	0.17166139
118	0x3e43bc8a	0.1911489
119	0xbe0f2e8c	-0.139826
120	0xbd855a60	-0.06511378
121	0xba7cc052	-0.0009641695
122	0x3da2f1c6	0.07956271
123	0xbf0a0a2a	-0.5392176
124	0xbd103477	-0.035206284
125	0x3e7e9ff9	0.24865712
126	0x3dc303c7	0.09522205
127	0x3e0e703b	0.1391
128	0xbddfa566	-0.10920219
129	0xbe392c0e	-0.18083212
130	0xbe00a3b2	-0.12562445
131	0xbe3993d4	-0.18122798
132	0x3e2aec54	0.16691715
133	0x3e47e973	0.19522648
134	0xbe78727c	-0.24262422
135	0x3d7dbad4	0.06194575
136	0xbe66958d	-0.22517987
137	0x3e090aa5	0.13382967
138	0x3dc996e3	0.098432325
139	0xbe343599	-0.17598571
140	0x3c2133b4	0.009838987
141	0xbd919bd2	-0.071097985
142	0xbc79de44	-0.015250746
143	0x3eb916c1	0.36150172
144	0xbe3a588b	-0.18197839
145	0xbe59d8fa	-0.21274176
146	0xbe2f9666	-0.17147216
147	0x3d377c41	0.044796232
148	0x3ea0174a	0.31267768
149	0x3ea285f1	0.31742814
150	0xbd8c04f6	-0.06836884
151	0xbd23d76b	-0.04000036
152	0xbe2ed0d0	-0.17071843
153	0xbeb47d5d	-0.35251895
154	0xbee2785b	-0.4423245
155	0x3c5bb35c	0.013409462
156	0xbe574481	-0.21022226
157	0x3a020d40	0.0004961081
158	0xbe669555	-0.22517903
159	0xbe23e10b	-0.16003816
160	0xbe21aff3	-0.15789776
161	0x3d8efef0	0.06982219
162	0x3ecc989d	0.39960185
163	0x3edf9293	0.43666515
164	0x3f23b5c8	0.6394925
165	0xbe4fe85e	-0.20303485
166	0xbe1c4939	-0.15262307
167	0x3e44c285	0.19214828
168	0xbe696f81	-0.22796442
169	0xbddca213	-0.10773101
170	0xbbefb190	-0.0073148683
171	0xbac499c8	-0.0014999444
172	0x3bfd194e	0.007723964
173	0x3d3f21aa	0.046662964
174	0xbefec402	-0.49758917
175	0xbd4c8121	-0.049927834
176	0xbde74553	-0.112925194
177	0xbd3806f5	-0.04492851
178	0x3cb4d4c8	0.022074118
179	0x3f09c3a8	0.5381417
180	0xbe3cd86a	-0.1844193
181	0x3e0bf657	0.1366819
182	0xbe545b71	-0.20738007
183	0x3e4cf625	0.20015772
184	0xbe5fbb01	-0.2184868
185	0x3e1c6dd8	0.15276277
186	0x3e3665cb	0.17812268
187	0x3e63c73b	0.22243969
188	0x3eb8ce0c	0.360947
189	0x3eb4fa33	0.35347137
190	0xbe3a74c5	-0.18208607
191	0xbd7d7771	-0.061881486
192	0xbd9c972d	-0.07646022
193	0xbe73cd90	-0.23808885
194	0xbf04a2b9	-0.51810795
195	0xbd9bccb8	-0.076074064
196	0xbe131ccc	-0.14366454
197	0xbd9238dd	-0.07139752
198	0x3eb091ad	0.34486142
199	0x3ee696fb	0.45037064
200	0x3db8f707	0.09031492
201	0xbc83df7a	-0.016097773
202	0xbe4945f7	-0.19655596
203	0xbdab21b0	-0.08356035
204	0x3eb9d48e	0.3629498
205	0xbde17a28	-0.110096276
206	0xbdf29c1b	-0.11846181
207	0xbe0da4f7	-0.1383246
208	0xbedaa36c	-0.42702806
209	0xbecffc4f	-0.40622184
210	0xbe39faeb	-0.18162124
211	0xbe6aeac7	-0.22941123
212	0xbe9aff66	-0.3027298
213	0x3e5e067b	0.2168216
214	0xbdcd414d	-0.10022221
215	0xbe4537ab	-0.19259517
216	0x3c2e8d69	0.010653832
217	0x3e6f2f50	0.23357892
218	0x3e16eff4	0.14739972
219	0xbe81caec	-0.2535013
220	0xba69767c	-0.00089059
221	0x3de3f4b9	0.111306615
222	0xbdbc256b	-0.091868244
223	0xbe0ecd9a	-0.13945618
224	0x3e9d2047	0.30688688
225	0xbc8087fd	-0.015689844
226	0x3c866412	0.01640514
227	0x3dd62298	0.10455817
228	0xbea3905a	-0.3194607
229	0xbd327e4b	-0.043577474
230	0x3cf9a21a	0.030472804
231	0x3b9bcb7a	0.004754481
232	0xbcfb4c5f	-0.030676065
233	0xbdc4b27a	-0.09604354
234	0x3e57b99a	0.21066895
235	0xbd0d80dc	-0.034546718
236	0xbb9c9d18	-0.004779469
237	0x3daf9727	0.08573752
238	0xbee28d2e	-0.44248337
239	0xbaa8b7e3	-0.0012872185
240	0x3b2a53e8	0.0025989953
241	0x3d326d60	0.04356134
242	0x3e0f9d11	0.1402476
243	0x3e04e84f	0.12979244
244	0xbe7ec22d	-0.2487876
245	0xbdb74e2c	-0.08950457
246	0xbe007097	-0.1254295
247	0xbe425ffd	-0.18981929
248	0x3e26f37d	0.16303821
249	0xbe5a7cc8	-0.21336663
250	0xbde1670d	-0.110059835
251	0xbe52a1d9	-0.20569552
252	0x3e46dd00	0.19420242
253	0x3e23b273	0.15986042
254	0x3c9d53dc	0.019205026
255	0xbdabad1b	-0.083826266

gnn_layers.0.bn.weight f4 [64]
0	0x3e296f1f	0.16546296
1	0x3ea34818	0.3189094
2	0x3e15a46e	0.14613506
3	0x3db90df6	0.09035866
4	0x3e09c782	0.13455012
5	0x3e654d61	0.22392799
6	0x3db03fbe	0.08605908
7	0x3e888c8d	0.26669732
8	0x3e357aab	0.17722575
9	0x3dc05d7c	0.09392831
10	0x3e2b311d	0.16717954
11	0x3e257a16	0.16159853
12	0x3e559347	0.20856963
13	0x3e1921bf	0.1495428
14	0x3e8a4da9	0.27012375
15	0x38d68a5d	0.00010230087
16	0x3dcb7e14	0.09936157
17	0x340f1f48	1.3329293e-07
18	0x3df7c6f4	0.12098494
19	0x3f09e3f4	0.53863454
20	0x3e5a92f4	0.2134512
21	0x3dbbd272	0.09170999
22	0x2a15a72f	1.3291862e-13
23	0x3e1f9463	0.15583949
24	0x3eb5baf9	0.3549421
25	0x3e0e7f2b	0.13915698
26	0x3e21682d	0.15762396
27	0x3e87005d	0.26367465
28	0x3e313c1c	0.17308086
29	0xbdbf55d9	-0.09342546
30	0x3f0039c4	0.50088143
31	0x3ecfb650	0.4056878
32	0x3e02c14e	0.12769052
33	0x3e7ee7b7	0.2489308
34	0x3ed4f759	0.4159496
35	0x3e338004	0.17529303
36	0x3e4ebbc4	0.20188814
37	0x3dc60186	0.09668259
38	0x3ee6c7e9	0.45074394
39	0x3e2642d1	0.16236426
40	0x3e15e4e6	0.14638099
41	0x3ed22a39	0.41047838
42	0x3e934feb	0.2877191
43	0x3d83b7d5	0.064315476
44	0x3df61597	0.12015837
45	0x3edf9b8f	0.4367337
46	0x3e6a5702	0.22884753
47	0x3e432f59	0.1906103
48	0x3d395176	0.045243703
49	0x3e5466ab	0.2074229
50	0x3dd9ed0f	0.106409185
51	0x01211f58	2.9593518e-38
52	0x3e1f0a7f	0.15531348
53	0x3ddd30b3	0.10800304
54	0x3d9f48b5	0.0777754
55	0x3c9c1af3	0.01905582
56	0x3d6dc788	0.058051616
57	0x3e91fbad	0.28512326
58	0x0014c7fd	1.908452e-39
59	0x3e0d9337	0.1382569
60	0x3e37d95a	0.17954007
61	0x3dc81b31	0.09770811
62	0x3d83c122	0.064333215
63	0x3e28714c	0.1644947

gnn_layers.0.bn.bias f4 [64]
0	0xbd40a252	-0.0470298
1	0xbd926bcb	-0.07149466
2	0xbd90a6a9	-0.07063038
3	0x3d06a02b	0.03286759
4	0xbd480dd8	-0.048841327
5	0xbe22d876	-0.15902886
6	0x3d59ef4b	0.053206723
7	0xbd676edc	-0.056502208
8	0xbd6ce08f	-0.057831343
9	0xbd7b44bd	-0.06134485
10	0xbd8aa778	-0.067702234
11	0xbd6b283c	-0.057411417
12	0xbda5f25f	-0.08102869
13	0xbe7ffbc6	-0.24998388
14	0xbdaf8d19	-0.08571834
15	0xb8eff3ba	-0.00011441806
16	0x3e3b180a	0.18270889
17	0xaf2058a6	-1.458341e-10
18	0x3ceb3a01	0.028714182
19	0xbe8457cd	-0.25848237
20	0xbcd36daa	-0.025809128
21	0xbd68bbfd	-0.056819905
22	0x98fd4e61	-6.547811e-24
23	0xbd8bce1f	-0.06826424
24	0xbdf115f4	-0.11771765
25	0xbd881e64	-0.066464216
26	0xbdc67ada	-0.09691401
27	0xbcde3449	-0.02712454
28	0xbd8cf28b	-0.06882199
29	0xbd855854	-0.06510988
30	0xbdf55ca4	-0.119805604
31	0xbd8e9841	-0.06962634
32	0xbd52a7c6	-0.051429532
33	0xbdda0700	-0.106458664
34	0xbe566995	-0.20938714
35	0xbda89c68	-0.08232957
36	0xbe00146f	-0.12507795
37	0x3d7a9b8b	0.061183494
38	0xbe4d01f9	-0.20020284
39	0xbd74e38e	-0.059787326
40	0xbdbf1565	-0.093302526
41	0xbe41d963	-0.18930583
42	0xbdfe4379	-0.12415213
43	0xbb72f1ae	-0.0037070322
44	0xbe29db9c	-0.1658768
45	0xbe17398c	-0.14768046
46	0xbde96b88	-0.11397463
47	0xbd06e047	-0.03292873
48	0xbe117983	-0.1420651
49	0xbe28c68b	-0.16481988
50	0xbd3994e8	-0.045308024
51	0x014112a2	3.546187e-38
52	0xbd6c26ab	-0.057654064
53	0xbda7384e	-0.08165036
54	0xbd8152b3	-0.06314602
55	0xbc8d9fba	-0.017288078
56	0x3de561e0	0.11200309
57	0xbd0bdc20	-0.034145474
58	0x812eba0c	-3.2092235e-38
59	0x3df4a548	0.119455874
60	0xbdb6aece	-0.0892006
61	0xbd7f2436	-0.062290393
62	0x3e1f1be8	0.15537989
63	0xbd8b9023	-0.06814601

gnn_layers.0.bn.running_mean f4 [64]
0	0xbc7337f5	-0.014844884
1	0xbc8a06bc	-0.016848914
2	0x3c8196f2	0.015819047
3	0x3bd789df	0.006577715
4	0x3d220650	0.0395568
5	0xbc909a60	-0.017651737
6	0x3c7199cb	0.01474614
7	0xbd131572	-0.035909124
8	0x3d77d0d9	0.060501907
9	0x3d1f890f	0.03894907
10	0x3d0955f5	0.03352924
11	0x3b581ea3	0.0032977245
12	0xbd756c43	-0.0599177
13	0x3c27e2ad	0.010246915
14	0xbcb8efe8	-0.022575334
15	0x3c1356bd	0.008992848
16	0xbd230eda	-0.039809085
17	0xb5602edc	-8.351469e-07
18	0x3c0c7edf	0.00857517
19	0xbcd88443	-0.026430255
20	0xbc4fb0f3	-0.012676465
21	0x3d2095ca	0.03920535
22	0x3cdd342d	0.027002418
23	0x3cb0bdd8	0.0215749
24	0xbd02b93f	-0.031914946
25	0x3c1e703c	0.009670313
26	0xbc3e4218	-0.011612438
27	0xbbdf3630	-0.0068118796
28	0x3bb2f7c9	0.005461667
29	0x3c90a2fa	0.017655838
30	0xbd7b9a82	-0.061426647
31	0xbd0b148a	-0.033955134
32	0x3da3dfcd	0.08001671
33	0xbcee2583	-0.029070621
34	0xbcd8944d	-0.026437903
35	0x3cac6e91	0.021048816
36	0xbc631feb	-0.01386259
37	0x3d93be2c	0.07214007
38	0xbd7c057c	-0.061528668
39	0x3cf2dc24	0.029645987
40	0x3c23180c	0.009954464
41	0xbd8ca125	-0.068666734
42	0xbd0923ec	-0.033481523
43	0xbb330c65	-0.002732062
44	0x3c3e1f91	0.011604206
45	0xbc6f5e60	-0.014609903
46	0x3bed2037	0.0072365063
47	0xbcb8ece0	-0.022573888
48	0x3b419660	0.0029539093
49	0xbcd1558c	-0.025553487
50	0x3b3aff8f	0.0028533672
51	0x3d339598	0.043843836
52	0x3ca8d058	0.020607159
53	0xbc2c2ead	-0.010509175
54	0x3c7eb851	0.015546874
55	0xbd69a06c	-0.057037756
56	0x3c2aa2e2	0.010414811
57	0xbba219d9	-0.004946929
58	0x3d34f4c7	0.04417875
59	0xbb861550	-0.004091896
60	0x3c1c9323	0.0095565645
61	0x3c562546	0.01307041
62	0xbd054528	-0.032536656
63	0x3cad5915	0.021160642

gnn_layers.0.bn.running_var f4 [64]
0	0x3b39fc63	0.0028379194
1	0x3b591c46	0.0033128425
2	0x3b2fde0e	0.0026835236
3	0x3aa0da8c	0.0012272163
4	0x3c89312e	0.016747084
5	0x3b505544	0.0031789104
6	0x3b14647f	0.0022642908
7	0x3c641073	0.013919937
8	0x3d21685d	0.03940617
9	0x3c878521	0.016542973
10	0x3c6bb4b5	0.014386346
11	0x3a36ec23	0.0006977936
12	0x3d179869	0.037010584
13	0x3ac4aba6	0.0015004769
14	0x3ba97223	0.005171077
15	0x3a726958	0.0009247265
16	0x3c889081	0.016670467
17	0x2d24eb81	9.374613e-12
18	0x3a7c712a	0.00096299
19	0x3bf7e19c	0.0075647365
20	0x3b1849dd	0.0023237385
21	0x3c909e7d	0.017653698
22	0x3bfdfd81	0.0077511673
23	0x3badbde2	0.005302177
24	0x3c356301	0.011070968
25	0x3aef6c14	0.0018266463
26	0x3acccfea	0.0015625928
27	0x3a2d3393	0.00066071114
28	0x3a424bff	0.0007411837
29	0x3b9689ed	0.0045940788
30	0x3d1f4e39	0.03889296
31	0x3c3ed884	0.011648301
32	0x3d89ef29	0.06735069
33	0x3c0b6745	0.008508508
34	0x3bf2ffc4	0.0074157435
35	0x3bafdfb3	0.005367243
36	0x3b2b0dff	0.0026100872
37	0x3d5946ed	0.053046156
38	0x3d1dafad	0.038497616
39	0x3c26ef60	0.010188907
40	0x3aadccec	0.0013259924
41	0x3d4562c6	0.0481899
42	0x3c4707ca	0.012147853
43	0x39fd507e	0.00048315892
44	0x3ac58def	0.0015072207
45	0x3b20686b	0.00244763
46	0x3a1f31a8	0.0006072768
47	0x3bb90c77	0.005647238
48	0x39cbf5e9	0.00038902395
49	0x3be01dee	0.0068395054
50	0x3a0e0f11	0.0005419115
51	0x3cac0575	0.020998696
52	0x3b9f5144	0.0048619825
53	0x3ac394fb	0.0014921719
54	0x3b2dd736	0.002652598
55	0x3d08e463	0.03342093
56	0x3ace20b4	0.0015726299
57	0x3a538df3	0.00080701633
58	0x3ca4c457	0.020113153
59	0x3a2f97bf	0.0006698332
60	0x3ab33026	0.0013670966
61	0x3aff22e0	0.001946535
62	0x3c3a632f	0.011376186
63	0x3ba23883	0.0049505844

out_layer.mlp.0.weight f4 [1, 64]
0	0x3c007180	0.0078395605
1	0xbce4a102	-0.027908806
2	0x3d214cc8	0.039379865
3	0x3ca6ed02	0.020376686
4	0x3d343fd2	0.044006176
5	0x3cfc41e6	0.030793142
6	0x3d41d332	0.047320552
7	0xbdb4de9a	-0.088315204
8	0x3ce5eb6f	0.028066365
9	0xbcdf8bfe	-0.027288433
10	0x3cab9cd6	0.020948809
11	0x3d004ce6	0.031323336
12	0xbd92b6fc	-0.07163808
13	0x3d5d7f50	0.054076493
14	0x3d3d379b	0.046195608
15	0x39d73747	0.0004104918
16	0xbd1d1533	-0.038350295
17	0x34fe6a76	4.7388647e-07
18	0x3da12e33	0.0787014
19	0xbce0f54b	-0.027460715
20	0xbcbdcc66	-0.023168754
21	0xbd0dc9ef	-0.034616407
22	0xb8630738	-5.412774e-05
23	0x3d0677aa	0.032828964
24	0xbc9d5972	-0.01920769
25	0x3d0477a6	0.03234067
26	0x3d0d16c5	0.034445543
27	0xbc6c1385	-0.014408951
28	0x3cd3e236	0.025864702
29	0xbda3963a	-0.07987638
30	0x3d3683b1	0.044559184
31	0xbd518868	-0.051155478
32	0x3d45d0d1	0.048294846
33	0x3daca766	0.08430366
34	0xbd03c851	-0.03217346
35	0x3cffed8d	0.031241203
36	0x3cf876f4	0.030330159
37	0xbd0a0781	-0.033698563
38	0xbd2362a5	-0.039888997
39	0x3cc6c0b1	0.024261804
40	0x3d60956b	0.054829996
41	0xbcbf9d02	-0.023390297
42	0x3dae7ca2	0.085198656
43	0x3c8bf59f	0.017084895
44	0x3d55c25a	0.0521873
45	0xbc898eca	-0.01679172
46	0x3d0eaf56	0.034835182
47	0xbd0137cc	-0.031547353
48	0x3d82bb70	0.06383407
49	0x3d855814	0.0651094
50	0xbd6f3430	-0.05839938
51	0x29961fae	6.666834e-14
52	0x3ce42387	0.027848972
53	0x3d776095	0.060394842
54	0xbd087d89	-0.033322845
55	0xbc952b16	-0.018209022
56	0xbd2f54cc	-0.042805478
57	0xbc98a030	-0.01863107
58	0x328550d5	1.5519996e-08
59	0x3ce96508	0.028490558
60	0x3d1a361f	0.03764927
61	0xbd2f0c65	-0.04273643
62	0xbd657786	-0.05602219
63	0x3cd8d189	0.026467102
