gdn_sensor0.pth (torch, 66190 bytes, 16 tensors)

embedding.weight f4 [1, 128]
00000000: 49a7 06bd 7bc9 1b3e c204 cabc 4d3a b6bc
00000010: bfdc 21bd 5a47 31bc bc1a 1e3d 84cb c5bc
00000020: fc38 05bd e2e4 d4bd 24b8 a0bc 459a fb3c
00000030: 89a6 8d37 2f0f 62b9 3fad b3bc cc83 50b8
00000040: d02e 57bc f4df c03c 25db ab3d eeee 0b3e
00000050: d80c abbd 9f7f f43c 3d9e f73c 31f3 713d
00000060: b599 a33c 924f 1ebd 1d99 40ba 89d8 94b8
00000070: 71bd c0bc 4383 56bc b0a4 8b3d 1d3f 03b8
00000080: 097e e6bc a973 17bd 5bb7 bbbc 5fed 84b8
00000090: 6108 5b3d 44e9 883d 7386 bd3d 334b 18bd
000000a0: f1e2 edb6 816c 4dbb 7b09 74bc 22ec 443d
000000b0: 496e fcb9 2cd1 023d 1e23 40bc 049b 083e
000000c0: fc8c 9abc 8094 9dbc 67d4 683d 7543 f3bc
000000d0: e0f1 fcbc 29e9 efbc 41e1 02b8 8135 a93c
000000e0: b004 c33d 7262 86bc 902d 58b9 77c4 603d
000000f0: 78ad 75bc 19ff f0b9 7ef7 1b3d 924d 9cb9
00000100: 666b 8037 2784 c53d 6fb2 d6bc 903f 493d
00000110: eb66 57ba 1850 bdba bf09 29bd adcf 633d
00000120: af7d 133d f619 0f3c eb8e 973d cf07 cfbc
00000130: 3cce 86bc d558 babc 5b7c e03c 5019 95bb
00000140: ab38 bfbb ab86 9b3d b8be 883d 385c 103d
00000150: 02df 4cbd 5cce c9bc c2ca 793c c3ac ad3c
00000160: 2dfb 1dbd 9bbd 1a3e c003 2fbd b9ad 013d
00000170: a736 313d a32e c13d 7a29 8c37 a85a ab36
00000180: c359 a73d 911c 21bd e644 573d e9ab 9ebc
00000190: 811c 653d 3cf8 983c abb9 c2bc c17c 283e
000001a0: dc6c e1bc e2a0 f23d 6d24 823d 052b bbb9
000001b0: f411 ec38 7e95 dc3d 5736 6a3d c29b 973d
000001c0: 3316 3ebc 8b84 e5bc 63ac 9ab8 32aa 8a3d
000001d0: 99ce 50bc f566 05bd 5bd8 4c3d 6bf7 88ba
000001e0: da00 26bd 72db 973d ca2f 11bd 8fa1 283d
000001f0: 0aa9 3c3d e23f d8bc bd75 90bc 65ed 62b9
-0.03287438 0.15213577 -0.024660472 -0.022244597 -0.03951716 -0.010820234 0.038599715 -0.024144895
-0.032525048 -0.103952184 -0.019619055 0.03071321 1.6886059e-05 -0.00021558696 -0.021933196 -4.971381e-05
-0.01313372 0.02354429 0.08391408 0.13665363 -0.08352059 0.02984601 0.030226821 0.059069816
0.019970754 -0.038650103 -0.00073470344 -7.097523e-05 -0.023527833 -0.013092819 0.06818521 -3.1291613e-05
-0.02813627 -0.036975536 -0.02291458 -6.338464e-05 0.053474788 0.06685117 0.0925416 -0.03718109
-7.08957e-06 -0.003134519 -0.014894838 0.048076756 -0.00048147354 0.031937763 -0.011727123 0.13340384
-0.018866055 -0.01923585 0.056843188 -0.029695252 -0.030877054 -0.029285984 -3.12042e-05 0.020655395
0.095223784 -0.016404364 -0.00020616339 0.054874863 -0.014994971 -0.0004596643 0.038077824 -0.00029812433
1.53088e-05 0.09644347 -0.02620813 0.049132884 -0.0008216935 -0.0014443425 -0.04126906 0.055617977
0.036008533 0.008734217 0.07400306 -0.025272278 -0.016455762 -0.022747437 0.027403047 -0.0045501366
-0.005835613 0.07594045 0.06677002 0.035244197 -0.050017364 -0.024634533 0.015246095 0.021200543
-0.038569618 0.15111391 -0.042728186 0.031659815 0.04326501 0.094327234 1.6708615e-05 5.106751e-06
0.081714176 -0.039333884 0.05255594 -0.019369083 0.055935387 0.018673055 -0.023770174 0.1645384
-0.027517729 0.11847092 0.06354604 -0.00035699471 0.00011256701 0.10770701 0.05718073 0.07402755
-0.011601972 -0.028017303 -7.375402e-05 0.067707434 -0.012744569 -0.03256889 0.05001102 -0.0010449713
-0.040528156 0.07414903 -0.035445966 0.0411697 0.046059646 -0.02639765 -0.017634267 -0.00021641476

bn_outlayer_in.weight f4 [128]
00000000: 37f3 663f e8a6 6b3f 0c1a 643f ab45 673f
00000010: 5c3b 753f 8bc3 693f a316 653f 2dc8 733f
00000020: 681a 6b3f f75a 683f 62d6 6b3f 5aac 693f
00000030: 4971 5e3f e79d 703f 52d2 663f a0ec 643f
00000040: 578d 6d3f 6b24 673f 4aad 673f 9669 643f
00000050: ac46 5e3f 8777 5d3f 317a 643f c98e 6b3f
00000060: 63b6 693f fee1 673f 2821 5e3f 2205 6c3f
00000070: 5016 653f 83a8 6b3f c5ca 673f 098a 6d3f
00000080: ffd4 6b3f 7a02 6d3f 0b30 633f e0ab 6e3f
00000090: d33b 6a3f 9c4b 6c3f b831 643f 8fcd 723f
000000a0: 2c38 0f3f f380 653f 04f6 693f 08a3 703f
000000b0: a67d 693f 362b 753f b5c4 653f 31a7 6a3f
000000c0: 7542 6c3f c478 593f 1f9c 6f3f 309f 703f
000000d0: 4873 713f e999 673f f45d 623f abfc 683f
000000e0: a802 653f a21e 673f 531b 6d3f 1089 673f
000000f0: 5609 683f 2236 6e3f d76b 5e3f 9496 6b3f
00000100: 6101 473f 61a3 6d3f 6649 6e3f 9ff2 653f
00000110: 4e9e 463f ceaf 683f 64da 5c3f 9ec2 653f
00000120: eb50 503f 174a 613f b36f 643f a751 6d3f
00000130: 16c6 723f a4b3 683f 18ed 643f 5d33 643f
00000140: 5a8f 673f 63ad 673f dc24 613f aa95 643f
00000150: 15a5 6a3f 7d5b 6e3f 86a7 5e3f 8810 633f
00000160: 8ab1 643f 2a25 6e3f edbe 6b3f a1d0 663f
00000170: 0bc0 603f 96ea 723f a084 503f d248 6a3f
00000180: 1136 623f 34bb 743f e4f7 633f ebf5 533f
00000190: 044c 613f a628 623f 276b 6a3f ccfe 693f
000001a0: bafa 6b3f b388 693f 95f2 6e3f f8f2 6b3f
000001b0: 0270 603f 6ac9 6f3f d424 633f 1bdd 633f
000001c0: a296 663f f977 623f ffe5 453f ecb4 5e3f
000001d0: b521 6a3f 63db 673f e203 6b3f b807 663f
000001e0: f331 633f a829 663f b721 773f 133f 6d3f
000001f0: 70d6 663f c557 773f 1c0c 703f 2d8c 6a3f
0.90214866 0.92051554 0.89102244 0.9034068 0.957937 0.91314 0.89487666 0.9522732
0.9183717 0.907638 0.92124 0.9127861 0.8689161 0.9399094 0.90164673 0.8942356
0.9279379 0.90289944 0.90498793 0.8922361 0.86826587 0.8651051 0.8924895 0.9201475
0.91293925 0.9057921 0.8676934 0.9219533 0.8948717 0.92054003 0.90543777 0.9278875
0.9212188 0.92581904 0.8874518 0.9323101 0.91497535 0.9230287 0.89138365 0.9484491
0.55945086 0.89649886 0.91391015 0.93998766 0.9120735 0.9576906 0.89753276 0.91661364
0.92288905 0.849499 0.93597597 0.939929 0.9431653 0.90469223 0.8842461 0.9101054
0.8945718 0.90281117 0.9261982 0.90443516 0.90639246 0.9305135 0.868833 0.9202664
0.7773648 0.9282742 0.9308075 0.89823335 0.77585304 0.90893257 0.8627074 0.8975009
0.8137347 0.8800368 0.8923294 0.92702717 0.94833505 0.9089911 0.89424276 0.89140874
0.9045311 0.9049894 0.8794687 0.8929087 0.91658145 0.9310835 0.8697437 0.886971
0.89333403 0.9302546 0.92088205 0.9016209 0.87793034 0.948892 0.8145237 0.91517365
0.8836375 0.9559815 0.89050126 0.82797116 0.88006616 0.88343275 0.9156975 0.91404414
0.92179453 0.9122421 0.933389 0.92167616 0.8767091 0.9366671 0.8872807 0.89009255
0.900736 0.88464314 0.7730407 0.86994815 0.9145768 0.9056913 0.918028 0.8985553
0.8874809 0.8990731 0.9653582 0.9267437 0.90170956 0.966183 0.9376848 0.9162014

bn_outlayer_in.bias f4 [128]
00000000: 19bd dfbd a674 9a3d c45b a73b 34e9 e03c
00000010: 445f b6bd 7bd4 e93c b59f 6f3c b07e 8dbd
00000020: f09a 8bbd a658 4abd 890e 69bd b488 903c
00000030: 8a7a 5ebc daf5 4bbd 7150 4d3d f8d4 a1bd
00000040: f54a 62bd edfd fbbd d688 923b 61bf 803d
00000050: 55b3 31be 8560 ba3c cdd8 fe3c 8c23 813b
00000060: eb5c 2f3a 73e6 f3bc 3812 8abd 2207 12bd
00000070: 1f84 f3bc 9fd1 903d ec02 793d d815 aabd
00000080: 4b52 f6bd 886d 4c3d d724 e3bd 29b8 23bd
00000090: 4bad 803d 2c9b 78bd 5549 8e3b 7d77 d3bd
000000a0: 61a8 12bc e113 aabd 220e 94bd 81a5 e43d
000000b0: 5e1a 47bd 3d04 e4bc 749d b53a 71e8 fa3d
000000c0: 42a5 cfbd 3544 adbb 95d1 ae3d 32ac a5bd
000000d0: e858 573d 837e 64bd 5be9 6dbd 7689 49bd
000000e0: 6898 2abd b48f 9abc 703f 30bd 6c71 d53c
000000f0: 6519 8fbd f339 65bd f620 66bd 44fe 4ebd
00000100: adbf 8bbd a0b0 9e3d d7e0 cebd 1444 52bd
00000110: 9a07 89bd d870 adbd eee9 9bbd 990c ebbc
00000120: 2ef5 ebbd 0d3a c6bd 4739 9c3d 6139 dabd
00000130: d4d7 bebd 901b 98bd 677c b43c 2733 07be
00000140: 678b 353b 136e 27bc 8745 97bc d009 ffbc
00000150: db5d 50bd 358b 453d eb17 22be b11e 94bc
00000160: 37fb 0fbe a986 133d fc15 f23c db90 b73b
00000170: 586e b33a cb94 323e 5f96 33bd 2213 0fbd
00000180: 393d cb3b c241 b6bd 86e7 163d e9b2 d1bc
00000190: 80ed 623d 9da6 05be becc 8bbb 2af2 803d
000001a0: 4561 183d 2825 313d 4405 273d 4cbd 1ebd
000001b0: 2239 24bd 372c 013e 6250 bebc 2fb1 9e3d
000001c0: b389 e83b d981 08be 9dab 1abc 8a2e 61bc
000001d0: 8d55 c6bd 82a4 8a3d 5098 5bbd 9105 d2bd
000001e0: 6aa4 e7bd 11b9 af3d b730 85bd 6def 06bc
000001f0: c14d c53c cfe8 b1bc d4f0 b1bd 469f 42bd
-0.109247394 0.0754178 0.005107375 0.02745495 -0.08904889 0.028543701 0.0146254795 -0.06908929
-0.06816661 -0.049400948 -0.056898627 0.01764331 -0.01357902 -0.04979501 0.050125543 -0.07901949
-0.055247266 -0.12304292 0.0044718785 0.06286503 -0.17353566 0.022751102 0.031109238 0.003941005
0.0006689566 -0.029772973 -0.06741756 -0.035651334 -0.029726086 0.07071232 0.060793802 -0.083049476
-0.12027415 0.049909145 -0.11091011 -0.03997055 0.06283053 -0.06069486 0.004342238 -0.10325525
-0.0089512775 -0.08304573 -0.07229258 0.1116438 -0.04860913 -0.027834052 0.0013856129 0.12251366
-0.10138942 -0.005287672 0.08536068 -0.08089484 0.052575022 -0.055784713 -0.058083873 -0.04920336
-0.041649252 -0.018867351 -0.04302925 0.02605506 -0.069872655 -0.055963468 -0.056183778 -0.050535455
-0.06823669 0.07748532 -0.101014785 -0.051334456 -0.06690903 -0.08468789 -0.07612978 -0.02869253
-0.11521374 -0.09679041 0.07628112 -0.106554754 -0.0931851 -0.07427132 0.022031976 -0.13203107
0.0027701498 -0.010219115 -0.01846577 -0.031132609 -0.050870758 0.04822846 -0.15829436 -0.018081041
-0.14060675 0.036017094 0.029551499 0.005601985 0.0013689501 0.17439573 -0.043844577 -0.034930356
0.0062023667 -0.08899261 0.03684189 -0.025598006 0.05540228 -0.13051839 -0.0042663505 0.06296189
0.03720214 0.043248326 0.040776506 -0.038754746 -0.04009355 0.12614523 -0.023231689 0.07748639
0.007096493 -0.13330783 -0.00944033 -0.013744006 -0.09684286 0.067696586 -0.053612053 -0.10254968
-0.11310656 0.085802205 -0.06503432 -0.0082357945 0.024084928 -0.021717457 -0.086885124 -0.047515176

bn_outlayer_in.running_mean f4 [128]
00000000: 08c1 2dbc 6890 0e3d 3ee2 01bc d319 5abb
00000010: 9150 39bc 38f5 6abb 2da3 7c3c 491c 05bc
00000020: 7dcc f1bb 558b 9abc 5b3c f0bb 0409 613c
00000030: dab6 5236 9a5f 63b8 d353 cdbb f554 b0b6
00000040: f0ad 92bb 3371 753b df73 da3c 7393 ee3c
00000050: ea20 43bc 42f9 4c3c 8f10 5d3c 995b 9e3c
00000060: 5c1c 103c c15e 36bc 9d4c 15b9 5c13 0bb7
00000070: d22b bebb 4d36 8dbb b34c dd3c 9ca0 1fb7
00000080: a419 00bc 8a8a 22bc d0a9 11bc 94c3 6fb7
00000090: 2bff 9d3c bc00 753c 4a3a e53c bf78 febb
000000a0: db70 5cb5 10fe 5dba 325e 9fbb 5d58 a43c
000000b0: 3361 48b8 a1d4 353c c23f 7bbb 18a9 383d
000000c0: 11de f6bb 6135 51bb 1738 a73c e1ca c8bb
000000d0: 4424 1dbc aec9 dfbb a95b 1db7 539e a63b
000000e0: 1408 ce3c f09a b7bb fd48 88b8 2736 943c
000000f0: 45d2 9bbb 7383 10b9 415d 263c 3d9b 6ab8
00000100: 61d7 8d35 32b4 f43c 9856 b3bb 3500 503c
00000110: 1f44 08b9 fb99 07b9 a07a ecbb 568e 943c
00000120: c530 d83b 6fa8 3e3b b18d c63c 02ea f2bb
00000130: 0a30 bcbb 8e81 fdbb 97fa d93b 0499 89b9
00000140: dea1 2bbb 26c9 af3c eee2 a93c dbd0 6e3c
00000150: 62f6 6abc a7bc 0abc 2ee8 8a3b a416 123c
00000160: 0b77 0ebc 8acc 163d 616f 2bbc f9a9 453c
00000170: 6649 6f3c 4004 053d 79a3 5235 78b3 b135
00000180: 1c15 d43c 402b 0fbc 5d9e b43c 5c81 1ebb
00000190: 15d7 cc3c 50d9 b23b c2dc cfbb 5a5c fe3c
000001a0: 0e2d 00bc 9c38 093d 33bd bd3c 86ff b5b8
000001b0: ceb2 0636 72cb 123d 6491 a63c 156a b83c
000001c0: bef6 87bb 2083 09bc 8618 b2b7 e2af 9c3c
000001d0: 9c12 8dbb cadd 00bc 5ede 6a3c 1694 87b9
000001e0: 7cbb 10bc 796c ed3c d9a0 19bc 22d3 883c
000001f0: 8ad0 903c a0c2 0dbc ef50 dbbb df1d 92b8
-0.010605104 0.034805685 -0.0079274755 -0.0033279553 -0.011310712 -0.0035851728 0.0154197635 -0.0081244195
-0.007379113 -0.018865267 -0.0073314137 0.01373506 3.1398872e-06 -5.4210053e-05 -0.006266096 -5.255099e-06
-0.0044763014 0.0037451505 0.02666658 0.029123044 -0.011909703 0.0125106 0.013492717 0.019330787
0.008795824 -0.0111309895 -0.00014238288 -8.289553e-06 -0.0058035636 -0.0043094517 0.027014112 -9.514533e-06
-0.007818613 -0.009920726 -0.008890584 -1.4291047e-05 0.019286713 0.014953788 0.027981896 -0.007765859
-8.2120613e-07 -0.0008468339 -0.004863524 0.020061666 -4.777424e-05 0.011098058 -0.0038337563 0.045083135
-0.0075337966 -0.0031922685 0.020412488 -0.0061277007 -0.009591166 -0.006829462 -9.3792705e-06 0.0050847917
0.025150336 -0.005603187 -6.4985805e-05 0.018092228 -0.0047552907 -0.00013781879 0.010154069 -5.5934524e-05
1.0568002e-06 0.02987108 -0.0054729693 0.012695362 -0.00012995348 -0.00012931965 -0.0072167665 0.018134277
0.0065976107 0.0029092093 0.024237486 -0.00741315 -0.0057430314 -0.0077363914 0.006652187 -0.00026244682
-0.002618901 0.02145822 0.020738091 0.014576162 -0.014340969 -0.00846783 0.0042391038 0.008916531
-0.008695374 0.036816157 -0.0104635665 0.01206445 0.014604902 0.032474756 7.846898e-07 1.323976e-06
0.025888972 -0.008738339 0.02204817 -0.002418599 0.025004903 0.0054580346 -0.006343455 0.031049896
-0.007823242 0.033501253 0.023161506 -8.6783475e-05 2.0071634e-06 0.03583855 0.020333 0.022511521
-0.004149287 -0.008393079 -2.1230673e-05 0.019126836 -0.004305197 -0.007865379 0.014335243 -0.0002585954
-0.008833762 0.028982388 -0.009376728 0.016702238 0.017677564 -0.008652359 -0.0066929976 -6.9673864e-05

bn_outlayer_in.running_var f4 [128]
00000000: f5f1 2739 332b 2b3b 196d 0639 6277 ce37
00000010: 3e0d a539 2920 fd37 c15c ec39 a51f 9d38
00000020: f99b 2b39 c175 883a a557 e138 c257 8639
00000030: 3dfb 6b2d 1ca4 3332 3104 b738 9be4 512e
00000040: 5455 fa37 10a9 9738 f7f3 573a aadc ca3a
00000050: 5393 da39 ec49 b539 d2d4 7539 3373 583a
00000060: 5fcb fa38 4f94 9739 a070 b933 1cb6 182f
00000070: ecad a238 bebc 3838 fb9f 503a d84c 0f2f
00000080: a16e 4539 04f8 5939 fdc9 0d39 f518 1930
00000090: e467 543a c738 f639 5ef2 3b3a b1b8 0a39
000000a0: 5c4e da2b f6f5 e535 197f 4338 7d3b 643a
000000b0: 43d0 8931 c9f3 9939 7e88 1b38 3a95 003b
000000c0: 9a65 a638 9661 d437 24a1 753a e426 ec38
000000d0: ec7a 2f39 1c99 1a39 16e3 092f 13d0 2f38
000000e0: b6c0 513a e6b2 9138 5789 1d32 5648 a939
000000f0: 338f 0938 a513 6633 ab44 8939 7395 0032
00000100: 0d45 102c 2033 ff3a def8 fb38 e62c b239
00000110: 56a0 3233 f721 dc32 66b7 6d39 507d 473a
00000120: cbc0 2b38 1be6 9237 4894 973a b560 4139
00000130: fe43 7d38 69b0 b338 3f27 7038 f034 9b34
00000140: c1af 1f37 5967 a83a 1b46 fa39 eb6d 9239
00000150: 6b07 ed39 6677 1d39 8966 2238 6fbc 3b39
00000160: 2f46 8239 d822 613b 4c8f 0c39 603a b439
00000170: 77c4 ce39 b0d6 1d3b 65e7 012c 9b02 792c
00000180: 2908 3a3a bc13 4239 c2f2 ef39 021e 9637
00000190: b440 243a 8c83 c638 fb3a 2339 f9f0 143b
000001a0: a7c5 0339 f183 9c3a c39e 1e3a 0d5d a332
000001b0: 450b 062d 751c 253b 154d 043a 4c5f 833a
000001c0: 62d3 cd37 4240 4239 0fda 9c30 b7c5 f439
000001d0: 3529 6f38 a9b9 0639 45f7 f939 eed6 8234
000001e0: 0c28 4839 5203 5d3a 037e 0b39 05f4 c639
000001f0: 32da e139 0d6c 9538 c380 9c38 5a7b 5632
0.00016016497 0.0026118278 0.00012819878 2.4612706e-05 0.0003148112 3.0174926e-05 0.00045082535 7.492238e-05
0.00016365935 0.001041107 0.00010745161 0.00025623856 1.34139895e-11 1.04564855e-08 8.726901e-05 4.772414e-11
2.9842056e-05 7.2317314e-05 0.0008237953 0.001547714 0.00041689965 0.00034578086 0.00023444302 0.0008256912
0.0001195881 0.00028911463 8.63522e-08 1.3889018e-10 7.7571574e-05 4.40448e-05 0.0007958409 1.3033075e-10
0.00018828597 0.00020787126 0.00013522054 5.569654e-10 0.0008102639 0.0004696308 0.00071695994 0.00013229508
1.5511581e-12 1.7133414e-06 4.6609992e-05 0.0008706374 4.0109014e-09 0.00029364068 3.7081998e-05 0.0019620196
7.9344216e-05 2.5317811e-05 0.000937002 0.00011260601 0.00016735093 0.00014743622 1.2540755e-10 4.1917036e-05
0.00080014335 6.947461e-05 9.16983e-09 0.00032288086 3.279671e-05 5.3568915e-08 0.00026181838 7.484561e-09
2.0501962e-12 0.0019470192 0.00012014968 0.00033984258 4.158968e-08 2.5626816e-08 0.00022670403 0.00076099206
4.094913e-05 1.7511707e-05 0.0011564577 0.0001844194 6.0383223e-05 8.568244e-05 5.725701e-05 2.8909517e-07
9.518059e-06 0.0012848183 0.00047735948 0.00027929185 0.0004520969 0.00015017166 3.8719303e-05 0.00017903907
0.00024847823 0.0034353044 0.00013404823 0.00034375768 0.0003943776 0.0024084263 1.8460452e-12 3.5386475e-12
0.0007096553 0.00018508633 0.000457665 1.7895367e-05 0.0006265745 9.465878e-05 0.00015566863 0.0022726639
0.00012566765 0.0011941177 0.0006050879 1.9018012e-08 7.6195205e-12 0.0025193964 0.00050468865 0.0010022908
2.4536337e-05 0.0001852522 1.141247e-09 0.00046686616 5.7020417e-05 0.000128484 0.0004767721 2.437077e-07
0.00019088405 0.0008430976 0.00013303016 0.00037947312 0.00043077912 7.125e-05 7.4626434e-05 1.2484486e-08

gnn_layers.0.gnn.att_i f4 [1, 1, 128]
00000000: 5568 0580 c907 0600 bd5e 0500 4146 0680
00000010: d27f 0580 b05f 0500 e258 0500 cb69 0580
00000020: 28b7 0580 9863 0580 516d 0580 b888 0600
00000030: dd58 0500 816f 0500 b21f 0600 5476 0580
00000040: 0796 0500 e974 0580 a78e 0500 d26c 0580
00000050: a167 0500 5a86 0580 066c 0500 205e 0500
00000060: a565 0500 1587 0580 8271 0500 1b80 0500
00000070: 146b 0580 84ce 0580 06ca 0680 8368 0580
00000080: ecf5 0580 9d95 0600 cf00 0680 3e60 0580
00000090: 3e98 0580 0b61 0580 0677 0580 0586 0500
000000a0: 4358 0500 9a73 0580 7961 0580 eea5 0580
000000b0: 4662 0500 2087 0680 a98e 0580 2f58 0580
000000c0: 2f76 0580 a65d 0580 b757 0500 dfab 0500
000000d0: 146a 0580 4f8a 0500 556f 0580 0668 0580
000000e0: b885 0500 4f6c 0580 0267 0580 1b69 0500
000000f0: 6d82 0580 cc67 0580 02d0 0580 4a5b 0580
00000100: 9c6e 0580 e2c9 0580 a896 0580 d88c 0500
00000110: 755b 0580 fbb4 0680 ba66 0500 7f6f 0500
00000120: 969f 0680 356d 0500 e566 0580 766c 0500
00000130: 83d2 0580 b074 0500 0aa0 0600 74b9 0500
00000140: 087f 0500 4d70 0580 2bcf 0680 5a70 0500
00000150: 5ae6 0580 a664 0500 7c65 0580 3c6b 0500
00000160: 0fe7 0580 005c 0580 7e5a 0500 ef6f 0580
00000170: 1868 0580 748e 0580 a661 0580 6776 0580
00000180: 396d 0580 4359 0500 759e 0580 315c 0580
00000190: 1ece 0600 2a40 0600 f660 0500 196e 0580
000001a0: 6fa8 0580 766a 0500 8a58 0500 7f5a 0500
000001b0: 6a6e 0500 8062 0680 5569 0580 6b8c 0580
000001c0: 82e6 0500 8b74 0580 6761 0500 be91 0500
000001d0: f064 0580 8273 0500 fe8c 0580 5d6f 0580
000001e0: 2a61 0580 f867 0580 115c 0580 a765 0580
000001f0: 5c88 0580 725b 0580 c060 0580 5cdb 0580
-4.96605e-40 5.53806e-40 4.93163e-40 -5.76215e-40 -5.05031e-40 4.93504e-40 4.91063e-40 -4.97129e-40
-5.24882e-40 -4.94905e-40 -4.98393e-40 6.00058e-40 4.91056e-40 4.99178e-40 5.62383e-40 -5.01626e-40
5.12997e-40 -5.01117e-40 5.10351e-40 -4.98215e-40 4.96353e-40 -5.07374e-40 4.97929e-40 4.92943e-40
4.9564e-40 -5.07636e-40 4.99896e-40 5.05133e-40 -4.9759e-40 -5.33261e-40 -6.23485e-40 -4.96669e-40
-5.47398e-40 6.04684e-40 -5.51303e-40 -4.93703e-40 -5.13792e-40 -4.9399e-40 -5.01875e-40 5.07255e-40
4.9084e-40 -5.00648e-40 -4.94144e-40 -5.18702e-40 4.94431e-40 -5.99487e-40 -5.10354e-40 -4.90812e-40
-5.01574e-40 -4.92772e-40 4.90644e-40 5.20833e-40 -4.97231e-40 5.08793e-40 -4.99116e-40 -4.96494e-40
5.07147e-40 -4.98031e-40 -4.9613e-40 4.96882e-40 -5.05965e-40 -4.96413e-40 -5.33797e-40 -4.91926e-40
-4.98857e-40 -5.316e-40 -5.13223e-40 5.09703e-40 -4.91986e-40 -6.15937e-40 4.96029e-40 4.99175e-40
-6.08262e-40 4.98354e-40 -4.96089e-40 4.98086e-40 -5.34695e-40 5.01037e-40 6.08424e-40 5.25706e-40
5.04748e-40 -4.99463e-40 -6.25331e-40 4.99482e-40 -5.41812e-40 4.95283e-40 -4.95583e-40 4.97646e-40
-5.42066e-40 -4.92181e-40 4.9164e-40 -4.99332e-40 -4.96519e-40 -5.1028e-40 -4.94207e-40 -5.01652e-40
-4.98359e-40 4.91199e-40 -5.16021e-40 -4.9225e-40 6.24954e-40 5.74031e-40 4.9396e-40 -4.98673e-40
-5.196e-40 4.97368e-40 4.9094e-40 4.91641e-40 4.98787e-40 -5.86348e-40 -4.96963e-40 -5.0955e-40
5.41868e-40 -5.00985e-40 4.94119e-40 5.1146e-40 -4.95387e-40 5.00614e-40 -5.09756e-40 -4.99127e-40
-4.94033e-40 -4.96474e-40 -4.92205e-40 -4.95643e-40 -5.08094e-40 -4.91982e-40 -4.93885e-40 -5.37869e-40

gnn_layers.0.gnn.att_j f4 [1, 1, 128]
00000000: 9581 0500 e05a 0580 1765 0500 b46b 0500
00000010: 5d5b 0580 96a3 0580 095b 0500 01a1 0500
00000020: 3f65 0580 3077 0580 d362 0500 ce62 0580
00000030: 580e 0600 929f 0600 1c71 0580 1f69 0580
00000040: 3b44 0600 9347 0680 c369 0580 865f 0500
00000050: 295a 0580 4f68 0580 f163 0500 e86b 0580
00000060: 837f 0500 ea64 0500 dd67 0580 485c 0580
00000070: 4002 0600 566b 0580 e063 0500 bd64 0500
00000080: 0c58 0500 fe71 0500 d25c 0500 2c6c 0500
00000090: ff65 0500 7676 0580 52b9 0600 e56b 0580
000000a0: d359 0500 a87f 0500 6bff 0500 c557 0580
000000b0: c757 0500 1c61 0580 fc65 0500 2669 0500
000000c0: 9b41 0680 8e65 0580 9c5b 0500 1f65 0500
000000d0: e084 0580 8868 0580 636c 0580 9257 0580
000000e0: 1868 0500 b797 0580 1d59 0580 4978 0500
000000f0: abb7 0500 ee71 0500 1c69 0580 b65c 0500
00000100: a36a 0580 b582 0600 5f87 0500 8a60 0580
00000110: 0880 0580 a7cf 0500 d357 0500 f1cb 0600
00000120: 316c 0580 d96c 0580 3f67 0500 da6e 0580
00000130: c267 0500 a186 0500 145c 0500 9667 0580
00000140: 8464 0580 6ef9 0500 be6d 0500 6491 0580
00000150: 0869 0580 e772 0500 c94d 0680 7c6c 0500
00000160: cd5f 0580 7257 0500 2071 0580 367d 0580
00000170: 59cb 0500 a559 0580 226f 0580 9b96 0500
00000180: b067 0500 bac6 0500 18dd 0600 6e5b 0580
00000190: d967 0500 8b70 0580 116b 0500 626d 0500
000001a0: ff57 0580 a35e 0500 5359 0500 71eb 0500
000001b0: a45c 0500 7f7e 0680 8d5f 0580 73d4 0580
000001c0: 80a1 0580 0761 0500 f066 0500 2a81 0580
000001d0: af72 0500 ed97 0580 fe66 0580 cdb6 0500
000001e0: 745b 0580 ba57 0580 63a0 0580 bbc6 0500
000001f0: e371 0580 1858 0500 97fe 0500 3067 0500
5.05663e-40 -4.91777e-40 4.95442e-40 4.97814e-40 -4.91952e-40 -5.17861e-40 4.91835e-40 5.16935e-40
-4.95498e-40 -5.01934e-40 4.94629e-40 -4.94622e-40 5.56159e-40 6.08256e-40 -4.99753e-40 -4.96888e-40
5.7549e-40 -5.76689e-40 -4.97118e-40 4.93445e-40 -4.91521e-40 -4.96596e-40 4.9503e-40 -4.97887e-40
5.0492e-40 4.95379e-40 -4.96437e-40 -4.92282e-40 5.5182e-40 -4.97682e-40 4.95006e-40 4.95316e-40
4.90763e-40 5.0007e-40 4.92475e-40 4.97982e-40 4.95767e-40 -5.01673e-40 6.17493e-40 -4.97883e-40
4.914e-40 5.04972e-40 5.50804e-40 -4.90663e-40 4.90666e-40 -4.94014e-40 4.95763e-40 4.96898e-40
-5.74548e-40 -4.95608e-40 4.92041e-40 4.95453e-40 -5.06844e-40 -4.96676e-40 -4.9806e-40 -4.90592e-40
4.96519e-40 -5.13603e-40 -4.91145e-40 5.02328e-40 5.25065e-40 5.00048e-40 -4.96884e-40 4.92436e-40
-4.97432e-40 5.97902e-40 5.0774e-40 -4.93809e-40 -5.05106e-40 5.33669e-40 4.90683e-40 6.24173e-40
-4.97989e-40 -4.98225e-40 4.96215e-40 -4.98944e-40 4.96399e-40 5.07473e-40 4.92209e-40 -4.96337e-40
-4.95236e-40 5.48656e-40 4.98546e-40 -5.11334e-40 -4.96856e-40 5.00397e-40 -5.78917e-40 4.98094e-40
-4.93544e-40 4.90547e-40 -4.99759e-40 -5.04095e-40 5.32125e-40 -4.91336e-40 -4.99044e-40 5.13205e-40
4.96374e-40 5.30467e-40 6.30326e-40 -4.91976e-40 4.96431e-40 -4.9955e-40 4.97586e-40 4.98417e-40
-4.90745e-40 4.93127e-40 4.91221e-40 5.43638e-40 4.9241e-40 -5.96391e-40 -4.93455e-40 -5.3539e-40
-5.17113e-40 4.93984e-40 4.96104e-40 -5.05513e-40 5.00318e-40 -5.13678e-40 -4.96124e-40 5.24754e-40
-4.91985e-40 -4.90648e-40 -5.16713e-40 5.30469e-40 -5.00032e-40 4.9078e-40 5.50507e-40 4.96194e-40

gnn_layers.0.gnn.att_em_i f4 [1, 1, 128]
00000000: 0000 0000 0000 0000 0000 0000 0000 0000
00000010: 0000 0000 0000 0000 0000 0000 0000 0000
00000020: 0000 0000 0000 0000 0000 0000 0000 0000
00000030: 0000 0000 0000 0000 0000 0000 0000 0000
00000040: 0000 0000 0000 0000 0000 0000 0000 0000
00000050: 0000 0000 0000 0000 0000 0000 0000 0000
00000060: 0000 0000 0000 0000 0000 0000 0000 0000
00000070: 0000 0000 0000 0000 0000 0000 0000 0000
00000080: 0000 0000 0000 0000 0000 0000 0000 0000
00000090: 0000 0000 0000 0000 0000 0000 0000 0000
000000a0: 0000 0000 0000 0000 0000 0000 0000 0000
000000b0: 0000 0000 0000 0000 0000 0000 0000 0000
000000c0: 0000 0000 0000 0000 0000 0000 0000 0000
000000d0: 0000 0000 0000 0000 0000 0000 0000 0000
000000e0: 0000 0000 0000 0000 0000 0000 0000 0000
000000f0: 0000 0000 0000 0000 0000 0000 0000 0000
00000100: 0000 0000 0000 0000 0000 0000 0000 0000
00000110: 0000 0000 0000 0000 0000 0000 0000 0000
00000120: 0000 0000 0000 0000 0000 0000 0000 0000
00000130: 0000 0000 0000 0000 0000 0000 0000 0000
00000140: 0000 0000 0000 0000 0000 0000 0000 0000
00000150: 0000 0000 0000 0000 0000 0000 0000 0000
00000160: 0000 0000 0000 0000 0000 0000 0000 0000
00000170: 0000 0000 0000 0000 0000 0000 0000 0000
00000180: 0000 0000 0000 0000 0000 0000 0000 0000
00000190: 0000 0000 0000 0000 0000 0000 0000 0000
000001a0: 0000 0000 0000 0000 0000 0000 0000 0000
000001b0: 0000 0000 0000 0000 0000 0000 0000 0000
000001c0: 0000 0000 0000 0000 0000 0000 0000 0000
000001d0: 0000 0000 0000 0000 0000 0000 0000 0000
000001e0: 0000 0000 0000 0000 0000 0000 0000 0000
000001f0: 0000 0000 0000 0000 0000 0000 0000 0000
0.0 0.0 0.0 0.0 0.0 0.0 0.0 0.0
0.0 0.0 0.0 0.0 0.0 0.0 0.0 0.0
0.0 0.0 0.0 0.0 0.0 0.0 0.0 0.0
0.0 0.0 0.0 0.0 0.0 0.0 0.0 0.0
0.0 0.0 0.0 0.0 0.0 0.0 0.0 0.0
0.0 0.0 0.0 0.0 0.0 0.0 0.0 0.0
0.0 0.0 0.0 0.0 0.0 0.0 0.0 0.0
0.0 0.0 0.0 0.0 0.0 0.0 0.0 0.0
0.0 0.0 0.0 0.0 0.0 0.0 0.0 0.0
0.0 0.0 0.0 0.0 0.0 0.0 0.0 0.0
0.0 0.0 0.0 0.0 0.0 0.0 0.0 0.0
0.0 0.0 0.0 0.0 0.0 0.0 0.0 0.0
0.0 0.0 0.0 0.0 0.0 0.0 0.0 0.0
0.0 0.0 0.0 0.0 0.0 0.0 0.0 0.0
0.0 0.0 0.0 0.0 0.0 0.0 0.0 0.0
0.0 0.0 0.0 0.0 0.0 0.0 0.0 0.0

gnn_layers.0.gnn.att_em_j f4 [1, 1, 128]
00000000: 0000 0000 0000 0000 0000 0000 0000 0000
00000010: 0000 0000 0000 0000 0000 0000 0000 0000
00000020: 0000 0000 0000 0000 0000 0000 0000 0000
00000030: 0000 0000 0000 0000 0000 0000 0000 0000
00000040: 0000 0000 0000 0000 0000 0000 0000 0000
00000050: 0000 0000 0000 0000 0000 0000 0000 0000
00000060: 0000 0000 0000 0000 0000 0000 0000 0000
00000070: 0000 0000 0000 0000 0000 0000 0000 0000
00000080: 0000 0000 0000 0000 0000 0000 0000 0000
00000090: 0000 0000 0000 0000 0000 0000 0000 0000
000000a0: 0000 0000 0000 0000 0000 0000 0000 0000
000000b0: 0000 0000 0000 0000 0000 0000 0000 0000
000000c0: 0000 0000 0000 0000 0000 0000 0000 0000
000000d0: 0000 0000 0000 0000 0000 0000 0000 0000
000000e0: 0000 0000 0000 0000 0000 0000 0000 0000
000000f0: 0000 0000 0000 0000 0000 0000 0000 0000
00000100: 0000 0000 0000 0000 0000 0000 0000 0000
00000110: 0000 0000 0000 0000 0000 0000 0000 0000
00000120: 0000 0000 0000 0000 0000 0000 0000 0000
00000130: 0000 0000 0000 0000 0000 0000 0000 0000
00000140: 0000 0000 0000 0000 0000 0000 0000 0000
00000150: 0000 0000 0000 0000 0000 0000 0000 0000
00000160: 0000 0000 0000 0000 0000 0000 0000 0000
00000170: 0000 0000 0000 0000 0000 0000 0000 0000
00000180: 0000 0000 0000 0000 0000 0000 0000 0000
00000190: 0000 0000 0000 0000 0000 0000 0000 0000
000001a0: 0000 0000 0000 0000 0000 0000 0000 0000
000001b0: 0000 0000 0000 0000 0000 0000 0000 0000
000001c0: 0000 0000 0000 0000 0000 0000 0000 0000
000001d0: 0000 0000 0000 0000 0000 0000 0000 0000
000001e0: 0000 0000 0000 0000 0000 0000 0000 0000
000001f0: 0000 0000 0000 0000 0000 0000 0000 0000
0.0 0.0 0.0 0.0 0.0 0.0 0.0 0.0
0.0 0.0 0.0 0.0 0.0 0.0 0.0 0.0
0.0 0.0 0.0 0.0 0.0 0.0 0.0 0.0
0.0 0.0 0.0 0.0 0.0 0.0 0.0 0.0
0.0 0.0 0.0 0.0 0.0 0.0 0.0 0.0
0.0 0.0 0.0 0.0 0.0 0.0 0.0 0.0
0.0 0.0 0.0 0.0 0.0 0.0 0.0 0.0
0.0 0.0 0.0 0.0 0.0 0.0 0.0 0.0
0.0 0.0 0.0 0.0 0.0 0.0 0.0 0.0
0.0 0.0 0.0 0.0 0.0 0.0 0.0 0.0
0.0 0.0 0.0 0.0 0.0 0.0 0.0 0.0
0.0 0.0 0.0 0.0 0.0 0.0 0.0 0.0
0.0 0.0 0.0 0.0 0.0 0.0 0.0 0.0
0.0 0.0 0.0 0.0 0.0 0.0 0.0 0.0
0.0 0.0 0.0 0.0 0.0 0.0 0.0 0.0
0.0 0.0 0.0 0.0 0.0 0.0 0.0 0.0

gnn_layers.0.gnn.bias f4 [128]
00000000: 4c93 85b7 faf6 6536 7468 8936 0b96 bdb6
00000010: b109 18b4 c440 10b7 e36b 11b6 6f98 7337
00000020: 0366 2db7 9d9d c436 013c 47b5 138d 9d37
00000030: 9914 0600 27cb 0600 92bb b2b6 86db 0500
00000040: f4e0 b637 3fd7 0f36 e463 cbb6 7d80 0237
00000050: 0efe fdb4 8b65 4fb6 eb73 dfb6 9932 54b6
00000060: e1ba 77b7 25e5 2cb5 2505 cea7 8ef7 0580
00000070: fb8c 8335 b893 dbb6 3de3 dcb5 eba1 0680
00000080: ab1e 4036 cfb5 8937 8ee0 9c35 faf3 0580
00000090: 462e 5ab7 b670 2c37 9ced 3fb6 8f01 0f37
000000a0: 5be3 0500 1990 5234 c48d 3f37 9944 a437
000000b0: a1b3 0680 6655 b9b6 c76a 3536 472c 16b7
000000c0: 37bf 6937 52ea 8434 ed5e 6c37 215f 92b5
000000d0: 1fc0 8537 3fc6 6ab7 d078 0580 4854 af34
000000e0: 0783 0237 b6d4 9d37 48c1 0580 4dd6 e7b6
000000f0: 1b53 12b6 e0b0 0680 0289 4535 95ad 0680
00000100: d3b3 0500 814b 30b7 fbe7 c536 c5fe 13b7
00000110: 099e 0680 6aa9 d688 6151 dbb6 8844 d636
00000120: 5b97 8c35 77b1 0338 48cf 9eb7 13b3 8137
00000130: 0a16 bdb6 fd68 8937 1458 82b4 bed2 c124
00000140: aeee a5b5 5e5a e6b5 81b2 5037 9952 5636
00000150: 8265 09b7 efdf b636 5118 72b6 7752 6b37
00000160: 03a2 43b5 d620 a7b7 74a8 26b6 8905 00b7
00000170: df7b fa36 4e40 a8b6 a118 0680 0d1c 0600
00000180: 2710 1236 1fda 3db8 9876 17b6 289a 34b5
00000190: 9a3a ac36 13c9 c1b6 6426 eeb6 7d4c 07b6
000001a0: 3417 34b7 c1af 4237 d4cc 6236 63d9 0680
000001b0: a1ae 0600 db72 b037 4d50 04b7 3d72 0ab7
000001c0: d8ba 4e36 b622 23b6 c08a 0580 2feb 4cb6
000001d0: d228 8934 0274 96b6 d98f 3837 dc85 c7a1
000001e0: 876b c435 d878 b3b7 7ab1 bfb7 b22a 4f37
000001f0: a8fe 7637 95da 59b7 6068 a937 fb57 0600
-1.5923426e-05 3.4267418e-06 4.095078e-06 -5.6501062e-06 -1.4159629e-07 -8.598148e-06 -2.1669482e-06 1.451942e-05
-1.0335355e-05 5.859604e-06 -7.4220594e-07 1.8781551e-05 5.58402e-40 6.2389e-40 -5.3266494e-06 5.37928e-40
2.1800843e-05 2.143395e-06 -6.0615002e-06 7.77852e-06 -4.730977e-07 -3.090451e-06 -6.6594125e-06 -3.1619913e-06
-1.4765858e-05 -6.440844e-07 -5.7182063e-15 -5.47983e-40 9.801291e-07 -6.5439053e-06 -1.6457412e-06 -6.09098e-40
2.862808e-06 1.6416334e-05 1.168826e-06 -5.467e-40 -1.3004586e-05 1.02782415e-05 -2.8599525e-06 8.523827e-06
5.40737e-40 1.9610196e-07 1.14174945e-05 1.9582267e-05 -6.15452e-40 -5.5233713e-06 2.7033254e-06 -8.951006e-06
1.3932403e-05 2.4757406e-07 1.4088798e-05 -1.0905534e-06 1.5944299e-05 -1.3993645e-05 -5.02517e-40 3.2657613e-07
7.779111e-06 1.881491e-05 -5.28514e-40 -6.9092844e-06 -2.180407e-06 -6.14464e-40 7.358759e-07 -6.13282e-40
5.23686e-40 -1.0507997e-05 5.8980636e-06 -8.821201e-06 -6.07705e-40 -1.2919486e-33 -6.5361824e-06 6.385675e-06
1.0474863e-06 3.139811e-05 -1.893159e-05 1.5461386e-05 -5.6352046e-06 1.6380562e-05 -2.4278472e-07 8.405742e-17
-1.2362923e-06 -1.7162636e-06 1.2439327e-05 3.1936563e-06 -8.1894705e-06 5.450092e-06 -3.6074964e-06 1.4026292e-05
-7.287892e-07 -1.9923242e-05 -2.483398e-06 -7.630683e-06 7.465001e-06 -5.014276e-06 -5.59848e-40 5.61076e-40
2.1765097e-06 -4.5264253e-05 -2.2569784e-06 -6.727955e-07 5.1328216e-06 -5.7752563e-06 -7.097422e-06 -2.016109e-06
-1.07342385e-05 1.1604222e-05 3.379585e-06 -6.28997e-40 6.13658e-40 2.1034319e-05 -7.88651e-06 -8.252039e-06
3.080515e-06 -2.4309097e-06 -5.08952e-40 -3.0535264e-06 2.554794e-07 -4.4838534e-06 1.1000747e-05 -1.3520197e-18
1.4634433e-06 -2.1394735e-05 -2.2851618e-05 1.2348102e-05 1.4722034e-05 -1.29851005e-05 2.0194973e-05 5.82574e-40

gnn_layers.0.gnn.lin.weight f4 [128, 100]
00000000: cce3 62be c4e7 89bb 3290 3ebd 7227 3ebe
00000010: a7f0 1ebd 2ed9 d5bd ab38 d5bd cc2f 33be
00000020: 61c6 9f3d e2a0 233d c075 f5bd a800 053e
00000030: 5d16 96bd 6aec 5e3d 9043 24be 584c 7c3d
00000040: d4f0 83bd 642a cabd a6db 01be 519f 573d
00000050: fa37 823d b25f 75bc 9667 85bc 5ed4 363b
00000060: daba 2ebd f78b cb3c 2230 bf3b 4b9e 98bd
00000070: 2df8 013e 5160 c4bd d266 cf3d a14d 28bd
00000080: 3827 b9bd 0b05 26be 65c5 f4bd e3e4 14be
00000090: 0d22 2d3d 761e fa3d 1051 9bbd 5f42 2fbd
000000a0: 094a 01be 87d0 0bbe 03d0 393d e2e7 d8bd
000000b0: 223f 623b 5ad9 b5bd 64c4 b33d 81a3 3439
000000c0: b1b5 03be 2368 2ebe 9caf 96bd d8c6 24be
000000d0: 09a0 343d 2162 12be 74d7 543d 7934 09be
000000e0: 9e61 0f3c 11cb 1bbe f876 1d3c 5485 e3bd
000000f0: c671 c73c 87d6 2a3e 6362 3f3d 4a77 2d3e
00000100: 7209 f33d d173 2b3d fa90 db3d eb67 34bd
00000110: 53ab 233e 97c7 f03c a1a3 203e 94eb e3bc
00000120: 25a1 133e b56d bbbd bbf7 dc3c 00e8 11be
00000130: 6e06 023e b253 923d dcce 70bd a484 29be
00000140: f0f3 f8bc a7fe 95bd 700b 823b 17f0 4a3d
00000150: f88e 153d af4f a93d fd6f 30be 5c95 e03c
00000160: 955c 20bd 9318 383d f537 b23d 8369 fbbd
00000170: ec08 0d3e f206 bf3c 134a e23d 8b82 e53c
00000180: 9f3d 90bd f524 87bd 16bc 553d 5f33 5bbd
00000190: c35c c33b 2c6e aabd 95b0 bdbd b2bc 1c3e
000001a0: cf54 b83d 3b1c bb3d 17ba 373b 1cc5 d6bd
000001b0: 981f cd3d e64e f93c 686c 4bbd 6354 023e
000001c0: 0f37 dfbd d9f9 1a3d dddd fc3d 46d4 b3bb
000001d0: dd84 503c ff70 c23b 1319 923d e097 e5bd
000001e0: f85e f83d 7d65 8f3c 72c6 cf3b f727 a7bd
000001f0: 3df5 923d 0881 543d a065 bbbc b000 cabd
00000200: 8c00 123e ee11 c53c 3610 2b3c b51f 213d
00000210: b038 f1bd 7ec7 383d cebf 31be 0c43 4b3d
00000220: 415e f2bc 7df0 833c f677 9e3d 82ff be3d
00000230: 68bb 61bc 6b93 96bc 3c44 8d3d b427 1abd
00000240: 3b8c 503d 9196 a23d 17b4 00be eb2d a3bc
00000250: 5406 d0bc 389e c9bd db9e 61bd af95 243e
00000260: 3020 a93d 04e2 73bd 4522 c1bd b3bf 493d
00000270: ab28 11be 4d5a 203c 25f4 493d 8cb3 de3d
00000280: 53c2 463d 5859 80bd 22cc 3e3d 0a3d 373c
00000290: a45a f6bd 1fa3 e53d d500 6fbd 0611 03bd
000002a0: 0944 42be 946a fd3d 4e27 02be d834 ac3d
000002b0: 7981 e3bd 0c07 023d ccdd e93c 1d24 29be
000002c0: 8bb3 57bd f907 9bbc 1109 08be a6af 01bc
000002d0: 33cc 023e 02d1 443d 1af5 f73d 9f79 1f3d
000002e0: 990a 2dbd c83b 0cbe 2013 13be 516e b1bd
000002f0: 6bf1 913d f799 40be e860 4bbb 744d 9e3d
00000300: 5869 90bd fe2d 6e3d 8452 61bd 433f 8bbd
00000310: 57c7 3a3d 528c 943d 7c30 773e 19d0 003f
00000320: 4336 073e b99f 42bd 704c a83d df7e bb3d
00000330: 75b6 093e 07c2 133e d17c 283e c57c 8e3b
00000340: 3526 653d b35f f9bc 200b 33be 5ee5 34bd
00000350: 3372 803c 4d0a 9c3b 70f6 38bc 7a74 e53d
00000360: 2607 43bd 8c93 07be 1ba6 5c3d 7203 e7bd
00000370: 6554 b03c aec1 123e 62e7 c9bd 4bfe 2fbd
00000380: 310b 1abc f67b 5b3d a58f 4d3d 716e 12be
00000390: c5a8 fe3d 022b acbd 222d 82bd 5568 133e
000003a0: 17be 0bbe 07a3 273e d24a 9abc df3a 0fbe
000003b0: d466 2a3e 6a60 883d 80df cabd 731b a5bc
000003c0: dc26 88bd d829 50bd 1514 67bc 2228 643d
000003d0: 14a1 b83d 138c b1bc 1736 d4bd 835a adbd
000003e0: 607e fb3d 6c9b 2b3d dc7f ac3d f726 fbbd
000003f0: 09b2 acbd c71f 5bbd 634b 1e3e d558 4abd
-0.2215721 -0.004208537 -0.046524234 -0.18569735 -0.038803723 -0.10441814 -0.10411199 -0.17498702
0.0780151 0.03994835 -0.1198535 0.12988532 -0.07328484 0.05442468 -0.16041398 0.061596245
-0.06442419 -0.098713666 -0.12681445 0.05264217 0.06358333 -0.014976429 -0.016284745 0.0027897577
-0.042658664 0.024847014 0.0058345953 -0.07452067 0.12692328 -0.095886834 0.10127033 -0.041089658
-0.090406835 -0.16212861 -0.119517125 -0.14540438 0.0422688 0.12212841 -0.07583821 -0.042787906
-0.12625898 -0.13653766 0.04536439 -0.10591103 0.0034522493 -0.08879347 0.08777693 0.00017227048
-0.12862279 -0.17031913 -0.073577136 -0.16091478 0.044097934 -0.14295246 0.051963285 -0.13398923
0.008751301 -0.15214182 0.009610884 -0.11109415 0.024346244 0.16683398 0.04672469 0.16940036
0.11867036 0.041858498 0.107210115 -0.044044416 0.15983324 0.029392047 0.1568742 -0.027822293
0.1441694 -0.09151784 0.026973596 -0.14248657 0.12697765 0.0714487 -0.058791026 -0.16554505
-0.030389756 -0.07323962 0.0039686486 0.049545374 0.0365133 0.082671516 -0.1723022 0.02741497
-0.039150793 0.04494531 0.08702079 -0.12275984 0.13772935 0.023318741 0.11049285 0.02801635
-0.07043003 -0.06598846 0.052181326 -0.05351579 0.005961986 -0.08321795 -0.09262196 0.15306357
0.09000551 0.09136244 0.0028034502 -0.104868144 0.10015792 0.03043313 -0.04966393 0.12727503
-0.108991735 0.03783593 0.123470046 -0.0054879515 0.01272699 0.0059338803 0.07133689 -0.112106085
0.12127489 0.017504448 0.006340795 -0.081619196 0.07175682 0.051880866 -0.022875607 -0.098634124
0.14258021 0.024056401 0.010440877 0.03933688 -0.117783904 0.045112126 -0.17358324 0.049624488
-0.02958596 0.016105885 0.077377245 0.09326078 -0.013777591 -0.018380841 0.0689778 -0.03763552
0.050914984 0.079388745 -0.12568699 -0.019919356 -0.025393642 -0.09844631 -0.055083137 0.16072725
0.082580924 -0.059541717 -0.094303645 0.049255084 -0.1417567 0.009787154 0.0493051 0.108740896
0.048525166 -0.06267041 0.046581395 0.011183986 -0.12029007 0.112127535 -0.058350403 -0.031998657
-0.18971266 0.12373844 -0.12710306 0.08408517 -0.11108679 0.031745 0.028548144 -0.16517682
-0.05266146 -0.0189247 -0.13284709 -0.007915413 0.12773208 0.048050888 0.12107296 0.038934346
-0.042246435 -0.1369468 -0.14362764 -0.08663619 0.07126125 -0.18808733 -0.0031033102 0.07729617
-0.07051343 0.05814933 -0.055010334 -0.067991756 0.04560026 0.072533265 0.24139589 0.5031753
0.13204293 -0.047515605 0.08217704 0.09155058 0.13448508 0.14429484 0.16453864 0.00434837
0.05594464 -0.03044114 -0.17484713 -0.044164054 0.015679454 0.00476197 -0.011289224 0.11203857
-0.04761424 -0.13239878 0.053869348 -0.11279954 0.021524617 0.14331695 -0.09858586 -0.042967122
-0.009402082 0.053585015 0.05018582 -0.14299943 0.12434534 -0.084066406 -0.06356265 0.14395268
-0.13646732 0.16370784 -0.018834505 -0.13987301 0.16640788 0.066590145 -0.099059105 -0.02015469
-0.06648037 -0.050821155 -0.014103909 0.055702336 0.09015098 -0.021673238 -0.10361879 -0.08464529
0.122799635 0.04189627 0.08422825 -0.12263291 -0.08432395 -0.053497102 0.15458445 -0.049401123

gnn_layers.0.bn.weight f4 [128]
00000000: d72a 433f b68e 003f 8e6b 233f aab5 be3e
00000010: a10b 1f3f 764a 653f d18d 453f af25 fc3e
00000020: 4d8c 293f 0217 0a3f f74c 473f 7b6d 653f
00000030: 0832 e23e 0d1f 3c3f 9930 283f 2d69 9f3e
00000040: f46d 563f 432e 0b3f e481 073f 22ed c93e
00000050: 60ba ea3e c6c0 623f 9701 5d3f 6dd8 3c3f
00000060: 0c73 733f 8f82 2e3f 913a 263f 4541 6f3e
00000070: 030b 203f 7234 623f 1cd2 1f3f 9aa3 423f
00000080: 1918 463f 4ae9 293f 20e7 733f 8496 0a3f
00000090: 8d5c 503f 90e7 053f 97b0 eb3e b3af 183f
000000a0: 6be3 8e3e 2f82 493f aa0f 493f 69f3 683f
000000b0: 65ff 9e3e 648f 4e3f ce2e 5e3f f026 f33e
000000c0: 3dd0 573f 3c7e eb3e d929 563f e2b2 063f
000000d0: b518 173f dcf1 2c3f a82a 313f 074b 243f
000000e0: 7139 023f 35b5 573f 0728 373f 1536 f83e
000000f0: 5560 3f3f ef90 443f 3323 143f 2eb0 df3e
00000100: dd70 2f3e 2421 343f 757e 303f 2ba0 213f
00000110: 56e3 c13e 0144 7c3e 29a6 333f fd13 4c3f
00000120: 82eb 993e 48d3 573f bb45 333f 01be 603f
00000130: 1d6e 473f 7236 413f 90f7 023f 4547 753e
00000140: e5ab 463f e4a6 353f 2b37 083f 60f0 663f
00000150: 46d1 2b3f a713 3e3f 519e 4a3f 21d4 673f
00000160: 24de 263f 5983 1b3f d341 083f f885 5c3f
00000170: 0fe5 2f3f 7628 3c3f 79a2 163e 2005 2e3f
00000180: ecba 0b3f 0313 183f c1be 2b3f b1d6 ed3e
00000190: 728f 2d3f 2c36 5a3f 9421 673f ad14 f63e
000001a0: cd6c 1c3f 5d80 ed3e 1e1f 2c3f 125d 2d3f
000001b0: 903c 553d a1d8 243f 52f2 2f3f 3bcd 163f
000001c0: 39ca 673f a209 533f 5860 3b3f 4252 0e3f
000001d0: 3b53 673f 5239 0e3f 1356 2c3f 5deb 413f
000001e0: 8a24 0d3f 9fee 083f f606 f53e 95c1 473f
000001f0: df36 303f 3e49 ec3e dabb 5a3f 520b 553f
0.76237243 0.5021776 0.6383599 0.37247974 0.6212712 0.89566743 0.7716952 0.492475
0.66229707 0.5394136 0.77851814 0.8962018 0.44178796 0.7348488 0.65699154 0.3113493
0.83761525 0.54367465 0.5293257 0.3943873 0.45845318 0.885754 0.8633055 0.7376774
0.9509742 0.68167967 0.64933115 0.23364742 0.625168 0.88361275 0.62429976 0.76030886
0.7738052 0.66371596 0.95274544 0.5413592 0.8139122 0.5230646 0.46033165 0.59643096
0.2790788 0.7871427 0.78539526 0.90996414 0.31054226 0.80687547 0.8679017 0.47490644
0.8430212 0.45994747 0.83657604 0.52616704 0.59022075 0.6755655 0.69205713 0.6417698
0.508689 0.84260875 0.7154545 0.4847876 0.74756366 0.7678365 0.5786621 0.43689102
0.17132898 0.7036307 0.6894296 0.6313502 0.37868756 0.24635316 0.70175415 0.79718
0.3006249 0.84306765 0.70028275 0.8778992 0.77902395 0.754737 0.51159 0.23952968
0.7760604 0.7095778 0.5320918 0.90210533 0.671162 0.7424874 0.7914782 0.9055806
0.6518271 0.60747296 0.5322544 0.8614192 0.6870889 0.7349924 0.14710416 0.6797657
0.54582095 0.5940401 0.6708794 0.4645286 0.67797005 0.8523891 0.9028561 0.4806265
0.61103517 0.46386996 0.6723498 0.6772014 0.05205971 0.6439305 0.68729126 0.58906907
0.9054294 0.82436574 0.73193884 0.55594265 0.90361375 0.55556214 0.6731884 0.7574976
0.5513388 0.53489107 0.47856873 0.7802976 0.68833727 0.4614963 0.8544289 0.832204

gnn_layers.0.bn.bias f4 [128]
00000000: f8a5 b13b 5add 423d 5f53 023e 6168 4c3b
00000010: 8432 913d 4892 02bd c07c 573e 7cb6 363e
00000020: 3ba8 fabd a40b efbc 30d7 b73d c4b6 033e
00000030: 262f 0f3b bc32 d13b 336b 6f3d 499c 15bd
00000040: a6a8 93bd 5de0 943c 6a6c 303e f29b c93d
00000050: bd4f febd ead2 cf3d d8ca 203e 37de 183d
00000060: 7acd c13d 6449 1c3d 1f12 2dbd 7515 1c3d
00000070: c2b3 ed3b 03c9 3bbd c888 733e 18a9 acbc
00000080: 6d4c 04be f8ee 1e3d e203 b83b d154 333c
00000090: 0baa 793d b9f4 353d acfd 3d3e df10 9bbd
000000a0: 99b3 aeb9 534a c7bd 5892 0bbc a7b9 a23d
000000b0: 5c0a 57bd 1eb0 ee3c 1194 a2bc 6d32 683e
000000c0: 5e94 da3c 30ef e4bc 9a79 3e3d a705 dabc
000000d0: 82be 243e 4ea8 8cbd 91da 143d b83e 6cbd
000000e0: a509 b93d 8675 edbb 2248 c23c cd63 553e
000000f0: 6ba5 25bd 92ce 7b3c a521 803d 224a 443c
00000100: 439e a4bb 041d 0d3d 533d 9bbd d932 ba3c
00000110: 5a2e 70b9 5c80 c8bc 67bd 14be 83f9 0fbd
00000120: 973e db3d 9b2e 90bd 2b0b e93d 9a22 84bd
00000130: c646 933c 1005 323c ce15 613d ee66 e4bd
00000140: 8405 db3c 091f 90bc 6fc5 1e3e 1f02 813d
00000150: fe4e 0b3d 3799 cb3d c17a 63bd 6c4e c13d
00000160: 70a7 e3bd f37f 47bc 4fbd 453d 021c 173e
00000170: 99e7 eb3d 3a3e c33d 5267 16bd 3360 07bd
00000180: 538c 1a3e 1346 e7bc c4eb 733e ef35 0abe
00000190: ede9 893e f86e e0bc 715c 23bd aea1 d2bc
000001a0: 9d37 bc3d 480b 193e 8f45 183e cf25 3bbd
000001b0: b6a7 ebbb 6bb7 0b3e 572c f73d aee6 e93d
000001c0: 615f 6cbc f5db ecbd 8bfe b3bc 8807 c83d
000001d0: 595c b4bd b7f9 de3c 7d8e 053c a329 a0bd
000001e0: 9cd0 6abc 2420 8e3e 919a ce3d 7410 103e
000001f0: ee27 383e 52ed 3c3e b920 b23b 75fe 7e3a
0.0054213963 0.04757438 0.12727116 0.0031190144 0.07089713 -0.031877786 0.21043682 0.1784305
-0.12239119 -0.029180355 0.08976591 0.12862688 0.002184817 0.006384222 0.058451843 -0.036526
-0.072099015 0.018173391 0.17228857 0.09844197 -0.124175526 0.101476505 0.15702379 0.037321296
0.0946302 0.03815593 -0.04225361 0.0381064 0.007254095 -0.045845997 0.23782647 -0.021076724
-0.12919779 0.038802117 0.0056156972 0.010945515 0.06095318 0.04442284 0.185538 -0.07571577
-0.00033321677 -0.09730973 -0.008518778 0.079455666 -0.052500114 0.029136714 -0.019845994 0.22675486
0.026682075 -0.027946085 0.046502687 -0.026614023 0.16088298 -0.06868039 0.036341254 -0.057677
0.09035043 -0.007246676 0.023716036 0.20838852 -0.040440958 0.015369074 0.06256417 0.011980565
-0.005023749 0.0344515 -0.07580056 0.022729324 -0.00022905451 -0.024475269 -0.14525376 -0.035150062
0.107052974 -0.07040139 0.11379083 -0.06451912 0.017978083 0.010865465 0.054952435 -0.11152445
0.026736028 -0.017592924 0.15505002 0.06299233 0.03401088 0.09941333 -0.05553699 0.09438786
-0.111159205 -0.012176502 0.048276242 0.14756778 0.11518783 0.09533353 -0.036719628 -0.033050727
0.15092592 -0.028231656 0.23820406 -0.13497137 0.26936284 -0.027396664 -0.03988308 -0.02571186
0.09190295 0.1494571 0.14870284 -0.045690354 -0.0071916236 0.13644187 0.12069004 0.11420952
-0.014427037 -0.11565391 -0.021971961 0.097670615 -0.088066764 0.027218683 0.008151648 -0.078204416
-0.014331963 0.27758896 0.10088075 0.14068776 0.17983982 0.18449906 0.0054360298 0.0009727248

gnn_layers.0.bn.running_mean f4 [128]
00000000: e74e 493c 654d f9bc 2adf 51bd 406e 82bd
00000010: 4710 eebb 0191 f7bc 0b68 a73d 47e1 893d
00000020: 51dd 1dbd 4a3d 5ebd 98b6 c0bc ae67 a3bb
00000030: 968a 9b3c 1854 b5bc a95d 87bd c908 573d
00000040: 8725 b73c cd61 8a3d 8622 17bc 9592 c3bc
00000050: de6d 483d 1231 7ebd 43f1 883d ea7e 80bd
00000060: cb10 8ebc 6f9a a8bd 7bff 413d 3487 513c
00000070: 05f9 213c 0262 efbc d045 fc3d 54aa 863b
00000080: ebe8 163b 6fee 3bbd 775b 3ebd 92de fbbc
00000090: f14b e7bc 1f53 aa3d a62f f43c 5d36 073d
000000a0: 38c1 a0bb 5092 30bd 411a 7c3d 28b2 e9bc
000000b0: f9ed 9ebc 9c1f 2ebd 7d30 db3c eb76 e03d
000000c0: a678 943d 5e73 5cbd c05b 51bd 9f2d 6e3b
000000d0: 0fe9 3bbd f97f 543d 884c 213d 4425 4bbd
000000e0: 79d7 e43c fce9 293d f6fb 683c 43b3 c03d
000000f0: 8a82 1abc 2ac7 39bc daab 35bd d6b6 b4bc
00000100: db36 803c d3d2 b2bd ba4f dd3d 4f92 1abd
00000110: 95c6 aaba 4e09 01bc 3124 e1bc 2815 a0bd
00000120: 558c 8a3d 0aaa 0ebd fb55 9abd 4dac 923d
00000130: 1e27 8c3d 5fac 2f3c 1905 80bc 5daa 8d3c
00000140: 8da1 d33b 9d39 8bbd 3e0f 763d b152 d63c
00000150: be05 3cbc 8f22 5fbd a179 5e3d 8d2d a6bd
00000160: 3dad c2bb e118 6cbd bc67 7abb 7545 9a3c
00000170: 706f d3bc 3998 b3bd be56 9e3c b5c8 fbbb
00000180: 459b a13d d58b 983d eb95 d93d 044a 72bd
00000190: 3957 953d ec1e 163d 731c 8fbd b824 8bbc
000001a0: aa91 1fbd 2d68 903c 9ec0 c43c f23d 92bc
000001b0: 8c8c c03c 5672 e1bc c62b fc3c f928 96bd
000001c0: a73e b0bc 8e61 2f3d 84b1 32bc ebe9 1b3d
000001d0: af71 23bc 4afc 9abd 3401 43bd ed14 663d
000001e0: a346 b93c ed8b bd3c 76e2 543d 7c5a c73c
000001f0: b60a c53c e70e 723d 1458 d53c 4361 1f3d
0.012286878 -0.030432412 -0.051238216 -0.06368685 -0.007265124 -0.03022051 0.081741415 0.06732421
-0.038541142 -0.05425767 -0.023524567 -0.004986725 0.018986981 -0.022134826 -0.06609661 0.052498613
0.022356762 0.06756935 -0.00922454 -0.023873607 0.048932903 -0.062058516 0.06686642 -0.06274207
-0.017341992 -0.08232581 0.047362786 0.012788583 0.009886031 -0.029221538 0.12318003 0.00410966
0.0023027014 -0.045881685 -0.046473946 -0.030745778 -0.028234454 0.08316635 0.029807877 0.03301083
-0.004905846 -0.043108284 0.061548475 -0.028527334 -0.019400584 -0.042510614 0.02675652 0.10960182
0.07249574 -0.05382096 -0.05111289 0.003634311 -0.04587656 0.051879857 0.039379627 -0.049596086
0.027934777 0.04148291 0.014220228 0.094091915 -0.009430537 -0.011338988 -0.044353344 -0.02205984
0.015651157 -0.08731618 0.10806222 -0.037737187 -0.0013029153 -0.007875754 -0.027483078 -0.07816535
0.067650475 -0.03483013 -0.07535931 0.0716177 0.068433985 0.010722249 -0.01562743 0.01729315
0.0064584673 -0.06798098 0.06007313 0.026162477 -0.011475978 -0.054476317 0.054315213 -0.08114157
-0.005941062 -0.057640914 -0.0038208803 0.018831948 -0.025809973 -0.087692685 0.019328471 -0.0076838383
0.078909434 0.07448546 0.10624298 -0.059152618 0.07292027 0.036650583 -0.06987848 -0.016985282
-0.038957275 0.0176278 0.024017628 -0.017851803 0.023504518 -0.02752034 0.030782592 -0.07332034
-0.02151425 0.042817645 -0.010906581 0.03806488 -0.009975835 -0.075676516 -0.04760857 0.0561723
0.02261669 0.02313801 0.051973782 0.024335138 0.024052959 0.059096243 0.026042975 0.038911115

gnn_layers.0.bn.running_var f4 [128]
00000000: 5e70 c23f 4df0 9e3e 7399 b73f 19bc b43f
00000010: a6b8 ff3e 06ad ea3e bea0 663e 946e 063f
00000020: 2d7b 433f 732c 723e 1f43 553f 329d 823f
00000030: 8767 583f f983 133e f984 893f bcd7 0d40
00000040: 2c03 b53f aa21 7d3e 5e39 133f 16dc 463f
00000050: 1a9a c63f 65f2 903f 9931 943f 1ac5 0e3f
00000060: 9dea 5a3e d381 ca3e 4da4 fb3e 2899 d23e
00000070: 337b 0a3f 531a a33e 4217 453f 9135 0b3f
00000080: 2e82 0340 5965 9f3e 7fce ba3e 59eb d63f
00000090: 3072 b53e 6650 573e d9c1 df3f f94d dd3f
000000a0: 0b7c d53a eaea 1f3f ed98 9e3e dff1 fe3e
000000b0: b236 473f c0ee f43e 203b 0340 74bb 503f
000000c0: 3c7f 243f a5b5 af3f 439e 093f 4e55 fd3f
000000d0: ea39 953f 848f 713e 9252 1240 6f88 c33f
000000e0: 7518 333f 64ab bf3f 56b7 c13e a433 c53e
000000f0: 5101 9b3f 012d 6a3e 67f6 7440 ce00 363f
00000100: ad81 e23e 4949 883f a4f5 d93e 19ed a23e
00000110: 5a15 223e f9f6 493f cc81 8c3e 9960 683f
00000120: 8d6e 3c40 dae2 943e 5fff 9a3e 92ae 373e
00000130: ce7e a03e f1ae 453f da36 0e40 72d3 173f
00000140: 8289 133f 41a5 5c3f 1b7e 303f 5e9d 2a3f
00000150: 65c1 893e 2738 803f cd0c bc3e c50e 4b3f
00000160: d9f8 883f d77b b93e 6462 5b3f 6e3a f93d
00000170: 6fb3 f63e b0e9 323f bca1 f03e 819b 483e
00000180: 9d2b 0340 c997 413f ad43 0940 b495 023f
00000190: 5ee2 853f 5082 853e 768e 083e 9d48 863f
000001a0: 1088 543f 5ac9 7c3f 19bd 2d3f bcec 553e
000001b0: a678 703f 18a5 083f 009a ae3f 3d5b 973f
000001c0: d922 983f dd74 f53e 4f24 f93e 6b2a 0040
000001d0: c6e6 b33f 771b 933f 72a9 993e fa33 873e
000001e0: e04b b33e e26e d23e 64ae d93e 5a69 5f3e
000001f0: 5b44 953e 0b94 0d3f 0757 ad3e cf08 4b3e
1.5190542 0.3104271 1.4343704 1.4119903 0.49945563 0.4583513 0.22522256 0.5251248
0.76359826 0.23649769 0.83305544 1.0204222 0.8453297 0.14405812 1.0743705 2.2162924
1.4141593 0.24719873 0.5750941 0.77679574 1.5515778 1.1323973 1.1577636 0.55769503
0.2137856 0.39552173 0.4914879 0.41132474 0.5409424 0.3185602 0.76988614 0.5437861
2.0548205 0.3113201 0.3648567 1.6790572 0.3543868 0.21026763 1.7481033 1.728942
0.0016287578 0.62467825 0.30976048 0.49793908 0.77817833 0.47838402 2.0504837 0.8153603
0.64256644 1.3727309 0.53757113 1.9791658 1.1658299 0.23589903 2.2862897 1.5276011
0.69959193 1.4974179 0.37835187 0.3851596 1.2109777 0.2286873 3.8275392 0.7109498
0.4423956 1.0647365 0.4257022 0.31821516 0.15828457 0.78892475 0.27442777 0.90772396
2.9442475 0.29079324 0.30272958 0.17937687 0.31346744 0.77220064 2.2220979 0.59307015
0.57631695 0.8618966 0.6894242 0.66646373 0.2690536 1.0017136 0.36728516 0.7931941
1.0700942 0.36227295 0.8569701 0.12169348 0.48183772 0.6988783 0.46998394 0.1959057
2.049537 0.7562223 2.1447556 0.5100968 1.0459707 0.26075983 0.13335595 1.049091
0.83020115 0.9874474 0.67866665 0.20891088 0.93934095 0.53376913 1.3640747 1.1824719
1.1885635 0.47940722 0.48660514 2.002589 1.4054801 1.1492757 0.3001209 0.26406842
0.35018826 0.41100222 0.42515862 0.21817532 0.29153714 0.5530402 0.3385546 0.19827579
