model_mixed/gdn_smap50.pth (torch, 42869 bytes, 16 tensors)

embedding.weight f4 [25, 64]
-0.01832001 -0.10701329 -0.07487645 0.072446056 -0.0059570647 -0.10518535 -0.0241795 -0.02282277
0.021664461 -0.014077912 0.14361627 -0.062312018 -0.046881214 -0.028943257 -0.041773934 0.08195355
-0.0052902084 -0.10897009 -0.004747113 0.08927007 -0.06536588 0.046860084 -0.0015213252 -0.0088146115
0.013091304 -0.027644694 0.1930249 -0.07242794 -0.013091469 -0.06704499 -0.029019585 0.10454581
-0.0023675344 0.14694259 -0.05717803 -0.023848908 -0.021960558 -0.09755957 -0.09695195 0.13639463
-0.030247178 -0.06180154 0.07684201 -0.009050652 0.072793074 -0.021080434 -0.030860538 0.088253185
-0.008735604 0.027358254 -0.0305548 0.10433426 -0.07220511 -0.038928486 -0.01534796 0.03694903
0.17388196 -0.013645859 0.0024027235 -0.043856163 -0.072157614 -0.15704608 -0.08931002 -0.010714338
-0.010255942 0.1145377 0.06646215 0.05384454 -0.054166865 0.09239175 0.058907542 0.13091105
-0.0044363798 -0.044352636 -0.026896002 -0.008347144 0.072336756 0.06692455 0.043390613 -0.016142135
-0.042135186 -0.06154817 0.0052163666 -0.008288917 -0.02777659 0.020818582 -0.025560513 0.039343894
-0.0809952 -0.00023661536 -0.01300563 -0.0520101 0.047389183 -0.08204835 0.16353922 0.06337254
-0.031345155 -0.0031833318 -0.023760354 -0.063911654 0.058587506 -0.02917036 -0.03612378 -0.11297763
-0.00956025 0.076429546 -0.008959758 -0.047540855 -0.05756306 -0.014594336 0.027944686 -0.13971192
0.020373175 -0.01854521 -0.017653506 0.0731553 -0.048631206 0.057939626 0.10978586 -0.045094367
-0.0054477467 -0.027500367 -0.04390126 -0.109105274 0.031614967 -0.07430011 0.18445173 0.085294925
0.08965928 0.1827578 0.0053125634 0.090727694 -0.05400503 0.045415968 0.013219835 -0.030967176
-0.02414048 0.09257239 0.019313766 0.24836946 0.0679372 0.1010023 0.011274479 -0.024791177
0.10779094 -0.04248604 0.027272256 -0.014793372 0.07822893 0.060075503 0.114138305 -0.11288873
0.13529044 0.17129742 -0.05035021 0.054826867 0.0017331094 0.083168834 -0.032090116 -0.00035866155
-0.040542487 -0.050852526 -0.020792695 -0.0066773407 -0.003958945 -0.026998347 -0.011184742 0.020709077
0.023789665 -0.026530953 -0.0111786835 0.111324996 0.1410253 -0.024698693 0.07222598 0.04472887
-0.012420203 0.20342138 -0.027858507 -0.008205279 0.04506207 0.0573964 0.089620575 -0.025034834
0.0076238597 -0.03420492 0.11957639 -0.088383205 -0.018838113 0.06306758 0.16286837 0.07284889
0.08577771 0.045763455 0.10051874 0.016663523 0.12974857 0.06521324 0.046516877 0.115473315
-0.0036088978 -0.040750526 -0.030732809 -0.027794044 -0.03157067 0.059061285 -0.04299524 -0.007188903
-0.03929842 -0.08444583 -0.0027426342 -0.0049050828 -0.05529459 0.08253447 0.02811709 0.08988476
-0.09188109 0.0016040186 -0.06497428 0.010705921 -0.12635683 -0.023220934 0.17836954 -0.0034818072
0.05047474 0.035995103 -0.023350421 0.051912688 0.14057982 0.05973048 -0.04698947 -0.01050572
0.11934135 -0.00023035056 -0.0044271694 -0.03135145 -0.020353826 -0.03313022 -0.011920558 -0.16222054
-0.018017069 0.013042616 0.05207839 0.076530784 -0.048470523 -0.039789192 0.07485454 -0.013043653
0.026181811 -0.023383835 0.06936176 -0.02557344 -0.019741323 -0.097684965 0.123838134 0.07632298
00000000: d813 96bc c929 dbbd d358 99bd 995e 943d
00000010: 7b33 c3bb 6b6b d7bd 1614 c6bc d1f6 babc
00000020: ab79 b13c 0ba7 66bc 2510 133e e33a 7fbd
00000030: 8406 40bd 691a edbc 251b 2bbd 43d7 a73d
00000040: 7c59 adbb b62b dfbd ac8d 9bbb 3ad3 b63d
00000050: 8cde 85bd 5cf0 3f3d 3467 c7ba 296b 10bc
00000060: e97c 563c 2077 e2bc 52a8 453e 1a55 94bd
00000070: 9a7d 56bc e24e 89bd 7bba edbc 1d1c d63d
00000080: a328 1bbb 1e78 163e 8333 6abd c95e c3bc
00000090: a1e6 b3bc 50cd c7bd be8e c6bd 09ab 0b3e
000000a0: eec8 f7bc 9d23 7dbd 585f 9d3d 3049 14bc
000000b0: 8914 953d e0b0 acbc 3dcf fcbc 16be b43d
000000c0: c71f 0fbc 6b1e e03c 0f4e fabc 33ad d53d
000000d0: 46e0 93bd 7a73 1fbd 0376 7bbc de57 173d
000000e0: 1d0e 323e e292 5fbc 0377 1d3b 85a2 33bd
000000f0: 5fc7 93bd b0d0 20be 2ce8 b6bd 318b 2fbc
00000100: 8a08 28bc be92 ea3d 4f1d 883d 188c 5c3d
00000110: 13de 5dbd e337 bd3d 0949 713d 8c0d 063e
00000120: 0d5f 91bb 1cab 35bd 0155 dcbc 76c2 08bc
00000130: 4b25 943d bd0f 893d 5bba 313d 833c 84bc
00000140: f295 2cbd ef19 7cbd 0eee aa3b 3dce 07bc
00000150: bb8b e3bc bb8b aa3c 4864 d1bc 1027 213d
00000160: d0e0 a5bd f41b 78b9 9115 55bc 8b08 55bd
00000170: 291b 423d f708 a8bd d376 273e 76c9 813d
00000180: c763 00bd 729f 50bb 13a5 c2bc 1de4 82bd
00000190: 74f9 6f3d aef6 eebc 87f6 13bd d160 e7bd
000001a0: 98a2 1cbc 1887 9c3d f3cb 12bc 33ba 42bd
000001b0: 3ec7 6bbd 151d 6fbc 41ec e43c a410 0fbe
000001c0: a5e5 a63c 20ec 97bc 169e 90bc 72d2 953d
000001d0: 8431 47bd 1a52 6d3d 69d7 e03d dfb4 38bd
000001e0: 0383 b2bb 7348 e1bc cfd1 33bd 9672 dfbd
000001f0: b27e 013d a82a 98bd eae0 3c3e 1baf ae3d
00000200: 499f b73d dc24 3b3e 0315 ae3b 71cf b93d
00000210: 6134 5dbd 1806 3a3d 0298 583c e0ae fdbc
00000220: 42c2 c5bc 9896 bd3d e737 9e3c 9054 7e3e
00000230: a922 8b3d 4bda ce3d 98b8 383c de16 cbbc
00000240: 7fc1 dc3d d805 2ebd 116a df3c e65f 72bc
00000250: 7d36 a03d bb11 763d 58c1 e93d 3532 e7bd
00000260: 9489 0a3e 9768 2f3e 063c 4ebd 2392 603d
00000270: 8029 e33a 6c54 aa3d ed70 03bd bd0a bcb9
00000280: e10f 26bd bd4a 50bd 7155 aabc 98cd dabb
00000290: 0aba 81bb a32b ddbc 3540 37bc 15a6 a93c
000002a0: 8be2 c23c 7157 d9bc cc26 37bc 5cfe e33d
000002b0: f068 103e ea54 cabc 37eb 933d 9f35 373d
000002c0: 1b7e 4bbc b24d 503e 8637 e4bc 6f6f 06bc
000002d0: 0193 383d 7d18 6b3d fe8a b73d da15 cdbc
000002e0: 92d1 f93b 751a 0cbd 77e4 f43d 4102 b5bd
000002f0: 6352 9abc 9329 813d f7c6 263e cd31 953d
00000300: 39ac af3d 7672 3b3d c5dc cd3d f181 883c
00000310: cfdc 043e 858e 853d 7b88 3e3d 467d ec3d
00000320: 4283 6cbb 06ea 26bd 5fc3 fbbc 56b0 e3bc
00000330: 3f50 01bd 3fea 713d c71b 30bd e490 ebbb
00000340: 61f7 20bd eff1 acbd c4bd 33bb d1ba a0bb
00000350: 947c 62bd d507 a93d d055 e63c 8015 b83d
00000360: 272c bcbd ef3d d23a 3c11 85bd e367 2f3c
00000370: af63 01be d439 bebc 81a6 363e 082f 64bb
00000380: 9abe 4e3d 9a6f 133d 6249 bfbc 66a2 543d
00000390: 28f4 0f3e f3a7 743d 0878 40bd 2f20 2cbc
000003a0: 3d69 f43d 428a 71b9 ca11 91bb 616a 00bd
000003b0: 11bd a6bc 8eb3 07bd 724e 43bc 241d 26be
000003c0: 8898 93bc b2b0 553c 2650 553d 2cbc 9c3d
000003d0: 0789 46bd fef9 22bd 564d 993d 0cb5 55bc
000003e0: 3d7b d63c 758f bfbc 8a0d 8e3d 647f d1bc
000003f0: 8eb8 a1bc 0e0f c8bd d99e fd3d 394f 9c3d

bn_outlayer_in.weight f4 [64]
1.3317273 1.2761717 1.5659572 1.2753958 1.2605484 1.2316614 1.5814077 1.5455968
1.0283 1.2978344 0.9728712 1.4536878 1.2292244 1.2396052 1.5370228 0.95351785
1.4552906 1.3859373 1.267712 0.9555212 0.95922256 1.2836587 0.97844356 1.2311453
1.3496903 1.5654918 0.974233 1.2278538 1.2263523 1.2807457 0.95992684 0.9396235
1.254413 0.9427057 1.1875364 1.2385675 1.2141346 1.2581335 1.2127893 0.9423649
1.4531018 1.1780511 0.94011843 1.4044828 0.9679442 1.2674752 1.5038638 0.9610795
1.6530373 1.224051 1.3786137 0.9201513 1.3297065 1.269763 1.4329464 0.99456704
0.9401247 1.4436178 1.476094 1.0732708 1.1775029 1.4574002 1.244063 1.251637
00000000: 0a76 aa3f 9859 a33f 4971 c83f 2b40 a33f
00000010: a659 a13f 15a7 9d3f 916b ca3f 1ed6 c53f
00000020: 569f 833f 701f a63f 160e 793f 7112 ba3f
00000030: 3a57 9d3f 62ab 9e3f 2abd c43f bf19 743f
00000040: f646 ba3f 6566 b13f 6344 a23f 0a9d 743f
00000050: 9c8f 753f ee4e a43f 477b 7a3f 2b96 9d3f
00000060: a7c2 ac3f 0962 c83f 5567 793f 502a 9d3f
00000070: 1df9 9c3f 7aef a33f c4bd 753f 2a8b 703f
00000080: 9b90 a03f 2955 713f 3101 983f 6189 9e3f
00000090: c368 9b3f 850a a13f ae3c 9b3f d33e 713f
000000a0: 3dff b93f 61ca 963f 9aab 703f 18c6 b33f
000000b0: 31cb 773f a13c a23f 9c7e c03f 4e09 763f
000000c0: ba96 d33f b4ad 9c3f 6a76 b03f 098f 6b3f
000000d0: d333 aa3f 9887 a23f ca6a b73f f29b 7e3f
000000e0: 03ac 703f 78c8 b83f a6f0 bc3f f060 893f
000000f0: 6ab8 963f 178c ba3f 753d 9f3f a435 a03f

bn_outlayer_in.bias f4 [64]
0.2867672 0.26484975 0.18590818 0.03488317 0.15420803 0.22046846 0.4363223 0.5153314
-0.04888982 0.2785212 -0.080749676 0.49920464 0.14241461 0.21497373 0.6740458 -0.06401734
0.42861697 0.27904302 0.24491817 -0.06422672 -0.03910891 0.1725077 -0.06456604 0.17936374
0.32173356 0.25894925 -0.0812206 0.16526744 0.22570194 0.24454816 -0.05053332 -0.07013046
0.110469036 -0.13767996 0.13239643 0.20238772 0.22866943 0.15736434 0.124077275 -0.11614274
0.49891934 0.11058363 -0.07198599 0.33111447 -0.08821439 0.21974674 0.5582637 -0.049463775
0.6639288 0.07186796 0.27772018 -0.09732759 0.25382468 0.23918243 0.28707668 -0.045052767
-0.06398233 0.14700416 0.410377 0.071489036 0.10821465 0.34084478 0.2986522 0.22661602
00000000: 27d3 923e 639a 873e b75e 3e3e a8e1 0e3d
00000010: b6e8 1d3e 7cc2 613e a365 df3e c2ec 033f
00000020: b140 48bd 559a 8e3e 1660 a5bd c097 ff3e
00000030: 23d5 113e 1322 5c3e 448e 2c3f 861b 83bd
00000040: af73 db3e bade 8e3e d4cb 7a3e 4c89 83bd
00000050: aa30 20bd dca5 303e 333b 84bd 21ab 373e
00000060: 43ba a43e ff94 843e fc56 a6bd de3b 293e
00000070: 691e 673e d56a 7a3e 07fc 4ebd 8fa0 8fbd
00000080: 973d e23d fafb 0cbe ee92 073e ba3e 4f3e
00000090: 5228 6a3e 1e24 213e 3a1c fe3d 3fdc edbd
000000a0: 5b72 ff3e ac79 e23d 646d 93bd d687 a93e
000000b0: bfa9 b4bd 4a05 613e 5fea 0e3f 879a 4abd
000000c0: 3df7 293f 822f 933d 5731 8e3e b053 c7bd
000000d0: 4ff5 813e 3dec 743e b7fb 923e 4089 38bd
000000e0: 2b09 83bd 4288 163e ef1c d23e d868 923d
000000f0: a49f dd3d 3583 ae3e f1e8 983e 080e 683e

bn_outlayer_in.running_mean f4 [64]
0.0152134895 0.011763063 0.01805313 0.0051119826 0.006403388 0.010689309 0.0066534914 0.01993433
0.0012676072 0.009148911 -0.0014294437 0.039097134 0.004957835 0.01323831 0.037150536 -0.004469032
0.014204999 -0.0012360208 0.019335378 -0.0019740406 0.002915154 0.029357847 0.0030746122 0.0029524455
0.020784574 0.01747257 -0.0019735536 0.005243313 0.009865978 0.0022643826 -0.0019305439 -0.0019647016
0.007094055 -0.004612798 0.0046148505 -0.0019534775 0.017056411 0.0062794304 0.006000922 -0.0058022486
0.03110401 0.005813755 -0.0028200087 0.0037768509 0.0016360496 0.0020550075 0.027253563 0.0024286397
0.02563253 0.009482908 0.003763998 -0.0035076514 0.0010718191 0.00060534576 0.009986925 -0.0026709551
-0.0020784829 0.0071678446 0.018935353 -0.017296491 0.0042665508 -0.0029635485 0.02412352 0.012455405
00000000: 0042 793c ddb9 403c 28e4 933c 6b82 a73b
00000010: 83d3 d13b 3622 2f3c 8805 da3b 524d a33c
00000020: d725 a63a 50e5 153c 2c5c bbba 5124 203d
00000030: 5675 a23b 7fe5 583c 292b 183d f570 92bb
00000040: 16bc 683c fa01 a2ba 3a65 9e3c e85e 01bb
00000050: 2b0c 3f3b de7f f03c 6f7f 493b d17d 413b
00000060: 6944 aa3c a322 8f3c bc56 01bb 19d0 ab3b
00000070: e9a4 213c 0966 143b 4e0a fdba 39c2 00bb
00000080: 3f75 e83b f426 97bb 2c38 973b ea05 00bb
00000090: e3b9 8b3c aec3 cd3b 62a3 c43b ca20 bebb
000000a0: d6cd fe3c 5081 be3b e5cf 38bb 0b85 773b
000000b0: b770 d63a 4ead 063b dd42 df3c d029 1f3b
000000c0: 50fb d13c 335e 1b3c 68ad 763b a0e0 65bb
000000d0: 487c 8c3a 11b0 1e3a 33a0 233c 310b 2fbb
000000e0: 2837 08bb 3de0 ea3b 501e 9b3c 5fb1 8dbc
000000f0: 6cce 8b3b 1838 42bb b09e c53c c111 4c3c

bn_outlayer_in.running_var f4 [64]
0.00084411906 0.0017778961 0.0024478342 7.052094e-05 0.0014265426 0.0021464308 0.0042331363 0.0021928595
0.0036277852 0.0015138848 0.0008871737 0.00313568 0.00094112556 0.0008850088 0.0035327005 0.0030672478
0.001963426 0.001831377 0.0009373104 0.0023233213 0.0026853397 0.0016032241 0.0024780089 0.0038875083
0.0022218649 0.0032337713 0.0015439789 0.001244607 0.0021523482 0.0044522947 0.0039217547 0.0013368668
0.0029828832 0.0013871611 0.0010503568 0.0024608835 0.0012162918 0.0012717607 0.0017346734 0.00085978355
0.0029332866 0.0014236154 0.00177108 0.0032264672 0.0027445378 0.0022813573 0.0013989256 0.002089889
0.0019337256 0.0014891957 0.0013674905 0.0015436125 0.001287264 0.0023593232 0.0010487668 0.0017580886
0.0011102445 0.002093053 0.0024560601 0.0034268168 0.0011510123 0.0029889354 0.001977932 0.0015261148
00000000: df47 5d3a 4b08 e93a d86b 203b a4e4 9338
00000010: d4fa ba3a 22ab 0c3b 1fb6 8a3b 14b6 0f3b
00000020: 23c0 6d3b 8b6d c63a 3891 683a fb7f 4d3b
00000030: deb5 763a efff 673a e184 673b e103 493b
00000040: d2ac 003b d10a f03a d6b5 753a dd42 183b
00000050: 86fc 2f3b 4623 d23a 1766 223b 91c5 7e3b
00000060: b59c 113b aeed 533b 565f ca3a 1522 a33a
00000070: 690e 0d3b 8ee4 913b 1082 803b ce39 af3a
00000080: 7a7c 433b 67d1 b53a 20ac 893a c646 213b
00000090: fb6b 9f3a 35b1 a63a fb5d e33a 1963 613a
000000a0: 623c 403b 9b98 ba3a 9523 e83a 2373 533b
000000b0: b4dd 333b d382 153b 275c b73a 85f6 083b
000000c0: 1075 fd3a 1e31 c33a 5e3d b33a 0a53 ca3a
000000d0: 6ab9 a83a e09e 1a3b c676 893a aa6f e63a
000000e0: a085 913a 9a2b 093b daf5 203b 7294 603b
000000f0: 90dd 963a 04e2 433b 31a0 013b ea07 c83a

gnn_layers.0.gnn.att_i f4 [1, 1, 64]
-0.44384554 0.1184217 0.21890442 -0.08854234 0.3137389 0.07690701 0.062393058 0.061115175
0.4303748 -0.4246916 -0.11565759 -0.18644816 0.24574447 -0.3376356 0.21234053 0.21749108
-0.35624167 -0.2448647 -0.3558879 0.19081175 0.05231033 0.031011686 -0.116209656 0.44517654
-0.24614418 -0.15072124 0.22457355 0.09578034 -0.17498735 -0.056783013 -0.30809194 -0.102062605
0.0074566077 -0.4124742 -0.33428085 0.2125323 0.37225765 0.18874069 0.13741864 0.3216943
0.06355078 0.055855986 0.007919824 -0.018071318 0.2354629 0.1412937 0.09366298 -0.44211066
-0.2923248 -0.4379652 -0.36061823 0.28292212 -0.006642432 0.14941241 -0.4222703 0.10095367
-0.12089952 -0.25330335 -0.29324302 0.27807498 -0.17045647 0.18531276 -0.20462923 -0.07784859
00000000: b93f e3be 1487 f23d 7b28 603e b055 b5bd
00000010: 63a2 a03e 6c81 9d3d dd8f 7f3d e853 7a3d
00000020: 165a dc3e 2d71 d9be e3dd ecbd 44ec 3ebe
00000030: 70a4 7b3e 93de acbe cc6f 593e fbb5 5e3e
00000040: 4f65 b6be d0bd 7abe f036 b6be 2864 433e
00000050: 5b43 563d 380c fe3c 54ff edbd 2eee e33e
00000060: 380d 7cbe ab56 1abe 9cf6 653e 7c28 c43d
00000070: e22f 33be 4e95 68bd 3abe 9dbe 3306 d1bd
00000080: 8f56 f43b d12f d3be dc26 abbe 11a2 593e
00000090: 8e98 be3e 3d45 413e 79b7 0c3e 1eb5 a43e
000000a0: e926 823d 3fc9 643d 26c2 013c 4d0a 94bc
000000b0: 301d 713e 4caf 103e 60d2 bf3d 545c e2be
000000c0: 99ab 95be fa3c e0be f4a2 b8be 2bdb 903e
000000d0: c2a8 d9bb 91ff 183e d033 d8be ccc0 ce3d
000000e0: 2b9a f7bd fab0 81be f323 96be d85f 8e3e
000000f0: 248c 2ebe a1c2 3d3e 538a 51be 156f 9fbd

gnn_layers.0.gnn.att_j f4 [1, 1, 64]
-0.30813992 -0.2393064 0.2225296 -0.19239858 -0.118662685 -0.26412958 -0.104096666 -0.2980436
0.2011148 -0.025924446 -0.022088682 0.09444789 -0.10729976 -0.1591024 0.20667006 -0.21712735
-0.24204153 0.17243634 0.101617455 -0.083798535 -0.04330815 0.23310569 -0.16689776 -0.124491274
-0.23609783 0.08384627 -0.10584152 -0.09936234 0.010011443 0.13336945 0.1660187 -0.17105167
-0.118089765 -0.15037179 0.063205644 0.24400169 -0.22426824 -0.16964497 0.1921006 -0.11698908
-0.12858987 0.1974976 0.13308145 -0.3062907 -0.15766472 0.06257043 0.16687334 -0.3018197
-0.20807649 0.20217106 -0.10518704 -0.03793824 -0.05525616 -0.23197241 -0.0114094205 0.16752686
0.093317725 -0.06398573 -0.19400264 0.3047602 -0.018044423 -0.14917251 0.11694156 0.00045180487
00000000: 84c4 9dbe bd0c 75be cdde 633e 2204 45be
00000010: 6c05 f3bd fe3b 87be a230 d5bd 2c99 98be
00000020: 0af1 4d3e 815f d4bc 53f3 b4bc e56d c13d
00000030: fabf dbbd bdeb 22be 51a1 533e a256 5ebe
00000040: bcd9 77be 2793 303e d01c d03d 919e abbd
00000050: e363 31bd 42b3 6e3e 3fe7 2abe 48f5 febd
00000060: a1c3 71be 98b7 ab3d 70c3 d8bd 7c7e cbbd
00000070: 0907 243c 0092 083e ce00 2a3e 2b28 2fbe
00000080: 0cd9 f1bd 10fb 19be f671 813d 94db 793e
00000090: 93a6 65be 69b7 2dbe 05b6 443e f997 efbd
000000a0: 10ad 03be d03c 4a3e 8146 083e 22d2 9cbe
000000b0: dc72 21be ed24 803d d8e0 2a3e 1d88 9abe
000000c0: 0112 55be ee05 4f3e 4e6c d7bd 2165 1bbd
000000d0: 4954 62bd 2d8a 6dbe 94ee 3abc 298c 2b3e
000000e0: 5d1d bf3d f30a 83bd a1a8 46be 8709 9c3e
000000f0: e6d1 93bc aec0 18be 0e7f ef3d 39e0 ec39

gnn_layers.0.gnn.att_em_i f4 [1, 1, 64]
-0.1406212 -0.14543657 -0.20591494 -0.1463494 -0.14729835 -0.046600573 -0.11082448 -0.09231603
-0.011880373 -0.27782252 -0.26409838 -0.26956216 -0.05739299 -0.017538715 -0.22033587 -0.30884492
-0.10961403 -0.11407158 -0.26513928 -0.14740273 -0.33159515 -0.16649292 0.33566448 0.28085083
-0.45904982 0.33208394 -0.20070356 -0.15113205 -0.34441644 -0.281357 0.54555666 -0.061779924
0.15069026 0.006811686 0.053746484 0.10682603 0.08553037 0.03689966 0.08409387 -0.15458383
-0.24596776 0.35309353 -0.115293525 0.009895178 -0.4805127 -0.14352836 -0.11021827 -0.37960738
-0.14349057 0.2401215 0.23764522 0.19384748 -0.019427402 0.1994234 0.37374464 -0.24805836
-0.13434808 0.08625813 -0.13924994 0.11012549 0.1008599 -0.071205184 0.1089499 -0.0046658427
00000000: 01ff 0fbe 53ed 14be 5edb 52be 9edc 15be
00000010: 61d5 16be 3ee0 3ebd f2f7 e2bd 3010 bdbd
00000020: e5a5 42bc c13e 8ebe e737 87be 0d04 8abe
00000030: e914 6bbd 5aad 8fbc ba9f 61be ec20 9ebe
00000040: 527d e0bd 5c9e e9bd 56c0 87be bef0 16be
00000050: d7c6 a9be 1f7d 2abe 37dc ab3e aecb 8f3e
00000060: 9408 ebbe e806 aa3e 3c85 4dbe 5cc2 1abe
00000070: 5a57 b0be 060e 90be 9aa9 0b3f f20c 7dbd
00000080: 8c4e 1a3e 9034 df3b 4625 5c3d 9bc7 da3d
00000090: 8c2a af3d 1924 173d 6839 ac3d 394b 1ebe
000000a0: f9de 7bbe adc8 b43e 031f ecbd 621f 223c
000000b0: c305 f6be 19f9 12be 1eba e1bd e65b c2be
000000c0: 31ef 12be 69e2 753e 4559 733e f47f 463e
000000d0: 3726 9fbc a635 4c3e 755b bf3e 0303 7ebe
000000e0: 8b92 09be 1aa8 b03d 8997 0ebe 7989 e13d
000000f0: a38f ce3d 06d4 91bd 2021 df3d ede3 98bb

gnn_layers.0.gnn.att_em_j f4 [1, 1, 64]
-0.12111509 -0.7129865 -0.49757373 0.15877247 -0.019229138 -0.6370279 -0.59598047 0.055685688
0.33342662 0.03050907 -0.066668846 -0.46627092 -0.19039382 -0.11356383 -0.48927382 0.3996024
0.124017335 -0.6668398 -0.19263647 0.31038818 -0.3374941 -0.5564827 0.27753785 0.4097156
-0.5666563 0.36060703 -0.13292052 -0.16679694 -0.90083057 -0.51345754 0.30573794 0.017207354
-0.059400477 0.062171888 -0.12742628 0.07816951 -0.13823509 -0.31474409 -0.21625239 0.026604125
-0.8375297 0.06420456 0.1276728 0.13399795 -0.017430084 -0.28522912 -0.20151043 -0.4040214
-0.008053625 -0.2516591 0.22547473 0.18765466 -0.0022029113 -0.26611024 0.059028387 0.25990164
0.05361771 0.164623 0.14379524 0.20158908 -0.02820767 -0.54495823 -0.2178158 0.16025443
00000000: 300b f8bd 4986 36bf fcc1 febe 4095 223e
00000010: 6d86 9dbc 4314 23bf 2d92 18bf ad16 643d
00000020: e5b6 aa3e 28ee f93c ad89 88bd 10bb eebe
00000030: 99f6 42be 2794 e8bd 1982 fabe b098 cc3e
00000040: cdfc fd3d 03b6 2abf 7f42 45be 33eb 9e3e
00000050: 07cc acbe a675 0ebf 7119 8e3e 3ec6 d13e
00000060: 6310 11bf 7ca1 b83e 511c 08be d1cc 2abe
00000070: d59c 66bf f471 03bf af89 9c3e 70f6 8c3c
00000080: ea4d 73bd f3a7 7e3d 097c 02be 5617 a03d
00000090: 808d 0dbe 2326 a1be 4471 5dbe e5f0 d93c
000000a0: 5968 56bf ae7d 833d a9bc 023e c236 093e
000000b0: 89c9 8ebc 8d09 92be c058 4ebe e5db cebe
000000c0: 5af3 03bc 76d9 80be d9e2 663e 8b28 403e
000000d0: b85e 10bb 9a3f 88be c0c7 713d d411 853e
000000e0: 3e9e 5b3d ef92 283e 0f3f 133e 5e6d 4e3e
000000f0: c613 e7bc 6282 0bbf 1b0b 5fbe bd19 243e

gnn_layers.0.gnn.bias f4 [64]
0.012763588 0.009579313 0.029151196 0.027543927 0.049839288 0.00039682505 0.004496011 0.008628652
-0.0069654086 0.022786224 0.014513388 0.048856094 -0.006337017 0.006384258 0.03381847 -0.02898066
0.061950907 0.009143364 0.002184696 0.016836682 -0.019216647 0.007624749 -0.0059793238 0.02053418
0.016273696 0.028638337 -0.011770486 -0.00020073821 0.013368141 0.015412477 -0.021795718 0.0033844435
0.0058261207 0.00015698947 0.014268276 0.02849 0.05886901 0.0009328658 0.0020776964 0.02281947
0.043751433 0.007880505 0.017489584 0.0082370285 -0.01990317 -0.002798469 0.023193464 0.00024234418
0.062280573 -0.015083422 0.015966384 0.004107698 0.0002475377 0.044239506 0.012254201 0.025031459
0.0075718607 0.014062296 0.029433459 -0.008822754 0.009951993 0.012865243 0.0391495 0.034438677
00000000: 5e1e 513c 8df2 1c3c 7dce ee3c cda3 e13c
00000010: 4824 4c3d f50c d039 4653 933b 315f 0d3c
00000020: 153e e4bb 2daa ba3c 90c9 6d3c 541d 483d
00000030: c0a6 cfbb 0a33 d13b 3c85 0a3d d968 edbc
00000040: 3cc0 7d3d 0cce 153c 1e2d 0f3b 15ed 893c
00000050: 3b6c 9dbc 08d9 f93b 34ee c3bb 4c37 a83c
00000060: 6a50 853c f29a ea3c ffd8 40bc 417d 52b9
00000070: 0c06 5b3c 9d84 7c3c ef8c b2bc 8acd 5d3b
00000080: 0be9 be3b 8a9d 2439 7dc5 693c dc63 e93c
00000090: a220 713d 908b 743a f629 083b e6ef ba3c
000000a0: b434 333d 3c1d 013c 5146 8f3c 9af4 063c
000000b0: f90b a3bc 8566 37bb 3800 be3c c51d 7e39
000000c0: ea19 7f3d 7520 77bc efcb 823c de99 863b
000000d0: f3c7 8139 7c34 353d d8c5 483c c60e cd3c
000000e0: 5f1d f83b 8b65 663c 701e f13c 508d 10bc
000000f0: af0d 233c bdc8 523c 3a5b 203d 920f 0d3d

gnn_layers.0.gnn.lin.weight f4 [64, 100]
-0.030265177 -0.06278194 -0.0583487 -0.083740145 0.06764256 -0.021786539 -0.042308945 0.03169466
-0.069432355 0.07877959 -0.07558892 0.041943893 0.0060204524 -0.16267878 -0.11593635 -0.11412821
0.041063294 -0.058649506 0.23575954 0.2615575 -0.12143324 -0.010044085 -0.009688311 0.10995203
-0.11673388 0.12672915 -0.15296799 0.15375255 0.06869618 -0.050184164 0.15811759 0.09839401
0.15541406 -0.0241408 -0.020784264 0.08766035 0.15653053 0.21437943 0.026055926 0.016629215
0.05924645 0.08831057 -0.0906669 -0.018539656 0.008373395 -0.06814292 -0.0013817239 0.08509407
0.04206733 0.067678094 0.06535212 -0.08129804 -0.12655596 0.13170406 0.058111068 0.0823121
0.028451568 0.08889902 0.09822631 -0.17082885 -0.0027326772 0.097988814 -0.075362615 -0.119207665
0.039554793 0.14137891 -0.068446 0.17188816 -0.055013254 0.012710762 0.11686752 0.107008435
0.17521404 -0.14680126 0.011462306 -0.023588233 0.007949393 -0.21302931 -0.22844186 0.1190719
0.044435076 0.0003455075 -0.19511843 0.17809953 -0.0872263 -0.016612338 0.07552686 0.2333424
0.049505252 -0.050896373 -0.065040395 0.07874924 -0.025569467 -0.008693805 0.043550152 0.010825143
-0.25170752 -0.42389542 -0.4152004 0.010703032 -0.15279004 0.20711537 -0.057803433 0.1064922
0.17528209 0.10397795 -0.051292468 -0.047878705 -0.114545934 0.16966268 0.038843326 -0.04486185
-0.19074142 0.0979168 -0.20974194 0.09093245 0.07926427 -0.05854383 0.08109369 -0.04162788
-0.14113683 0.012069513 -0.01651601 -0.16813973 0.07189193 -0.033469114 -0.06664281 -0.1453287
-0.029904453 0.12251937 0.1411388 -0.13698237 0.032643475 0.039597604 -0.16032743 0.14550133
-0.19586258 0.048615698 -0.04963964 -0.12242932 0.018103287 0.071275406 -0.024524257 0.075073965
-0.09834991 0.098074965 -0.11629228 0.04825284 0.05175122 0.0753365 0.061603516 -0.10672992
-0.024318745 0.03798648 0.14284694 0.16615312 -0.0711888 0.054182936 0.00020781212 -0.08677562
-0.052092534 0.089635596 -0.2119062 -0.0737775 -0.17740677 0.05273559 -0.14649063 -0.1356925
0.17981444 0.033732623 -0.06709695 -0.13011876 -0.09072639 -0.05386746 -0.013603338 0.11423617
0.0134004075 0.106479265 0.11228882 0.17833348 0.110591695 0.12176058 0.09330894 0.17391993
0.17759036 -0.017233519 0.027264588 0.026044713 0.008020655 -0.19873613 0.12869002 0.09139487
-0.039316893 0.0639385 0.13641317 0.06823625 -0.19869548 -0.41576755 -0.17547636 -0.011621494
-0.07856132 0.049570076 -0.06677826 0.17789939 -0.046965644 -0.10303053 -0.029530272 -0.11941711
0.063616574 0.14078996 0.08368478 -0.083871745 0.14608696 -0.15021002 -0.15275702 0.09126331
0.13917518 0.048966378 -0.15670513 0.17079242 0.06795733 0.02879339 0.15285048 -0.08181636
-0.1442086 0.057676874 -0.05306808 0.014842947 -0.08959713 0.014617849 0.13117483 0.014485662
-0.04461938 0.0076082507 0.007829404 0.0593299 -0.0066208416 0.036473397 -0.16680779 0.13245355
-0.0126257865 0.026620673 -0.08837009 0.093782365 -0.04971179 0.106923066 -0.059415575 -0.1046642
-0.1655907 -0.101207875 0.050929423 0.12952226 0.05571573 0.03176362 -0.08911163 0.17341398
00000000: adee f7bc d193 80bd 0cff 6ebd f47f abbd
00000010: 2f88 8a3d af79 b2bc 254c 2dbd 43d2 013d
00000020: 8d32 8ebd 3257 a13d 5dce 9abd 5ccd 2b3d
00000030: 3747 c53b 4495 26be 0970 edbd 0dbc e9bd
00000040: fc31 283d 773a 70bd f36a 713e ddea 853e
00000050: feb1 f8bd f28f 24bc b9bb 1ebc 882e e13d
00000060: 2c12 efbd 49c5 013e a4a3 1cbe 4f71 1d3e
00000070: 95b0 8c3d e98d 4dbd 94e9 213e cc82 c93d
00000080: dd24 1f3e edc2 c5bc c343 aabc 4587 b33d
00000090: 8a49 203e 4886 5b3e 3d73 d53c fe39 883c
000000a0: 68ac 723d 2cdc b43d 91af b9bd 7ae0 97bc
000000b0: 9030 093c 848e 8bbd f61a b5ba cd45 ae3d
000000c0: cb4e 2c3d d09a 8a3d 55d7 853d 967f a6bd
000000d0: e397 01be 6edd 063e df05 6e3d 3f93 a83d
000000e0: 4313 e93c b010 b63d e02a c93d c2ed 2ebe
000000f0: b716 33bb 5cae c83d b757 9abd 2623 f4bd
00000100: 3504 223d a2c5 103e 6b2d 8cbd 7303 303e
00000110: 9455 61bd cd40 503c 3d58 ef3d 3d27 db3d
00000120: 4f6b 333e 1253 16be 65cc 3b3c 1c3c c1bc
00000130: 2c3e 023c 5b24 5abe aaec 69be f8db f33d
00000140: 8e01 363d 3b25 b539 20cd 47be b95f 363e
00000150: b4a3 b2bd 9916 88bc d4ad 9a3d 4ff1 6e3e
00000160: 05c6 4a3d b778 50bd e633 85bd 4847 a13d
00000170: 0f77 d1bc 7670 0ebc a561 323d f15b 313c
00000180: cfdf 80be d208 d9be 2695 d4be c55b 2f3c
00000190: fe74 1cbe 0d16 543e 4bc3 6cbd 9518 da3d
000001a0: 267d 333e 64f2 d43d 0d18 52bd 761c 44bd
000001b0: 0f97 eabd 0ebc 2d3e 2e1a 1f3d 0fc1 37bd
000001c0: b851 43be 9a88 c83d 97c6 56be cb3a ba3d
000001d0: 4e55 a23d a8cb 6fbd 7314 a63d ff81 2abd
000001e0: 2c86 10be 35bf 453c 954c 87bc d22c 2cbe
000001f0: 143c 933d e916 09bd 077c 88bd 0cd1 14be
00000200: 2ffa f4bc 6feb fa3d b186 103e 1b45 0cbe
00000210: 2ab5 053d 1931 223d e02c 24be 4dfe 143e
00000220: 3390 48be 4121 473d ef52 4bbd 39bc fabd
00000230: 584d 943c d7f8 913d 18e7 c8bc 61c0 993d
00000240: ad6b c9bd 87db c83d a62a eebd c5a4 453d
00000250: 16f9 533d 064a 9a3d f853 7c3d 3795 dabd
00000260: 1b38 c7bc b697 1b3d 7846 123e 0b24 2a3e
00000270: 6fcb 91bd edee 5d3d 24e8 5939 6bb7 b1bd
00000280: fb5e 55bd de92 b73d f0fd 58be a818 97bd
00000290: 1faa 35be 4601 583d a401 16be faf2 0abe
000002a0: 4721 383e 382b 0a3d 206a 89bd da3d 05be
000002b0: c2ce b9bd 20a4 5cbd 89e0 5ebc a7f4 e93d
000002c0: 628d 5b3c cd11 da3d aef7 e53d 0d9d 363e
000002d0: e67d e23d 9c5d f93d c218 bf3d 1118 323e
000002e0: 3fda 353e 4f2d 8dbc fc59 df3c b95b d53c
000002f0: 1169 033c 7c81 4bbe 51c7 033e 3c2d bb3d
00000300: c00a 21bd 30f2 823d e5af 0b3e 72bf 8b3d
00000310: d476 4bbe 7cdf d4be 13b0 33be 1468 3ebc
00000320: c2e4 a0bd fe09 4b3d 0ac3 88bd 422b 363e
00000330: 0c5f 40bd ac01 d3bd 78e9 f1bc f590 f4bd
00000340: 6849 823d 3e2b 103e ed62 ab3d f3c4 abbd
00000350: d297 153e a8d0 19be 566c 1cbe 42e8 ba3d
00000360: f083 0e3e f890 483d 4f77 20be 35e4 2e3e
00000370: 362d 8b3d 1ee0 eb3c d684 1c3e 568f a7bd
00000380: 6bab 13be 963e 6c3d ea5d 59bd d52f 733c
00000390: b37e b7bd b47f 6f3c b252 063e 4555 6d3c
000003a0: d0c2 36bd a24e f93b e746 003c e903 733d
000003b0: a5f3 d8bb 2165 153d a9cf 2abe e7a1 073e
000003c0: 63dc 4ebc 9913 da3c 61fb b4bd f810 c03d
000003d0: 979e 4bbd 7bfa da3d bf5d 73bd 2f5a d6bd
000003e0: 9c90 29be 1346 cfbd 5f9b 503d 7ca1 043e
000003f0: 2d36 643d 921a 023d 2980 b6bd 6f93 313e

gnn_layers.0.bn.weight f4 [64]
0.8343719 0.25399667 0.21055883 0.6982429 0.3856069 0.4480077 0.43229493 0.86609906
0.7907057 1.0092797 0.4419988 0.19904329 0.40698597 0.66866124 0.18633233 0.9597372
0.8702398 0.16136943 0.36305892 0.9715665 0.95280534 1.0786618 0.9447314 0.56848615
0.014420173 0.5739492 0.6692407 0.35720164 0.031537183 0.6022147 0.9107832 0.91057193
0.5032687 0.7900262 0.4919747 0.60799927 0.33506802 0.25342098 0.45713097 0.5597389
0.18927139 0.6893521 0.57978094 0.7412247 0.8639875 0.70689315 0.37551644 0.91594106
0.5886115 1.0104873 1.0251939 0.68444693 0.17153506 0.7882288 0.8727779 0.5151805
0.651879 1.0726496 0.70707035 0.5677838 0.63394916 0.17637223 0.57524043 0.8235167
00000000: 6699 553f da0b 823e bc9c 573e 0cc0 323f
00000010: 456e c53e 4461 e53e c355 dd3e abb8 5d3f
00000020: b06b 4a3f 1430 813f ab4d e23e 01d2 4b3e
00000030: 7760 d03e 622d 2b3f e7cd 3e3e 56b1 753f
00000040: 09c8 5e3f 073e 253e dce2 b93e 95b8 783f
00000050: 0deb 733f 9711 8a3f ebd9 713f 4f88 113f
00000060: 9742 6c3c 56ee 123f 5c53 2b3f 22e3 b63e
00000070: 222d 013d be2a 1a3f 1629 693f 3e1b 693f
00000080: 38d6 003f 283f 4a3f 1ce4 fb3e d7a5 1b3f
00000090: 098e ab3e 65c0 813e 120d ea3e 0c4b 0f3f
000000a0: 5cd0 413e 6179 303f 866c 143f e7c0 3d3f
000000b0: 492e 5d3f f3f6 343f b143 c03e 1d7b 6a3f
000000c0: 3eaf 163f a657 813f 8e39 833f ea37 2f3f
000000d0: e3a6 2f3e 5dc9 493f 5f6e 5f3f dfe2 033f
000000e0: 8be1 263f 954c 893f 9002 353f 475a 113f
000000f0: 7e4a 223f ec9a 343e f542 133f fed1 523f

gnn_layers.0.bn.bias f4 [64]
0.20124088 0.34747455 0.50177175 -0.37427464 0.34776467 0.29466408 0.39797193 0.26743603
0.13904236 0.22626898 0.37274718 0.5141255 0.41859326 0.25421885 0.6210093 0.032948177
0.3127083 0.4443821 0.3382017 0.009514122 -0.03923264 -0.072363414 -0.04998629 0.24094106
0.38463077 0.34645337 0.23138832 0.37987182 0.35099763 0.27577254 -0.05595641 0.045178723
0.35178363 0.09124587 0.35185143 0.30164513 0.34474263 0.37353757 0.30023843 0.22682616
0.46087414 0.2532707 0.19679342 0.25704205 -0.07854503 0.22410806 0.389155 -0.07158532
0.33790937 -0.12633972 0.20877302 0.12793037 0.4861747 0.21984103 0.2579217 0.24401492
0.21421216 0.13517204 0.2867166 0.22835463 0.23902632 0.4985036 0.27917993 0.22591873
00000000: 1712 4e3e 2fe8 b13e 1d74 003f eda0 bfbe
00000010: 360e b23e 36de 963e fac2 cb3e 60ed 883e
00000020: 1f61 0e3e 0eb3 673e b8d8 be3e bb9d 033f
00000030: db51 d63e f928 823e 77fa 1e3f abf4 063d
00000040: 4d1b a03e 0d86 e33e c628 ad3e 1fe1 1b3c
00000050: 68b2 20bd 4533 94bd 6dbe 4cbd 41b9 763e
00000060: 53ee c43e 5662 b13e 0ff1 6c3e 8f7e c23e
00000070: f6b5 b33e 0f32 8d3e 8c32 65bd 530d 393d
00000080: fc1c b43e 1ddf ba3d df25 b43e 3b71 9a3e
00000090: 1b82 b03e 5140 bf3e dab8 993e 1e45 683e
000000a0: b2f7 eb3e b2ac 813e 3784 493e 049b 833e
000000b0: 37dc a0bd 957c 653e 533f c73e 539b 92bd
000000c0: 7502 ad3e 335f 01be 98c8 553e 2e00 033e
000000d0: e4eb f83e 021e 613e 500e 843e 0cdf 793e
000000e0: 6f5a 5b3e 8a6a 0a3e 85cc 923e ccd5 693e
000000f0: 51c3 743e dd3b ff3e acf0 8e3e 3d57 673e

gnn_layers.0.bn.running_mean f4 [64]
-0.056816347 -0.048011705 0.05369235 -0.21509758 0.0508448 -0.06887126 0.20197964 -0.047367282
0.031327758 -0.07239415 0.20787857 0.11336702 0.010214976 -0.06316124 0.23884946 0.026043117
-0.0023348466 -0.08959092 -0.00880468 0.047717214 0.0026219042 -0.17097639 0.0130096525 0.16309687
-0.13486561 -0.000834999 0.1076652 -0.15730193 -0.19031125 0.21333605 -0.0033632882 0.07487517
-0.14417794 0.0893003 -0.14008157 0.21237764 0.101025954 -0.12354123 -0.11958669 0.114280306
0.0485531 -0.12790875 0.12258277 0.17141734 0.015845805 0.18079036 0.031576443 -0.29547602
-0.0014417433 -0.16989616 -0.05224682 0.08145598 -0.060540132 0.2101655 -0.072374396 0.05507156
0.14392197 -0.035854872 -0.0313192 0.19888856 -0.16185778 -0.11511627 -0.020148993 -0.018662402
00000000: 42b8 68bd eca7 44bd 82ec 5b3d 8a42 5cbe
00000010: a342 503d 600c 8dbd c0d3 4e3e 3204 42bd
00000020: 8951 003d 6243 94bd 1fde 543e f82c e83d
00000030: b75c 273c ae5a 81bd f494 743e 6058 d53c
00000040: 3a04 19bb 727b b7bd 8141 10bc 2073 433d
00000050: 41d4 2b3b 6f14 2fbe 7026 553c de02 273e
00000060: 361a 0abe d6e3 5aba 937f dc3d c213 21be
00000070: f4e0 42be c474 5a3e 9d6a 5cbb 2758 993d
00000080: 62a3 13be 13e3 b63d 8b71 0fbe 8679 593e
00000090: b2e6 ce3d 2f03 fdbd dee9 f4bd cb0b ea3d
000000a0: 9edf 463d 83fa 02be ad0c fb3d 0788 2f3e
000000b0: 10cf 813c 1c21 393e 4d56 013d a248 97be
000000c0: e1f8 bcba 42f9 2dbe c300 56bd 65d2 a63d
000000d0: eef8 77bd a035 573e 0739 94bd b792 613d
000000e0: 4860 133e 8fdc 12bd 9048 00bd 71a9 4b3e
000000f0: 0cbe 25be 14c2 ebbd 800f a5bc e5e1 98bc

gnn_layers.0.bn.running_var f4 [64]
0.073170066 0.026125515 0.011122537 0.15744092 0.019107668 0.02532681 0.09624595 0.07534246
0.017638864 0.12165912 0.09551576 0.030868996 0.011762058 0.036628317 0.09444311 0.029660456
0.061325926 0.089586966 0.027107216 0.03390554 0.018546173 0.09186255 0.020801313 0.06510943
0.07306404 0.029210849 0.070122905 0.10818847 0.14096227 0.088470384 0.010717695 0.035773918
0.07136513 0.07376695 0.12126976 0.075204715 0.0195837 0.047541846 0.07231278 0.048366003
0.019006409 0.06564453 0.041635085 0.0761481 0.01724235 0.08520717 0.022341808 0.17430437
0.048123192 0.07429982 0.069261715 0.03026335 0.14840655 0.11258835 0.10643228 0.024007749
0.099455275 0.045055628 0.0494106 0.092065245 0.08031458 0.082980685 0.062428795 0.066517726
00000000: 30da 953d 2d05 d63c 4d3b 363c 3138 213e
00000010: af87 9c3c 2c7a cf3c 991c c53d 264d 9a3d
00000020: 617f 903c 6b28 f93d c49d c33d fae0 fc3c
00000030: a6b5 403c 9307 163d 646b c13d 7cfa f23c
00000040: e530 7b3d 5f79 b73d f40f de3c 89e0 0a3d
00000050: 25ee 973c 6f22 bc3d 8467 aa3c 1858 853d
00000060: 99a2 953d 974b ef3c 999c 8f3d eb91 dd3d
00000070: 6a58 103e f62f b53d 4599 2f3c ac87 123d
00000080: e227 923d 2013 973d 485c f83d ee04 9a3d
00000090: ff6d a03c 3dbb 423d b918 943d 6e1b 463d
000000a0: 54b3 9b3c a470 863d 8d89 2a3d 89f3 9b3d
000000b0: d43f 8d3c 1981 ae3d 2b06 b73c d87c 323e
000000c0: d31c 453d 812a 983d 16d9 8d3d d8ea f73c
000000d0: e3f7 173e b994 e63d 2bf9 d93d e6ab c43c
000000e0: 35af cb3d 408c 383d c562 4a3d b48c bc3d
000000f0: f87b a43d c7f1 a93d 56b5 7f3d 723a 883d

out_layer.mlp.0.weight f4 [1, 64]
-0.2325042 -0.24584961 -0.21484987 -0.17137218 -0.31221083 -0.24863742 -0.25124887 -0.2421765
0.08517503 -0.28268537 0.021602996 -0.22980095 -0.2721261 -0.29228535 -0.263476 0.05208369
-0.2805542 -0.21994698 -0.24632077 0.04110017 -0.037608266 -0.30560952 -0.06501705 -0.14661099
-0.29355755 -0.3190695 0.02122841 -0.2605942 -0.28131223 -0.16410992 0.06482952 0.02889232
-0.20368846 0.031395677 -0.24289505 -0.2233985 -0.2725266 -0.23912564 -0.24989925 0.019307869
-0.24293113 -0.23940876 0.057035398 -0.19033578 0.051800895 -0.23508605 -0.23098671 -0.049279545
-0.32125455 -0.23988806 -0.19730884 0.033438165 -0.19846492 -0.20048156 -0.19165745 0.07598531
0.022797192 -0.21550539 -0.21415637 -0.09942023 -0.26102698 -0.21877472 -0.26008028 -0.31879854
00000000: 9515 6ebe 00c0 7bbe 9b01 5cbe 307c 2fbe
00000010: 19da 9fbe cf9a 7ebe b1a3 80be 1efd 77be
00000020: 3f70 ae3d 23bc 90be c4f8 b03c f150 6bbe
00000030: 1d54 8bbe 6da6 95be 54e6 86be b555 553d
00000040: cda4 8fbe c839 61be 833b 7cbe a758 283d
00000050: 200b 1abd da78 9cbe a927 85bd 3121 16be
00000060: 2d4d 96be 145d a3be 34e7 ad3c 9a6c 85be
00000070: 2808 90be 6e0c 28be 57c5 843d 96af ec3c
00000080: b593 50be c198 003d 7bb9 78be 94c2 64be
00000090: 9b88 8bbe 5add 74be 97e5 7fbe 892b 9e3c
000000a0: f0c2 78be 9227 75be f39d 693d 62e7 42be
000000b0: 2d2d 543d 66ba 70be c887 6cbe 59d9 49bd
000000c0: 7a7b a4be 37a5 75be 540b 4abe 75f6 083d
000000d0: 633a 4bbe 0a4b 4dbe da41 44be 309e 9b3d
000000e0: 2dc1 ba3c 72ad 5cbe cf4b 5bbe d59c cbbd
000000f0: 54a5 85be 7b06 60be 3e29 85be 9039 a3be
