model_mixed/gdn_smap_w_5_epoch50.pth (torch, 18799 bytes, 16 tensors)

embedding.weight f4 [25, 64]
0	0xbe96b4aa	-0.2943471
1	0xbe4610cc	-0.19342345
2	0x3e380fcb	0.17974775
3	0xbc8c259d	-0.01710778
4	0xbdb25197	-0.08706968
5	0xbdc0c25e	-0.094120726
6	0xbdb5289e	-0.08845638
7	0xbd56fa20	-0.05248463
8	0xbe1f9c29	-0.15586914
9	0xbd94b130	-0.07260358
10	0xbcc3d9b2	-0.023907516
11	0xbd07ef61	-0.033187274
12	0xbdcb0b4a	-0.099142626
13	0x3da87553	0.08225503
14	0xbd8318a5	-0.06401185
15	0xbd96b048	-0.07357842
16	0xbe8ed282	-0.2789498
17	0x3d6be6bd	0.057593096
18	0xbe044e61	-0.12920524
19	0xbd8670cd	-0.06564484
20	0xbe4a99f9	-0.19785298
21	0x39eafeb3	0.00044821724
22	0xbdf68cdf	-0.12038588
23	0xbd4c4b6b	-0.04987661
24	0x3d2f424d	0.04278784
25	0x3bfe717b	0.007764993
26	0x3c03ca3e	0.008043824
27	0xbe1357fb	-0.1438903
28	0x3d645d88	0.05575326
29	0xbcec4d49	-0.028845446
30	0xbda96c5d	-0.08272622
31	0xbc5d1101	-0.013492824
32	0xbd11d214	-0.035600737
33	0x3c2d3ff1	0.010574327
34	0xbd0b22e5	-0.033968825
35	0x3de09d0e	0.10967456
36	0xbdd3127c	-0.1030626
37	0x3da32ed0	0.07967913
38	0xbe1aff18	-0.15136373
39	0x3c832043	0.016006595
40	0xbd97348a	-0.07383068
41	0x3dd73bcc	0.10509452
42	0x3ba0f4a5	0.0049119764
43	0x3e06c458	0.13160837
44	0xbd697a2d	-0.05700128
45	0x3bcea91e	0.0063067814
46	0xbd2d5e9a	-0.042326547
47	0xbd8f08a8	-0.06984073
48	0x3b04c914	0.0020261453
49	0xbd391402	-0.045185097
50	0x3cb3749d	0.021906191
51	0xbb05952b	-0.00203831
52	0xbe43ce7d	-0.19121738
53	0xbdff9dc6	-0.12481265
54	0x3e0c3f86	0.13696107
55	0xbd610530	-0.054936588
56	0x3e014f8a	0.12627998
57	0xbd9dfc25	-0.077141084
58	0xba7c27af	-0.00096189504
59	0x3b997df5	0.0046842047
60	0x3d74e4b4	0.05978842
61	0xbdeadecb	-0.11468276
62	0xbd1e432f	-0.03863829
63	0x3deaa82c	0.114578575
64	0xbd19fc11	-0.037593905
65	0x3ddfe745	0.10932783
66	0xbdd52bbb	-0.104087315
67	0x3e178b9b	0.14799349
68	0xbd63ba48	-0.055597574
69	0x3dbf3432	0.09336127
70	0xbc25f81b	-0.010129954
71	0xba54a03d	-0.00081110356
72	0x3c0012df	0.007816999
73	0x3dc5482a	0.09632905
74	0xbc96b060	-0.018394649
75	0xbd5e7649	-0.054312024
76	0xbcf979b6	-0.030453544
77	0xbcebe4a7	-0.028795553
78	0x3da30ec7	0.07961803
79	0x3ccfb9b0	0.025357097
80	0xbd221141	-0.039567236
81	0xbc0fa541	-0.008767427
82	0xbcc4c9ca	-0.024022002
83	0x3db45dbf	0.08806943
84	0xbd85a971	-0.06526459
85	0x3dbfced9	0.09365625
86	0xb996bda6	-0.0002875153
87	0x3cb305b1	0.0218533
88	0xbca55ff6	-0.02018736
89	0x3d249317	0.04017934
90	0xbbc39a21	-0.0059693013
91	0xbd405aa4	-0.04696144
92	0x3d1df6ce	0.03856545
93	0x3d416378	0.047214
94	0x3d77e5f2	0.060522027
95	0x3cb2a508	0.021807209
96	0x3d209483	0.03920413
97	0x3bedf4bd	0.007261841
98	0xbcbce484	-0.023058183
99	0xbc75ea68	-0.0150095
100	0x3ca53743	0.020167952
101	0x3ced99b4	0.029003955
102	0x3e065262	0.13117364
103	0x3d9c647e	0.07636355
104	0x3caa6d44	0.020804055
105	0xbc501a69	-0.012701609
106	0x3bbeff64	0.005828785
107	0xbcd7c1a5	-0.026337454
108	0xbba71a9c	-0.0050996076
109	0xbb875e3b	-0.004131106
110	0xbd947def	-0.072505824
111	0x3dce1030	0.10061681
112	0x3c0c90cb	0.008579443
113	0xbc972908	-0.018452182
114	0x3d1b7058	0.037948936
115	0xbcf60768	-0.030032828
116	0xbda1e528	-0.07905036
117	0xbd8de4a7	-0.069283776
118	0xbd65a853	-0.05606873
119	0x3dc6a8bc	0.09700152
120	0xbcedb972	-0.029019091
121	0xbbd0b411	-0.006369122
122	0xbbf90dfc	-0.007600544
123	0x3ddd6209	0.10809714
124	0xbc016437	-0.007897428
125	0x3cc3b76e	0.023891177
126	0x3cbcfce7	0.023069812
127	0xbe167799	-0.1469406
128	0xbdd45b6d	-0.103690006
129	0x3d69e17d	0.057099808
130	0xbbb1a440	-0.0054211915
131	0x3e6b619b	0.22986452
132	0xbda369ad	-0.079791404
133	0xbdba50ff	-0.0909748
134	0xbd7462a5	-0.059664387
135	0xbdc4a895	-0.09602467
136	0xbdbf7822	-0.093490854
137	0xbdb40355	-0.08789698
138	0xbe056159	-0.13025416
139	0xbd55ce4f	-0.052198704
140	0xbd12d008	-0.035842925
141	0x3b0631d9	0.002047649
142	0x3ddf7ae8	0.109121144
143	0x3dc56bd7	0.096397094
144	0x3e3e7329	0.18598618
145	0x3b467d03	0.0030286915
146	0xbd297d63	-0.041379344
147	0xbdc1540f	-0.09439861
148	0xbda9dd90	-0.08294213
149	0xbc515c4e	-0.012778355
150	0x3d7b75f5	0.06139179
151	0x3e4d3b32	0.20042112
152	0xbc04325b	-0.008068646
153	0x3d8aab74	0.06770983
154	0x3dbdd19f	0.09268498
155	0x3e1b03aa	0.15138116
156	0x3ddddcc8	0.10833126
157	0xbdb7ca2c	-0.08974108
158	0xbd5d25be	-0.053991072
159	0xbdac8ba9	-0.084250756
160	0x3d5e3a78	0.05425498
161	0xbc8746d2	-0.016513262
162	0x3dd6fd08	0.10497481
163	0xbc5154ec	-0.012776595
164	0x3d7daacf	0.061930474
165	0x3dc04e42	0.093899265
166	0xbd98d7a6	-0.07463007
167	0xbd3bd54a	-0.045857705
168	0xbd639e3d	-0.05557083
169	0x3b8e38fd	0.0043402896
170	0x3bfab600	0.0076510906
171	0xbd598b98	-0.053111643
172	0xbd4ac3a7	-0.049502995
173	0x3e074908	0.13211453
174	0xbd3b26fc	-0.045691475
175	0x3e8e02d3	0.2773653
176	0xbca24f3f	-0.019813178
177	0x3e024278	0.12720668
178	0x3dd36d1d	0.10323546
179	0x3db3e6d1	0.08784259
180	0x3d8c8882	0.06861974
181	0xbd98e8f5	-0.07466308
182	0xbc91309f	-0.01772338
183	0xbdb56abc	-0.088582486
184	0xbc678647	-0.014131135
185	0x3de10867	0.10987931
186	0x3d512387	0.051059272
187	0x3d3787c2	0.044807203
188	0xbb8a3d5b	-0.00421874
189	0x3e261222	0.16217855
190	0x3d4bcc39	0.04975531
191	0x3d2a5e28	0.0415937
192	0xbd0d55ff	-0.03450584
193	0x3e05588f	0.13022064
194	0xbcf08952	-0.029362354
195	0xbd833165	-0.06405906
196	0x3b21fff7	0.0024719217
197	0xbd7b8523	-0.061406266
198	0x3c0fe6fa	0.008783096
199	0xbdbf569b	-0.093426906
200	0xbcf2b630	-0.02962789
201	0x3ddc1aba	0.10747285
202	0xbd50290d	-0.0508204
203	0x3d8b3619	0.06797428
204	0x3d8780c9	0.06616361
205	0xbca0a758	-0.019611046
206	0xbd7f308f	-0.06230217
207	0x3d74d3a2	0.05977214
208	0x3de3171b	0.110883914
209	0xbc55e0c0	-0.013054073
210	0x3dbb21cb	0.09137305
211	0x3dc4f630	0.09617269
212	0x3b16364a	0.0022920542
213	0x3df3767e	0.11887835
214	0xbaa6348f	-0.0012680459
215	0xbd29edf7	-0.041486707
216	0xbc88e1bb	-0.0167092
217	0x3cd1bd4a	0.025602955
218	0x3c58dc6b	0.0132361455
219	0x3dcb3a79	0.09923262
220	0x3d88dcd3	0.06682744
221	0xbd657985	-0.056024093
222	0xbd2c9322	-0.042132504
223	0xbd3a006f	-0.04541057
224	0x3b305594	0.0026906477
225	0x3c67a9ed	0.014139635
226	0xbc81d81a	-0.015850116
227	0xbc7bed46	-0.015376395
228	0x3d9d6ad1	0.07686389
229	0x3ce43cc1	0.027861001
230	0x3e36b653	0.17842989
231	0x3ddb1aae	0.10698448
232	0xbd0d0d06	-0.03443625
233	0xbcecf62c	-0.028925978
234	0x3c2d72ab	0.010586421
235	0xbd2b72e2	-0.041857608
236	0xbba1a7ef	-0.0049333493
237	0x3d93dfc1	0.07220412
238	0xbd163c15	-0.036678392
239	0x3de374d8	0.111062706
240	0x3bb9003e	0.005645781
241	0xbcbeaf6b	-0.023277005
242	0x3c0ea711	0.008706824
243	0xbd7a8ca4	-0.06116928
244	0xbd8e7b9b	-0.069571696
245	0x3d964f18	0.07339305
246	0x3d22041b	0.039554697
247	0xbb7adb1f	-0.003827758
248	0xbdfc0796	-0.123061344
249	0xbce240a8	-0.027618721
250	0xbc3fd3fe	-0.011708258
251	0x3e4aadf7	0.19792925
252	0x3bafc56d	0.005364111
253	0xbd5ac00c	-0.053405806
254	0x3d55877e	0.05213117
255	0xbc94accd	-0.018148804

bn_outlayer_in.weight f4 [64]
0	0x3fa1efa4	1.2651258
1	0x3fa202c7	1.2657098
2	0x3f71e9b2	0.94497216
3	0x3fbc391b	1.4704927
4	0x3f9eda7f	1.241043
5	0x3fb9af8d	1.4506699
6	0x3f99b654	1.2008767
7	0x3f9dab6e	1.2317941
8	0x3f9d394c	1.2283111
9	0x3fab4f9b	1.3383669
10	0x3f90893d	1.1291882
11	0x3f9e3fe0	1.2363243
12	0x3fa2447e	1.2677152
13	0x3f6dab97	0.9283995
14	0x3fbbb478	1.466445
15	0x3f9ba23b	1.2158884
16	0x3fafdaf0	1.373869
17	0x3f71a0d5	0.94386035
18	0x3f97785d	1.1833607
19	0x3f97a7ed	1.1848122
20	0x3f95a92f	1.1692256
21	0x3f841f8e	1.032213
22	0x3f7e78b1	0.9940291
23	0x3fbf8901	1.4963685
24	0x3fbd5374	1.4791093
25	0x3f9faa2f	1.2473811
26	0x3f9795c1	1.1842576
27	0x3fb9d524	1.451817
28	0x3fb59238	1.4185247
29	0x3f993ecd	1.197229
30	0x3f963890	1.1736012
31	0x3fa07b79	1.2537681
32	0x3f859e87	1.0439004
33	0x3fa1b9cc	1.2634826
34	0x3fa75c85	1.307511
35	0x3f6c2290	0.9224024
36	0x3f9d9f80	1.23143
37	0x3fa05280	1.2525177
38	0x3fab5963	1.3386654
39	0x3f953630	1.1657162
40	0x3f961884	1.1726232
41	0x3f70229a	0.938028
42	0x3fa57b2a	1.2928212
43	0x3f741723	0.95347804
44	0x3faf0349	1.3672878
45	0x3fb6bdb6	1.4276645
46	0x3fb5a4b2	1.4190886
47	0x3fba46bf	1.455284
48	0x3f95d77c	1.1706386
49	0x3fb096cf	1.3796023
50	0x3fa3a739	1.2785407
51	0x3f9939c8	1.1970758
52	0x3f94eb7b	1.1634363
53	0x3f9a3957	1.2048749
54	0x3f735987	0.9505848
55	0x3f8c5f40	1.0966568
56	0x3f6c40c9	0.92286354
57	0x3f9e9e8c	1.2392135
58	0x3f84f598	1.0387449
59	0x3fa2f0a0	1.2729683
60	0x3f91b6b1	1.1383878
61	0x3fa70371	1.3047925
62	0x3f9688f8	1.176055
63	0x3f7115f6	0.94174135

bn_outlayer_in.bias f4 [64]
0	0x3e73ee5b	0.23821394
1	0x3e8e7f27	0.27831385
2	0xbde304f8	-0.11084932
3	0x3f063972	0.52431405
4	0x3e7de419	0.24794044
5	0x3e86450e	0.2622456
6	0x3e2193ca	0.15779033
7	0x3e163b86	0.14671144
8	0x3e3c2719	0.1837429
9	0x3ec29e68	0.3801148
10	0x3dd72799	0.105055995
11	0x3dff8623	0.124767564
12	0x3e4d80c7	0.20068656
13	0xbdb5f58c	-0.08884725
14	0x3ef19768	0.47185826
15	0x3e194ccb	0.149707
16	0x3edc2893	0.42999706
17	0xbda5a2e3	-0.08087709
18	0x3e0d43a1	0.1379533
19	0x3e878e46	0.26475734
20	0x3e185e08	0.1487962
21	0xbd843682	-0.06455709
22	0xbd512794	-0.051063135
23	0x3f131bc0	0.5746422
24	0x3ee57dcf	0.44822547
25	0x3e785899	0.24252547
26	0x3e1c32eb	0.15253799
27	0x3e7d2185	0.24719818
28	0x3e8337c0	0.2562847
29	0x3e6fa5d0	0.23403096
30	0x3e12c9c1	0.14334776
31	0x3e98cb00	0.29842377
32	0xbd04999b	-0.032373052
33	0x3e724c80	0.23661995
34	0x3e81f76a	0.25384074
35	0xbdb09f16	-0.08624093
36	0x3e6c3b35	0.2306946
37	0x3d981bec	0.07427201
38	0x3eab07a5	0.3340427
39	0x3e2f973f	0.1714754
40	0x3e1882bb	0.1489362
41	0xbdc3ada6	-0.09554605
42	0x3e7cdc82	0.24693492
43	0xbd86aa11	-0.06575406
44	0x3e992164	0.29908288
45	0x3e930d94	0.28721297
46	0x3e52094b	0.20511357
47	0x3ef21691	0.47282842
48	0x3e185e3d	0.14879699
49	0x3e8d726f	0.27626368
50	0x3e753404	0.23945624
51	0x3e45539b	0.19270174
52	0x3e133b77	0.14378153
53	0x3e87050b	0.26371035
54	0xbd5956e2	-0.053061374
55	0x3d8c0b61	0.06838108
56	0xbddcde1b	-0.10784551
57	0x3e9a4ea2	0.30138117
58	0xbd484d74	-0.04890199
59	0x3e99fc48	0.30075288
60	0x3c5b9401	0.013401986
61	0x3ebb8757	0.36626694
62	0x3e0639a4	0.13107926
63	0xbdce4878	-0.10072416

bn_outlayer_in.running_mean f4 [64]
0	0xbd014fff	-0.03157043
1	0x3b4fa007	0.0031681077
2	0xbbfd44be	-0.007729142
3	0x3ccb8679	0.024844395
4	0xbbcda2cc	-0.0062755104
5	0xbafe463a	-0.0019399591
6	0xbb527747	-0.0032114552
7	0x3b05742e	0.0020363438
8	0xbc198b21	-0.00937155
9	0x3b6f32a6	0.0036498695
10	0x393dc1af	0.00018096597
11	0x3b3952a3	0.0028278015
12	0x3bb94894	0.005654404
13	0xbc077564	-0.008267734
14	0x3c05027f	0.008118271
15	0x3bbdd943	0.005793722
16	0x3c81c8e3	0.01584286
17	0xbbb362b4	-0.005474413
18	0x3b4d8e25	0.0031365242
19	0x3c73aead	0.014873189
20	0xbb9afbbb	-0.0047297156
21	0x3ba42f18	0.005010497
22	0x3b14b110	0.0022688545
23	0x3cb051e2	0.02152342
24	0x3d20a799	0.039222334
25	0x3cf04d82	0.029333834
26	0x3ccaf17a	0.024773348
27	0x3c15fa34	0.009153891
28	0x3cedda78	0.029034838
29	0x3b872fbf	0.004125565
30	0x3bb51f48	0.0055274107
31	0x3c0508f8	0.008119814
32	0x3c0395cd	0.008031321
33	0x3d03b8eb	0.032158773
34	0x3c76ca74	0.015062917
35	0xbc09cdfc	-0.008410927
36	0x3c0faa31	0.008768604
37	0x3b84dd0c	0.004054671
38	0xbb81d0f6	-0.0039616777
39	0x3ca8eb1c	0.020619921
40	0x3c200191	0.009765998
41	0xbbe00eec	-0.0068377163
42	0x3d061f85	0.032744903
43	0xbc1c79c5	-0.0095505165
44	0x3c36c607	0.011155612
45	0x3d0d2d51	0.034467045
46	0x3bce5100	0.006296277
47	0x3c48b189	0.012249359
48	0x3c97a7e6	0.018512677
49	0x3c294c3f	0.01033312
50	0x3d12d0e6	0.035843752
51	0x3c32729d	0.010891584
52	0xbc1d4ec4	-0.009601299
53	0x3b6f32f5	0.0036498879
54	0xbc58526e	-0.0132032465
55	0xbbc2cb97	-0.00594468
56	0xbc447349	-0.011990377
57	0x3be9b65c	0.0071323346
58	0x3bb0b078	0.0053921305
59	0x3d0c8253	0.034303974
60	0x3bbe2a20	0.0058033615
61	0x3ba905b2	0.0051581496
62	0x3ba0a14a	0.0049020397
63	0xbbf3aede	-0.0074366173

bn_outlayer_in.running_var f4 [64]
0	0x3b4652be	0.003026172
1	0x3bc66ffa	0.006055829
2	0x3a9aa511	0.0011798461
3	0x3b8c578a	0.0042828964
4	0x3b9c708e	0.0047741598
5	0x3b58e066	0.0033092736
6	0x3a9e2935	0.0012066724
7	0x3bf8466a	0.0075767534
8	0x3b1ac7b2	0.0023617563
9	0x3b65e3d7	0.003507843
10	0x3a9a33c9	0.0011764701
11	0x3a00eef8	0.00049184216
12	0x3a9ed3cb	0.0012117563
13	0x3acb7b56	0.0015524428
14	0x3b690a50	0.0035559125
15	0x3a95ee55	0.0011438826
16	0x3c2c6bfe	0.010523794
17	0x3a09c03f	0.0005254782
18	0x3afd8ca5	0.0019344284
19	0x3b2329a8	0.0024896655
20	0x3b1bd1ca	0.0023776167
21	0x3acc35b2	0.0015579967
22	0x3a72fdcf	0.0009269388
23	0x3ae9410f	0.0017795878
24	0x3b241222	0.0025035222
25	0x3b168249	0.002296584
26	0x3abb6ad0	0.00142988
27	0x3b2fe4d9	0.0026839285
28	0x3aa70c4a	0.0012744751
29	0x3b5439f4	0.0032383176
30	0x3ac5abeb	0.0015081143
31	0x3ae45ee6	0.0017423301
32	0x3b6d79b3	0.0036235868
33	0x3ba47c5d	0.005019708
34	0x3b008d00	0.0019615293
35	0x3ac2776b	0.0014836615
36	0x3b9aa3e0	0.0047192425
37	0x381b4a57	3.7024114e-05
38	0x3b25edb0	0.0025318675
39	0x3aa95b0b	0.001292081
40	0x3af76f97	0.0018877861
41	0x3a83512d	0.0010018699
42	0x3b01abc5	0.001978622
43	0x3a694236	0.0008898111
44	0x3b861031	0.0040912856
45	0x3b2bb99d	0.0026203163
46	0x3aa94601	0.001291454
47	0x3bfa953f	0.007647186
48	0x3b9b687b	0.0047426797
49	0x3b23f838	0.0025019776
50	0x3ae227d7	0.0017254305
51	0x3b29151c	0.0025799936
52	0x3b0091ec	0.0019618226
53	0x3b618609	0.0034412167
54	0x3b9fa09e	0.004871442
55	0x3bdca371	0.006733351
56	0x3ad3d3e7	0.0016161174
57	0x3ad9c2ff	0.00166139
58	0x3b0934d1	0.0020936022
59	0x3b874951	0.004128613
60	0x3b4f5ce3	0.0031641058
61	0x3b2e2f83	0.0026578612
62	0x3a62494e	0.0008632139
63	0x3ae10c9d	0.0017169897

gnn_layers.0.gnn.att_i f4 [1, 1, 64]
0	0x3c422ab1	0.011850999
1	0x3e5a1d95	0.21300347
2	0x3db1638e	0.08661567
3	0xbe6d63d4	-0.23182613
4	0x3dcef30c	0.10104951
5	0xbe9406a2	-0.2891131
6	0x3ec66dfe	0.38755792
7	0xbdb39109	-0.08767898
8	0x3ec0ea1e	0.37678617
9	0xbecae9f9	-0.39631632
10	0xbecd96de	-0.40154165
11	0xbf05e3e0	-0.52300835
12	0xbbd5f9bf	-0.006530016
13	0xbe51974d	-0.20467873
14	0x3c9ebb0b	0.019376298
15	0xbf1404ff	-0.57820123
16	0x3ca97904	0.020687588
17	0xbe91a7ca	-0.28448325
18	0x3e883fa8	0.26611066
19	0x3c9b16f9	0.018931853
20	0xbdf9d2e0	-0.12198424
21	0x3d0cb27c	0.034349903
22	0xbda0b52d	-0.078470565
23	0xbae6a20c	-0.0017595901
24	0x3d01ee3c	0.03172134
25	0x3e500424	0.2031408
26	0xbe8dc882	-0.27692038
27	0xbeb0d085	-0.34534088
28	0xbdf46964	-0.11934164
29	0xbe558d02	-0.20854571
30	0x3e03dad2	0.12876442
31	0x3cf88489	0.030336635
32	0x3f050b39	0.5197025
33	0xbe3c6891	-0.18399264
34	0xbed2896c	-0.4112047
35	0x3e5d827f	0.21631812
36	0x3dbad29d	0.091222025
37	0x3d851c5c	0.0649955
38	0x3e8bdf9a	0.27319032
39	0xbed925b6	-0.42411584
40	0xbe62c665	-0.22145994
41	0x3e8c0ee4	0.2735511
42	0xbe6c4d99	-0.23076476
43	0x3caf64c6	0.021410357
44	0x3e16f520	0.14741945
45	0xbf29354e	-0.6609696
46	0xbf052b9d	-0.52019674
47	0xbeb8dd4e	-0.36106342
48	0xbdd04124	-0.101686746
49	0xbdcbaeb8	-0.09945434
50	0x3e14781c	0.14498943
51	0xbee894cd	-0.45426026
52	0x3cd76a19	0.026295708
53	0x3e5fc5ae	0.21852753
54	0x3ec7ee9d	0.39049235
55	0xbead62ad	-0.33864346
56	0x3d1a56b1	0.03768033
57	0x3e14aa8e	0.14518186
58	0x3f448cc7	0.7677731
59	0x3e17dc00	0.14830017
60	0xbe59a50f	-0.21254371
61	0xbe965fbe	-0.2936992
62	0xbc99d432	-0.01877794
63	0x3f4d3065	0.8015197

gnn_layers.0.gnn.att_j f4 [1, 1, 64]
0	0xbd5d6175	-0.05404802
1	0xbe88c5f0	-0.26713514
2	0x3e80fca9	0.25192764
3	0x3d872838	0.06599468
4	0x3e8918c8	0.2677672
5	0x3e1093f0	0.14118934
6	0x3d67e494	0.056614473
7	0xbdaafead	-0.08349357
8	0x3df64e6e	0.12026678
9	0xbe4c22f6	-0.19935212
10	0xbe78df4f	-0.24303935
11	0xbcf14daf	-0.029455988
12	0xbdf87d1c	-0.12133238
13	0xbdae75b0	-0.08518541
14	0x3d60e7f5	0.05490871
15	0xbe7b8c3f	-0.24565218
16	0xbe842454	-0.25808966
17	0x3e41d298	0.18927991
18	0x3dd0cd96	0.101954624
19	0x3e3c1faa	0.18371454
20	0x3e1bcb23	0.1521421
21	0x3ddab086	0.106782004
22	0xbe7d3f2b	-0.24731128
23	0xbe16ea6a	-0.1473786
24	0x3dd68ec5	0.1047645
25	0x3d8b3192	0.06796564
26	0xbcb23049	-0.02175154
27	0xbd2133a1	-0.039355878
28	0xbde3783e	-0.11106919
29	0x3e982e45	0.297228
30	0xbd54820f	-0.051881846
31	0x3e77af17	0.24187885
32	0x3ed31ab0	0.41231298
33	0xbe958a9f	-0.29207322
34	0xbe173912	-0.14767864
35	0x3e47c7b7	0.19509779
36	0xbdc62f57	-0.09676998
37	0x3d8abb1f	0.06773972
38	0xbd4f4130	-0.050599277
39	0x3e97cab4	0.29646838
40	0x3cf623bc	0.030046336
41	0xbe23d717	-0.16000019
42	0xbe3e212e	-0.18567345
43	0x3e772475	0.24135001
44	0x3e8337f5	0.2562863
45	0xbd85f379	-0.06540579
46	0x3e846b68	0.25863194
47	0xbd2d4201	-0.042299274
48	0xbe6fa927	-0.2340437
49	0xbd07dd1b	-0.033169847
50	0xbd691260	-0.05690229
51	0xbdaaa3b4	-0.08332005
52	0x3db80f39	0.089872785
53	0x3e794d4f	0.24345897
54	0xbdcbe49f	-0.099557154
55	0xbe5140a2	-0.20434812
56	0xbed1ddb9	-0.40989473
57	0xbdc50047	-0.096191935
58	0x3e6177dc	0.22018379
59	0x3e05a905	0.13052757
60	0xbe5cad8c	-0.21550578
61	0x3e101924	0.1407209
62	0x3db970d1	0.09054721
63	0x3e7832f3	0.24238186

gnn_layers.0.gnn.att_em_i f4 [1, 1, 64]
0	0x3ed49633	0.41520843
1	0x3f3fe11e	0.74952877
2	0xbe2f295b	-0.1710562
3	0xbe16f9e9	-0.1474377
4	0x3dfe12d5	0.12405936
5	0xbb0f64a4	-0.0021880055
6	0x3ec9c7c6	0.39410228
7	0x3e6af591	0.22945239
8	0x3eef2724	0.4670955
9	0xbe6ad85b	-0.22934096
10	0x3e90cc3e	0.28280824
11	0x3d2950c0	0.041336775
12	0x3dbae1a2	0.09125067
13	0xbe2eb73d	-0.17062087
14	0x3ccb5d27	0.024824692
15	0x3e0d2cfd	0.13786693
16	0x3f294115	0.6611493
17	0xbe0f1f4f	-0.13976787
18	0x3e347cac	0.17625684
19	0x3ecd43b1	0.40090707
20	0x3e1c96c2	0.15291885
21	0xbea738c4	-0.32660496
22	0xbd1c63c3	-0.038181078
23	0xbe5beaed	-0.21476336
24	0xbe2428c5	-0.16031177
25	0x3c93ae0a	0.018027324
26	0xbe7d1262	-0.24714044
27	0xbcbcda2f	-0.023053257
28	0xbe6f9bc7	-0.23399268
29	0x3efa3353	0.48867282
30	0xbd5a714e	-0.053330712
31	0x3ef81d09	0.48459652
32	0xbd57af7f	-0.0526576
33	0xbc56043e	-0.013062535
34	0xbdfb9081	-0.12283421
35	0xbcc81ebd	-0.02442872
36	0x3f2fa7e2	0.68615544
37	0xbee6ea16	-0.45100468
38	0x3e827101	0.2547684
39	0xbe40c6a3	-0.18825774
40	0xbdfe04c6	-0.12403254
41	0xbdc3cee1	-0.095609434
42	0x3d4bf7d6	0.0497969
43	0x3e4057e3	0.18783526
44	0x3ef22df0	0.47300673
45	0xbc1f3313	-0.009716767
46	0xbe7b792a	-0.24557939
47	0x3ebd6d6c	0.36997545
48	0x3ec44464	0.38333428
49	0x3e2f9a7e	0.17148778
50	0xbe533b12	-0.20628002
51	0xbf08ef81	-0.53490454
52	0x3dbb3bdf	0.09142279
53	0xbc84b132	-0.016197775
54	0x3d889f3d	0.06670997
55	0x3f4cbfab	0.7997996
56	0xbe89b061	-0.2689238
57	0x3e93a121	0.2883387
58	0xbee0ba97	-0.43892357
59	0x3e22e0ee	0.15906116
60	0x3f020e92	0.5080348
61	0x3e18efd5	0.14935239
62	0x3e34c1ba	0.17652026
63	0xbe6772a4	-0.22602326

gnn_layers.0.gnn.att_em_j f4 [1, 1, 64]
0	0xbcc12a09	-0.023579614
1	0xbe16bff9	-0.1472167
2	0x3e8482c8	0.25881028
3	0xbed9e707	-0.42559072
4	0x3c983380	0.018579245
5	0xbeb18de5	-0.3467857
6	0x3d6e8943	0.05823637
7	0xbda02d0b	-0.07821091
8	0xbeba4491	-0.36380437
9	0xbea26950	-0.31720972
10	0x3df166d4	0.11787191
11	0x3e251a9c	0.16123432
12	0xbe40c419	-0.18824805
13	0x3ec51efa	0.38500196
14	0xbdc9319b	-0.098239146
15	0xbe0feacc	-0.14054412
16	0xbeb825f7	-0.35966465
17	0xbd726c0d	-0.059185077
18	0xbdebbbc2	-0.11510421
19	0xbed26a5e	-0.41096777
20	0xbd6788eb	-0.05652706
21	0x3a90a04d	0.0011034101
22	0xbd1f373e	-0.038871042
23	0xbe1ae5cd	-0.15126725
24	0xbdbd4f6a	-0.09243663
25	0xbec68a04	-0.38777173
26	0xbd440011	-0.047851626
27	0xbf357f7a	-0.7089764
28	0xbe16f66f	-0.14742444
29	0x3edfe184	0.43726742
30	0xbec7cbf3	-0.39022788
31	0x3d113c67	0.035457995
32	0xbebae742	-0.3650456
33	0xbeee90a7	-0.46594736
34	0xbdf1d26a	-0.118077114
35	0x3e0bfa60	0.13669729
36	0xbee4f4b5	-0.44717947
37	0xbe00b3ad	-0.12568541
38	0xbe196228	-0.1497885
39	0xbe068659	-0.13137187
40	0xbe7cabd5	-0.24674924
41	0x3e3b979e	0.18319556
42	0xbe9571ad	-0.2918829
43	0x3e9472ed	0.2899393
44	0x3c6bd64b	0.014394353
45	0xbe30cd8c	-0.1726591
46	0xbe7819b9	-0.24228562
47	0xbdbbbfc6	-0.09167437
48	0xbd4a1274	-0.049334005
49	0xbe042703	-0.12905507
50	0xbd9dde0d	-0.077083685
51	0xbe5aa28d	-0.2135107
52	0xbc734c4b	-0.014849733
53	0xbea410f4	-0.32044184
54	0x3ed95a39	0.42451647
55	0x3dee5a6b	0.116383396
56	0x3ebfcd1e	0.3746118
57	0xbed38b81	-0.4131737
58	0xbe00b1e1	-0.12567855
59	0xbeae6876	-0.34064072
60	0x3dba2572	0.090891734
61	0x3d64f76d	0.055900026
62	0xbe875ea8	-0.26439404
63	0x3d9743f6	0.073860094

gnn_layers.0.gnn.bias f4 [64]
0	0x3e3c22e2	0.18372682
1	0xbd9d18d2	-0.0767075
2	0x3bbb0ce0	0.005708322
3	0x3e928ae6	0.28621596
4	0xbd2ef081	-0.04270983
5	0x3ca8a0f6	0.020584565
6	0x3d7533c6	0.059863828
7	0xbcb1fd51	-0.021727236
8	0x3d7e5bbf	0.062099215
9	0xbd0886e2	-0.03333176
10	0xbb93d115	-0.0045110085
11	0x3c4bbfd0	0.012435868
12	0x3eb2d16c	0.349254
13	0xbc508a82	-0.012728335
14	0x3e58e698	0.21181715
15	0x3c9594af	0.018259374
16	0x3bf54754	0.0074853096
17	0xbadd04ea	-0.0016862426
18	0x3d512ba0	0.051066995
19	0x3d83357d	0.064066865
20	0x3d749105	0.059708614
21	0xbd80f0ae	-0.06295906
22	0xbe1c9152	-0.1528981
23	0x3ebad292	0.36488777
24	0x3eb2f286	0.34950656
25	0x3cc523f1	0.02406499
26	0x3abfb7b2	0.0014626889
27	0xbbba1b90	-0.0056795552
28	0xbd78bd81	-0.0607276
29	0x3d9b7897	0.0759136
30	0x3d098105	0.03357031
31	0x3ca02e97	0.019553466
32	0xbd74609b	-0.059662443
33	0xbbf51e18	-0.007480394
34	0xbc166583	-0.009179476
35	0xbbe2e69b	-0.006924463
36	0x3da92c01	0.08260346
37	0xbd9ca32e	-0.076483116
38	0x3b96c546	0.0046011535
39	0x3b934dd1	0.0044953604
40	0x3cf5cdc6	0.030005347
41	0x3c1412eb	0.0090377135
42	0x3ae81774	0.0017707185
43	0x3c708f75	0.01468264
44	0x3c9f4563	0.019442266
45	0xbc6601bc	-0.014038499
46	0x3e61da24	0.2205587
47	0xbd2adda3	-0.041715275
48	0xbd25842b	-0.04040925
49	0xbe4e2c61	-0.20134117
50	0x3bc23ecb	0.0059278957
51	0x3d4f67d0	0.050636113
52	0x3d9fc505	0.0780125
53	0x3d7fd4c3	0.062458765
54	0xbca2ba3a	-0.01986419
55	0x3c9c5eeb	0.01908823
56	0x3c59985a	0.013280952
57	0x3db2acf3	0.08724394
58	0x3d06ecb2	0.032940574
59	0x3e051d6f	0.1299951
60	0xbb78bab2	-0.0037953076
61	0x3e2e47fb	0.17019646
62	0x3c3a2d62	0.011363359
63	0x3cd5aa23	0.026082104

gnn_layers.0.gnn.lin.weight f4 [64, 5]
0	0xbced6e16	-0.028983157
1	0x3e10e83b	0.14151089
2	0xbe2c340f	-0.16816734
3	0x3e4283b3	0.18995552
4	0xbd94d7da	-0.07267733
5	0xbd973ced	-0.073846675
6	0xba352970	-0.0006910777
7	0xbdfbdb38	-0.12297672
8	0x3bdad3e5	0.006678092
9	0x3eba097b	0.36335358
10	0x3d287d85	0.04113533
11	0x3e6f340b	0.23359697
12	0x3e429031	0.19000317
13	0xbe19ff99	-0.15038909
14	0x3d81787a	0.06321807
15	0x3dcde328	0.10053092
16	0x3ca876d5	0.020564476
17	0xbdb11e35	-0.0864834
18	0xbe1fb2ef	-0.15595601
19	0x3dc9f295	0.09860722
20	0xbdfcafc7	-0.12338214
21	0x3da879ff	0.08226394
22	0x3eb96ca4	0.362157
23	0x3b82fe1f	0.0039975788
24	0x3dacd2d9	0.084386535
25	0xbe3697fa	-0.17831412
26	0x3d549a1e	0.05190479
27	0xbe1a13f0	-0.15046668
28	0xbe16163a	-0.14656916
29	0xbda78a92	-0.08180727
30	0x3e447e14	0.1918872
31	0xbddba3d5	-0.10724608
32	0x3ea885c5	0.32914558
33	0x3e10198b	0.14072244
34	0x3e527454	0.20552188
35	0x3e5a935b	0.21345274
36	0xbe00336c	-0.12519616
37	0xbb8a8c0f	-0.004228122
38	0x3e668c35	0.22514422
39	0x3da08753	0.07838311
40	0xbe8baffb	-0.272827
41	0x3d069d6a	0.032864965
42	0x3e55c53f	0.20876025
43	0x3e8c5111	0.274056
44	0x3ec623d2	0.38699204
45	0xbe07ab18	-0.13248861
46	0xbe0f358b	-0.13985269
47	0xbe4d095f	-0.20023106
48	0xbebe2afc	-0.3714217
49	0x3e14f8a6	0.14547977
50	0x3e8a961b	0.27067646
51	0xbe4dc788	-0.20095646
52	0xbe8c4fe6	-0.27404708
53	0xbe5a0466	-0.2129074
54	0x3d3931ae	0.045213394
55	0x3e0ae0e7	0.13562356
56	0xbe21ab75	-0.15788062
57	0x3d0733b3	0.03300829
58	0xbdc6ec39	-0.09713025
59	0xbe8b84a2	-0.27249628
60	0xbe0670c0	-0.13128948
61	0x3e538c31	0.20658948
62	0xbdd7b644	-0.10532811
63	0x3c4baba9	0.012431064
64	0xbbb8787d	-0.0056295977
65	0xbe9c8ccd	-0.30576172
66	0xbe5a1d50	-0.21300244
67	0xbe1d2e5b	-0.15349714
68	0x3e445e46	0.19176587
69	0xbb421460	-0.0029614195
70	0xbdf4081a	-0.11915608
71	0x3e83903d	0.25695983
72	0xbe043eb4	-0.12914544
73	0xbdea54dd	-0.11441968
74	0x3e801432	0.25015408
75	0xbdfd1dd8	-0.12359208
76	0xbdf34124	-0.11877659
77	0x3d82c8a8	0.063859284
78	0xbe28d87c	-0.16488832
79	0xbc6754bf	-0.014119326
80	0xbd611940	-0.05495572
81	0x3e67abbd	0.22624107
82	0x3bc9b610	0.0061557367
83	0xbea493f2	-0.32144123
84	0x3d852cd1	0.06502689
85	0x3dc0df66	0.0941761
86	0xbdd6ce78	-0.104885995
87	0xbe877434	-0.26455843
88	0xbe811af3	-0.25215873
89	0xbeabd937	-0.3356416
90	0xbdb4f419	-0.088356204
91	0x3db6212f	0.08893048
92	0xbe4f23aa	-0.20228449
93	0x3e28efbf	0.16497706
94	0x3e4a1916	0.19736132
95	0x3dfe411d	0.12414763
96	0xbdd7eecb	-0.10543593
97	0xbdd1b9b9	-0.10240502
98	0xbdd92703	-0.10603144
99	0x3e38c55c	0.18044037
100	0xbe0e2867	-0.138826
101	0x3e1db41d	0.15400739
102	0x3d938faa	0.07205136
103	0x3e6ce98a	0.23135963
104	0x3da0c292	0.07849611
105	0x3dbcb689	0.09214503
106	0xbdabe477	-0.083931856
107	0x3eabaee9	0.33531883
108	0xbe3f51b4	-0.18683511
109	0xbd8f184d	-0.06987057
110	0xbdcb2a32	-0.099201575
111	0xbe599fbf	-0.21252345
112	0x3e9f5fc3	0.31127748
113	0xbe8af289	-0.27138165
114	0x3e96399e	0.29340833
115	0x3e08b164	0.13348919
116	0x3ccbe47c	0.024889223
117	0xbd6689f3	-0.056283902
118	0xbdfd0ad8	-0.12355584
119	0xbda745c2	-0.08167602
120	0x3ddb5777	0.10710042
121	0xbda92325	-0.082586564
122	0xbe5f4e26	-0.21807155
123	0x3ea693fe	0.32534784
124	0xbe1552df	-0.14582394
125	0xbdcfe6b6	-0.101514265
126	0xbcf3962a	-0.02973469
127	0x3d61f485	0.055164833
128	0x3e93dd6c	0.2887987
129	0x3e4d37b3	0.20040779
130	0x3df5ba7a	0.11998458
131	0xbe39de2e	-0.18151161
132	0xbe48c4cb	-0.1960632
133	0xbe62ad24	-0.2213636
134	0x3d1e5dc5	0.038663644
135	0xbe854ba2	-0.26034266
136	0x3dd52d6f	0.104090564
137	0xbe8e5387	-0.277981
138	0x3db50d3e	0.08840416
139	0xbe0895ae	-0.13338348
140	0x3db5ff75	0.08886615
141	0xbce1b138	-0.027550325
142	0xbd4ef98f	-0.050530966
143	0xbd8bd1d7	-0.06827133
144	0xbde6a256	-0.11261432
145	0x3e783bfc	0.24241632
146	0xbe139312	-0.14411572
147	0x3d257a9f	0.040400144
148	0xbe7deeb3	-0.24798088
149	0xbd1929ed	-0.0373935
150	0xbe30bf85	-0.17260559
151	0xbb76a580	-0.0037635267
152	0xbe3b92f3	-0.18317775
153	0x3dcc3280	0.099705696
154	0xbe258d39	-0.16167153
155	0xbe5f8e0a	-0.21831527
156	0x3e9d9052	0.3077417
157	0x3e2c60f2	0.16833857
158	0x3da42768	0.08015329
159	0xbd91d49c	-0.0712063
160	0xbe3f780a	-0.18698135
161	0xbe9740ad	-0.2954153
162	0x3e813fa6	0.25243872
163	0x3e7faf75	0.24969275
164	0x3d1eb06c	0.038742468
165	0x3ca5e0a4	0.020248719
166	0xbd1db1e3	-0.038499724
167	0xbe6d41ca	-0.23169628
168	0xbe93e35c	-0.288844
169	0xbe0a3c88	-0.13499653
170	0x3e4edbdf	0.20201062
171	0xbdfbc3b9	-0.122931905
172	0xbe801ac1	-0.25020412
173	0xbeadac35	-0.33920446
174	0xbe1ab5c0	-0.15108395
175	0xbd7938e8	-0.060845286
176	0x3e3de86c	0.18545693
177	0xbd205044	-0.039139047
178	0x3e8ee146	0.27906245
179	0x3e7c63f2	0.24647501
180	0x3e648b99	0.22318877
181	0xbd6600ce	-0.05615311
182	0xbe356b4a	-0.17716709
183	0xbe607b94	-0.21922141
184	0x3d8e52e5	0.069494046
185	0x3d42ad88	0.047528774
186	0xbe0f9349	-0.14021029
187	0xbdf0eaff	-0.11763572
188	0xbe267447	-0.16255294
189	0xbe094dc6	-0.13408574
190	0x3ddf0f36	0.10891573
191	0xbdaa0a07	-0.08302694
192	0xbdbced35	-0.09224931
193	0xbe10e47c	-0.1414966
194	0x3e9df348	0.3084967
195	0xbe521fe7	-0.20519982
196	0xbce205e6	-0.027590703
197	0x3d9d140d	0.0766984
198	0xbec6fbc4	-0.38863957
199	0xbeb127a6	-0.34600562
200	0x3e24f83d	0.1611032
201	0xbcc4bc8d	-0.02401569
202	0xbe828675	-0.25493208
203	0xbe9cc1c6	-0.30616587
204	0xbe73311e	-0.23749205
205	0xbd3cb97e	-0.046075337
206	0x3c719cba	0.014746839
207	0x3e22e10d	0.15906163
208	0x3caa3040	0.02077496
209	0x3e9de12b	0.30835852
210	0x3d46f58f	0.048574027
211	0xbe9ef954	-0.31049597
212	0xbe98677e	-0.29766458
213	0xbe806f61	-0.25084975
214	0x3e3e1f94	0.18566734
215	0x3e6f7ab2	0.23386648
216	0xbe327793	-0.17428426
217	0x3e564791	0.20925738
218	0x3e1046bf	0.14089487
219	0xbd66e6c6	-0.056372426
220	0xbdf62a9b	-0.12019845
221	0x3e67debd	0.22643562
222	0x3e9264ff	0.2859268
223	0x3e75bce6	0.2399784
224	0x3e595dd3	0.21227197
225	0x3c40d6d0	0.011769965
226	0x3dc418b4	0.09575024
227	0xbdf13b90	-0.11778939
228	0xbe0fc7ec	-0.14041108
229	0xbe4001cb	-0.18750684
230	0x3e74324d	0.23847313
231	0x3e20ce11	0.15703608
232	0x3cb6d70d	0.022319341
233	0xbe820075	-0.25390974
234	0xbe9bffcf	-0.30468604
235	0x3d95c6e2	0.073133245
236	0x3d7d43b7	0.061832156
237	0xbe851985	-0.25996032
238	0xbcab1a38	-0.020886526
239	0xbe897bd5	-0.2685229
240	0x3e3edf0e	0.18639776
241	0xbc9709cf	-0.018437294
242	0xbe7014eb	-0.2344548
243	0xbeb55453	-0.35415897
244	0xbe398301	-0.1811638
245	0x3d9248ff	0.07142829
246	0x3dd3600f	0.10321056
247	0xbde2db3c	-0.11076972
248	0xbe1ed835	-0.15512164
249	0xbc48979b	-0.012243177
250	0x3e240dba	0.16020861
251	0xbde4a8cf	-0.1116501
252	0xbe30e3d9	-0.17274417
253	0xbe83c62e	-0.25737137
254	0xbdce116c	-0.10061917
255	0x3e42f287	0.1903783

gnn_layers.0.bn.weight f4 [64]
0	0x3f014493	0.5049526
1	0x3ea7247a	0.32645017
2	0x3ecf8ea9	0.4053853
3	0x3e56d522	0.20979741
4	0x3f8a569c	1.0807681
5	0x3e448403	0.19190983
6	0x3ee92b8d	0.4554104
7	0x3f86dd6b	1.0536321
8	0x3eee1166	0.4649765
9	0x3e7f87f8	0.24954212
10	0xbd030324	-0.031985417
11	0x3da2ee5e	0.07955621
12	0x3e9429e8	0.28938222
13	0x3f321649	0.69565254
14	0x3e1504a2	0.14552549
15	0x3f2487e1	0.64269835
16	0x3db4a340	0.088202
17	0x3f00f9f7	0.50381416
18	0x3f1fa037	0.62353843
19	0x3dfc20ff	0.12310981
20	0x3eed9724	0.46404374
21	0x3f361b57	0.7113547
22	0x3f31f4a4	0.69513917
23	0x3eaa05d6	0.33207577
24	0x3e69229a	0.22767106
25	0x3e3227a5	0.17397936
26	0x3f8c8013	1.0976585
27	0x3dc38e46	0.09548621
28	0x3f842b1c	1.0325656
29	0x3e38b0e0	0.18036222
30	0x3eccbcd4	0.39987814
31	0x3de7cf5e	0.11318849
32	0x3f76513d	0.9621771
33	0x3f9791f8	1.1841421
34	0x3f8dd4c3	1.1080555
35	0x3f1f3308	0.6218724
36	0x3eb905a4	0.36137116
37	0x3f24448c	0.64167094
38	0x3f4857b4	0.78258824
39	0x3e0a8615	0.1352771
40	0x3f35992d	0.7093685
41	0x3ecd3967	0.40082857
42	0x3f958add	1.1683003
43	0x3ed15ea0	0.40892506
44	0x3f2ef41d	0.6834124
45	0x3f4d227b	0.8013074
46	0x3e85baf9	0.2611921
47	0x3e3e33b0	0.18574405
48	0x3f7df85f	0.9920711
49	0x3e927593	0.28605327
50	0x3f8898c3	1.0671619
51	0x3f812d91	1.0092031
52	0x3ecc5688	0.39909768
53	0x3de88f44	0.11355451
54	0x3f793a1c	0.9735429
55	0x3f464e45	0.7746318
56	0x3ed4de3f	0.4157581
57	0x3db3d392	0.08780588
58	0x3f63c574	0.88973165
59	0x3ebc9fa0	0.36840534
60	0x3f80a8a9	1.0051471
61	0x3d8acd09	0.067773886
62	0x3f0b24eb	0.5435321
63	0x3f24caad	0.6437176

gnn_layers.0.bn.bias f4 [64]
0	0x3ecdbb75	0.4018208
1	0x3f091d84	0.5356066
2	0x3e9f4a6c	0.31111467
3	0x3f0b9e0c	0.54538035
4	0x3d5917e5	0.053001303
5	0x3eee92eb	0.46596465
6	0x3eb98822	0.36236674
7	0x3c120d0a	0.008914242
8	0x3eb60ffc	0.3555907
9	0x3f1a340a	0.60235655
10	0x3ea18898	0.31549525
11	0x3e5bc5a2	0.2146211
12	0x3ed6eaca	0.41976005
13	0x3e00ecd2	0.1259034
14	0x3f180983	0.59389514
15	0x3e32897b	0.17435257
16	0x3f1cbbc4	0.6122401
17	0x3e921f45	0.28539482
18	0x3e6dc401	0.23219301
19	0x3ecc3be8	0.39889455
20	0x3e9b42c1	0.30324367
21	0xbe0de7b7	-0.13857923
22	0xbe0f44ad	-0.13991041
23	0x3ef93015	0.48669496
24	0x3f035feb	0.51318234
25	0x3ecdc6fa	0.4019087
26	0x3d8ecbea	0.06972487
27	0x3e99b8f8	0.30023932
28	0xbde3f259	-0.111302085
29	0x3ee8cdd6	0.4546954
30	0x3e985d69	0.29758766
31	0x3ec446f1	0.38335374
32	0xbca761ad	-0.020432318
33	0x3d470d36	0.048596583
34	0x3c223ce0	0.009902209
35	0x3e3eead3	0.18644266
36	0x3ef40bae	0.4766516
37	0xbebc5e41	-0.3679066
38	0x3e877a65	0.26460567
39	0x3eb8da9e	0.36104292
40	0x3e7e930e	0.24860784
41	0x3e9320c4	0.28735936
42	0x3cefa17f	0.029251812
43	0x3e9ce0b8	0.30640197
44	0x3e6e4301	0.23267747
45	0x3e4581f6	0.19287857
46	0x3ec03deb	0.3754724
47	0x3f0f7a01	0.5604554
48	0x3df6103c	0.12014815
49	0x3f0903cb	0.5352141
50	0x3d8481c1	0.06470061
51	0x3e3f2105	0.1866494
52	0x3e92982c	0.28631723
53	0x3ee8c325	0.45461383
54	0x3d175066	0.03694191
55	0x3e1552e8	0.14582407
56	0x3e59f77c	0.21285814
57	0x3ec22749	0.37920597
58	0xbd36c447	-0.04462078
59	0x3ec6a1f9	0.3879545
60	0xbd3cc406	-0.04608538
61	0x3f034c1a	0.51287997
62	0x3e5fcbc4	0.21855074
63	0x3dd0cc35	0.101951994

gnn_layers.0.bn.running_mean f4 [64]
0	0x3e41b29e	0.18915793
1	0xbd7c0d21	-0.06153596
2	0x3d1666a6	0.036718987
3	0x3e8f0a4d	0.27937546
4	0xbb4fb40d	-0.0031693012
5	0xbcbd52a6	-0.023110699
6	0x3e02770c	0.12740725
7	0x3c4154c4	0.011799995
8	0x3df6c5e2	0.12049462
9	0xbdc45f53	-0.09588494
10	0xbd2982fe	-0.04138469
11	0xbca1ac2c	-0.019735418
12	0x3eaec21a	0.34132463
13	0xbd548e96	-0.051893793
14	0x3e61c273	0.22046833
15	0xbc49243f	-0.012276708
16	0xbae2427f	-0.0017262249
17	0xbda07b17	-0.078359775
18	0x3d882c33	0.06649055
19	0x3d65f877	0.056145158
20	0x3dc8c385	0.098029174
21	0xbd646ed0	-0.05576974
22	0xbe1d888a	-0.15384117
23	0x3eb4cfd3	0.35314807
24	0x3eb2c9fe	0.34919733
25	0x3d7d37bb	0.061820727
26	0xbd1da2b3	-0.03848524
27	0xbd3b1b79	-0.045680497
28	0xbda2b5a2	-0.079448
29	0x3d6e94a2	0.058247216
30	0xba574eb5	-0.00082133274
31	0x3d37d8ef	0.04488462
32	0xbd522b58	-0.051310867
33	0xbd8d41b7	-0.068973
34	0xbd9392fd	-0.0720577
35	0x3d458f54	0.04823239
36	0x3d7ccd7e	0.06171941
37	0xbdee9534	-0.11649552
38	0x3be9ee87	0.0071390304
39	0xbd93cb98	-0.07216567
40	0xbd0791e2	-0.03309811
41	0x3d469379	0.048480485
42	0xbd6717f0	-0.056419313
43	0x3d3a05c8	0.04541567
44	0x3dc54923	0.0963309
45	0xbd311c64	-0.043239966
46	0x3e50627a	0.20350066
47	0xbd9b5ef5	-0.07586471
48	0xbdc0c171	-0.09411896
49	0xbe5344d1	-0.2063172
50	0xbd1a7dca	-0.037717618
51	0xbb902b43	-0.0043996884
52	0x3ddb8273	0.107182406
53	0x3dc6275f	0.09675478
54	0x3db3aece	0.08773576
55	0xbd65ed1a	-0.05613432
56	0x3d31e554	0.043431595
57	0x3ddf3d9c	0.10900423
58	0x3d354e32	0.044264026
59	0x3e0da3da	0.13832036
60	0xbc2b57ee	-0.010457976
61	0x3e389bca	0.18028179
62	0xbcff590f	-0.031170396
63	0x3d496a7a	0.04917381

gnn_layers.0.bn.running_var f4 [64]
0	0x3a032e00	0.0005004108
1	0x3aa1e3a5	0.0012351169
2	0x3b627775	0.0034556065
3	0x39878273	0.000258464
4	0x3b9ca83a	0.0047807964
5	0x3bbcf82e	0.00576689
6	0x3c58e0d8	0.013237201
7	0x3b65f0de	0.0035086195
8	0x3c3af2f1	0.011410461
9	0x3c4d3aa5	0.012526189
10	0x3ba13976	0.00492018
11	0x3b6d6fa5	0.0036229875
12	0x396ee7fc	0.0002278387
13	0x3bb43f88	0.0055007376
14	0x3a8bb381	0.0010658355
15	0x3b4a5bc2	0.0030877446
16	0x3a468b56	0.0007573863
17	0x3c977aaf	0.018491117
18	0x3a952a62	0.0011380429
19	0x399b140f	0.0002957885
20	0x3b8d858b	0.004318898
21	0x3a592486	0.00082833355
22	0x3ab39126	0.0013699874
23	0x3a0fd95e	0.00054874073
24	0x3a52ad2a	0.0008036668
25	0x3b9d135a	0.0047935667
26	0x3bb3daff	0.005488753
27	0x3ba97669	0.0051715863
28	0x3a5db3fd	0.00084573013
29	0x3ab165f2	0.001353441
30	0x3b803cb6	0.0039134873
31	0x3b2d16b7	0.0026411244
32	0x3aa8f91f	0.0012891627
33	0x3c3b0495	0.011414667
34	0x3c48d9a3	0.01225892
35	0x3c1d440b	0.009598742
36	0x3ab99d4e	0.001416126
37	0x3bcabb15	0.0061868527
38	0x3a2129c9	0.0006147889
39	0x3c969de7	0.01838584
40	0x3c436ae6	0.011927342
41	0x3ba7084f	0.005097426
42	0x3c30e9a9	0.010797896
43	0x3b4dcec7	0.0031403766
44	0x3c942e91	0.01808861
45	0x3b3feb28	0.002928445
46	0x3aeecbd9	0.001821871
47	0x3b92c5c0	0.00447914
48	0x3c27be7d	0.010238287
49	0x39f804c7	0.00047305805
50	0x3bdc6931	0.006726407
51	0x3c1f7931	0.009733484
52	0x3b41719a	0.0029517175
53	0x3b841989	0.0040313643
54	0x3d117646	0.035513185
55	0x3c8e08db	0.017338207
56	0x3b490a1b	0.003067619
57	0x3b2626e5	0.0025352773
58	0x3a427935	0.0007418574
59	0x3a001c9d	0.0004887076
60	0x3a86f959	0.00102977
61	0x3ab15db5	0.0013531955
62	0x3bce02eb	0.006286969
63	0x3b009c48	0.00196244

out_layer.mlp.0.weight f4 [1, 64]
0	0xbe2db27d	-0.16962619
1	0xbe2c5573	-0.16829471
2	0x3ce1eda3	0.027579134
3	0xbe6d5e89	-0.23180594
4	0xbe2fa05c	-0.17151016
5	0xbe679f13	-0.22619276
6	0xbe8cd0d7	-0.27503082
7	0xbe9b5b7b	-0.30343232
8	0xbe73c091	-0.23803927
9	0xbe27390e	-0.16330358
10	0xbdc5814b	-0.09643801
11	0xbe7e197a	-0.24814406
12	0xbe35d485	-0.17756851
13	0xb88ee8d2	-6.814454e-05
14	0xbe7ac345	-0.24488552
15	0xbe5562f0	-0.20838523
16	0xbe395172	-0.18097475
17	0xbcd3e88b	-0.025867721
18	0xbe8c8886	-0.2744791
19	0xbe90aefa	-0.28258497
20	0xbe5cb8a3	-0.21554808
21	0x3dfbfc8e	0.1230403
22	0x3db6fbde	0.089347586
23	0xbe791d55	-0.24327596
24	0xbe717f05	-0.2358361
25	0xbe8d43d8	-0.27590823
26	0xbe8244d2	-0.2544313
27	0xbe4fcfd7	-0.20294128
28	0xbe586d36	-0.2113541
29	0xbe8b0d30	-0.271585
30	0xbe8306fd	-0.2559127
31	0xbea7eaeb	-0.32796416
32	0x3db7d5f2	0.08976354
33	0xbe3a8f21	-0.18218662
34	0xbe1e0b0f	-0.15433906
35	0x3d2672db	0.04063688
36	0xbe55f6b9	-0.20894898
37	0xbe1150c6	-0.14190969
38	0xbe3a0577	-0.18166147
39	0xbe77be14	-0.24193603
40	0xbe7f4674	-0.2492922
41	0x3d20a4be	0.03921961
42	0xbe328f23	-0.17437415
43	0x3d1b1a0f	0.03786665
44	0xbe420775	-0.18948157
45	0xbe4597b0	-0.19296145
46	0xbe5f02ef	-0.21778463
47	0xbe8713eb	-0.26382384
48	0xbe7515ff	-0.23934172
49	0xbe2e9fd6	-0.1705316
50	0xbe2de435	-0.16981585
51	0xbe838473	-0.25686988
52	0xbe88e6a5	-0.26738468
53	0xbe744418	-0.238541
54	0x3d21f893	0.0395437
55	0xbda0ba92	-0.078480855
56	0x3d434344	0.04767157
57	0xbe9d09cb	-0.30671534
58	0x3df20f8a	0.1181937
59	0xbe77b117	-0.24188648
60	0xbdfee23b	-0.12445494
61	0xbe660af8	-0.22465122
62	0xbe87c633	-0.26518402
63	0x3d5a5a8b	0.053309005
