model_mixed/gdn_smap50.pth (torch, 42869 bytes, 16 tensors)

embedding.weight f4 [25, 64]
000000 72 79 20 bd 1e 45 0c bd d3 b8 c2 bc 01 b6 0d bd
       -0.03917832 -0.034245603 -0.023769772 -0.0345974
000010 da cc 42 3e 9a 3b 27 3d 81 c7 92 bd 23 6b 3a 3d
       0.19023457 0.040828325 -0.071669586 0.04551233
000020 d5 62 f7 3d d9 a0 7a bd e8 00 43 bd 18 8b 62 bc
       0.120793976 -0.061188553 -0.047608286 -0.013827108
000030 7b b6 dd bc 49 50 1a bd e6 19 cc bc a4 81 fb bb
       -0.027064553 -0.037674222 -0.024914693 -0.0076753665
000040 bb f7 2e be 02 12 76 bd 51 04 33 bd e4 f5 b6 bd
       -0.17086689 -0.060075767 -0.04370529 -0.08933619
000050 0d 6a ae bc ea bd 92 3d d9 78 a3 3b 27 ae 92 bd
       -0.021290803 0.071651295 0.0049887714 -0.07162123
000060 43 ed 95 bd b3 22 cf bb 90 aa d6 bd 58 72 9c bd
       -0.07320645 -0.006321275 -0.10481751 -0.07638997
000070 d4 70 04 be 4d e8 a3 3d a2 41 08 bd 99 bf 85 bd
       -0.12933666 0.08003292 -0.033265717 -0.06530685
000080 95 42 57 bd 6f 6d 0c be 77 c6 a5 3c f2 a0 95 bd
       -0.052553732 -0.1371362 0.020236237 -0.073060885
000090 71 6c 48 bd 7f 3b 1b 3e e2 f3 a0 bd 71 3e 39 bd
       -0.048931543 0.15159415 -0.07859017 -0.045225564
0000a0 e7 4e 93 3d 9b ce 29 bd ea 7b 4d 3d f7 cf f3 3d
       0.07192784 -0.0414568 0.050167 0.119049005
0000b0 73 5a 33 be 00 c5 bf bb 7f a8 00 be 21 07 bf 3d
       -0.17514972 -0.0058523417 -0.12564276 0.093275316
0000c0 e1 4f 59 bd 92 ad 29 bd 46 fa c5 bc d5 b8 e1 3d
       -0.053054694 -0.041425295 -0.024167191 0.11021582
0000d0 46 e6 49 bd 9c 35 88 bc 79 0c 26 3e 13 6d 11 be
       -0.04929187 -0.016627125 0.16215695 -0.14201765
0000e0 4a 7e 9a bc 90 a2 a2 bd 3b 43 64 3d 44 1b 8f bc
       -0.018859047 -0.079411626 0.05572818 -0.017469056
0000f0 91 7f e2 3d 96 72 0c 3d b5 b9 c1 bd 1a 8b b2 bd
       0.110594876 0.034288965 -0.09459249 -0.08717938
000100 9c 08 43 bc bd 07 8b 3d 97 da 02 3a 35 38 c5 3d
       -0.011903908 0.06788585 0.0004991679 0.09629861
000110 00 6f 2f be e3 08 a1 3c f5 81 d0 bc 86 16 08 bc
       -0.17132187 0.019657558 -0.025452593 -0.008306151
000120 44 d7 20 bd 66 39 b7 bb 44 57 2d 3e c9 fa 64 3c
       -0.039267793 -0.005591559 0.1692782 0.013975807
000130 34 02 8c bd c2 b1 2a bc c5 ed 46 3d 06 3b 58 bd
       -0.06836358 -0.010418357 0.0485666 -0.052790664
000140 a3 2f 4c 3d 0b 5d e2 3d 78 47 0f 3d e2 e6 a2 3d
       0.049850117 0.11052903 0.034980267 0.07954194
000150 28 ab 5c bd 6d e0 f8 bc a0 c0 a1 3d f5 09 4e 3d
       -0.053874165 -0.030380452 0.078980684 0.050302465
000160 1e ae 80 ba a9 db 31 bd 8a b2 29 bc 94 1f 9b bb
       -0.0009817516 -0.043422375 -0.010357508 -0.004733989
000170 b3 b4 60 3c 1b 90 ff bb 4f cd c6 3d 7f 03 35 3b
       0.013714957 -0.007799161 0.09707128 0.0027620492
000180 66 90 76 bb 93 5c 0c be 4b e9 84 bd a0 47 c9 bd
       -0.003762269 -0.1370719 -0.064898096 -0.098281145
000190 e1 45 ab bc 15 19 44 bd b2 b4 9e 3a 60 27 86 bb
       -0.020907344 -0.047875483 0.0012108295 -0.0040940493
0001a0 9d db 72 bd 5a ef 9e bd 1c 9f 47 be bc 45 71 bc
       -0.05929147 -0.077604964 -0.19494289 -0.014726099
0001b0 ea 62 20 3b 2e b7 2a be a8 ac 18 bb 3d e4 90 bd
       0.002447302 -0.1667144 -0.002329627 -0.07074783
0001c0 fc ac ee 3b ac ac ce 3c e4 32 b2 bd 71 cc 88 bd
       0.007283805 0.02522882 -0.08701113 -0.06679619
0001d0 a2 9c 65 bd f0 14 e6 bc 67 9f 31 3c ed 69 c8 bc
       -0.05605758 -0.028086156 0.010841227 -0.024464572
0001e0 b3 73 8d 3d e6 0d b4 bd e1 33 c7 bb 5b 08 61 3d
       0.069068335 -0.087917134 -0.0060791825 0.05493961
0001f0 43 9e ca bc 6d d9 90 3d b7 b5 8c 3d 59 10 14 3e
       -0.024733668 0.07072721 0.06870597 0.14459361
000200 f8 99 97 bc db 90 29 bd 02 a6 34 3e 52 01 58 bd
       -0.018506035 -0.04139791 0.17641452 -0.052735634
000210 6a fa 13 3d 37 52 9d 3d 9b e8 e6 bc b0 39 28 3d
       0.036127485 0.07681697 -0.028187087 0.04107064
000220 f3 fd d6 bc 19 53 08 3e 51 5a 9e 3e 80 7b 31 3e
       -0.02624414 0.13312949 0.3092828 0.17332268
000230 42 0d 55 bd cc 8b 50 3e ae 85 36 bd 59 af 57 3e
       -0.052014597 0.20365828 -0.04456108 0.21062984
000240 76 d3 b2 bc 26 6f 19 bd 9c aa 1c bc af d8 a6 bc
       -0.021829348 -0.037459515 -0.009562161 -0.020366995
000250 44 b8 3f 3e cd 7e 54 3d 33 71 91 3d dc 45 bb bc
       0.18722636 0.05187874 0.07101669 -0.02286046
000260 40 8d 35 3c 90 fa bb bc 2c de e3 3d 0e 2e 04 3e
       0.01108104 -0.022946626 0.1112636 0.12908193
000270 11 4b ae bc b5 7d 24 be 36 ca 02 3e 55 3d 9f 3a
       -0.021276029 -0.16063578 0.1277245 0.0012149016
000280 43 06 fa bc d7 51 e4 bd 4e ef 06 bd 44 91 98 3d
       -0.030520564 -0.11148422 -0.032943062 0.07449582
000290 96 30 1f 3e 65 2c d4 3c 56 ff 64 3d 84 30 8e ba
       0.15545878 0.025900075 0.05590757 -0.0010848199
0002a0 7b d2 60 bc 2f af fc 3c 3a cf bc bb 43 d3 b9 bd
       -0.013722057 0.030845253 -0.005762008 -0.09073498
0002b0 51 bc ff 3d 3d 7c 03 be 80 fb a3 bc d4 33 9f 39
       0.124870904 -0.12840362 -0.020017385 0.00030365458
0002c0 ea 80 e1 3c 18 3a 73 bd 96 52 40 bd c1 f0 aa 3c
       0.027527291 -0.059381574 -0.04695376 0.020866754
0002d0 e3 c3 98 3e 54 56 87 3e a5 6d 03 3d 96 e2 40 bd
       0.2983695 0.2643305 0.032086987 -0.04709109
0002e0 e0 6d 31 bd 10 28 a4 3c c0 f3 bd 3d 38 8b 47 bd
       -0.043317676 0.020038635 0.09275007 -0.048716754
0002f0 79 6b 18 3d c7 f4 73 bb a1 a6 dd bb 08 ef 16 3b
       0.03721187 -0.0037224756 -0.0067642485 0.0023030657
000300 6c 18 9d 3c 0e 57 13 3e 4d c6 a5 bb 71 f7 f7 3d
       0.019176684 0.14388677 -0.0050590397 0.121077426
000310 38 d6 9c bd e1 62 a4 3c 50 a7 f8 bc d7 24 8e 3c
       -0.076580465 0.02006668 -0.030353218 0.017351551
000320 0c 62 f7 3d d3 b2 9c bc cd e9 c3 bc d7 6c 8b 3d
       0.12079248 -0.019128239 -0.023915196 0.06807869
000330 db 45 86 bd 75 ec f8 bb 0a 78 18 bd 78 25 86 3d
       -0.065562926 -0.0075965472 -0.037223853 0.06550115
000340 22 be 3d 3e df b6 aa 3d 5a a2 b5 3d 2f 1d 04 3e
       0.18529561 0.08335661 0.08868857 0.12901758
000350 94 a9 e4 bb 24 8c 20 bc 17 95 92 bc db 13 24 3e
       -0.006978223 -0.009799037 -0.017893357 0.160232
000360 66 18 f8 3c 8b 32 11 bd b2 28 30 bc 7a 15 82 bc
       0.030285072 -0.035448592 -0.01075189 -0.015879381
000370 c6 53 ac bd 55 60 1c 3e f7 2f 98 3d 0d 03 c2 3a
       -0.08414416 0.15271123 0.074310236 0.0014801935
000380 da 6b d9 bc c2 19 09 be 17 b1 b7 3d 23 2b cb bd
       -0.026540685 -0.13388732 0.08969324 -0.09920337
000390 47 d8 35 bc 56 9f 51 bc 40 bf 8e bb 8d e9 ef 3c
       -0.011098928 -0.012794336 -0.004356295 0.02928617
0003a0 8a d1 06 be ae 8f 6e bd 39 a3 ae bc ae 02 3f bc
       -0.1316587 -0.058242492 -0.021318065 -0.011658354
0003b0 1e d4 9e bc 90 9d b1 bd 5e c4 59 bc 48 19 eb bd
       -0.019388255 -0.08672631 -0.0132914465 -0.114794314
0003c0 57 e7 1c 3c 88 23 ac 3d 42 88 b0 bd f7 11 3c bd
       0.00957664 0.084052145 -0.08619739 -0.04591557
0003d0 9f 43 27 bd 37 6f 4d bc 3f cb b9 38 f4 e0 e1 3d
       -0.040835973 -0.012538723 8.859345e-05 0.110292345
0003e0 96 3f ac 3d bd 99 f8 bd fc d3 ae bb ab ad 6d 3d
       0.084105656 -0.12138698 -0.005335329 0.05802695
0003f0 f8 13 4c be 80 e2 d0 3a 9f 44 ba 3d e1 d9 d8 bd
       -0.19929492 0.0015936643 0.0909512 -0.10588432

bn_outlayer_in.weight f4 [64]
000000 34 94 bb 3f ef ea a6 3f a6 8f d0 3f e1 66 a9 3f
       1.4654603 1.3040446 1.6293838 1.3234521
000010 a8 db 70 3f a1 90 c2 3f 48 ef a1 3f b4 c9 be 3f
       0.9408517 1.5200387 1.2651148 1.4905305
000020 b4 fe 73 3f e8 fc 9d 3f e4 0f d3 3f 4e 3e a5 3f
       0.9531052 1.2342806 1.6489224 1.2909639
000030 5f e9 a8 3f 18 52 cc 3f a3 5e db 3f 2e 22 a0 3f
       1.3196219 1.5962553 1.7138256 1.2510431
000040 bf 6c a6 3f eb e4 b2 3f 30 eb 9e 3f 4a c6 af 3f
       1.3001937 1.397611 1.2415524 1.3732388
000050 2c 2d c9 3f 8f 0f 75 3f 8d 44 ac 3f 89 7b b7 3f
       1.571691 0.95726866 1.345842 1.4334575
000060 e8 31 a4 3f 4b fb aa 3f 35 25 bd 3f 10 f4 ba 3f
       1.282773 1.3357939 1.477698 1.4605732
000070 11 f4 a8 3f 99 7a 73 3f 04 72 c1 3f 7d 6b 9d 3f
       1.3199483 0.95108944 1.511292 1.2298428
000080 8a 68 aa 3f a3 5e 6c 3f ac d4 9d 3f 20 b2 a7 3f
       1.3313153 0.92331904 1.2330527 1.3101234
000090 3f d3 90 3f c2 29 72 3f c4 d2 9f 3f c7 4d a4 3f
       1.1314467 0.9459497 1.2486196 1.2836236
0000a0 e9 1f 77 3f f0 55 d7 3f 5e 97 71 3f ff ed 6f 3f
       0.96533066 1.6823101 0.94371593 0.9372253
0000b0 1e b2 c5 3f 14 d9 81 3f 33 a3 9d 3f 6d 05 74 3f
       1.5444982 1.0144372 1.231543 0.9532078
0000c0 5d 62 93 3f 70 7d 95 3f 54 4f 9c 3f 7d e4 74 3f
       1.1514393 1.1678905 1.2211709 0.95661145
0000d0 3d bf d1 3f 7d fa 89 3f a9 77 6e 3f 62 76 6e 3f
       1.6386486 1.0779568 0.93151337 0.9314939
0000e0 d9 4a b0 3f 15 82 a1 3f cb 36 b6 3f e5 08 ab 3f
       1.3772842 1.2617823 1.4235471 1.3362089
0000f0 73 2e 6c 3f 64 bc 72 3f 98 e9 a3 3f bb 15 7d 3f
       0.92258376 0.9481871 1.2805662 0.98861283

bn_outlayer_in.bias f4 [64]
000000 1f 30 90 3e ea 93 9c 3e 32 e4 73 3e 85 c6 b8 3e
       0.28161713 0.305816 0.23817518 0.36088958
000010 81 e0 92 bd 08 61 d7 3e 5d 4e 8e 3e b7 8e f9 3e
       -0.07171727 0.42066216 0.2779416 0.48741695
000020 77 e0 99 bd 06 da 1d 3e 80 70 fe 3e 4f 31 9f 3e
       -0.075135164 0.154152 0.49695206 0.31092307
000030 60 1a 9b 3e 85 1e 0e 3f d2 ae d4 3e de e7 22 3e
       0.3029356 0.5551532 0.41539627 0.15908763
000040 e7 92 76 3e a8 48 8d 3e f9 dd 57 3e 8b 9c 7e 3e
       0.24079476 0.27594495 0.2108077 0.24864404
000050 46 8e 06 3f bf a2 1b be eb f1 8a 3e d4 d7 06 3f
       0.5256084 -0.15198801 0.27137694 0.5267308
000060 bc d0 1e 3e 06 07 ac 3e 8f 42 b4 3e a4 ac 99 3e
       0.15509313 0.33599108 0.3520703 0.30014527
000070 12 3b 6f 3e bf 71 99 bd 7d e4 f5 3e 64 5e 5d 3e
       0.23362377 -0.074923985 0.48025885 0.21618038
000080 ad 25 a6 3e f9 05 e7 bd e6 12 33 3e 24 7e 64 3e
       0.3245062 -0.11280436 0.17487678 0.22313744
000090 36 df 09 3d 72 1f af bd 6c c2 24 3e 8e 9b 82 3e
       0.033660136 -0.085509196 0.16089791 0.25509304
0000a0 5e 5f a0 bd fe 01 27 3f f5 4b b6 bd f6 d9 07 be
       -0.0783069 0.65237415 -0.089012064 -0.13266739
0000b0 93 a5 10 3f 32 2d 06 bd e7 f7 5a 3e da 52 5d bd
       0.56502646 -0.032757945 0.2138363 -0.05403409
0000c0 5e ca 3b 3d 19 1b 2d 3e 55 d0 56 3e 07 c3 96 bd
       0.04584729 0.16904868 0.2097791 -0.07361417
0000d0 29 57 2d 3f 04 c1 61 bc c2 28 a3 bd 62 74 85 bd
       0.6771112 -0.013778929 -0.07966758 -0.06516339
0000e0 7e e3 81 3e 65 f6 7a 3e e4 31 e8 3d 5c 2b c2 3e
       0.25368875 0.24508055 0.11337641 0.37923706
0000f0 85 db d0 bd 21 0c e7 bd d2 ad 39 3e cf 45 f7 bc
       -0.1019812 -0.1128161 0.18132713 -0.030184655

bn_outlayer_in.running_mean f4 [64]
000000 98 58 41 3c 2b ab 40 3c c9 db 71 3c 43 73 8a 3c
       0.011800908 0.01175956 0.0147618735 0.016900664
000010 73 7e 92 bb 36 10 93 3d 30 a0 c7 bb b4 81 74 3d
       -0.0044706403 0.07180826 -0.006092094 0.059694007
000020 7c a8 f4 ba 92 e0 d2 3b 61 12 05 3d bd 1b ff 3c
       -0.0018665935 0.0064354623 0.03248823 0.031141156
000030 0d 2f e7 3b e6 26 16 3d 9b a6 65 3c ab d6 80 3c
       0.0070551694 0.03665819 0.014016773 0.015727362
000040 57 5f 5f bc 2a c1 22 3c ab 12 00 3b 2f c4 42 3c
       -0.013633571 0.009933749 0.0019542377 0.011887594
000050 8f 9a 95 3c cb b5 9a 3b 89 84 07 3d 4e e2 34 3c
       0.018262176 0.0047213784 0.03308538 0.011040283
000060 e3 46 6e 3c 79 97 79 3c 42 2f 80 3c de 74 85 3c
       0.014543268 0.015233868 0.015647534 0.016291078
000070 9a 5a 7a 3a 05 fa 11 3b 3b 5f 7e 3c f3 c4 b7 3c
       0.0009550244 0.0022274267 0.015525634 0.02243278
000080 f6 74 58 3c 92 7e ea ba 90 2c 4d 3c 66 5f 25 b9
       0.013211479 -0.0017890504 0.012522832 -0.00015771165
000090 e4 8d eb ba 1a 31 3c bb cf 98 74 3c 51 6d ca 3c
       -0.0017971364 -0.002871579 0.0149290105 0.02471033
0000a0 bd 3d 8e bb 1e 25 1a 3d 85 68 ba bb 7b 08 b4 bb
       -0.004340856 0.037633054 -0.005688729 -0.005494175
0000b0 5b 40 30 3c 24 27 b3 3b 0e 76 7c bc 43 88 cc ba
       0.010757531 0.0054673124 -0.015409006 -0.0015604574
0000c0 98 65 08 3d 10 ac 0b bc 4f 6d 54 3a 6e 57 6d bc
       0.033300012 -0.00852491 0.00081034465 -0.014486177
0000d0 a0 e2 28 3d 74 aa 12 3c c8 34 40 bb f6 b4 7b bb
       0.04123175 0.008951772 -0.0029328335 -0.0038407422
0000e0 19 82 19 3c a7 42 93 bc a5 4f f2 3b c1 2e 57 3c
       0.009369397 -0.017976118 0.0073947483 0.013133706
0000f0 8e 1c b2 bb ad eb b7 3b 29 bd 12 3c a3 c2 26 3b
       -0.005435533 0.0056128115 0.008956232 0.0025445602

bn_outlayer_in.running_var f4 [64]
000000 37 66 03 3b 84 d0 f7 3a 6e 74 13 3b 43 dc 2a 3b
       0.0020049938 0.0018906747 0.0022499817 0.0026071228
000010 51 95 6c 3b 5c 28 d7 3b 95 25 a1 3b eb 81 6b 3b
       0.0036099742 0.0065660905 0.00491781 0.0035935591
000020 82 d5 d6 3a 53 0d 95 3a e4 31 c4 3b 56 7a 56 3b
       0.0016390535 0.0011371769 0.0059873927 0.0032726726
000030 ed a6 32 3b 43 48 43 3b 2b 08 36 3b 77 2d 18 3b
       0.002726014 0.002979771 0.0027775865 0.0023220459
000040 47 03 8b 3b 78 5a dc 3a 9b 88 6c 3b cb a9 24 3b
       0.004242334 0.001681163 0.0036092165 0.0025125619
000050 fa 68 dc 3a 97 91 58 3b 13 f4 30 3b 16 c6 96 3b
       0.0016815953 0.0033045763 0.0027000948 0.0046012504
000060 83 b1 dc 3a fb 12 df 3a 0e cc 38 3b 5b 4f 15 3b
       0.0016837571 0.0017019206 0.0028197798 0.0022782895
000070 2a de 2c 3b 0d 61 09 3b 00 cf 89 3b a6 bf 26 3b
       0.0026377537 0.0020962388 0.0042055845 0.0025443821
000080 f0 e8 f1 3a 77 33 60 3b df 8e 0d 3b 49 ee 76 3b
       0.0018456262 0.0034210363 0.002160005 0.003767865
000090 3b fd 14 3c cd cb 27 3b 21 88 04 3b 10 f0 fd 3b
       0.009093578 0.0025603652 0.002022274 0.007749565
0000a0 c9 1b 87 3b 4a 4c 87 3b 5d 3f 7d 3b 43 99 1e 3b
       0.0041231853 0.0041289674 0.0038642504 0.0024200238
0000b0 be 20 d3 3b 24 e6 02 3c 7b a1 65 3b 91 03 05 3b
       0.006443112 0.00798944 0.0035038877 0.0020296315
0000c0 00 6c 0d 3c 21 85 6e 3b 23 89 4d 3b 21 da 9a 3b
       0.008631706 0.003639527 0.0031362257 0.00472571
0000d0 74 b3 c8 3b 6d 48 7c 3b d5 5c 00 3b 96 d9 fe 3a
       0.006124908 0.0038495318 0.0019586582 0.0019443508
0000e0 be 64 fb 3a b9 c1 c8 3b ad d5 40 39 82 f2 e7 3a
       0.0019179804 0.006126609 0.00018390147 0.0017696174
0000f0 61 0e 6e 3b e4 d8 7e 3b 02 4e 07 3b d8 74 38 3b
       0.0036324488 0.00388866 0.0020645862 0.0028145816

gnn_layers.0.gnn.att_i f4 [1, 1, 64]
000000 a2 43 14 bf 19 1e a3 3e 94 44 ec be bf e8 0d be
       -0.579157 0.318589 -0.4614607 -0.13858317
000010 6f 91 21 3d c6 3e dc 3e 19 20 a4 3e e4 f5 2a 3e
       0.039445337 0.43016642 0.3205574 0.16695362
000020 bd 20 b9 3e 35 3b 20 be 50 c1 8e be 0c 3b c4 3c
       0.3615779 -0.15647586 -0.2788186 0.023953937
000030 3d f5 e1 be 57 70 d5 bd 55 05 e0 be d7 fe 71 be
       -0.44132414 -0.10421818 -0.43754068 -0.2363237
000040 7c ed f7 3e 7c 95 5c be c0 67 d8 3e 7c 2a 15 be
       0.48423374 -0.21541399 0.42266655 -0.14566988
000050 c5 35 83 3d 57 a9 aa 3c d1 da b0 be ba 55 e4 3d
       0.0640674 0.0208327 -0.34541944 0.111491635
000060 c0 3f b4 3e 2b 2c ac be 5a e3 81 3e 1d 15 1e be
       0.35204887 -0.33627447 0.25368768 -0.15437742
000070 37 1a 6d 3e 9a 36 4e be 97 86 93 bd 40 06 e5 3d
       0.23154531 -0.20138016 -0.07203405 0.11182833
000080 3e 58 59 3d 82 6d 69 be 4f 80 0c 3e 4a 5a 23 3e
       0.05306267 -0.2279568 0.13720821 0.15952411
000090 f2 ce ee be ff e6 92 3d 6b f1 f4 3d c2 41 41 3e
       -0.46642262 0.07172965 0.11960109 0.18872741
0000a0 39 36 a9 3e ed 51 4b 3e b2 05 16 3d 5a 5e 18 3e
       0.3304918 0.19855471 0.036626525 0.14879742
0000b0 21 d1 99 3c f4 66 1a bd 1c 03 fc bd 62 c3 85 3e
       0.018776478 -0.03769584 -0.123052806 0.26125628
0000c0 fc b4 7a 3e 75 7f e5 3e 70 b2 1a be f6 60 4d bd
       0.24483103 0.44823804 -0.15107131 -0.050141297
0000d0 ae 13 05 3d 2f 56 9e be 0f 55 bf 3e e5 6c a1 be
       0.03248947 -0.30925128 0.37369582 -0.31528392
0000e0 e6 84 57 be 80 9c 18 3e a7 13 52 be a9 e5 12 39
       -0.2104679 0.1490345 -0.2051531 0.000140092
0000f0 47 14 9b be 8d 8d f6 3d ac 2f 09 3e 8e 45 88 be
       -0.30288908 0.120387174 0.13397092 -0.26615566

gnn_layers.0.gnn.att_j f4 [1, 1, 64]
000000 30 46 8f bd e5 37 28 be 23 db 2d bc 56 18 e4 bd
       -0.06995809 -0.16427572 -0.010611328 -0.11137454
000010 8f 8d 06 be c2 e3 5c 3e 91 71 62 3e 65 63 64 3e
       -0.13139938 0.21571258 0.22113635 0.22303541
000020 14 4e 78 3e cc e9 36 bd c3 d8 bb bd 69 3b 8d 3d
       0.24248534 -0.04465656 -0.091722034 0.06896097
000030 0b 60 00 bd 06 ce 3f be 9f c7 41 3d 46 1c cb bd
       -0.031341594 -0.18730935 0.047309514 -0.09917502
000040 c9 22 30 3d e9 98 c0 bc d3 64 b3 bd 21 ec 04 be
       0.043001924 -0.023510413 -0.08759465 -0.12980701
000050 9e 05 01 bd db 01 4a be 53 2a c8 bc 6e 76 df 3c
       -0.031499498 -0.1972727 -0.024434244 0.027278151
000060 51 84 d5 bc b6 16 99 3c 48 1e 85 be 5f 60 08 3c
       -0.02606407 0.018687587 -0.25999665 0.008323758
000070 b7 6d 4b 3e c6 06 3d 3d 67 42 8b 3d f9 3d 5c 3e
       0.19866072 0.046149038 0.067997746 0.21508016
000080 46 d7 30 be 9d 55 96 bc b9 10 3a 3d 18 32 58 be
       -0.1726962 -0.01835137 0.045426104 -0.21112859
000090 9a 6b 0f be 79 2b 6f be 8a a5 c3 3d ad d9 07 be
       -0.1400589 -0.23356427 0.095530584 -0.1326663
0000a0 de ae 50 be 7c b0 86 bd da d4 d4 bd cd ef 93 bb
       -0.20379207 -0.065766305 -0.10392161 -0.0045146705
0000b0 93 6f 29 3e 25 3f 0e 3e a9 7b e8 bc ce 6e 8c 3d
       0.16546468 0.13891275 -0.028379278 0.06857072
0000c0 bf 74 bc 3d 08 6a 9a 3d 10 7a 21 be 01 d8 b3 3d
       0.09201955 0.07539755 -0.1576922 0.08781434
0000d0 20 b1 38 3e 99 93 13 3e 3b 4d 2c bd c2 90 23 bd
       0.18036318 0.14411773 -0.04206584 -0.039932974
0000e0 e3 fd aa bd 77 fa 17 3e 30 a7 e8 bd dd 38 49 3d
       -0.08349206 0.14841639 -0.113600135 0.049126495
0000f0 21 f0 4c 3c 50 22 40 3e e7 9f f8 3d 57 24 24 bd
       0.012508423 0.18763089 0.12139874 -0.04007372

gnn_layers.0.gnn.att_em_i f4 [1, 1, 64]
000000 5a 67 95 3e c0 50 f2 bc 92 91 27 3d bd 5d 88 bc
       0.29180413 -0.02957952 0.04091031 -0.01664626
000010 23 d9 f6 be dd 98 c1 be ee 60 f2 bc 76 22 07 bf
       -0.48212537 -0.37811938 -0.029587235 -0.5278696
000020 d6 9d 8f be f0 82 99 bd 79 4c 39 be 17 a3 67 be
       -0.28050107 -0.074956775 -0.18095578 -0.22620808
000030 bd d0 91 be 88 f0 be be ac f4 d3 3d a2 88 b9 be
       -0.28479567 -0.37292886 0.10349402 -0.36237055
000040 2a 7d 0d 3f 30 28 c6 3e 98 f3 86 3d 08 8d 8a 3e
       0.5526911 0.38702536 0.065894306 0.27060723
000050 4b 37 00 bf b5 91 79 be ae a9 ea be ab 54 ff bd
       -0.5008437 -0.24371989 -0.4583258 -0.12467321
000060 d3 7b 92 bd 3e 6c 28 be e2 b2 d6 3d 6c 9e 03 be
       -0.07152524 -0.16447541 0.10483338 -0.12853402
000070 2b a2 96 3d be 0f bc 3d df 7f a7 3d 1b 2b a7 bc
       0.0735515 0.0918269 0.08178686 -0.020406296
000080 92 00 75 3c a1 70 95 bd 1c c2 bc be 3b b7 4b be
       0.014953749 -0.07296873 -0.36866844 -0.19894116
000090 b9 e2 c2 3e 2d e5 8c be ba cf 04 bd 00 b1 6d 3d
       0.380636 -0.27518597 -0.032424666 0.05803013
0000a0 41 18 81 be 57 fd 07 bf 41 e7 de be dc 8e 01 be
       -0.25213817 -0.5312094 -0.43535808 -0.12652153
0000b0 c9 74 cd bc d4 7e b2 bd 53 5a a6 3e 41 17 e2 be
       -0.025080102 -0.08715597 0.32490787 -0.44158366
0000c0 4f 71 30 bd 76 6d d6 3e 7f 2d 88 be e5 e7 3d 3e
       -0.04307681 0.41880387 -0.2659721 0.18545492
0000d0 ae b1 3f bf da f2 95 3d 98 e1 1e be 6b 45 e3 3d
       -0.7488049 0.07321711 -0.15515745 0.11097225
0000e0 30 68 df 3d ff fe 36 3e ea 3f 82 be 72 11 50 bc
       0.10908544 0.17870711 -0.25439388 -0.012699472
0000f0 63 59 df be a9 df c7 3d 73 ca 73 3e 81 66 da bd
       -0.43622884 0.09759457 0.23807697 -0.10664082

gnn_layers.0.gnn.att_em_j f4 [1, 1, 64]
000000 ce d4 ab bd 9a 82 34 be 78 29 3a 3e d3 c6 48 bd
       -0.08390199 -0.17627946 0.18179882 -0.04901774
000010 9c 51 16 be 9d 3a 14 bf 6a 3b af be ff 02 0c bf
       -0.14679569 -0.57901937 -0.34225017 -0.5469207
000020 f1 33 28 be 94 0b ad be 86 8c 44 bf 71 e9 6e bf
       -0.16426064 -0.33797896 -0.7677692 -0.93324953
000030 6c e7 16 3e 72 1e 26 bf 85 17 22 3e 01 d1 83 be
       0.14736718 -0.64890206 0.15829284 -0.25745395
000040 7f fa 73 3e ef c2 c5 bd 96 6f ed be 7c 8a f2 be
       0.23826025 -0.09656321 -0.46374196 -0.4737128
000050 60 5f 36 bc 02 56 76 3e 3d c3 09 bf 52 f2 33 bf
       -0.011131138 0.24056247 -0.53813535 -0.70291626
000060 ca 0a 51 bf ff 43 2b 3e e9 63 f2 be 5d bd 00 bf
       -0.8165709 0.16725157 -0.4734185 -0.50288945
000070 34 e5 18 bd 52 aa 61 3e d7 5b 4e 3e ff 7f 84 be
       -0.03732796 0.22037628 0.20152222 -0.25878903
000080 90 23 b3 be c9 b2 d6 be ae c5 08 bd 47 1a f3 bc
       -0.3498807 -0.41933277 -0.033391647 -0.029675616
000090 f8 94 b2 3e 41 fe 06 be 56 3c bc be 0a 73 65 bf
       0.3487928 -0.13182928 -0.36764783 -0.8962866
0000a0 d5 ea 86 3e 36 e5 af be ea 76 95 3e e2 a6 aa bc
       0.26351038 -0.34354562 0.29192287 -0.020831529
0000b0 6d e1 63 bf 3e 93 9e 3e a6 e1 99 3d 16 c9 06 be
       -0.8901585 0.30971712 0.07513742 -0.13162646
0000c0 b8 33 1b bf 69 b6 b0 3e c3 9f 4b be 1e 5b bb 3e
       -0.6062579 0.34514168 -0.19885163 0.36592954
0000d0 8b 84 40 bf 70 00 58 3e 6e ef 08 be 47 7d 95 3e
       -0.75202245 0.21093917 -0.13372585 0.29197142
0000e0 da c4 7c 3e 8a 09 c7 be 43 5a b5 3d cc fb d0 3d
       0.24684468 -0.38874465 0.08855107 0.102042764
0000f0 39 91 33 bd 0d 5d a0 3e 8d c2 a4 be d7 c4 86 be
       -0.043839667 0.31320992 -0.3217968 -0.26322052

gnn_layers.0.gnn.bias f4 [64]
000000 e0 a8 ca 3c d3 24 00 3d 4d 54 04 bd 4c 53 48 3e
       0.024738729 0.03128512 -0.032306958 0.19563025
000010 36 b1 15 bc 31 d5 28 3d 44 c7 c1 3b de 98 21 3d
       -0.009136489 0.04121894 0.005913647 0.039452426
000020 de fc ae bc 42 9d e8 3a 1c 2e 10 3d 99 72 27 3d
       -0.02136081 0.0017747062 0.035200223 0.040880773
000030 23 c3 15 3e 06 21 be 3d 23 57 09 3e 64 e1 dc 3c
       0.1462522 0.092836425 0.13412146 0.026962943
000040 46 15 d7 bc d0 ec 7a 3c 92 4d 27 3d cb 4a 44 3a
       -0.026255261 0.01531525 0.04084546 0.00074879517
000050 4e 32 54 3d 7a ba a3 3c ca 80 d8 3c df e5 d9 3d
       0.051805787 0.01998638 0.026428599 0.106395476
000060 5a 7c 63 3c 7f d4 b0 3d 1c fe a4 3c 3f 59 f4 3b
       0.013884628 0.086342804 0.0201407 0.007456928
000070 ba c3 f1 39 d1 f3 44 3c be 7a fe 3c ed 45 cf 3c
       0.0004611293 0.012021021 0.031064387 0.025301898
000080 c5 84 a3 3d 8d 7e 89 bc 3d 22 a3 ba a6 5c ef 3d
       0.07984308 -0.016783977 -0.0012446117 0.11687593
000090 d6 df 52 bc cd b1 62 3c 18 d6 e0 ba ee 92 81 3d
       -0.012870749 0.013836336 -0.0017153649 0.06326853
0000a0 0c 88 2e bc bc 94 26 bb 5f 3a 71 bc 89 d4 57 3b
       -0.010652553 -0.0025418242 -0.014723389 0.0032933077
0000b0 31 3d d5 bb ab b8 a4 bb c7 5a a4 3d 64 05 2c 3a
       -0.0065075387 -0.005026897 0.08025127 0.00065620826
0000c0 e3 b6 d5 3c 8e 5b 6d bc 1e 78 1e 3d bd ad 86 ba
       0.026088184 -0.01448716 0.03868877 -0.0010275167
0000d0 b4 d1 14 3e 89 fe e4 bb 4f a6 af bb 5c 56 43 bd
       0.1453312 -0.006988351 -0.0053604017 -0.04768978
0000e0 15 48 9a 3d 72 eb cd 3c 66 c9 9c bc 82 9f 18 3e
       0.0753328 0.025136683 -0.019139003 0.14904597
0000f0 c4 b9 50 3c d9 46 6d bd 6b 1a 2f 3c d4 81 99 3c
       0.0127396025 -0.057928894 0.010687451 0.018738665

gnn_layers.0.gnn.lin.weight f4 [64, 100]
000000 e0 fd 8f 3d 3a 4a a9 3d 77 78 24 3d 5c 98 19 be
       0.07030845 0.08266111 0.040153947 -0.14999527
000010 c6 39 d5 3c 12 4b 41 3c 86 20 3e bd 31 3c 07 be
       0.026028525 0.011797683 -0.046417736 -0.13206555
000020 e3 b2 37 3c d4 1a 3a bd 92 b6 88 3d ee 0b 76 3d
       0.0112120835 -0.04543574 0.066754475 0.06006997
000030 0e 4c 22 3d e4 c4 0e be 4d a6 04 bd 1e 1e 8b bd
       0.039623313 -0.13942295 -0.03238516 -0.06792854
000040 9a 7e 2b 3c cc 56 96 3d ed dc 5b 3e ce 44 f6 3d
       0.010467196 0.07340774 0.21470995 0.12024842
000050 25 fb fc 3d d1 bb b0 3d e5 7a 06 be 8b 7e b8 3d
       0.123525895 0.08629573 -0.13132818 0.09008511
000060 62 2d 4b 3d 4b 92 36 bc 4a bf b7 bd 0b 4a c2 3d
       0.049603827 -0.011143277 -0.08972032 0.09486779
000070 23 ac c6 bd c4 0d 08 3e 5c 5e 5f 3e 98 d2 8c 3d
       -0.09700801 0.13286501 0.21813339 0.06876105
000080 5e 12 31 3e 62 31 ce 3d 7f e1 35 3e 77 e3 fb bc
       0.17292163 0.10068013 0.17761801 -0.030748112
000090 22 bd 80 bc e3 fa ad 3d e9 de 0f 3e 58 56 74 3d
       -0.015715186 0.084951185 0.14049877 0.059652656
0000a0 1f ec b8 bd 7b 67 98 bd 28 4b f5 3d a3 f3 3d 3e
       -0.090294115 -0.07441612 0.119772255 0.18549971
0000b0 40 12 ed 3c bc 92 db 3c 27 ef 3d bb 51 af 21 bc
       0.028939366 0.026803367 -0.0028981657 -0.009868459
0000c0 7a 82 c2 3d ea 10 b0 3c 21 b7 4a 3c bc 44 a7 bd
       0.09497543 0.02149244 0.012372763 -0.08167407
0000d0 38 0f 69 3d 11 67 18 3e 3a a0 e1 bd 3f 8e 0b 3c
       0.05689928 0.14883067 -0.11016889 0.008517801
0000e0 e2 d2 1c bb 13 a8 f8 3d 9d 93 f3 3c 2e 44 07 3e
       -0.0023929407 0.121414326 0.029733473 0.13209602
0000f0 8b 65 f1 3a b2 f1 f4 bd fd 76 21 be e4 08 25 3e
       0.0018417103 -0.11960162 -0.15768047 0.16116673
000100 74 cd 1c 3e 83 d4 5e bd 78 79 b0 bc 19 bf 7a bd
       0.15312749 -0.054401886 -0.021542296 -0.0612174
000110 e6 62 61 3e 35 8c 97 3d a4 5c b7 3d c9 d8 59 bd
       0.22010383 0.07399789 0.08953217 -0.053185258
000120 7a dd c1 3d ca bb 3a 3c de c5 05 be 68 eb 9c bb
       0.094660714 0.011397311 -0.13063762 -0.004788805
000130 f0 f0 0b be c9 c0 ea ba 71 7d 33 3c bb 98 af 3d
       -0.13666129 -0.0017910238 0.0109552005 0.08574053
000140 74 d3 22 bd 11 b3 c4 3d ae 1f bc 3d 35 66 f7 3d
       -0.03975244 0.09604467 0.0918573 0.12080041
000150 c0 9b ca bd d3 04 55 3e 77 f0 e7 bd c8 67 61 3c
       -0.09892988 0.20802622 -0.11325162 0.013757654
000160 c3 af 8b bc 89 5c 67 bc 65 70 8f bc 7a f5 a4 3d
       -0.017051583 -0.014121183 -0.017509649 0.080546334
000170 17 87 31 bd d6 8b 1f 3c 19 5b 11 3c d7 4f 90 3c
       -0.043341722 0.009737929 0.008871817 0.017616196
000180 9e 50 29 be 05 27 02 bf c2 58 06 bf 9a e0 a2 be
       -0.1653466 -0.5084079 -0.52479184 -0.31811982
000190 5d e4 21 be c7 c4 4d bb 4e 24 e2 3d 68 09 5c bd
       -0.1580977 -0.0031397806 0.11042081 -0.053719908
0001a0 e0 c3 73 3c 1b 84 06 3d e0 cc dd 3d 28 1a b2 3d
       0.014878243 0.03284083 0.108300924 0.08696395
0001b0 4b 22 cf 3d 62 f2 f9 3d 9f 06 f5 3d f9 b7 32 be
       0.10113963 0.12204434 0.119641535 -0.17452992
0001c0 86 73 7f be 6a de 38 be a6 05 91 be 30 a9 6f be
       -0.24946412 -0.18053594 -0.28324622 -0.23404384
0001d0 8d c3 bc ba 8b b2 bd 3c 4f 66 c5 3d 36 7b 34 3e
       -0.001440154 0.023156425 0.096386544 0.17625126
0001e0 fb 27 09 bd 99 41 e4 bc bd 05 09 be 5c 20 f9 3d
       -0.033485394 -0.02786331 -0.13381095 0.12164375
0001f0 59 9f 20 3e f6 c1 3d 3e 94 16 01 3e 81 7d 53 3e
       0.15685786 0.18531021 0.12606269 0.20653345
000200 c2 be a2 bd d4 e4 89 3d 33 ab 05 bc b8 48 f5 bd
       -0.079465404 0.067330986 -0.008158493 -0.119767606
000210 fd b5 19 bd 7e ad aa 3d 42 f5 25 bd 98 98 01 be
       -0.037527073 0.08333872 -0.0405171 -0.12655866
000220 81 39 bd 3d ac fd 59 3d 5c 03 b9 3d 4e db 80 bd
       0.092394836 0.053220436 0.09033844 -0.06291829
000230 9c a3 1a 3c 5a 92 c7 3a 7a dd 88 bd de f9 0e 3e
       0.009438422 0.0015226111 -0.06682868 0.13962504
000240 3a 89 c4 3c 0c 96 c7 3c 15 95 80 3d e6 6e 6f bb
       0.023991216 0.02436354 0.06278435 -0.0036534606
000250 0a 37 00 be ff 61 f9 3d 60 11 13 be 2f d6 83 bb
       -0.12520996 0.121768944 -0.14362097 -0.0040233354
000260 3a 15 99 3d 4e ca 39 3e 0c 19 21 bd f0 67 e1 3d
       0.07474752 0.1814358 -0.039330527 0.11006153
000270 13 88 12 be c1 7d 4a bd db 20 56 be c1 45 7c bd
       -0.1430972 -0.049436335 -0.20910971 -0.06158996
000280 ed 66 a9 3d 95 3b 62 bd 0e 36 9d 3d 6f ae 4a 3b
       0.08271585 -0.055232603 0.07676326 0.0030926724
000290 91 49 07 be 4f 4a d8 bd 37 e8 ac bd 4c 8e 17 3d
       -0.13211657 -0.10561048 -0.08442729 0.03700094
0002a0 33 55 67 3d a9 f3 75 3e 42 02 a4 3c 2f 54 92 bd
       0.056477737 0.2401873 0.020020608 -0.07144963
0002b0 34 a5 b0 bd 07 dd bb bd 7b d7 24 be ca 09 c6 3d
       -0.0862526 -0.09173017 -0.16097824 0.09669836
0002c0 a7 13 18 be 9a d2 3a bd f4 4b 33 be 1d e5 5e bc
       -0.14851247 -0.045611 -0.17509443 -0.01360443
0002d0 8e c7 72 bd c9 86 09 3d b4 82 b5 bd d8 15 22 3e
       -0.05927234 0.033575807 -0.0886282 0.15828645
0002e0 d2 1b 0c 3d b8 ef c5 3e 6c e9 09 bc 24 dc 50 3e
       0.03420622 0.38659453 -0.0084174685 0.20396477
0002f0 a4 f6 a6 3d 12 0a 39 bd e0 72 ab bd a8 82 7f be
       0.08152512 -0.04517562 -0.0837152 -0.24952185
000300 e5 b3 dc bc 6a 2c cb bd 34 09 32 bc 9f d1 8c 3b
       -0.02694125 -0.09920581 -0.010866452 0.0042974497
000310 35 ef 88 3d 17 92 26 be f7 24 c3 bd 05 f3 8c 3e
       0.0668625 -0.16266666 -0.09528535 0.2752916
000320 65 86 15 3c cc 33 61 39 32 08 96 bc db 2a 8a 3d
       0.00912628 0.00021476968 -0.018314455 0.06746455
000330 63 b8 e5 3d 77 db 81 bc 83 3b a9 bb 94 b6 ad bd
       0.112168096 -0.01585172 -0.005164565 -0.0848209
000340 33 08 93 bd 8b 58 ae 3d e9 f7 18 3e 97 bd 8e bd
       -0.07179298 0.08512982 0.1493832 -0.06969755
000350 9e 6f 36 3d 66 09 09 3e 2c 2d 81 3d 25 4a 5f 3d
       0.04454004 0.13382491 0.06307444 0.05451407
000360 99 ed 68 bd 47 50 63 bd f2 d9 b6 bd a0 c1 07 3e
       -0.056867216 -0.05549648 -0.089282885 0.13257456
000370 3f b0 7e 3d 65 f0 da 3d 45 e5 04 bd 09 b9 bc 3d
       0.0621798 0.10690383 -0.03244521 0.0921498
000380 f2 68 94 3c 95 50 5b bd ef b0 17 3e bb 94 1d 3e
       0.018116448 -0.053543646 0.14813589 0.15388767
000390 cf a1 91 bd 25 e4 82 bd 32 60 d2 3c 4c fa 54 bd
       -0.07110941 -0.06391171 0.025680635 -0.051996514
0003a0 be 6a 11 3e ce 8a 53 3b 7d fb b4 3d 41 ba 88 3d
       0.14200875 0.003227878 0.0883703 0.0667615
0003b0 aa f9 8b 3d 21 91 81 3d 9b 6e 62 3e df 9d 93 bd
       0.06834729 0.06326509 0.22112505 -0.07207846
0003c0 90 04 12 3c fb 15 91 bd ab a6 ef ba d4 a0 dd 3d
       0.008912221 -0.070842706 -0.0018283924 0.10821691
0003d0 f2 c0 dd bc 65 40 ee bc da 4c 6d 3c 57 0f e7 3b
       -0.027069543 -0.02908344 0.014483655 0.007051389
0003e0 98 cf fc bd f9 1f 92 3d ae fa 85 bc 05 4d 98 3d
       -0.12344283 0.071350046 -0.016354885 0.07436565
0003f0 aa 0b f2 3d 64 74 3e 3e d2 5d 9f bd bb 17 02 bd
       0.11818631 0.18599087 -0.07781567 -0.031760912

gnn_layers.0.bn.weight f4 [64]
000000 17 03 4d 3f 9e b8 c3 3e fb 99 3b 3f ad 74 6c 3e
       0.8008284 0.3822679 0.7328183 0.23091383
000010 f7 a7 f6 3e 34 5a d4 3e 74 99 2c 3f 36 f4 16 3e
       0.48175022 0.4147507 0.6742165 0.14741597
000020 91 02 ae 3e 67 92 96 3e a4 d6 04 3f 9c 1b 4d 3e
       0.33986333 0.2940857 0.51890016 0.20030063
000030 10 53 5d 3f 72 90 bb 3e 08 35 2e 3f 46 93 37 3f
       0.8645487 0.3663364 0.6804967 0.71709096
000040 f8 cb 1d 3f 74 16 08 3f ae 46 12 3f d3 3c fa 3e
       0.61639357 0.5315926 0.571391 0.4887453
000050 2f 22 fd 3e 97 25 52 3f 78 6a 0a 3f d2 4f ce 3e
       0.49440143 0.8208861 0.5406871 0.40295273
000060 78 36 38 3e 96 4e ef 3e ec de da 3e 27 24 9a 3e
       0.17989528 0.46739644 0.427482 0.30105707
000070 d9 51 4c 3e 68 4d 56 3f b5 75 6b 3f 3a f0 1b 3f
       0.19953097 0.8371186 0.9197648 0.6091343
000080 10 fa 10 3f cd 40 54 3f 89 5d 8d 3e b5 89 e0 3e
       0.56631565 0.8291138 0.27610424 0.43855062
000090 2c 2b 64 3f 0b 45 41 3f 2d e5 ae 3e 61 ff 3b 3f
       0.89128375 0.75495976 0.34159222 0.7343655
0000a0 c0 a9 3e 3f f5 6b 03 3e 2a f8 5c 3f cb 24 52 3f
       0.7447777 0.12834151 0.8631617 0.8208739
0000b0 ec a7 38 3e 3f d2 76 3f ac 36 f8 3e 24 2d 02 3f
       0.18032807 0.9641456 0.4847921 0.5085013
0000c0 ad ca 88 3f b9 f4 1c 3f a4 89 2d 3f 00 d7 36 3f
       1.0686852 0.6131092 0.6778815 0.71421814
0000d0 a7 97 72 3e 2f dd 74 3f 6f 65 18 3f 77 8c 38 3f
       0.23690663 0.9565 0.59529775 0.7208933
0000e0 f6 3b 50 3f fc ca f3 3e f7 39 3f 3f c2 13 04 3f
       0.81341493 0.47615802 0.7469782 0.5159265
0000f0 22 31 37 3f 48 00 7c 3f b7 90 d6 3e ca d6 73 3f
       0.71559346 0.9843793 0.41907284 0.9524962

gnn_layers.0.bn.bias f4 [64]
000000 9a a4 b0 3e 11 de e3 3e 85 12 a7 3e 81 9a f5 3e
       0.3450058 0.4450536 0.32631317 0.4796944
000010 eb 46 82 3e e7 9e 00 3f b3 17 83 3e af 75 15 3f
       0.2544473 0.50242466 0.2560402 0.58382696
000020 87 0b b0 3e 0b 18 cb 3e 75 2a c4 3e 13 b1 df 3e
       0.34383795 0.3966678 0.38313642 0.43689784
000030 42 f2 94 3e 2c 3d e8 3e 3f 14 c7 3e 8f 87 71 3e
       0.29091078 0.4535917 0.38882634 0.23586868
000040 7b 97 de 3e bd a9 e1 3e 1c 58 99 3e b8 f6 f1 3e
       0.43474945 0.44074813 0.29950035 0.47258544
000050 98 4f b3 3e 08 d3 d4 bd 20 08 8f 3e 9f c1 d5 3e
       0.35021663 -0.103918135 0.27935886 0.41749284
000060 89 f7 c0 3e b6 ca 98 3e 38 e0 f3 3e bd 21 eb 3e
       0.37688854 0.29842156 0.47632003 0.45924178
000070 4f bc ee 3e 8f bb 28 bd f7 d0 97 3e 8a 5b 99 3e
       0.46628043 -0.041194495 0.29651615 0.2995265
000080 85 0d b2 3e ca 4f bb bd f1 b9 b2 3e 96 09 cf 3e
       0.3477594 -0.09146078 0.34907487 0.40437
000090 51 38 10 3e a9 bc 13 3e 11 29 d3 3e 21 90 98 3e
       0.14083983 0.14427437 0.4124227 0.29797462
0000a0 6c fb 34 3e 34 d1 08 3f cb 6d c4 3d 4d b0 d5 3d
       0.17674035 0.5344422 0.09591254 0.10434017
0000b0 18 be 07 3f ed 46 25 3d 47 ac ce 3e f9 14 9a 3e
       0.53024435 0.040350843 0.40365812 0.30094126
0000c0 40 2a 5a 3d 32 24 ae 3e 99 ff 53 3e af c1 35 3e
       0.05326295 0.3401199 0.20702972 0.17749666
0000d0 da 94 f4 3e 6b cc 9c 3d 1b ad 5b 3e 05 db 11 be
       0.47769815 0.07656177 0.21452753 -0.14243706
0000e0 1a f0 a4 3e 06 ed cb 3e 4f 26 a5 be b1 94 ae 3e
       0.32214433 0.39829272 -0.3225579 0.34097818
0000f0 c0 a4 13 3e d5 41 ec 3c 5c a6 c9 3e 71 44 74 3d
       0.14418316 0.028839985 0.39384735 0.059635583

gnn_layers.0.bn.running_mean f4 [64]
000000 d9 a8 3e 3d 46 82 8f 3b ee 14 46 bd 9c 25 37 3e
       0.046547744 0.0043795435 -0.048359804 0.1788544
000010 c5 df 03 3e ee 84 58 3e 58 37 6c 3e 30 bc 57 3e
       0.1287833 0.21144459 0.23067987 0.21067882
000020 05 23 3f 3e dc eb 01 bd 1b 52 3a bd 84 29 92 3d
       0.18665703 -0.031719074 -0.045488458 0.07136825
000030 82 1a e9 3d 52 c7 21 3d 83 f3 a8 3d c7 bf 4a bd
       0.11382009 0.039496727 0.08249571 -0.0494993
000040 10 99 ff 3b d8 c3 81 3c ba 88 24 3e f2 8c 8a bd
       0.007800229 0.015840456 0.16067782 -0.067651644
000050 6a 4c 78 3c 82 ba 09 3d 6e 74 d0 bd 09 6c 3a 3e
       0.015154937 0.033625133 -0.10178457 0.18205275
000060 52 92 ae bc bc 51 58 3d ca 48 5c 39 c3 b5 ac bc
       -0.021310005 0.052812323 0.00021007951 -0.021082764
000070 5d f9 c2 bd 55 df b7 3d a2 1d 21 3d c1 7b 79 bd
       -0.095202185 0.08978144 0.0393349 -0.060909037
000080 be 4d 8e 3d 91 9e d5 bc ca 20 06 be 2e d3 29 3e
       0.06948422 -0.026076587 -0.13098446 0.16584465
000090 25 37 82 3b f2 7a 0f 3e cb 0d 84 bd 2b ca 07 3d
       0.003973859 0.14011744 -0.06447943 0.033151787
0000a0 9b ce 49 3d b9 94 28 bd 28 90 25 3d f9 20 b1 3d
       0.0492693 -0.041157458 0.04042068 0.08648867
0000b0 2e 17 1b be 25 ce 2f 3d ef 10 43 3e ea c7 95 3d
       -0.15145561 0.042921204 0.19049428 0.07313521
0000c0 22 81 e3 3d 6c b7 05 3e 90 ac 36 3e d1 58 ed 3d
       0.111086145 0.13058251 0.17839265 0.11589206
0000d0 2d b5 03 3e 57 3b 0b bd 4b 59 c5 3d 61 35 2e bd
       0.12862082 -0.033992138 0.09636172 -0.042531375
0000e0 cf 26 11 3d a2 1f 8e 3e 78 18 53 be f1 dc 00 3e
       0.0354374 0.2775851 -0.20614803 0.12584282
0000f0 17 ac 08 3e 85 0c 96 bc a6 20 ec bd 6f d1 c6 3d
       0.13346897 -0.018316517 -0.11529665 0.09707915

gnn_layers.0.bn.running_var f4 [64]
000000 b9 29 87 3d 0f e7 81 3c 90 c8 79 3d 2c d3 f3 3c
       0.06599755 0.015857248 0.060982287 0.02976378
000010 b4 01 31 3d 2e 9b a0 3d 98 c9 c4 3d 1a e5 74 3d
       0.043214515 0.07842098 0.096087635 0.0597888
000020 b8 4b 9c 3d a6 a9 a7 3c 08 4a 3c 3d e9 93 d8 3c
       0.0763163 0.020466637 0.04596904 0.026437717
000030 77 cf 7c 3d 88 0f d1 3c cd 90 66 3d 35 82 2b 3d
       0.06172129 0.025520101 0.056290437 0.041872222
000040 6b 94 03 3d a2 ae 86 3d e4 d4 04 3d 37 04 73 3c
       0.032123964 0.06576277 0.03242959 0.014832548
000050 e8 1a f0 3c 32 a4 c4 3c 1d 3f 58 3d c1 ba e9 3c
       0.029309705 0.024004076 0.052794565 0.028531434
000060 b2 92 9c 3c cd fa 06 3d 8a 11 ad 3c b5 cb b7 3c
       0.019112919 0.032954026 0.021126527 0.022436002
000070 26 ba 0b 3d 0d 23 39 3d 47 da 66 3d fc 61 e8 3c
       0.03411307 0.045199443 0.05636051 0.028367035
000080 97 aa 24 3d be 94 87 3c 95 c7 30 3d 70 ae d9 3c
       0.04020175 0.016550418 0.043159086 0.026572436
000090 c0 24 b5 3c 4f 03 42 3d 1d aa f5 3c 10 b7 9c 3c
       0.02211225 0.047366437 0.029988343 0.01913026
0000a0 b4 b3 d8 3c 8d 9b 0a 3d af 28 de 3c 3b 0d 1d 3d
       0.026452877 0.03383975 0.027119009 0.038342696
0000b0 1f c3 38 3d f7 f7 05 3d ac 80 89 3d 4b b9 2c 3d
       0.045107957 0.03270718 0.06713995 0.042168897
0000c0 84 b2 15 3d c9 fb 3b 3d 53 b7 35 3d 54 5d 43 3d
       0.0365472 0.045894418 0.044364285 0.047696427
0000d0 08 4f 04 3d 67 e7 9b 3c da e6 1f 3d 4e cc fe 3b
       0.032301933 0.01903124 0.039038517 0.00777582
0000e0 ae df 86 3d 44 18 e3 3d b0 be 49 3e 3d 29 0e 3d
       0.06585632 0.11088613 0.19701648 0.034707297
0000f0 ad c7 30 3d 3a f4 9a 3c f9 3c 37 3d de 27 22 3d
       0.043159176 0.018915284 0.044735882 0.0395888

out_layer.mlp.0.weight f4 [1, 64]
000000 54 3b 71 be b5 64 83 be d6 b6 95 be 99 94 84 be
       -0.23557788 -0.2566277 -0.29241055 -0.2589462
000010 11 56 f8 3c 2e fc 7f be 11 e8 2b be 95 9f 9c be
       0.030314477 -0.24998543 -0.16787745 -0.305905
000020 35 48 2e 3d 28 35 99 be c6 d0 83 be 29 be b1 be
       0.04254933 -0.29923368 -0.2574522 -0.34715393
000030 81 ab b5 be e9 af 90 be 61 7f b1 be d9 97 92 be
       -0.3548241 -0.2825921 -0.34667495 -0.28631476
000040 c3 a0 51 be c6 e0 5d be 96 a5 9a be 9f 7f 5b be
       -0.20471482 -0.21667776 -0.30204457 -0.21435402
000050 04 32 83 be 40 94 83 3d 9a 4d a3 be a0 e1 98 be
       -0.25624096 0.06424761 -0.31895143 -0.29859638
000060 98 5e 96 be fc 04 a5 be d1 13 63 be e7 70 82 be
       -0.29369044 -0.32230365 -0.22175528 -0.25476763
000070 6f 5d 73 be f4 e4 90 3d ae 1e 92 be f5 05 8d be
       -0.23766111 0.07074919 -0.28539032 -0.27543607
000080 cb e1 aa be eb 8f 48 3c 5b da 84 be 28 4c 81 be
       -0.3337539 0.012241344 -0.25947842 -0.25253415
000090 f3 7f 19 be a6 b5 da 3c 62 48 83 be 77 b4 2a be
       -0.14990215 0.026697945 -0.2564116 -0.16670404
0000a0 ba 29 8f 3d df 86 8f be 68 b5 96 3d c5 26 ca 3c
       0.069903806 -0.28032586 0.07358819 0.02467669
0000b0 64 f6 8e be 7b 4e a5 bd 98 8d 8c be ea cf e2 3c
       -0.27922356 -0.080716096 -0.27451777 0.027687032
0000c0 e0 5e 08 be f6 b0 80 be 6a 09 9d be b3 19 1e 3d
       -0.13317442 -0.2513501 -0.30671245 0.038598727
0000d0 bd 48 96 be a2 3a e7 bd 17 fe ce 3c da d4 74 3d
       -0.2935237 -0.1129048 0.025267644 0.059773304
0000e0 65 23 a1 be ad 03 32 be 04 f7 9b be a4 ca ac be
       -0.31472316 -0.17384215 -0.30461895 -0.33748353
0000f0 c2 c1 20 3d 41 2a 8c 3d 16 69 6a be 0f 6e b3 bd
       0.03924728 0.06843997 -0.2289165 -0.087612264
