model_mixed/gdn_smap50.pth (torch, 42869 bytes, 16 tensors)

embedding.weight f4 [25, 64]
-0.0037087218 -0.074099906 -0.035986032 -0.000737068 0.0019024954 -0.18220654 -0.122110486 -0.04343301
-0.012903634 -0.071676515 -0.071036205 0.105101064 -0.07141055 0.030924154 -0.068499506 -0.034757882
-0.0010644771 -0.07777238 0.10450733 -0.031858146 0.0016001933 -0.19295605 -0.054584276 -0.10885152
-0.016052585 -0.053378113 0.080824986 -0.027675001 -0.08918955 0.024923136 -0.12915711 -0.02172434
-0.038213484 -0.13010333 -0.059603322 -0.057191048 -0.15689181 -0.069355324 -0.02919342 0.12977977
0.056357726 0.0040173423 -0.0127478475 0.1803048 -0.1389397 0.09762444 0.14531347 -0.065955654
-0.04878937 -0.057495963 -0.06623897 -0.00748468 -0.015539606 -0.15722643 -0.0019325702 -0.017419584
-0.044211593 -0.031581234 0.061191753 -0.07160979 -0.052439936 -0.094560854 -0.00072121626 -0.0035334993
0.07230568 -0.025559573 -0.020061152 0.054207888 -0.038655125 0.092752084 -0.075248465 -0.023818161
-0.030804595 -0.004093783 0.016093576 -0.015957307 -0.02386283 -0.02569889 -0.023421824 0.08533942
-0.062262155 -0.0094972085 -0.03342595 0.04886307 0.083684735 0.038541712 0.09364578 -0.10189177
-0.03782404 0.09539683 -0.0033860041 0.061134234 0.000107350184 -0.090802945 0.09108566 -0.017258666
0.024160255 0.043355994 -0.008465253 0.0124667445 -0.0037677865 0.0004564229 0.03855062 -0.012970911
-0.034292333 -0.017290091 0.03204062 -0.015674677 -0.07412478 0.025860343 -0.0042938227 -0.077535436
0.069740236 0.06845418 -0.06080038 -0.033740055 0.10784644 0.039155 0.1050438 0.088481195
-0.022481676 0.08109047 0.051820274 0.08011022 -0.0045678117 0.13132223 0.0747127 0.12295603
-0.027206691 0.1006633 0.13319825 -0.01778934 0.19732313 -0.038168065 0.11128711 0.041813735
0.15686357 -0.028755853 0.059159424 0.021018537 -0.029088955 -0.016254626 -0.061139826 -0.016393732
0.14500792 -0.011916839 -0.011927212 -0.027950846 -0.018528719 -0.020732421 -0.038498104 -0.07097284
0.13228591 -0.023664081 -0.0021482275 0.12693578 -0.066980995 -0.039318196 0.067417964 -0.012036993
0.16538644 -0.05484808 0.06917478 0.10139461 -0.07965156 0.0058420105 0.07581709 -0.0029109435
-0.017715378 0.09469956 0.09764595 -0.027841492 -0.0076167914 0.005682987 -0.0020814338 0.009013491
0.15433557 -0.061685015 -0.041218724 0.097345844 0.12550561 0.10766869 -0.032844562 0.03789058
-0.03319567 -0.02038211 0.16599505 -0.010998266 -0.012989407 0.1854964 -0.0026834826 -0.04632575
0.07328081 -0.0033085064 -0.01979971 0.015281685 -0.05548339 -0.034585744 -0.04037321 0.022423385
-0.025681587 0.098143004 -0.08106354 -0.011345826 -0.024667533 -0.012295562 -0.0028028002 0.24961786
-0.017016161 -0.0038766875 -0.0145952245 -0.010200306 -0.020851014 0.17331865 0.10364614 -0.1189029
-0.03718229 0.07102169 -0.0017944137 0.074456714 -0.06216473 -0.031088416 -0.11717743 0.03839581
0.019260203 -0.061726503 -0.013470284 0.0014205413 -0.013408174 -0.05876332 -0.03551808 -0.010036634
0.15856044 0.043762293 -0.017372655 -0.0093538575 -0.07684894 -0.00043420948 -0.005237622 0.17126895
0.05310461 0.22386378 0.07379566 0.119010665 -0.03854839 -0.029612206 0.08708101 0.12773344
-0.027166221 -0.18620928 0.06680817 -0.052236553 0.051729303 0.0006608573 0.06062966 0.13999267
00000000: 070e 73bb b1c1 97bd 1766 13bd cc37 41ba
00000010: 275d f93a 5a94 3abe 1015 fabd d0e6 31bd
00000020: c469 53bc 23cb 92bd 6e7b 91bd 3a3f d73d
00000030: b23f 92bd a754 fd3c 7849 8cbd 485e 0ebd
00000040: ed85 8bba 2047 9fbd f007 d63d b07d 02bd
00000050: 94bd d13a 4596 45be c393 5fbd 8ced debd
00000060: b680 83bc 02a3 5abd 9287 a53d afb6 e2bc
00000070: 03a9 b6bd 9b2b cc3c c341 04be 3ef7 b1bc
00000080: be85 1cbd cf39 05be 9d22 74bd 2941 6abd
00000090: 3fa8 20be 2a0a 8ebd 0a27 efbc fde4 043e
000000a0: 5cd7 663d e9a3 833b 59dc 50bc d2a1 383e
000000b0: 3546 0ebe 53ef c73d 0ecd 143e c213 87bd
000000c0: 5dd7 47bd e380 6bbd 4ca8 87bd 0c42 f5bb
000000d0: d599 7ebc f7ff 20be 4c4e fdba 84b3 8ebc
000000e0: 3717 35bd 535b 01bd 34a4 7a3d 27a8 92bd
000000f0: 42cb 56bd 1fa9 c1bd 0110 3dba 4892 67bb
00000100: 0015 943d 4f62 d1bc 4957 a4bc 1709 5e3d
00000110: d654 1ebd cef4 bd3d de1b 9abd 4e1e c3bc
00000120: eb59 fcbc 2425 86bb add6 833c e6b8 82bc
00000130: fb7b c3bc 7b86 d2bc 20df bfbc 6fc6 ae3d
00000140: 9a06 7fbd 2e9a 1bbc a6e9 08bd a424 483d
00000150: e762 ab3d eadd 1d3d 5cc9 bf3d a2ac d0bd
00000160: 61ed 1abd 6a5f c33d b9e7 5dbb e467 7a3d
00000170: 3121 e138 e5f6 b9bd 1e8b ba3d 0c62 8dbc
00000180: baeb c53c 0e96 313d d8b1 0abc 5141 4c3c
00000190: f8ec 76bb 0b4c ef39 41e7 1d3d f283 54bc
000001a0: 1e76 0cbd f3a3 8dbc 063d 033d 2e68 80bc
000001b0: bcce 97bd 12d9 d33c 32b3 8cbb e6ca 9ebd
000001c0: f8d3 8e3d b531 8c3d d209 79bd 0333 0abd
000001d0: 98de dc3d fe60 203d 3421 d73d a135 b53d
000001e0: 7e2b b8bc c312 a63d 7f41 543d d410 a43d
000001f0: 95ad 95bb 5679 063e f902 993d 5fd0 fb3d
00000200: 91e0 debc 8f28 ce3d 1f65 083e f3ba 91bc
00000210: 130f 4a3e 1e56 1cbd 7fea e33d e144 2b3d
00000220: d8a0 203e 6591 ebbc 2751 723d 112f ac3c
00000230: f64b eebc 6c28 85bc c16d 7abd 264c 86bc
00000240: f57c 143e d83e 43bc 5a6a 43bc 2cf9 e4bc
00000250: 8ac9 97bc 0ad7 a9bc 30b0 1dbd 355a 91bd
00000260: f575 073e 2ddb c1bc 47c9 0cbb 74fb 013e
00000270: 552d 89bd 1e0c 21bd 6e12 8a3d cf36 45bc
00000280: 105b 293e 61a8 60bd 82ab 8d3d faa7 cf3d
00000290: 5b20 a3bd 566e bf3b fe45 9b3d 87c5 3ebb
000002a0: d71f 91bc d8f1 c13d 9afa c73d d713 e4bc
000002b0: 4796 f9bb 5a38 ba3b aa68 08bb 52ad 133c
000002c0: 250a 1e3e 6da9 7cbd f7d4 28bd 425d c73d
000002d0: 8b84 003e 6781 dc3d 0588 06bd 2733 1b3d
000002e0: 2ff8 07bd 62f8 a6bc 9bfa 293e 1232 34bc
000002f0: 86d1 54bc c5f2 3d3e 5edd 2fbb 12c0 3dbd
00000300: 4014 963d 87d3 58bb 0033 a2bc 0860 7a3c
00000310: 8d42 63bd c8a9 0dbd 615e 25bd 3fb1 b73c
00000320: 3162 d2bc 33ff c83d a404 a6bd d8e3 39bc
00000330: 9113 cabc 5373 49bc 2faf 37bb d39b 7f3e
00000340: 7a65 8bbc 0610 7ebb cf20 6fbc 2f1f 27bc
00000350: bfcf aabc 727a 313e 6d44 d43d 5d83 f3bd
00000360: 754c 18bd d273 913d 8832 ebba c37c 983d
00000370: 72a0 7ebd 22ad febc b8fa efbd ed44 1d3d
00000380: 93c7 9d3c eed4 7cbd 77b2 5cbc 7531 ba3a
00000390: f5ad 5bbc cfb1 70bd 687b 11bd b270 24bc
000003a0: ab5d 223e 1740 333d 1951 8ebc ec40 19bc
000003b0: fa62 9dbd 9ca6 e3b9 5ca0 abbb 2161 2f3e
000003c0: 3884 593d 8c3c 653e 2e22 973d ddbb f33d
000003d0: ebe4 1dbd 4c95 f2bc 8757 b23d 8ecc 023e
000003e0: b28b debc a5ad 3ebe b9d2 883d fff5 55bd
000003f0: 1be2 533d 623d 2d3a ce56 783d 3d5a 0f3e

bn_outlayer_in.weight f4 [64]
1.5920178 1.1992342 1.2766068 1.3019408 1.4819138 1.025303 0.94798553 1.2033877
1.375958 1.3091215 1.4152905 0.93359613 1.4193258 1.0029444 1.219697 1.4463894
1.5378973 1.3109367 0.96277094 1.2352003 1.3508774 0.983221 1.4482297 1.5944139
1.342271 1.268457 0.92817503 1.3280088 1.2377565 1.0010227 0.9386168 1.4267961
1.3554851 1.3833041 1.1917148 1.1729482 1.3772231 1.0169882 1.2993146 0.9374328
0.9640169 1.3176409 1.4660233 0.9705127 1.414516 0.9519092 0.94188523 0.979072
1.2512952 1.2469443 1.4984088 1.2437514 1.1359143 0.9758313 1.2721237 1.2596654
1.258545 0.9287981 1.556725 1.4478027 1.2157464 1.0028454 1.4786253 1.5112933
00000000: 3dc7 cb3f 8280 993f da67 a33f ffa5 a63f
00000010: 5aaf bd3f 213d 833f 2eaf 723f 9c08 9a3f
00000020: 641f b03f 4b91 a73f 3d28 b53f 2800 6f3f
00000030: 78ac b53f 7b60 803f 081f 9c3f 4a23 b93f
00000040: d2d9 c43f c6cc a73f 2878 763f 0b1b 9e3f
00000050: 8de9 ac3f 5fb4 7b3f 975f b93f c115 cc3f
00000060: 89cf ab3f cd5c a23f e19c 6d3f 31fc a93f
00000070: ce6e 9e3f 8321 803f 3149 703f 41a1 b63f
00000080: 8980 ad3f 1c10 b13f 1c8a 983f 2b23 963f
00000090: d948 b03f ab2c 823f f14f a63f 99fb 6f3f
000000a0: d0c9 763f 75a8 a83f a7a6 bb3f 8573 783f
000000b0: dc0e b53f 52b0 733f 641f 713f 76a4 7a3f
000000c0: 712a a03f df9b 9f3f dccb bf3f 3f33 9f3f
000000d0: a465 913f 14d0 793f f3d4 a23f b73c a13f
000000e0: 0118 a13f b6c5 6d3f c442 c73f 9951 b93f
000000f0: 949d 9b3f 3d5d 803f 9843 bd3f 0f72 c13f

bn_outlayer_in.bias f4 [64]
0.26273558 0.123338245 0.26436684 0.27593833 0.46934852 0.007434568 -0.038009334 0.13058145
0.36343306 0.2259073 0.26296696 -0.115320876 0.3066663 -0.051165488 0.20351413 0.22839956
0.4668075 0.20673886 -0.072804265 0.15189229 0.37833703 -0.015633006 0.2382565 0.44516465
0.18314278 0.26486358 -0.08567772 0.32539332 0.18448742 -0.047684312 -0.110279284 0.43052548
0.39141476 0.24768083 0.11865392 0.16696231 0.32144496 -0.02908242 0.29554388 -0.06903345
-0.06141436 0.23826396 0.32525858 -0.069038026 0.3154874 -0.08076113 -0.08234034 -0.034682043
0.24983002 0.34956956 0.34419957 0.122829124 -0.0012822618 -0.0137100965 0.28498358 0.1509685
0.15032259 -0.07485165 0.17175168 0.21809131 0.14011885 -0.023983402 0.41308755 0.4369137
00000000: 4785 863e c398 fc3d 175b 873e ca47 8d3e
00000010: 734e f03e ad9d f33b adaf 1bbd 25b7 053e
00000020: e613 ba3e 3e54 673e 9ba3 863e 5a2d ecbd
00000030: 5e03 9d3e e792 51bd 0266 503e 93e1 693e
00000040: 6501 ef3e 5ab3 533e 671a 95bd a789 1b3e
00000050: 64b5 c13e ca10 80bc 83f9 733e 9fec e33e
00000060: c889 3b3e 339c 873e cd77 afbd f499 a63e
00000070: 45ea 3c3e a050 43bd 1bda e1bd d66d dc3e
00000080: 8467 c83e 0ba0 7d3e d400 f33d 2bf8 2a3e
00000090: 6f94 a43e 413e eebc 8751 973e 6961 8dbd
000000a0: a08d 7bbd 78fb 733e 4b88 a63e cf63 8dbd
000000b0: 9187 a13e 1766 a5bd 0da2 a8bd c20e 0ebd
000000c0: 71d3 7f3e c8fa b23e ed3a b03e d68d fb3d
000000d0: 9111 a8ba 50a0 60bc 5ee9 913e 7d97 1a3e
000000e0: 2aee 193e d24b 99bd acdf 2f3e 5453 5f3e
000000f0: 517b 0f3e d778 c4bc 3680 d33e 27b3 df3e

bn_outlayer_in.running_mean f4 [64]
0.012835055 0.007745218 0.012395489 0.018240262 0.05239726 0.0024080446 -0.002267206 0.003751025
0.015890267 0.0074519496 0.004769787 -0.0053965277 0.01197866 -0.00020354705 0.0012307215 0.020144554
0.01861363 0.00723569 -0.0018074667 0.005371409 0.017738797 0.0018335385 0.014160124 -0.009249537
0.00926108 0.013920976 -0.0030827303 0.023594765 -0.0013765198 -0.0074710045 -0.00633033 0.01768045
0.037826885 0.0027977368 0.005341223 -0.0037625586 -0.009511003 0.012056428 0.006908691 -0.0021357175
-0.005542417 0.02133149 0.013188426 -0.0008993704 -0.013417706 -0.0018852126 -0.0032645916 0.005456314
0.01446934 0.003948692 0.00027116554 0.0074059274 0.016658423 -0.006157534 0.01765534 0.0059320265
0.006816499 -0.0074293013 0.007684253 0.018901907 0.00491806 0.007687717 0.020089144 0.018241415
00000000: 1f4a 523c 99cb fd3b 7316 4b3c 9a6c 953c
00000010: 829e 563d 49d0 1d3b 6895 14bb c2d3 753b
00000020: 4e2c 823c 7c2f f43b e04b 9c3b 5bd5 b0bb
00000030: 2442 443c 3f6f 55b9 2950 a13a 3106 a53c
00000040: 9d7b 983c 5e19 ed3b 85e8 ecba a502 b03b
00000050: f450 913c 5853 f03a ddff 673c 5f8b 17bc
00000060: c9bb 173c ce14 643c a207 4abb cf49 c13c
00000070: 576c b4ba 54cf f4bb a86e cfbb 97d6 903c
00000080: 5df0 1a3d 3c5a 373b 6d05 af3b 4295 76bb
00000090: 0ad4 1bbc 5388 453c 4d62 e23b 65f7 0bbb
000000a0: 2a9d b5bb 60bf ae3c 4514 583c bac3 6bba
000000b0: f0d5 5bbc 3d19 f7ba c2f2 55bb e1ca b23b
000000c0: d010 6d3c 0864 813b 392b 8e39 6cad f23b
000000d0: 3f77 883c 24c5 c9bb eea1 903c 7261 c23b
000000e0: f05c df3b 7f71 f3bb 30cc fb3b 2cd8 9a3c
000000f0: ad27 a13b 3fe9 fb3b fd91 a43c 056f 953c

bn_outlayer_in.running_var f4 [64]
0.0016505636 0.001808132 0.00081269274 0.0011177491 0.005261802 0.0032860714 0.004312389 0.00077347393
0.0011624328 0.0015855609 0.0017400809 0.001025372 0.0028812857 0.001863186 0.0034525646 0.0021247254
0.0021232388 0.0016620372 0.0008118189 0.0011241493 0.0009710498 0.0034677454 0.0022507096 0.0023100814
0.0020914238 0.0013653459 0.0008344605 0.001322581 0.001563465 0.0031055284 0.0028075108 0.0009347871
0.0018841692 0.0018233139 0.0016625175 0.0030787517 0.0033047192 0.002495983 0.00091376266 0.00070098304
0.00347504 0.000884955 0.0012794989 0.00093123823 0.0019514933 0.0008611446 0.00073237467 0.0030456744
0.0014014695 0.005044882 0.0064634676 0.004029456 0.004906977 0.007157874 0.0014283479 0.0019508698
0.0018342093 0.003885493 0.00015427178 0.006542284 0.000827662 0.005445828 0.001107085 0.0026410725
00000000: b957 d83a d8fe ec3a e30a 553a 7081 923a
00000010: 326b ac3b 215b 573b f14e 8d3b f5c2 4a3a
00000020: c65c 983a 98d2 cf3a 6d13 e43a c665 863a
00000030: f4d3 3c3b 2636 f43a 6c44 623b fa3e 0b3b
00000040: 0926 0b3b b7d8 d93a 3fd0 543a 3158 933a
00000050: 0d8e 7e3a 1d43 633b a480 133b bc64 173b
00000060: 4510 093b 68f5 b23a b2bf 5a3a 745a ad3a
00000070: 2eed cc3a 1f86 4b3b 37fe 373b 800c 753a
00000080: 3af6 f63a 43fc ee3a d5e8 d93a e2c4 493b
00000090: fd93 583b a593 233b 9389 6f3a 2dc2 373a
000000a0: 7fbd 633b 53fc 673a dcb4 a73a 571e 743a
000000b0: 40c9 ff3a 70be 613a d5fc 3f3a f099 473b
000000c0: 83b1 b73a 8a4f a53b 7fcb d33b 8709 843b
000000d0: b5ca a03b 998c ea3b 6737 bb3a 54b4 ff3a
000000e0: da69 f03a c1a3 7e3b 04c4 2139 a860 d63b
000000f0: 75f7 583a eb72 b23b 9c1b 913a d815 2d3b

gnn_layers.0.gnn.att_i f4 [1, 1, 64]
-0.273847 0.046543073 -0.38401183 -0.1680681 -0.050945275 -0.102940865 0.08492461 -0.26482043
-0.22709697 -0.35896128 0.14957191 0.27847666 -0.4505967 0.23837648 0.032460805 0.31618047
-0.4275468 0.16856983 0.3623448 0.22248909 -0.2969563 0.060235616 -0.24490856 0.5139603
-0.23037267 0.024726534 -0.291906 0.2626911 -0.1167131 0.56994134 0.21696997 0.055101775
0.15615858 -0.16833155 -0.010836118 0.015971199 0.04497148 0.09523426 0.0065211616 0.32193843
0.3572068 -0.09837803 -0.0834627 -0.09506221 0.19749333 -0.10249937 0.23284847 -0.11782755
-0.0931168 0.24989267 0.0802551 -0.30766764 0.48112085 -0.10020229 0.046470053 0.20822172
-0.07275389 0.2253304 -0.046388213 0.26590168 0.16724226 -0.17524342 -0.41170684 0.112154976
00000000: ad35 8cbe f3a3 3e3d 339d c4be 0b1a 2cbe
00000010: feab 50bd a9d2 d2bd f4ec ad3d 8b96 87be
00000020: 1c8c 68be c6c9 b7be 6129 193e 7e94 8e3e
00000030: 9cb4 e6be f718 743e 9ff5 043d 68e2 a13e
00000040: 6ae7 dabe 929d 2c3e 4285 b93e 2ed4 633e
00000050: a80a 98be 9fb9 763d 4fc9 7abe e792 033f
00000060: d0e6 6bbe 4d8f ca3c b474 95be 737f 863e
00000070: 4707 efbd ade7 113f 602d 5e3e 66b2 613d
00000080: 09e8 1f3e 1b5f 2cbe f989 31bc 08d6 823c
00000090: 0434 383d 2e0a c33d 78af d53b 1dd5 a43e
000000a0: cfe3 b63e 6c7a c9bd 7eee aabd faaf c2bd
000000b0: b13b 4a3e 31eb d1bd d46f 6e3e 924f f1bd
000000c0: 05b4 bebd dde3 7f3e c95c a43d 9d86 9dbe
000000d0: 7955 f63e dc36 cdbd 6257 3e3d 1338 553e
000000e0: feff 94bd 03bd 663e 9101 3ebd 4424 883e
000000f0: 8e41 2b3e 0373 33be 3dcb d2be 82b1 e53d

gnn_layers.0.gnn.att_j f4 [1, 1, 64]
-0.06383767 0.20059389 0.23238163 -0.30650538 0.21418455 -0.11331296 -0.042493742 0.1988681
-0.17475086 -0.101049505 -0.06543536 0.101704344 -0.045839164 -0.18277062 0.21339391 0.10436836
-0.11247008 0.12942584 0.25808305 -0.24427147 0.044739638 -0.12208798 0.17512956 0.22780548
0.08743364 -0.07578405 -0.049664795 0.29195777 0.15764147 0.14328325 0.2576412 -0.22773412
0.11493294 -0.078015015 -0.07520583 0.02892685 0.06299119 0.10590009 0.0069598826 0.04414671
0.054252524 0.13981695 -0.20965981 0.19604103 -0.035692073 0.10238307 0.081205264 -0.06659496
-0.099544935 0.16286924 0.23289658 0.10621732 0.043209296 0.09611311 -0.26106176 0.13627414
0.2311288 0.07714827 0.100611895 -0.15040441 0.11457721 0.16003202 -0.19976953 -0.2177419
00000000: 53bd 82bd 7c68 4d3e 73f5 6d3e 46ee 9cbe
00000010: 3253 5b3e a010 e8bd eb0d 2ebd 14a4 4b3e
00000020: e4f1 32be 0bf3 cebd f902 86bd 5e4a d03d
00000030: d9c1 3bbd 3928 3bbe ef83 5a3e 14bf d53d
00000040: b756 e6bd 3588 043e 7623 843e 4d22 7abe
00000050: e940 373d 4309 fabd 2a55 333e d745 693e
00000060: 6910 b33d ab34 9bbd 506d 4bbd 7d7b 953e
00000070: c46c 213e d8b8 123e 8ce9 833e 2233 69be
00000080: f661 eb3d 56c6 9fbd 8405 9abd 00f8 ec3c
00000090: 8601 813d 25e2 d83d ba0f e43b 2ed3 343d
000000a0: e537 5e3d 2d2c 0f3e 10b1 56be fbbe 483e
000000b0: da31 12bd 37ae d13d f24e a63d f062 88bd
000000c0: 37de cbbd 32c7 263e 717c 6e3e 7788 d93d
000000d0: 3bfc 303d f3d6 c43d e3a9 85be 738b 0b3e
000000e0: 07ad 6c3e eaff 9d3d 9c0d ce3d 9d03 1abe
000000f0: 75a7 ea3d 6fdf 233e 6290 4cbe bcf7 5ebe

gnn_layers.0.gnn.att_em_i f4 [1, 1, 64]
0.05630471 0.18800658 -0.24826926 -0.12053507 -0.3721769 0.5164086 0.107272126 0.1437274
-0.31842792 0.38310266 -0.08386331 -0.091142185 -0.12438808 -0.34227106 0.41582963 0.1611863
-0.5219283 0.2751101 -0.3536436 0.24057397 -0.33277443 0.44541714 0.5503899 -0.012211719
0.19155425 -0.33790818 0.06437649 -0.32637915 0.27670562 -0.4797933 0.19604777 -0.26281327
-0.29714173 0.037332866 0.3369729 0.55912596 0.27280718 -0.051138368 -0.3004841 -0.17756629
-0.32768646 -0.15740782 0.4090136 -0.26171163 0.23176163 -0.05257211 -0.070113055 0.22848473
-0.18572718 0.7802717 0.25511548 0.30572408 -0.16768475 0.17725134 -0.26305807 0.4550219
0.14892586 -0.0320088 0.038464602 -0.018268712 0.088705845 0.33311504 -0.103415355 -0.3227498
00000000: c59f 663d cc84 403e 4c3a 7ebe 17db f6bd
00000010: f88d bebe 5b33 043f 7db1 db3d 472d 133e
00000020: fc08 a3be 0826 c43e 87c0 abbd c1a8 babd
00000030: 2dbf febd 273e afbe 9fe7 d43e 050e 253e
00000040: 189d 05bf 3bdb 8c3e c610 b5be 0659 763e
00000050: 6961 aabe b70d e43e 5ae6 0c3f a913 48bc
00000060: cc26 443e 4d02 adbe d2d7 833d 2b1b a7be
00000070: 5cac 8d3e 78a7 f5be bfc0 483e 768f 86be
00000080: f622 98be 59ea 183d b687 ac3e e122 0f3f
00000090: 62ad 8b3e 7776 51bd 0dd9 99be f0d3 35be
000000a0: 85c6 a7be 842f 21be 3b6a d13e 11ff 85be
000000b0: ec52 6d3e da55 57bd 6f97 8fbd e7f7 693e
000000c0: 442f 3ebe e3bf 473f 7f9e 823e de87 9c3e
000000d0: 8db5 2bbe 6081 353e 8caf 86be a1f8 e83e
000000e0: 0580 183e a91b 03bd 0f8d 1d3d 44a8 95bc
000000f0: 69ab b53d 0e8e aa3e 6ecb d3bd 763f a5be

gnn_layers.0.gnn.att_em_j f4 [1, 1, 64]
0.29103318 0.07356157 -0.2970728 0.0843603 -0.7065043 -0.33839074 -0.31069964 0.015676362
0.021712849 0.021493066 -0.7668638 0.08967984 -0.56823087 0.42183998 0.023535611 -0.35071084
-0.006401268 -0.17356458 0.01690895 0.1381471 0.16341272 -0.0671852 -0.034668326 0.04047846
0.16216828 -0.33979395 -0.059292827 -0.5815233 -0.014064059 0.41746467 0.12186357 -0.23183055
-0.81715834 -0.4970372 0.076873235 0.044865243 0.07444245 -0.36068034 -0.82193506 0.07329227
0.23210071 -0.23656276 0.19925219 -0.018962236 -0.4528893 -0.06462644 -0.014642649 -0.3524562
-0.4053258 -0.006180266 0.067452826 -0.29058155 0.06339474 -0.5236529 -0.124590434 -0.103311695
0.051119514 0.24890856 -0.54025376 -0.73187405 -0.08059064 0.00092202483 -0.22676109 0.29993418
00000000: 4d02 953e 73a7 963d ed19 98be 18c5 ac3d
00000010: 77dd 34bf 8d41 adbe 0614 9fbe b76b 803c
00000020: 25df b13c 3a12 b03c 3051 44bf 10aa b73d
00000030: 9477 11bf 69fb d73e c1cd c03c 5f90 b3be
00000040: bac1 d1bb eaba 31be a384 8a3c 6f76 0d3e
00000050: aa55 273e 6598 89bd 6000 0ebd becc 253d
00000060: 710f 263e 79f9 adbe 09dd 72bd b6de 14bf
00000070: f06c 66bc eebd d53e 9b93 f93d fd64 6dbe
00000080: 4a31 51bf a97b febe b76f 9d3d 9ec4 373d
00000090: 4975 983d 18ab b8be 566a 52bf 421a 963d
000000a0: cfab 6d3e 823d 72be c408 4c3e b156 9bbc
000000b0: 1be1 e7be de5a 84bd b9e7 6fbc 2475 b4be
000000c0: dd86 cfbe d483 cabb b524 8a3d 1bc7 94be
000000d0: 1ad5 813d 1e0e 06bf 4529 ffbd 1595 d3bd
000000e0: b262 513d e3e1 7e3e 124e 0abf 195c 3bbf
000000f0: b50c a5bd 0ab4 713a 0f34 68be f990 993e

gnn_layers.0.gnn.bias f4 [64]
0.04883887 0.005806851 0.044067748 -0.016352516 0.02992532 -0.0042485935 -0.023578966 -0.0014798113
-0.013704313 -0.014062939 0.009545182 0.005284284 -0.011025975 -0.008954456 -0.015220421 0.010565632
0.0307136 0.0062471135 -0.009136326 0.018356215 0.087334126 -0.012531735 0.03312972 0.06582591
0.02620618 -0.0025076189 -0.010612313 0.033902537 0.054252986 0.027178984 0.0028096118 0.03573572
0.059848145 0.021232352 0.013153618 0.04744268 0.0560039 -0.012380809 0.046368126 0.01276095
-0.007715044 0.012460368 -0.018768255 0.006191956 0.029604191 -0.013790093 0.0054170303 -0.0004022918
0.008787104 0.001519271 0.021189678 0.014234406 0.00663393 -0.0065093865 0.013117067 -0.0012664503
0.01735969 -0.011670947 0.013486991 -0.013450971 0.014083559 -6.828961e-05 0.02562885 0.04924973
00000000: 440b 483d 6647 be3b 6280 343d b6f5 85bc
00000010: f225 f53c c937 8bbb ad28 c1bc 3af6 c1ba
00000020: 0e88 60bc 3e68 66bc 6563 1c3c c927 ad3b
00000030: 4ba6 34bc b6b5 12bc 135f 79bc 791b 2d3c
00000040: 169b fb3c 96b4 cc3b 87b0 15bc c65f 963c
00000050: 3cdc b23d e851 4dbc 07b3 073d bccf 863d
00000060: 58ae d63c dd56 24bb 44df 2dbc 63dd 0a3d
00000070: 6138 5e3d 76a6 de3c 7721 383b 9e5f 123d
00000080: 5423 753d 78ef ad3c 4682 573c 4153 423d
00000090: 5864 653d e0d8 4abc 81ec 3d3d 4e13 513c
000000a0: 7bce fcbb 9226 4c3c e2bf 99bc e4e5 ca3b
000000b0: 7d84 f23c d8ef 61bc 5881 b13b b1ea d2b9
000000c0: c9f7 0f3c 4722 c73a fa95 ad3c 6d37 693c
000000d0: 7061 d93b b14c d5bb f7e8 563c 05ff a5ba
000000e0: e935 8e3c 8037 3fbc 8af8 5c3c 7661 5cbc
000000f0: babe 663c b536 8fb8 98f3 d13c 16ba 493d

gnn_layers.0.gnn.lin.weight f4 [64, 100]
0.106046855 -0.040391404 -0.20272285 -0.031880304 0.11605966 0.09442669 -0.0932505 0.006670449
-0.14919846 0.039084278 -0.05392183 -0.016331144 -0.019949177 0.027353149 -0.066316925 -0.1696978
0.0775655 0.083756894 0.10891119 0.18703228 0.08869378 -0.10720937 0.07559544 -0.13287972
0.17012292 -0.08108235 0.0028864439 0.0150052905 0.09963766 0.17847876 0.06994481 0.105151884
-0.030941874 0.07053876 0.15565869 0.0012900152 0.16945948 0.08095731 -0.12913673 0.14497596
-0.030692726 -0.15341306 0.032092094 0.021697398 0.12730707 0.01156416 0.08630675 0.03766285
0.026844544 0.032049824 -0.13128114 0.015682247 -0.08701768 0.030895889 0.1290863 -0.1057061
-0.012882173 0.19828539 0.10681005 -0.07685976 0.041225445 -0.079653636 -0.058699105 -0.08359245
-0.02556118 -0.026721818 0.075041436 -0.042505626 0.10709941 0.07796417 -0.033746116 0.12666234
0.038062736 -0.09886893 0.072905354 -0.13231842 -0.103376776 -0.09943985 -0.10509504 -0.0057745557
0.10641659 -0.08220825 0.16703993 -0.0015526029 -0.11036502 -0.06264354 0.25084776 0.15830421
-0.090977624 0.20435311 0.011371806 0.06980514 0.15495321 -0.049186762 -0.090402305 -0.13275674
-0.07611237 -0.41848284 -0.4304725 -0.34322277 -0.09685756 -0.20037745 0.0061374344 -0.14704067
-0.2212353 -0.07299939 0.046867233 -0.20926236 0.0042651645 -0.0020623163 -0.16952386 -0.10640856
-0.20617487 -0.01856241 0.12221235 -0.046808258 -0.019641621 0.0099073555 0.12233136 -0.051462423
0.058016323 -0.19999273 -0.12701905 0.14309935 -0.22440667 -0.23364533 -0.037560295 0.043556742
0.06265873 0.07141792 -0.18689187 0.07152977 -0.18384564 -0.117665544 -0.15845138 -0.060178373
0.039865088 0.042667508 0.13459954 0.084988974 0.09440749 0.02060106 0.024912927 0.058526576
0.0036060526 0.028809454 -0.024411028 -0.15615371 -0.13245673 -0.11396837 0.15342546 -0.13497557
-0.10624095 -0.16687384 -0.112749554 0.058880296 0.084214106 -0.11891015 -0.07294579 0.15898582
-0.1779565 0.023702601 0.06540066 -0.0020660216 -0.06998045 0.15859142 0.016371494 0.07636435
0.02920628 0.14167807 0.0355478 -0.081946954 0.09679573 -0.10104197 0.1270543 -0.10508067
-0.043961965 -0.08908244 0.11936008 0.13702898 0.056795392 0.14929065 0.04410288 0.070456184
-0.149421 0.0025544246 0.071193874 0.1793912 -0.10705915 0.10581606 -0.063483626 0.012341076
-0.092975736 -0.14891338 -0.14347973 -0.22557443 0.01067984 -0.12700485 -0.104832835 -0.074111454
0.053081702 -0.062237132 0.03846879 -0.13147826 -0.054056924 -0.11851982 0.08234614 0.036074042
0.10998007 0.0033507675 0.13858667 -0.06779179 -0.038467813 0.038966954 0.008903592 0.0328504
0.055944335 -0.10079069 0.059145864 -0.06288382 0.02703867 -0.09444462 0.08745275 -0.062302027
0.06760951 0.16956154 -0.08048825 -0.09988812 0.036524925 0.07288013 0.08880061 -0.008414754
0.0024679878 -0.003414066 -0.11621161 -0.055794388 0.13697813 -0.019022144 0.11047459 -0.08258556
0.10228364 0.08919591 -0.004033442 -0.15244474 -0.08764167 -0.11056749 0.01520491 0.0696397
-0.06192921 0.022255706 -0.025954537 0.04013852 0.13980444 -0.09054593 -0.060891554 -0.07057725
00000000: 182f d93d 7571 25bd 9496 4fbe ec94 02bd
00000010: b0b0 ed3d c862 c13d 1efa bebd c893 da3b
00000020: 7bc7 18be d616 203d 23dd 5cbd e4c8 85bc
00000030: 756c a3bc b613 e03c 2bd1 87bd 43c5 2dbe
00000040: a9da 9e3d bc88 ab3d d40c df3d 6485 3f3e
00000050: 16a5 b53d 9690 dbbd c8d1 9a3d 9f11 08be
00000060: b434 2e3e 810e a6bd 7e2a 3d3b c0d8 753c
00000070: d40e cc3d 23c3 363e 393f 8f3d df59 d73d
00000080: d079 fdbc a076 903d fe64 1f3e ba15 a93a
00000090: c986 2d3e f2cc a53d 6b3c 04be 9474 143e
000000a0: 506f fbbc 5018 1dbe 0073 033d bebe b13c
000000b0: c95c 023e 9a77 3d3c 98c1 b03d 5c44 1a3d
000000c0: 17e9 db3c ad46 033d 906e 06be 0e78 803c
000000d0: 5336 b2bd 6019 fd3c 332f 043e 717c d8bd
000000e0: c00f 53bc 530b 4b3e 3abf da3d a668 9dbd
000000f0: 03dc 283d 7221 a3bd 796e 70bd 8532 abbd
00000100: ae65 d1bc b7e7 dabc 53af 993d 611a 2ebd
00000110: ef56 db3d aeab 9f3d 5e39 0abd c6b3 013e
00000120: ace7 1b3d cb7b cabd 674f 953d 7b7e 07be
00000130: 34b7 d3bd 1fa7 cbbd 113c d7bd 7c38 bdbb
00000140: f1f0 d93d cd5c a8bd 840c 2b3e b580 cbba
00000150: 0e07 e2bd 424b 80bd 1e6f 803e 801a 223e
00000160: 7a52 babd f141 513e d050 3a3c fff5 8e3d
00000170: 0eac 1e3e 0f78 49bd d824 b9bd 62f1 07be
00000180: cde0 9bbd 6243 d6be e466 dcbe e5ba afbe
00000190: 425d c6bd bf2f 4dbe 881c c93b d491 16be
000001a0: 828b 62be b480 95bd dbf7 3f3d df48 56be
000001b0: cbc2 8b3b ed27 07bb aa97 2dbe bbec d9bd
000001c0: 811f 53be 3210 98bc 784a fa3d 04ba 3fbd
000001d0: 77e7 a0bc 7652 223c dd88 fa3d 43ca 52bd
000001e0: 86a2 6d3d e5ca 4cbe 4811 02be a388 123e
000001f0: ddca 65be b940 6fbe d3d8 19bd 8e68 323d
00000200: 3853 803d 8f43 923d 9560 3fbe 337e 923d
00000210: 0842 3cbe a2fa f0bd 1441 22be 997d 76bd
00000220: 9349 233d 20c4 2e3d 76d4 093e b30e ae3d
00000230: b758 c13d 8ec3 a83c 3216 cc3c 90b9 6f3d
00000240: 8653 6c3b ce01 ec3c a3f9 c7bc c2e6 1fbe
00000250: bda2 07be 4068 e9bd 901b 1d3e 0937 0abe
00000260: db94 d9bd fae0 2abe 3de9 e6bd 772c 713d
00000270: 7278 ac3d 2a87 f3bd 9a64 95bd 2ecd 223e
00000280: 3b3a 36be f52b c23c c8f0 853d 1766 07bb
00000290: e951 8fbd ca65 223e 831d 863c ea64 9c3d
000002a0: 0242 ef3c 0e14 113e 929a 113d ced3 a7bd
000002b0: d73c c63d 18ef cebd 861a 023e 8934 d7bd
000002c0: 7611 34bd db70 b6bd 0f73 f43d 5351 0c3e
000002d0: 49a2 683d a6df 183e 39a5 343d 554b 903d
000002e0: d201 19be 2268 273b 18ce 913d 54b2 373e
000002f0: d441 dbbd 17b6 d83d b403 82bd 3932 4a3c
00000300: 106a bebd c07c 18be 5aec 12be fcfc 66be
00000310: 7ffa 2e3c 8f0d 02be 99b2 d6bd bfc7 97bd
00000320: 336c 593d 5dec 7ebd 7391 1d3d 3da2 06be
00000330: cb6a 5dbd 85ba f2bd 18a5 a83d 60c2 133d
00000340: 3b3d e13d 8d98 5b3b aae9 0d3e 6cd6 8abd
00000350: 6d90 1dbd d09b 1f3d 5fe0 113c 248e 063d
00000360: e325 653d 596b cebd ef42 723d 3bc9 80bd
00000370: 3380 dd3c 2e6c c1bd 6d1a b33d 6930 7fbd
00000380: db76 8a3d 8aa1 2d3e 06d7 a4bd 2592 ccbd
00000390: 299b 153d 2d42 953d 18dd b53d 09de 09bc
000003a0: f7bd 213b 86be 5fbb 5a00 eebd a888 64bd
000003b0: ff43 0c3e 54d4 9bbc 8040 e23d 9e22 a9bd
000003c0: 167a d13d 58ac b63d f72a 84bb 791a 1cbe
000003d0: 7a7d b3bd 3571 e2bd 041e 793c 429f 8e3d
000003e0: 7ca9 7dbd 9951 b63c 9c9e d4bc 4a68 243d
000003f0: e528 0f3e 2570 b9bd 6c69 79bd ce8a 90bd

gnn_layers.0.bn.weight f4 [64]
0.81972444 0.7570929 0.51569706 0.82085335 0.1914617 1.0132822 0.92945886 0.3021547
0.53364414 0.75923765 -0.021085793 0.6336741 0.49023673 0.926964 0.874484 0.39123827
0.9839892 0.41682908 0.56214005 0.51651216 0.57598007 0.98733085 0.35762286 0.43893442
0.69548744 0.69942975 0.7025081 -0.06411206 0.4313879 0.6883238 0.9104983 0.48444837
0.07984165 0.20613673 0.7009865 0.78392553 0.4717934 0.9031779 0.032494295 0.4523151
0.9621895 0.009810078 0.6330899 0.6018673 0.49750412 0.8883052 0.51151496 0.9773091
0.15144412 0.8654742 0.68948793 0.6287236 0.8132106 0.97821087 0.8414868 0.1737418
0.52047205 0.9567733 0.72857827 0.27115202 0.29847518 1.0024847 0.6352041 0.8988019
00000000: 76d9 513f d7d0 413f b904 043f 7223 523f
00000010: 890e 443e 3bb3 813f 04f1 6d3f 05b4 9a3e
00000020: e79c 083f 665d 423f 1dbc acbc 7738 223f
00000030: 4f00 fb3e 834d 6d3f 2fde 5f3f 6250 c83e
00000040: b7e6 7b3f 9f6a d53e 69e8 0f3f 243a 043f
00000050: 6e73 133f b7c1 7c3f 581a b73e 03bc e03e
00000060: 770b 323f d40d 333f 92d7 333f 2f4d 83bd
00000070: e0de dc3e fd35 303f 6b16 693f 9e09 f83e
00000080: 0584 a33d 8215 533e da73 333f 58af 483f
00000090: e88e f13e ab36 673f bd18 053d d895 e73e
000000a0: 0d52 763f 73ba 203c 2e12 223f fa13 1a3f
000000b0: dcb8 fe3e f867 633f a5f2 023f ee30 7a3f
000000c0: 2b14 1b3e b88f 5d3f 4882 303f 08f4 203f
000000d0: 922e 503f 076c 7a3f ae6b 573f 5fe9 313e
000000e0: a83d 053f 18ef 743f 1b84 3a3f 70d4 8a3e
000000f0: bdd1 983e 6b51 803f bc9c 223f e217 663f

gnn_layers.0.bn.bias f4 [64]
0.18177114 0.23291098 0.2694616 0.21343693 0.48815623 0.02294429 -0.0443018 0.31816214
0.34630167 0.32671785 0.36638227 0.15633322 0.35988063 0.08857662 0.069565155 0.42823806
0.24371858 0.44967043 0.20681286 0.28510365 0.26543757 -0.0066199205 0.42981595 0.47155946
0.26920488 0.2657222 0.14386168 0.39162028 0.31479093 0.1791114 -0.04420839 0.33302468
0.40309414 0.38319147 0.24315792 0.13867177 0.39976594 -0.066666506 0.33268562 0.22606675
-0.03530147 0.34857276 0.37231883 0.22390984 0.43494934 0.08432138 0.2912834 -0.024724657
0.383557 0.09312835 0.29103723 0.29959297 0.120215364 0.030554771 0.24174477 0.34621543
0.31590125 -0.033809002 -0.33747196 0.453389 0.31045714 0.0030774225 0.3122769 0.2124872
00000000: 3722 3a3e 3780 6e3e dff6 893e 368f 5a3e
00000010: 9def f93e aaf5 bb3c ce75 35bd 26e6 a23e
00000020: 744e b13e 9047 a73e 7596 bb3e d115 203e
00000030: 4642 b83e a967 b53d 2d78 8e3d 0542 db3e
00000040: 5d91 793e 343b e63e c0c6 533e 1bf9 913e
00000050: 6fe7 873e ebeb d8bb d610 dc3e 3e70 f13e
00000060: 39d5 893e bd0c 883e 7a50 133e 7482 c83e
00000070: 472c a13e fb68 373e db13 35bd 3682 aa3e
00000080: 5b62 ce3e ac31 c43e 64fe 783e f9ff 0d3e
00000090: 1fae cc3e 7388 88bd c555 aa3e 0b7e 673e
000000a0: 4698 10bd 2178 b23e 93a0 be3e 9f48 653e
000000b0: aeb1 de3e b0b0 ac3d 1923 953e 5d8b cabc
000000c0: 9561 c43e 14ba be3d d502 953e 4064 993e
000000d0: 7933 f63d 004e fa3c f18b 773e 2643 b13e
000000e0: cfbd a13e 4f7b 0abd 20c9 acbe 9a22 e83e
000000f0: 3df4 9e3e 95ae 493b c2e2 9f3e 3f96 593e

gnn_layers.0.bn.running_mean f4 [64]
-0.01788512 -0.20123737 -0.008206171 -0.06658459 0.117724605 -0.068195134 0.016584504 -0.1518693
-0.029376175 -0.06149059 -0.075459056 0.14576882 -0.07352396 0.046613727 0.042392135 0.0660348
-0.015407367 -0.14559524 0.074130185 -0.06486916 0.044953912 0.022381619 -0.01038593 0.20781368
-0.014644464 -0.05805468 0.1474979 0.14227667 0.11524663 0.0713239 0.091640845 -0.012774629
0.1373566 -0.054171663 -0.1270682 0.21394332 0.20876795 0.061558027 0.1649836 0.19873823
0.05874932 -0.26905254 -0.07394228 0.120832115 0.2223582 0.08966985 0.16916582 0.035926484
-0.13532934 0.118214816 0.21342705 -0.25660387 0.22026592 -0.023410363 -0.034358084 -0.008753983
-0.18857396 0.025006786 -0.2318603 0.009194589 -0.1542278 0.15555967 -0.04238439 -0.01163733
00000000: d183 92bc 2b11 4ebe 2d73 06bc 805d 88bd
00000010: 9919 f13d e4a9 8bbd 3adc 873c a083 1bbe
00000020: 4ea6 f0bc 8fdd 7bbd 478a 9abd 6c44 153e
00000030: bb93 96bd 09ee 3e3d 60a3 2d3d 413d 873d
00000040: 2e6f 7cbc eb16 15be 91d1 973d 1fda 84bd
00000050: 9821 383d a859 b73c bf29 2abc 1ccd 543e
00000060: 55ef 6fbc beca 6dbd b109 173e fab0 113e
00000070: 6d06 ec3d 4412 923d 32ae bb3d ad4c 51bc
00000080: 35a7 0c3e 1be3 5dbd 2b1e 02be f513 5b3e
00000090: 44c7 553e 4524 7c3d 76f1 283e 0982 4b3e
000000a0: 21a3 703d 41c1 89be 0d6f 97bd d476 f73d
000000b0: deb1 633e d4a4 b73d ce39 2d3e a627 133d
000000c0: c693 0abe 9c1a f23d 9f8c 5a3e 9561 83be
000000d0: 648d 613e 17c7 bfbc 10bb 0cbd de6c 0fbc
000000e0: 8819 41be 08db cc3c c96c 6dbe e7a4 163c
000000f0: e4ed 1dbe 094b 1f3e 419b 2dbd 80aa 3ebc

gnn_layers.0.bn.running_var f4 [64]
0.07344115 0.10987804 0.030174943 0.04985532 0.03050128 0.021418445 0.01279581 0.065595835
0.029557953 0.042234816 0.051373888 0.06149826 0.0329423 0.033955872 0.015251237 0.023299046
0.076381736 0.091786735 0.052695993 0.030073883 0.05834379 0.0209551 0.066774085 0.051472757
0.034247357 0.0472699 0.067833036 0.030009503 0.044075526 0.026005363 0.02263564 0.028408358
0.02390888 0.021289987 0.052673623 0.06256562 0.085117966 0.03289787 0.041397713 0.07975969
0.03375988 0.15901048 0.04140497 0.046096105 0.10324001 0.052848678 0.07375219 0.019371161
0.059445962 0.035694364 0.06656264 0.14611652 0.0959099 0.03513791 0.06891044 0.0152512705
0.09232946 0.015206343 0.17727028 0.01185168 0.111374855 0.048786014 0.041004594 0.06630919
00000000: 5068 963d bd07 e13d 7131 f73c 1835 4c3d
00000010: d2dd f93c bc75 af3c 84a5 513c 1c57 863d
00000020: 8523 f23c 6afe 2c3d 6d6d 523d 99e5 7b3d
00000030: 81ee 063d 5015 0b3d 53e0 793c a4dd be3c
00000040: 076e 9c3d affa bb3d c1d7 573d 815d f63c
00000050: e6f9 6e3d 08aa ab3c dac0 883d 19d5 523d
00000060: f546 0c3d 159e 413d 0cec 8a3d 7dd6 f53c
00000070: 8a88 343d 3309 d53c 616e b93c a5b8 e83c
00000080: 8edc c33c 5768 ae3c 4cc0 573d 6722 803d
00000090: 5452 ae3d ebbf 063d a690 293d 0c59 a33d
000000a0: cd47 0a3d a5d3 223e 4298 293d 45cf 3c3d
000000b0: 806f d33d db77 583d 630b 973d 45b0 9e3c
000000c0: 9c7d 733d 4134 123d fe51 883d 929f 153e
000000d0: 696c c43d c5ec 0f3d eb20 8d3d 77e0 793c
000000e0: 3a17 bd3d 0624 793c 5786 353e 8d2d 423c
000000f0: 8018 e43d d8d3 473d 6ff4 273d 1dcd 873d

out_layer.mlp.0.weight f4 [1, 64]
-0.25578028 -0.2083474 -0.29751393 -0.2794161 -0.28511298 -0.08372331 -0.004452715 -0.26448333
-0.23389913 -0.16624999 -0.29795322 0.04022142 -0.18247634 0.067825384 -0.14055239 -0.1913549
-0.23871122 -0.18718325 0.03891146 -0.21472482 -0.27044216 -0.055725183 -0.26402736 -0.27416566
-0.29746348 -0.29462075 0.04107407 -0.2417579 -0.28927797 0.09022979 0.021960149 -0.24659227
-0.25364468 -0.220955 -0.26349887 -0.25283748 -0.21693067 -0.0874924 -0.2980585 0.029753955
0.066890694 -0.3746434 -0.2357603 0.024835082 -0.24261402 0.034650393 0.025735019 -0.057038773
-0.23739362 -0.16566461 -0.209848 -0.181007 -0.108133435 -0.048852753 -0.2836425 -0.27742648
-0.21362966 0.04197646 -0.22015516 -0.18335527 -0.2725345 -0.060274046 -0.22581336 -0.24124612
00000000: a2f5 82be 0559 55be bf53 98be a10f 8fbe
00000010: 54fa 91be 2077 abbd 15e8 91bb 5c6a 87be
00000020: 4183 6fbe 703d 2abe 538d 98be 37bf 243d
00000030: 14db 3abe 09e8 8a3d f7ec 0fbe 8af2 43be
00000040: b770 74be f7ac 3fbe a061 1f3d d3e0 5bbe
00000050: 6577 8abe 1740 64bd 982e 87be 715f 8cbe
00000060: 224d 98be 88d8 96be 493d 283d 628f 77be
00000070: 3e1c 94be 65ca b83d c5e5 b33c af82 7cbe
00000080: b7dd 81be 0742 62be 53e9 86be ea73 81be
00000090: 1323 5ebe 372f b3bd 209b 98be 91be f33c
000000a0: fdfd 883d 42d1 bfbe 266b 71be f172 cb3c
000000b0: cf6f 78be 92ed 0d3d 3fd2 d23c 7da1 69bd
000000c0: 5017 73be fca3 29be 65e2 56be e659 39be
000000d0: 1075 ddbd d319 48bd 9739 91be d80a 8ebe
000000e0: bcc1 5abe 82ef 2b3d 5b70 61be 7cc1 3bbe
000000f0: a489 8bbe ebe1 76bd 9e3b 67be 3909 77be
