model_normal/gdn_smd_w_20_epoch20.pth (torch, 44399 bytes, 16 tensors)

embedding.weight f4 [38, 128]
0.081962995 -0.6435016 -0.53267264 -0.5316906 -0.10968588 -0.21752957 -0.26527596 -0.3493572
-0.26228964 -0.049323488 -0.24346021 0.14959206 0.0044305786 -0.13425715 -0.26824012 -0.15713061
-0.4368709 -0.082304195 0.088142656 -0.24812563 -0.055409573 -0.50753015 0.07091773 -0.21810482
0.077748634 -0.8880189 0.05744295 -0.04464123 -0.08341985 0.26745793 -0.42222777 0.13037366
-0.5799765 -0.5647548 -0.37813425 -0.16032697 -0.112714484 -0.14083143 -0.45136726 -0.68087405
-0.5961929 0.11294795 -0.14820231 -0.09000962 -0.38044614 0.15601172 -0.19384384 -0.35326764
-0.0120821865 -0.34894827 -0.2912902 -0.3578153 -0.4437433 -1.0422194 0.29565915 0.03335079
-0.8274902 -0.2843029 -0.1721239 -0.38332498 -0.049965866 -0.9472884 -0.20511422 0.121301815
-0.074599266 0.20294529 -0.5951093 -1.3342783 -0.6391006 -0.05191917 0.28293315 -0.59027165
-0.20996597 -0.18033397 -0.590294 -0.12126471 0.74103165 -0.30151406 -0.18100761 -0.009915883
-0.19025587 -1.1663835 -0.34441665 -0.41428453 -0.10580299 -0.007875923 -0.16926683 -1.1948768
-0.31244573 0.1769498 -0.37054092 -0.22523506 -0.8373722 -0.41126153 0.35995677 -0.05046758
-0.3026479 -0.13683657 -0.24407929 -0.7977188 -0.57643074 0.29830495 -0.13498446 -0.51428205
-0.40300953 0.29483467 -0.53856075 -0.04690922 -0.114018835 -0.020888008 -0.37232193 -0.14327477
-0.16692437 0.54450303 -0.5194823 -0.40207762 -0.769766 0.0023807308 -0.3691203 0.113697745
-1.0276821 -0.27877936 -0.053227115 -0.395335 -0.051560525 -1.2293377 -0.46856433 0.52585846
-0.0979545 -1.5957868 -0.50307596 -0.0368608 0.20982829 -0.41562602 -0.29734215 -0.30115497
-0.2381527 -1.5131667 -0.23230524 -0.46187034 -0.10312493 -0.14722405 0.14484602 -0.10691609
-0.372649 -0.084073894 -0.08043219 0.030486016 -0.07592467 -0.44887197 0.05877792 -0.23942658
-0.058848895 -0.9116096 -0.28309336 -0.36352065 -0.014862879 0.080695726 -0.3919021 -0.010259133
-0.14683531 -0.5162564 -0.35603985 -0.13285346 -0.06815025 -0.17682192 0.028909774 -0.4610698
-0.4396299 -0.7754738 -0.84843975 -0.28844687 -0.28770557 -0.10608559 -0.021301357 -0.020177782
0.35294512 -0.79583704 -0.18689752 -0.4352766 -0.38913625 -0.32202175 0.22254632 -0.108221725
-0.016424414 -0.3213708 -0.041360043 -0.23502354 0.13191618 -0.28748196 -0.040186975 0.047649026
0.0012293335 0.12166955 -0.2257937 0.004238535 -0.5443661 -0.8200508 -0.046005893 -0.40121114
-0.22278145 -0.42697904 -0.42569926 -0.5923699 0.31992885 -0.17571981 -0.21015064 -0.36935005
0.15805748 -0.35369027 -0.4326558 -0.40822056 0.121786445 -0.0034902687 0.28726593 -0.33719525
-0.5800843 -0.1293935 -0.3191162 -0.31560442 -0.95941067 0.024089076 0.18045776 -0.31729797
-0.43312564 -0.14091566 -0.13549893 -0.55229414 0.017329415 0.22216184 0.15792102 -0.0015802092
-0.34765553 0.28200933 0.007733441 -0.061333213 -0.099551134 -0.6518467 0.16923232 -0.44103506
0.053558458 0.102235846 -0.47556132 -0.26987666 0.008613738 0.23736022 -0.32096723 0.35853624
0.012213562 -0.34330207 -0.0149488505 -0.34925604 -0.33813053 -0.0190236 0.01383451 0.44325748
00000000: 37dc a73d 85bc 24bf 3c5d 08bf e01c 08bf
00000010: fea2 e0bd 12c0 5ebe 40d2 87be f2de b2be
00000020: d44a 86be 6d07 4abd a24d 79be a92e 193e
00000030: 632e 913b b57a 09be c556 89be d9e6 20be
00000040: 8bad dfbe 1a8f a8bd 2384 b43d a514 7ebe
00000050: 26f5 62bd 7fed 01bf 513d 913d df56 5fbe
00000060: ad3a 9f3d 3555 63bf 4c49 6b3d b9d9 36bd
00000070: 07d8 aabd 3ff0 883e 3d2e d8be ac80 053e
00000080: 5779 14bf c593 10bf d09a c1be c12c 24be
00000090: dad6 e6bd 1d36 10be 9c19 e7be c34d 2ebf
000000a0: 19a0 18bf 4151 e73d 59c2 17be f756 b8bd
000000b0: d6c9 c2be 89c1 1f3e 007f 46be 7fdf b4be
000000c0: 5df4 45bc 59a9 b2be fd23 95be 9133 b7be
000000d0: 5232 e3be 7267 85bf a360 973e d79a 083d
000000e0: 66d6 53bf 2690 91be 3f41 30be 2c43 c4be
000000f0: 02a9 4cbd 7e81 72bf 7609 52be 166d f83d
00000100: 80c7 98bd e4d0 4f3e 1559 18bf a2c9 aabf
00000110: 199c 23bf 32a9 54bd 9ddc 903e 0b1c 17bf
00000120: 5201 57be 78a9 38be 821d 17bf a259 f8bd
00000130: 40b4 3d3f 0d60 9abe 0f5a 39be 3a76 22bc
00000140: 6fd2 42be 0e4c 95bf 6157 b0be 1a1d d4be
00000150: 3daf d8bd 040a 01bc 4954 2dbe b9f1 98bf
00000160: e3f8 9fbe 5432 353e 8ab7 bdbe 05a4 66be
00000170: 065e 56bf df90 d2be 414c b83e 18b7 4ebd
00000180: aaf4 9abe e31e 0cbe ecef 79be 4d37 4cbf
00000190: f790 13bf 6dbb 983e 5e39 0abe fda7 03bf
000001a0: 4457 cebe 92f4 963e 1edf 09bf e223 40bd
000001b0: b582 e9bd 541d abbc fba0 bebe 9fb6 12be
000001c0: 39ee 2abe 8d64 0b3f cbfc 04bf 1edd cdbe
000001d0: 620f 45bf 0906 1c3b 56fd bcbe 5dda e83d
000001e0: 168b 83bf 2bbc 8ebe ad04 5abd 5969 cabe
000001f0: 2131 53bd f05a 9dbf aae7 efbe a99e 063f
00000200: 5e9c c8bd be42 ccbf 96c9 00bf 5afb 16bd
00000210: 3add 563e efcc d4be 3b3d 98be fc30 9abe
00000220: 4dde 73be 72af c1bf 6de1 6dbe 457a ecbe
00000230: 2a33 d3bd e7c1 16be 8452 143e d3f6 dabd
00000240: dacb bebe ef2e acbd a2b9 a4bd cfbd f93c
00000250: 657e 9bbd 8cd2 e5be 1ec1 703d 3e2c 75be
00000260: 8a0b 71bd 3f5f 69bf 9df1 90be 611f babe
00000270: 6f83 73bc cd43 a53d 64a7 c8be ec15 28bc
00000280: ff5b 16be 6129 04bf db4a b6be bd0a 08be
00000290: 5c92 8bbd ce10 35be 31d4 ec3c 5711 ecbe
000002a0: 2c17 e1be 7385 46bf 5933 59bf 4faf 93be
000002b0: 254e 93be 6743 d9bd 2f80 aebc e04b a5bc
000002c0: 39b5 b43e fabb 4bbf 1062 3fbe 93dc debe
000002d0: de3c c7be 09e0 a4be 2fe3 633e 5aa3 ddbd
000002e0: 7e8c 86bc b78a a4be 2669 29bd 03aa 70be
000002f0: 0915 073e d630 93be 199b 24bd a02b 433d
00000300: 9621 a13a e32d f93d 7736 67be 69e3 8a3b
00000310: 945b 0bbf d9ee 51bf ad70 3cbd 8c6b cdbe
00000320: d220 64be ff9c dabe 41f5 d9be 8ea5 17bf
00000330: b7cd a33e e5ef 33be bb31 57be 731b bdbe
00000340: d2d9 213e e416 b5be 1085 ddbe 4902 d1be
00000350: 2c6b f93d febc 64bb 8514 933e dba4 acbe
00000360: 6880 14bf bb7f 04be 3363 a3be e796 a1be
00000370: f09b 75bf 7456 c53c ebc9 383e e174 a2be
00000380: a5c2 ddbe 324c 10be 3bc0 0abe 2663 0dbf
00000390: 6bf6 8d3c 657e 633e 0cb6 213e 061f cfba
000003a0: e8ff b1be 8763 903e ce68 fd3b 8938 7bbd
000003b0: 77e1 cbbd 6ddf 26bf 3d4b 2d3e 59cf e1be
000003c0: 1d60 5b3d 0761 d13d c67c f3be 462d 8abe
000003d0: a320 0d3c 8f0e 733e d155 a4be 1092 b73e
000003e0: 641b 483c 4ac5 afbe 06ec 74bc b0d1 b2be
000003f0: 721f adbe 61d7 9bbc 24aa 623c a5f2 e23e

bn_outlayer_in.weight f4 [128]
0.13700168 0.1401777 0.7082732 0.11216806 0.275843 0.4953786 0.43992564 0.83287317
0.49637264 0.16124016 0.77317256 0.42068183 0.1669861 0.4809454 0.52897227 0.29375228
0.57061815 0.5188175 0.1460535 0.39035353 0.19277684 0.65308976 0.476055 0.51488304
0.21414804 0.8523766 0.3002469 0.13460541 0.39316353 0.1001028 0.43771106 0.10620459
0.3235833 0.65027016 0.6083945 0.25810412 0.3670932 0.53061676 0.39567015 0.48150802
0.64302576 0.39372742 0.7267137 0.19861 0.5593527 0.535663 0.59318584 0.53104717
0.29233304 0.51887625 0.63699836 0.6299094 0.61142737 0.6943307 0.41015214 0.14619267
0.32338777 0.9121231 0.4123726 0.6733961 0.28586355 0.71827143 0.107633635 0.1411727
0.82343537 0.4454904 0.77058727 0.44612363 0.85603684 0.2220269 0.45696527 0.744734
0.58896875 0.5142864 0.65418494 0.60717326 0.123724595 0.679876 0.7223813 0.379445
0.564758 0.59551996 0.46681944 0.5856166 0.12202881 0.867121 0.5540326 0.56052494
0.48483622 0.10373715 0.6915252 0.6070088 0.52979773 0.31158325 0.30264634 0.3821487
0.42310497 0.69753414 0.379741 0.6667074 0.4499147 0.1961082 0.14869204 0.72414804
0.5012002 0.4457353 0.65707356 0.3112268 0.4407321 0.2557359 0.5977118 0.31283605
0.40730834 0.37382424 0.7680043 0.33804607 0.49522933 0.37550995 0.54995525 0.3405353
0.5088688 0.6068895 0.5163153 0.65873516 0.14627647 0.54279166 0.4684623 0.22350043
00000000: 2b4a 0c3e be8a 0f3e 6451 353f 5eb8 e53d
00000010: 4b3b 8d3e 44a2 fd3e ef3d e13e 2d37 553f
00000020: 8e24 fe3e 241c 253e a3ee 453f 9c63 d73e
00000030: 67fe 2a3e 7a3e f63e ba6a 073f b366 963e
00000040: 0814 123f 39d1 043f 0c8f 153e 6bdc c73e
00000050: 4b67 453e e430 273f 7bbd f33e 60cf 033f
00000060: a049 5b3e 5a35 5a3f f6b9 993e 00d6 093e
00000070: bb4c c93e b202 cd3d aa1b e03e cb81 d93d
00000080: b6ac a53e 1b78 263f bebf 1b3f 3926 843e
00000090: a4f3 bb3e 80d6 073f 4795 ca3e 3888 f63e
000000a0: 569d 243f a496 c93e e909 3a3f 6b60 4b3e
000000b0: bd31 0f3f 3621 093f 07db 173f b5f2 073f
000000c0: adac 953e 13d5 043f 5312 233f be41 213f
000000d0: 8186 1c3f a8bf 313f 76ff d13e 88b3 153e
000000e0: 1593 a53e e680 693f 8022 d33e b063 2c3f
000000f0: b55c 923e a3e0 373f 066f dc3d 948f 103e
00000100: a9cc 523f 5117 e43e 3545 453f 516a e43e
00000110: 3b25 5b3f 055b 633e 5af7 e93e e3a6 3e3f
00000120: a8c6 163f 46a8 033f aa78 273f b56f 1b3f
00000130: 5263 fd3d 5b0c 2e3f fbed 383f 9d46 c23e
00000140: fb93 103f ff73 183f f502 ef3e f8ea 153f
00000150: 3eea f93d a4fb 5d3f 15d5 0d3f 907e 0f3f
00000160: 743c f83e 2574 d43d cc07 313f ee64 1b3f
00000170: d3a0 073f d787 9f3e 76f4 9a3e ffa8 c33e
00000180: 37a1 d83e 9991 323f 6a6d c23e 56ad 2a3f
00000190: 385b e63e 97d0 483e ba42 183e c461 393f
000001a0: a84e 003f 6b37 e43e f935 283f 1e59 9f3e
000001b0: a3a7 e13e d1ef 823e a403 193f 0c2c a03e
000001c0: b88a d03e e465 bf3e ee9b 443f 6014 ad3e
000001d0: b38e fd3e d742 c03e dec9 0c3f a55a ae3e
000001e0: 3a45 023f 1c5d 1b3f 3d2d 043f dea2 283f
000001f0: 80c9 153e 65f4 0a3f 4ada ef3e 4cdd 643e

bn_outlayer_in.bias f4 [128]
-0.014951878 0.0021054554 -0.30807745 0.011656976 -0.1324513 -0.13979858 -0.2977983 -0.24096224
-0.15507072 -0.014910565 -0.5140593 -0.27834484 -0.059384488 -0.19357677 -0.38880426 -0.16400312
-0.1931828 -0.07341043 -0.015628697 -0.13469514 -0.026147516 -0.836999 -1.0549102 -0.67258966
-0.10223664 -0.30224675 -0.6722851 -0.016834859 -0.24648742 0.009974051 -0.13497694 -0.012034099
-0.2338324 -0.536077 -0.47126964 -0.08048534 -0.35021392 -0.17520909 -0.13814105 -0.089531705
-0.6146211 -0.49801883 -0.43439388 -0.54348457 -0.1847637 -0.59942806 -0.07926366 -0.07262889
-0.31812894 -0.32025522 -0.17321473 -0.3770486 -0.6798882 -0.42670164 -0.41232777 -0.015365844
-1.3041866 -0.020602742 -0.2754103 -0.17741309 -0.6996925 -0.4414869 0.0059607434 7.6837976e-05
-0.017155942 -0.43984118 -0.60728455 -0.110175796 -0.29607937 -0.06930312 -0.7949703 -0.2446346
-0.39999625 -0.26032773 -0.28941298 -0.36719087 -0.62408423 -0.19937284 -0.51271546 -0.03445016
-0.22644955 -0.37638202 -0.25301313 -0.33701584 -0.08564394 -0.30251083 -0.27971902 -0.37368888
-1.0683146 -0.009226913 -0.42350343 -0.36980733 -0.38077477 -0.45175153 -0.91742235 -0.23012291
-0.26413256 -0.65053153 -0.14459418 -0.011289802 -0.07931395 -0.12312918 -0.18039489 -0.20798092
-0.1863125 -0.38169745 -0.15033238 -0.13418977 -0.70212686 -0.6308174 -0.13976696 -0.90757215
-0.44293448 -0.30279386 -0.23045397 -0.6822013 -0.13368827 -0.56355464 -0.18733226 -0.3963319
-0.115539834 -0.29115623 -0.06388626 -0.6774128 -0.028093304 -0.0712529 -0.08723013 -0.8538518
00000000: b9f8 74bc aefb 093b 54bc 9dbe e7fc 3e3c
00000010: 50a1 07be 5c27 0fbe 0579 98be cebe 76be
00000020: dcca 1ebe 714b 74bc 6499 03bf 3783 8ebe
00000030: 263d 73bd fd38 46be 5a11 c7be 6ff0 27be
00000040: b6d1 45be 3558 96bd c107 80bc 86ed 09be
00000050: 5133 d6bc 9145 56bf 4c07 87bf d62e 2cbf
00000060: 7261 d1bd 16c0 9abe e01a 2cbf 42e9 89bc
00000070: 3367 7cbe 346a 233c 6537 0abe ab2a 45bc
00000080: c371 6fbe 583c 09bf 414a f1be 7fd5 a4bd
00000090: 3d4f b3be 036a 33be d974 0dbe 665c b7bd
000000a0: cf57 1dbf 53fc febe e068 debe ce21 0bbf
000000b0: b232 3dbe 1e74 19bf fc54 a2bd 75be 94bd
000000c0: cce1 a2be 7ef8 a3be 345f 31be 840c c1be
000000d0: 270d 2ebf a378 dabe a01c d3be 05c1 7bbc
000000e0: 96ef a6bf 15c7 a8bc 9402 8dbe c7ab 35be
000000f0: 0c1f 33bf 920a e2be 5752 c33b 1324 a138
00000100: 9e8a 8cbc dd32 e1be 0077 1bbf d9a3 e1bd
00000110: b797 97be cbee 8dbd 2c83 4bbf 7e81 7abe
00000120: 4fcc ccbe ad49 85be f02d 94be 7100 bcbe
00000130: fcc3 1fbf 6528 4cbe 5241 03bf 9c1b 0dbd
00000140: 64e2 67be 25b5 c0be f08a 81be 578d acbe
00000150: 1766 afbd b3e2 9abe 5537 8fbe 2654 bfbe
00000160: 88be 88bf 7a2c 17bc 71d5 d8be 6357 bdbe
00000170: e9f4 c2be fa4b e7be 31dc 6abf 57a5 6bbe
00000180: 623c 87be 3c89 26bf 7f10 14be ddf8 38bc
00000190: 5a6f a2bd 272b fcbd 70b9 38be f3f8 54be
000001a0: b4c8 3ebe d96d c3be bbf0 19be 0b69 09be
000001b0: 96be 33bf 407d 21bf 121f 0fbe a656 68bf
000001c0: 4fc8 e2be cc07 9bbe 20fc 6bbe bfa4 2ebf
000001d0: 94e5 08be 1e45 10bf 07d4 3fbe 04ec cabe
000001e0: 26a0 ecbd 6e12 95be cdd6 82bd ed6a 2dbf
000001f0: ee23 e6bc 0aed 91bd b6a5 b2bd 0896 5abf

bn_outlayer_in.running_mean f4 [128]
-0.008677168 0.004196312 -0.20527506 0.020565828 -0.11072132 -0.09377197 -0.16633771 -0.20306565
-0.11750958 -0.015834501 -0.31983945 -9.129017e-09 0.0045205685 0.040954333 -0.123774536 -0.046574395
-0.1285164 -0.0005903932 -0.016903887 -0.10474741 -0.027314138 -0.25704736 -0.00956278 -0.027234076
-0.04854942 -0.2067937 3.3543024e-28 -0.0054692253 0.08553839 0.028089523 -0.12945062 0.0012125957
-0.023584109 -0.28628904 -0.26225343 -0.037073385 -0.032221332 -0.12602738 -0.10665739 -0.18665919
-0.22947039 -0.0014055007 -0.2107237 -1.6959007e-06 -0.14639875 -0.010094496 -0.14515287 -0.18974867
0.07953491 -0.2064263 -0.16595791 -0.29169264 -0.1974856 -0.22518793 -0.011764259 -0.0073683676
-0.012090827 -0.00072679226 -0.020702403 -0.1601156 -0.008571805 -0.16857131 0.0052134898 0.0011567222
-9.175282e-05 -0.011533846 -0.18844903 -0.18293078 -0.2396428 -0.049579583 -0.0024378924 -0.20681642
-0.025115864 -0.11853356 -0.27894598 -0.14489856 0.07351313 -0.17340195 -0.110735044 -0.00041464475
0.015698815 -0.18632452 -0.13088457 -0.06643209 -0.0041463217 -0.0017273033 6e-45 -0.18372242
-0.011178589 -0.006138168 -0.14424902 -0.023576977 -0.2813766 -0.006813771 -0.013575614 -0.1674748
-0.19376522 -0.026085842 -0.102487415 -6.658665e-05 -0.12908772 0.11012979 0.00022982633 -0.15678354
-0.14897619 0.0076461416 -0.14830518 -0.046464253 -0.012479152 -0.0011289277 -0.048361834 0.00068508595
-0.026065748 -6e-45 -0.26149252 -0.05411309 -0.12963536 -0.0068628746 -0.12682448 0.018949924
-0.13959575 -0.1413412 -0.08242842 -0.20229694 -0.0680883 -0.18720838 -0.12958822 0.12086938
00000000: ae2a 0ebc 3781 893b a033 52be ab79 a83c
00000010: dcc1 e2bd 850b c0bd 6f54 2abe 71f0 4fbe
00000020: dda8 f0bd 5bb7 81bc ffc1 a3be d7d5 1cb2
00000030: 4721 943b bbbf 273d 817d fdbd cbc4 3ebd
00000040: ce99 03be 9ec4 1aba 057a 8abc cf85 d6bd
00000050: e6c1 dfbc b69b 83be 35ad 1cbc ff19 dfbc
00000060: c2db 46bd bac1 53be ab9a d411 3037 b3bb
00000070: c02e af3d 001c e63c b48e 04be f6ef 9e3a
00000080: 7633 c1bc 7a94 92be 1546 86be 43da 17bd
00000090: 84fa 03bd 520d 01be 316f dabd 9623 3fbe
000000a0: 49fa 6abe c738 b8ba f4c7 57be b49e e3b5
000000b0: 8ee9 15be 6363 25bc f4a2 14be 7a4d 42be
000000c0: 33e3 a23d 6a61 53be dff0 29be bd58 95be
000000d0: aa39 4abe aa97 66be e1be 40bc 5972 f1bb
000000e0: 9b18 46bc 3486 3eba 1698 a9bc 58f5 23be
000000f0: c270 0cbc f59d 2cbe ecd5 aa3b 289d 973a
00000100: 6c6b c0b8 75f8 3cbc c8f8 40be 3552 3bbe
00000110: ec64 75be f613 4bbd 0cc5 1fbb afc7 53be
00000120: c9bf cdbc b9c1 f2bd 02d2 8ebe 4a60 14be
00000130: 0d8e 963d 4890 31be 0ec9 e2bd ad64 d9b9
00000140: cd9a 803c dbcb 3ebe 9b06 06be 8c0d 88bd
00000150: dedd 87bb ae66 e2ba 0400 0000 bb21 3cbe
00000160: 6726 37bc af22 c9bb 04b6 13be 8124 c1bc
00000170: 9810 90be 0e46 dfbb 416c 5ebc 847e 2bbe
00000180: 646a 46be fab1 d5bc ece4 d1bd 6fa4 8bb8
00000190: 922f 04be ba8b e13d 89fd 7039 dd8b 20be
000001a0: 378d 18be 7c8c fa3b 50dd 17be 4d51 3ebd
000001b0: 5b75 4cbc 87f8 93ba 0f17 46bd 5797 333a
000001c0: d687 d5bc 0400 0080 59e2 85be b0a5 5dbd
000001d0: 22bf 04be f7e1 e0bb 47de 01be df3c 9b3c
000001e0: 30f2 0ebe bfbb 10be 3bd0 a8bd ee26 4fbe
000001f0: e171 8bbd 8eb3 3fbe c6b2 04be 5e8a f73d

bn_outlayer_in.running_var f4 [128]
0.02090936 0.033159938 0.232715 0.01772748 0.068018414 0.13990176 0.027884271 0.5702893
0.17587711 0.062266205 0.08835508 4.4615114e-11 0.037459128 0.06325769 0.12900206 0.05016502
0.1509497 7.84077e-06 0.03568511 0.11131353 0.058226064 0.014229791 0.0040688077 0.003022608
0.10498451 0.47686672 1.0752184e-29 0.008510353 0.06223376 0.03749719 0.08767719 0.0057463907
0.0125615485 0.048088554 0.04745553 0.04493913 0.040674772 0.15714617 0.11866212 0.28496605
0.019809447 7.655868e-05 0.059072066 3.434811e-08 0.24718921 0.004314691 0.20652688 0.35280964
0.028068053 0.048430644 0.4917869 0.10549467 0.012489816 0.051647477 0.0020360863 0.009109664
0.0044690147 0.00011660662 0.102181226 0.44999334 0.07621049 0.03076455 0.013308537 0.013473248
9.315586e-07 0.0014085559 0.027832221 0.15817581 0.58064055 0.033763275 0.0008631372 0.46832973
0.015988223 0.020666784 0.4661231 0.026239555 0.09816365 0.4851642 0.033332564 0.00010669115
0.09299241 0.033315297 0.059077546 0.07369568 0.0012241345 1.3209642e-05 6e-45 0.058214024
0.0010079766 0.027604697 0.023182217 0.016107548 0.056279738 0.0038276077 0.011366825 0.03680707
0.03746653 0.017045416 0.082781605 1.2312288e-06 0.13076928 0.029440159 0.0013679803 0.15523489
0.19400503 0.054669634 0.19998199 0.07587006 0.0023340383 0.0061007077 0.054060247 0.00025402344
0.03592247 6e-45 0.9422971 0.06870736 0.09774058 0.006783104 0.14848293 0.11136117
0.12456276 0.06629313 0.10475289 0.019313822 0.106840484 0.37455323 0.12456177 0.075706385
00000000: 1b4a ab3c b7d2 073d d74c 6e3e 3839 913c
00000010: 3d4d 8b3d 6842 0f3e 8e6d e43c 7bfe 113f
00000020: 2119 343e d90a 7f3d 82f3 b43d 2738 442e
00000030: be6e 193d 3f8d 813d 1e19 043e d679 4d3d
00000040: 8f92 1a3e da8b 0337 8d2a 123d 59f8 e33d
00000050: 747e 6e3d 1224 693c a253 853b f316 463b
00000060: 1e02 d73d e027 f43e 8814 5a0f 026f 0b3c
00000070: d4e8 7e3d a796 193d 1990 b33d 384c bc3b
00000080: f4ce 4d3c 81f8 443d bb60 423d 1812 383d
00000090: 979a 263d edea 203e 2005 f33d 12e7 913e
000000a0: 6c47 a23c 218e a038 8df5 713d 2586 1333
000000b0: 2b1f 7d3e 4062 8d3b c87b 533e 77a3 b43e
000000c0: f9ee e53c 365f 463d 7ecb fb3e 970d d83d
000000d0: 16a2 4c3c 4e8c 533d dc6f 053b b340 153c
000000e0: d070 923b b48a f438 6444 d13d 8765 e63e
000000f0: 3f14 9c3d f005 fc3c 0d0c 5a3c e6be 5c3c
00000100: 3810 7a35 4b9f b83a 6600 e43c d7f8 213e
00000110: dca4 143f 5c4b 0a3d 2844 623a eac8 ef3e
00000120: bcf9 823c 634d a93c b0a7 ee3e 56f4 d63c
00000130: 060a c93d 7167 f83e ba87 083d 60bf df38
00000140: ce72 be3d 9f75 083d 4cfb 713d c3ed 963d
00000150: 2373 a03a fb9e 5d37 0400 0000 d471 6e3d
00000160: 151e 843a 3f23 e23c a2e8 bd3c faf3 833c
00000170: 9585 663d 9ad8 7a3b eb3b 3a3c 03c3 163d
00000180: 8176 193d d4a2 8b3c 6789 a93d b340 a535
00000190: 62e8 053e 7d2c f13c cd4d b33a e5f5 1e3e
000001a0: 41a9 463e 44ed 5f3d 14c8 4c3e c361 9b3d
000001b0: aaf6 183b 72e8 c73b 476e 5d3d 732e 8539
000001c0: 7123 133d 0400 0000 623a 713f 72b6 8c3d
000001d0: 372c c83d cd44 de3b e90b 183e 5311 e43d
000001e0: c31a ff3d b1c4 873d af88 d63d 0538 9e3c
000001f0: 2fcf da3d 71c5 bf3e 3e1a ff3d f30b 9b3d

gnn_layers.0.gnn.att_i f4 [1, 1, 128]
0.035797887 -0.019695718 0.018059345 -0.19709837 -0.0723032 0.07719978 0.0070830765 0.024429988
0.015400948 -0.009043746 0.083596736 0.00860487 -0.13563448 0.05133896 0.09491003 -0.021257862
0.030980103 -0.017643584 -0.19723846 0.049474657 0.15780887 0.013595794 -0.39787915 0.03322132
0.03911823 0.16784388 -0.08747091 -0.24258599 0.053276695 0.94389987 0.1733158 -0.7875335
-0.09382667 0.08125529 0.04932313 0.06428299 0.15993366 -0.23132177 0.0733055 0.052256104
-0.14426798 -0.28498834 -0.28001308 -0.029054625 0.056848556 0.29087043 0.089351706 0.042364754
-0.18370155 -0.08836691 0.23133887 0.29604387 0.14499746 -0.016843254 -0.6003773 0.31308347
-0.6397808 0.20438042 0.001453548 0.13877791 -0.08327509 -0.21063377 -0.26192623 0.6185738
-0.35787997 -0.582475 -0.11420617 0.03654112 0.09540807 -0.040472873 0.39145806 0.032107312
0.20190284 -0.33428994 0.45191455 -0.42369682 -0.09107705 0.1575218 0.072158575 -0.28772515
0.3869156 0.2467014 -0.010548153 0.10848239 -0.13674733 -0.5195791 0.00039577115 -0.0018777039
0.54408205 -0.3611784 -0.37241068 0.25722036 -0.25150067 -0.059992403 0.090228714 0.031558525
0.14291711 0.13080049 0.1183407 -0.42455882 0.06939141 0.6196658 -0.37216103 0.60503364
0.10461317 0.019642059 0.051636234 -0.010995931 0.062398516 -0.12453339 0.52591044 -0.48084414
-0.046248775 0.021857254 0.16557178 0.01848174 0.027947305 -0.20797999 0.05156997 -0.01490708
0.016210249 -0.52903867 0.04865592 0.07838166 -0.010334484 0.6052638 0.0718102 -0.2664682
00000000: cea0 123d ea58 a1bc 31f1 933c 28d4 49be
00000010: b313 94bd eb1a 9e3d 2719 e83b 6621 c83c
00000020: 4254 7c3c 382c 14bc c434 ab3d 71fb 0c3c
00000030: c4e3 0abe cd48 523d 3160 c23d f824 aebc
00000040: fcc9 fd3c 4789 90bc e1f8 49be f0a5 4a3d
00000050: a698 213e e5c0 5e3c d1b6 cbbe 1413 083d
00000060: 703a 203d 44df 2b3e f323 b3bd 7668 78be
00000070: aa38 5a3d 6ca3 713f b279 313e cc9b 49bf
00000080: 3228 c0bd 2c69 a63d 0d07 4a3d cda6 833d
00000090: a6c5 233e 9ddf 6cbe 3221 963d 7f0a 563d
000000a0: fcba 13be fee9 91be e05d 8fbe f703 eebc
000000b0: 08da 683d f8ec 943e 07fe b63d aa86 2d3d
000000c0: 421c 3cbe b6f9 b4bd 19e4 6c3e 1093 973e
000000d0: 377a 143e ddfa 89bc 54b2 19bf 7a4c a03e
000000e0: adc8 23bf 1a49 513e fa84 be3a cc1b 0e3e
000000f0: 218c aabd 61b0 57be 321b 86be da5a 1e3f
00000100: 0b3c b7be 151d 15bf ede4 e9bd 24ac 153d
00000110: 4e65 c33d e2c6 25bd 316d c83e f582 033d
00000120: 9ebf 4e3e 0d28 abbe 5861 e73e caee d8be
00000130: 9b86 babd 654d 213e e0c7 933d b650 93be
00000140: cd19 c63e 4b9f 7c3e 29d2 2cbc 042c de3d
00000150: 7e07 0cbe 2303 05bf 817f cf39 4a1d f6ba
00000160: f648 0b3f 60ec b8be 9dac bebe 63b2 833e
00000170: b2c4 80be 98ba 75bd d5c9 b83d 8343 013d
00000180: dd58 123e 90f0 053e 9c5c f23d c65f d9be
00000190: 151d 8e3d 6ba2 1e3f e48b bebe 7ce3 1a3f
000001a0: 6e3f d63d 62e8 a03c 8480 533d 4728 34bc
000001b0: 9695 7f3d 5d0b ffbd 11a2 063f 3431 f6be
000001c0: 5b6f 3dbd fc0d b33c a68b 293e 0567 973c
000001d0: bff1 e43c b5f8 54be 083b 533d d33c 74bc
000001e0: 5bcb 843c 146f 07bf 6e4b 473d 9086 a03d
000001f0: f851 29bc 92f2 1a3f 3a11 933d 856e 88be

gnn_layers.0.gnn.att_j f4 [1, 1, 128]
0.3079328 0.27229506 0.0014889366 0.22381794 0.024256058 -0.033856314 0.0016099028 0.097131945
0.01244402 -0.0471478 0.27216548 -0.0004448997 -0.028756963 -0.008614747 -0.0088240495 0.009136226
-0.0052999905 -0.009704936 0.4275723 0.019465325 0.118337914 0.06770541 0.0101105375 -0.022818131
-0.010979987 0.015181495 -0.0093666455 0.05660278 0.0022462662 0.22294538 -0.1428826 -0.51396054
0.053651262 -0.00752513 -0.015679797 -0.008858816 -0.028625404 -0.017745443 0.0078924345 0.0048363777
-0.0860215 0.06165255 -0.017125243 0.010706554 0.015118358 0.059454132 0.011194664 -0.005069168
-0.01631685 -0.012942114 0.12343302 -0.017549342 -0.10766468 -0.008400622 0.0022582284 -0.17283015
-0.18495473 0.07539857 -0.021031374 -0.05099011 0.08090082 -0.26957116 -0.139514 -0.43408194
-0.06720398 -0.061810434 -0.03438288 -0.008750773 0.09121456 0.012713328 0.038431287 0.020315949
-0.04477526 -0.04069174 0.02841286 -0.047208585 0.003943898 -0.025188545 -0.0010812478 -0.014754621
-0.049217343 0.0075468114 0.005620965 -0.04649422 -0.24436708 -0.08001873 -0.0018223253 0.0018769546
-0.10865502 -0.05260666 -0.30484876 -0.03299985 0.06546908 -0.04241679 0.00838742 -0.007721724
-0.02793258 0.010235977 -0.019084075 -0.14594065 -0.031232456 0.15666214 -0.070130885 0.14785318
-0.002014049 -0.08487795 -0.00389346 -0.0026745643 0.012632976 0.23677328 0.17595784 -0.024710093
0.0014380907 -0.015463062 0.039512213 -0.059815027 -0.0041225427 -0.23976707 0.008765841 0.026951374
-0.0049540238 -0.07400418 0.021281209 0.030599209 -0.00412416 0.1418606 -0.03640451 -0.08202285
00000000: 5ea9 9d3e 426a 8b3e 6c28 c33a 8830 653e
00000010: a4b4 c63c ebac 0abd 6003 d33a 1ded c63d
00000020: 01e2 4b3c 0d1e 41bd 4659 8b3e 6d41 e9b9
00000030: b993 ebbc de24 0dbc bf92 10bc 1cb0 153c
00000040: 8bab adbb 7401 1fbc c2ea da3e bf75 9f3c
00000050: 265b f23d 22a9 8a3d aba6 253c 17ed babc
00000060: 67e5 33bc cebb 783c 8f76 19bc 51d8 673d
00000070: 1836 133b cb4b 643e d14f 12be eb92 03bf
00000080: 6dc1 5b3d 5e95 f6bb eb72 80bc 9124 11bc
00000090: d37f eabc e45e 91bc 454f 013c 7a7a 9e3b
000000a0: 0a2c b0bd 6287 7c3d 3d4a 8cbc 8b6a 2f3c
000000b0: fdb2 773c 2d86 733d d369 373c 431b a6bb
000000c0: eaaa 85bc 290b 54bc 74ca fc3d a3c3 8fbc
000000d0: 4d7f dcbd c3a2 09bc c9fe 133b 63fa 30be
000000e0: c664 3dbe 916a 9a3d fd49 acbc 01db 50bd
000000f0: 54af a53d 3b05 8abe c2dc 0ebe fd3f debe
00000100: 3ea2 89bd f02c 7dbd 10d5 0cbd 675f 0fbc
00000110: b3ce ba3d 904b 503c 206a 1d3d a26d a63c
00000120: 4366 37bd 62ac 26bd 16c2 e83c ca5d 41bd
00000130: d03b 813b 3558 cebc a8b8 8dba 5ebd 71bc
00000140: 2098 49bd 3e4b f73b 1230 b83b b970 3ebd
00000150: 5d3b 7abe dce0 a3bd 17db eeba 2504 f63a
00000160: 8686 debd 157a 57bd 2315 9cbe da2a 07bd
00000170: a714 863d 3abd 2dbd 646b 093c 8406 fdbb
00000180: ded2 e4bc cdb4 273c 3556 9cbc 7771 15be
00000190: 35db ffbc 0a6c 203e c8a0 8fbd d366 173e
000001a0: 23fe 03bb 7ed4 adbd 6b29 7fbb be47 2fbb
000001b0: 8bfa 4e3c b274 723e 4b2e 343e d26c cabc
000001c0: 517e bc3a c858 7dbc 8fd7 213d 9a00 75bd
000001d0: 6516 87bb 8085 75be 9a9e 0f3c 21c9 dc3c
000001e0: 5d55 a2bb 818f 97bd ee55 ae3c 31ab fa3c
000001f0: f623 87bb e843 113e e51c 15bd 99fb a7bd

gnn_layers.0.gnn.att_em_i f4 [1, 1, 128]
-0.1404829 -0.39290354 0.1360564 -0.3238039 0.00910885 0.6570805 -0.27028304 0.28784108
0.0652055 0.21367823 0.24062465 0.51678324 0.60829467 -0.4919607 0.17091137 -0.2290537
0.00036964516 0.31893513 0.054102216 0.3266972 -0.05606167 0.5936006 0.26886722 0.2296891
0.22418001 0.1042329 0.5406949 0.112624675 -0.69551647 -0.5325735 0.40100086 -0.5024006
-0.15220758 0.17641935 0.3123892 -0.16143917 -0.20693406 0.2127179 -0.020458607 0.06698014
0.41734695 0.60882163 0.25723478 0.0031887824 -0.015649678 -0.0063651185 0.78527385 0.3522827
-0.35686705 0.3599511 0.06515684 0.24047045 0.26970884 0.46608835 0.00021146063 -0.0021184722
0.11195771 0.46982822 -0.2888577 -0.0027275744 -0.2440991 -0.5344323 0.07166598 -0.45682082
0.22869664 0.00054095103 0.123857 0.19233166 0.014644912 0.08774505 0.1026236 0.25221854
-0.04458634 -0.8552906 0.6245559 -0.030340178 0.07126628 0.10391978 0.022637272 -0.012595117
-0.52202636 0.09172767 0.37824163 0.023798423 0.23116322 0.21704198 -0.18428111 -0.20003872
0.005278812 0.4724535 0.12752743 0.22061388 0.7078146 -0.16242583 0.6595602 0.18646862
0.28334543 0.024884094 0.34522852 0.7199742 0.37452716 -0.2508531 0.021964405 0.41438475
-0.110113375 -0.1520606 0.19737658 0.20909059 -0.36703193 0.44444776 0.13594426 -0.12966833
-0.39062676 -0.070317104 -0.100721925 0.5280231 0.2845092 0.14628416 0.1787556 0.8387362
0.15373874 -0.42287248 0.35094994 0.18280095 0.12994105 0.31683868 0.4656515 -0.21305434
00000000: c0da 0fbe a72a c9be 5e52 0b3e a0c9 a5be
00000010: 493d 153c 6d36 283f 8a62 8abe e85f 933e
00000020: 768a 853d 77ce 5a3e 4f66 763e e84b 043f
00000030: 33b9 1b3f 46e2 fbbe 6403 2f3e 0e8d 6abe
00000040: efcc c139 774b a33e 499a 5d3d db44 a73e
00000050: eca0 65bd 35f6 173f f7a8 893e 9f33 6b3e
00000060: 728f 653e 0f78 d53d fb6a 0a3f c4a7 e63d
00000070: 5e0d 32bf bd56 08bf fc4f cd3e 539d 00bf
00000080: 4edc 1bbe 46a7 343e 7af1 9f3e 4f50 25be
00000090: 86e6 53be b9d2 593e cf98 a7bc e22c 893d
000000a0: 80ae d53e bcdb 1b3f 47b4 833e e4fa 503b
000000b0: c133 80bc 7c92 d0bb b507 493f 665e b43e
000000c0: 47b7 b6be 834b b83e f370 853d e33d 763e
000000d0: 4717 8a3e 22a3 ee3e 88bb 5d39 11d6 0abb
000000e0: 154a e53d 538d f03e 28e5 93be 1bc1 32bb
000000f0: 1df5 79be 8ed0 08bf 9dc5 923d 6be4 e9be
00000100: 742f 6a3e 9cce 0d3a bda8 fd3d 97f2 443e
00000110: 37f1 6f3c adb3 b33d 522c d23d ca22 813e
00000120: 2ba0 36bd 53f4 5abf e5e2 1f3f f78b f8bc
00000130: 0ef4 913d e5d3 d43d cd71 b93c c05b 4ebc
00000140: 85a3 05bf b7db bb3d e3a8 c13e e9f4 c23c
00000150: 0db6 6c3e 4140 5e3e 30b4 3cbe f3d6 4cbe
00000160: e2f9 ac3b 6de5 f13e 8d96 023e 9be8 613e
00000170: 5633 353f f552 26be f0d8 283f a1f1 3e3e
00000180: a712 913e bad9 cb3c cbc1 b03e 3b50 383f
00000190: 06c2 bf3e d16f 80be b2ee b33c 3d2a d43e
000001a0: 1f83 e1bd c6b5 1bbe 161d 4a3e d81b 563e
000001b0: 9ceb bbbe a88e e33e f934 0b3e c6c7 04be
000001c0: 3b00 c8be 6a02 90bd 4c47 cebd 862c 073f
000001d0: 31ab 913e 84cb 153e b50b 373e 6ab7 563f
000001e0: b06d 1d3e be82 d8be b6af b33e 2c30 3b3e
000001f0: 440f 053e ae38 a23e e069 ee3e eb2a 5abe

gnn_layers.0.gnn.att_em_j f4 [1, 1, 128]
0.30417866 -0.281758 -0.0076993313 -0.08477737 0.035239033 0.02129548 -0.006126326 0.7013705
0.41177136 -0.0049896757 1.5017743 1.0257772 -0.15379174 -0.5252396 0.26492015 0.04198235
0.071835965 0.0049862433 -0.01633539 0.14517118 0.009292246 0.022320574 0.49706003 0.05796308
-0.025028147 -0.020621413 -0.025687847 -0.0084382985 -0.22516523 0.007792193 0.007090547 -0.019728698
0.037949335 -0.037779607 0.11071489 -0.011825055 0.027003268 0.33411348 0.16224885 0.71396935
0.014714266 -0.004701239 1.0951362 -0.020386335 -0.023086224 -5.3864667e-05 0.09308507 0.055184264
0.009411485 -0.029090405 0.006578122 -0.023822505 0.022927672 0.26127777 0.016353225 0.2135368
0.003680128 1.3752397 0.03411602 0.10679033 0.055902276 -0.09056788 -0.020829547 -0.27985778
0.21471414 0.0006033234 0.3517675 0.07242346 0.14438024 0.002175165 0.007142764 0.025102502
0.017170029 0.2877531 1.00955 0.12522206 -1.8662921 0.02879851 0.1511519 0.0012840418
-0.3846213 -0.027721746 0.047887657 0.0030063072 0.006826408 0.0066011623 0.64127827 -0.0519547
-0.00171996 -0.23405457 0.11619174 -0.008222963 0.050980367 0.054548655 -0.013452628 0.022113405
0.021360736 -0.004838842 -0.11876711 1.2406708 0.26773778 0.26521826 -0.008142454 0.03790626
-0.061368436 0.1263571 0.47551176 0.008605608 -0.0016843281 -0.020095166 -0.016137198 -0.06614126
-0.014532782 0.63070506 0.08897338 0.037105758 0.13663758 0.3955906 0.10376129 -0.55605614
0.16344649 0.9013724 0.27694824 0.06566572 -0.0056898203 0.18253061 0.08808249 -0.17578256
00000000: 4ebd 9b3e 9642 90be ac4a fcbb c29f adbd
00000010: ce56 103d dc73 ae3c 59bf c8bb 048d 333f
00000020: b2d3 d23e 6f80 a3bb 243a c03f ab4c 833f
00000030: 957b 1dbe 1a76 06bf 9da3 873e aff5 2b3d
00000040: bc1e 933d a463 a33b ccd1 85bc c1a7 143e
00000050: 813e 183c a3d9 b63c a77e fe3e b26a 6d3d
00000060: d407 cdbc 3dee a8bc 526f d2bc ca40 0abc
00000070: b791 66be a755 ff3b d257 e83b 149e a1bc
00000080: c370 1b3d cabe 1abd 7dbe e23d e0bd 41bc
00000090: f535 dd3c ec10 ab3e 9024 263e b2c6 363f
000000a0: 1b14 713c da0c 9abb 6c2d 8c3f 3e01 a7bc
000000b0: 521f bdbc bfec 61b8 63a3 be3d e508 623d
000000c0: a132 1a3c 004f eebc 498d d73b 6a27 c3bc
000000d0: d0d2 bb3c 33c6 853e 33f7 853c 64a9 5a3e
000000e0: 4d2e 713b db07 b03f 3dbd 0b3d e3b4 da3d
000000f0: c9f9 643d a77b b9bd baa2 aabc 8549 8fbe
00000100: 06de 5b3e 5928 1e3a df1a b43e c052 943d
00000110: 6ad8 133e 378d 0e3b d90d ea3b c3a3 cd3c
00000120: 29a8 8c3c 6054 933e ef38 813f 363a 003e
00000130: a9e2 eebf daea eb3c 90c7 1a3e 4b4d a83a
00000140: 15ed c4be b718 e3bc d925 443d 7705 453b
00000150: 10b0 df3b 904e d83b d02a 243f 74ce 54bd
00000160: 4870 e1ba 00ac 6fbe eff5 ed3d 9bb9 06bc
00000170: cad0 503d 696e 5f3d 6968 5cbc 2c27 b53c
00000180: b6fc ae3c 268f 9ebb 2c3c f3bd 4dce 9e3f
00000190: ed14 893e b0ca 873e ed67 05bc 9843 1b3d
000001a0: 785d 7bbd c163 013e 4776 f33e 89fe 0c3c
000001b0: acc4 dcba 9e9e a4bc 2832 84bc 1275 87bd
000001c0: e81a 6ebc e375 213f ad37 b63d 35fc 173d
000001d0: b9ea 0b3e da8a ca3e cd80 d43d b259 0ebf
000001e0: 845e 273e 57c0 663f 29cc 8d3e c07b 863d
000001f0: ac71 babb 4ee9 3a3e 9864 b43d 5800 34be

gnn_layers.0.gnn.bias f4 [128]
0.00013809385 -0.003457388 0.02188058 0.0018507246 0.0017805008 -0.001617479 0.005259305 0.00033720484
0.0046758107 0.0022031765 -0.016182471 0.007903167 0.0006790088 -0.008450025 0.0014232297 0.0040781535
0.006618849 0.021918572 0.012938605 0.0046534003 0.08108677 0.004326335 -0.012661286 -0.0059433263
-0.00031654662 -0.0045469715 0.0053011035 -0.052272987 -0.025540015 0.00034767148 -0.004449662 -0.0036754406
0.009881454 0.006293084 0.007823218 -0.019955201 -0.017814018 0.00019411632 0.009827778 -0.003485565
-0.0045096576 0.008999079 -0.007401261 -0.0030376392 0.0021440694 -0.00059591135 -0.0006266559 -0.002019909
0.0008654815 -0.0039992137 -0.0018285837 0.0036926179 -0.0029229596 -0.004650298 0.0019976583 -0.014945629
-0.0014971194 -0.026487246 0.0021617324 0.009521977 -0.0024842198 -0.0036685374 -0.0015782559 -0.012190796
0.03943716 -3.0913427e-05 -0.0077655143 0.008866037 -0.0040005934 0.005360272 0.001386479 -0.0027957775
-0.00073024706 -0.0027426996 0.0005478632 -0.0042804466 -0.007929514 -0.0020433725 0.017136058 0.016272664
-0.0077088 -0.00055867765 -0.0010103068 0.0006141751 0.040534623 0.027300403 0.009880416 -0.0075854184
-0.03619191 0.016452888 -0.026149692 -0.0048850183 -0.026080156 -0.0024007165 0.0026989016 -0.003361089
-0.00641311 -0.0030660923 0.0008418367 0.042885646 -0.00074258936 -0.009568706 0.0045244787 1.2129268e-05
-0.0007380674 0.003976405 9.900676e-05 0.0027407364 -0.018736824 -0.019669877 0.0002820497 0.0028956113
-0.011940489 -0.0035388172 0.0014598494 0.0027974506 0.0010603027 0.002869302 0.0034714027 -0.0029169605
-0.004312537 -0.00065377017 0.0011442832 -0.0129209 0.0026355146 -0.0027610373 -0.008339862 -0.005736051
00000000: 49cd 1039 5895 62bb e73e b33c 0394 f23a
00000010: b15f e93a 9701 d4ba 3f56 ac3b deca b039
00000020: 8b37 993b 2b63 103b 1a91 84bc 497c 013c
00000030: 82ff 313a f971 0abc aa8b ba3a 08a2 853b
00000040: eee2 d83b 948e b33c 71fc 533c 8d7b 983b
00000050: d210 a63d eec3 8d3b 4871 4fbc 3cc0 c2bb
00000060: 2bf6 a5b9 c3fe 94bb e1b4 ad3b 331c 56bd
00000070: 4b39 d1bc ad47 b639 78ce 91bb a9df 70bb
00000080: d2e5 213c 3736 ce3b f42c 003c 1779 a3bc
00000090: b4ee 91bc b48b 4b39 b004 213c 146e 64bb
000000a0: c0c5 93bb df70 133c 4786 f2bb 2113 47bb
000000b0: 8483 0c3b ef36 1cba 2a46 24ba 7360 04bb
000000c0: 7be1 623a d60b 83bb 16ad efba d9ff 713b
000000d0: 208f 3fbb 8761 98bb 25eb 023b 83de 74bc
000000e0: fe3a c4ba c8fb d8bc daab 0d3b 1102 1c3c
000000f0: 4bce 22bb d86b 70bb 7bdd ceba e8bb 47bc
00000100: dc88 213d 0aa9 01b8 db75 febb db42 113c
00000110: 6917 83bb 38a5 af3b 84ba b53a 5d39 37bb
00000120: 0d6e 3fba ddbe 33bb 7a9e 0f3a fd42 8cbb
00000130: cbea 01bc 1aea 05bb eb60 8c3c 404e 853c
00000140: 1a9a fcbb 3974 12ba 456c 84ba 9800 213a
00000150: a207 263d 18a5 df3c 78e1 213c 1a8f f8bb
00000160: f83d 14bd 35c8 863c e137 d6bc 8112 a0bb
00000170: 0da6 d5bc 5755 1dbb 0ee0 303b b745 5cbb
00000180: 1125 d2bb 7ef0 48bb b4ae 5c3a dca8 2f3d
00000190: 54aa 42ba 10c6 1cbc 1442 943b cf7e 4b37
000001a0: dd7a 41ba 814c 823b d9a1 cf38 ed9d 333b
000001b0: f87d 99bc b922 a1bc 12e0 9339 4cc4 3d3b
000001c0: 0aa2 43bc 80eb 67bb 6b58 bf3a 6f55 373b
000001d0: dbf9 8a3a e60a 3c3b 7980 633b 7a2a 3fbb
000001e0: 2f50 8dbb c661 2bba c6fb 953a 2fb2 53bc
000001f0: 99b8 2c3b 85f2 34bb eba3 08bc 7cf5 bbbb

gnn_layers.0.gnn.lin.weight f4 [128, 20]
-0.29617208 0.13265668 -0.023129977 -0.08845102 0.47265446 -0.52299625 -0.107814796 0.123930626
0.35404646 -0.4171681 0.23106503 -0.071256116 0.044429265 0.20651232 -0.63265145 0.49574608
0.24224272 -0.072376035 -0.5166285 0.43503493 0.20772748 0.2518543 0.049071472 -0.16066307
-0.036790237 0.019760286 -0.07315015 0.5016483 -0.6628547 -0.076484434 0.46857724 0.25825447
-0.28266096 -0.10317646 0.067416914 0.13825558 0.029499939 -0.8239494 0.2822208 -0.018195488
0.09929994 0.0032103185 0.023318632 0.012916855 -0.06284733 -0.008859838 0.009187667 -0.25232798
0.18258181 0.23339604 -0.14690584 0.01416902 -0.005605759 0.012852694 0.13438354 -0.034936607
0.13074607 0.21678054 0.16356632 -0.030859804 0.7886178 0.19245197 -0.18085846 0.29442862
-0.17638445 -0.6183509 -0.5617041 -0.12267609 -0.024764514 -0.23730877 0.47542128 0.29102588
0.028121874 -0.16949719 -0.021808691 -0.2710492 0.138133 0.15994972 -0.06713325 0.21520634
0.458157 -0.0848558 -0.12769563 -0.05605465 0.062200133 -0.055489328 -0.014285012 -0.33369136
-0.029819796 0.19227839 0.540705 -0.33663952 0.018378025 -0.018699659 0.012921369 0.2998621
-0.045000844 -0.044082984 -0.24170159 -0.36613372 -0.15038739 -0.14037637 0.46870226 -0.12921771
-0.04713908 -0.21663891 0.23684864 0.30684346 0.24279276 -0.55029225 -0.4940318 0.65937036
0.16520865 -0.21419705 -0.1938526 0.3284664 0.29925513 0.061470613 -0.36566427 0.11265883
-0.066291645 -0.050662763 0.1836952 0.02797021 0.006747962 0.048558407 0.012410508 0.0016679642
0.060013328 0.07273599 -0.12344429 -0.031676948 0.11386184 0.0013765906 0.1129609 -0.08532663
0.20815761 -0.053073965 0.015027983 0.23558295 0.47119614 -0.12464096 -0.14104886 -0.014853069
-0.057544064 0.3319548 0.20792522 -0.32431632 -0.0073356284 0.17842108 0.54598576 -0.53427386
-0.30100113 0.13050105 0.121661484 0.25734875 -0.28142986 -0.2010097 -0.27023575 0.5261685
-0.14073744 0.13215633 -0.1609572 -0.261295 0.082953975 0.055396926 0.16046259 -0.20854063
0.102318786 0.105783634 -0.053397648 0.18487562 -0.15144834 0.437057 -0.032752022 -0.027669445
0.0073965844 0.23253784 -0.40350565 0.65623665 -0.5180505 0.113082275 0.02151582 0.06491207
0.10630325 0.060431264 0.09545695 0.14872341 0.25337344 0.18354048 -0.33535433 -0.016754318
0.34347048 -0.034000993 -0.13649854 0.03793769 0.267812 -0.02789668 0.18660612 -0.624146
0.3635421 -0.2949952 0.03875185 -0.203517 -0.046592735 0.16234763 0.28219882 -0.14596014
-0.11488865 0.42205268 0.4417055 0.084406875 0.016796269 -0.054003645 0.13314636 0.14085552
0.23209538 0.019543597 -0.13076173 0.8810386 0.066282555 0.007817307 0.03915845 -0.041292854
0.06880054 -0.12649342 -0.10050231 0.0038082453 0.14021304 0.027020914 -0.0350184 -0.010312518
-0.18826462 -0.06531458 0.061449353 0.005131848 0.09931701 -0.07601864 0.122884884 -0.05525366
-0.19836226 0.28378907 0.102010235 -0.04188848 0.16701147 -0.19454797 0.025859676 -0.11191938
-0.08503252 -0.09647791 -0.13451424 0.17453429 0.07010905 0.14701764 0.03188733 0.030714972
00000000: dea3 97be 27d7 073e 147b bdbc cf25 b5bd
00000010: c4ff f13e 15e3 05bf 01ce dcbd 57cf fd3d
00000020: 9445 b53e 0f97 d5be 509c 6c3e baee 91bd
00000030: 76fb 353d f777 533e 72f5 21bf 6ed2 fd3e
00000040: 7a0e 783e e339 94bd c441 04bf e6bc de3e
00000050: 83b6 543e 0cf3 803e 2bff 483d dc84 24be
00000060: 5cb1 16bd 53e0 a13c bfcf 95bd 066c 003f
00000070: d8b0 29bf dfa3 9cbd 5be9 ef3e ee39 843e
00000080: f0b8 90be 2e4e d3bd e111 8a3d df92 0d3e
00000090: dba9 f13c 59ee 52bf 3f7f 903e b40e 95bc
000000a0: c45d cb3d 3564 523b b706 bf3c 37a1 533c
000000b0: 1ab6 80bd db28 11bc de87 163c 2231 81be
000000c0: baf6 3a3e 5fff 6e3e 7c6e 16be 2d25 683c
000000d0: 84b0 b7bb 1b94 523c d79b 093e b019 0fbd
000000e0: 4ce2 053e b8fb 5d3e ee7d 273e b3cd fcbc
000000f0: dbe2 493f 2112 453e f632 39be 59bf 963e
00000100: 209e 34be 3f4c 1ebf d7cb 0fbf 9a3d fbbd
00000110: f3de cabc 1201 73be 6b6a f33e 5801 953e
00000120: d85f e63c ac90 2dbe 24a8 b2bc f6c6 8abe
00000130: bd72 0d3e dcc9 233e 287d 89bd 0d5f 5c3e
00000140: 8e93 ea3e e1c8 adbd a5c2 02be 9099 65bd
00000150: 91c5 7e3d c748 63bd af0b 6abc 98d9 aabe
00000160: a548 f4bc a0e4 443e a56b 0a3f 045c acbe
00000170: 838d 963c 0730 99bc 26b4 533c 8687 993e
00000180: ce52 38bd 5c90 34bd 9f80 77be e175 bbbe
00000190: 27ff 19be d3be 0fbe bef9 ef3e a651 04be
000001a0: e814 41bd 97d6 5dbe 7388 723e 961a 9d3e
000001b0: aa9e 783e f4df 0cbf bcf1 fcbe 7fcc 283f
000001c0: 752c 293e 7956 5bbe 4c81 46be bf2c a83e
000001d0: f837 993e 9cc8 7b3d 5938 bbbe acb9 e63d
000001e0: eac3 87bd c283 4fbd 981a 3c3e c821 e53c
000001f0: 021e dd3b 2ee5 463d 7155 4b3c 979f da3a
00000200: 89d0 753d 9bf6 943d 5cd0 fcbd b0bf 01bd
00000210: 6530 e93d b76e b43a 0b58 e73d babf aebd
00000220: 4527 553e 1664 59bd ee37 763c a83c 713e
00000230: 9f40 f13e c243 ffbd 1d6f 10be 495a 73bc
00000240: 53b3 6bbd fbf5 a93e 59ea 543e ca0c a6be
00000250: b65f f0bb 04b4 363e b9c5 0b3f 2cc6 08bf
00000260: d21c 9abe 11a2 053e a829 f93d 37c3 833e
00000270: 9317 90be 7dd5 4dbe 575c 8abe fbb2 063f
00000280: 7a1d 10be fd53 073e f7d1 24be 75c8 85be
00000290: c6e3 a93d e3e7 623d 4e50 243e ad8b 55be
000002a0: 838c d13d 17a5 d83d 7eb7 5abd 0950 3d3e
000002b0: 4615 1bbe efc5 df3e fc26 06bd 08ab e2bc
000002c0: 0c5f f23b 661e 6e3e 4b98 cebe 20ff 273f
000002d0: f59e 04bf ae97 e73d f241 b03c 9ff0 843d
000002e0: 85b5 d93d c686 773d ef7e c33d f34a 183e
000002f0: 2aba 813e 09f2 3b3e 90b3 abbe 5a40 89bc
00000300: 5ddb af3e a044 0bbd 46c6 0bbe 8d64 1b3d
00000310: a81e 893e 9487 e4bc ad15 3f3e 08c8 1fbf
00000320: 3122 ba3e 9c09 97be 43ba 1e3d c366 50be
00000330: 06d8 3ebd 753e 263e 5d7c 903e 9376 15be
00000340: be4a ebbd 4a17 d83e 3927 e23e 83dd ac3d
00000350: 5498 893c ed32 5dbd 8557 083e 6e3c 103e
00000360: 69aa 6d3e e519 a03c 67e6 05be bf8b 613f
00000370: 26bf 873d 2914 003c 9c64 203d b222 29bd
00000380: 4ce7 8c3d 7e87 01be 28d4 cdbd c193 793b
00000390: 0294 0f3e f75a dd3c 746f 0fbd d6f5 28bc
000003a0: 71c8 40be a7c3 85bd 51b2 7b3d 1029 a83b
000003b0: b766 cb3d a9af 9bbd 12ab fb3d a951 62bd
000003c0: 7a1f 4bbe cd4c 913e beea d03d 4193 2bbd
000003d0: 0e05 2b3e 9537 47be acd7 d33c fd35 e5bd
000003e0: 8825 aebd 3696 c5bd 1abe 09be 1eb9 323e
000003f0: 5595 8f3d cb8b 163e 4a9c 023d f79d fb3c

gnn_layers.0.bn.weight f4 [128]
0.77814037 0.73288566 0.55443096 0.62897456 0.24116145 0.94925636 0.3904153 1.413578
0.9300141 0.2211983 -0.18068498 0.13777739 0.39093557 0.27753466 0.38086373 -0.24358195
0.5088892 0.382544 0.74094003 0.7735183 0.8051225 0.15900952 0.7881747 0.54244494
-0.11657747 0.9507566 0.32975122 0.57203484 0.17261833 0.8845722 0.44644994 0.5849948
0.8098527 0.42934138 0.39395878 0.31228444 0.32603684 0.37933215 0.7140897 0.44964284
0.3045126 0.3875874 0.46038303 0.13191259 0.73186475 0.3977512 1.0593181 1.2892367
0.74076563 0.42156398 1.3622336 0.5479289 0.24188183 -0.32169962 0.72380865 0.5633281
0.7570518 0.23644051 -0.20205918 1.1004986 0.8509103 0.34073567 0.74157125 0.6391994
0.49273214 0.75832856 0.23710158 0.5534209 0.9243952 0.38246512 0.4035137 0.8274265
0.44868603 0.47647133 0.81599146 0.47125083 0.8173494 1.0689609 0.3683771 0.31091747
0.33774328 0.3379432 0.29689008 0.5794239 0.5797314 0.44698265 0.011483666 0.40315357
0.56374055 0.8006593 0.35582384 0.41113186 0.17814998 0.75521666 0.39026022 0.35811028
0.30336702 0.5300775 0.38078347 0.48745427 0.5883829 0.36647102 0.5415532 0.64398867
0.78123206 0.68689257 0.6206186 0.39463714 0.7237108 0.74059737 0.72430724 0.65345275
0.5722394 0.30837587 1.6312097 0.6048295 0.57650936 0.7147385 0.79444766 0.2515532
0.54709613 1.0448477 0.8908415 0.39466417 0.011832774 1.3084513 0.52909654 -0.49236017
00000000: 3534 473f 659e 3b3f 30ef 0d3f 7a04 213f
00000010: 07f3 763e 7702 733f 84e4 c73e 20f0 b43f
00000020: 6715 6e3f cf81 623e 7c05 39be 8415 0d3e
00000030: b528 c83e 0619 8e3e 9200 c33e 8c6d 79be
00000040: 9046 023f cfdc c33e 3fae 3d3f 4c05 463f
00000050: 821c 4e3f 64d3 223e d1c5 493f acdd 0a3f
00000060: 2bc0 eebd c964 733f 27d5 a83e e070 123f
00000070: dcc2 303e 5373 623f 1695 e43e 38c2 153f
00000080: 8252 4f3f a2d2 db3e f7b4 c93e bfe3 9f3e
00000090: 4dee a63e d337 c23e 95ce 363f 9637 e63e
000000a0: 13e9 9b3e db71 c63e 53b7 eb3e 1814 073e
000000b0: 7d5b 3b3f 0ca6 cb3e bc97 873f b505 a53f
000000c0: d1a2 3d3f 3cd7 d73e ac5d ae3f 1245 0c3f
000000d0: dfaf 773e d0b5 a4be 864b 393f 4536 103f
000000e0: 26ce 413f 761d 723e 9ae8 4ebe 23dd 8c3f
000000f0: 42d5 593f e874 ae3e 9dd7 3d3f 92a2 233f
00000100: 6347 fc3e d221 423f c2ca 723e feac 0d3f
00000110: 2aa5 6c3f 78d2 c33e 5999 ce3e 39d2 533f
00000120: 2dba e53e 0df4 f33e d1e4 503f ca47 f13e
00000130: cf3d 513f b6d3 883f ec9b bc3e 9330 9f3e
00000140: b0ec ac3e e406 ad3e fa01 983e 2055 143f
00000150: 4769 143f e9da e43e fc25 3c3c 256a ce3e
00000160: 4d51 103f 02f8 4c3f 8b2e b63e e07f d23e
00000170: f36c 363e e155 413f 30d0 c73e 3b5a b73e
00000180: ec52 9b3e 29b3 073f 0df6 c23e 9b93 f93e
00000190: 43a0 163f 17a2 bb3e 3ba3 0a3f 71dc 243f
000001a0: d3fe 473f 31d8 2f3f dce0 1e3f e10d ca3e
000001b0: 1c45 393f ca97 3d3f 336c 393f ae48 273f
000001c0: 487e 123f 71e3 9d3e 7bcb d03f 1bd6 1a3f
000001d0: 1e96 133f 1af9 363f ec60 4b3f 95cb 803e
000001e0: 7e0e 0c3f 92bd 853f 300e 643f 6c11 ca3e
000001f0: 40de 413c 557b a73f df72 073f a216 fcbe

gnn_layers.0.bn.bias f4 [128]
-0.36984348 -0.22750324 0.43158638 -0.083978325 0.5957735 -0.09451339 0.5585905 0.04589136
0.18970934 0.65520436 0.7502547 -0.6319581 0.54679394 0.54949087 0.6540161 0.57146376
0.4149633 -0.32174626 -0.32598215 0.26640558 -0.19731784 0.7111724 -0.39480126 -0.020806722
0.8327084 -0.16984102 -0.4588555 -0.4534314 0.7413949 -0.19757515 0.44966918 -0.3332815
-0.32112917 0.6046526 0.759042 0.4843878 0.5341272 0.6807336 0.31176946 0.46182382
0.63081616 -0.3292198 0.481831 -0.76948684 0.27631694 -0.755566 0.2398522 0.19823381
0.25343356 0.59175664 -0.17451605 0.7358363 0.56785583 0.5664709 -0.42398447 -0.38636604
-0.24973692 -0.7164646 0.831621 -0.10419662 0.13764802 0.6799469 -0.27370524 -0.4093683
-0.46172655 -0.47203404 0.6282648 0.5492662 0.15063383 0.37172762 -0.99175745 0.38214102
-0.53551984 0.3609901 0.5131826 0.5130852 -0.15737832 0.15725665 0.4738983 -0.37791282
0.63132834 0.6277174 0.6273563 -0.38959628 -0.4057104 -0.22909886 -0.571438 0.590427
-0.36964765 -0.22800152 0.6163711 -0.44900447 0.7354672 -0.3409746 -0.5325879 0.5344349
0.5629023 -0.58653075 0.54723585 -0.4774397 0.44947627 0.63334566 -0.28669208 0.41067213
0.24850604 0.33169425 0.3408016 0.48307708 -0.3806367 -0.20674372 -0.6918725 -0.45928183
0.3751449 -0.807618 0.010209296 -0.16281758 0.39733073 -0.183251 0.31306115 0.86405647
0.43930972 0.038736563 -0.24377514 0.60734904 0.9841906 0.16593675 0.47983482 0.506171
00000000: 205c bdbe 9cf6 68be e4f8 dc3e d4fc abbd
00000010: 9d84 183f 3c90 c1bd c9ff 0e3f 94f8 3b3d
00000020: 2a43 423e 79bb 273f b110 403f 02c8 21bf
00000030: b0fa 0b3f 6fab 0c3f 996d 273f 734b 123f
00000040: 1276 d43e edbb a4be 22e7 a6be 5066 883e
00000050: b00d 4abe 650f 363f 6423 cabe dc72 aabc
00000060: 612c 553f ceea 2dbe 1cef eabe 2928 e8be
00000070: 0ecc 3d3f 2451 4abe 0a3b e63e dfa3 aabe
00000080: 0b6b a4be 83ca 1a3f 9450 423f ad01 f83e
00000090: 8fbc 083f 8f44 2e3f 3fa0 9f3e 2c74 ec3e
000000a0: 2b7d 213f 7f8f a8be 8eb2 f63e 17fd 44bf
000000b0: 6a79 8d3e c66c 41bf d19b 753e cefd 4a3e
000000c0: 0bc2 813e 5d7d 173f 56b4 32be c55f 3c3f
000000d0: 005f 113f 3d04 113f 7e14 d9be c5d1 c5be
000000e0: 09bb 7fbe 396a 37bf 1de5 543f 0a65 d5bd
000000f0: 9af3 0c3e 0011 2e3f 1823 8cbe b998 d1be
00000100: 6c67 ecbe 72ae f1be f6d5 203f b69c 0c3f
00000110: c13f 1a3e 1553 be3e d1e3 7dbf fda7 c33e
00000120: d417 09bf b2d3 b83e ef5f 033f 8d59 033f
00000130: c827 21be e307 213e cca2 f23e ca7d c1be
00000140: bc9e 213f 16b2 203f 6c9a 203f 2a79 c7be
00000150: 46b9 cfbe e498 6abe c349 12bf 3926 173f
00000160: 7542 bdbe 3b79 69be 7fca 1d3f eae3 e5be
00000170: 9447 3c3f 3994 aebe ae57 08bf bad0 083f
00000180: 5d1a 103f e126 16bf a617 0c3f fa72 f4be
00000190: c121 e63e f122 223f 4ec9 92be 9e43 d23e
000001a0: 5e78 7e3e d4d3 a93e 8c7d ae3e e155 f73e
000001b0: d0e2 c2be a0b4 53be 8e1e 31bf fd26 ebbe
000001c0: fe12 c03e 0ec0 4ebf e444 273c a7b9 26be
000001d0: ef6e cb3e 26a6 3bbe 8d49 a03e ce32 5d3f
000001e0: 34ed e03e 3baa 1e3d 31a0 79be 3a7b 1b3f
000001f0: eaf3 7b3f 53eb 293e e9ac f53e 6c94 013f

gnn_layers.0.bn.running_mean f4 [128]
-0.0004796391 0.004910448 0.17182557 0.030844355 -0.04068462 0.078341454 0.15784581 0.109993495
0.16598147 0.036382873 0.47216484 -0.0053339885 -0.15191412 0.13864468 0.12964828 -0.073505186
0.11341225 -0.15187116 0.029682532 0.16045313 0.11136748 0.10235769 -0.34815106 -0.0406562
-0.06164768 0.20831968 -0.224559 -0.04492383 0.12890941 0.013790538 0.10389597 -0.0037405766
-0.03399235 0.18254271 0.108862065 0.15276723 0.05352799 -0.054029115 0.14171073 0.06880257
0.097674996 -0.15636058 -0.31429628 0.018666323 0.18746474 0.26984233 0.086913764 0.09923305
-0.16452149 -0.23810622 0.0630889 0.24170493 0.17170636 -0.12865725 -0.42846817 -0.0025341667
-0.9121456 0.1444676 -0.11621253 0.070584215 0.1483593 -0.08295333 6.2817358e-06 0.00056362746
-0.26996988 -0.6452143 0.19101231 0.07363941 0.25351167 -0.10535735 0.33117288 0.16854624
0.17217755 -0.19933145 0.15062644 -0.28769106 -0.079716556 0.16204448 0.06415997 -0.019150415
0.1592735 -0.19882286 -0.049190715 0.20482175 -0.0013998578 -0.2529241 0.010088563 0.10361846
-0.24310768 0.015669258 -0.10239356 0.07900475 -0.16870466 -0.18756388 0.217373 0.09217674
0.22022344 0.1362934 0.111968875 -0.29285654 0.055061042 0.35557753 -0.05068787 0.7162932
0.13522561 -0.11160428 0.11464318 -0.10481104 -0.28246626 -0.06786281 0.13449267 -0.19369966
-0.18082273 -0.16177371 0.15184276 0.13297617 0.11920759 -0.09938765 0.16264944 0.100049235
0.12240279 -0.60157335 0.21665457 0.25577438 -0.011843533 0.51850355 0.0665644 -0.11332622
00000000: 1278 fbb9 d3e7 a03b 0bf3 2f3e 4dad fc3c
00000010: eba4 26bd 7c71 a03d 55a2 213e 4544 e13d
00000020: 0cf7 293e 3506 153d 97bf f13e bdc8 aebb
00000030: 608f 1bbe dff8 0d3e 85c2 043e e389 96bd
00000040: af44 e83d 1d84 1bbe c828 f33c d34d 243e
00000050: a214 e43d e9a0 d13d db40 b2be 1e87 26bd
00000060: 4782 7cbd c151 553e cbf2 65be 0d02 38bd
00000070: d400 043e b5f1 613c 69c7 d43d 7624 75bb
00000080: 903b 0bbd 7aec 3a3e 13f3 de3d 036f 1c3e
00000090: 2a40 5b3d a24d 5dbd 9e1c 113e 5de8 8c3d
000000a0: d409 c83d fd1c 20be 71eb a0be 1eea 983c
000000b0: c2f6 3f3e c628 8a3e d8ff b13d b33a cb3d
000000c0: 5278 28be 1ed2 73be c134 813d 7f81 773e
000000d0: cbd3 2f3e babe 03be 2e60 dbbe 4314 26bb
000000e0: 6082 69bf 51ef 133e d600 eebd 758e 903d
000000f0: 80eb 173e 6fe3 a9bd b3c7 d236 66c0 133a
00000100: 7e39 8abe c42c 25bf bb98 433e 42d0 963d
00000110: 48cc 813e 98c5 d7bd 7e8f a93e 6397 2c3e
00000120: 504f 303e 8b1d 4cbe d13d 1a3e 3e4c 93be
00000130: 6f42 a3bd fdee 253e 4d66 833d 55e1 9cbc
00000140: 9818 233e 3898 4bbe 347c 49bd cbbc 513e
00000150: 6f7b b7ba 457f 81be 804a 253c ea35 d43d
00000160: 38f1 78be d15c 803c b7b3 d1bd 3ecd a13d
00000170: eac0 2cbe bf10 40be 0797 5e3e 29c7 bc3d
00000180: 4182 613e 7f90 0b3e f04f e53d 4bf1 95be
00000190: b087 613d 420e b63e 159e 4fbd fe5e 373f
000001a0: 9578 0a3e c990 e4bd 0bca ea3d 2ca7 d6bd
000001b0: 6b9f 90be a8fb 8abd 72b8 093e 3459 46be
000001c0: 9829 39be 02a8 25be ab7c 1b3e e82a 083e
000001d0: 1c23 f43d c18b cbbd 938d 263e 9de6 cc3d
000001e0: 50ae fa3d b600 1abf b2da 5d3e dcf4 823e
000001f0: 610b 42bc a6bc 043f eb52 883d 9417 e8bd
