model_normal/gdn_smap50.pth (torch, 21877 bytes, 16 tensors)

embedding.weight f4 [38, 64]
0	0xbe9139db	-0.28364453
1	0xbdf654a7	-0.12027865
2	0xbe15aa6a	-0.14615789
3	0x3ef86fbf	0.48522756
4	0xbece2a4b	-0.40266642
5	0xbd0b9576	-0.034078084
6	0x3efc31f7	0.4925687
7	0xbe0ccbfd	-0.1374969
8	0xbda3d22a	-0.0799907
9	0xbe1f165f	-0.15535878
10	0xbee9ba8e	-0.45650142
11	0xbe248e97	-0.16070019
12	0x3d3669b3	0.044534396
13	0xbd5a4fdd	-0.05329882
14	0x3d2ea49c	0.042637452
15	0xbf8efb9f	-1.1170539
16	0x3f222d11	0.63350016
17	0x3ea1061c	0.31449974
18	0xbdd9946f	-0.106240146
19	0x3e3ca07d	0.18420596
20	0x3e92036b	0.28518233
21	0xbea490ad	-0.3214163
22	0x3e91d562	0.2848311
23	0xbe1ae01c	-0.15124553
24	0x3e04cb8d	0.12968273
25	0xbec38fc0	-0.3819561
26	0xbd947016	-0.07247941
27	0xbdc1024b	-0.094242655
28	0xbf27a3a9	-0.654841
29	0x3d8c0920	0.06837678
30	0xbecbcbcf	-0.3980393
31	0xbdd6faba	-0.10497041
32	0xbe05e17f	-0.13074301
33	0xbedd80dd	-0.43262377
34	0xbddd0f94	-0.10793987
35	0xbee60687	-0.44926855
36	0xbeecc8a9	-0.46246842
37	0x3eca3c9b	0.39499363
38	0xbe5bdc7d	-0.21470828
39	0xbed2500a	-0.4107669
40	0x3e7a6b02	0.24454883
41	0x3ea6c054	0.3256861
42	0x3ebeb1ae	0.37244934
43	0x3eb6d439	0.35708788
44	0x3eadbbce	0.33932346
45	0xbcdda18a	-0.027054567
46	0xbec63b30	-0.3871703
47	0xbe4e85e7	-0.20168267
48	0x3ed5e252	0.4177423
49	0xbdb0b698	-0.08628577
50	0xbcfc8edd	-0.030829841
51	0xbb757650	-0.0037454553
52	0x3e688e8b	0.22710626
53	0xbf1f5b73	-0.62248915
54	0xbdc2c1a1	-0.09509588
55	0xbe129ee2	-0.14318421
56	0x3975a34c	0.00023425854
57	0xbe40ed9c	-0.18840641
58	0xbe01819e	-0.12647101
59	0xbf15f23e	-0.5857276
60	0xbe1f5c91	-0.15562655
61	0xbeadb2ad	-0.3392538
62	0x3d2e4c5b	0.042553287
63	0xbea39826	-0.31952018
64	0xbf084800	-0.53234863
65	0xbdc99ec8	-0.09844738
66	0xbe8101f9	-0.25196818
67	0x3f004b87	0.50115246
68	0x3cc8526f	0.02445337
69	0x3e7a31d3	0.24433069
70	0x3eeb15db	0.45915112
71	0xbd9a9349	-0.07547624
72	0xbe1474c8	-0.14497674
73	0xbe820395	-0.25393358
74	0xbe33be61	-0.17553093
75	0xbe41750a	-0.18892303
76	0x3e0484da	0.12941304
77	0x3e922f5d	0.2855176
78	0x3d92e768	0.071730435
79	0x3d96eb26	0.0736907
80	0x3e8995a2	0.26871973
81	0x3e6d2079	0.23156919
82	0x3d3c245b	0.04593311
83	0x3eb37c2e	0.3505568
84	0x3dd2507f	0.1026926
85	0xbe3bf9dc	-0.18357033
86	0x3ea0b82e	0.31390518
87	0xbe2f76d3	-0.17135172
88	0x3e1b04f5	0.1513861
89	0xbe1ef07f	-0.1552143
90	0xbe5405d4	-0.20705348
91	0xbe751ecd	-0.23937531
92	0xbdc24f4a	-0.094877794
93	0x3ec9f3c0	0.3944378
94	0xbeb47ae5	-0.3525001
95	0xbe714d66	-0.23564681
96	0xbe0b1754	-0.13583118
97	0xbe57407f	-0.21020697
98	0xbcf5dd09	-0.030012624
99	0xbd59855c	-0.053105697
100	0xbdb088bb	-0.08619829
101	0x3eea0328	0.45705533
102	0xbe8e91ef	-0.27845713
103	0xbe96096e	-0.2930407
104	0x3f0df08b	0.55445164
105	0x3ede2e55	0.43394724
106	0x3e317553	0.17329912
107	0x3e996805	0.29962173
108	0xbcab2bfa	-0.020894993
109	0x3d234da7	0.039868977
110	0xbecf97c5	-0.40545478
111	0xbe760363	-0.2402473
112	0xbe439a06	-0.19101724
113	0xbe8902ec	-0.26760042
114	0xbdfd1853	-0.12358155
115	0x3dabf6a9	0.08396656
116	0xbe09bb14	-0.13450271
117	0xbe5b8cde	-0.21440455
118	0xbddc3940	-0.10753107
119	0xbf6837c3	-0.90710086
120	0xbe5fd40d	-0.21858235
121	0xbe9cc001	-0.30615237
122	0xbe3402f7	-0.17579256
123	0xbe87c73f	-0.265192
124	0xbec098aa	-0.37616473
125	0xbe98dfb5	-0.29858175
126	0x3e7ea0b9	0.24865998
127	0xbd9a09f2	-0.07521428
128	0xbd8ae172	-0.067812815
129	0xbd88611e	-0.06659149
130	0xbf505c7b	-0.81391114
131	0x3f343566	0.7039398
132	0x3f08e2e2	0.53471196
133	0xbd00eb0c	-0.03147416
134	0xbe360666	-0.17775878
135	0xbf8766f4	-1.0578294
136	0x3ef64771	0.4810138
137	0x3db152f3	0.086583994
138	0xbe1a347b	-0.15059082
139	0xbe1dafa3	-0.15399031
140	0x3da12348	0.078680575
141	0x3e39fe4c	0.18163413
142	0x3ec131dd	0.37733355
143	0x3ca38ab2	0.019963596
144	0x3c71d32b	0.014759819
145	0xbe4e5475	-0.20149405
146	0x3ed6dbc9	0.41964558
147	0xbe8d1b15	-0.27559724
148	0x3e88b726	0.2670223
149	0xbefd721f	-0.4950113
150	0x3f06d516	0.52668893
151	0xbe17ff98	-0.14843595
152	0xbfdf9eba	-1.7470315
153	0xbe0bde15	-0.13658936
154	0x3e8ae8f3	0.2713085
155	0xbe2b42f7	-0.16724764
156	0xbefe2b62	-0.49642473
157	0xbddb5a6e	-0.107106075
158	0xbef5fa8d	-0.48042718
159	0xbd77579d	-0.06038629
160	0xbdf391d2	-0.118930474
161	0xbe17f624	-0.14839989
162	0xbc269e4e	-0.010169579
163	0x3e9dbcc0	0.30808067
164	0xbf048a85	-0.51773864
165	0x3db94897	0.090470485
166	0xbdab44e3	-0.083627485
167	0x3da614d1	0.08109439
168	0x3dab953a	0.08378072
169	0x38ee078f	0.00011350132
170	0x3ea8a245	0.32936302
171	0xbeb7c89b	-0.35895237
172	0xbf554419	-0.83307034
173	0x3db5924a	0.08865793
174	0xbe42c98b	-0.19022195
175	0x3e7807f0	0.24221778
176	0x3ecc6d4e	0.39927143
177	0xbd02dcff	-0.03194904
178	0x3ef9aea5	0.48766056
179	0x3f20d364	0.62822556
180	0x3ee01dd4	0.43772757
181	0xbf112db1	-0.56710345
182	0xbe2bd7e3	-0.16781573
183	0x3e9db800	0.30804443
184	0x3eacad3e	0.33725923
185	0xbddd9a83	-0.108204864
186	0xbde15a1d	-0.11003516
187	0xbf1ab5a8	-0.60433435
188	0xbdc32524	-0.095285684
189	0xbed43bc9	-0.41451862
190	0x3e7c4b7b	0.24638169
191	0xbefe57c9	-0.4967635
192	0xbf0311f6	-0.5119928
193	0xbee2fc80	-0.44333267
194	0xbe1ca12a	-0.15295854
195	0x3e5805c6	0.21095952
196	0xbd707133	-0.058701705
197	0x3c8bd443	0.017068988
198	0x3e9d610a	0.30738097
199	0xbef1f6ee	-0.47258705
200	0x3c16e298	0.009209298
201	0xbd739cdc	-0.059475765
202	0xbf2bab26	-0.67058027
203	0xbf143fbc	-0.5790975
204	0x3ed5d2b3	0.41762313
205	0x3f0c68dc	0.548475
206	0x3e5697f8	0.20956409
207	0x3f00c56e	0.50301254
208	0x3f0625f0	0.5240164
209	0x3ea0d945	0.31415763
210	0xbb82957e	-0.003985106
211	0x3eadb1ff	0.33924863
212	0xbbcfd6b6	-0.006342734
213	0x3dce41e4	0.100711614
214	0xbdf483c6	-0.11939196
215	0xbef39526	-0.4757473
216	0x3c2b3100	0.010448694
217	0xbeea3eaa	-0.45750934
218	0xbe68a952	-0.2272084
219	0xbdce9fbc	-0.10089061
220	0xbeefdf63	-0.46850118
221	0x3f145b23	0.57951564
222	0xbed9f8d9	-0.42572668
223	0xbe28fb81	-0.16502191
224	0xbf1557fd	-0.58337384
225	0xbe95bd77	-0.29246113
226	0x3efed2ee	0.49770302
227	0xbe73a5d3	-0.23793726
228	0xbe8813da	-0.26577646
229	0x3eb7730d	0.35829964
230	0xbed4b66a	-0.4154542
231	0xbfbeb9b8	-1.4900427
232	0x3ef5c88f	0.48004577
233	0x3ec03021	0.3753672
234	0x3e6ecddf	0.23320721
235	0x3ee268f0	0.44220686
236	0x3e9ec08a	0.3100627
237	0x3cdedda1	0.02720529
238	0xbe237f2b	-0.1596648
239	0xbebb4d0e	-0.36582226
240	0x3ea0a8e4	0.31378853
241	0xbe070b4f	-0.13187908
242	0xbc8125c1	-0.015765073
243	0x3eb9f402	0.36318976
244	0xbd738b87	-0.059459236
245	0xbed0ec79	-0.40805414
246	0xbf00a429	-0.5025049
247	0xbf004804	-0.5010989
248	0x3dbb1cc8	0.09136349
249	0xbe991223	-0.2989665
250	0xbd6b29bb	-0.057412844
251	0xbed13aeb	-0.40865263
252	0xbe462a6e	-0.19352123
253	0xbe9f4894	-0.3111006
254	0x3e1f254b	0.1554157
255	0xbe86163c	-0.26188838

bn_outlayer_in.weight f4 [64]
0	0x3f17ad28	0.5924859
1	0x3f33aa94	0.70182157
2	0x3f1b49b4	0.6065934
3	0x3e05e8b6	0.13077053
4	0x3edd5c10	0.432343
5	0x3ec7dc40	0.39035225
6	0x3efcae81	0.49351886
7	0x3f3f3b3a	0.7469975
8	0x3e24b5c1	0.16084959
9	0x3f158958	0.58412695
10	0x3f45879f	0.77160066
11	0x3f5933ee	0.84844863
12	0x3e55c053	0.20874147
13	0x3eb77cb6	0.35837334
14	0x3e5eda11	0.21762873
15	0x3e35379c	0.17696995
16	0x3edf73c8	0.43643022
17	0x3ea52ef6	0.3226239
18	0x3ed29c19	0.41134718
19	0x3efb93aa	0.49136096
20	0x3ef86437	0.48513958
21	0x3e5a9d55	0.2134908
22	0x3e49231c	0.196423
23	0x3f426727	0.7593865
24	0x3edc46c1	0.4302273
25	0x3f4b4f5e	0.7941798
26	0x3f038ce3	0.5138685
27	0x3f52a11c	0.82277083
28	0x3e8990cb	0.2686828
29	0x3ec98882	0.3936196
30	0x3f0da82d	0.5533474
31	0x3f5a7525	0.85335
32	0x3f5569ee	0.8336476
33	0x3f2df67d	0.67954236
34	0x3eb54496	0.3540389
35	0x3f68c4d1	0.9092532
36	0x3ed51c2b	0.41623053
37	0x3ece5076	0.40295762
38	0x3f3c00f6	0.73438966
39	0x3ebd03a9	0.36916855
40	0x3efcfb78	0.49410605
41	0x3f05ebdc	0.5231302
42	0x3eacfa48	0.337847
43	0x3ef27380	0.47353745
44	0x3e932a96	0.28743428
45	0x3f040e1a	0.5158402
46	0x3f1b575d	0.6068018
47	0x3f06a2b6	0.5259203
48	0x3ed0fece	0.408194
49	0x3f463840	0.7742958
50	0x3eeb5f42	0.45971113
51	0x3eb19c49	0.3468955
52	0x3e5d5302	0.21613696
53	0x3e99a3c8	0.30007768
54	0x3f4c4a75	0.7980111
55	0x3f21fa72	0.63272774
56	0x3efa6d36	0.48911446
57	0x3f3024e4	0.6880629
58	0x3f398c81	0.72480017
59	0x3ed0e2c6	0.40798014
60	0x3f2e844e	0.6817063
61	0x3f1c50d8	0.6106086
62	0x3ed242cc	0.41066587
63	0x3ec7a380	0.38991928

bn_outlayer_in.bias f4 [64]
0	0xbf3a07e3	-0.72668284
1	0xbee1612b	-0.44019446
2	0xbe952283	-0.29127893
3	0xbd808175	-0.06274692
4	0xbecb3cb9	-0.39694765
5	0xbed4beac	-0.4155172
6	0xbf00345d	-0.500799
7	0xbf05929a	-0.5217682
8	0x3bbf5c10	0.005839832
9	0xbf519d53	-0.8188068
10	0xbefad51c	-0.48990715
11	0xbef5f5aa	-0.4803899
12	0xbb573a04	-0.0032840976
13	0xbec57a52	-0.38569885
14	0xbe102230	-0.14075541
15	0xbce82d66	-0.02834196
16	0xbeeb31ec	-0.45936525
17	0xbeae351b	-0.3402489
18	0xbf05a03e	-0.52197635
19	0xbf02e744	-0.51134133
20	0xbe6dc71a	-0.23220482
21	0x3c31421c	0.010818984
22	0xbc8bbaa6	-0.017056774
23	0xbee34be0	-0.44393826
24	0xbedf2603	-0.43583688
25	0xbf17a391	-0.5923396
26	0xbf76dff6	-0.9643549
27	0xbeab9870	-0.33514738
28	0x3b9ef671	0.0048511554
29	0xbf09c051	-0.53809077
30	0xbe138c9a	-0.14409104
31	0xbefcee99	-0.49400786
32	0xbf01d33d	-0.5071295
33	0xbeeac982	-0.45856863
34	0xbebcb2a2	-0.36855036
35	0xbba5d18b	-0.00506038
36	0xbc549dc2	-0.0129770655
37	0xbf00dff9	-0.50341755
38	0xbed4b903	-0.41547403
39	0xbebcc13f	-0.36866185
40	0xbf06ca58	-0.526525
41	0xbf14709b	-0.5798432
42	0xbe3f7b8c	-0.18699473
43	0xbf01ea6e	-0.50748336
44	0xbeb2c59b	-0.34916386
45	0xbf1037cb	-0.56335133
46	0xbf5a3d54	-0.8524983
47	0xbee4b9d3	-0.44673023
48	0xbe95284e	-0.29132313
49	0xbed1c8a7	-0.40973398
50	0xbee4790b	-0.44623598
51	0xbeca31aa	-0.39491016
52	0xbcf849a3	-0.03030855
53	0x3bec92e9	0.0072196615
54	0xbf186e0c	-0.5954292
55	0xbee1e63d	-0.4412097
56	0xbf160bef	-0.5861196
57	0xbe962a86	-0.29329318
58	0xbf60cd92	-0.87813675
59	0xbd333a4c	-0.043756768
60	0xbea15403	-0.31509408
61	0xbddeb0e7	-0.10873585
62	0xbe535465	-0.20637663
63	0xba23e65d	-0.00062522833

bn_outlayer_in.running_mean f4 [64]
0	0x3c879145	0.016548762
1	0xbdb15644	-0.08659032
2	0xbde43867	-0.111435704
3	0x3dc68ff7	0.09695428
4	0x3db15804	0.08659366
5	0x3d843424	0.064552575
6	0x3e28a4d4	0.16469127
7	0xbdd3fc1c	-0.103508204
8	0x3dd7d5ac	0.105388016
9	0x3b002dfd	0.001955866
10	0xbe871f3a	-0.2639101
11	0xbe715f6f	-0.23571561
12	0xba8cf18c	-0.0010753139
13	0x3e5db045	0.21649273
14	0x3bd0309e	0.006353452
15	0xbb6dc6b1	-0.003628176
16	0x3e444b19	0.19169272
17	0x3cefca48	0.02927126
18	0x3c9b78de	0.018978532
19	0x3e4e94bb	0.20173924
20	0x3c4a88be	0.012361703
21	0xbe139d65	-0.1441551
22	0x3d3e74fc	0.046498284
23	0xbe58916f	-0.21149229
24	0xbdd95bf9	-0.106132455
25	0xbea7d0e1	-0.3277655
26	0x3c8d0a25	0.017216751
27	0xbd8b4026	-0.06799345
28	0xbe02e36a	-0.12782064
29	0x3df1df61	0.11810184
30	0xbe4f2879	-0.20230283
31	0xbd0bd2e6	-0.034136675
32	0xbe4983ad	-0.19679137
33	0xbe77264a	-0.241357
34	0x3e0a0b7a	0.1348094
35	0x00000004	6e-45
36	0xbdfecfee	-0.12442003
37	0x3c7c9004	0.015415195
38	0xbdbb7dd4	-0.09154859
39	0xbdbfec17	-0.093712024
40	0x3e865293	0.26234874
41	0x3e8d33f4	0.275787
42	0x3bc6f96b	0.0060722134
43	0x3ddc59e1	0.107593305
44	0xbdf21ef2	-0.118223086
45	0xbc5e7946	-0.0135787185
46	0xbcba5aaf	-0.02274832
47	0xb93a9a90	-0.00017795921
48	0xbe1552e4	-0.14582402
49	0xbc1d55bb	-0.009602959
50	0x3dc46061	0.09588695
51	0x3da48053	0.080322884
52	0x3d669590	0.056294978
53	0xbe39e11c	-0.18152279
54	0xbe1b43c9	-0.15162577
55	0xbe5cfffc	-0.21582025
56	0xbac1cdd5	-0.0014786074
57	0xbdc11680	-0.0942812
58	0xbcce2654	-0.02516476
59	0xbe3fc58d	-0.18727703
60	0xbd15bf92	-0.03655965
61	0xbdd9bc50	-0.10631621
62	0x3dc3cb96	0.09560315
63	0xbdcd55e6	-0.100261495

bn_outlayer_in.running_var f4 [64]
0	0x3b925eac	0.004466852
1	0x3c17c9ba	0.009264404
2	0x3c718559	0.014741265
3	0x3d5f15ab	0.054464024
4	0x3df970b9	0.12179703
5	0x3da6bdf6	0.08141701
6	0x3eacd830	0.33758688
7	0x3c5a064b	0.013307164
8	0x3e068835	0.13137896
9	0x3af96093	0.0019025974
10	0x3d444dc8	0.04792574
11	0x3d23fa52	0.040033646
12	0x3cea0d31	0.028570743
13	0x3ea18c9a	0.31552583
14	0x3ac1439b	0.001474488
15	0x3ccf2b6c	0.02528926
16	0x3eb7d016	0.35900944
17	0x3e12fd89	0.14354528
18	0x3b35a91a	0.00277192
19	0x3ef1bcd5	0.4721438
20	0x3c5843a2	0.013199719
21	0x3dc40d17	0.09572809
22	0x3ea3c9ff	0.31990048
23	0x3cf00700	0.029300213
24	0x3e7df6fa	0.24801245
25	0x3d933d55	0.071894325
26	0x3a642784	0.0008703398
27	0x3c49f026	0.012325322
28	0x3dc66127	0.09686499
29	0x3ea51e10	0.32249498
30	0x3d949664	0.07255247
31	0x3b002033	0.0019550442
32	0x3d0f9b8b	0.035060447
33	0x3d0e602e	0.034759693
34	0x3e5d3102	0.21600726
35	0x00000004	6e-45
36	0x3db93b82	0.09044553
37	0x3c3a6feb	0.011379222
38	0x3c0fa15d	0.008766499
39	0x3e5599dc	0.20859474
40	0x3f5b696a	0.85707724
41	0x3f882d69	1.0638858
42	0x3c396095	0.011314531
43	0x3eed15a3	0.4630557
44	0x3e5dd164	0.21661907
45	0x3c027599	0.007962608
46	0x3b81af1b	0.003957642
47	0x3bd58bcc	0.006516909
48	0x3f1bbf29	0.6083856
49	0x396efad7	0.00022790894
50	0x3e31144a	0.17292896
51	0x3dbb87ac	0.09156737
52	0x3e27c63f	0.16384219
53	0x3e1b6d32	0.15178373
54	0x3cb14aa6	0.02164204
55	0x3f15b829	0.5848413
56	0x3b042810	0.002016548
57	0x3c60d9e5	0.013723825
58	0x3be22f80	0.006902635
59	0x3dfc18c5	0.12309412
60	0x3b05a675	0.0020393406
61	0x3d539613	0.051656794
62	0x3e3c43f3	0.18385296
63	0x3dadcfe9	0.08486921

gnn_layers.0.gnn.att_i f4 [1, 1, 64]
0	0x3d798b62	0.06092394
1	0x3d61c645	0.055120725
2	0x3db676cf	0.0890938
3	0x3c399eaa	0.011329332
4	0x3e35cc05	0.17753609
5	0x3e087772	0.13326815
6	0xbc2b1e28	-0.0104442015
7	0x3e8a911f	0.27063844
8	0xbddf330a	-0.10898407
9	0x3f050bfd	0.5197142
10	0x3df8dd8e	0.12151633
11	0x3e880591	0.26566747
12	0x3fcee986	1.6165016
13	0xbe043b54	-0.12913257
14	0x3e2a733e	0.16645524
15	0x3e1b695d	0.15176912
16	0xbea0dd55	-0.31418863
17	0x3bc36f8d	0.0059642256
18	0x3cfc9360	0.030831993
19	0x3ccf46eb	0.025302371
20	0x3ec4622a	0.38356143
21	0xbc4acaf1	-0.012377487
22	0xbec9b36a	-0.39394695
23	0xbeda69bb	-0.4265879
24	0x3c7aef52	0.0153158475
25	0x3e233610	0.15938592
26	0x3f140f16	0.5783552
27	0x3ddc1511	0.107462056
28	0x3f4822b1	0.78177935
29	0xbc9b8216	-0.018982928
30	0xbec8fcbc	-0.3925532
31	0xbd448ae4	-0.04798402
32	0x3d47bd41	0.04876447
33	0x3d51b4b5	0.051197726
34	0xbddea8fa	-0.108720735
35	0x3e8603d9	0.2617481
36	0xbd4defb0	-0.050277412
37	0x3e938411	0.28811696
38	0x3e5834e1	0.21113922
39	0xbcb5a0d1	-0.02217141
40	0xbee48fec	-0.44641054
41	0xbdf4fde6	-0.1196249
42	0x3ec2b6c1	0.38030055
43	0xbcdc6ac2	-0.026906375
44	0xbda2bfcb	-0.07946738
45	0x3d10f633	0.035391044
46	0x3f121b45	0.5707286
47	0x3ed7f165	0.42176357
48	0x3e21f913	0.1581767
49	0x3e2b247a	0.16713133
50	0xbe8a5ba0	-0.2702303
51	0x3e041e77	0.12902246
52	0xbe5d3e95	-0.21605904
53	0xbe865cab	-0.26242575
54	0x3e6974b8	0.22798431
55	0x3e3714aa	0.17878976
56	0x3b6a4d41	0.0035751613
57	0x3dfbad2d	0.1228889
58	0x3ee0f3d9	0.4393604
59	0xbec4f780	-0.38470078
60	0x3d6558ee	0.055993013
61	0xbe37d8d5	-0.17953809
62	0x3c001ce1	0.007819385
63	0xbd338adb	-0.043833595

gnn_layers.0.gnn.att_j f4 [1, 1, 64]
0	0x3e2f8412	0.17140225
1	0x3dcf67ed	0.10127244
2	0x3e95dd1a	0.2927025
3	0x3d8243cf	0.0636059
4	0xbf6be64b	-0.92148274
5	0xbf56ce94	-0.83908963
6	0xbed14e7b	-0.40880188
7	0x3d199b8c	0.037501857
8	0xbea6c61a	-0.32573014
9	0x3f00b111	0.5027018
10	0x3f108365	0.5645049
11	0xbda2bfb2	-0.07946719
12	0xbea8dba1	-0.32980064
13	0xbeaf6423	-0.34256086
14	0x3eaa1984	0.33222592
15	0x3eef0a94	0.46687758
16	0xbf12e077	-0.57373756
17	0x3e8374eb	0.2567514
18	0x3e4158e7	0.1888157
19	0x3d324e23	0.04353155
20	0x3eda8803	0.42681894
21	0x3d5505e4	0.05200757
22	0xbf2fe17f	-0.68703455
23	0xbddb045d	-0.106941916
24	0x3daf683a	0.085648015
25	0x3e02d0c3	0.12774949
26	0x3ec15f8e	0.37768215
27	0xbe9545a7	-0.29154703
28	0xbf14a60a	-0.58065856
29	0x3db2b8f6	0.08726685
30	0xbef36eec	-0.47545564
31	0x3e01900c	0.12652606
32	0x3d965a60	0.073414564
33	0x3d870422	0.06592585
34	0xbe736aa5	-0.2377115
35	0x3eff6cd3	0.49887714
36	0xbeba7f51	-0.3642526
37	0x3cf0e5a0	0.029406369
38	0x3e85079d	0.2598237
39	0x3cdc9e51	0.02693096
40	0xbf103220	-0.56326485
41	0xbe14e07d	-0.1453876
42	0x3b8eed34	0.004361773
43	0xbdb73798	-0.089461505
44	0xbe39e644	-0.18154246
45	0x3e47038b	0.19434945
46	0xbccab131	-0.024742695
47	0xbdb38371	-0.08765305
48	0xbf19a9d9	-0.6002479
49	0x3f256655	0.6460927
50	0xbe085027	-0.13311826
51	0xbf52b5e3	-0.8230879
52	0xbecbfed9	-0.3984287
53	0xbee118cc	-0.4396423
54	0x3efa2c52	0.4886194
55	0xbef7ea59	-0.4842098
56	0x3ed0fff9	0.40820292
57	0x3ea80f1e	0.32824033
58	0x3e08400a	0.13305679
59	0xbf03af88	-0.51439714
60	0xbc157b60	-0.009123653
61	0xbcdbeb93	-0.026845729
62	0xbd5c96cb	-0.053854745
63	0x3d8c8a92	0.06862368

gnn_layers.0.gnn.att_em_i f4 [1, 1, 64]
0	0xbea7e2c1	-0.32790187
1	0x3eb60bbe	0.35555834
2	0x3f26c58a	0.6514517
3	0x3ecaad33	0.39585266
4	0xbe1f3d35	-0.15550692
5	0x3e0b3125	0.13592966
6	0x3f1faad7	0.62370056
7	0x3f79fc50	0.97650623
8	0xbe53a082	-0.20666698
9	0xbc0cfd03	-0.008605245
10	0x3ed0774b	0.40716013
11	0x3e78b90f	0.24289344
12	0xbecb7089	-0.39734295
13	0x3e01d4d5	0.12678845
14	0xbdef29dc	-0.11677906
15	0x3e83bfa2	0.25732142
16	0x3edf1632	0.4357162
17	0x3e2539d6	0.16135344
18	0xbeb1173d	-0.34588042
19	0x3d927c97	0.0715267
20	0xbd9b7d44	-0.07592252
21	0xbd21f79c	-0.03954278
22	0xbf24d6ac	-0.64390063
23	0x3ebbcdb2	0.3668037
24	0x3f19b74c	0.60045314
25	0x3eb4dbf5	0.35324064
26	0xbea0190f	-0.31269118
27	0xbf67dee6	-0.9057449
28	0xbe19e0fb	-0.1502723
29	0x3e29e4d2	0.16591194
30	0xbe989e5e	-0.29808325
31	0x3f034ab4	0.5128586
32	0x3ecc7dd6	0.39939755
33	0x3eaa04b4	0.33206713
34	0x3e4df30b	0.20112245
35	0xbf4589fc	-0.7716367
36	0xbeabb4db	-0.3353642
37	0x3ec16e60	0.37779522
38	0xbda705fa	-0.08155437
39	0xbeab5d8f	-0.33469817
40	0x3e9d0a95	0.30672136
41	0x3e8cbd9c	0.2748841
42	0x3e0a5dbf	0.13512324
43	0xbb7a696a	-0.0038209804
44	0x3fa5002b	1.2890676
45	0x3e803045	0.25036827
46	0x3da9754a	0.08274324
47	0xbe7ea721	-0.24868442
48	0xbd94262c	-0.07233843
49	0x3e931580	0.2872734
50	0xbb8d2454	-0.004307309
51	0x3e168af8	0.1470145
52	0xbe1285f5	-0.14308913
53	0xbe51139a	-0.20417634
54	0x3ebab8ad	0.3646902
55	0xbebcd63e	-0.36882204
56	0x3e85e3df	0.26150414
57	0x3eac71f7	0.33680698
58	0x3e274413	0.16334562
59	0xbe4f3b8f	-0.20237564
60	0x3de82673	0.113354586
61	0xbe3f701e	-0.18695113
62	0xbec92729	-0.3928769
63	0xbea55179	-0.3228872

gnn_layers.0.gnn.att_em_j f4 [1, 1, 64]
0	0x3f9103c0	1.132927
1	0x3d999b28	0.07500297
2	0x3de95e5a	0.11394949
3	0xbc4c5135	-0.012470533
4	0xbea0f1d7	-0.3143451
5	0xbec10bc4	-0.3770429
6	0xbee1506e	-0.44006675
7	0x3dca0d7c	0.09865853
8	0x3c825afe	0.01591253
9	0x3d716360	0.058932662
10	0x3def7e5b	0.11694022
11	0x3e0c2414	0.13685638
12	0x3d3f8f3a	0.04676745
13	0xbf2d7057	-0.6774954
14	0xbdd68057	-0.10473698
15	0xbdb0e26a	-0.08636935
16	0xbf0a6828	-0.5406518
17	0xbe638e02	-0.2222214
18	0xbda2c364	-0.07947424
19	0xbe50b627	-0.20381986
20	0xbcc1b03d	-0.023643607
21	0xba620c64	-0.0008623062
22	0xbd16bcb3	-0.03680105
23	0xbe7ca880	-0.24673653
24	0x3d1a4918	0.037667364
25	0xbf1b27e7	-0.6060776
26	0x3f783780	0.96959686
27	0xbe39bbfb	-0.18138115
28	0xbf2d03de	-0.67584026
29	0xbf2a4011	-0.6650401
30	0xbcde921f	-0.027169285
31	0xbe1255cf	-0.14290546
32	0x3df64d21	0.1202643
33	0x3dce1dd4	0.10064283
34	0xbf750b68	-0.9572053
35	0x3f3405ca	0.70321333
36	0x3e8790a1	0.2647753
37	0xbea922fb	-0.330345
38	0xbe5ce430	-0.21571422
39	0x3f859417	1.0435818
40	0xbf4aba5a	-0.791906
41	0xbf44f786	-0.7694019
42	0xbcc141d7	-0.023590965
43	0xbe0777c9	-0.13229288
44	0xbe195664	-0.14974362
45	0xbf03c751	-0.5147601
46	0xbf09a4ef	-0.53767294
47	0x3f6fefef	0.93725485
48	0x3f85d37b	1.0455164
49	0xbe747660	-0.23873281
50	0xbcfa6db7	-0.030569894
51	0xbec8726a	-0.3914979
52	0xbd2c9fa6	-0.04214444
53	0xbedbff18	-0.4296806
54	0x3e0a098e	0.13480207
55	0x3f98053e	1.18766
56	0xbbc6aeab	-0.0060633025
57	0xbe6b9f22	-0.23009923
58	0xbe10d08f	-0.14142059
59	0xbcb406fc	-0.021975987
60	0xbdca366a	-0.0987366
61	0x3db048a0	0.08607602
62	0xbf03ea24	-0.51529145
63	0xbe1792e1	-0.14802124

gnn_layers.0.gnn.bias f4 [64]
0	0x41216239	10.08648
1	0xbf25ec0b	-0.648133
2	0x3c4215ef	0.01184605
3	0xbb1bb438	-0.0023758542
4	0x3a8a1c39	0.0010536975
5	0x3ad36d8a	0.0016130668
6	0xbb193997	-0.0023380273
7	0xb954999a	-0.00020275117
8	0xbb8fc79c	-0.004387809
9	0x4094c517	4.649059
10	0x3ba3a53b	0.0049940622
11	0x3fc2c69a	1.5216858
12	0xbb6b04a0	-0.003586091
13	0xbb39f873	-0.0028376847
14	0x41426cbd	12.151547
15	0x3dabcd28	0.0838874
16	0xbc805d39	-0.015669452
17	0xb966607c	-0.00021970453
18	0x40c6da63	6.2141585
19	0x3a369177	0.0006964425
20	0x413d86d6	11.845419
21	0x3e1c7351	0.15278365
22	0xbc68901b	-0.014194514
23	0x3ef22eec	0.47301424
24	0xba86c5a0	-0.0010282286
25	0x3b07a5b8	0.0020698141
26	0x412d8a16	10.846212
27	0x3bb66462	0.005566166
28	0x404fed79	3.2488692
29	0x3beb439c	0.0071796905
30	0xbd80dbb3	-0.06291904
31	0x3fe6253a	1.7980111
32	0x3fd0fa10	1.6326313
33	0x3b14798e	0.002265546
34	0xbe5c272a	-0.21499315
35	0x3a18b487	0.00058252405
36	0xc0f776a3	-7.733232
37	0x40ea5fe9	7.324208
38	0xbbb1ffc0	-0.005432099
39	0xbb8b7527	-0.004255909
40	0xbd0fb770	-0.03508705
41	0xbadf9e42	-0.0017060714
42	0x4127d6fc	10.489986
43	0x3cbd239d	0.02308827
44	0xba8bfe9d	-0.0010680739
45	0x412963cb	10.5868635
46	0x3f09db4b	0.5385024
47	0x41383e0d	11.515149
48	0xb9bfc8ce	-0.0003657997
49	0x3bd1ba50	0.006400384
50	0x3a70afa8	0.0009181448
51	0x39defd92	0.00042532064
52	0x3b5bc5d0	0.0033534653
53	0xbedcdb65	-0.43136135
54	0x3f636702	0.8882905
55	0xba5aec70	-0.0008351272
56	0xc10c58de	-8.771696
57	0xc09753d9	-4.7289853
58	0x3f27ff49	0.6562391
59	0xbf537dd0	-0.8261385
60	0x40534982	3.3013616
61	0x4085602b	4.1679893
62	0xbb51b20a	-0.0031996989
63	0xbebb67f9	-0.36602762

gnn_layers.0.gnn.lin.weight f4 [64, 5]
0	0x3e22d377	0.1590098
1	0xbf8b1967	-1.0867127
2	0xbfb3342c	-1.4000297
3	0x3ca460e1	0.020065727
4	0x3e023ec3	0.12719254
5	0x3e049c0a	0.12950149
6	0xbf42463c	-0.7588842
7	0x3e04c80f	0.12966941
8	0x3d9db41c	0.07700369
9	0x3d545f7f	0.051848885
10	0x3c1366b2	0.008996652
11	0xbed6876d	-0.41900197
12	0xbcfd5dc5	-0.030928502
13	0x3cb67102	0.022270683
14	0xbd9fc3d1	-0.07801021
15	0xbd9cadd0	-0.076503396
16	0x3d78c389	0.06073335
17	0x3d0f9649	0.035055432
18	0x3db812c6	0.08987956
19	0x3dc70c00	0.09719086
20	0x3dba0d3e	0.09084557
21	0x3d079c61	0.03310812
22	0x3ac516a4	0.0015036655
23	0x3d5af20c	0.05345349
24	0xbcb97a1f	-0.02264124
25	0x3d9d41a3	0.07678535
26	0x3c2a5577	0.010396353
27	0x3bfbf037	0.007688548
28	0x3d50c759	0.050971363
29	0x3c525c5d	0.012839404
30	0xbdb692ae	-0.08914696
31	0x3d8718fa	0.06596561
32	0x3d543fe7	0.051818755
33	0x3c967372	0.018365595
34	0x3e228fc4	0.15875155
35	0xbd86d68d	-0.06583891
36	0x3e217af0	0.15769553
37	0xbf00d827	-0.5032982
38	0x3dfeabdb	0.124351226
39	0xbe0b5db4	-0.13609964
40	0x3dbe28c4	0.09285119
41	0x3cee0e76	0.02905963
42	0xbcecccf0	-0.028906316
43	0x3e1b1e2a	0.15148225
44	0x3ae80a1a	0.0017703206
45	0xbda2bc8c	-0.07946119
46	0xbea6fa20	-0.32612705
47	0xbe0a0288	-0.13477528
48	0xbf15b8ed	-0.584853
49	0xbf5d50d7	-0.86451477
50	0xbcea010d	-0.028564954
51	0xbd998fa8	-0.074981034
52	0xbd0d8d41	-0.03455854
53	0xbd306757	-0.043067303
54	0xbd18c4d6	-0.037297092
55	0xbe3f40b0	-0.1867702
56	0xbe121826	-0.14267024
57	0xbe1cd5de	-0.15315959
58	0x3bdfac22	0.0068259398
59	0xbe259a9c	-0.1617226
60	0x3e7bfe0b	0.24608628
61	0x3e5fdff6	0.21862778
62	0x3e6abed9	0.22924365
63	0x3e2e2857	0.17007576
64	0xbf667fd2	-0.9003879
65	0x3dd632ad	0.104588844
66	0xbc2584ef	-0.010102495
67	0x3c4348d5	0.01191922
68	0x3d568198	0.052369684
69	0x3e06e9c3	0.1317511
70	0xbf9b0941	-1.2112199
71	0x3dc95bb2	0.098319426
72	0x3d90d539	0.07071919
73	0x3d4ee166	0.050507925
74	0x3d8e3a53	0.06944718
75	0xbf3cec19	-0.73797756
76	0x3e3f4fae	0.18682739
77	0x3e0fad2d	0.14030905
78	0x3cc5eea4	0.024161644
79	0x3ec03afc	0.37545002
80	0x3d2949e7	0.041330244
81	0x3e1eae10	0.15496087
82	0x3eb2f07b	0.34949097
83	0x3e43e684	0.19130903
84	0x3f0dcc9c	0.55390334
85	0xbc85e609	-0.01634504
86	0xbb2b82ac	-0.0026170416
87	0x3d033995	0.032037336
88	0x3d249454	0.04018052
89	0x3d204f15	0.03913792
90	0xbfd57cad	-1.6678673
91	0x3db8ee38	0.090298116
92	0xbbf30149	-0.0074159247
93	0xb874a7c5	-5.833038e-05
94	0x3e0f4ca5	0.13994081
95	0xbdd5af9d	-0.10433886
96	0x3d038776	0.032111607
97	0xbd9b3ad1	-0.07579578
98	0xbe0ec804	-0.13943487
99	0xbe14c4ae	-0.14528152
100	0x3d8ca87d	0.06868074
101	0xbd86baad	-0.06578574
102	0xbf4f5fd6	-0.8100561
103	0xbd3206d7	-0.043463554
104	0xbedd56fc	-0.43230426
105	0x3e36335b	0.17793028
106	0xbdf5c046	-0.11999564
107	0xbde50453	-0.111824654
108	0xbe136f3b	-0.143979
109	0x3f3fba3a	0.74893534
110	0x3f0906c5	0.53525954
111	0x3f02eb25	0.5114005
112	0x3e082a52	0.13297394
113	0x3e4d2f40	0.20037556
114	0x3f525a02	0.8216859
115	0xbd36444b	-0.044498723
116	0xbe3ddee3	-0.18542056
117	0xbddcdc16	-0.107841656
118	0xbd7d53e9	-0.0618476
119	0x3c61a769	0.013772824
120	0x3d894055	0.067017235
121	0x3da0b6a8	0.07847339
122	0x3dd56bc2	0.10420944
123	0xbe1e7613	-0.15474729
124	0xba343a28	-0.0006875121
125	0xbd979547	-0.07401519
126	0xbdfc4f20	-0.123197794
127	0xbdb73ac3	-0.08946755
128	0xbd78fad8	-0.0607861
129	0x3ccb2652	0.024798546
130	0xbb1afda2	-0.0023649712
131	0xbf42e218	-0.7612624
132	0x3c5e1b13	0.01355626
133	0xbc983e9c	-0.018584542
134	0xbfa5edbb	-1.2963175
135	0x3e00c3e0	0.1257472
136	0x3e296ef8	0.16546237
137	0x3cb17c7d	0.021665806
138	0x3d000ec3	0.031264078
139	0x3c42b39d	0.011883643
140	0x3e9170b4	0.28406298
141	0x3ef1a8f5	0.47199216
142	0x3e800af3	0.25008354
143	0xbd4a793e	-0.04943203
144	0xbe4cec27	-0.2001196
145	0xbd56943b	-0.052387457
146	0xbd7abde1	-0.06121624
147	0xbcabf4e9	-0.020990806
148	0xbc9306f9	-0.01794766
149	0xbe49e0d6	-0.19714674
150	0x3f0b5700	0.54429626
151	0x3e3a10db	0.18170492
152	0x3e245a2f	0.16050027
153	0x3e8b23c4	0.27175725
154	0x3f41d903	0.7572176
155	0xbe813e8a	-0.25243026
156	0xbe9ac96b	-0.30231795
157	0xbe025497	-0.12727581
158	0xbcb56821	-0.02214438
159	0xbe7f7177	-0.24945627
160	0xbe61ee52	-0.22063568
161	0xbeb7e07f	-0.35913464
162	0xbe989a8e	-0.29805416
163	0xbe2358c2	-0.15951827
164	0xbd23477b	-0.03986309
165	0x3d12a52a	0.035802044
166	0xbdeb15d9	-0.114787765
167	0xbd84dc90	-0.064873815
168	0xbd5a7338	-0.053332537
169	0xbda87872	-0.08226098
170	0xbab21a9b	-0.0013588251
171	0x3da38144	0.0798364
172	0x3e3bd002	0.18341067
173	0x3cdc3445	0.026880393
174	0x3ebc7974	0.3681141
175	0xbe842ccd	-0.2581543
176	0xbeeccab9	-0.46248415
177	0xbeb1faad	-0.34761563
178	0xbe1a849d	-0.1508965
179	0xbf3bc697	-0.733499
180	0x3f4dbd8a	0.8036734
181	0x3f42ea5c	0.76138854
182	0x3d96c588	0.07361895
183	0xbf0696a1	-0.5257359
184	0xbeaec1d5	-0.34132257
185	0xbfb62323	-1.4229473
186	0x3d6ff156	0.058579765
187	0x3d89228a	0.06696041
188	0x3cc45f1a	0.02397113
189	0x3dcad6ad	0.099042274
190	0xbe55f9a0	-0.20896006
191	0xbc85f12e	-0.016350355
192	0x3cf7f6b0	0.030268997
193	0x3d1d62d8	0.038424343
194	0xbf25f031	-0.6481963
195	0x3e0d8b33	0.13822632
196	0x3d9a8d52	0.07546486
197	0xbe545646	-0.20736036
198	0x3e81488e	0.25250667
199	0x3e47d48e	0.19514677
200	0x3e9ed839	0.3102434
201	0x3eca2292	0.394795
202	0x3eae65c2	0.3406201
203	0x3e828bf9	0.25497416
204	0x3f6b95fd	0.9202574
205	0x3d3e18eb	0.046410482
206	0xbdc0fb34	-0.09422913
207	0xbe0ae5eb	-0.13564269
208	0x3b9cfc85	0.004790845
209	0x3ea453ca	0.32095176
210	0x3d8a0ca1	0.0674069
211	0x3db11d48	0.08648163
212	0xbc4a8930	-0.01236181
213	0x3b30f596	0.002700185
214	0xbf903529	-1.1266223
215	0x3d0eda36	0.03487607
216	0x3d80a161	0.062807806
217	0x3d8de09e	0.06927608
218	0x3dfabb17	0.12242716
219	0x3e23fd73	0.16014652
220	0xbe07204c	-0.13195914
221	0x3e32f00f	0.17474388
222	0x3dd4c765	0.10389594
223	0x3cc5d27a	0.024148215
224	0x3de27797	0.11057966
225	0x3c29e2f5	0.010369052
226	0x3beeec6a	0.0072913663
227	0xbfcc0901	-1.5940248
228	0xbca834f4	-0.020533063
229	0x3c84d25e	0.016213592
230	0x3d886db6	0.06661551
231	0x3da30fce	0.07961999
232	0x3d45709c	0.048203096
233	0xbed8df1a	-0.42357713
234	0xbf776728	-0.9664178
235	0x3d82a673	0.06379404
236	0x3d3739b3	0.04473276
237	0x3db4bb15	0.088247456
238	0xbe42f729	-0.19039597
239	0xbfac2d7b	-1.345138
240	0x3cc3c945	0.023899684
241	0x3c93149d	0.017954165
242	0xbc052de5	-0.008128618
243	0x3d62285c	0.05521427
244	0x3d12aea1	0.03581107
245	0xbe39ccb1	-0.1814449
246	0xbe401e1b	-0.18761484
247	0xbd8f6345	-0.07001356
248	0xbc9880c4	-0.018616088
249	0xbe01ab16	-0.1266292
250	0xbd84a365	-0.064764775
251	0x3bfecef2	0.0077761346
252	0xbc8070d0	-0.015678793
253	0xbda3e2fa	-0.08002277
254	0xbcc6e096	-0.024277013
255	0x3d71f34f	0.059069928

gnn_layers.0.bn.weight f4 [64]
0	0x3fb04df1	1.3773786
1	0x3f086450	0.53278065
2	0x3fa26f7b	1.2690271
3	0x3eab0364	0.33401024
4	0x3e6b33f8	0.22969043
5	0x3e78fff9	0.24316396
6	0x3dc19e07	0.094539694
7	0x3f31d0c4	0.69459176
8	0x3f24d85b	0.6439263
9	0x3fb7700f	1.4331073
10	0x3e4f6f15	0.20257218
11	0x3e7986aa	0.24367777
12	0x3f8c7c1f	1.0975379
13	0x3e04e28d	0.12977047
14	0x3f9eda89	1.2410442
15	0x3f72a434	0.94781804
16	0x3e1855ca	0.14876476
17	0xbda51dc9	-0.08062322
18	0x3fa4d6ff	1.2878112
19	0x3dcf1a14	0.10112396
20	0x3fae41f0	1.3613873
21	0x3f2efa64	0.68350816
22	0x3ef881c3	0.485365
23	0x3e5df4aa	0.21675363
24	0x3e5f4ed8	0.2180742
25	0x3e651f2e	0.22375175
26	0x3fabde2f	1.342718
27	0x3f4d8a3d	0.8028906
28	0x3f1ce48b	0.6128623
29	0xbdb933bf	-0.09043073
30	0x3f23f845	0.64050704
31	0x3f5f40d2	0.8720828
32	0x3e9f681e	0.31134123
33	0x3e0b2215	0.1358722
34	0x3e6418e2	0.22275117
35	0x3ee5c04d	0.44873276
36	0x3f477161	0.7790738
37	0x3fb24199	1.3926269
38	0x3f876264	1.0576901
39	0x3f303344	0.68828225
40	0xbdba1e16	-0.0908777
41	0x3d66e5ba	0.056371428
42	0x3fafc983	1.3733371
43	0xbdbcb209	-0.09213645
44	0x3ec64e40	0.38731575
45	0x3fba5298	1.4556456
46	0x3fba23fe	1.4542234
47	0x3fa1f1b0	1.2651882
48	0x3e28e007	0.1649171
49	0x3f1bac6c	0.6080997
50	0xbe1c6ac3	-0.15275101
51	0x3e69b9e1	0.22824813
52	0x3ef10ab8	0.4707849
53	0x3f4bf894	0.79676175
54	0x3eb8bdaf	0.36082217
55	0x3e194efc	0.14971536
56	0x3fac4b2c	1.3460441
57	0x3fb446f6	1.4084156
58	0x3fb7567c	1.4323268
59	0x3f461be3	0.773863
60	0x3f3b1a7d	0.7308729
61	0x3f35a227	0.7095055
62	0x3e21a78b	0.15786569
63	0x3f583a68	0.8446412

gnn_layers.0.bn.bias f4 [64]
0	0xbeb2e13e	-0.3493747
1	0x3e9eefc9	0.31042317
2	0x3d9bf533	0.076151274
3	0x3ecbbacb	0.3979095
4	0x3f50f69d	0.816263
5	0x3f372069	0.7153383
6	0x3f94bb58	1.1619673
7	0x3e5fbe30	0.21849895
8	0x3ee65e94	0.44994032
9	0xbef29a5b	-0.4738339
10	0x3f4815c7	0.7815823
11	0x3f3bf1d0	0.7341585
12	0x3de43a08	0.11143881
13	0x3f96aa6c	1.1770759
14	0xbeb9e9bb	-0.36311135
15	0x3e3d48d9	0.1848482
16	0x3f9adffc	1.2099605
17	0x3f4436ef	0.7664632
18	0xbebc6892	-0.3679853
19	0x3feac516	1.8341396
20	0xbe48eaa2	-0.19620755
21	0x3ed67f93	0.41894206
22	0x3ed78379	0.42092493
23	0x3f327722	0.6971303
24	0x3f4b4dd3	0.79415625
25	0x3f5e0041	0.8671914
26	0xbeec3125	-0.46131244
27	0x3eb124eb	0.3459848
28	0x3ea755ed	0.32682744
29	0x3fad42f7	1.3536061
30	0x3ef353f8	0.47525
31	0xbe30bf2f	-0.17260431
32	0x3f2310bb	0.63697404
33	0x3f43265c	0.76230407
34	0x3f5f0fdd	0.8713358
35	0xbe973666	-0.2953369
36	0x3ec7bfec	0.39013612
37	0xbe4f8dfa	-0.20269004
38	0x3e060557	0.13087974
39	0xbe06573e	-0.13119218
40	0x3ff409eb	1.9065527
41	0x4013e99b	2.3111331
42	0xbe7b6295	-0.24549325
43	0x3fe2b96f	1.771284
44	0x3f4bb6d3	0.7957584
45	0xbe9d88b9	-0.30768374
46	0xbeccb69d	-0.39983073
47	0xbe906710	-0.2820363
48	0x3f84c9ca	1.0374081
49	0xbe237d97	-0.15965877
50	0x3f88c0d9	1.0683852
51	0x3f3a477d	0.7276533
52	0x3eea73f4	0.4579159
53	0x3ee7d335	0.45278326
54	0x3f058dda	0.52169573
55	0x3f86ad38	1.0521612
56	0xbedc8978	-0.4307363
57	0xbd9b50e6	-0.075837895
58	0xbea12656	-0.3147456
59	0x3ed40d70	0.41416502
60	0xbdce2128	-0.10064918
61	0x3ea3da44	0.3200246
62	0x3f43feaa	0.7656046
63	0x3ebced9c	0.36900032

gnn_layers.0.bn.running_mean f4 [64]
0	0x412127a2	10.072176
1	0xbf26242e	-0.64898956
2	0x3c0adf4a	0.008476088
3	0xba863c11	-0.001024129
4	0x3afc5c1d	0.0019253526
5	0x3b0f4f6d	0.002186741
6	0xba5f4633	-0.00085172354
7	0xbb4eb4ea	-0.0031540939
8	0xbb12acc4	-0.0022380808
9	0x40944c78	4.6343346
10	0x3b3996e7	0.0028318705
11	0x3fc263d2	1.5186713
12	0xbb8c55d0	-0.0042826906
13	0xba3e5a69	-0.0007261397
14	0x414251a1	12.144929
15	0x3dab9cde	0.083795294
16	0xbbd6710c	-0.006544238
17	0x39dfc103	0.0004267768
18	0x40c68717	6.2039905
19	0xbb1a6103	-0.0023556359
20	0x413d6709	11.837655
21	0x3e1f9234	0.15583116
22	0x3ab1b5cf	0.0013558212
23	0x3ef267fa	0.47344953
24	0xb9c787c2	-0.00038057385
25	0xba05460c	-0.0005083985
26	0x412d501a	10.832056
27	0x3bd0d94d	0.0063735605
28	0x40500910	3.2505531
29	0x3b98584c	0.0046491977
30	0xbd4a5627	-0.049398568
31	0x3fe5295f	1.790325
32	0x3fd01097	1.6255063
33	0x3979bfc2	0.00023817926
34	0xbe574f5c	-0.21026367
35	0xbc583e81	-0.013198496
36	0xc0f73c98	-7.7261467
37	0x40ea294f	7.3175426
38	0xbc396694	-0.01131596
39	0xba7d0f7e	-0.00096534926
40	0xbc9f1ea1	-0.019423785
41	0xba36cd55	-0.0006973346
42	0x4127bced	10.483624
43	0x3cd8a63b	0.026446452
44	0x3a8b1435	0.001061088
45	0x412938b7	10.576346
46	0x3f0796f9	0.5296474
47	0x41381878	11.505974
48	0x39f779ca	0.0004720225
49	0x3ae6911d	0.0017590855
50	0xb9ac484b	-0.0003286026
51	0x3b02e01d	0.0019970008
52	0x3ba77478	0.0051103197
53	0xbed6969e	-0.41911787
54	0x3f60a4f3	0.8775169
55	0x39f7fbba	0.00047299062
56	0xc10c828d	-8.781873
57	0xc0978e7d	-4.7361436
58	0x3f24b5ce	0.6433991
59	0xbf52d77b	-0.8236005
60	0x4052cce5	3.2937558
61	0x40856970	4.169121
62	0x39d7beac	0.00041150057
63	0xbeb8c62f	-0.36088702

gnn_layers.0.bn.running_var f4 [64]
0	0x3aa15ab4	0.0012310357
1	0x3811213b	3.4601642e-05
2	0x38857cc7	6.365176e-05
3	0x373ac101	1.1131401e-05
4	0x36ca6313	6.031603e-06
5	0x36cd504d	6.1188243e-06
6	0x3724a30b	9.813123e-06
7	0x3842ed55	4.6474237e-05
8	0x37850e8a	1.5861606e-05
9	0x3a86e674	0.0010292069
10	0x3734cefa	1.0777027e-05
11	0x38dd6ace	0.00010557995
12	0x36b69b2b	5.4420866e-06
13	0x37b5500d	2.1614158e-05
14	0x396a0691	0.00022318425
15	0x36661f74	3.429098e-06
16	0x39e308d9	0.00043303406
17	0x36143413	2.208403e-06
18	0x3a0e4a7a	0.0005427968
19	0x384d26f8	4.89121e-05
20	0x39e0fb75	0.0004291196
21	0x38a7d8d8	8.003571e-05
22	0x3aa3b5f2	0.0012490137
23	0x38245e9f	3.918877e-05
24	0x363a1ffe	2.7734782e-06
25	0x37e8ee12	2.7767415e-05
26	0x3a904a9d	0.0011008565
27	0x38033c6d	3.128911e-05
28	0x3918f70d	0.00014587883
29	0x38027336	3.1101714e-05
30	0x3a7878e5	0.0009478464
31	0x3971e77d	0.00023069787
32	0x399cfc6d	0.0002994271
33	0x37a9725d	2.0199624e-05
34	0x38eaecec	0.0001120212
35	0x3a80f286	0.0009837903
36	0x3926ad22	0.0001589549
37	0x39bbe2ac	0.00035836303
38	0x3930ee36	0.00016873408
39	0x38621ab0	5.3907454e-05
40	0x3aa6e0ae	0.0012731755
41	0x36c551b9	5.8805713e-06
42	0x39851c5e	0.00025388872
43	0x38604366	5.346853e-05
44	0x37aee70b	2.0850004e-05
45	0x3a2ae0e9	0.00065184996
46	0x39c506e9	0.00037579917
47	0x39f704c5	0.00047115065
48	0x368c7ee4	4.187097e-06
49	0x38b1921a	8.467231e-05
50	0x3707339b	8.058642e-06
51	0x37233761	9.728451e-06
52	0x37c696f4	2.3673732e-05
53	0x3a1b9d2a	0.00059362
54	0x39d89a80	0.00041313842
55	0x37141652	8.826684e-06
56	0x3a28362a	0.00064167625
57	0x399380de	0.00028134038
58	0x3a563ab7	0.00081722013
59	0x384ee41b	4.9326667e-05
60	0x399df9e0	0.00030131545
61	0x383ee291	4.5510536e-05
62	0x3889e03b	6.574435e-05
63	0x38a61f87	7.921369e-05

out_layer.mlp.0.weight f4 [1, 64]
0	0xbd7ffdf9	-0.062498067
1	0x3e093214	0.1339801
2	0x3db12cd6	0.0865113
3	0x3d912cc4	0.070886165
4	0x3d921311	0.07132543
5	0x3de73df7	0.11291116
6	0x3d8d53a4	0.06900719
7	0x3e1ff855	0.15622075
8	0x3da8e8f3	0.082475565
9	0xbf213f0d	-0.6298683
10	0x3dc05f68	0.09393197
11	0x3da62f12	0.08114447
12	0xbd8cdfe2	-0.0687864
13	0x3dbd36b9	0.09238953
14	0xbdc0b602	-0.09409715
15	0xbd8c6c9d	-0.06856654
16	0x3d8bb57c	0.06821725
17	0xbc8d76f9	-0.017268645
18	0xbe358752	-0.17727402
19	0x3da17c6a	0.07885058
20	0xbd738d1d	-0.059460748
21	0xbdef1233	-0.11673393
22	0x3daaef11	0.083463795
23	0x3dac7ba9	0.08422024
24	0xbd804b82	-0.06264402
25	0x3dbf6d66	0.09347038
26	0xbe5d247a	-0.21595946
27	0xbe1e56d5	-0.15462811
28	0xbdd582f9	-0.10425372
29	0x3db62fae	0.08895813
30	0xbddd133c	-0.10794684
31	0x3ddf8679	0.109143205
32	0x3dcb2d24	0.09920719
33	0x3dd2cd0c	0.10293016
34	0x3dcc9b5f	0.09990572
35	0x3c1b7936	0.009489348
36	0xbda4a571	-0.08039368
37	0xbdb757e7	-0.08952313
38	0x3d90954b	0.070597254
39	0xbe68ae7b	-0.22722809
40	0x3db9f189	0.09079272
41	0x3dd435a1	0.103617914
42	0xbd9abb89	-0.07555301
43	0x3da5226f	0.08063208
44	0x3da20e6b	0.07912906
45	0xbdf03d19	-0.117304035
46	0xbea6463f	-0.3247547
47	0xbd9e8111	-0.07739461
48	0x3dafbc9d	0.08580897
49	0x3e36ebf7	0.17863451
50	0x3d89b708	0.067243636
51	0x3dfddd78	0.123957574
52	0x3db7df66	0.08978157
53	0xbdb33365	-0.08750037
54	0x3e0fb843	0.14035134
55	0x3dc2ce90	0.09512055
56	0xbe4b4aab	-0.19852702
57	0x3dab940c	0.08377847
58	0xbe1fcaa0	-0.15604639
59	0xbda3826a	-0.07983859
60	0x3dbc3874	0.09190455
61	0xbd7cd19f	-0.061723348
62	0xbe285b18	-0.16441
63	0xbd9bb561	-0.07602955
