model_normal/gdn_smd50.pth (torch, 59484 bytes, 16 tensors)

embedding.weight f4 [38, 128]
0.26457983 0.36542666 -1.6730438 -0.55232686 0.24335113 -0.89239025 0.47507876 -0.34083298
-0.018110566 -0.43194503 -0.24197716 -0.07964964 0.28572977 -1.3807641 0.58768034 0.5902267
-0.17522329 0.8557721 -0.9633746 -0.27009422 -0.13096148 -0.3912535 -1.3267328 0.6267933
-0.6425444 -0.23964626 -0.34756988 -0.4312479 0.22727752 0.46264926 0.21379155 0.049031388
-0.40790093 -0.358244 0.037122868 -0.007473624 0.08387191 0.019402033 -0.5161011 0.5344193
-0.13790958 -0.19685256 -0.09777272 -0.6448235 -0.030235339 -0.26002082 0.16123092 -0.40561348
0.7404766 -1.0120373 -1.138861 -0.159954 0.04911132 -0.2829488 -0.9822129 0.20502874
0.29317906 -0.31604102 1.6144238 -1.2799392 -0.5373292 -0.9340518 -0.3755961 0.25716004
-1.0546757 -0.28196368 0.15037179 -1.058518 -0.61009127 -0.724728 0.1464657 -0.112545624
-0.0363894 0.9840709 -0.28194085 -0.52856237 -0.493975 -0.3324389 -0.3020166 0.06888962
0.2949223 -0.59078217 -0.10558591 -1.070733 -2.4779694 0.13219029 -0.18867795 0.05730756
-1.214704 -0.07050885 -0.1029771 0.11512143 -2.1450024 0.66889185 -0.517167 0.16861363
0.23032908 1.0032116 -0.7269902 -0.3813617 -0.10921596 0.5241286 1.3999352 0.82199675
1.0403129 -0.19595881 -0.6720011 -0.44655666 0.0164843 -0.7133275 0.06453697 -0.34766135
-0.0133711845 0.044270232 0.21678118 1.2486434 -0.367911 -0.7511628 0.25940025 -0.014030728
-0.3795522 -2.407032 -0.52371454 -0.80576605 -0.925836 -0.6167943 0.21873514 0.3397383
-0.11777289 -0.1345726 -0.5360302 -0.41834155 -0.576431 -0.13238643 -0.11981937 -0.3361167
-0.45690286 0.031023728 -0.87838286 0.06423628 -0.18748356 -1.0568619 0.36864707 -0.03888246
-0.48220935 -0.2945443 -0.08714561 -0.1083894 -0.85774547 -0.24331822 0.44851503 0.1524755
0.27768412 -0.5050243 -0.075354345 0.4132203 0.14749673 -0.25456846 -0.43530795 0.030365597
-0.2613285 -0.058297034 -0.008647813 0.27834123 -0.5809722 0.61546034 -0.018457845 -0.27924427
-0.07434265 -0.5020472 -0.3044345 -0.2596394 0.05327522 -0.61548966 0.087722175 -0.20407411
-0.93785775 -0.20349048 -0.4602129 -0.7211716 -0.21251544 -0.7188989 -0.2630099 0.21521223
0.017432593 -0.15610646 -0.3653953 0.2632394 -0.30199897 -0.05393925 -0.15252034 -0.28312102
-0.11979816 -0.40318722 0.53534436 -0.088929065 0.00013536582 0.006689974 -0.27132732 -0.426891
0.030720172 0.07034704 -0.62458843 -0.5239089 0.19784123 0.4216211 -0.12658463 -0.002853172
-0.7024686 -0.07135745 -0.9259055 -0.10489488 -0.1494461 -0.20931233 -0.16707318 0.5014416
0.08634331 -0.66793334 -0.008963201 0.27910337 0.33620715 0.23303215 0.33056265 -0.21677686
0.6520823 0.65802157 -0.5112758 -0.25849646 -0.4377132 -0.36543798 1.1487209 -0.07217355
-0.020374222 -0.07684903 -0.4589093 0.388285 -0.5641311 -1.1563119 -1.3945696 0.47854295
-0.06191746 -0.23574314 0.050834026 -0.2609835 -0.24960303 -0.383631 0.058117885 0.06979277
-0.4047014 -2.6813014 -0.5753081 -0.16577126 -0.13998358 -0.58018386 0.27508563 0.61677426
00000000: 0277 873e 3419 bb3e 4d26 d6bf 4b65 0dbf
00000010: 0a31 793e b073 64bf 863d f33e a981 aebe
00000020: 9c5c 94bc e627 ddbe dcc8 77be 5a1f a3bd
00000030: 2c4b 923e e1bc b0bf 3872 163f 1919 173f
00000040: bc6d 33be e113 5b3f b89f 76bf ca49 8abe
00000050: c41a 06be 6152 c8be 61d2 a9bf 8775 203f
00000060: ca7d 24bf d465 75be aef4 b1be 86cc dcbe
00000070: 70bb 683e 5de0 ec3e 2cec 5a3e 23d5 483d
00000080: 64d8 d0be c26b b7be 260e 183d 4de5 f4bb
00000090: 09c5 ab3d 03f1 9e3c 341f 04bf b4cf 083f
000000a0: 2b38 0dbe b893 49be 103d c8bd 2713 25bf
000000b0: 1ab0 f7bc 7321 85be b819 253e 92ac cfbe
000000c0: e08f 3d3f 708a 81bf 32c6 91bf fbca 23be
000000d0: f428 493d aade 90be 4e72 7bbf 0ef3 513e
000000e0: 911b 963e 21d0 a1be 70a5 ce3f 0cd5 a3bf
000000f0: 688e 09bf 051e 6fbf 224e c0be 7baa 833e
00000100: 9dff 86bf 8b5d 90be 10fb 193e 857d 87bf
00000110: f12e 1cbf c687 39bf 1bfb 153e 527e e6bd
00000120: 0d0d 15bd 12ec 7b3f 8d5a 90be dd4f 07bf
00000130: 4bea fcbe 6e35 aabe eba1 9abe 0016 8d3d
00000140: 0e00 973e 803d 17bf 6d3d d8bd c70d 89bf
00000150: 0d97 1ec0 e45c 073e cb34 41be 55bb 6a3d
00000160: 6c7b 9bbf f266 90bd a8e5 d2bd c9c4 eb3d
00000170: b847 09c0 7f3c 2b3f 0e65 04bf 0da9 2c3e
00000180: 63db 6b3e 3d69 803f 081c 3abf d741 c3be
00000190: 9eac dfbd 4b2d 063f 1431 b33f 616e 523f
000001a0: f928 853f 6da9 48be 4408 2cbf 13a3 e4be
000001b0: 150a 873c a29c 36bf f52b 843d ab00 b2be
000001c0: d012 5bbc b454 353d e3fb 5d3e 8cd3 9f3f
000001d0: d55e bcbe 354c 40bf 1cd0 843e 23e1 65bc
000001e0: aa54 c2be d00c 1ac0 2812 06bf af46 4ebf
000001f0: 9703 6dbf 3be6 1dbf 1bfc 5f3e 2ef2 ad3e
00000200: ea32 f1bd 66cd 09be 4639 09bf dd30 d6be
00000210: fb90 13bf 4f90 07be dc63 f5bd 7d17 acbe
00000220: 2cef e9be 7925 fe3c b3dd 60bf 508e 833d
00000230: b1fb 3fbe 4047 87bf 4fbf bc3e 3743 1fbd
00000240: 25e4 f6be 83ce 96be 6679 b2bd 43fb ddbd
00000250: 3595 5bbf 6928 79be c3a3 e53e 8a22 1c3e
00000260: 9d2c 8e3e 4649 01bf 6153 9abd 9c91 d33e
00000270: 6209 173e cc56 82be afe0 debe 46c1 f83c
00000280: d9cc 85be dfc8 6ebd 8faf 0dbc be82 8e3e
00000290: 98ba 14bf cf8e 1d3f e834 97bc 1bf9 8ebe
000002a0: f640 98bd 2a86 00bf d7de 9bbe 75ef 84be
000002b0: 1e37 5a3d bb90 1dbf afa7 b33d cef8 50be
000002c0: 7217 70bf cf5f 50be 06a1 ebbe b49e 38bf
000002d0: a69d 59be c209 38bf 3ca9 86be 9860 5c3e
000002e0: ccce 8e3c 5fda 1fbe 1815 bbbe 51c7 863e
000002f0: 9c9f 9abe 67ef 5cbd 4b2e 1cbe 3df5 90be
00000300: bd58 f5bd 8e6e cebe 540c 093f 7120 b6bd
00000310: fcf0 0d39 9237 db3b 6aeb 8abe 7591 dabe
00000320: dfa8 fb3c 1c12 903d 07e5 1fbf e51e 06bf
00000330: e496 4a3e b9de d73e 679f 01be 48fc 3abb
00000340: fbd4 33bf db23 92bd 2508 6dbf 20d3 d6bd
00000350: 6608 19be f955 56be 3b15 2bbe 7a5e 003f
00000360: c3d4 b03d aefd 2abf 64da 12bc a3e6 8e3e
00000370: 5823 ac3e fb9f 6e3e 823f a93e c1fa 5dbe
00000380: deee 263f 1a74 283f f9e2 02bf a659 84be
00000390: f21b e0be b01a bbbe 4909 933f bacf 93bd
000003a0: d7e7 a6bc 0663 9dbd 29f6 eabe 4bcd c63e
000003b0: e56a 10bf 0702 94bf 4281 b2bf 9503 f53e
000003c0: 2a9d 7dbd a666 71be 5737 503d a19f 85be
000003d0: f097 7fbe 486b c4be 050d 6e3d 83ef 8e3d
000003e0: 0635 cfbe 719a 2bc0 6447 13bf f1bf 29be
000003f0: db57 0fbe ee86 14bf 06d8 8c3e ebe4 1d3f

bn_outlayer_in.weight f4 [128]
0.008930569 -0.0012646667 0.61002326 0.39051947 0.31247655 0.9693791 0.3220389 0.2302821
0.14762296 0.08164238 0.30008715 0.44382942 0.18368432 0.6522379 0.24158208 0.35486928
0.41705245 -0.008286594 0.2689294 0.71434313 0.1030708 0.41411996 0.4910488 0.5227033
0.3062807 0.60133773 0.30901477 0.43537608 0.5480727 0.06840368 0.6600007 0.09238802
0.361975 0.16652082 0.1527419 0.21083093 0.21279287 0.48440403 0.31638986 0.31466222
0.25780213 0.5912296 0.50944155 0.5245124 0.48532692 0.85912603 0.4392347 0.7101378
0.98002577 0.20419134 0.73466945 0.40513563 0.22360262 0.20076935 0.3450782 0.1065617
0.17537248 0.40167603 0.27313575 0.3137246 0.031439092 0.2947733 0.033103053 0.60662144
0.120416775 0.6072087 0.0860486 0.15880948 0.448584 0.254237 0.77546036 0.4561552
-0.0030069482 0.3784059 0.844256 0.5997 -0.0011882065 0.80891067 0.35052702 0.16863213
0.7835847 0.10823198 0.7224942 0.30387837 0.76506615 0.24409838 0.178496 0.7462543
0.31893206 0.0854375 0.50738776 0.10130524 0.7225232 0.2583389 -0.0009858266 0.47958684
0.14809996 0.26159883 0.51904976 0.23666441 0.80170053 0.59284496 0.14115645 0.1808054
0.38706455 0.34756446 0.35942385 -0.00043828296 0.39445567 0.2456729 0.24580799 0.26230732
0.9608992 0.2715952 0.7006429 0.65013653 0.423527 0.15787387 0.06949004 0.037316784
0.5123822 0.64154184 0.12264651 0.29681388 0.7271567 0.6098817 0.09774384 0.33955324
00000000: 8551 123c 2cc3 a5ba 7c2a 1c3f 2bf2 c73e
00000010: edfc 9f3e 3b29 783f 48e2 a43e 12cf 6b3e
00000020: 792a 173e 1f34 a73d 06a5 993e 9c3d e33e
00000030: be17 3c3e 10f9 263f 4b61 773e 6db1 b53e
00000040: e687 d53e 7fc4 07bc 1db1 893e 31df 363f
00000050: c916 d33d 8807 d43e c06a fb3e e2cf 053f
00000060: d3d0 9c3e 45f1 193f 2f37 9e3e 9de9 de3e
00000070: 7e4e 0c3f 3b17 8c3d cef5 283f ee35 bd3d
00000080: ca54 b93e 6f84 2a3e 5f68 1c3e 10e4 573e
00000090: 60e6 593e ce03 f83e dafd a13e 681b a13e
000000a0: a4fe 833e d35a 173f c36a 023f 7246 063f
000000b0: c57c f83e afef 5b3f 5fe3 e03e 97cb 353f
000000c0: f8e2 7a3f 8917 513e 4c13 3c3f f06d cf3e
000000d0: 16f8 643e 7b96 4d3e 17ae b03e 053d da3d
000000e0: d894 333e 7ba8 cd3e 73d8 8b3e 83a0 a03e
000000f0: 47c6 003d 87ec 963e 1197 073d 8b4b 1b3f
00000100: 129d f63d 0872 1b3f 403a b03d f49e 223e
00000110: cdac e53e 5a2b 823e 9284 463f 2d8d e93e
00000120: 3810 45bb 6bbe c13e 2921 583f f085 193f
00000130: 98bd 9bba c514 4f3f 4778 b33e e7ad 2c3e
00000140: 0299 483f baa8 dd3d 61f5 383f f295 9b3e
00000150: 60db 433f edf4 793e a8c7 363e 860a 3f3f
00000160: 104b a33e dbf9 ae3d 2ae4 013f 1f79 cf3d
00000170: 48f7 383f ff44 843e da36 81ba 688c f53e
00000180: 84a7 173e 48f0 853e 72e0 043f 2858 723e
00000190: 3f3c 4d3f b0c4 173f 518b 103e 0d25 393e
000001a0: 532d c63e f8f3 b13e 6706 b83e 58c9 e5b9
000001b0: 18f6 c93e ad91 7b3e 17b5 7b3e 254d 863e
000001c0: 7dfd 753f 870e 8b3e 555d 333f 596f 263f
000001d0: 88d8 d83e b0a9 213e cb50 8e3d 7cd9 183d
000001e0: 7b2b 033f 163c 243f 182e fb3d fdf7 973e
000001f0: f126 3a3f 3521 1c3f ec2d c83d ecd9 ad3e

bn_outlayer_in.bias f4 [128]
-0.94633174 -0.09332636 -0.41937754 -0.084367126 -0.5880874 -0.13510415 -0.11500812 -0.030543542
-0.3372104 -0.23135851 -0.36039242 -0.45088083 -0.010029747 -0.82366955 -0.23262061 -0.34042504
-0.06908258 -1.0228047 -0.08093752 -0.2836179 -0.08910904 -0.17887889 -0.2213544 -0.3100432
-0.2150925 -0.3831138 -0.08849302 -0.5388978 -0.25642407 -0.05490642 -0.35547838 -0.76923573
-0.09696238 -0.6315724 -0.564046 -0.59857464 -0.649873 -0.12637718 -0.063998796 -1.1214745
-0.17759767 -0.3003395 -0.1735296 -0.3122272 -0.51464987 -0.3789237 -0.45264813 -0.42140102
-0.20312901 0.034585834 -0.5669112 -0.3971209 -0.4815749 -0.95327246 -0.13955206 0.061352275
-0.6228521 -0.12325369 -0.029734196 -0.39983296 -0.15479305 -0.14480536 -0.3207154 -0.33161113
0.014250653 -0.27268568 0.07064799 -0.013123453 -1.0529149 -0.08208156 -0.64635175 -0.18285954
-0.32475543 -0.97338694 -0.4728835 -0.3421975 -0.13530111 -0.7895548 -0.05510398 -1.0076528
-0.48795456 -0.0015106021 -0.33591878 -0.16955613 -0.39004928 -0.15844272 -0.013564987 -0.39605448
-0.3989636 -0.018776214 -0.415351 0.060561612 -0.2610765 -0.37017518 -0.080923334 -0.28301373
-1.0593281 -0.032424733 -0.368383 -0.09150624 -0.27670208 -0.46903032 -0.015035575 0.00090252317
-0.24493842 -0.18312971 -0.64338 -0.031241406 -0.9874825 -0.12918961 -0.067627236 -0.6495895
-0.27410856 -0.09890869 -0.7764013 -0.13264242 -0.15859419 -0.013942684 -0.7518836 -0.5202251
-0.4899626 -0.36624956 -0.33980456 -0.12642495 -0.86959094 -0.2325816 0.06959429 -0.38173628
00000000: cc42 72bf e421 bfbd a7b8 d6be acc8 acbd
00000010: e58c 16bf be58 0abe 6189 ebbd 7336 fabc
00000020: d7a6 acbe 3fe9 6cbe 5b85 b8be dad9 e6be
00000030: cf53 24bc 02dc 52bf 1934 6ebe 314c aebe
00000040: 2b7b 8dbd 44eb 82bf 92c2 a5bd 5e36 91be
00000050: cd7e b6bd 072c 37be baaa 62be fbbd 9ebe
00000060: 3541 5cbe 7e27 c4be d43b b5bd 35f5 09bf
00000070: 044a 83be 8ee5 60bd 4301 b6be a2ec 44bf
00000080: 3694 c6bd bbae 21bf 5265 10bf 303c 19bf
00000090: 145e 26bf 0569 01be cd11 83bd 7a8c 8fbf
000000a0: 2adc 35be 19c6 99be beb1 31be 3edc 9fbe
000000b0: 18c0 03bf 4a02 c2be 7fc1 e7be e0c1 d7be
000000c0: 0d01 50be e0a9 0d3d 1821 11bf 6e53 cbbe
000000d0: fc90 f6be aa09 74bf bce6 0ebe 864c 7b3d
000000e0: 3c73 1fbf 6e6c fcbd 2195 f3bc e8b6 ccbe
000000f0: 1282 1ebe db47 14be cf34 a4be efc8 a9be
00000100: 927b 693c 759d 8bbe e5af 903d c003 57bc
00000110: eac5 86bf 601a a8bd 4f77 25bf 883f 3bbe
00000120: 5846 a6be e32f 79bf c91d f2be 8334 afbe
00000130: 608c 0abe 4320 4abf b6b4 61bd c4fa 80bf
00000140: 2ed5 f9be 65ff c5ba 8cfd abbe 1fa0 2dbe
00000150: 8ab4 c7be cf3e 22be ae3f 5ebc a7c7 cabe
00000160: f544 ccbe 93d0 99bc e3a8 d4be 740f 783d
00000170: d2ab 85be 9a87 bdbe 22bb a5bd 2de7 90be
00000180: 1098 87bf cccf 04bd b29c bcbe a067 bbbd
00000190: e5ab 8dbe be24 f0be c657 76bc 4e97 6c3a
000001a0: 23d1 7abe 5b86 3bbe 8db4 24bf faed ffbc
000001b0: a7cb 7cbf 484a 04be 2680 8abd 7f4b 26bf
000001c0: f557 8cbe a490 cabd 3cc2 46bf 6ad3 07be
000001d0: 8466 22be db6f 64bc 727b 40bf 792d 05bf
000001e0: 61dc fabe 1085 bbbe ddfa adbe 8b75 01be
000001f0: 839d 5ebf df29 6ebe 7387 8e3d f072 c3be

bn_outlayer_in.running_mean f4 [128]
-0.004239324 0.0031713285 -0.26151165 -0.33621323 -0.0070008524 -0.15893403 -0.0688718 -0.030258423
-0.005493156 0.0034752423 -0.01337339 6e-45 -0.046318494 -0.011947512 0.032839637 -0.008754473
-0.06250775 0.046188224 -0.116448425 -0.11634579 -0.008533893 -1.0204039 -0.02819057 -0.119486384
0.05685222 -0.49223578 -0.11325097 6e-45 -1.5988352 -0.0128303 -0.038171604 4.9248513e-08
-0.6557536 0.011583498 -0.0019394199 0.0038399596 -0.058158103 0.016380193 -0.0022144 -0.09113168
-0.18417184 -0.27484316 -0.0486229 0.00039782448 -6e-45 -0.1258894 0.16575463 6e-45
-0.21145597 -0.14486054 -0.11122477 6e-45 6e-45 -1.5543318e-08 -0.69567585 0.00545131
-6e-45 -0.11262698 -0.007283919 0.10658687 6.1876135e-06 -0.49046484 6e-45 -0.68937844
0.0017414055 -0.11466327 0.0597179 -0.123507686 -0.059894007 -0.61118287 -0.50146097 -0.012081461
7.572138e-07 0.03963472 -0.54845876 -0.23304987 -0.00059175247 0.06469276 -0.12001348 -6.809876e-12
-0.2304604 0.0054582856 -0.18503174 -0.351123 -0.023266125 6e-45 -0.009215592 -0.028104242
-0.0033830102 -0.005415695 -0.06449978 0.018019143 -0.039311368 0.05615042 -0.00033182598 -2.4565156e-30
3.3933936e-10 -0.06281673 -0.06349618 -0.26295614 -0.122869864 -0.048506465 -0.007944326 -0.0059615825
0.08448048 -0.18089858 -0.12450998 0.006641873 -0.03216002 -0.15170792 -0.6608399 -0.01537053
-0.008703237 -0.3268604 0.014488713 -0.21323542 -0.15766735 -0.048471563 2.0533264e-05 6e-45
6e-45 -0.11174778 -0.002514999 -0.21652907 -0.07035347 -0.286281 0.009393854 0.23245631
00000000: 07ea 8abb 10d6 4f3b dbe4 85be 2424 acbe
00000010: 6867 e5bb 9abf 22be a90c 8dbd 83e0 f7bc
00000020: efff b3bb e4c0 633b 101c 5bbc 0400 0000
00000030: 76b8 3dbd 7fbf 43bc db82 063d ec6e 0fbc
00000040: 1004 80bd dd2f 3d3d 837c eebd b446 eebd
00000050: bed1 0bbc 989c 82bf e9ef e6bc 47b5 f4bd
00000060: e0dd 683d 5406 fcbe 20f0 e7bd 0400 0000
00000070: a2a6 ccbf 2e36 52bc d459 1cbd 5085 5333
00000080: 78df 27bf b6c8 3d3c 2234 feba d5a7 7b3b
00000090: 3137 6ebd c12f 863c 781f 11bb 3fa3 babd
000000a0: 8b97 3cbe 3eb8 8cbe ce28 47bd 1993 d039
000000b0: 0400 0080 27e9 00be 95bb 293e 0400 0000
000000c0: ea87 58be 5256 14be d0c9 e3bd 0400 0000
000000d0: 0400 0000 1e84 85b2 d017 32bf e7a0 b23b
000000e0: 0400 0080 f9a8 e6bd f1ad eebb 384a da3d
000000f0: 329f cf36 351e fbbe 0400 0000 1b7b 30bf
00000100: df3f e43a 94d4 eabd c29a 743d 99f1 fcbd
00000110: 6b53 75bd 7b76 1cbf bf5f 00bf 52f1 45bc
00000120: 5643 4b35 0458 223d cb67 0cbf a0a4 6ebe
00000130: d61f 1bba a37d 843d a1c9 f5bd e999 efac
00000140: d0fd 6bbe 6bdb b23b f678 3dbe 65c6 b3be
00000150: 9a98 bebc 0400 0000 fffc 16bc de3a e6bc
00000160: 7eb5 5dbb 2476 b1bb 7618 84bd e29c 933c
00000170: f504 21bd fcfd 653d eef8 adb9 d54b 478e
00000180: c58d ba2f 0fa6 80bd 490a 82bd 30a2 86be
00000190: 32a3 fbbd b7ae 46bd eb28 02bc 6159 c3bb
000001a0: 1a04 ad3d 7a3d 39be 17ff febd 12a4 d93b
000001b0: 3aba 03bd 5259 1bbe ce2c 29bf add4 7bbc
000001c0: 0698 0ebc 3f5a a7be 1162 6d3c 635a 5abe
000001d0: 8d73 21be 1e8a 46bd d93e ac37 0400 0000
000001e0: 0400 0000 05dc e4bd aed2 24bb ccb9 5dbe
000001f0: 7b15 90bd 6c93 92be aee8 193c 0709 6e3e

bn_outlayer_in.running_var f4 [128]
0.010164822 0.003065121 0.22775543 0.16356991 0.0045071105 0.22190894 0.21184485 0.18360725
0.006135378 0.009446732 0.0058187945 6e-45 0.08387937 0.006180318 0.0035502175 0.0043155346
0.22933662 0.08156891 1.316985 0.043591008 0.03439302 0.8791241 0.5037137 0.51901376
0.08882419 0.25949585 0.085081786 6e-45 50.984882 0.012549254 0.27359077 6.8902204e-07
0.5423904 0.046045776 0.009567265 0.3323301 0.036983993 0.033903394 0.00095063326 0.1276626
0.14860387 0.07396706 0.003954448 0.03562449 6e-45 0.046940688 0.22867225 6e-45
1.0850307 0.4806369 0.11146866 6e-45 6e-45 6.157396e-09 0.920609 0.00011790131
6e-45 0.2683514 0.4587024 0.63237387 4.5577535e-06 2.3636785 6e-45 12.201094
0.08397462 0.016512707 0.0034979251 0.38407552 0.11257911 2.3265822 0.56761134 0.00026664793
1.1463892e-07 0.023834538 0.33316725 0.056256745 0.0010274865 0.059794858 0.28045094 1.07536745e-14
0.37077987 0.146935 0.040928815 0.5240672 0.018991712 6e-45 0.054803092 0.052474074
0.0009361991 0.0068596317 0.20710047 0.0010098439 0.020487837 0.004497667 0.0004083182 9.990704e-33
2.9777777e-11 0.35226932 0.05865855 0.18170518 0.023495462 0.024127318 0.10939929 0.040538482
0.06631669 0.22230282 0.3273579 0.007401576 0.20055644 0.25378174 0.78669745 0.01757639
0.020257054 0.32689106 0.91322947 1.2605174 0.053639095 0.061967265 1.029343e-05 6e-45
6e-45 0.093067266 0.02078419 0.4168449 0.022112299 0.11731575 0.00020079968 0.075397424
00000000: 5b8a 263c 32e0 483b b838 693e df7e 273e
00000010: 62b0 933b 193c 633e dbed 583e 8a03 3c3e
00000020: 480b c93b 77c6 1a3c 96ab be3b 0400 0000
00000030: f2c8 ab3d 4484 ca3b c4aa 683b 5469 8d3b
00000040: 38d7 6a3e 9a0d a73d f792 a83f 7c8c 323d
00000050: b2df 0c3d 470e 613f 62f3 003f 16de 043f
00000060: 75e9 b53d a4dc 843e 5c3f ae3d 0400 0000
00000070: 85f0 4b42 639b 4d3c 1714 8c3e 3cf5 3835
00000080: 19da 0a3f 7f9a 3c3d 05c0 1c3c 2c27 aa3e
00000090: 877c 173d 49de 0a3d eb33 793a fcb9 023e
000000a0: 9d2b 183e 0b7c 973d 5094 813b fcea 113d
000000b0: 0400 0000 e144 403d 0f29 6a3e 0400 0000
000000c0: 49e2 8a3f 0a16 f63e ae49 e43d 0400 0000
000000d0: 0400 0000 0791 d331 08ad 6b3f c941 f738
000000e0: 0400 0000 5b65 893e 0adb ea3e 41e3 213f
000000f0: ceee 9836 8246 1740 0400 0000 ae37 4341
00000100: e3fa ab3d a845 873c 723d 653b 8ca5 c43e
00000110: e08f e63d b9e6 1440 fa4e 113f e1cc 8b39
00000120: 6a2f f633 a640 c33c e694 aa3e 796d 663d
00000130: baac 863a 74eb 743d 4497 8f3e 92b8 4128
00000140: dcd6 bd3e 2176 163e f9a4 273d 4529 063f
00000150: 8294 9b3c 0400 0000 3579 603d 0eef 563d
00000160: 426b 753a c3c6 e03b 2512 543e bd5c 843a
00000170: 1cd6 a73c 2a61 933b 8b13 d639 b27f 4f0a
00000180: ccf6 022e a55c b43e f343 703d ec10 3a3e
00000190: 8e79 c03c a7a6 c53c bc0c e03d ae0b 263d
000001a0: 0bd1 873d 5aa3 633e 749b a73e eb88 f23b
000001b0: ab5e 4d3e aeef 813e 0165 493f 5dfc 8f3c
000001c0: 1ff2 a53c 445e a73e 68c9 693f a258 a13f
000001d0: abb4 5b3d 63d1 7d3d f2b1 2c37 0400 0000
000001e0: 0400 0000 0d9a be3d 9b43 aa3c b26c d53e
000001f0: da24 b53c 3d43 f03d c18d 5239 f769 9a3d

gnn_layers.0.gnn.att_i f4 [1, 1, 128]
0.0003891652 0.0044279876 -0.015195513 -0.21658699 0.05041521 0.023524351 0.006675172 0.015747556
-0.3457602 0.05626347 -0.047807712 0.055541843 -0.014381766 0.021952339 -0.08429912 0.005992648
0.007865834 -0.072129816 0.010625717 -0.025515428 0.10441164 -0.0029980098 0.18670046 -0.035949584
-0.009929816 0.044802535 0.00044610846 -0.121676676 0.007914544 0.023883743 0.004581941 -0.0021313813
-0.00018673355 0.0035260902 -0.61192405 0.010806738 0.0035212692 -0.028060172 0.0318389 -0.011910804
0.023231428 -0.036308806 0.18316777 -0.0101552345 0.0028044449 -0.087285526 -0.27398527 -0.0076718153
-0.06403358 -0.009847594 0.019070076 0.0023910932 0.0774389 0.0068876524 0.0047681318 0.12735127
-0.0026081777 -0.008885087 -0.08985904 -0.021361299 -0.009094094 -0.043149028 -0.007205968 -0.0018034059
0.004482984 0.40980798 -0.012905417 0.0007359077 -0.0072990335 -0.014813024 0.06437134 0.05820088
-0.0063155787 -0.0047744038 -0.017214108 -0.72261584 0.004825945 0.28521663 -0.00045456234 0.016596943
-0.011708908 -0.03683966 -0.0758365 0.049361054 -0.023811972 -0.0021662698 0.012731059 0.15348761
0.0028120652 0.08960305 -0.071280986 -0.028240848 0.011016366 0.36996847 0.007603991 0.0072390223
-0.0067758034 0.005535366 -0.016795712 0.0016872905 0.44579977 0.025279194 -0.016966693 0.0019075557
-0.013920655 0.00028025804 0.006392037 0.049226668 -0.07485051 -0.01599978 -0.008341974 -0.037917975
-0.11491527 0.0011073679 -0.00751043 0.017575294 -0.33250216 -0.011764997 -0.009588491 0.0040465374
0.002821335 0.25460446 -0.07021394 -0.008202026 -0.018102169 0.03249892 0.10116549 -0.007864049
00000000: de08 cc39 a718 913b 9af6 78bc fbc8 5dbe
00000010: 2e80 4e3d 24b6 c03c 67bb da3b 0501 813c
00000020: 7b07 b1be 8674 663d 05d2 43bd d87f 633d
00000030: 80a1 6bbc 64d5 b33c 04a5 acbd fa5d c43b
00000040: b3df 003c ccb8 93bd 7d17 2e3c bb05 d1bc
00000050: c5d5 d53d 427a 44bb 682e 3f3e df3f 13bd
00000060: abb0 22bc dd82 373d aae3 e939 9f31 f9bd
00000070: 01ac 013c d7a7 c33c 1b24 963b a5ae 0bbb
00000080: e8cd 43b9 fa15 673b 0ea7 1cbf bf0e 313c
00000090: 18c5 663b 72de e5bc 8269 023d 8825 43bc
000000a0: d64f be3c 8bb8 14bd 5590 3b3e 2462 26bc
000000b0: c7ca 373b c1c2 b2bd cc47 8cbe da63 fbbb
000000c0: 0a24 83bd ce57 21bc d938 9c3c e3b3 1c3b
000000d0: 4998 9e3d d1b1 e13b fd3d 9c3b 5f68 023e
000000e0: f6ed 2abb c292 11bc 0408 b8bd e4fd aebc
000000f0: 65ff 14bc 09bd 30bd 0a20 ecbb 4360 ecba
00000100: ffe5 923b 5ad2 d13e 3e71 53bc eee9 403a
00000110: bb2c efbb 53b2 72bc 1fd5 833d 0c64 6e3d
00000120: eaf2 cebb 9a72 9cbb 9a04 8dbc 5afd 38bf
00000130: f622 9e3b ea07 923e 5352 eeb9 50f6 873c
00000140: b8d6 3fbc 2fe5 16bd 2b50 9bbd d12e 4a3d
00000150: 5311 c3bc faf7 0dbb ef95 503c db2b 1d3e
00000160: a04a 383b ce81 b73d c4fb 91bd 5a59 e7bc
00000170: fd7d 343c 826c bd3e e62a f93b 5235 ed3b
00000180: 8f07 debb 0462 b53b 2997 89bc 1328 dd3a
00000190: de3f e43e 5016 cf3c bcfd 8abc f306 fa3a
000001a0: 7513 64bc 99ef 9239 4b74 d13b e7a1 493d
000001b0: 394b 99bd f811 83bc c6ac 08bc e14f 1bbd
000001c0: b258 ebbd 1a25 913a 0e1a f6bb 10fa 8f3c
000001d0: b93d aabe f9c1 40bc 0c19 1dbc d198 843b
000001e0: 26e6 383b 845b 823e 54cc 8fbd ca61 06bc
000001f0: 004b 94bc 961d 053d da2f cf3d 36d8 00bc

gnn_layers.0.gnn.att_j f4 [1, 1, 128]
-0.013010773 -0.02808991 0.04560654 -0.023408864 -0.056910716 -0.04234708 -0.024960151 -0.046284284
0.13245627 -0.033939697 -0.03194156 -0.099157155 0.057514407 0.030953769 0.014866568 0.035379987
-0.040497683 0.11267781 -0.041045517 -0.036309138 -0.05080759 -0.024982413 0.0023229653 -0.04751372
0.036391065 -0.010203182 0.029329984 0.10895792 -0.020612065 -0.038415663 -0.0344999 -0.033011626
-0.0009839721 -0.03720813 -0.019185342 -0.0459494 -0.009127906 -0.036447834 -0.046453986 0.04418258
-0.05495399 0.05602117 0.030788846 0.036974777 -0.009657317 -0.027910626 0.15764682 -0.0059921686
-0.030543346 -0.0328522 0.039142475 0.004612251 -0.08940395 0.026962923 -0.006377652 -0.04453593
0.01143997 -0.035371512 -0.07047888 -0.048097096 -0.0035709448 0.036475103 0.024024894 0.037526384
-0.030402597 -0.22381021 -0.044901475 -0.03476978 0.051242825 0.03676352 0.043610252 0.05651613
0.033360973 0.03329032 0.07525172 0.09036713 0.027612993 0.01071156 -0.016707402 0.035373606
0.038225915 -0.027795149 0.0646004 -0.036630914 0.050939165 -0.018536583 -0.051330738 0.018775234
-0.0340465 0.0046301144 -0.018188572 0.044188857 0.030356424 -0.00647015 0.012635228 -0.02823091
0.0004559396 -0.03228201 0.04498475 0.0024701597 0.046289653 -0.03216205 -0.043613352 -0.034733992
0.04165085 0.00018087005 -0.030619847 -0.087130405 -0.041665763 0.03938325 0.018249538 0.04015146
-0.048081245 -0.00028823735 -0.023926852 -0.0329233 -0.011011821 0.0331685 -0.017783921 0.009996507
-0.01341228 -0.05449105 -0.028194312 -0.011296829 0.038455423 -0.049792185 0.03225477 0.04388118
00000000: 232b 55bc d01c e6bc eccd 3a3d f2c3 bfbc
00000010: 361b 69bd 2274 2dbd 3b79 ccbc 9794 3dbd
00000020: 9ea2 073e 5a04 0bbd 27d5 02bd e812 cbbd
00000030: 3a94 6b3d c292 fd3c e892 733c 9bea 103d
00000040: e6e0 25bd a0c3 e63d 581f 28bd e4b8 14bd
00000050: 9f1b 50bd eba7 ccbc e43c 183b bf9d 42bd
00000060: cc0e 153d 3f2b 27bc 6f45 f03c 5425 df3d
00000070: a2da a8bc be59 1dbd c44f 0dbd 3337 07bd
00000080: a0f8 80ba 8d67 18bd 942a 9dbc 7035 3cbd
00000090: 368d 15bc 534a 15bd 8946 3ebd cbf8 343d
000000a0: 6f17 61bd 7476 653d e438 fc3c dd72 173d
000000b0: b939 1ebc d3a4 e4bc 2b6e 213e f459 c4bb
000000c0: 0a36 fabc 0790 06bd dc53 203d 5e22 973b
000000d0: 6b19 b7bd 59e1 dc3c 9ffb d0bb 4f6b 36bd
000000e0: b66e 3b3c b8e1 10bd 3b57 90bd 7601 45bd
000000f0: 8306 6abb eb66 153d dbcf c43c 44b5 193d
00000100: de0e f9bc 812e 65be 9cea 37bd c26a 0ebd
00000110: ffe3 513d 5895 163d aaa0 323d 757d 673d
00000120: 84a5 083d 6e5b 083d 931d 9a3d 6712 b93d
00000130: a534 e23c 8a7f 2f3c f6dd 88bc eae3 103d
00000140: c792 1c3d a7b2 e3bc 374d 843d 4c0a 16bd
00000150: 96a5 503d 08da 97bc 2e40 52bd 85ce 993c
00000160: 5874 0bbd 37b8 973b 3300 95bc 60ff 343d
00000170: 09ae f83c 8d03 d4bb fd03 4f3c 8244 e7bc
00000180: 2d0b ef39 243a 04bd ee41 383d 67e2 213b
00000190: 389a 3d3d 5bbc 03bd eaa3 32bd 3b45 0ebd
000001a0: 159a 2a3d efa7 3d39 79d6 fabc 6d71 b2bd
000001b0: b8a9 2abd 5550 213d 0e80 953c db75 243d
000001c0: d7f0 44bd 901e 97b9 3f02 c4bc 95da 06bd
000001d0: ed6a 34bc b1db 073d 96af 91bc 64c8 233c
000001e0: 2ebf 5bbc 0232 5fbd c2f7 e6bc 5616 39bc
000001f0: 6f83 1d3d e4f2 4bbd 941d 043d c1bc 333d

gnn_layers.0.gnn.att_em_i f4 [1, 1, 128]
-0.012899177 -0.23504704 -0.07742076 -0.4510426 0.11407997 0.045065306 0.32673252 0.46431988
0.505156 -0.27301365 0.7449636 0.0416754 0.09914316 -0.306353 -0.03046317 -0.3640291
0.06522662 -0.23727603 0.49250895 -0.20189443 -0.19431956 0.7781861 0.29724 0.5816574
0.21758963 0.12032189 0.20947292 0.018193126 -0.12203153 -0.065925516 -0.033957917 -0.12469096
0.035585962 0.12999322 -0.0031021994 0.189702 0.024823392 0.11283515 0.17971222 -0.045150362
0.21707666 1.1276908 1.214004 -0.096007556 -0.24521929 0.19665469 -0.10202056 0.39713666
0.13505268 -0.9995619 -0.08318783 0.0074839187 -0.23482731 0.52439314 -0.17839839 -0.5316529
-0.32448646 0.15919201 0.11340831 0.20838858 0.12920901 0.071929425 0.111103915 -0.16869539
0.5528376 0.9372187 0.07702983 0.3616187 0.0055888207 0.7779936 -0.0118618775 0.42377567
0.1659069 -0.22663723 0.06693234 -0.14746752 0.07867918 -0.0733968 0.34893078 -0.049788926
-0.10563537 0.8059792 0.57052225 0.49548292 -0.50012124 -0.09896679 0.14634442 0.20521109
0.4000894 -0.100187115 0.26046273 -0.49108663 -0.23921305 -0.19328542 0.120597355 -0.33342338
-0.040487513 0.14038336 -0.09196297 0.092174955 0.66184735 0.10701518 0.6643645 0.45165455
-0.015856067 0.67832893 0.052171487 0.08534735 -0.04378282 0.7788142 -0.34886217 0.17069125
0.046370238 0.18004172 0.23248814 0.3096918 -0.4512073 0.41067123 0.10594736 0.08738567
0.17306128 0.033549793 1.0492806 0.31552133 0.05439832 -0.13683592 0.20801154 -1.2412691
00000000: 1257 53bc 2cb0 70be c78e 9ebd 0eef e6be
00000010: c2a2 e93d 6696 383d 7c49 a73e 56bb ed3e
00000020: e751 013f 72c8 8bbe efb5 3e3f d3b3 2a3d
00000030: 920b cb3d 4dda 9cbe e68d f9bc 0662 babe
00000040: 8995 853d 7df8 72be 222a fc3e 6abd 4ebe
00000050: b5fb 46be 3437 473f d72f 983e 80e7 143f
00000060: d1cf 5e3e 536b f63d 1280 563e c009 953c
00000070: abeb f9bd f503 87bd 7517 0bbd f95d ffbd
00000080: 96c2 113d f11c 053e 454e 4bbb 3e41 423e
00000090: 6d5a cb3c 1d16 e73d 7b06 383e 96ef 38bd
000000a0: 5849 5e3e 2c58 903f 7c64 9b3f 9c9f c4bd
000000b0: c41a 7bbe d95f 493e 28f0 d0bd 7f55 cb3e
000000c0: 404b 0a3e 4ae3 7fbf 625e aabd a93b f53b
000000d0: 9276 70be a13e 063f 11ae 36be 681a 08bf
000000e0: 1723 a6be 3b03 233e 9e42 e83d d163 553e
000000f0: 5e4f 043e bc4f 933d 738a e33d 7cbe 2cbe
00000100: c486 0d3f 91ed 6f3f d1c1 9d3d 1626 b93e
00000110: 6d22 b73b 972a 473f 5258 42bc 20f9 d83e
00000120: 80e3 293e 9713 68be d313 893d ba01 17be
00000130: 8d22 a13d 1051 96bd 0ea7 b23e 79ef 4bbd
00000140: 5b57 d8bd a754 4e3f bf0d 123f f0af fd3e
00000150: f207 00bf 1aaf cabd 50db 153e db22 523e
00000160: 85d8 cc3e e72e cdbd 5f5b 853e b56f fbbe
00000170: 44f4 74be 9dec 45be bffb f63d 78b6 aabe
00000180: 3cd6 25bd a8c0 0f3e 1557 bcbd 39c6 bc3d
00000190: d46e 293f c62a db3d cb13 2a3f 443f e73e
000001a0: 95e4 81bc f7a6 2d3f c5b1 553d 97ca ae3d
000001b0: 9d55 33bd 5e60 473f 109e b2be b0c9 2e3e
000001c0: b8ee 3d3d db5c 383e 5f11 6e3e ec8f 9e3e
000001d0: a504 e7be 8043 d23e eefa d83d 42f7 b23d
000001e0: fa36 313e 826b 093d d44e 863f 038c a13e
000001f0: c6d0 5e3d b71e 0cbe fa00 553e e8e1 9ebf

gnn_layers.0.gnn.att_em_j f4 [1, 1, 128]
0.38951218 0.12490083 0.19233923 0.46158516 0.4195393 0.71127486 0.029721687 0.13730851
0.21973968 0.16000827 -0.079046555 0.32301888 0.14570571 0.10516248 -0.12833032 0.13696572
0.023041246 0.13219254 0.012218562 0.6244509 0.10837608 0.1022599 -0.041218318 0.062462863
-0.18533088 0.35428813 0.15457605 -0.23166172 1.9719276 0.038116407 -0.073977485 0.26140693
0.21879527 -0.3045388 -0.09726245 0.025676075 0.1848679 0.0022969374 0.09206972 0.053960443
0.09437718 -1.0177696 -0.009151315 -0.085607216 0.2924187 0.1873259 -0.029445859 2.4165256
0.00041798447 0.38456956 -0.05233364 -0.23955384 -4.381257e-05 0.04259571 0.23956262 -0.2818247
1.2285749 -0.26789925 -0.12723427 -0.025946185 -0.24309096 -0.006118315 -0.6897413 1.3948461
0.065532275 -0.024829041 -0.101362504 -0.011265796 -0.04580101 0.052891303 0.14771312 -0.045804616
-0.035716493 -0.059758432 -0.13153166 0.118081935 -0.03539411 -0.9080738 0.17621912 0.07334187
0.04449505 0.15336992 0.041355893 0.09329484 1.3314052 -0.033294953 -0.08576827 -0.18522632
0.10908189 0.0234831 0.090443395 0.23458311 0.2617552 0.2469958 -0.082163304 -0.15033466
0.07164005 0.12801638 -0.09669883 0.14468808 0.022468947 -0.064052984 0.0829757 0.045267753
0.09202127 0.13512349 -0.22901912 -1.0695745 0.07715099 0.16455199 0.04556102 0.11681808
-0.12279747 0.1368221 -0.06612417 -0.04736152 0.8144296 0.11746314 -0.13976736 -0.29661524
0.18856844 -0.014315917 0.19880238 0.07274753 -0.45166183 0.22332579 -0.65115184 -0.07443433
00000000: 246e c73e 02cc ff3d 93f4 443e e454 ec3e
00000010: dbcd d63e 1c16 363f e57a f33c 9a9a 0c3e
00000020: 7003 613e 35d9 233e 29e3 a1bd bb62 a53e
00000030: e133 153e 6d5f d73d 0669 03be be40 0c3e
00000040: ffc0 bc3c 7b5d 073e 5d30 483c 04dc 1f3f
00000050: 47f4 dd3d a36d d13d 8ad4 28bd 0fd9 7f3d
00000060: 61c7 3dbe 4165 b53e 2f49 1e3e bb38 6dbe
00000070: 2068 fc3f f31f 1c3d 8281 97bd 21d7 853e
00000080: de0b 603e 82ec 9bbe 8931 c7bd a256 d23c
00000090: 034e 3d3e 3788 163b 0d8f bc3d a005 5d3d
000000a0: d348 c13d 4646 82bf 66ef 15bc d652 afbd
000000b0: e7b7 953e 5cd2 3f3e 7138 f1bc 5ba8 1a40
000000c0: ed24 db39 4de6 c43e cd5b 56bd 9a4d 75be
000000d0: 64c3 37b8 d778 2e3d e74f 753e 544b 90be
000000e0: f141 9d3f 172a 89be b349 02be 188d d4bc
000000f0: d6ec 78be 257c c8bb e392 30bf 518a b23f
00000100: c935 863d 4666 cbbc 2597 cfbd 2c94 38bc
00000110: d799 3bbd 8da4 583d 1c42 173e 9f9d 3bbd
00000120: 754b 12bd 42c5 74bd 3cb0 06be f1d4 f13d
00000130: 6af9 10bd 8677 68bf c972 343e 4334 963d
00000140: 7140 363d 010d 1d3e cc64 293d 5d11 bf3d
00000150: 7c6b aa3f 4a60 08bd 46a7 afbd f8ab 3dbe
00000160: 5366 df3d a15f c03c 633a b93d 8e36 703e
00000170: c704 863e 78ec 7c3e 3c45 a8bd 54f1 19be
00000180: 05b8 923d ba16 033e 090a c6bd 1d29 143e
00000190: cc10 b83c 362e 83bd 2aef a93d ae6a 393d
000001a0: a675 bc3d d05d 0a3e fd83 6abe d1e7 88bf
000001b0: 5701 9e3d 5180 283e 319e 3a3d 513e ef3d
000001c0: 3d7d fbbd 181b 0c3e 1c6c 87bd 27fe 41bd
000001d0: 757e 503f 8490 f03d 2d1f 0fbe f4dd 97be
000001e0: 1618 413e 4f8d 6abc da92 4b3e a8fc 943d
000001f0: 3840 e7be 84af 643e e3b1 26bf 0771 98bd

gnn_layers.0.gnn.bias f4 [128]
-0.0042559723 0.022429748 -0.012140746 -0.009312204 0.009746076 0.026225239 -0.0024234226 0.0034556424
-0.0017814758 -0.013405199 -0.009302435 0.0024376472 0.0016755519 -0.005684289 -0.0037105156 -0.037411723
0.008851174 -0.028709495 -0.0018173328 -0.008328298 -0.0294034 0.00226029 0.003398799 -0.0068663415
-0.0018002875 0.020502599 -0.004642196 0.0039109588 0.0024982106 -0.18641096 0.0076622795 -0.06041477
2.4999268e-05 -0.0008236957 0.028675804 -0.015368401 -0.002508748 -0.0071011013 -0.0046218247 -0.0020506158
0.0025124077 0.014776513 0.0058008335 -0.0063360957 0.0016940493 0.008321541 -0.0045004613 -0.0060068998
-0.012175041 0.004239119 -0.0058745933 0.000461117 0.00453503 0.007077173 -0.00094327034 -0.07143014
-0.00031521876 0.0027662849 -0.012091782 0.004533843 0.006815777 -0.0062297015 -0.04378619 -9.648032e-05
0.007157412 -0.0030122034 0.0024927428 0.0065650498 -0.002192383 0.009834616 -0.0005257593 -0.051752128
0.0020841877 -0.016324397 0.033072982 -0.048096694 -1.1884773 -0.007527774 0.008172503 -0.0010163452
0.009906376 -0.00080651196 -0.0013723613 0.0035397122 -0.0018204887 -0.03412316 -0.004743443 0.004332256
-0.0099607045 -0.0214669 0.0024367566 -0.017289475 -0.006236022 -0.021156188 -0.1854388 0.00037128123
-0.0055440534 0.024505893 -0.011656212 -0.0088797035 0.0006536957 -0.0004447887 0.0021771593 0.0008296927
-0.01409608 0.002023546 -0.021812903 -1.4744049 0.038426235 -0.0007258831 -0.0032213025 0.007985682
0.002421322 0.0036914102 -0.00545077 -0.004722733 0.01130852 -0.004587725 0.0065448354 -0.0025486809
0.0014760637 0.0012663737 -0.010263094 -0.0054643466 -0.010990261 -0.0038370944 -0.04320875 0.0018776443
00000000: af75 8bbb 97be b73c fbe9 46bc 3792 18bc
00000010: 01ae 1f3c 50d6 d63c 49d2 1ebb 0f78 623b
00000020: 6980 e9ba 7ba1 5bbc 3e69 18bc efc0 1f3b
00000030: 319e db3a 4643 babb 1f2c 73bb 093d 19bd
00000040: 8404 113c 2d30 ebbc 9233 eeba 6a73 08bc
00000050: 66df f0bc 6021 143b 63be 5e3b 0cff e0bb
00000060: a0f7 ebba 11f5 a73c 901d 98bb 8027 803b
00000070: 05b9 233b 84e2 3ebe dc13 fb3b 7a75 77bd
00000080: 85b5 d137 48ed 57ba 85e9 ea3c bfcb 7bbc
00000090: cf69 24bb 5bb0 e8bb ad72 97bb a063 06bb
000000a0: 35a7 243b 3019 723c eb14 be3b 069f cfbb
000000b0: dd0a de3a 1357 083c 9b78 93bb 87d5 c4bb
000000c0: d379 47bc 4fe8 8a3b a97f c0bb 13c2 f139
000000d0: 979a 943b a1e7 e73b cd45 77ba f749 92bd
000000e0: f243 a5b9 8f4a 353b 9c1c 46bc a290 943b
000000f0: e256 df3b 8622 ccbb 2659 33bd 7a55 cab8
00000100: b988 ea3b 6368 45bb 495d 233b a11f d73b
00000110: 15ae 0fbb 5f21 213c 1cd3 09ba 0afa 53bd
00000120: de96 083b beba 85bc 8977 073d 0a01 45bd
00000130: 0620 98bf 8cab f6bb f6e5 053c e336 85ba
00000140: 5a4e 223c 1a6c 53ba cee0 b3ba 84fa 673b
00000150: 779d eeba bac4 0bbd e26e 9bbb 99f5 8d3b
00000160: 3932 23bc 5adb afbc feb1 1f3b a8a2 8dbc
00000170: 8b57 ccbb be4f adbc abe3 3dbe 86a8 c239
00000180: e4aa b5bb 95c0 c83c b2f9 3ebc 2d7c 11bc
00000190: c75c 2b3a 8732 e9b9 acae 0e3b bc7f 593a
000001a0: 3ff3 66bc 789d 043b f9b0 b2bc 4db9 bcbf
000001b0: d464 1d3d 3149 3eba 7d1c 53bb 61d6 023c
000001c0: 0baf 1e3b 96eb 713b 5f9c b2bb 28c1 9abb
000001d0: 5f47 393c a054 96bb 0f76 d63b c507 27bb
000001e0: 7b78 c13a 73fc a53a 8926 28bc 430e b3bb
000001f0: 7f10 34bc c377 7bbb a9fb 30bd 4a1b f63a

gnn_layers.0.gnn.lin.weight f4 [128, 50]
-0.103187464 -0.045422968 0.0967536 0.108384885 -0.011989642 0.040629577 -0.14939015 0.21215132
0.018070206 0.09531715 -0.106935956 0.039082307 -0.065929 0.0753325 0.008481978 0.031285584
0.12372167 -0.017756816 0.1810362 0.042879198 -0.16374595 -0.11949367 0.10669971 0.07475633
0.004551027 -0.27733278 -0.25402582 0.020502111 0.071744315 0.22164978 -0.045748994 0.10988964
0.14841698 -0.032918546 1.8800334e-05 -0.25179335 0.053939655 -0.120881446 0.04865896 -0.07161734
-0.13877387 0.12181944 -0.073816165 0.081242315 0.020916102 -0.13146596 0.1401322 0.02205687
0.047889862 -0.19192168 0.31696805 0.34691304 0.109291196 -0.17904122 0.22765616 -0.28723308
-0.15119044 -0.41317236 -0.49484867 -0.2384718 -0.22903728 0.29482904 0.34030932 0.18473974
0.43282315 0.3824753 0.44689137 -0.09465955 -0.13194087 -0.123849705 -0.0749601 -0.4007049
-0.84918094 -0.87836814 -0.48199445 0.033073835 0.07089194 0.3294327 0.5689741 0.19590002
0.26154825 0.15357319 -0.29220018 -0.48496008 -0.49968264 -0.07650634 -0.26306596 -0.12464044
-0.19819978 -0.36152297 0.61836773 0.6061189 0.4376884 0.3832188 0.45569772 0.567748
-0.18853869 -0.2354501 -0.27038336 0.3201912 -0.35005242 -0.07507099 -0.18048999 -0.1234653
0.06843871 -0.30505478 -0.2374323 -0.45022598 -0.25818413 -0.07949156 -0.024879627 -0.054009866
-0.17813872 -0.06066292 -0.044356585 -0.0965251 -0.015651366 -0.07471996 -0.036161184 -0.06407798
0.10918232 -0.11619632 -0.21603751 -0.08341498 -0.1542087 -0.15889138 -0.13715199 -0.15251166
-0.12990668 -0.13429822 0.053300507 -0.030719427 -0.063842006 -0.089476734 0.041330088 0.106315255
-0.10375489 -0.080548115 -0.017047038 -0.030987281 0.053654708 -0.19739377 0.013020887 -0.057324793
-0.018916966 0.14030305 -0.047954477 -0.015229008 0.16186592 0.41632286 -0.32171652 -0.1447347
-0.082369864 -0.05815365 0.63874406 0.10430636 0.2954211 0.09929326 0.17959054 -0.1407154
0.04089626 -0.048787463 0.0018414371 0.018831605 0.18585764 0.047594454 0.08519344 0.093802765
-0.095467836 -0.7170273 0.22211623 0.1584353 -0.062154993 0.024169587 -0.112491354 -0.0780088
-0.06624267 -0.09829477 0.1797032 -0.621919 0.15965177 0.100877285 0.06928386 0.12172989
0.15293565 0.24104713 0.13821827 0.18487322 0.06870009 -0.79814667 0.10161703 0.015708456
0.16866362 0.06268058 -0.45444366 -0.10776865 -0.19692221 -0.122955844 0.48834738 2.1416159
0.42329666 0.12099972 0.20963663 0.13410641 0.047858007 0.1143967 0.103840895 0.17886215
0.24140817 0.30259737 0.09589293 -0.0702147 0.028466811 0.04388178 -0.08586492 0.06562513
0.09153423 0.18837178 0.15878785 0.23213646 0.028973032 -0.015431089 0.06944829 0.37014237
0.107241325 0.13790275 -0.0032715122 -0.05855519 0.037965637 0.45887944 0.17709287 -0.06438077
-0.0985881 0.15091662 0.050202195 0.09679336 0.13968028 0.058258913 0.03392914 0.29780993
-0.067542315 -0.10325939 -0.18054894 0.020309575 -0.009353548 -0.11173817 0.010512913 -0.028499674
-0.106460415 0.08971016 0.031806212 -0.060845327 -0.08922099 -0.0013211794 0.030394528 0.22688606
00000000: f353 d3bd 6f0d 3abd c026 c63d e5f8 dd3d
00000010: 3470 44bc 336b 263d bbf9 18be 323e 593e
00000020: f807 943c a335 c33d 3d01 dbbd c514 203d
00000030: c905 87bd ed47 9a3d fff7 0a3c 5025 003d
00000040: c961 fd3d be76 91bc 8e61 393e 19a2 2f3d
00000050: 05ad 27be 19b9 f4bd 6185 da3d d919 993d
00000060: c820 953b 90fe 8dbe ac0f 82be 0bf4 a73c
00000070: afee 923d 29f8 623e 4c63 3bbd d20d e13d
00000080: 9ffa 173e 99d5 06bd 69b5 9d37 0feb 80be
00000090: d4ef 5c3d b190 f7bd 9e4e 473d 1dac 92bd
000000a0: bd1a 0ebe 787c f93d ee2c 97bd 5f62 a63d
000000b0: 3f58 ab3c 039f 06be d17e 0f3e 9cb0 b43c
000000c0: 2928 443d 1e87 44be a349 a23e 969e b13e
000000d0: 10d4 df3d 9556 37be b21e 693e 3710 93be
000000e0: abd1 1abe 548b d3be ce5c fdbe f431 74be
000000f0: c088 6abe d5f3 963e 063d ae3e 6a2c 3d3e
00000100: ff9a dd3e cdd3 c33e f2ce e43e dedc c1bd
00000110: 821b 07be eaa4 fdbd ae84 99bd 3129 cdbe
00000120: ec63 59bf bcdc 60bf fac7 f6be 6e78 073d
00000130: cb2f 913d 67ab a83e 49a8 113f 049a 483e
00000140: a7e9 853e 4a42 1d3e 439b 95be b04c f8be
00000150: 67d6 ffbe 5baf 9cbd 95b0 86be 7d43 ffbd
00000160: e2f4 4abe 8a19 b9be 594d 1e3f 9c2a 1b3f
00000170: b218 e03e 4135 c43e 3651 e93e ef57 113f
00000180: 4910 41be d519 71be b06f 8abe 1af0 a33e
00000190: 123a b3be d2be 99bd 5ed2 38be 60db fcbd
000001a0: 9829 8c3d 2430 9cbe 7421 73be 0584 e6be
000001b0: b630 84be 79cc a2bd 5cd0 cbbc 7339 5dbd
000001c0: ff69 36be af79 78bd 40af 35bd f4ae c5bd
000001d0: 4b37 80bc c706 99bd c01d 14bd 513b 83bd
000001e0: fb9a df3d 56f8 edbd f038 5dbe 79d5 aabd
000001f0: e3e8 1dbe 6cb4 22be 9271 0cbe 042c 1cbe
00000200: 4206 05be 7985 09be a251 5a3d 4fa7 fbbc
00000210: 99bf 82bd 943f b7bd bd49 293d d0bb d93d
00000220: 727d d4bd 69f6 a4bd 3ba6 8bbc 0ad9 fdbc
00000230: 0ac5 5b3d 9821 4abe 8f55 553c 67cd 6abd
00000240: c1f7 9abc 9aab 0f3e ea6b 44bd 1783 79bc
00000250: 2ec0 253e 4528 d53e 07b8 a4be 5535 14be
00000260: 88b1 a8bd 8632 6ebd bb84 233f 939e d53d
00000270: 6f41 973e 445a cb3d 95e6 373e b317 10be
00000280: d682 273d 5dd5 47bd 605c f13a bd44 9a3c
00000290: 7751 3e3e 67f2 423d e679 ae3d aa1b c03d
000002a0: a484 c3bd 1a8f 37bf 7072 633e dd3c 223e
000002b0: 3c96 7ebd 4cff c53c de61 e6bd 14c3 9fbd
000002c0: 3daa 87bd c54e c9bd 1e04 383e 1536 1fbf
000002d0: c17b 233e c098 ce3d b2e4 8d3d 854d f93d
000002e0: 2a9b 1c3e 0fd5 763e 1789 0d3e 684f 3d3e
000002f0: a2b2 8c3d 5753 4cbf 971c d03d 05af 803c
00000300: 28b6 2c3e ad5e 803d d7ac e8be cfb5 dcbd
00000310: faa5 49be 46d0 fbbd ab08 fa3e 3c10 0940
00000320: 57ba d83e b4ce f73d fcaa 563e 3153 093e
00000330: c206 443d d148 ea3d 89aa d43d a427 373e
00000340: b433 773e 0bee 9a3e 8363 c43d bacc 8fbd
00000350: 3b33 e93c 62bd 333d f2d9 afbd 7866 863d
00000360: 4c76 bb3d 88e4 403e 4899 223e 2eb5 6d3e
00000370: da58 ed3c aed2 7cbc e83a 8e3d 4d83 bd3e
00000380: 57a1 db3d 6136 0d3e de66 56bb 91d7 6fbd
00000390: db81 1b3d 3ff2 ea3e d557 353e 11da 83bd
000003a0: 8fe8 c9bd e389 1a3e d1a0 4d3d 993b c63d
000003b0: 5908 0f3e e6a0 6e3d 48f9 0a3d 8b7a 983e
000003c0: a053 8abd a979 d3bd d2e1 38be 4460 a63c
000003d0: a03f 19bc fbd6 e4bd 5a3e 2c3c 2678 e9bc
000003e0: eb07 dabd f6b9 b73d 3b47 023d f338 79bd
000003f0: 7fb9 b6bd 6d2b adba f2fd f83c d254 683e

gnn_layers.0.bn.weight f4 [128]
0.82858104 0.44906047 1.3546008 1.0051804 0.28625062 0.9307947 0.3954492 0.6900408
0.32248658 0.38864043 -0.84289056 0.008871109 -0.3479946 1.231701 0.9219974 1.1742842
0.7107014 1.6242125 1.8136411 0.7582965 0.44411647 -0.43319377 0.22098324 0.8661793
0.9929859 0.16457443 -0.59023345 0.012024197 1.2734792 0.35852805 0.75553375 0.090520754
-0.27871722 0.34141213 0.49681595 0.7525302 0.72159314 0.5992098 0.21661253 1.5460235
0.5239337 0.31879458 1.1495302 1.5077585 0.016229117 0.767827 0.48646098 0.04568792
0.90190774 1.260896 1.6414692 0.0038702744 0.01191349 0.15876907 0.2168273 0.6234463
0.008684279 1.3722405 0.97405 -1.197399 0.2294675 -0.6789408 0.011607655 -1.2777286
0.4966861 0.85964715 0.60645956 0.94087464 1.8328346 -0.12790218 1.1618651 0.5834
0.036465768 1.4754928 0.16974168 0.57058084 0.2736272 1.7005365 0.5597539 0.21885563
1.6302202 0.9762336 0.4314553 0.5823404 0.45271754 -0.0018504119 0.59350634 0.6340688
-0.57533866 0.30557543 0.6613849 0.7441795 0.73613673 1.4312252 0.15368074 0.026211219
0.07556315 0.6834966 1.5194155 0.24555291 0.7238406 0.37219983 0.8923147 0.31549114
1.0632621 0.26078448 1.0876412 0.26901934 0.6820867 -0.6235884 -0.49585468 0.81518316
0.36435512 0.3284628 0.54499537 1.0308472 0.7438401 -0.3817553 0.09934367 0.0018891555
0.011199037 0.6712375 0.4513416 -0.4812614 1.333928 0.69282764 0.69099325 1.0985167
00000000: e31d 543f 41eb e53e 8f63 ad3f c0a9 803f
00000010: 718f 923e 9048 6e3f 5178 ca3e 84a6 303f
00000020: f61c a53e e1fb c63e adc7 57bf 2158 113c
00000030: 592c b2be 61a8 9d3f 0608 6c3f f24e 963f
00000040: 87f0 353f 32e6 cf3f 6425 e83f b81f 423f
00000050: 3c63 e33e 93cb ddbe 6e49 623e edbd 5d3f
00000060: 5334 7e3f 3386 283e 8a19 17bf 2301 453c
00000070: 5e01 a33f fd90 b73e a96a 413f f262 b93d
00000080: 06b4 8ebe 92cd ae3e a95e fe3e d2a5 403f
00000090: 54ba 383f d065 193f adcf 5d3e 19e4 c53f
000000a0: 8520 063f 0b39 a33e ce23 933f 3bfe c03f
000000b0: edf2 843c 4f90 443f 6a11 f93e 4223 3b3d
000000c0: 6de3 663f 0a65 a13f aa1b d23f 6ea4 7d3b
000000d0: cc30 433c 5c94 223e fa07 5e3e 2d9a 1f3f
000000e0: 8248 0e3c 94a5 af3f 575b 793f 5f44 99bf
000000f0: 87f9 6a3e 10cf 2dbf 092e 3e3c 9c8c a3bf
00000100: a44d fe3e d611 5c3f ef40 1b3f 29dd 703f
00000110: 539a ea3f caf8 02be ffb7 943f b459 153f
00000120: 215d 153d f3dc bc3f c3d0 2d3e 9611 123f
00000130: dd18 8c3e 2eab d93f 084c 0f3f b11b 603e
00000140: 0eab d03f 72ea 793f b6e7 dc3e 4314 153f
00000150: 98ca e73e 8589 f2ba 08f0 173f 5552 223f
00000160: 6549 13bf 6274 9c3e 8550 293f 8c82 3e3f
00000170: 7573 3c3f 6332 b73f 7c5e 1d3e e9b8 d63c
00000180: dac0 9a3d a2f9 2e3f 357c c23f 3972 7b3e
00000190: 9e4d 393f fa90 be3e bc6e 643f 0e88 a13e
000001a0: f918 883f 8b85 853e d437 8b3f e7bc 893e
000001b0: 3c9d 2e3f 7da3 1fbf aae0 fdbe d8af 503f
000001c0: c18c ba3e 472c a83e d184 0b3f cdf2 833f
000001d0: 4e6c 3e3f 6e75 c3be b274 cb3d 8a9d f73a
000001e0: 2a7c 373c 39d6 2b3f 3f16 e73e e567 f6be
000001f0: 27be aa3f 275d 313f efe4 303f 329c 8c3f

gnn_layers.0.bn.bias f4 [128]
0.014603984 -0.57701063 0.12914643 0.70022124 -0.7305035 0.38780802 0.47896168 0.3862682
-0.7635142 -0.6837086 -0.12804079 -0.80674034 0.4505781 -0.32529002 -0.16023098 -0.30360952
0.29037175 -0.06395262 1.8896699 0.3339544 -0.680267 2.4401839 0.879046 0.3314969
0.22123282 1.0295058 0.56136984 -0.6240449 5.048129 -0.6730207 -0.28736883 -0.882832
1.6878526 -0.7505431 -0.25332108 0.36355025 0.1931779 0.059916873 -0.77369994 -0.040584434
0.932885 0.91506255 -0.092812255 -0.15643117 -0.81880647 0.3447607 0.50026107 -0.7273633
0.30774206 0.44787976 -0.034010995 -0.6791456 -0.6221036 -1.085235 1.6412634 -0.19803953
-0.66600275 0.48856413 0.32073855 1.238515 -0.7544603 3.1372137 -0.6079726 3.2080495
0.38539597 0.19357781 0.016394248 0.99602634 -0.043730687 3.2249308 0.74965525 -0.14886056
-0.93637204 -0.24647689 1.0714029 0.52120036 -0.8000694 -0.2062167 0.4248841 -0.62854767
0.1546497 0.33199075 0.6289843 1.7654791 0.034384467 -0.50571024 0.21772131 0.10458875
-0.14380747 -0.7157893 -0.37252805 -0.16535194 -0.06339974 -0.33998683 -0.661157 -0.91138417
-0.666016 0.3624651 -0.055323303 1.0049646 0.39325428 0.3049936 0.34025243 0.2269523
0.04122507 0.9118648 0.24357077 -0.7001611 -0.2555195 1.0915842 2.0043871 -0.10563367
-0.82576543 1.1953074 0.7790871 0.3619678 0.41542736 0.22611399 -0.8892659 -0.8196633
-0.68264335 0.06776838 -0.23945644 1.4979019 -0.20014727 0.45725963 -0.20478289 0.20287293
00000000: 8c45 6f3c f8b6 13bf f63e 043e b341 333f
00000010: 4702 3bbf c68e c63e 773a f53e f2c4 c53e
00000020: ab75 43bf 8707 2fbf 201d 03be 8986 4ebf
00000030: 2cb2 e63e 6a8c a6be 9713 24be b572 9bbe
00000040: 9bab 943e 97f9 82bd b4e0 f13f 12fc aa3e
00000050: fa25 2ebf f92b 1c40 2909 613f f6b9 a93e
00000060: db8a 623e d9c6 833f efb5 0f3f 68c1 1fbf
00000070: 468a a140 164b 2cbf 0222 93be 4701 62bf
00000080: 8e0b d83f 9823 40bf 4db3 81be 4223 ba3e
00000090: 6dd0 453e 656b 753d 3311 46bf dd3b 26bd
000000a0: 8dd1 6e3f 8a41 6a3f 5a14 bebd 7e2f 20be
000000b0: 4d9d 51bf 7984 b03e 1c11 003f 7b34 3abf
000000c0: 5e90 9d3e 7f50 e53e 1d4f 0bbd 7cdc 2dbf
000000d0: 2e42 1fbf fbe8 8abf eb14 d23f e0ca 4abe
000000e0: 287f 2abf 1425 fa3e d837 a43e a987 9e3f
000000f0: 4f24 41bf 1cc8 4840 18a4 1bbf af50 4d40
00000100: 9f52 c53e 4339 463e 3b4d 863c 95fb 7e3f
00000110: f31e 33bd 4465 4e40 68e9 3f3f e76e 18be
00000120: 14b6 6fbf 7064 7cbe bb23 893f 636d 053f
00000130: 59d1 4cbf 782a 53be 698a d93e 80e8 20bf
00000140: 7e5c 1e3e b1fa a93e 1d05 213f 38fb e13f
00000150: bad6 0c3d 3a76 01bf 56f2 5e3e a032 d63d
00000160: 4442 13be f83d 37bf ffbb bebe 0552 29be
00000170: b9d7 81bd c112 aebe 9641 29bf 7950 69bf
00000180: 0680 2abf 0795 b93e b09a 62bd aea2 803f
00000190: a058 c93e 1f28 9c3e 9135 ae3e 2f66 683e
000001a0: 9edb 283d f96f 693f 9e6a 793e c23d 33bf
000001b0: 74d3 82be 08b9 8b3f e147 0040 7756 d8bd
000001c0: 5d65 53bf d5ff 983f 4172 473f d853 b93e
000001d0: e5b2 d43e 6d8a 673e eea6 63bf 74d5 51bf
000001e0: b7c1 2ebf 26ca 8a3d 1234 75be 40bb bf3f
000001f0: 68f3 4cbe ef1d ea3e 9bb2 51be ecbd 4f3e

gnn_layers.0.bn.running_mean f4 [128]
-0.00413824 0.02300444 -0.031405453 0.0029441814 0.031903144 0.046935886 0.012711548 0.013390602
0.016944518 0.006628793 0.016603071 0.014016604 -0.010553878 -0.029859168 -0.072008915 -0.0668629
0.019673176 -0.04527931 0.006300657 0.011486176 -0.009096822 0.009296775 -0.015664116 0.014687388
-0.008968977 0.026724631 -0.01609778 -0.02115865 0.01385764 -0.18252103 0.016093455 -0.058576748
0.009909031 0.02227166 0.039232083 0.00031021185 0.00044118575 -0.023087652 0.012272706 -0.012952627
0.022424635 0.007903247 -0.023160985 -0.019981004 0.0020922322 0.034251098 0.019431764 -0.014819768
0.0069728103 0.018730996 -0.020945374 0.0003641866 0.019653758 0.0046940017 0.0052729025 -0.09603938
-0.0004385162 0.015066833 -0.008229138 0.023720441 0.0030079822 -0.016118238 -0.044373166 -0.019888775
0.018075828 -0.03918706 -0.0116960285 0.018751482 -0.012419842 0.005879976 -0.011809986 -0.085689604
0.0016026105 -0.028236948 0.017401185 -0.08421285 -1.1887742 -0.0225075 0.017963631 -0.013890478
-0.002297793 0.0047898954 -0.028144618 0.017505474 -0.017144106 -0.0334613 0.025609603 -0.009926662
0.024341805 -0.016699195 0.014236013 -0.068537675 -0.034502197 -0.05641976 -0.1852906 0.0009968741
-0.016796116 0.038287397 -0.022467587 0.0021175249 -0.020788288 0.014480996 0.01130408 0.010947672
-0.026248625 0.0131218145 -0.011271496 -1.466778 0.043483596 -0.009236524 -0.01070756 -0.04779477
0.024388751 0.014184117 0.008374137 0.010286405 0.03753053 -0.021174755 0.011792702 -0.0025844728
0.0018988465 -0.0139687965 9.352577e-05 -0.015129497 -0.039130718 0.017469145 -0.068265595 -0.005521322
00000000: 139a 87bb cf73 bc3c 01a3 00bd 2bf3 403b
00000010: dfac 023d d83f 403d 1944 503c 4164 5b3c
00000020: 3bcf 8a3c 5936 d93b 2a03 883c e6a5 653c
00000030: 2cea 2cbc 379b f4bc 6979 93bd 6bef 88bd
00000040: a429 a13c cc76 39bd be75 ce3b 8430 3c3c
00000050: d60a 15bc 8051 183c 0852 80bc 5fa3 703c
00000060: 9ef2 12bc 9ded da3c 7edf 83bc e854 adbc
00000070: 280b 633c cbe6 3abe 6cd6 833c 2cee 6fbd
00000080: 7d59 223c 0e73 b63c d2b1 203d eea3 a239
00000090: f34e e739 5122 bdbc 7613 493c 4137 54bc
000000a0: deb3 b73c 9f7c 013c 1bbc bdbc 34af a3bc
000000b0: d51d 093b e14a 0c3d 5d2f 9f3c 9dce 72bc
000000c0: 2c7c e43b bf71 993c a295 abbc 4cf0 be39
000000d0: eb00 a13c 24d0 993b 50c8 ac3b 4bb0 c4bd
000000e0: a6e8 e5b9 e1da 763c 82d3 06bc 5f51 c23c
000000f0: 9121 453b 650a 84bc a3c0 35bd c9ed a2bc
00000100: c213 943c 9c82 20bd b3a0 3fbc b59c 993c
00000110: 987c 4bbc d0ac c03b ac7e 41bc 087e afbd
00000120: af0e d23a 2c51 e7bc ee8c 8e3c c977 acbd
00000130: c129 98bf a661 b8bc 7728 933c e394 63bc
00000140: 9296 16bb 8ef4 9c3b 8b8f e6bc a467 8f3c
00000150: cc71 8cbc b70e 09bd 3bcb d13c 70a3 22bc
00000160: 7768 c73c c0cc 88bc 2b3e 693c 7b5d 8cbd
00000170: 2d52 0dbd 6818 67bd d2bc 3dbe 8ba9 823a
00000180: 0298 89bc 3fd3 1c3d f20d b8bc 2cc6 0a3b
00000190: 334c aabc b341 6d3c bf34 393c dd5d 333c
000001a0: 5b07 d7bc e1fc 563c 15ac 38bc 62bf bbbf
000001b0: db1b 323d ca54 17bc c36e 2fbc 73c4 43bd
000001c0: ebca c73c 8064 683c ad33 093c 4f88 283c
000001d0: 9db9 193d ae76 adbc 2d36 413c 4260 29bb
000001e0: b7e2 f83a 61dd 64bc 4423 c438 b6e1 77bc
000001f0: 8847 20bd 741b 8f3c d5ce 8bbd 35ec b4bb
