model_normal/gdn_smd_w_200_epoch20.pth (torch, 136584 bytes, 16 tensors)

embedding.weight f4 [38, 128]
-0.10059909 0.55456924 -0.70412946 0.0901706 -0.35281864 0.016479876 -0.21291836 -0.06416519
0.11812025 0.77353877 -0.23524009 -1.247815 0.15286508 -0.84733385 0.22126913 -0.6104311
-0.29579863 -0.09315745 0.06676562 -0.21560095 -0.13677305 -0.56422335 -0.0045693396 -0.9370479
1.0010328 0.43860152 0.15611033 0.058109496 0.1883954 0.006035427 0.24826576 -0.005417406
-0.054455865 0.39822417 -0.086497135 0.1232992 -0.42948106 -0.16159149 -0.06774422 -0.007874538
0.058546618 0.09702907 0.014573971 -0.08143246 0.9905678 0.09859665 0.4239943 0.6327334
-0.539908 0.32436422 -0.83278596 -0.5114571 -0.74750286 -0.27742663 0.21824683 -0.35093287
-1.0300797 0.15607528 0.17839025 0.08051003 0.26077783 -0.47011137 -0.5984356 -0.35569033
-0.15483479 0.3864254 -0.57934093 -0.3696916 -0.17223805 0.05855918 0.1028522 0.5949749
0.44392878 -0.91164714 -0.58494896 0.14186661 0.11572606 -1.2072382 -0.0369295 -1.4397168
-0.14331637 0.02597708 0.38508934 -0.6044105 0.15284167 -0.3277687 -0.4250561 -0.5127013
0.05855353 0.7832207 -0.19651392 0.0026805396 -0.7026281 -0.1519045 0.014763437 0.03253693
0.074422345 0.096396595 -0.51882076 -0.26756808 -0.29809463 0.14211297 0.051924717 0.13977182
0.061928023 -0.08690424 -0.23848704 -0.24074894 -0.19752651 -0.69662935 0.21258861 -0.16402619
0.22870469 0.32671297 -0.6748648 -0.17204988 -0.34712157 -0.22413124 -0.19436902 0.3050735
-1.3696254 0.5158359 -1.0039765 -0.34829524 -0.092424236 -1.1979144 0.1195663 -0.5206618
-1.2192284 0.42890057 -1.5764216 -1.6092491 0.06998214 -0.2563314 -0.076143526 -0.014987328
0.65691924 -0.011416336 -0.48327038 -1.0131999 0.15941289 0.072283134 -0.08854634 -1.7909542
-0.4968946 -0.49845904 -0.034285016 -0.21314703 -2.5345507 -1.1950125 0.06151664 -1.1120205
-1.5227971 -0.25103384 0.018955545 -0.2809241 -1.2453581 -0.4633719 -0.072842866 -0.610104
0.14918636 -0.17444678 -0.20004031 0.30596766 -0.28359517 -2.028062 0.0843664 -0.5339967
0.2613016 -0.9134484 -0.2700753 -0.3046557 0.19603014 -0.18309359 -0.32971808 0.95984316
0.015969519 -0.45080945 -0.36455226 -0.8328513 -1.6632828 0.18149303 -0.8955176 -0.026971973
-0.19203444 -0.08004531 -0.2429837 -0.021200856 -0.38148323 -0.77950925 -0.17259254 -0.3615267
0.093198165 -0.2792968 -0.11396676 -0.5540328 -0.4935463 -0.2612312 0.028353976 -0.07394078
0.1021793 -1.6723634 0.023019874 0.19057448 -1.1693258 -1.0421339 0.18852347 -1.0114266
-1.0413923 -1.2833712 -0.08813196 0.38017076 -1.4808451 0.021436507 -0.6760966 -0.8450653
0.11646259 0.124086805 0.11481557 0.10571864 0.1063772 -1.70495 -0.034123115 -0.06726864
-0.19105557 -0.103078105 -1.3305781 0.00035060378 -0.16133785 -0.32111743 0.123290345 -0.366368
-0.07453659 0.085993566 -0.60082567 0.13394952 -0.9489622 0.043268472 -0.60773253 -0.8355885
-0.1426626 -1.211388 0.24652305 -0.80477524 -0.9791272 0.007198404 -0.19171298 0.27153212
-1.1329179 0.019590538 0.5598438 -0.02760885 -0.026511483 -0.13271175 -0.85637265 -1.5558851
00000000: e506 cebd 40f8 0d3f d441 34bf 5dab b83d
00000010: a5a4 b4be ce00 873c 4507 5abe 0a69 83bd
00000020: 08e9 f13d a306 463f c7e2 70be 67b8 9fbf
00000030: aa88 1c3e dfea 58bf 6094 623e 3645 1cbf
00000040: eb72 97be 55c9 bebd 6abc 883d 7fc6 5cbe
00000050: 3c0e 0cbe f170 10bf 66ba 95bb 5fe2 6fbf
00000060: d821 803f 6190 e03e 63db 1f3e 3904 6e3d
00000070: b9ea 403e d5c4 c53b 6139 7e3e 7f84 b1bb
00000080: 1d0d 5fbd 0ae4 cb3e 6925 b1bd 4a84 fc3d
00000090: f1e4 dbbe 3d78 25be 7bbd 8abd 3504 01bc
000000a0: 94ce 6f3d 2db7 c63d aac7 6e3c 10c6 a6bd
000000b0: da95 7d3f 0aed c93d c815 d93e d1fa 213f
000000c0: 6937 0abf 1113 a63e 7631 55bf daee 02bf
000000d0: 595c 3fbf dd0a 8ebe 197c 5f3e 79ad b3be
000000e0: a7d9 83bf 33d2 1f3e efab 363e 71e2 a43d
000000f0: ac84 853e 70b2 f0be 1333 19bf 0b1d b6be
00000100: 038d 1ebe 8dd9 c53e b04f 14bf 3848 bdbe
00000110: 2c5f 30be c0db 6f3d 2da4 d23d 4650 183f
00000120: a24a e33e b561 69bf 37bf 15bf 7b45 113e
00000130: c901 ed3d c886 9abf 6343 17bd a448 b8bf
00000140: 87c1 12be e3cd d43c 6e2a c53e a6ba 1abf
00000150: 8782 1c3e 4dd1 a7be f4a0 d9be 6440 03bf
00000160: d4d5 6f3d 2781 483f f23a 49be feab 2f3b
00000170: 6fdf 33bf da8c 1bbe 58e2 713c 7245 053d
00000180: be6a 983d 946b c53d 70d1 04bf affe 88be
00000190: dc9f 98be 1086 113e 03af 543d 5820 0f3e
000001a0: 3da8 7d3d dafa b1bd f235 74be e486 76be
000001b0: 6444 4abe 4d56 32bf d4b0 593e 7bf6 27be
000001c0: 9031 6a3e ec46 a73e f1c3 2cbf d82d 30be
000001d0: ebb9 b1be a982 65be ac08 47be 9832 9c3e
000001e0: e34f afbf d20d 043f 4d82 80bf c153 b2be
000001f0: eb48 bdbd 4255 99bf 2ddf f43d 174a 05bf
00000200: ad0f 9cbf db98 db3e 2fc8 c9bf e0fb cdbf
00000210: cc52 8f3d df3d 83be 23f1 9bbd 698d 75bc
00000220: dc2b 283f 950b 3bbc 376f f7be 89b0 81bf
00000230: 223d 233e 2e09 943d c957 b5bd fd3d e5bf
00000240: f868 febe 0636 ffbe 726e 0cbd 3743 5abe
00000250: 1436 22c0 2bf6 98bf dff8 7b3d b056 8ebf
00000260: 04eb c2bf 8287 80be a948 9b3c 49d5 8fbe
00000270: e567 9fbf 153f edbe a42e 95bd c72f 1cbf
00000280: 4fc4 183e 2da2 32be 5ed7 4cbe cba7 9c3e
00000290: 6333 91be c5cb 01c0 4bc8 ac3d 02b4 08bf
000002a0: 53c9 853e c1d7 69bf 4f47 8abe d5fb 9bbe
000002b0: 20bc 483e e37c 3bbe cfd0 a8be 48b8 753f
000002c0: 82d2 823c 7fd0 e6be 98a6 babe be35 55bf
000002d0: 73e6 d4bf 4fd9 393e a440 65bf 54f4 dcbc
000002e0: ada4 44be ccee a3bd b8d0 78be 6bad adbc
000002f0: c551 c3be eb8d 47bf 19bc 30be 071a b9be
00000300: aede be3d fdff 8ebe 6867 e9bd 18d5 0dbf
00000310: 1ab2 fcbe 19c0 85be 9946 e83c 436e 97bd
00000320: 6143 d13d 0110 d6bf 2d94 bc3c f525 433e
00000330: 78ac 95bf a564 85bf 4c0c 413e 6d76 81bf
00000340: 584c 85bf 8245 a4bf 877e b4bd bea5 c23e
00000350: 558c bdbf 9d9b af3c ab14 2dbf 3356 58bf
00000360: f083 ee3d 3921 fe3d 6d24 eb3d 0483 d83d
00000370: 4adc d93d cd3b dabf aec4 0bbd 24c4 89bd
00000380: 12a4 43be 9d1a d3bd 6250 aabf 3ed1 b739
00000390: c035 25be 8169 a4be a67f fc3d 9694 bbbe
000003a0: a4a6 98bd 651d b03d b6cf 19bf 102a 093e
000003b0: 30ef 72bf 483a 313d 5c94 1bbf 21e9 55bf
000003c0: 2516 12be c30e 9bbf 8a70 7c3e c005 4ebf
000003d0: 15a8 7abf 97e0 eb3b 6850 44be 4206 8b3e
000003e0: 7403 91bf 567c a03c ec51 0f3f f42b e2bc
000003f0: 9c2e d9bc 97e5 07be 3d3b 5bbf 3e27 c7bf

bn_outlayer_in.weight f4 [128]
0.693481 0.42772266 0.552015 0.24357651 0.13271523 0.09327446 0.40890506 0.79330444
0.38693833 0.26519343 0.6785825 0.86354536 0.124953635 0.4326134 0.3766938 0.5008243
0.4777836 0.5296734 0.14024542 0.30924168 0.9267678 0.11396981 0.51890385 0.1938301
0.29840672 0.22616483 0.6161613 0.009252592 0.5536245 0.8313899 0.26024443 1.073176
0.5035482 0.14872758 0.49940643 0.50250965 0.67162716 0.6290513 0.61816096 0.14838648
0.35399976 0.7102261 0.7692634 0.34490037 0.48129866 0.2724203 0.8400279 0.17079262
0.36710235 0.6421382 0.2553629 0.3638199 0.3099914 0.023477072 0.036655888 0.5875387
0.23395531 0.43981716 0.24914657 0.43817726 0.2494167 0.68435 0.30568743 0.23779705
0.6442821 0.11578523 0.76369685 0.2825811 0.21032982 0.022794252 0.7912218 0.20476487
0.66442996 0.5607629 0.21505143 0.5665142 0.30437902 0.628002 0.12772676 0.8632795
0.15214641 0.569637 0.14394872 0.7292083 0.7388845 0.26059538 0.48300305 0.8335227
0.26651812 0.1587977 0.0010611298 0.6513831 0.36665028 0.44523048 0.15674368 0.5681776
0.5515111 0.52299774 0.34257796 0.34505075 0.592035 0.36038682 0.117175765 0.012938695
0.31382504 0.5012012 0.43515658 0.3521729 0.8735965 0.31185395 0.9202564 0.5831311
0.5744697 0.6790384 0.8417496 0.6001913 0.18535796 0.13617256 0.5355491 0.2399453
0.8313151 0.5422757 0.583805 0.47086942 0.3584774 0.8141476 0.28216738 0.73179746
00000000: f987 313f 77fe da3e db50 0d3f 1f6c 793e
00000010: 80e6 073e ae06 bf3d 015c d13e 0016 4b3f
00000020: c81c c63e 6fc7 873e 95b7 2d3f 4f11 5d3f
00000030: b1e7 ff3d 817f dd3e 02de c03e 0536 003f
00000040: 0da0 f43e ad98 073f 7f9c 0f3e ed54 9e3e
00000050: a840 6d3f 0169 e93d e2d6 043f 667b 463e
00000060: c4c8 983e c197 673e bfbc 1d3f 2f98 173c
00000070: 56ba 0d3f f8d5 543f c23e 853e d55d 893f
00000080: 89e8 003f 0b4c 183e 33b2 ff3e 79a4 003f
00000090: c2ef 2b3f 8209 213f cc3f 1e3f a0f2 173e
000000a0: 753f b53e 61d1 353f 72ee 443f c896 b03e
000000b0: c76c f63e ac7a 8b3e 120c 573f 43e4 2e3e
000000c0: d7f4 bb3e 2b63 243f edbe 823e 9a46 ba3e
000000d0: 31b7 9e3e fd52 c03c 7c24 163d f068 163f
000000e0: fb91 6f3e b72f e13e 4720 7f3e c558 e03e
000000f0: 1767 7f3e 9031 2f3f 1083 9c3e 1281 733e
00000100: acef 243f cf20 ed3d a381 433f 78ae 903e
00000110: b360 573e 03bb ba3c 838d 4a3f e2ad 513e
00000120: 1518 2a3f 288e 0f3f 7136 5c3e 1307 113f
00000130: 91d7 9b3e bdc4 203f ceca 023e e3ff 5c3f
00000140: 45cc 1b3e bbd3 113f 4b67 133e 65ad 3a3f
00000150: 8927 3d3f c26c 853e 2d4c f73e be61 553f
00000160: 1075 883e dd9b 223e 9c15 8b3a 0bc1 263f
00000170: 96b9 bb3e 40f5 e33e 6a81 203e 1674 113f
00000180: d52f 0d3f 2ee3 053f 6166 af3e 7eaa b03e
00000190: 9b8f 173f 9f84 b83e d9f9 ef3d d2fc 533c
000001a0: adad a03e b94e 003f d8cc de3e 0250 b43e
000001b0: 05a4 5f3f 52ab 9f3e ec95 6b3f 1448 153f
000001c0: 7210 133f 76d5 2d3f e77c 573f 23a6 193f
000001d0: 7ace 3d3e d270 0b3e bf19 093f 39b4 753e
000001e0: 11d1 543f 95d2 0a3f 3f74 153f cc15 f13e
000001f0: 5a8a b73e fa6b 503f 3e78 903e 1457 3b3f

bn_outlayer_in.bias f4 [128]
-0.28975222 -0.28720412 -0.27054846 -0.56621134 -0.07502028 -0.55507463 -0.92302 -0.21794464
-0.22445765 -0.16213979 -0.20528723 -0.47206798 -1.1767621 -0.03542433 -0.1301493 -0.22247976
-0.23514163 -0.11650592 -0.40285203 -0.031941436 -0.65886194 -0.17004772 -0.18535419 -0.048214328
-0.07528966 -0.01746251 -0.58032984 -0.46562883 -0.24995051 -0.23374003 -0.14156248 -0.28491732
-0.6987351 -0.49735996 -0.22674294 -1.0393975 -0.16635996 -0.23440199 -0.47681794 -0.0562255
-0.27418643 -0.33003923 -0.22818659 -0.07530123 -0.6407993 -0.087628245 -0.21266633 -0.03190427
-0.025254216 -0.3329023 -0.061531473 -0.15753138 -0.47509432 -0.5624394 -0.22333935 -0.24822186
-0.0581831 -0.65039545 -0.048049603 -0.62451243 -0.50612056 -0.84138143 -0.19431587 -0.0450387
-0.44182608 -0.004337365 -0.62290394 -0.04084008 -0.03562597 -0.8516904 -0.3389556 -0.030547436
-0.32688603 -0.26149625 -0.06908513 -0.38214695 -0.17277113 -0.42606968 -0.9528238 -0.47268733
-0.5741572 -0.33428255 0.00913952 -0.6932691 -0.2569218 -0.7828136 -0.15598097 -0.4528951
-0.2422752 -0.058010336 -0.37809375 -0.940082 -0.007546126 -0.22566995 -0.024660107 -0.48076114
-0.55818194 -0.4528641 -0.20055343 -0.23383132 -0.79416275 -0.5683398 0.029846093 -0.9383337
-0.16433188 -0.60842246 -0.3836552 -0.55183977 -0.42086735 -0.033395167 -0.25589722 -0.62646866
-0.85502404 -0.22148493 -0.93419296 -0.44954184 -0.003985289 -0.6835261 -0.47969645 -0.3675747
-0.45042324 -0.38462153 -0.50967723 -0.5360238 -0.10600462 -0.4080633 -0.5287722 -0.38511947
00000000: 675a 94be 6b0c 93be 5485 8abe 3af3 10bf
00000010: 3ca4 99bd 5f19 0ebf 0a4b 6cbf e12c 5fbe
00000020: 3ad8 65be f907 26be d136 52be e5b2 f1be
00000030: 24a0 96bf 1a19 11bd dc45 05be bcd1 63be
00000040: f8c8 70be a89a eebd 9f42 cebe 06d5 02bd
00000050: 2dab 28bf fd20 2ebe 7dcd 3dbe 637c 45bd
00000060: 7731 9abd 8a0d 8fbc 7f90 14bf e766 eebe
00000070: 07f3 7fbe 8c59 6fbe c1f5 10be afe0 91be
00000080: 4ee0 32bf f7a5 febe 4d2f 68be fa0a 85bf
00000090: 445a 2abe 1307 70be 7b21 f4be b64c 66bd
000000a0: 2a62 8cbe e7fa a8be bfa9 69be 8837 9abd
000000b0: 6c0b 24bf 7076 b3bd 34c5 59be 0dae 02bd
000000c0: eee1 cebc 2c72 aabe 6d08 7cbd e84f 21be
000000d0: 903f f3be 07fc 0fbf 12b3 64be df2d 7ebe
000000e0: 6751 6ebd 5180 26bf a9cf 44bd 0ce0 1fbf
000000f0: 1e91 01bf c664 57bf bdfa 46be 807a 38bd
00000100: 0737 e2be 7420 8ebb a276 1fbf ed47 27bd
00000110: 8aec 11bd 6208 5abf 978b adbe 9e3e fabc
00000120: 9b5d a7be d6e2 85be 817c 8dbd c4a8 c3be
00000130: eaea 30be ce25 dabe 43ec 73bf 1304 f2be
00000140: f7fb 12bf 1527 abbe edbd 153c 157a 31bf
00000150: 418b 83be 7966 48bf 7ab9 1fbe dee1 e7be
00000160: fd16 78be 3f9c 6dbd 8195 c1be 37a9 70bf
00000170: 7e45 f7bb 0616 67be fe03 cabc 5326 f6be
00000180: 03e5 0ebf cedd e7be e15d 4dbe 7a71 6fbe
00000190: 404e 4bbf b87e 11bf cb7f f43c a336 70bf
000001a0: 9e46 28be 93c1 1bbf 746e c4be 5f45 0dbf
000001b0: ed7b d7be 5fc9 08bd f604 83be 4060 20bf
000001c0: dbe2 5abf f2cc 62be 4527 6fbf 592a e6be
000001d0: 0797 82bb 91fb 2ebf c69a f5be c032 bcbe
000001e0: e09d e6be 1ded c4be 357a 02bf db38 09bf
000001f0: f318 d9bd aced d0be 9d5d 07bf 612e c5be

bn_outlayer_in.running_mean f4 [128]
-0.24700299 -1.42849e-07 -0.24862437 0.009774886 -0.038047865 -0.018913832 6e-45 -0.26314718
0.087375745 4.6769255e-18 -0.23565385 -0.40148452 0.00016630403 -0.16423455 -0.2950411 -0.21592557
-0.11266158 -0.088195965 0.057485197 -0.12930255 -0.16917211 0.0039841156 -0.12172545 -0.31300646
-0.061832465 -0.083057545 -0.2182455 -2.0318752e-05 0.009800838 -0.21904397 -1.6581556 -0.2767272
0.023808127 -6e-45 -0.14749356 0.024984354 -0.2057985 -0.23617579 6e-45 -0.032018922
-0.35799423 6e-45 -0.14048317 -0.00427356 0.048850622 -0.682951 -0.28535146 0.025278864
-0.11581639 -0.11896128 -0.18175593 -0.30357376 -0.054014962 6e-45 -0.00029542242 -0.115827814
-0.47365376 -6e-45 -0.09246405 -6e-45 6e-45 -0.0059124716 0.0069760047 -0.074268855
6e-45 0.0032495556 -0.05807241 -0.09726046 -0.07508972 1.7677083e-06 -0.19067398 -0.077674165
-0.0069145295 -0.20513435 0.0019920527 -0.0027289346 -0.35341004 -0.4899119 -6e-45 -0.4083983
-0.16694346 0.0010395129 -0.027346533 -0.04168807 -0.24250552 6e-45 -0.23887609 -0.33575884
-0.025484033 0.13215964 0.00019125686 -0.012187885 -0.053518884 -0.26948455 0.018432314 6e-45
-0.079070784 -0.09245123 -0.2956615 -0.24648899 -0.101879805 6e-45 0.06570774 -0.0014554097
-0.17499782 -0.028834512 -0.072055236 0.0010119289 -0.31753567 -0.15603262 -0.21879892 -0.02402273
-0.0027239681 -0.17468923 -0.13026188 5.2381005e-05 -0.02343092 -0.0022333136 6e-45 0.04093285
-0.40851834 0.0038018841 0.0053166524 -0.15783545 -0.0070573203 -0.37971362 6e-45 -0.23483354
00000000: 5aee 7cbe 0962 19b4 6397 7ebe d826 203c
00000010: 14d8 1bbd 2ef1 9abc 0400 0000 3abb 86be
00000020: 0ef2 b23d 508c ac22 3e4f 71be 618f cdbe
00000030: e661 2e39 1a2d 28be a10f 97be 981b 5dbe
00000040: 1dbb e6bd 16a0 b4bd 9975 6b3d e367 04be
00000050: 743b 2dbe 2f8d 823b 314b f9bd 6242 a0be
00000060: 0a44 7dbd 131a aabd c07b 5fbe 3072 aab7
00000070: b293 203c 104d 60be 713e d4bf 30af 8dbe
00000080: 4309 c33c 0400 0080 8d08 17be fdab cc3c
00000090: d8bc 52be 11d8 71be 0400 0000 4626 03bd
000000a0: 054b b7be 0400 0000 d2da 0fbe 3809 8cbb
000000b0: 9717 483d e0d5 2ebf 9619 92be 9f15 cf3c
000000c0: 2531 edbd f9a1 f3bd 3a1e 3abe 056e 9bbe
000000d0: cb3e 5dbd 0400 0000 ede2 9ab9 2237 edbd
000000e0: bf82 f2be 0400 0080 cb5d bdbd 0400 0080
000000f0: 0400 0000 68bd c1bb f896 e43b 451a 98bd
00000100: 0400 0000 7ff6 543b 56dd 6dbd 7e30 c7bd
00000110: a4c8 99bd ff41 ed35 0a40 43be a213 9fbd
00000120: 4793 e2bb bd0e 52be 198d 023b edd7 32bb
00000130: 29f2 b4be bcd5 fabe 0400 0080 9519 d1be
00000140: 3af3 2abe 4440 883a d605 e0bc 1cc1 2abd
00000150: 5e53 78be 0400 0000 ef9b 74be 95e8 abbe
00000160: e4c3 d0bc db54 073e 1f8c 4839 b2af 47bc
00000170: 9e36 5bbd e1f9 89be 5dff 963c 0400 0000
00000180: ddef a1bd 1257 bdbd f260 97be 9c67 7cbe
00000190: 5ca6 d0bd 0400 0000 c891 863d 72c3 beba
000001a0: a132 33be 5b36 ecbc b291 93bd b3a2 843a
000001b0: 0994 a2be 04c7 1fbe d30c 60be 51cb c4bc
000001c0: 9a84 32bb bce1 32be 5f63 05be adb3 5b38
000001d0: 33f2 bfbc c95c 12bb 0400 0000 34a9 273d
000001e0: 5129 d1be 0829 793b 5037 ae3b 9e9f 21be
000001f0: 1841 e7bb d369 c2be 0400 0000 3478 70be

bn_outlayer_in.running_var f4 [128]
0.2408885 9.317333e-08 0.12937725 0.068770945 0.50229555 0.017351812 6e-45 2.1798365
0.08220898 1.1850727e-19 0.07046916 0.1922998 5.0665494e-06 0.17499444 0.83033293 0.048007134
0.028088842 0.0277711 0.03818687 0.66098905 0.42279914 0.004075726 0.32059586 0.038503297
0.41603357 0.48198456 1.1889894 2.6724524e-06 0.0017824571 0.752718 93.91285 1.1894283
0.0054068635 6e-45 0.026635827 0.0019422735 0.9231267 0.053336594 6e-45 0.20495096
3.6899679 6e-45 0.33203137 3.386112e-05 0.0025374198 1.4219505 1.3970027 0.00040595693
0.04893471 0.2139347 0.1140442 0.065072015 0.32031015 6e-45 3.504783e-05 0.022927962
0.9482841 6e-45 0.030218128 6e-45 6e-45 0.0018160683 0.10619005 0.07136759
6e-45 0.030814333 0.017990502 0.13904648 0.0072414386 4.8677443e-08 0.9461085 0.09663482
0.022725336 0.042067602 0.0010817228 0.078839384 0.3768904 0.15005888 6e-45 0.16334347
0.13094525 0.0025027008 0.02311011 0.011609499 0.5122879 6e-45 0.096912816 0.1419926
0.10736527 0.11072221 0.00012544835 0.073260956 0.097534925 0.06996315 0.076667055 6e-45
0.079895 0.06796603 0.06373021 0.13749492 0.05579787 6e-45 0.035646692 0.00028081442
0.10392546 0.028790904 0.113470115 0.002537615 0.14059147 0.08902712 0.6480103 0.48259386
0.0007401531 0.32566404 0.10751396 0.0010343695 0.03381231 0.014240671 6e-45 0.0010229633
0.19089872 0.00079308497 0.0016431952 0.06471883 0.009946545 0.1466422 6e-45 0.051183064
00000000: 7aab 763e 9416 c833 787b 043e c8d7 8c3d
00000010: 7196 003f 6325 8e3c 0400 0000 7182 0b40
00000020: 2f5d a83d a0e8 0b20 2352 903d 3dea 443e
00000030: 5401 aa36 be31 333e b390 543f 21a3 443d
00000040: 921a e63c 3880 e33c d669 1c3d 9436 293f
00000050: 2179 d83e ab8d 853b 2425 a43e a2b5 1d3d
00000060: 5a02 d53e aec6 f63e ce30 983f 6258 3336
00000070: 56a1 e93a 20b2 403f 61d3 bb42 303f 983f
00000080: 0f2c b13b 0400 0000 6133 da3c e293 fe3a
00000090: 0852 6c3f 7977 5a3d 0400 0000 aade 513e
000000a0: 6f28 6c40 0400 0000 0400 aa3e 1a06 0e38
000000b0: d74a 263b 7902 b63f fcd0 b23f 9ed6 d439
000000c0: c36f 483d b311 5b3e 0190 e93d 7a44 853d
000000d0: b1ff a33e 0400 0000 5200 1338 6cd3 bb3c
000000e0: bfc2 723f 0400 0000 028c f73c 0400 0000
000000f0: 0400 0000 2409 ee3a 2b7a d93d 2c29 923d
00000100: 0400 0000 576e fc3c d160 933c 3362 0e3e
00000110: 9749 ed3b 6a11 5133 2b34 723f 7ae8 c53d
00000120: 7c2a ba3c 144f 2c3d 98c8 8d3a 8b76 a13d
00000130: c7f7 c03e 09a9 193e 0400 0000 8343 273e
00000140: 8316 063e 5a04 243b 6a51 bd3c c535 3e3c
00000150: 4d25 033f 0400 0000 3a7a c63d 8266 113e
00000160: 53e2 db3d 53c2 e23d c98a 0339 d709 963d
00000170: 64c0 c73d d748 8f3d 9e03 9d3d 0400 0000
00000180: fd9f a33d c631 8b3d fc84 823d 78cb 0c3e
00000190: 4f8c 643d 0400 0000 4402 123d 463a 9339
000001a0: dfd6 d43d e7da eb3c 0563 e83d 1d4e 263b
000001b0: 36f7 0f3e da53 b63d 01e4 253f 8b16 f73e
000001c0: d506 423a 70bd a63e 4730 dc3d ae93 873a
000001d0: c77e 0a3d b451 693c 0400 0000 f414 863a
000001e0: f47a 433e 08e7 4f3a 7b60 d73a 4e8b 843d
000001f0: d5f6 223c 5f29 163e 0400 0000 55a5 513d

gnn_layers.0.gnn.att_i f4 [1, 1, 128]
0.07124598 0.042947758 0.015127602 0.0016073686 0.103219934 -0.01444752 0.015011372 -0.02554238
0.0010832248 0.006628474 0.2027929 0.047768507 0.0041629826 -0.025361488 -0.00433441 -0.047917727
-0.006723546 0.01736292 -0.27138463 0.0036362312 -0.03287115 -0.09928952 0.006300388 -0.020111
-0.107187614 -0.002076045 -0.023000004 0.01098711 -0.01222423 -0.019013846 0.0010847667 0.010197578
-0.0066853794 -0.008921054 0.013686146 0.0035398204 -0.1281076 0.06628512 0.00563657 0.06252995
0.015440208 -0.007921926 0.015582395 0.065550074 -0.035647772 0.000893927 -0.06929481 0.0037425184
-0.020559153 -0.041954238 0.008582616 0.010189986 0.13665426 -0.003929038 -0.0041914354 -0.058310185
-0.014322184 -0.005182712 0.0017862046 -0.0022404797 0.0056594857 -0.01569358 0.18208635 -0.009585698
-0.011638073 -0.04865345 0.058095958 0.008905834 0.017062364 -0.0017168557 0.006932242 -0.00048575643
0.052054375 -0.018448025 -0.045170672 0.06113268 -0.00031129416 0.0026913146 0.005344889 0.087535694
-3.786994e-05 0.007182148 0.02974297 -0.00836537 -0.016669434 0.0066504064 0.055893514 0.034054227
-0.020543989 -0.007876308 0.0016138963 0.010542931 -0.03343892 0.025560312 0.04288952 -0.008807826
0.09679648 -0.0047769896 0.017165866 -0.0087081995 0.029431364 0.0026348904 0.03566709 0.0023375957
0.005959112 0.016210383 -0.01830362 -0.026938573 -0.005345544 -0.0026584573 -0.08315095 -0.02729892
0.021081135 -0.23460688 0.009567435 0.07137148 0.0021670845 0.023389483 -0.013801605 0.036508255
0.08175997 -0.0076172114 0.019040473 -0.032110233 -0.0575995 -0.049708787 0.002213695 0.14635785
00000000: 6ae9 913d fde9 2f3d c3d9 773c 57ae d23a
00000010: f964 d33d 4ab5 6cbc 42f2 753c 413e d1bc
00000020: fefa 8d3a ac33 d93b f1a8 4f3e e9a8 433d
00000030: a169 883b e5c2 cfbc ab07 8ebb 6145 44bd
00000040: 3151 dcbb af3c 8e3c edf2 8abe d64d 6e3b
00000050: e6a3 06bd 4e58 cbbd 7c73 ce3b d3bf a4bc
00000060: 2e85 dbbd 410e 08bb 816a bcbc 4803 343c
00000070: 2348 48bc edc2 9bbc bb2e 8e3a be13 273c
00000080: 0711 dbbb 9d29 12bc db3b 603c 55fc 673b
00000090: a42e 03be 7ec0 873d fab2 b83b b40f 803d
000000a0: edf8 7c3c f7ca 01bc 4d4d 7f3c 1e3f 863d
000000b0: 6603 12bd 6d56 6a3a 70ea 8dbd 0a45 753b
000000c0: ab6b a8bc 35d8 2bbd 1a9e 0c3c e6f3 263c
000000d0: 18ef 0b3e 29bf 80bb 4f58 89bb a9d6 6ebd
000000e0: 98a7 6abc bdd3 a9bb 151f ea3a 03d5 12bb
000000f0: 3573 b93b d38f 80bc d874 3a3e 550d 1dbc
00000100: 9ead 3ebc d748 47bd 07f6 6d3d c6e9 113c
00000110: 5fc6 8b3c 1e08 e1ba dc27 e33b 20ad feb9
00000120: f836 553d 5020 97bc e204 39bd 4366 7a3d
00000130: 3235 a3b9 c460 303b 2e24 af3b ea45 b33d
00000140: 8ad6 1eb8 3958 eb3b 87a7 f33c e80e 09bc
00000150: 568e 88bc a7eb d93b 99f0 643d 727c 0b3d
00000160: de4b a8bc a10b 01bc 6089 d33a 42bc 2c3c
00000170: 40f7 08bd dc63 d13c ecac 2f3d b34e 10bc
00000180: 3c3d c63d 4b88 9cbb 6e9f 8c3c d6ac 0ebc
00000190: 0b1a f13c 20ae 2c3b a817 123d 5932 193b
000001a0: a844 c33b a3cb 843c 79f1 95bc 48ae dcbc
000001b0: ac29 afbb 8339 2ebb 0c4b aabd fca1 dfbc
000001c0: 58b2 ac3c c93c 70be bbc0 1c3c 362b 923d
000001d0: a505 0e3b 4d9b bf3c 2120 62bc ae89 153d
000001e0: c571 a73d cd99 f9bb c4fa 9b3c 0586 03bd
000001f0: 74ed 6bbd 719b 4bbd a413 113b d5de 153e

gnn_layers.0.gnn.att_j f4 [1, 1, 128]
-0.011762226 -0.008651603 -0.0015722533 -0.0036238001 -0.07534531 -0.0013287023 -0.005014742 0.0015037565
0.0012039801 0.0023134311 -0.02596665 0.0017075252 -0.000431119 0.011071067 -0.0017097065 -0.0116775585
0.0016473915 -0.008548667 0.14810123 0.000985729 0.0016896217 0.0034669866 -0.0024613473 0.01045189
0.021684872 0.0014300944 0.0038094718 -0.00025425153 0.004010675 0.008775741 0.001604339 -0.0022462092
-0.0012633741 0.0035687631 -0.008353584 -0.0023988052 0.010268285 -0.013893511 -0.004052205 -0.016194966
-0.0027618327 0.0057491465 0.0024581188 -0.01507929 0.0011304751 1.8820581e-05 0.007381485 -0.001184702
0.0023305477 0.0151641965 -0.0070322445 0.0022915408 -0.077874936 0.001672456 0.00081091316 0.00911392
0.0028626658 0.00021090308 -0.0025756394 0.0014804904 -0.004386815 0.0014804144 0.0058232765 0.0010869405
0.0073624775 0.003160705 -0.0053483844 -0.0031658835 -0.0031319805 -0.00060972804 0.0027035358 -0.00030092872
-0.013505407 0.0028101387 0.0045480984 -0.013107997 -0.005415351 -0.008670186 0.0005834777 -0.0032559827
0.0022938661 -0.0014618126 -0.0062302453 0.0039825235 0.0038638823 -0.0048267646 0.0048205266 -0.009901455
0.0058317175 0.003161769 -0.0039573316 -0.013756634 0.008093121 -0.013012556 -0.023042887 0.0047023166
-0.017250638 -0.00047682866 -0.006763612 -0.0026968953 -0.0020798761 -0.00022473217 -0.06675719 -0.0029084978
-0.005720731 -0.0009136846 0.0015027574 0.0017644485 0.0020917517 0.0019175862 0.008516114 0.0041482905
-0.004381585 0.01750044 -0.0029089411 -0.0031469169 -0.006788437 -0.011324219 0.0041600727 -0.0067697666
-0.017804515 0.0029011657 -0.004629299 0.0056513487 0.0046415953 -0.008772765 0.0028932306 -0.016956016
00000000: 5ab6 40bc 74bf 0dbc 1114 ceba 477d 6dbb
00000010: a44e 9abd da27 aeba b452 a4bb b219 c53a
00000020: dece 9d3a ef9c 173b 03b8 d4bc 0acf df3a
00000030: d007 e2b9 6c63 353c 3b18 e0ba 3b53 3fbc
00000040: 49ed d73a b50f 0cbc d9a7 173e 9433 813a
00000050: 4c76 dd3a 6236 633b 8e4e 21bb 673e 2b3c
00000060: 79a4 b13c 0172 bb3a 55a8 793b 104d 85b9
00000070: fb6b 833b 20c8 0f3c af48 d23a 2335 13bb
00000080: cd97 a5ba e9e1 693b 79dd 08bc 4635 1dbb
00000090: 4f3c 283c 9ca1 63bc 5cc8 84bb 4eab 84bc
000000a0: ddff 34bb 5663 bc3b 6418 213b 200f 77bc
000000b0: 732c 943a e4e0 9d37 62e0 f13b 0148 9bba
000000c0: 1abc 183b 4073 783c be6e e6bb ad2d 163b
000000d0: e57c 9fbd 5036 db3a 7693 543a 8d52 153c
000000e0: 909b 3b3b dd25 5d39 0fcc 28bb 040d c23a
000000f0: 45bf 8fbb 770a c23a 2fd1 be3b ac77 8e3a
00000100: f040 f13b d523 4f3b 8041 afbb b67a 4fbb
00000110: ea41 4dbb 28d6 1fba ce2d 313b f8c5 9db9
00000120: c845 5dbc 4e2a 383b 3708 953b edc2 56bc
00000130: 4273 b1bb 650d 0ebc 87f4 183a 5362 55bb
00000140: b054 163b 4b9a bfba 1627 ccbb d47f 823b
00000150: 3039 7d3b d629 9ebb 82f5 9d3b b639 22bc
00000160: fe17 bf3b ae35 4f3b 81ac 81bb 8163 61bc
00000170: 0399 043c 9e32 55bc 70c4 bcbc e415 9a3b
00000180: 3651 8dbc dcfe f9b9 4aa1 ddbb 65be 30bb
00000190: 884e 08bb 15a6 6bb9 feb7 88bd 7f9c 3ebb
000001a0: f874 bbbb 5684 6fba 2cf8 c43a 1145 e73a
000001b0: c515 093b 8457 fb3a 2c87 0b3c 62ee 873b
000001c0: 6693 8fbb 155d 8f3c efa3 3ebb 813c 4ebb
000001d0: 8971 debb 3889 39bc 3851 883b ebd4 ddbb
000001e0: c6da 91bc 7c21 3e3b 60b1 97bb f32e b93b
000001f0: 8618 983b a5bb 0fbc 5b9c 3d3b 58e7 8abc

gnn_layers.0.gnn.att_em_i f4 [1, 1, 128]
0.627903 -0.99674684 1.1387289 0.042274345 0.11520516 -0.06306308 0.076469235 0.14601967
0.053261444 -0.03145554 0.22842059 0.43298334 -0.0057524024 -0.52783656 -0.1127488 0.6464616
0.05964083 0.45853713 -0.08433532 -0.40374777 0.09041094 0.52916354 -0.008185624 0.045139935
0.024552068 -0.106436156 -0.0026665179 -0.037120376 -0.13519321 0.07799247 -0.06300567 -0.18406206
-0.18344016 -0.07305447 0.45529786 -0.5200099 -0.07601825 0.7345613 -0.010512698 0.012931959
0.20583782 0.5763129 0.1850994 0.4271054 -0.33050084 0.007356251 -0.16004089 -0.10149054
-0.15076008 -0.0899234 -0.070595644 0.70321125 0.24817595 -0.009297497 -0.058296982 0.005771084
0.060861435 0.016298342 0.3812408 -0.02407846 -0.025386132 0.10211393 0.027281992 -0.021025898
0.05742908 0.0019201329 -0.018329784 0.25623345 0.31492168 -0.016643606 -0.23695175 0.007063276
0.0179005 0.6140408 -0.08959645 0.48761505 0.13943104 0.3469139 0.025798967 0.21501295
0.7663827 0.31310874 -0.23223239 0.16653667 0.21490405 0.029741002 0.5226911 0.26440132
-0.6842836 -0.23813446 -0.02205549 0.2551659 -0.7131677 0.88566154 -0.08942518 -0.017915515
0.17368144 0.06645928 0.3733896 0.65546685 0.010292887 0.00037519122 0.16000207 -0.05114212
0.48637226 -0.0028502601 -0.086266324 -0.05090959 0.17930017 -0.5143003 0.10704215 0.014310329
-0.014532605 0.17370212 0.12838572 0.40583825 -0.19525464 0.06718707 0.012500523 -0.076147236
-0.023936164 0.8203492 0.09272254 0.17999357 -0.052677713 -0.21175572 0.51242346 0.41041386
00000000: 40be 203f cd2a 7fbf dec1 913f dd27 2d3d
00000010: aff0 eb3d 3727 81bd e79b 9c3d 2e86 153e
00000020: ac28 5a3d 86d7 00bd 16e7 693e feaf dd3e
00000030: a67e bcbb 4c20 07bf d8e8 e6bd 827e 253f
00000040: f149 743d 61c5 ea3e ffb7 acbd 07b8 cebe
00000050: 5f29 b93d 4377 073f ff1c 06bc a7e4 383d
00000060: 6b21 c93c 33fb d9bd bfc0 2ebb 890b 18bd
00000070: 1770 0abe 84ba 9f3d 1e09 81bd c47a 3cbe
00000080: bdd7 3bbe 959d 95bd cd1c e93e 5e1f 05bf
00000090: 75af 9bbd 360c 3c3f 743d 2cbc 91e0 533c
000000a0: 26c7 523e 3e89 133f b28a 3d3e 8fad da3e
000000b0: 6837 a9be b50c f13b c2e1 23be 46da cfbd
000000c0: da60 1abe c229 b8bd 7394 90bd a705 343f
000000d0: d621 7e3e 8754 18bc d1c8 6ebd 5d1b bd3b
000000e0: d749 793d 1a84 853c fe31 c33e 3140 c5bc
000000f0: 94f6 cfbc 1c21 d13d 7c7e df3c 813e acbc
00000100: c13a 6b3d f8ac fb3a 5828 96bc 0831 833e
00000110: 6a3d a13e 2c58 88bc 7ba3 72be 0e73 e73b
00000120: 12a4 923c c731 1d3f 587e b7bd aea8 f93e
00000130: 03c7 0e3e b39e b13e 5b58 d33c 5b2c 5c3e
00000140: a831 443f ca4f a03e 54ce 6dbe 9788 2a3e
00000150: cf0f 5c3e 67a3 f33c 15cf 053f 9c5f 873e
00000160: 362d 2fbf 85d9 73be b7ad b4bc 1ba5 823e
00000170: 2992 36bf b7ba 623f 8c24 b7bd 8fc3 92bc
00000180: 8cd9 313e ce1b 883d ec2c bf3e adcc 273f
00000190: 7fa3 283c 50b5 c439 95d7 233e 667a 51bd
000001a0: c905 f93e 6ecb 3abb 66ac b0bd 9386 50bd
000001b0: 779a 373e 2fa9 03bf ea38 db3d df75 6a3c
000001c0: 2a1a 6ebc f8de 313e 8c77 033e 08ca cf3e
000001d0: d5f0 47be 6099 893d fece 4c3c 15f3 9bbd
000001e0: c615 c4bc 6802 523f 51e5 bd3d 3c50 383e
000001f0: 96c4 57bd 7ed6 58be 2f2e 033f c421 d23e

gnn_layers.0.gnn.att_em_j f4 [1, 1, 128]
-0.29435223 1.0195023 0.037852176 0.06260895 0.1131394 0.045743044 -0.37211838 2.3760202
0.0069226627 0.11258782 0.02533627 0.33223802 -0.08200204 1.2772245 0.17417067 0.06619325
0.14916772 -0.013078642 0.00016290053 0.06322074 0.124671325 0.06267206 0.020729301 0.06808826
-0.04832705 0.07254566 0.017773723 0.03329289 0.1961368 -0.013346437 2.0975618 0.33953094
0.108385816 0.6593377 0.022396812 0.31813243 -0.1046096 0.050593693 0.010708554 -0.17209265
-0.32413164 0.25675964 0.0009507282 0.2644293 0.4988733 -0.20602265 -0.051069967 0.051604964
0.72446084 0.4217575 -0.38963535 -0.047678318 0.074007 -0.10224457 0.015202909 0.45624363
-0.029616429 -0.04822958 -0.11283284 0.12178176 -0.0016678093 0.16381666 0.009750211 0.039589345
-0.037719738 -0.018866027 0.16280046 0.006201251 -0.80613154 0.043429755 0.9827379 -0.07156886
-0.045246232 0.12139472 -0.004992003 -0.051459774 -0.11044649 -0.0815517 -0.121145196 0.57110393
0.09893265 0.4751886 -0.26268357 -0.2848521 0.058705494 -0.10377697 0.113619916 0.10965619
-0.37699062 0.0024516825 -0.003135097 -0.02418734 1.0383952 -0.5144967 1.2933688 0.12463556
-0.16313468 -0.025061408 -0.029901423 -0.61060387 -0.0025976405 0.08951084 0.03463239 0.0034067906
0.06733436 0.018730802 0.09277916 -0.2577566 -0.04957616 0.31343228 -0.06717455 -0.028288374
-0.09804929 -0.0154192895 0.06383311 0.024918184 -0.053269494 -0.0068349745 0.011548252 0.020902062
0.77268994 0.19305678 -0.067102395 0.029829975 0.0025145258 0.34518343 0.17250575 0.0011227687
00000000: 56b5 96be 0d7f 823f e20a 1b3d 1f39 803d
00000010: a1b5 e73d 0f5d 3b3d 4d86 bebe b710 1840
00000020: 81d7 e23b 7194 e63d 028e cf3c 1a1b aa3e
00000030: b0f0 a7bd 187c a33f cc59 323e 5490 873d
00000040: 6cbf 183e cd47 56bc 47d0 2a39 e079 813d
00000050: ae53 ff3d 365a 803d 7fd0 a93c dc71 8b3d
00000060: 96f2 45bd d292 943d 339a 913c 205e 083d
00000070: 16d8 483e 04ab 5abc 743e 0640 00d7 ad3e
00000080: 62f9 dd3d 5bca 283f 8579 b73c 41e2 a23e
00000090: 8f3d d6bd 553b 4f3d ee72 2f3c 0e39 30be
000000a0: 95f4 a5be 0076 833e 4a3a 793a 4763 873e
000000b0: 526c ff3e 9af7 52be be2e 51bd ba5f 533d
000000c0: 4476 393f 99f0 d73e 497e c7be 574a 43bd
000000d0: fb90 973d 9a65 d1bd 9f15 793c c498 e93e
000000e0: 279e f2bc 618c 45bd e714 e7bd b768 f93d
000000f0: 659a daba 8ebf 273e 59bf 1f3c 7028 223d
00000100: 0380 1abd ed8c 9abc 2ab5 263e dd33 cb3b
00000110: a35e 4ebf 66e3 313d b694 7b3f b292 92bd
00000120: 1d54 39bd cc9d f83d f593 a3bb 7cc7 52bd
00000130: c531 e2bd 9404 a7bd f91a f8bd de33 123f
00000140: 349d ca3d ec4b f33e 767e 86be 22d8 91be
00000150: 2c75 703d 0589 d4bd 8fb1 e83d 6d93 e03d
00000160: ea04 c1be 68ac 203b 3376 4dbb 8724 c6bc
00000170: 22ea 843f 0eb6 03bf 1c8d a53f ee40 ff3d
00000180: c70c 27be 954d cdbc d4f3 f4bc 8950 1cbf
00000190: 2d3d 2abb 7651 b73d b1da 0d3d 7644 5f3b
000001a0: 99e6 893d 5771 993c 0003 be3d acf8 83be
000001b0: 5f10 4bbd 327a a03e cf92 89bd 05bd e7bc
000001c0: 11ce c8bd 30a1 7cbc efba 823d 3821 cc3c
000001d0: 1d31 5abd ecf7 dfbb e134 3d3c cd3a ab3c
000001e0: 02cf 453f adb0 453e fb6c 89bd fe5d f43c
000001f0: beca 243b e2bb b03e 59a5 303e de29 933a

gnn_layers.0.gnn.bias f4 [128]
0.004674408 0.0021978954 0.0045285826 -0.0035916772 -0.03281708 0.001043119 -0.00077997404 -0.0006886874
-0.0016638933 0.00079854595 0.0002120157 0.021215722 0.00067358103 0.0029358019 0.006327636 0.005455937
-0.019449675 0.0002961384 -0.00068637443 -0.0055069258 -0.0005753531 -0.0011475799 -0.0011450428 -0.002815896
-0.0015580399 -0.005278259 -0.0011058318 -0.0009552538 0.002017463 0.004898533 -0.0001472683 -0.0017618362
0.013816101 -0.0001601352 0.0021150378 -0.005488687 0.0013883567 0.004374391 -0.0018486383 -0.0011004749
-0.0013159506 -0.0006192594 -0.0019769582 -0.02141214 -0.01243876 0.0051207393 -0.0016360013 0.00079225603
-0.0018491703 -0.0030600952 0.00465621 0.00012049632 0.000637523 -0.00034679222 0.0018114584 -0.00046715618
0.005897348 -0.00083703955 0.004257885 0.0006488362 -0.0012147393 -0.0009361054 -0.0007961309 -0.0021110775
-0.00048492374 0.002330771 3.3646837e-05 -0.00041090965 0.00052889093 -5.399812e-05 0.0006728649 0.0025684563
0.0007455936 0.0012384298 -0.00067810155 0.0013920843 0.0055279406 0.00013551884 -0.0012070402 0.025420299
0.0018520047 0.0014946827 -0.0028180522 0.00066311774 0.0045410753 0.0001343321 0.0012056122 0.022058133
-0.002540114 0.00044101063 0.00069398485 -0.00709547 -0.00037152888 0.004321649 -0.0014763852 -0.0009699572
-0.0005450955 0.0015025695 0.0020364926 0.0062157875 -0.004875496 -0.00045630868 -0.012486507 0.00026262624
0.0047949916 0.0020025587 0.006246715 -0.0028186503 0.021794269 -0.008897684 -0.00045071985 -0.0031320627
-0.041434582 0.005186887 -0.0021102559 0.00014586315 0.0034482281 -0.004589811 0.00031045845 -0.0001626883
0.021051146 0.0045761536 0.00068662694 0.014873242 0.0010644069 0.02248045 -0.0034346816 0.0075155655
00000000: c72b 993b 910a 103b 8164 943b 5862 6bbb
00000010: 346b 06bd 44b9 883a 2c77 4cba 0789 34ba
00000020: ff16 daba 8355 513a 8850 5e39 98cc ad3c
00000030: 4293 303a 9566 403b 0f58 cf3b b7c7 b23b
00000040: ed54 9fbc 0643 9b39 cfed 33ba 7173 b4bb
00000050: 4bd3 16ba 646a 96ba 4315 96ba e58a 38bb
00000060: 2537 ccba 3ff5 acbb 8ff1 90ba ff69 7aba
00000070: 6a37 043b e083 a03b 096c 1ab9 6aed e6ba
00000080: ed5c 623c f7e9 27b9 729c 0a3b 72da b3bb
00000090: 85f9 b53a 0d57 8f3b 024e f2ba cf3d 90ba
000000a0: fa7b acba cb55 22ba db8f 01bb 8368 afbc
000000b0: f1cb 4bbc e0cb a73b 186f d6ba 67af 4f3a
000000c0: dc5f f2ba e18b 48bb 1f93 983b f8b2 fc38
000000d0: 721f 273a aad1 b5b9 756e ed3a a4ec f4b9
000000e0: 8a3e c13b c66c 5bba ba85 8b3b a916 2a3a
000000f0: e337 9fba f864 75ba 71b3 50ba 015a 0abb
00000100: 5d3d feb9 d9bf 183b 0420 0d38 5c6f d7b9
00000110: 45a5 0a3a 0a7c 62b8 3363 303a 8c53 283b
00000120: f173 433a cf52 a23a a0c2 31ba 9976 b63a
00000130: ba23 b53b 101a 0e39 8c35 9eba 3b3e d03c
00000140: f7be f23a 3be9 c33a 12af 38bb 14d5 2d3a
00000150: 4dcd 943b 80db 0c39 a205 9e3a 42b3 b43c
00000160: 0b78 26bb 7237 e739 89ec 353a 1e81 e8bb
00000170: c3c9 c2b9 9f9c 8d3b 4483 c1ba ba44 7eba
00000180: bde4 0eba def1 c43a ad76 053b cead cb3b
00000190: a0c2 9fbb b73c efb9 3594 4cbc 19b1 8939
000001a0: 4e1f 9d3b 5c3d 033b 3eb1 cc3b 1bb9 38bb
000001b0: e589 b23c 97c7 11bc 984e ecb9 4b43 4dbb
000001c0: 4fb7 29bd c3f6 a93b 384c 0abb d7f2 1839
000001d0: abfb 613b 2066 96bb 07c5 a239 4f97 2ab9
000001e0: 7473 ac3c 8ff3 953b c1fe 333a e6ae 733c
000001f0: 9283 8b3a ec28 b83c 6518 61bb 2245 f63b

gnn_layers.0.gnn.lin.weight f4 [128, 200]
0.32639685 0.15214202 0.32780662 0.21675935 0.25003505 0.32369587 0.18294817 0.21087031
0.14447239 0.15908325 0.17029938 -0.043944787 -0.12841702 0.03138171 0.046209715 0.094434895
0.19611247 0.16970004 0.36799076 0.32688707 0.05163393 0.053235732 0.08246481 0.011197048
0.034671728 -0.047539376 -0.09841977 -0.11743505 -0.19506457 0.06255388 -0.0024414223 -0.102038346
-0.06898209 -0.09247746 -0.12939961 -0.017743345 0.005478283 0.11489446 0.14331597 0.070273735
0.17071566 0.2222969 0.025613012 0.04785098 0.1516645 -0.044702128 0.16386653 -0.13011318
0.08057483 0.16659582 -0.1434263 -0.070962064 -0.15726836 0.043355286 -0.16339806 -0.051599182
-0.07461549 -0.032778658 -0.010975648 0.040838443 -0.12535512 -0.12891667 -0.061123896 -0.016002506
0.025580961 -0.1515861 -0.14827232 -0.13909552 -0.19812796 -0.020370577 -0.13045618 -0.15992002
-0.17903279 -0.2092004 -0.07727394 0.06277413 0.06928023 0.35415965 0.30796546 0.4533266
0.12413683 0.08687992 0.044795744 -0.048716556 0.048192028 0.11562407 0.09568232 -0.07563036
-0.17283142 -0.15365006 -0.124037735 -0.21803278 -0.0031015475 -0.12016981 -0.07771491 -0.008758569
-0.03161171 0.108069524 -0.10646092 0.1496868 0.015473443 -0.03928316 0.117791414 -0.093962304
-0.02709072 0.038780764 -0.111878805 0.007840595 -0.022923881 0.048864137 -0.12303517 -0.1913423
-0.057231925 -0.17115894 -0.20707208 0.06456627 0.0635985 0.16646285 0.108981006 0.14491893
0.13834853 0.11026982 0.22344556 0.08095238 0.16184142 0.07043201 -0.021604735 0.10260392
-0.067331575 -0.07446161 -0.0020972912 -0.0043878113 -0.0024970975 0.0075498987 0.024723748 0.14325993
0.06850056 0.23414348 0.47669712 0.43772072 0.24513029 0.055352986 0.18263456 0.17912361
-0.05719717 0.21393041 0.018002952 0.08542122 0.021382147 -0.037294816 0.060665663 -0.11449516
-0.09964071 -0.11262669 -0.11534141 -0.09909198 0.05453295 -0.08895174 0.048136935 0.15032752
-0.013612138 0.15933344 0.076763876 0.2663482 0.06794328 0.24444018 0.3515135 0.2754565
0.25378615 0.283236 -0.03148694 -0.08584396 0.0625379 0.09517728 -0.11515402 0.113278545
0.11066916 0.13336097 0.14769204 0.26011705 0.14897753 0.25021794 0.087555 0.12034771
0.085886694 -0.020470085 0.022285083 0.015213101 -0.17193404 0.07718751 -0.065992445 -0.08565815
-0.2782536 -0.14759418 -0.2583802 -0.4922051 -0.45641786 -0.8257494 -1.2374802 -2.5354273
0.30484855 -0.11942998 -0.047470696 -0.1639041 -0.124123394 0.020944437 -0.4536201 -0.14482236
-0.1349175 -0.17066295 -0.16824695 -0.2724211 -0.29623726 -0.16388927 -0.111888796 0.015724719
-0.24300568 -0.090562895 -0.1684986 0.064441755 -0.46042958 -0.55025065 -0.2793754 -0.13155992
-0.08781487 0.06533247 -0.14001922 -0.18034866 -0.05211688 0.039043028 0.11574783 0.11997316
0.06607281 0.06992238 0.14417696 -0.0036045564 0.17290854 0.048238765 0.22518502 0.27349892
0.15398978 0.32753783 0.013527391 0.15074776 0.17227098 0.20712931 0.13456678 0.13319287
0.1283418 0.26405954 -0.021189196 0.06552648 -0.13741712 -0.059012737 0.05181494 -0.045524523
00000000: 7d1d a73e 1ecb 1b3e 45d6 a73e 2af6 5d3e
00000010: 9804 803e 77bb a53e c456 3b3e 63ee 573e
00000020: 92f0 133e b8e6 223e f662 2e3e 73ff 33bd
00000030: c07f 03be 1c8a 003d 6646 3d3d 1567 c13d
00000040: b5d1 483e d9c5 2d3e 4969 bc3e be5d a73e
00000050: 1a7e 533d b60d 5a3d 4fe3 a83d d373 373c
00000060: f103 0e3d a6b8 42bd 4e90 c9bd ca81 f0bd
00000070: 02bf 47be 401c 803d 4500 20bb 7bf9 d0bd
00000080: 7b46 8dbd d364 bdbd 5581 04be 7e5a 91bc
00000090: 2b83 b33b c94d eb3d 6cc1 123e adeb 8f3d
000000a0: 16d0 2e3e cca1 633e 61d2 d13c 64ff 433d
000000b0: f04d 1b3e 9419 37bd a1cc 273e 643c 05be
000000c0: 6b04 a53d 1898 2a3e 58de 12be 8f54 91bd
000000d0: f50a 21be 5095 313d d251 27be aa59 53bd
000000e0: 02d0 98bd ea42 06bd 34d3 33bc 3646 273d
000000f0: 185d 00be bb02 04be 0d5d 7abd b017 83bc
00000100: 2a8f d13c 6339 1bbe b3d4 17be 0e6f 0ebe
00000110: 0ee2 4abe 32e0 a6bc 4e96 05be 13c2 23be
00000120: 5f54 37be a138 56be cd41 9ebd b98f 803d
00000130: cbe2 8d3d 6a54 b53e a6ad 9d3e 6d1a e83e
00000140: 733b fe3d 19ee b13d be7b 373d 038b 47bd
00000150: 0165 453d 50cc ec3d 18f5 c33d 17e4 9abd
00000160: b8fa 30be 7156 1dbe 7f07 febd fc43 5fbe
00000170: 5543 4bbb 971b f6bd ff28 9fbd 1a80 0fbc
00000180: 487b 01bd 8e53 dd3d 2f08 dabd 7f47 193e
00000190: 5384 7d3c 61e7 20bd a03c f13d 4f6f c0bd
000001a0: 5ced ddbc 94d8 1e3d b720 e5bd d775 003c
000001b0: ddca bbbc c325 483d ddf9 fbbd 3cef 43be
000001c0: 066c 6abd 4a44 2fbe b40a 54be 523b 843d
000001d0: ee3f 823d 3d75 2a3e 6f31 df3d a165 143e
000001e0: 3dab 0d3e 25d5 e13d eace 643e 5dca a53d
000001f0: c2b9 253e a83e 903d 6afc b0bc 0122 d23d
00000200: 23e5 89bd 547f 98bd b572 09bb a1c7 8fbb
00000210: 58a6 23bb 2465 f73b 7589 ca3c bbb2 123e
00000220: 064a 8c3d 4fc3 6f3e a511 f43e ee1c e03e
00000230: 6f03 7b3e d0b9 623d 8e04 3b3e 2e6c 373e
00000240: 9447 6abd 9310 5b3e ed7a 933c 52f1 ae3d
00000250: 9d29 af3c 73c2 18bd 8f7c 783d 707c eabd
00000260: 6e10 ccbd d2a8 e6bd 1e38 ecbd bcf0 cabd
00000270: f15d 5f3d 542c b6bd 3c2b 453d 75ef 193e
00000280: 7205 5fbc 4e28 233e 6136 9d3d cb5e 883e
00000290: d925 8b3d 874e 7a3e 94f9 b33e a208 8d3e
000002a0: 42f0 813e 4f04 913e 73f8 00bd f5ce afbd
000002b0: df13 803d 4eec c23d dfd5 ebbd 95fe e73d
000002c0: 83a6 e23d c78f 083e 953c 173e 102e 853e
000002d0: 918d 183e 911c 803e 0950 b33d dc78 f63d
000002e0: 5de5 af3d e1b0 a7bc 358f b63c 5f40 793c
000002f0: 7a0f 30be 7c14 9e3d 0c27 87bd 8a6d afbd
00000300: 4177 8ebe ee22 17be 694a 84be 4f02 fcbe
00000310: 9aaf e9be 5064 53bf c065 9ebf 7144 22c0
00000320: 1c15 9c3e b597 f4bd a270 42bd 7ad6 27be
00000330: 6834 febd ab93 ab3c e540 e8be 504c 14be
00000340: d027 0abe 45c2 2ebe ee48 2cbe c77a 8bbe
00000350: 69ac 97be 97d2 27be f425 e5bd 20d1 803c
00000360: 7bd6 78be 0a79 b9bd e68a 2cbe 0afa 833d
00000370: 6dbd ebbe 3add 0cbf 4b0a 8fbe a5b7 06be
00000380: 48d8 b3bd 08cd 853d 3361 0fbe 52ad 38be
00000390: 8278 55bd 95eb 1f3d 330d ed3d 7db4 f53d
000003a0: 2e51 873d 7733 8f3d 20a3 133e 6c3a 6cbb
000003b0: f00e 313e 0396 453d e796 663e 0d08 8c3e
000003c0: 7faf 1d3e 0ab3 a73e fda1 5d3c 9f5d 1a3e
000003d0: ce67 303e b519 543e e0cb 093e b663 083e
000003e0: 086c 033e d032 873e f794 adbc bf32 863d
000003f0: 13b7 0cbe 57b7 71bd e73b 543d ec77 3abd

gnn_layers.0.bn.weight f4 [128]
0.5628557 0.66194844 0.29507223 0.6348251 2.1115463 0.32221875 0.0078772735 0.71338236
0.28665665 0.29376265 0.47278115 0.2556863 0.14356367 0.84999996 0.345061 0.34300837
0.8884778 1.1123416 0.60689247 -0.6191328 0.97213 0.40856266 0.67667335 -0.22203031
0.6238969 -0.60985386 1.7560556 0.05499073 0.6883152 0.8166519 -0.0017679281 0.90934134
1.3982487 0.013293947 0.7978079 1.6587286 0.86124706 0.39589322 0.0029655506 1.3926079
-0.4303638 0.017153157 0.8229191 0.7553779 1.6352248 0.2900518 0.81393707 0.74950516
0.88976634 0.56074256 0.2395266 0.42781693 1.1797891 0.011788221 0.1334783 0.70088524
0.23951925 0.013237159 0.6086404 0.016905895 0.0019963868 1.2660171 1.6634796 -0.6753174
0.001776703 0.95122963 1.3569512 0.59138465 1.0646496 0.040068034 0.73343444 0.54961294
0.8782888 0.4587284 0.782616 0.2765228 -0.13402249 0.17931864 0.022426987 0.2541844
0.70235616 0.69764847 -0.5221213 1.4107857 0.8352495 -0.0059941486 0.658885 0.2583618
0.6520767 1.1156715 0.12533902 1.5544242 1.2588165 0.46572918 1.2216465 0.017715758
1.5781361 0.41185382 0.40017527 0.15294802 1.6737369 0.016538205 1.4273165 0.3169326
0.16105473 0.5839071 0.9331831 1.0618379 0.25226924 0.9545894 0.83348423 0.6085936
1.2176794 0.8010089 0.7030133 0.7101417 -0.5783941 0.72389936 -0.0075686234 0.7026109
0.21186867 0.71591437 0.7088615 0.7600911 0.29932415 0.25107113 0.0076286285 0.35297954
00000000: 5017 103f 7475 293f b513 973e e683 223f
00000010: 9323 0740 dbf9 a43e ae0f 013c 3aa0 363f
00000020: a9c4 923e 0f68 963e 5f10 f23e 51e9 823e
00000030: 5b02 133e 9999 593f d6ab b03e cb9e af3e
00000040: 4873 633f 3661 8e3f 4e5d 1b3f 7d7f 1ebf
00000050: 83dd 783f 202f d13e 773a 2d3f ea5b 63be
00000060: b5b7 1f3f 621f 1cbf 6ec6 e03f f63d 613d
00000070: 6d35 303f 1910 513f d3b9 e7ba 98ca 683f
00000080: d0f9 b23f dbce 593c 233d 4c3f 3851 d43f
00000090: b07a 5c3f 84b2 ca3e af59 423b fa40 b23f
000000a0: a558 dcbe c784 8c3c d3aa 523f 7260 413f
000000b0: 0c4f d13f ab81 943e 2e5e 503f 92df 3f3f
000000c0: bac7 633f d38c 0f3f 7646 753e d20a db3e
000000d0: 5403 973f 6223 413c 89ae 083e 376d 333f
000000e0: 8944 753e abe0 583c dbcf 1b3f 3b7e 8a3c
000000f0: d0d5 023b d90c a23f e6ec d43f 9ae1 2cbf
00000100: 43e0 e83a c983 733f 94b0 ad3f fc64 173f
00000110: 7046 883f 611e 243d 5cc2 3b3f 6fb3 0c3f
00000120: 89d7 603f 73de ea3e 8659 483f 6594 8d3e
00000130: 313d 09be 4e9f 373e cdb8 b73c 7524 823e
00000140: 9dcd 333f 1799 323f bea9 05bf a094 b43f
00000150: e9d2 553f 906a c4bb b0ac 283f ff47 843e
00000160: 80ee 263f 53ce 8e3f df58 003e 5ff7 c63f
00000170: e620 a13f 0e74 ee3e ea5e 9c3f a320 913c
00000180: 5d00 ca3f 81de d23e c6e3 cc3e 689e 1c3e
00000190: 033d d63f 217b 873c 4fb2 b63f fd44 a23e
000001a0: 88eb 243e f07a 153f 16e5 6e3f 4eea 873f
000001b0: 6f29 813e f95f 743f 395f 553f cacc 1b3f
000001c0: ebdc 9b3f eb0e 4d3f aef8 333f d9cb 353f
000001d0: a311 14bf 7851 393f 3702 f8bb 4fde 333f
000001e0: 1af4 583e 2a46 373f f277 353f 5595 423f
000001f0: 0441 993e 658c 803e 93f9 f93b bcb9 b43e

gnn_layers.0.bn.bias f4 [128]
0.51006526 -0.33753702 0.6921032 -0.24225996 -0.09390142 -0.694108 -0.86649483 -0.39926612
0.52532876 -0.63313603 0.67147845 1.0750122 -0.8468153 0.37185976 0.8677361 0.6862777
0.40175334 0.1268334 0.653931 0.4801161 -0.21714039 -0.56703794 0.36339632 0.7136681
0.40445986 0.40724832 -0.070637636 -0.6938325 -0.1764287 0.32435763 6.1735196 0.37157065
-0.3695516 -0.85585564 0.39828658 -0.5210561 0.35227242 0.72735214 -0.7223834 -0.045823853
3.8989766 -0.8036909 0.33595976 -0.25431025 -0.4992782 2.241661 0.34284842 -0.21468735
0.4207004 0.6158034 0.79180485 0.65550584 0.20477176 -0.7251026 -0.7792788 0.35844332
1.8986973 -0.7210613 0.4198619 -0.7059897 -0.7580039 -0.40603015 -0.03052822 0.35099494
-0.773862 0.38347867 -0.25859663 0.39625755 -0.051628504 -0.77449614 -0.3694759 0.39567798
-0.06922383 0.59924155 -0.2366264 0.5342563 1.306126 0.91684425 -1.0908136 1.0964953
0.31505796 -0.14950478 0.30108464 -0.28817925 0.3307685 -0.7505809 0.4876043 1.0492165
-0.3974883 0.74457335 -0.6445167 0.12649088 0.17437582 0.6530106 0.10572913 -0.8759731
-0.017263541 0.34614336 0.8049518 1.0024573 0.009093708 -0.77350086 -0.020730108 -0.3218283
0.9203613 -0.6973518 -0.1934408 -0.31934646 1.0161123 0.43436965 0.32328147 0.5520372
-0.42801568 0.31858295 0.484911 -0.22154927 0.28484777 -0.22396289 -0.7869465 -0.14195924
0.9542868 -0.21890922 -0.19659501 0.19273475 -0.78985083 1.0207176 -0.7477965 0.7287077
00000000: a393 023f a7d1 acbe ad2d 313f ff12 78be
00000010: 634f c0bd 10b1 31bf 9bd2 5dbf 9c6c ccbe
00000020: f27b 063f 3415 22bf 03e6 2b3f 009a 893f
00000030: e3c8 58bf 6764 be3e f423 5e3f e5af 2f3f
00000040: 9db2 cd3e 9de0 013e 0668 273f c7d1 f53e
00000050: 0d5a 5ebe 6629 11bf 150f ba3e f4b2 363f
00000060: 5d15 cf3e da82 d03e 77aa 90bd 029f 31bf
00000070: baa9 34be 3412 a63e 798d c540 823e be3e
00000080: de35 bdbe 5b19 5bbf 38ec cb3e ef63 05bf
00000090: 0d5d b43e c033 3a3f 1eee 38bf cbb1 3bbd
000000a0: d588 7940 b0be 4dbf eb02 ac3e f434 82be
000000b0: 64a1 ffbe 6077 0f40 d489 af3e 00d7 5bbe
000000c0: 0b66 d73e 4ba5 1d3f b9b3 4a3f 3bcf 273f
000000d0: b0af 513e 53a0 39bf d17e 47bf e285 b73e
000000e0: 8308 f33f 7997 38bf 24f8 d63e bebb 34bf
000000f0: 8b0c 42bf 2fe3 cfbe 5116 fabc 9cb5 b33e
00000100: d21b 46bf 5157 c43e c766 84be 45e2 ca3e
00000110: 6978 53bd 6145 46bf f22b bdbe 4e96 ca3e
00000120: 39c5 8dbd e567 193f 314e 72be 05c5 083f
00000130: 232f a73f 4eb6 6a3f c89f 8bbf f559 8c3f
00000140: 474f a13e c817 19be c427 9a3e 3b8c 93be
00000150: 7d5a a93e 1226 40bf 45a7 f93e ba4c 863f
00000160: 9683 cbbe 5c9c 3e3f 0cff 24bf d386 013e
00000170: 938f 323e b42b 273f 8488 d83d c63f 60bf
00000180: 456c 8dbc b439 b13e 5211 4e3f 8550 803f
00000190: c7fd 143c 2704 46bf 30d2 a9bc aec6 a4be
000001a0: cc9c 6b3f a685 32bf 5815 46be 6181 a3be
000001b0: f80f 823f b365 de3e 2685 a53e 4f52 0d3f
000001c0: df24 dbbe 4e1d a33e 4146 f83e d0dd 62be
000001d0: 91d7 913e 8756 65be 5375 49bf c35d 11be
000001e0: 244c 743f bd29 60be 3450 49be 425c 453e
000001f0: aa33 4abf e0a6 823f 976f 3fbf 968c 3a3f

gnn_layers.0.bn.running_mean f4 [128]
0.09095581 -0.5017606 0.17276095 0.20444496 -0.040176284 0.035449937 0.0035328409 0.27621138
-0.3263756 -0.25133625 0.03262094 -0.17269866 0.16296005 0.11253583 0.15513699 -0.28498644
0.20479757 -0.43839547 0.774137 -0.20199288 0.15295136 0.075425066 0.19031593 0.25880095
0.09238541 -0.22082993 0.22875392 0.002893276 -0.5946227 0.16079472 -0.011681922 0.14177404
-0.15105782 -0.0013882072 -0.25642183 -0.6412529 0.10753684 -0.20708893 -0.004099493 -0.016497273
0.12852877 -0.005870304 0.115966715 -0.28022984 -0.39234945 -0.0511182 0.17599142 -0.76732534
0.21492265 0.0076284157 0.0850851 0.22753341 0.038239285 -0.003267377 0.037753686 0.2667559
0.08568216 0.0053550405 0.15514678 0.0015849049 -0.0044723772 -0.58335364 -0.13095489 -0.15712139
-0.0022732667 0.19033356 -0.3037999 0.08122043 -0.18022567 -0.0007779291 0.27692586 0.17510621
-0.2633719 -0.34884712 -0.51734227 -0.8622926 0.095789276 0.05975885 -0.0072067506 -0.12670285
-0.0018213572 -0.45820123 -0.113443315 -0.35710555 0.1625195 0.0038907612 0.10965075 -0.18291575
0.15721974 0.19449581 0.00038769876 -0.4360602 0.16449362 -0.32530594 -0.19258963 -0.0067817406
-0.31976494 0.20568973 -0.31075972 -0.14087132 -0.42709804 -0.010358684 -0.052726656 0.015048428
-0.19325146 0.32752466 0.1093591 -0.31296065 -0.24031697 0.107205376 0.22041482 0.25270185
-0.6297173 0.24413666 -0.49232933 -0.7076161 -0.16619639 -0.062170587 -0.004682379 -0.80179304
0.16196057 -0.71947557 -0.837308 0.0084431395 0.05863799 -0.11326085 -0.007029972 -0.22893916
00000000: 0a47 ba3d 6273 00bf 3fe8 303e 055a 513e
00000010: e38f 24bd f433 113d 3c87 673b 946b 8d3e
00000020: b41a a7be 25af 80be 899d 053d ebd7 30be
00000030: 00df 263e 2f79 e63d 3bdc 1e3e bee9 91be
00000040: 74b6 513e 5f75 e0be d82d 463f 39d7 4ebe
00000050: 489f 1c3e 7578 9a3d 2ee2 423e 8f81 843e
00000060: 9034 bd3d 3e21 62be 783e 6a3e 1e9d 3d3b
00000070: 3139 18bf 5fa7 243e 8865 3fbc 372d 113e
00000080: e7ae 1abe 81f4 b5ba b949 83be 2629 24bf
00000090: 463c dc3d 1f0f 54be 0a55 86bb 4a25 87bc
000000a0: 0c9d 033e ae5b c0bb f57f ed3d 497a 8fbe
000000b0: 07e2 c8be 5161 51bd 1837 343e 6f6f 44bf
000000c0: af14 5c3e caf7 f93b 1941 ae3d 85fe 683e
000000d0: cca0 1c3d 7d21 56bb 9ca3 1a3d 3b94 883e
000000e0: 217a af3d 5679 af3b ccde 1e3e 95bc cf3a
000000f0: 058d 92bb aa56 15bf 0a19 06be 6ee4 20be
00000100: 16fb 14bb cde6 423e a98b 9bbe e656 a63d
00000110: 148d 38be f0ed 4bba 3ac9 8d3e 0b4f 333e
00000120: afd8 86be 179c b2be 8b70 04bf 35bf 5cbf
00000130: 2b2d c43d b2c5 743d 9b26 ecbb 64be 01be
00000140: 9bba eeba 5a99 eabe f854 e8bd 8ad6 b6be
00000150: 836b 263e 24fc 7e3b 9390 e03d 444e 3bbe
00000160: 36fe 203e e929 473e 0c44 cb39 4843 dfbe
00000170: 0471 283e 808e a6be 3736 45be 5d39 debb
00000180: 3bb8 a3be 54a0 523e e61b 9fbe 9240 10be
00000190: 98ac dabe 78b7 29bc e8f7 57bd af8d 763c
000001a0: b6e3 45be 50b1 a73e aaf7 df3d 613c a0be
000001b0: a715 76be 7e8e db3d 6cb4 613e 2362 813e
000001c0: 2735 21bf f6fe 793e 9712 fcbe 5426 35bf
000001d0: 632f 2abe 96a6 7ebd a46e 99bb 4f42 4dbf
000001e0: fed8 253e 8d2f 38bf d159 56bf 1855 0a3c
000001f0: 642e 703d 4ef5 e7bd ae5b e6bb 076f 6abe
