model_normal/gdn_smap50.pth (torch, 18549 bytes, 16 tensors)

embedding.weight f4 [25, 64]
00000000: c7a8 1dbf 3679 b5bd ad4d 9bbe 0409 60be
00000010: d67f 853e cc42 b1be 79fb 11bf 6061 08bf
00000020: 331d 32bd 2b80 693e 916f 063e f0fe 1e3e
00000030: 5dff 90bc d55a 90bd ad60 98be 78b5 2dbe
00000040: b7aa 14bf 387a 463e 8efa f43d fd3a a1bd
00000050: d861 163e 928e 913d d821 bbbd 8533 f53d
00000060: 827a a63d 93c5 70bd 1bc6 0a3e d961 d3be
00000070: e6ef b8be 8286 673e 838c d6bc 52e2 d5bd
00000080: b139 ce3c 5d74 2a3e fdcd f6bc 9b71 d73d
00000090: 8564 f83d a9ac 76be a0bb dfbe 6fbc 0ebf
000000a0: 5407 0fbd e361 dabd 6f99 cfbd 0e07 b7be
000000b0: 9887 a4bd be8e 05bd d1ad 2dbf cf05 cb3d
000000c0: 5286 efbd 7a3c 0d3e bc62 35be d6cc 06bf
000000d0: ebb4 69be 74fd e13d fa9d 9a3e 7d7e 063d
000000e0: 1f01 9abb 409b c2bd c38e 6abd 75a7 c33d
000000f0: 372c 473e cd50 54be da99 183e b26b 99be
00000100: c338 823b 007b 353e e007 9abf ae7b 79be
00000110: 777f 323e 1d91 55bf f6f0 04c0 3091 53bf
00000120: 3d2c 613d d39f 9ebb 6f97 953b 5b7b babe
00000130: 52e2 a3bb 0fa1 45bf 3f9d 883e 756a 99be
00000140: cb15 9dbe 9ef6 023a b774 f9bd 5588 92bc
00000150: 2b10 b2be bc85 58bd 978f 3bbe b0a4 efbe
00000160: c79d 8dbe 2016 6f3e 6cb6 edbd c221 b6bd
00000170: aff7 07c0 ba28 5a3c c5f7 d63d c0f1 86bd
00000180: 9bab 2dbc 8102 49bd bd4a 97bc b14d dcbd
00000190: a6d9 a93b 0617 4f3e 87e9 80bf 4308 91be
000001a0: 7c21 1d3e 9662 fdbd 0a21 c23d e006 f03d
000001b0: e5e9 7abf fc36 0d3e 33db 78be e3c2 14bf
000001c0: e41c a63e 07da 953d d852 6cbf 5e77 d3bf
000001d0: 715e 69bf 666d 1abd e44e 82bd bee8 f0bb
000001e0: 408a c43c ba66 96bf bc8b 263c 5e50 81bf
000001f0: 7fea e1be 2deb a2be a5a1 bcbe 458c 4dbf
00000200: f3a0 f0bc 6209 57bf 3dd3 bebd 7bcd 65be
00000210: 6e66 3abe 4d52 c23d e8bd 193d 3833 e7bc
00000220: c143 a8bf 4eb4 99bb 4928 7cbd 6083 c1be
00000230: 5518 a8bb 8472 3abe 7f1d 64be 3927 95bd
00000240: d29c 84bd 5d9c d0bd f82a 8abd 5cf3 24c0
00000250: 089b adbe 4c0a 00bd e0e4 32be 2cab e8be
00000260: 27f8 a1bc 00e3 77bf 7610 56bf cc23 9bbc
00000270: 6243 0dbe 2109 8b3c 2cd6 053e d272 15bf
00000280: 038e acba 31f4 6cbf ffe3 e5bd c5bc afbd
00000290: e8f9 0fbd 332a ddbe d41a eebc d2f7 463d
000002a0: 6e76 f03e 34aa 49be 89c5 ebbf d340 13bf
000002b0: 5956 3abd fe51 9fbf 989b 1dbe 06d0 a3bc
000002c0: caba 593f e983 dabc 2738 13bf a673 2bbb
000002d0: a472 7a3d 9502 85bd 09b5 44bd bdfe 9bbd
000002e0: 4dfe ca3c 7f62 c9ba 84ff e9bf 7a18 90bc
000002f0: da2f a4bc 88e4 24be 0a76 b6be fb84 51be
00000300: d147 28bb 09f3 243e 6753 25bf 69b0 62be
00000310: 0b69 303e 657b 513e 4c41 c5bf c2ab d73d
00000320: f795 50bd 75c5 85b9 c0e4 893c 5fb4 c0be
00000330: 2695 f13a 61a1 8abd 1ff2 5a3e 3c11 f7be
00000340: 3d18 2cbe ed35 23bc 961b aebd 0880 4fbd
00000350: 8179 b6be 66ca 0dbe 705f 18be 2830 e5be
00000360: 7169 42bf 22d1 6f3e bff0 0fbe 317c 59bd
00000370: ee02 9fbf 8950 023c f780 4a3e 6090 28bf
00000380: b4ef 0ebc 2ecc bfbd ae9d c3bc 91c9 c3bd
00000390: d28d 2ebb 78a2 343e cb35 1fbe 0e6b 15bc
000003a0: 2b84 ae3d 8a0d 47bf a036 d93d a063 533e
000003b0: 0623 d5bd 9f50 413e a133 5ebe a3f1 d4be
000003c0: f7e1 643e e6d5 03bf c720 46bf bde8 65bf
000003d0: 3c9f 0bbf 8ef2 56bd b419 89bd 490a a8bc
000003e0: 7a13 9b3c 3b61 a9be 24ed 27be ce92 98bf
000003f0: 7428 b4be 7547 bebe 1b39 cabe bd13 08bf
-0.6158566 -0.0886101 -0.303327 -0.21878439 0.26074094 -0.34621274 -0.5702434 -0.5327358
-0.043484878 0.22802798 0.13128497 0.15526938 -0.017699892 -0.07048575 -0.29761258 -0.16963756
-0.5807299 0.1938256 0.11961852 -0.07872579 0.14685762 0.07107271 -0.091373146 0.11972717
0.08128835 -0.05878217 0.13552134 -0.4128559 -0.36120528 0.22609904 -0.026190048 -0.10443558
0.025173994 0.16645952 -0.03012752 0.105197154 0.121285476 -0.24089302 -0.43697834 -0.55756277
-0.034919098 -0.10663202 -0.10136687 -0.3574757 -0.08033675 -0.032606833 -0.6784335 0.09913217
-0.116955414 0.13792601 -0.17713445 -0.52656305 -0.22822921 0.110346705 0.30198652 0.032835472
-0.0046998407 -0.09502268 -0.057265054 0.09553424 0.1945046 -0.20733948 0.1490244 -0.29964978
0.0039740517 0.17722702 -1.2033653 -0.24363586 0.17431436 -0.8342455 -2.077207 -0.82643414
0.05497383 -0.00484083 0.0045651714 -0.36422238 -0.0050013447 -0.7719888 0.2668247 -0.29964033
-0.3068069 0.0004995855 -0.12180465 -0.017887274 -0.3477796 -0.052861914 -0.18316494 -0.46805334
-0.27659437 0.23348284 -0.1160706 -0.088931575 -2.1244924 0.013315374 0.10496477 -0.06589079
-0.010599996 -0.049074654 -0.018468255 -0.10757006 0.0051834164 0.20223626 -1.0071267 -0.28326616
0.15344805 -0.123723194 0.09478958 0.11720061 -0.98013145 0.13790506 -0.24302368 -0.58109874
0.32443917 0.07316976 -0.9231391 -1.6520803 -0.9115973 -0.037701987 -0.063627034 -0.007351964
0.023991704 -1.17501 0.010165151 -1.0102651 -0.4412422 -0.3182005 -0.36842075 -0.8029216
-0.029373622 -0.8399869 -0.09317634 -0.22441666 -0.18203136 0.09488354 0.037534624 -0.028222665
-1.3145677 -0.0046906834 -0.061561856 -0.37795544 -0.0051298537 -0.18207747 -0.22276877 -0.07282872
-0.064752236 -0.10186074 -0.06746477 -2.5773535 -0.33907342 -0.03125982 -0.17470121 -0.45443094
-0.019771649 -0.9683075 -0.8361887 -0.018937968 -0.13795236 0.016972126 0.13069981 -0.58378327
-0.0013164881 -0.92560107 -0.112251274 -0.08580927 -0.03515044 -0.43196258 -0.029065527 0.048576184
0.46965355 -0.19693834 -1.8419658 -0.5752079 -0.045492504 -1.2446897 -0.15391386 -0.019996654
0.8505064 -0.026674228 -0.57507557 -0.002616146 0.061144486 -0.06494633 -0.04802421 -0.07616947
0.024779463 -0.0015364437 -1.8281102 -0.017589796 -0.020042349 -0.16102803 -0.35636932 -0.20460884
-0.0025677572 0.16108336 -0.64580387 -0.22137608 0.1722757 0.20457228 -1.5410552 0.10530807
-0.050924268 -0.00025514854 0.01683271 -0.37637612 0.001843129 -0.06769062 0.21381424 -0.48255336
-0.16806121 -0.009961587 -0.08501355 -0.05065921 -0.35639575 -0.1384674 -0.14880157 -0.44763303
-0.7594214 0.23419622 -0.14056681 -0.053096954 -1.2422769 0.007953771 0.19775759 -0.658453
-0.008724142 -0.09365116 -0.023878898 -0.0955993 -0.0026634824 0.17640102 -0.15547864 -0.009119762
0.08521303 -0.77755034 0.10606122 0.20643473 -0.10407071 0.18878411 -0.21699382 -0.41590604
0.22351824 -0.5149826 -0.77393764 -0.89808255 -0.5453985 -0.052477412 -0.066943556 -0.020512717
0.018930186 -0.33081993 -0.16399056 -1.1919801 -0.35187113 -0.37163892 -0.39496693 -0.5315512

bn_outlayer_in.weight f4 [64]
00000000: 4d33 1d3f b240 5c3f 233b 2a3e 5581 083f
00000010: d87b 383f ec5c b93e b914 113f 7678 213f
00000020: 95c8 523f 8818 4f3e e22a d93e 157f 353f
00000030: a972 8c3e af4d 1e3f 358e 983e 4a81 a43e
00000040: 565b dc3e b044 133f c44d 0a3f d805 233f
00000050: c950 273f 51fe 103f 042e 1f3f 188e 4d3f
00000060: dc21 043f d23f 153f 67e9 523f 5fb0 093f
00000070: 3b8a 9e3e 1c43 3b3f af36 c93e cf52 043f
00000080: ab16 483e a374 4c3f 4495 2d3f 280a 1b3f
00000090: a1dd f83e 0b05 2d3f 852a 183f 96a4 f23e
000000a0: 9dea 023e 4bba 323f cf03 123f b4cc 413f
000000b0: 5e11 143f f0a9 303f c887 243f 2b43 083f
000000c0: 000e 433e 8fe6 c63e 785e 073f ad76 223f
000000d0: 7264 cb3e d901 0e3f c801 d73e a145 283f
000000e0: b5c8 133f a656 ec3e 0dda 3e3f 14e7 143f
000000f0: 1b9b 1f3f edc7 3d3e 12db 393f cd1c 073f
0.61406404 0.8603622 0.16624121 0.53322345 0.7206397 0.36203706 0.56672245 0.63074434
0.82337314 0.20224202 0.4241553 0.70897037 0.2743123 0.61837286 0.29795995 0.3212989
0.43038434 0.57526684 0.5402491 0.6368079 0.65357643 0.56638056 0.6217959 0.8029494
0.51614165 0.5830051 0.82387394 0.53784746 0.30964836 0.73149276 0.39299533 0.51688856
0.19539897 0.79865474 0.67805886 0.6056237 0.4860659 0.6758582 0.5943988 0.47391194
0.1278481 0.6981551 0.5703706 0.7570298 0.57839 0.69009304 0.64269686 0.5322749
0.1904831 0.38847777 0.5287852 0.63462335 0.3972507 0.5547157 0.41993546 0.65731245
0.5772813 0.46159858 0.7455147 0.581651 0.6234605 0.18533297 0.725999 0.5277832

bn_outlayer_in.bias f4 [64]
00000000: 10a6 f0bd d710 0ebe 4f46 093d b55e aabd
00000010: 82fb 80bf ca05 d13c fc9f f3be 337a 1abe
00000020: fea1 a1bd bd55 c73c f684 81be e43c 57bf
00000030: dc6c adbc b0a1 2abf 0eec ee3c 1996 983c
00000040: 40af 9bbd abd7 8cbe 76b3 b7be ec94 d6bd
00000050: 1e33 6dbf e60b 96be 9b24 2abf 8312 31bf
00000060: 36e5 95be b1e7 a1bd 38f8 21bf a135 9ebd
00000070: 424b 563c 7062 bcbe 6730 efbe bf33 bebe
00000080: f884 e8bb 386e 12bf 7a1c 11bd 220a d1be
00000090: 32d2 6abe d8cf 29be f140 05be 648a 5dbe
000000a0: 032a 26bf bcfc 18bf 4ccd 1d3c 3f37 ddbe
000000b0: adcd febe 8014 40be 80cb b0bd 12e6 9abe
000000c0: b2dc c1be 0cd1 ecbd 38ba f4be 6c66 0dbe
000000d0: d10f aebe afde aebe fff3 f2be 636d 95bd
000000e0: 7119 febe 2a32 9bbe fd1a 39be 484c 9fbe
000000f0: 0116 5abf c9a1 fc3c 20a9 5ebf f40c 2cbe
-0.11750424 -0.13873611 0.033514317 -0.08318845 -1.0076754 0.025515456 -0.47582996 -0.15085678
-0.07892226 0.024332875 -0.25296754 -0.84077287 -0.021170072 -0.66652966 0.029165294 0.01862626
-0.07601786 -0.27508292 -0.35879105 -0.10477623 -0.92656124 -0.29305953 -0.66462106 -0.6916887
-0.29276437 -0.0790552 -0.63269377 -0.07725073 0.013079466 -0.36793852 -0.46716616 -0.37148854
-0.0070959292 -0.5719943 -0.035427548 -0.40828043 -0.22931746 -0.16583192 -0.13013054 -0.21634823
-0.64907855 -0.5976064 0.009631466 -0.43206212 -0.49766293 -0.1875782 -0.086325645 -0.30253655
-0.3786369 -0.1156331 -0.47798324 -0.13808602 -0.33996442 -0.3415427 -0.4745178 -0.072962545
-0.49628785 -0.3031171 -0.18076701 -0.31112885 -0.85189825 0.030838864 -0.86976814 -0.16801816

bn_outlayer_in.running_mean f4 [64]
00000000: 4e21 5bbc 4560 0abd a9f9 5ebc bd72 73b9
00000010: 26b6 3fbd bd49 dabb 3d13 03be 7fb0 94bc
00000020: 9c83 d1bc 4c52 3c3c 29c0 acbd e770 0cbe
00000030: 08d5 f838 8135 51be 3a87 bdbb aa95 bbbb
00000040: d450 f0bc 41f0 0abd 5b6a 96bd 103f b0b9
00000050: ad0a 14be 2bd2 d0bd 7170 0ebe 0e54 2dbd
00000060: 339e cbbd ca6a 30bc 859d 44bd c8de f1bb
00000070: 04c5 53bc e196 50bd bdd3 893c edf5 06be
00000080: eff8 073a 597d d2bd 9dc0 99b8 acbc e2bd
00000090: 10b9 f3bc cdf0 22bc b44b 8bbc 3393 2ebc
000000a0: 412c a73e d198 44be f76a 87bd 1b8c a1bb
000000b0: 5eff 5ab6 33a5 b7bd 2e85 9fbc 112f 02be
000000c0: a948 d93e 4bb5 09bd 7dfa 13bf 23de a0bc
000000d0: 6312 03bd b13b 92bd 5868 03bd 5256 02bc
000000e0: 80a2 2bb9 a673 c1bd fd75 2cbd 7c74 21be
000000f0: a059 e8bd b911 b2bc 6d6e 91bd 9aa6 e7bb
-0.01337464 -0.033783216 -0.013609328 -0.00023217029 -0.04680457 -0.0066616223 -0.12800308 -0.018150566
-0.025575452 0.0114942305 -0.08435089 -0.13714944 0.00011865242 -0.20430566 -0.0057839425 -0.0057246285
-0.029335417 -0.03392053 -0.073445044 -0.0003361632 -0.14457197 -0.10196336 -0.1391008 -0.04231649
-0.099422835 -0.010767648 -0.048001785 -0.007381294 -0.01292539 -0.05092514 0.016824597 -0.1317975
0.00051869353 -0.102778144 -7.3314855e-05 -0.110711426 -0.02975133 -0.009945107 -0.017003872 -0.010655212
0.3265095 -0.1919892 -0.06612199 -0.004930032 -3.2633175e-06 -0.08967056 -0.019472685 -0.12713267
0.42438248 -0.03362016 -0.5780409 -0.019637173 -0.031999957 -0.071402915 -0.03208193 -0.007955151
-0.00016368367 -0.09445886 -0.04210471 -0.15767092 -0.113452196 -0.021736966 -0.0710114 -0.007069421

bn_outlayer_in.running_var f4 [64]
00000000: 1e17 d23c d1d4 003d d339 dd3b 9026 6237
00000010: 7a5e f53c 9007 333b 6a76 e63d ac68 fb3b
00000020: 2661 d93d 03c9 a63b 3b77 743d ed97 bc3c
00000030: 4c39 ef37 0ddc b93c 7bdd 583b 8f3f a53a
00000040: 2e5b ec3c 6681 fb3b a129 083d abbd 3c39
00000050: d368 c23c 50d7 983d 9574 0c3c b62d 533b
00000060: db54 883d dd2d 6b3c 6f18 ae3b 0ed0 503c
00000070: f860 bd3b 0482 a53c d769 053d 043c 443c
00000080: dc93 2938 635a 0c3d 9828 f936 cc03 763d
00000090: 17f3 5e3d aaca 6e3b b18a 1e3c a317 583c
000000a0: e19d 063e 7ce0 c13c 363a 433f f375 0d3b
000000b0: a3b1 8733 009b 863d c2cf a73c df43 e03d
000000c0: 874e f63d ecbf 9f3d a830 3d3e 29b2 3f3c
000000d0: 0aee c13c afd6 2a3d 0b5e c43b d5d2 cf3b
000000e0: 6868 023d bf0a d73c 41a5 5d3d acbd 113e
000000f0: e664 943c 8a2d 843c 9dbd de3b c94d 1d3b
0.025645789 0.031452958 0.006751278 1.3479628e-05 0.029952276 0.002731774 0.112530544 0.00767239
0.10614233 0.0050898804 0.05968402 0.023021663 2.8517701e-05 0.022687936 0.0033090997 0.0012607443
0.028852072 0.0076753376 0.033242825 0.00017999734 0.023731625 0.074629426 0.008572717 0.003222329
0.0665681 0.014354196 0.0053129713 0.012744917 0.005779382 0.020203598 0.03257164 0.011977199
4.0430445e-05 0.034265887 7.425504e-06 0.060062215 0.054431047 0.0036436715 0.009676621 0.013189229
0.13146164 0.023666613 0.762607 0.0021585196 6.318739e-08 0.06572533 0.020484809 0.109504454
0.12026697 0.07800278 0.18475592 0.011700192 0.023673076 0.041708644 0.005992656 0.006342272
0.03183785 0.026250241 0.054112677 0.1423251 0.018114518 0.016134996 0.006797506 0.0024002662

gnn_layers.0.gnn.att_i f4 [1, 1, 64]
00000000: 1744 3f3f e296 763f e0ef 903f 1c9d c83e
00000010: 5348 85bf cdc3 753f 7dbb 02be a615 92bd
00000020: 410b c83e c423 703f 3f03 933f af94 15bf
00000030: 2747 0dbe 033e bfbf 7f90 173f 2ea2 993f
00000040: 3c35 1b3e 2497 babe 3a26 ff3e ba84 25bf
00000050: 874e 97be 8a02 453f 5c97 aabf 38c1 82bf
00000060: 8fe1 d13e 727b b3be 0110 2dbf 145b cd3d
00000070: 3c09 b53f a368 00bf e15f c73f 59e0 79bf
00000080: f083 313d f8c1 44bf 05e1 5abe 77b1 3e3f
00000090: 0b79 863f 34bc ec3e e70d 1e3e 7250 f13e
000000a0: ea48 903f 428b bebf 7ecd aebe ba97 593f
000000b0: 1cd4 afbf 45fb 55bf a8d6 893e 1b2f 743e
000000c0: d9a8 a73e f5f4 673f c3a2 0c3f be56 a63e
000000d0: bee1 bdbe 6787 b93e cd37 bdbe 0bee ae3f
000000e0: 60d1 2a3e 103b 87bf 11c8 663f f799 743f
000000f0: 0f41 fabc b926 3d3f 0b47 75bf bf9c 313e
0.7471327 0.9632398 1.1323204 0.39182365 -1.0412697 0.96001893 -0.12766834 -0.07133035
0.39071086 0.93804574 1.1485366 -0.5843 -0.13796674 -1.49408 0.5920486 1.2002618
0.15157026 -0.36443436 0.49833852 -0.6465565 -0.295521 0.76957 -1.3327441 -1.0215216
0.409924 -0.3505512 -0.67602545 0.100271374 1.4143443 -0.5015966 1.5576135 -0.9760795
0.043338716 -0.7685847 -0.213749 0.7448954 1.0505689 0.46237338 0.15434991 0.47131687
1.1272252 -1.4886248 -0.34141153 0.8499714 -1.3736606 -0.8358653 0.26921582 0.23846094
0.32746008 0.9060815 0.54935855 0.32488054 -0.3708629 0.36236116 -0.36956635 1.3666395
0.16681433 -1.05649 0.9014903 0.9554743 -0.0305486 0.7388721 -0.9581153 0.1734495

gnn_layers.0.gnn.att_j f4 [1, 1, 64]
00000000: 9a30 b7bc 9ce5 813b 1975 fdbd a55b 64be
00000010: 746e 963c 567a 06be 0f98 f2bd 92c8 1a3e
00000020: 6af9 003d 35fc 293e 2a9b 0c3d 5bde 683d
00000030: ac41 623d b419 47bd 7288 13be 6ac0 353e
00000040: e70a dcbd e36c e33d 3f68 453d 303b fc3d
00000050: f0c6 cf3d 9e24 7c3e 5646 263e c5f1 4fbe
00000060: e02e 503d 6a82 b33d 3a6e 9fbd 6ca2 e13d
00000070: 923a dc3d ddfe e63c 9f8d be3d fea0 61bc
00000080: 6245 733c cf74 84be 9234 623d bb9a 2fbc
00000090: f5af 543c 79c6 c7bd 3b8a ebbd 083c 943e
000000a0: aecf 94bd 522b 143e a6de 163e 256d 02be
000000b0: 02f9 91bd 2017 1bbe 07cb 3cbe 9dfd 4c3d
000000c0: 2003 36be d14a d53d de9e d2ba 920b 313e
000000d0: 2bc8 62be a15e e63d acb4 26be 5a4b 61be
000000e0: 8f9e f93a 6e71 f2bd ab5f f73d 00e4 633c
000000f0: cbfa b43d 68be 55bd 4443 1cbd de7b 143b
-0.022362042 0.003964139 -0.1237585 -0.22300585 0.018363215 -0.13132605 -0.11845409 0.15115574
0.03148786 0.16600116 0.034327663 0.05685268 0.05523841 -0.048608497 -0.14407519 0.17749181
-0.10744267 0.11104753 0.04819512 0.123159766 0.10145366 0.24623343 0.16237769 -0.20307072
0.050825953 0.08765109 -0.07784696 0.11017308 0.10753359 0.0281977 0.09304356 -0.013771294
0.014848085 -0.25870368 0.055225916 -0.010718043 0.012981405 -0.097546525 -0.11500975 0.2895205
-0.07266174 0.1446965 0.14733371 -0.12736948 -0.071275726 -0.1514554 -0.18436824 0.050046552
-0.1777463 0.10414661 -0.0016069075 0.1728957 -0.2214667 0.11248518 -0.16279858 -0.220014
0.0019044447 -0.11838041 0.12078794 0.01390934 0.088368975 -0.05218354 -0.038150087 0.0022656838

gnn_layers.0.gnn.att_em_i f4 [1, 1, 64]
00000000: df85 a4be b658 b63e 25c5 0b40 fce7 a0be
00000010: c6bc 513e 0d23 753f 606d 0140 f374 463f
00000020: 9d20 9abe 5132 dabe 603e 99be 5f47 433e
00000030: 2f2b 31bf 3ec5 c33f b047 ae3e 3c60 893f
00000040: 3115 72bc e944 2f3c 5bec ed3d c12c c7bc
00000050: 1736 7b3e c2fa a83e 18a3 44be 4d78 a93e
00000060: b2e4 2d3f cb88 ccbd 9eeb e3bd 0032 aa3e
00000070: b2f9 0540 96bc ed3e 9259 3abf 80ae 973d
00000080: 8a1a 863e 8af5 45be 587c 81bd 99e3 b73e
00000090: 0529 6bbe f8ec 94bd 0779 0a3f 83bb 6d3e
000000a0: 0551 d1bf fbfe 993f bc97 57bc 2063 58bf
000000b0: 6ad1 1340 95a6 8bba 2261 aa3e 6c16 673f
000000c0: d6ed 5dbf 1c58 acbd a743 c13f 92f5 683f
000000d0: 0679 8f3f c974 183d a895 8e3e 3b80 15be
000000e0: 4c23 d6be c588 903f 92ca 003e dbef 1840
000000f0: 6298 143f d39b 903f 431b 3d3e b583 8d3f
-0.32133386 0.35614556 2.1839077 -0.3142699 0.20482168 0.9575661 2.0223007 0.775222
-0.30103007 -0.42616513 -0.299304 0.19070195 -0.6920652 1.5294569 0.34039068 1.0732493
-0.01477556 0.010697582 0.11617347 -0.024313333 0.24532352 0.33003813 -0.1920284 0.33099595
0.67927086 -0.09987029 -0.11128925 0.33241272 2.0933652 0.46432942 -0.72792923 0.0740633
0.26192123 -0.19331947 -0.06322545 0.3591583 -0.22964866 -0.07271761 0.54090923 0.23216061
-1.635285 1.2030939 -0.013158735 -0.8452625 2.3096566 -0.0010654504 0.3327723 0.9026859
-0.86691034 -0.08415243 1.5098771 0.9099971 1.1208808 0.03722075 0.27848554 -0.14599697
-0.41823804 1.1291739 0.12577274 2.3896396 0.5804502 1.1297554 0.18467431 1.1055819

gnn_layers.0.gnn.att_em_j f4 [1, 1, 64]
00000000: eab3 10be c754 d33e aa17 af3e 04f6 cebd
00000010: 9b8e 883e 95b8 ef3d 91d5 05be 31d6 f3bb
00000020: 5ece d53f bf5a 45bc 3d2c 84be 80b1 883e
00000030: 82be 9abe 1363 8c3d c0f7 0abe 52b2 7a3d
00000040: b623 b7be 0030 173e 8b3e 3e3d 1430 0b3f
00000050: a80b 8f3e 0c2f 923e f9ca a03e 2a17 893e
00000060: 7fe9 823d 19f7 583f c0c2 563f faa8 823e
00000070: 9171 0a3e d25b 473e cd05 89be 057e 7f3c
00000080: 25d9 183e cc39 753f a5d1 1a3e 2662 b23e
00000090: a8c4 023c 33f2 833c bac2 9b3d 217c e2be
000000a0: 2983 71bf 7b28 6d3d 775f 0e40 129f 70be
000000b0: 4814 473e 7aa9 a63f 7461 133d 31e8 063c
000000c0: 775a 8ebf 37b1 d4bd 0701 0040 dcd3 8d3d
000000d0: b7fe 463d c136 0f3f 1750 8a3d 29dc 813e
000000e0: ff58 7b3f 7f17 d63b ab6a 053f 3f79 4d3e
000000f0: 170f f13d d3af 573f 1930 0a3e f19d 523e
-0.14131132 0.41275617 0.34197742 -0.101055175 0.266713 0.11705128 -0.1306975 -0.007441305
1.6703603 -0.012045561 -0.25815 0.26697922 -0.3022347 0.068548344 -0.13571072 0.061205216
-0.35769433 0.14764404 0.046446364 0.54370236 0.2793858 0.2855152 0.31404856 0.26775485
0.06392192 0.8475204 0.83890915 0.25519544 0.13519885 0.1946862 -0.26762238 0.01559401
0.14926584 0.95791316 0.15119036 0.34840506 0.007981457 0.0161067 0.076055005 -0.44235328
-0.9434076 0.057899933 2.2245767 -0.2349818 0.1944133 1.302047 0.03598161 0.00823407
-1.1121358 -0.103853635 2.0000627 0.069251746 0.04858276 0.5594292 0.06753557 0.2536328
0.9818267 0.0065335627 0.5211589 0.20065783 0.11770456 0.8425266 0.1349491 0.20568062

gnn_layers.0.gnn.bias f4 [64]
00000000: 2916 8cba 309e 153c 5c08 e03c 315e 44bf
00000010: 7b42 a53b 0e2c de3a 8731 3e3c 2006 6dbc
00000020: a2a0 7db9 7d73 5bbd f681 d43b 2532 a2bc
00000030: 5370 8abe 4674 1e3b a84c c0bd 7de5 0139
00000040: 030c 83bd c04a 68bb cc3f a53b be7c 8cbc
00000050: 4d75 30bc fadd 043c b686 3d3d 88f7 89bc
00000060: 5e8a 4f3c 7be6 3ebd 5e7d f9bc 1430 b6bd
00000070: a182 73bb 95ef b73b 1b9d 0dbb 3ee9 b03a
00000080: 22e7 d4bf 42fd a0bb 4126 43bc 4a67 2f3c
00000090: 649f b5bb d324 c3bf cfab 04bd 4855 b23a
000000a0: 2e34 863a 754d a43c ee54 e03b d90b 0fbd
000000b0: 364f 97bb 548f a5bb ea8b 8abd 71df aabb
000000c0: c62b 0bbd 286d 4bbb 3ab7 85bc 83a9 d33b
000000d0: bd5e aa3c b152 ee3b dd7e 6b3d 5473 2d3f
000000e0: a208 853b 8dc5 e7ba df0d 29ba 013b 463c
000000f0: 8cbd 0e3d e14c 5bbb b2f6 60bb 65be 06bb
-0.0010687757 0.009131953 0.027347736 -0.76706225 0.0050433255 0.0016950385 0.011608488 -0.014466792
-0.000241878 -0.053576935 0.006485219 -0.019799301 -0.27038822 0.002417819 -0.09389621 0.0001238789
-0.063987754 -0.0035444945 0.0050430056 -0.017149325 -0.010770154 0.008109564 0.04627105 -0.016841665
0.012667267 -0.046606522 -0.030455288 -0.08895889 -0.0037156718 0.005613277 -0.0021608535 0.0013497246
-1.6633036 -0.004913003 -0.011910976 0.010705778 -0.0055426825 -1.5245613 -0.032390412 0.0013605738
0.001023894 0.020056466 0.006846062 -0.03492341 -0.004617597 -0.0050524864 -0.06764968 -0.0052146246
-0.033977292 -0.0031040404 -0.01632272 0.0064594164 0.020797128 0.007273041 0.057494033 0.677541
0.004059867 -0.0017682776 -0.00064489053 0.012099029 0.034848735 -0.0033462571 -0.003432673 -0.0020560261

gnn_layers.0.gnn.lin.weight f4 [64, 5]
00000000: bcd8 c23d 9adb 793e 2077 69be fac4 a6be
00000010: 0362 143f 9f95 8bbd 0f9f 20bd a108 b1bd
00000020: 268a 143e 4a74 193f a5f0 40be 8dd4 aebe
00000030: a303 b43e b88f ad3e 6bd0 183c 5d25 6cbe
00000040: 16db b2be 5481 be3e 2986 71bd fe0a 8dbd
00000050: d3be 1d3d 8b1a 1139 aea0 8e3d 7063 a03d
00000060: b708 b0bf f53b 05be a17f 4cbe b924 a0bd
00000070: 5616 e23e 9f04 6f3e 4287 fb3c 4a8f 0e3d
00000080: 8749 373d ed77 e6be e039 7a3e 71fd 6abc
00000090: f4df 12bb 06ac d53d 2390 b13e a952 b7be
000000a0: 9a2f febd 1586 643e 372a 323e 7fc6 babe
000000b0: 0734 853e 4f1d 6a3c 2308 53be 5a99 00be
000000c0: c86a 033f c1ca e2bb 4ad0 f4bc 3dae c3bd
000000d0: 1071 c0bd 1dc3 3a3d f42e 543f e965 a1bc
000000e0: 3971 69bc 8c7a c83c 1e47 51bf d5b6 d83d
000000f0: 43b9 47be 2396 5ebe 3054 793e 3643 9ebc
00000100: 232a 7dbe 7b98 4e3e 6251 62bc 80df 46be
00000110: 8b0a d2be 74d6 9bbf fc4e 47be e1ea 7bbe
00000120: bb91 883e 3375 773e 34da 7a3c 820f bcbe
00000130: c692 3ebd 06af 7b3e b06f a53e ab1b cd3e
00000140: eba1 6ebe 9702 883e a5f6 adbe d43b c43e
00000150: 1927 2d3d 7644 903d 3683 e1bd bcdf afbc
00000160: 7524 f4be 9aaf 87be 031d fe3b d192 81bd
00000170: 0b83 a7bd 8f82 1abd 3fd1 3f3f 21d2 383c
00000180: d523 893d 1d5a 7fbe d64c cebe da18 473e
00000190: a92b 2fbd aebe 5ebd e725 34bc 72e2 ff3d
000001a0: 69dc 2fbf 61c1 893e 6994 c03e 2c20 913e
000001b0: 836b af3e ebcb 803e 61da 273e a1db 253e
000001c0: 08f1 fa3d 60e2 91be 43aa 00bf de67 65bd
000001d0: d1da 2dbd 3bf4 dfbb 861c 4b3d 8fcc 5ebf
000001e0: 40f6 d23e 6471 113e 4ab5 163d 7505 e6bd
000001f0: cd07 c0bc e533 d5bd e276 0a3e d5c6 e53e
00000200: 9235 1a3d 940d e2be 922e 48bd 4574 53bd
00000210: b5d8 46bc ed74 333d f5f6 53bf 3007 22be
00000220: 2f6c 183e bb32 a9be 7049 7e3e f17e 213d
00000230: cbc9 c1be b7f6 28bd ef28 e33e 6e2e 8e3e
00000240: 032e bb3e 6893 ddbd 769a 1b3e 3ff9 d8bd
00000250: 92a1 cfbe 2f89 66be 83c1 40be bb54 a0be
00000260: 3fe5 303d c94c be3e 0685 3f3f db23 69bc
00000270: e783 233d 0888 203d fc18 6dbe 19c1 42bf
00000280: 9b28 2fbd ed14 23be 4882 b2bd 645c e63e
00000290: 20ae 87be 5a3a 02bd b8dd d2bc 7298 973c
000002a0: ffaa 4abf 1b44 0d3d 2313 d7bd 2de8 ddbd
000002b0: 83fb b3be cc9e a53e aba8 b6be 9ab9 59bc
000002c0: 8389 a3bd e4a2 cebd 7a0b 0dbd a7cf 473f
000002d0: df4c bebd c0a8 42be d59f 12be c561 363f
000002e0: 776c 61bc c655 c43d 7c91 2f3e bf6b 623e
000002f0: ee6b c83d c85b f5be a540 933c 0130 8ebd
00000300: 619c a2bc eee2 57be 68d5 f63e 5b79 163e
00000310: f8bf a33d 5cd3 073f 0193 c73c 1ba3 f43c
00000320: eb00 6bbd a1b4 36bd 9d8a d63e 96bd c53e
00000330: c0d7 b73e f3a5 743e 46de d33e b7f5 b1be
00000340: 6e55 1abf 56a5 d23c b746 143e e2a4 bc3e
00000350: 8500 94be 6b24 38be 91f0 563e 102b aabe
00000360: 8218 f83d 37f3 a63e a8c4 8d3e 90cf 9c3c
00000370: 4da5 87bd cdfb fabe 14d6 4d3d c842 1ebf
00000380: 794e d2be 808d 633d 88fb bbbd eced afbe
00000390: 79d9 d5bd 75b9 9abe 11a6 8dbe 68c9 bcbc
000003a0: 40f4 0a3f 4603 72be 199b 223e 4589 e33d
000003b0: ff8d 923e c0d4 513d 8fef 52be f9ff 693e
000003c0: 4e56 1ebe b2bd 9cbd 84ae a13e cde4 9ebe
000003d0: 69d5 0b3e d529 bcbd 6254 a1be 4cc8 993e
000003e0: 7b49 e93e 1f2e 02be 3570 2d3d b63b 93bc
000003f0: dc1e 213b 8748 ab3e b416 9b3e feb6 653c
0.09513995 0.24400178 -0.22799349 -0.32572156 0.57962054 -0.06815647 -0.03921419 -0.08644224
0.14505824 0.5994307 -0.18841799 -0.34146538 0.35159025 0.3389871 0.0093270345 -0.23061128
-0.34932774 0.37208045 -0.058965836 -0.06886862 0.038512062 0.00013838166 0.06964241 0.07831466
-1.375266 -0.13011153 -0.19970562 -0.07819504 0.44157666 0.23341607 0.030704144 0.03480462
0.044747856 -0.4501337 0.2443614 -0.014342652 -0.0022411318 0.104332015 0.3468028 -0.35805252
-0.12411423 0.22316773 0.17398916 -0.36479566 0.26016256 0.014289214 -0.20608573 -0.12558499
0.5133481 -0.006921143 -0.029884476 -0.09554718 -0.09396565 0.04559623 0.82884145 -0.019701915
-0.014248186 0.024472497 -0.8174914 0.105817474 -0.19504265 -0.2173696 0.24348521 -0.019319158
-0.24723105 0.20175354 -0.0138133485 -0.19421196 -0.4102367 -1.2174821 -0.19463724 -0.24601318
0.26673684 0.24165802 0.015310813 -0.36730582 -0.046526693 0.24578485 0.32311773 0.4006017
-0.23303954 0.26564476 -0.33977237 0.38326895 0.042273615 0.07044308 -0.110113546 -0.02146899
-0.47684065 -0.2650116 0.0077549233 -0.06326831 -0.08179291 -0.037722167 0.7492866 0.011280567
0.066962875 -0.24936719 -0.40292996 0.19443074 -0.042766247 -0.054381065 -0.010995365 0.12494363
-0.68695694 0.2690535 0.37613228 0.28344858 0.34261712 0.25155577 0.16391899 0.16197063
0.12253004 -0.28493023 -0.502598 -0.05600726 -0.042445008 -0.0068345345 0.04958775 -0.8703088
0.412035 0.14203411 0.036793984 -0.112315096 -0.02344122 -0.10410289 0.13521913 0.4487826
0.037648745 -0.44150984 -0.048872538 -0.051624555 -0.012136628 0.04381268 -0.827987 -0.15823054
0.14885019 -0.33046517 0.24832702 0.0394277 -0.37849268 -0.04125091 0.44367167 0.27769798
0.36558542 -0.10819131 0.15195641 -0.10594415 -0.40552956 -0.22513269 -0.18823819 -0.31314644
0.043187376 0.37167957 0.7481235 -0.01422974 0.039920714 0.03919223 -0.23154062 -0.76075894
-0.042763334 -0.15925951 -0.087162554 0.44992363 -0.26500034 -0.03179393 -0.02574049 0.018505309
-0.7916717 0.03448878 -0.10501697 -0.108353 -0.35152826 0.32347715 -0.35675558 -0.01328888
-0.07985213 -0.10089663 -0.034434773 0.7805123 -0.09292006 -0.19009686 -0.14318784 0.71242934
-0.01375877 0.095866725 0.17145342 0.22111414 0.09786211 -0.47921586 0.01797516 -0.0694275
-0.019849958 -0.2108266 0.4820969 0.14694731 0.079955995 0.53056884 0.02436209 0.029862931
-0.057373922 -0.044605855 0.4190263 0.38621205 0.35906792 0.2389143 0.4138052 -0.34757778
-0.60286605 0.025713604 0.144801 0.36844546 -0.28906646 -0.17982642 0.20990206 -0.3323598
0.121140495 0.32607433 0.276891 0.019141942 -0.066233255 -0.49020234 0.05025299 -0.6182065
-0.41075495 0.055554867 -0.09178835 -0.34361207 -0.1044187 -0.30219617 -0.2766576 -0.023045257
0.54278946 -0.23634061 0.15879478 0.111101665 0.2862396 0.051228285 -0.20599197 0.22851552
-0.1546261 -0.07653369 0.31578457 -0.31033936 0.13655628 -0.09187666 -0.3150969 0.30035627
0.45563874 -0.12712906 0.042343337 -0.017972808 0.0024585044 0.3345377 0.3029076 0.0140206795

gnn_layers.0.bn.weight f4 [64]
00000000: a4c6 1c3f ff0d 083f 823d d13e 9c25 9b3e
00000010: 9f14 b73f d31c bd3e 2949 5c3f fa45 de3e
00000020: a9d8 eb3e 03f3 1f3f 200c 6e3f 172e 8a3f
00000030: 314f f23e fb9c 953e 84be b53e cb4d af3e
00000040: cbaa 343f 4a08 bb3e a664 313f abd8 cf3e
00000050: 8667 9c3f f0bb 903f ea6b 233e f65e 553f
00000060: a662 b83f 1588 073f 535d 4c3f 9f6c 143f
00000070: 13cd b83e e7cd a53e bc29 473f 5f00 5b3e
00000080: abbc 083e d521 803f 4c86 9f3e bccf 383f
00000090: 12c1 843f 071e e43e 4417 ef3e 64e1 dd3e
000000a0: 5911 2c3e 223e 633e 1292 cc3e 5232 aa3e
000000b0: e315 df3e 9092 683f 8c41 1c3f 6a41 ba3f
000000c0: afb2 523e a676 a23f dbc7 6f3e 6e93 d63e
000000d0: 4dbb 063f 16f3 493f ce4c a93f f47b c73e
000000e0: ab4e 5c3f 68c1 1a3f 0211 193f be6f 9a3f
000000f0: f9d0 793f c07b e83e 6e04 673f 64fb cc3e
0.612406 0.53146356 0.4086724 0.3030213 1.4303168 0.36936054 0.86049134 0.43412763
0.46063736 0.6248018 0.9298725 1.0795316 0.47326043 0.2922133 0.35496914 0.3423904
0.7057311 0.36529762 0.692942 0.40594992 1.2219093 1.1307354 0.15959135 0.83348024
1.4405105 0.5294202 0.798299 0.5797824 0.3609396 0.32383654 0.77798057 0.2138686
0.13353221 1.0010325 0.31157148 0.7219198 1.037142 0.4455416 0.46697438 0.43336022
0.16803493 0.2219167 0.39955193 0.33241516 0.43571386 0.90848637 0.61037517 1.4551213
0.20575975 1.2692459 0.23416083 0.41909355 0.5262955 0.78886545 1.3226564 0.38961756
0.8605754 0.60451365 0.59791577 1.2065351 0.9758449 0.45406914 0.90241134 0.40035546

gnn_layers.0.bn.bias f4 [64]
00000000: f488 9ebe 0870 87be faaa 9bbe 509d d3be
00000010: 5f93 a23c f522 aebe 1dd6 03be bf4b 88be
00000020: 9679 e2be 0909 c2be bb38 553e b005 f4bc
00000030: 92a5 e2be 02dd 323f 2ea8 c1be 73d7 afbe
00000040: 0e97 b5be 0f40 1a3f d82a 443e 5cfc 0fbf
00000050: 04c7 b23d 1f0d 093e fa16 0f3f 5fc8 afbe
00000060: 1270 553d af3b aebe 7d3c a1be 284c 84be
00000070: a800 c9be 7a16 1d3f 08f8 a33d 6588 173f
00000080: 09eb aebd a977 e5bd 091d adbe 893c 813e
00000090: ff8c 353e 894b d1be 3e96 d2be 24eb b5be
000000a0: 9ee5 253f 6bab 363f 73db a8be eaa8 f5be
000000b0: c00f d0be 881f ac3d c4cb b0be 6229 993d
000000c0: fccb 2e3f 59d1 4c3e 0fd6 363f 8447 bdbe
000000d0: 51c9 c53e 8d74 373e fbe2 b43c ac8d 82be
000000e0: a09f d0bd d15a 1e3e e422 43be 29d5 1d3e
000000f0: 6e67 643e 2986 b1be 14fe 2dbe 5ecd 09bf
-0.30963862 -0.2645266 -0.30403882 -0.41330957 0.019845663 -0.34011045 -0.12874646 -0.2662029
-0.44233388 -0.37897518 0.20822422 -0.029787868 -0.44266945 0.6986848 -0.37823623 -0.34344062
-0.35466808 0.60253996 0.19156969 -0.56244445 0.087293655 0.13383912 0.55894434 -0.3433256
0.05210883 -0.3402991 -0.3149146 -0.25839353 -0.39258313 0.6136242 0.080062926 0.59192497
-0.08540923 -0.11204464 -0.33811215 0.25241497 0.17729567 -0.4087794 -0.4113025 -0.3553096
0.64803493 0.71355313 -0.32979926 -0.47980434 -0.40637016 0.084044516 -0.3453046 0.07478596
0.68280005 0.20001735 0.7142038 -0.36968625 0.38630155 0.17915554 0.022080889 -0.25498712
-0.10186696 0.15464331 -0.19056278 0.15413345 0.2230508 -0.3467267 -0.16991454 -0.5382899

gnn_layers.0.bn.running_mean f4 [64]
00000000: 87fb 013c f741 cd3c 0455 083d 791b 46bf
00000010: 1145 e2bc 7ab1 323c bd80 033c 2c27 43bc
00000020: f10a 673b 18f5 3fbd 8477 cc3c f20c 27bd
00000030: f91b 90be c824 31bd 2886 b9bd 88af 8b3c
00000040: d525 72bd 2852 d5bc 3fcd ab3c c8b3 e2bc
00000050: b325 e7bc bccf 413d f5d6 0e3d af27 2abd
00000060: 756c b83c a379 39bd 9064 5ebd 31c2 b5bd
00000070: 38d5 813c d874 5bbc de44 933c 4cb6 c6bc
00000080: d71f d5bf 4b51 e3bc 6b41 d5bc f489 d63c
00000090: aa39 8c3b f9f1 c2bf 14cf dcbc 47d5 ae3c
000000a0: 99ab f43c 52e9 283c 71a6 4f3c 2d48 bbbc
000000b0: 808a 3cbd a034 d4bc 9d9e 81bd aa97 bf3b
000000c0: bdf1 16bd fc75 8c3b 9559 063b f81d 473c
000000d0: a951 943c 31f7 8f3c d360 4e3d 6bf6 2e3f
000000e0: 94ad 13bb 28e1 e9bc 7807 253d 897d ff3c
000000f0: 5507 d43c 0666 413b 98b3 fcbc 0892 2b3b
0.007933504 0.025055869 0.033284202 -0.7738567 -0.027620824 0.0109065715 0.008026299 -0.011911195
0.0035254324 -0.0468646 0.024959333 -0.04078383 -0.2814634 -0.043247968 -0.090587914 0.017051473
-0.05911811 -0.026040152 0.020971892 -0.027673617 -0.028216219 0.04731725 0.034872968 -0.04154175
0.022512654 -0.045282017 -0.054295123 -0.0887493 0.015848741 -0.013394557 0.017977174 -0.024256848
-1.6650342 -0.027748724 -0.02603217 0.026188828 0.004279335 -1.5230094 -0.026954211 0.021341933
0.02986698 0.010309534 0.01267396 -0.022861565 -0.04603052 -0.025904 -0.06329081 0.005846937
-0.036851633 0.004286526 0.0020500172 0.012153141 0.018105345 0.017573925 0.050385308 0.68344754
-0.002253388 -0.028549746 0.040290326 0.03118779 0.025882402 0.0029510274 -0.030847356 0.002617957

gnn_layers.0.bn.running_var f4 [64]
00000000: 39d5 683b 74d7 ea3b 9ada b63a 196f 263b
00000010: 0a27 053d 4311 1e3b a9ca 343a 82ad 2e3a
00000020: b643 903a 9fcb b53a bc7d 283c 3039 3c3c
00000030: 7c98 773b 792e 693d 2050 283a 9a9c fe3b
00000040: aff7 8f3a 452b 583c b64d 013c 4072 543b
00000050: a9ec 1b3c 8915 373d 0d14 7c3b 452f 943c
00000060: 2b59 8c3b 5fef 883a c4a3 8a3c 707a f539
00000070: 30ff 2b3c 2fca 1c3c f61f 3c3c dd46 943c
00000080: fc9d 4a3a e93a 5f3c 4b60 ed3b 58c6 f83b
00000090: ad56 393b 6b20 9f3a 5399 c13a 1ad3 533c
000000a0: 61e1 b83c 8e95 4b3b 3562 e23a 8abd 833b
000000b0: 21b8 3f3d a84d 4a3c 4700 ae3a 510d 903b
000000c0: df5d 1d3a 6d01 e83a 6584 113c ef52 ca3a
000000d0: c92e 8b3a 6c3a 933b e68c 063b 6a09 ae3a
000000e0: 3a85 df3a a259 ad3c ecb3 3b3d d705 1a3c
000000f0: c552 353b 4f9d dc3a 103c bb3c 725d 143a
0.0035527481 0.0071667973 0.0013950646 0.002539581 0.032507934 0.0024119176 0.0006896654 0.0006663428
0.0011006508 0.0013869888 0.010283884 0.011488244 0.0037780097 0.056929085 0.0006420631 0.007770133
0.001098385 0.01319391 0.007892063 0.003241673 0.009516873 0.044698272 0.00384641 0.018088946
0.0042830906 0.0010447315 0.016923793 0.00046821265 0.010497853 0.009569689 0.011482229 0.018100196
0.000772923 0.013624885 0.007244145 0.007592004 0.0028280423 0.0012140399 0.0014770426 0.0129287485
0.022568407 0.0031064483 0.00172717 0.0040203976 0.04680646 0.012347616 0.0013275229 0.0043961187
0.00060030626 0.001770062 0.008881663 0.0015436093 0.0010618801 0.0044930484 0.002053076 0.0013277952
0.0017053254 0.021160904 0.045825884 0.009400806 0.0027667743 0.001683155 0.022855788 0.00056596764

out_layer.mlp.0.weight f4 [1, 64]
00000000: 9eb6 5c3d e8ef 16bd 6d79 43bd bd5b 9f3d
00000010: 75f6 90be 8f0f 1cbd e3d4 9d3d ac67 7f3d
00000020: b969 c93d 6285 2b3d c5d7 713d 6038 68be
00000030: 0742 703d 1e11 b83e 0b58 e4bc 043f f7bc
00000040: ceaa 7e3d 6bdf a4bd 4b45 803d e25b ac3d
00000050: b176 96be 21a6 6a3d ddfa 9b3e e922 84be
00000060: 46da 743d 3b8e a83d 2443 93be c660 123d
00000070: e405 debc ec0b b0bd 2b65 b3bd 9d52 393e
00000080: 0c99 2c3d eb9a 8cbe 5da1 783d 5337 5a3d
00000090: ce86 533d 7327 a93d 4c18 703d ee91 573d
000000a0: e2c1 093d 7e95 993e 181c 04bd 46d8 a9bd
000000b0: 84b2 bb3d 392e fa3c bc01 803d 7d8c 643d
000000c0: d335 c03d eb70 353d 52bc 1cbf d5e7 613d
000000d0: ccca 943d bd37 5e3d 2fa7 5abd 4516 863d
000000e0: 41f2 cf3d 6563 733d c1ce 2bbd 558a 6f3d
000000f0: a15d 1cbe 5808 44bd ce90 7fbe ac8e 6dbd
0.053885095 -0.036849886 -0.047723223 0.077811696 -0.28313032 -0.038100775 0.077066205 0.06235473
0.09834618 0.04187525 0.059043664 -0.22677755 0.05865672 0.3595056 -0.027874013 -0.030181415
0.06217461 -0.08050426 0.062632166 0.08415963 -0.2938743 0.05728734 0.3046483 -0.25807884
0.059778474 0.08230253 -0.28762162 0.03573682 -0.027102418 -0.08596024 -0.08759531 0.1809792
0.042138144 -0.27461943 0.060700763 0.053275418 0.05164223 0.082594775 0.05861692 0.052629404
0.033632167 0.29996866 -0.032253355 -0.08293204 0.091649085 0.030539619 0.06250331 0.055798043
0.09385266 0.04429714 -0.61224854 0.055152733 0.07265243 0.054252375 -0.053382095 0.06547216
0.10153628 0.059420962 -0.041945223 0.058481533 -0.15270092 -0.04785952 -0.24957582 -0.05799739
