model_normal/gdn_smd_w_5_epoch20.pth (torch, 36694 bytes, 16 tensors)

embedding.weight f4 [38, 128]
0	0xbeaf4486	-0.34231967
1	0xbe74917d	-0.23883624
2	0xbe0b5866	-0.1360794
3	0xbe605b91	-0.2190993
4	0xbea29d8e	-0.3176083
5	0xbde5b045	-0.11215261
6	0xbed5b845	-0.4174215
7	0xbe35f13c	-0.17767805
8	0x3d42422d	0.04742639
9	0xbe81cfc3	-0.25353822
10	0xbec32a76	-0.38118333
11	0xbe3ce8d1	-0.18448187
12	0xbe09cb7e	-0.13456532
13	0xbea9f6dc	-0.3319615
14	0xbde314df	-0.11087965
15	0xbd76281a	-0.060096838
16	0x3df641d0	0.120242715
17	0xbd726948	-0.059182435
18	0xbe814975	-0.25251356
19	0xbe1ad3f5	-0.15119918
20	0xbe79a72d	-0.24380179
21	0xbda00f97	-0.078154735
22	0xbe7cab5c	-0.24674743
23	0xbe2d6763	-0.1693397
24	0xbf1d8703	-0.61534137
25	0xbe22233d	-0.15833755
26	0xbec15421	-0.37759498
27	0xbd3adbb4	-0.04561968
28	0xbf050830	-0.5196562
29	0x3cef6476	0.029222708
30	0x3bafda32	0.005366587
31	0xbf41561c	-0.7552202
32	0x3e07574a	0.13216892
33	0xbf451205	-0.7698062
34	0xbf1620f7	-0.5864405
35	0xbf3afa31	-0.7303801
36	0xbe995ca7	-0.299535
37	0xbe9ba1fd	-0.30397025
38	0xbf530724	-0.8243277
39	0xbe4d3ee0	-0.20043516
40	0x3ec3a619	0.3821266
41	0xbec52c4a	-0.38510352
42	0xbdbceebe	-0.09225224
43	0xbf46c718	-0.7764754
44	0xbf24b7a0	-0.6434269
45	0xbf02e751	-0.5113421
46	0x3c08bc75	0.008345713
47	0xbf73e02f	-0.9526395
48	0xbeb04f8c	-0.3443569
49	0xbeb8d34e	-0.36098713
50	0xbecd65d9	-0.40116766
51	0xbe90727c	-0.28212345
52	0xbf15f0c3	-0.585705
53	0x3e848267	0.2588074
54	0x3e898ea1	0.2686663
55	0xbe7089c7	-0.23490058
56	0xbe188de6	-0.1489788
57	0xbdbfcd1b	-0.09365293
58	0xbeba9a2f	-0.36445758
59	0xbec7a454	-0.3899256
60	0xbf16934a	-0.58818495
61	0x3c9f542e	0.01944932
62	0x3ddcec85	0.107873
63	0xbf31e86d	-0.6949528
64	0xbe8acf15	-0.27111116
65	0xbf0a6c3e	-0.54071414
66	0xbea02457	-0.31277725
67	0xbecbf266	-0.39833373
68	0xbdab9950	-0.083788514
69	0xbe2012d5	-0.15632184
70	0x3cfafd3e	0.030638333
71	0xbf2154e0	-0.63020134
72	0xbe319ac6	-0.17344198
73	0xbe98264b	-0.29716715
74	0x3f50ad76	0.8151468
75	0xbe4e0bf2	-0.20121744
76	0xbec6fa9b	-0.38863072
77	0x3ed94046	0.4243185
78	0x3e40d0f9	0.18829717
79	0xbe12e17d	-0.1434383
80	0x3ea6ef18	0.3260429
81	0xbe673e55	-0.22582372
82	0xbe1cb889	-0.1530477
83	0xbe35b69f	-0.17745446
84	0x3ec6e624	0.38847458
85	0xbf19a267	-0.6001343
86	0xbdc92189	-0.098208494
87	0x3da4ec67	0.08052903
88	0x3d548576	0.05188509
89	0xbfa9fd30	-1.3280392
90	0xbdac10e7	-0.08401661
91	0xbdc719fa	-0.097217515
92	0xbe405bd8	-0.18785036
93	0xbdfc6a91	-0.123250134
94	0xbbed2fed	-0.007238379
95	0xbf1626a0	-0.5865269
96	0xbe965588	-0.2936213
97	0xbe44e993	-0.19229726
98	0xbdb68053	-0.08911195
99	0xbd1ed9a0	-0.038781762
100	0xbdfaeaad	-0.12251792
101	0xbcbad5d9	-0.022807049
102	0xbe062b9f	-0.13102578
103	0x3eb62961	0.35578445
104	0x3d2669a7	0.0406281
105	0xbc108f32	-0.008823203
106	0xbe05bee0	-0.13061094
107	0x3d8e0043	0.06933644
108	0xbce057b1	-0.027385565
109	0xbf5f9d5e	-0.873495
110	0xbe16b4cf	-0.1471741
111	0xbee24fed	-0.44201604
112	0xbf13570b	-0.5755469
113	0xbe31b743	-0.17355065
114	0xbe9876e0	-0.29778194
115	0xbef11932	-0.47089535
116	0xbe804683	-0.25053796
117	0xbdae70c7	-0.08517604
118	0x3e44dc86	0.19224748
119	0xbd60746e	-0.054798536
120	0xbf6d3dfc	-0.92672706
121	0xbf138e5f	-0.57639116
122	0xbd51ade9	-0.051191244
123	0xbeea92fd	-0.45815268
124	0x3e162cae	0.14665481
125	0x3e661680	0.2246952
126	0x3e4d5f43	0.2005587
127	0xbea9e249	-0.33180454
128	0xbe3ba7e7	-0.18325768
129	0xbe8ac7a2	-0.27105433
130	0xbdfd8206	-0.12378316
131	0xbdb89007	-0.09011846
132	0xbd966bea	-0.07344802
133	0xbdc7aa70	-0.09749305
134	0x3d24c547	0.0402272
135	0xbe19fe36	-0.1503838
136	0xbee51c6f	-0.44748256
137	0xbea573d4	-0.32314932
138	0x3e5bb3bc	0.21455282
139	0xbeedfa04	-0.4647981
140	0xbd1f5613	-0.038900446
141	0xbeb84dab	-0.35996756
142	0x3e69ba8f	0.22825073
143	0xbe8bb5d7	-0.2728717
144	0x3c91d132	0.017799947
145	0xbd27874f	-0.040900525
146	0xbe865bb4	-0.2624184
147	0xbe7acfe2	-0.24493363
148	0xbf891c6d	-1.07118
149	0xbdb7f893	-0.08982959
150	0x3df08537	0.11744159
151	0xbf49847a	-0.7871777
152	0xbe39a008	-0.18127453
153	0xbe6522ef	-0.22376607
154	0xbdccbc82	-0.099968925
155	0xbd583d4a	-0.052792825
156	0xbf1ad065	-0.60474235
157	0x3ca3f44c	0.02001395
158	0x3dc6bec3	0.09704354
159	0xbf30267d	-0.6880873
160	0xbdee6dcd	-0.116420366
161	0xbf300bf0	-0.68768215
162	0xbf00c751	-0.5030413
163	0xbf3b687d	-0.7320631
164	0xbe7f20cd	-0.24914856
165	0xbdeb4e0a	-0.11489494
166	0xbf6f68a7	-0.9351906
167	0xbd4b2cc0	-0.049603224
168	0x3bda40eb	0.006660571
169	0xbe1428c1	-0.14468671
170	0xbfa94334	-1.3223634
171	0xbd24e753	-0.04025967
172	0xbf0f08fe	-0.55873096
173	0x3d78603b	0.060638648
174	0xbd2d4732	-0.042304225
175	0xbf3d81ea	-0.7402636
176	0xbe93eaa4	-0.28889954
177	0x3d349010	0.0440827
178	0xbdc8cf65	-0.09805182
179	0xbeabd653	-0.33561954
180	0xbf0a1bd5	-0.5394872
181	0x3e898312	0.2685781
182	0x3ccccee4	0.025000997
183	0x3d594842	0.053047426
184	0x3d7d2ef4	0.061812356
185	0xbf1143d5	-0.5674413
186	0xbea160ca	-0.31519157
187	0xbebd5542	-0.3697911
188	0xbf03a0ed	-0.5141743
189	0xbdaa8e17	-0.08327883
190	0xbc18d35c	-0.009327736
191	0xbee9b22f	-0.45643756
192	0xbe92ad58	-0.28647876
193	0xbc25065a	-0.010072315
194	0x3d1dc7f0	0.038520753
195	0xbe5d5b23	-0.21616797
196	0xbe9dfaab	-0.30855307
197	0xbd2617b2	-0.04054994
198	0x3e17a018	0.14807165
199	0xbd338aa2	-0.043833382
200	0xbdcc2986	-0.099688575
201	0xbda78f82	-0.08181669
202	0x3f390de7	0.7228684
203	0xbec82350	-0.3908944
204	0xbca33a9d	-0.01992541
205	0x3ea91d80	0.3303032
206	0x3eb727d6	0.3577258
207	0xbe00bc96	-0.1257194
208	0xbe52b96f	-0.2057855
209	0xbcf6d66e	-0.030131545
210	0xbd0bce59	-0.034132335
211	0xbe2ed86f	-0.1707475
212	0xbc83c683	-0.016085869
213	0xbf0835cd	-0.53207093
214	0xbd85ab4d	-0.06526814
215	0xbdc94634	-0.09827843
216	0xbed87528	-0.42276883
217	0xbd729dc2	-0.05923248
218	0xbee3073e	-0.44341463
219	0xbdd57199	-0.10422058
220	0xbe4e2023	-0.20129447
221	0xbe23bbd1	-0.15989615
222	0x3d2b7266	0.041857146
223	0x3e6e1c30	0.2325294
224	0x3df690d6	0.12039344
225	0xbd4f0e70	-0.050550878
226	0xbef8a500	-0.48563385
227	0xbf0c7d43	-0.54878634
228	0xbe8c498b	-0.2739986
229	0xbe0cef68	-0.13763201
230	0xbe12cd3d	-0.14336105
231	0x3ea68ca1	0.32529166
232	0xbed92b38	-0.42415786
233	0xbe3bbbeb	-0.18333404
234	0xbe0d33ed	-0.1378934
235	0x3e75f178	0.24017894
236	0xbce1eca3	-0.027578657
237	0xbf3fefc2	-0.74975216
238	0xbd420480	-0.047367573
239	0xbeed38e2	-0.4633246
240	0x3dd0eabb	0.10201021
241	0xbf00c238	-0.50296354
242	0xbeb35487	-0.35025427
243	0xbf0f396e	-0.55947006
244	0xbe1d1e16	-0.15343508
245	0xbe9d02af	-0.3066611
246	0xbb210b8b	-0.002457353
247	0xbe92ab0c	-0.28646123
248	0xbf093e1c	-0.53610396
249	0xbf0edbe0	-0.5580425
250	0x3c60ab4e	0.013712717
251	0xbef05805	-0.46942154
252	0xbe018408	-0.12648022
253	0xbc7221af	-0.014778539
254	0xbe573921	-0.21017887
255	0xbde207d9	-0.11036653

bn_outlayer_in.weight f4 [128]
0	0x3edf210f	0.4357991
1	0x3f2ff0eb	0.68726987
2	0x3eee55a5	0.46549717
3	0x3eec70d1	0.46179822
4	0x3ea30325	0.31838337
5	0x3e812df6	0.25230378
6	0x3f3eddc2	0.74557126
7	0x3f128dbc	0.5724752
8	0x3e1018bc	0.14071935
9	0x3e88eb84	0.26742184
10	0x3ebd4683	0.3696786
11	0x3ee68299	0.45021513
12	0x3f08bf9c	0.5341737
13	0x3f371846	0.71521413
14	0x3ed328f3	0.4124218
15	0x3ea9bb39	0.33150652
16	0x3e4182e2	0.18897584
17	0x3f25ea32	0.6481048
18	0x3ed32387	0.41238043
19	0x3f29ee4b	0.6637923
20	0x3eb214b9	0.34781435
21	0x3ec308da	0.3809269
22	0x3f0f9a6f	0.5609502
23	0x3f009c29	0.5023828
24	0x3ebb4c05	0.36581436
25	0x3f17928d	0.59207994
26	0x3f281484	0.65656304
27	0x3e0641ae	0.13110992
28	0x3f18cac9	0.59684426
29	0x3f067948	0.5252881
30	0x3e9b704f	0.30359122
31	0x3f1e1fb1	0.6176711
32	0x3edf1b97	0.43575737
33	0x3f13fbb2	0.5780593
34	0x3f2f41bc	0.6845968
35	0x3f0d1bf2	0.55120766
36	0x3eca8a22	0.39558512
37	0x3eb6dbbe	0.35714525
38	0x3f81d9c8	1.0144587
39	0x3f04668f	0.5171899
40	0x3eb9e607	0.3630831
41	0x3f147e77	0.5800547
42	0x3ebf918a	0.37415725
43	0x3f0fd567	0.56185
44	0x3f30704a	0.6892134
45	0x3f2582ea	0.64652884
46	0x3d1a23f7	0.037631955
47	0x3f3f48ae	0.74720275
48	0x3f207069	0.62671524
49	0x3f30e3de	0.690977
50	0x3f4139b8	0.75478697
51	0x3f0ce242	0.5503274
52	0x3f458a46	0.77164114
53	0x3eba41e3	0.36378393
54	0x3f12e0f7	0.5737452
55	0x3ed91388	0.42397714
56	0x3e953a14	0.29145873
57	0x3e07ad55	0.13249715
58	0x3f1a3eff	0.60252374
59	0x3f0798b2	0.5296737
60	0x3eec58d0	0.4616151
61	0x3e000a9d	0.12504049
62	0x3dcacd40	0.099024296
63	0x3f12f755	0.5740865
64	0x3f4ede53	0.8080799
65	0x3f1950c8	0.5988889
66	0x3f04b362	0.51836216
67	0x3f227977	0.6346659
68	0x3f0c17e3	0.5472395
69	0x3f0e244c	0.55524135
70	0x3f25cdbc	0.6476705
71	0x3f1ebb70	0.62004757
72	0x3ede1f27	0.43383142
73	0x3efd16bd	0.4943141
74	0x3e2c580f	0.16830467
75	0x3ec9822d	0.3935713
76	0x3f63e6b8	0.89023924
77	0x3ed3e026	0.4138195
78	0x3e272686	0.1632329
79	0x3f45cd72	0.7726661
80	0x3eb1cff1	0.3472896
81	0x3f21ca4d	0.6319931
82	0x3efcca89	0.49373272
83	0x3f0a22b4	0.539592
84	0x3e33b1ad	0.17548247
85	0x3f4e4a26	0.8058189
86	0x3edbbabc	0.42915905
87	0x3e8e61d2	0.27809006
88	0x3f233d2c	0.63765216
89	0x3ec05ee2	0.3757239
90	0x3f354e92	0.70823014
91	0x3f134ae1	0.5753613
92	0x3f1b9d8d	0.6078728
93	0x3f2f8855	0.685674
94	0x3ec52f82	0.38512808
95	0x3ebf7659	0.3739498
96	0x3f1af829	0.6053491
97	0x3ee37c71	0.4443088
98	0x3ef24da8	0.47324872
99	0x3f0f03a7	0.5586495
100	0x3f119b17	0.56877273
101	0x3df80d97	0.12111967
102	0x3f4abdd7	0.7919592
103	0x3ec86e6d	0.39146748
104	0x3eaf7803	0.3427125
105	0x3f1fb331	0.623828
106	0x3ee60c95	0.44931474
107	0x3eb7a50b	0.35868105
108	0x3e0cf3af	0.13764833
109	0x3f20476a	0.6260897
110	0x3ed0c613	0.4077612
111	0x3ee97026	0.45593375
112	0x3ea278cb	0.31732783
113	0x3f447b7d	0.7675093
114	0x3f290883	0.6602861
115	0x3f1b5346	0.6067394
116	0x3f2c7069	0.67359024
117	0x3eef621d	0.46754542
118	0x3dd32046	0.1030889
119	0x3e2a0e46	0.16607007
120	0x3f0db666	0.5535644
121	0x3f443ca9	0.7665506
122	0x3e80daa0	0.25166798
123	0x3f27c7c2	0.6553918
124	0x3ee92ee2	0.4554358
125	0x3ea9bb83	0.33150873
126	0x3f00b2aa	0.5027262
127	0x3f338a0c	0.7013252

bn_outlayer_in.bias f4 [128]
0	0xbea3b8cc	-0.31976926
1	0xbf375807	-0.71618694
2	0xbea5a3e1	-0.32351592
3	0xbf6d209e	-0.92627895
4	0xbe38dc10	-0.18052697
5	0xbd76bd77	-0.06023928
6	0xbe67141e	-0.22566268
7	0xbe88bffe	-0.26708978
8	0xbc926c84	-0.01787401
9	0xbf2063cb	-0.6265227
10	0xbeb6ff72	-0.35741764
11	0xbe38c4da	-0.18043843
12	0xbe140e87	-0.14458667
13	0xbe9c86fb	-0.30571732
14	0xbe8a65f6	-0.27030915
15	0xbe2b56ae	-0.16732284
16	0xbf1ee2cd	-0.6206482
17	0xbdfc13b9	-0.12308449
18	0xbea45ed0	-0.32103586
19	0xbea10970	-0.31452513
20	0xbed63c75	-0.41843
21	0xbe927207	-0.2860262
22	0xbed429d9	-0.41438177
23	0xbe8bf896	-0.27338094
24	0xbe3dbb59	-0.18528499
25	0xbf15a506	-0.5845493
26	0xbec3d4c5	-0.38248268
27	0xb85d1369	-5.2708583e-05
28	0xbe7138a8	-0.23556769
29	0xbe7be523	-0.24599127
30	0xbddaec11	-0.10689557
31	0xbe68dfd1	-0.22741629
32	0xbe5cdde0	-0.21569014
33	0xbe43489d	-0.19070669
34	0xbe512a5d	-0.20426317
35	0xbed9af3a	-0.425165
36	0xbdf122a1	-0.11774183
37	0xbdff38b9	-0.12461991
38	0xbe840567	-0.25785372
39	0xbd8e8e30	-0.06960714
40	0xbe8a255b	-0.26981625
41	0xbea74fb4	-0.32677996
42	0xbe1ee59b	-0.15517275
43	0xbe054299	-0.13013686
44	0xbe4efece	-0.20214388
45	0xbdb36e7b	-0.08761307
46	0xbc381a08	-0.011236675
47	0xbe46fad8	-0.19431627
48	0xbe144ef1	-0.14483239
49	0xbe355c02	-0.1771088
50	0xbeedc1b2	-0.4643684
51	0xbdfcdb24	-0.12346485
52	0xbe55855b	-0.20851652
53	0xbef674e0	-0.48136044
54	0xbf9fb747	-1.2477807
55	0xbf3962eb	-0.7241656
56	0xbe4e0ee8	-0.20122874
57	0xbc166871	-0.009180174
58	0xbf21c887	-0.63196605
59	0xbe92be35	-0.2866074
60	0xbdbcc0e4	-0.092164785
61	0xbe910868	-0.28326726
62	0xbc92bbd3	-0.017911827
63	0xbeaeab07	-0.34114859
64	0xbee6e121	-0.45093635
65	0xbe9aea6a	-0.3025697
66	0xbe829c40	-0.25509834
67	0xbe93b8fe	-0.28852075
68	0xbe94b06b	-0.29040846
69	0xbe1cbca8	-0.15306342
70	0xbf94b8e9	-1.161893
71	0xbe072a34	-0.13199693
72	0xbeb21861	-0.34784225
73	0xbe4d3b4f	-0.20042156
74	0xbf020d27	-0.5080132
75	0xbe080cff	-0.13286208
76	0xbe5e59f7	-0.21714006
77	0xbf0646e7	-0.5245194
78	0xbe2839da	-0.16428319
79	0xbee43a12	-0.44575554
80	0xbe9e1d4b	-0.30881724
81	0xbe1a4817	-0.15066563
82	0xbdda85a9	-0.10670025
83	0xbe113678	-0.14180934
84	0xbe497f44	-0.19677454
85	0xbec1dc03	-0.37863168
86	0xbed54d7e	-0.41660684
87	0xbe73aa67	-0.23795472
88	0xbe5038dc	-0.2033419
89	0xbdf17c78	-0.11791319
90	0xbe948a2d	-0.2901167
91	0xbf096b63	-0.53679484
92	0xbea186e5	-0.3154823
93	0xbeb88750	-0.36040735
94	0xbe8c7554	-0.27433264
95	0xbf1c11a2	-0.60964406
96	0xbea36644	-0.3191396
97	0xbd849f7f	-0.06475734
98	0xbf057b88	-0.5214162
99	0xbda700b2	-0.081544295
100	0xbe981844	-0.29706013
101	0xbba561dd	-0.0050470666
102	0xbecd4be6	-0.40096968
103	0xbf5c67ee	-0.86096084
104	0xbf05e524	-0.52302766
105	0xbc7ef2e5	-0.01556084
106	0xbea47ce0	-0.32126522
107	0xbe5827fb	-0.21109001
108	0xbbccaa46	-0.006245884
109	0xbe68ef73	-0.22747593
110	0xbde0da0c	-0.10979089
111	0xbe921406	-0.28530902
112	0xbdf7a198	-0.120913684
113	0xbafefcfa	-0.0019454055
114	0xbed6cb6a	-0.41952068
115	0xbe6ce4ea	-0.23134199
116	0xbec8623c	-0.39137447
117	0xbe117fda	-0.14208928
118	0xbb40736b	-0.002936567
119	0xbf14002f	-0.5781278
120	0xbde0f686	-0.109845206
121	0xbe9e4efb	-0.30919632
122	0xbdd9fe97	-0.10644262
123	0xbe52429b	-0.2053322
124	0xbe478d46	-0.19487485
125	0xbe62c7d8	-0.22146547
126	0xbf3d8cce	-0.74042976
127	0xbed2b5eb	-0.41154417

bn_outlayer_in.running_mean f4 [128]
0	0xbcad205d	-0.021133596
1	0xbc41f288	-0.011837609
2	0x3d9869e3	0.07442071
3	0xbb4754b9	-0.003041549
4	0x3cd81dac	0.026381336
5	0xbdae6b5e	-0.085165724
6	0xbe0fd332	-0.14045408
7	0xbe063f46	-0.13110074
8	0xbc4323e5	-0.011910413
9	0xbdac333f	-0.08408212
10	0xbd3e19d8	-0.046411365
11	0xbe4e6238	-0.20154655
12	0xbe0c0156	-0.13672385
13	0xbe258fb7	-0.16168104
14	0x3d524ca9	0.05134264
15	0xbe28d77f	-0.16488455
16	0x396eefac	0.00022786733
17	0xbd8f5091	-0.06997789
18	0xbe36d0a5	-0.17853029
19	0xbe72ebfe	-0.23722836
20	0x3d70f427	0.05882659
21	0x3d2295f2	0.03969378
22	0xbdde0bb0	-0.10842073
23	0xbe66774c	-0.22506446
24	0xbded0986	-0.11574082
25	0xbbccde65	-0.0062520974
26	0xbe14737f	-0.14497183
27	0xb7d31b48	-2.5165864e-05
28	0xbe26ab59	-0.16276301
29	0xbcd4b7bb	-0.025966516
30	0xbde24251	-0.11047805
31	0xbe1e0dff	-0.15435027
32	0xbc2c59f1	-0.010519491
33	0xbe0edb7d	-0.13950916
34	0xbd58965d	-0.052877773
35	0xbe957629	-0.29191712
36	0xbe12985e	-0.14315936
37	0xbdefad53	-0.11702981
38	0xbe297fcf	-0.16552661
39	0xbdfc2057	-0.12310856
40	0x3e47cd01	0.19511797
41	0xbe279537	-0.16365515
42	0xbb10bd66	-0.0022085547
43	0xbde4ed2a	-0.11178048
44	0xbdb7f447	-0.08982139
45	0xbceafd09	-0.02868511
46	0xbc6ba5b5	-0.014382769
47	0xbda13174	-0.078707606
48	0xbd5265a0	-0.05136645
49	0xbd94c85b	-0.07264777
50	0xbdddb495	-0.10825459
51	0xbc924706	-0.017856132
52	0xbc794960	-0.015215248
53	0xbda555be	-0.08072995
54	0xbd6cfaa7	-0.05785623
55	0xbbe0f92e	-0.006865642
56	0xbd932854	-0.07185426
57	0xbba8e563	-0.005154298
58	0xbe48527f	-0.1956272
59	0xbe160547	-0.1465045
60	0xbd2b44a9	-0.041813526
61	0xbc2ce616	-0.010552904
62	0x3be24f08	0.006906394
63	0xbe421517	-0.18953358
64	0xbe0ef8c3	-0.13962083
65	0xbd7c45af	-0.061589893
66	0xbe11988c	-0.14218348
67	0xbe03c6da	-0.12868825
68	0xbdf78bef	-0.12087237
69	0xbe0b7d36	-0.13621983
70	0xbbc0257e	-0.0058638444
71	0xbe20afca	-0.15692058
72	0xbbd84141	-0.0065995757
73	0xbe0f41c7	-0.13989936
74	0x3bcd1988	0.006259147
75	0xbe02b6ed	-0.12765093
76	0xbb2ab024	-0.002604493
77	0x3c7ccd00	0.015429735
78	0x3df1e5f8	0.11811441
79	0xbdf216e5	-0.11820773
80	0xbd271095	-0.0407873
81	0xbdc77f71	-0.097411044
82	0xbdcb4c06	-0.0992661
83	0xbd839fe2	-0.064269796
84	0x3e29f3f0	0.16596961
85	0xbea1fd40	-0.31638527
86	0x3d78cb44	0.060740724
87	0xbdcd847f	-0.10035037
88	0xbd068198	-0.032838434
89	0xbe33af7b	-0.17547409
90	0x00000004	6e-45
91	0xbc05095a	-0.008119905
92	0xbe3b09b9	-0.18265428
93	0xbe0519a5	-0.12998064
94	0x3caf9fdf	0.021438537
95	0x3ce53faf	0.027984468
96	0xbdcf99af	-0.10136735
97	0xbdd9fabc	-0.10643527
98	0xbba0dcfe	-0.004909157
99	0xbadd5746	-0.0016886971
100	0xbe35dbf9	-0.17759694
101	0xba1fb6fd	-0.0006092636
102	0xbe05c9a0	-0.13065195
103	0x3c5ec94c	0.013597798
104	0x3ca6f6ab	0.020381292
105	0xb9e1b3d1	-0.00043049318
106	0x3bf540e5	0.0074845427
107	0xbd71f3e0	-0.059070468
108	0x3a00094b	0.0004884197
109	0xbe2cce4c	-0.16875571
110	0xbdf8e4f9	-0.12153048
111	0xbe5696d3	-0.20955972
112	0xbe083085	-0.13299759
113	0xb9018e3a	-0.00012355382
114	0xbe34c54b	-0.17653386
115	0xbe04660d	-0.12929554
116	0xbe147883	-0.14499097
117	0xbdf1362d	-0.11777911
118	0x3b831da4	0.004001336
119	0xbdcb2e09	-0.0992089
120	0xbd424761	-0.047431353
121	0xbe7f2bea	-0.24919096
122	0xbd76d3c8	-0.060260564
123	0xbdcdba51	-0.10045303
124	0xbbec247f	-0.007206499
125	0x3e01e986	0.12686738
126	0xbba51b6f	-0.0050386707
127	0xbe4490f3	-0.19195919

bn_outlayer_in.running_var f4 [128]
0	0x3d7681a3	0.060182225
1	0x3b935116	0.00449575
2	0x3d55d005	0.052200336
3	0x3aeb7079	0.0017962597
4	0x3df263ff	0.11835479
5	0x3de9795b	0.114001
6	0x3e97b547	0.2963049
7	0x3de2430e	0.11047946
8	0x3ca1802e	0.019714441
9	0x3d79b483	0.060963165
10	0x3d6cdc79	0.057827447
11	0x3dc9084f	0.09816038
12	0x3db2e20f	0.087345235
13	0x3e90c28b	0.28273425
14	0x3d4ccbf7	0.049999204
15	0x3d1a1933	0.037621688
16	0x371768d1	9.024706e-06
17	0x3d872619	0.065990634
18	0x3d7aa6f0	0.06119436
19	0x3e0ac738	0.13552558
20	0x3d644740	0.05573201
21	0x3d0e770e	0.03478151
22	0x3d9d730d	0.0768796
23	0x3d3a94e0	0.045552135
24	0x3d39abdc	0.045329913
25	0x3b2977f8	0.002585886
26	0x3cde29bd	0.027119512
27	0x3c5d4fed	0.013507825
28	0x3e57c612	0.21071652
29	0x3c05fbeb	0.008177738
30	0x3dc45007	0.095855765
31	0x3e4c02c4	0.1992293
32	0x3b99fc20	0.004699245
33	0x3e5f26f9	0.2179221
34	0x3d47de1f	0.048795816
35	0x3d7f45ae	0.06232231
36	0x3e952365	0.29128566
37	0x3d8c287a	0.06843658
38	0x3ef1a286	0.47194308
39	0x3e264409	0.16236891
40	0x3da05ae7	0.07829838
41	0x3d0f7191	0.035020415
42	0x3e25cb49	0.16190828
43	0x3db6dee8	0.08929235
44	0x3de889c2	0.113544
45	0x3d6f98a5	0.058495183
46	0x3d30a019	0.04312143
47	0x3df0991a	0.11747952
48	0x3d7a7ad5	0.061152298
49	0x3de1ee60	0.110317945
50	0x3c6a1561	0.014287324
51	0x3c2062c3	0.009789172
52	0x3bc7dc1f	0.0060992385
53	0x3d5f68d4	0.05454333
54	0x3e1f4e6b	0.15557258
55	0x3bb4651c	0.0055052172
56	0x3d039c28	0.032131344
57	0x3c5298fc	0.012853857
58	0x3c68bbfa	0.014204973
59	0x3e1893dd	0.14900155
60	0x3d8d06d4	0.06886068
61	0x3ba3b4f8	0.0049959384
62	0x3c169a8f	0.009192123
63	0x3d14ca3c	0.03632568
64	0x3cc16b1d	0.023610646
65	0x3c55a100	0.013038874
66	0x3df71183	0.12063887
67	0x3daf560c	0.08561334
68	0x3ca18b28	0.019719675
69	0x3dc63419	0.096779056
70	0x3b47cbb2	0.0030486402
71	0x3e28c13f	0.16479968
72	0x3d885aa1	0.06657911
73	0x3da8f952	0.08250679
74	0x3a36e5bb	0.00069769815
75	0x3d87bdd9	0.066280074
76	0x3899339d	7.305222e-05
77	0x3d599c52	0.053127594
78	0x3c9dced9	0.019263672
79	0x3ca37a71	0.019955846
80	0x3daa369e	0.08311199
81	0x3d85f84c	0.065414995
82	0x3d8d6d21	0.0690558
83	0x3d96c348	0.07361466
84	0x3d85599b	0.065112315
85	0x3efbf26a	0.49208385
86	0x3d5216b4	0.051291183
87	0x3d5f0cfc	0.054455742
88	0x3cd93f81	0.026519539
89	0x3dd0fa2e	0.10203968
90	0x00000004	6e-45
91	0x3b062a8a	0.0020472133
92	0x3d3272d3	0.043566536
93	0x3cd77c86	0.026304495
94	0x3d537309	0.051623378
95	0x3d1d3df6	0.03838917
96	0x3e079cc8	0.13243401
97	0x3e0af791	0.13571002
98	0x3a45936f	0.0007536923
99	0x388f5b95	6.83583e-05
100	0x3d2a0259	0.041506145
101	0x3c92f13a	0.017937291
102	0x3cdfdbf3	0.02732656
103	0x3d75c72c	0.0600044
104	0x3d865453	0.06559052
105	0x37054a84	7.944767e-06
106	0x3d20f2c4	0.03929402
107	0x3e08c52d	0.13356467
108	0x3bddd14c	0.006769335
109	0x3e758e01	0.23979951
110	0x3d80d342	0.06290294
111	0x3d44935b	0.04799209
112	0x3ddfed76	0.10933964
113	0x35dd18b0	1.6472968e-06
114	0x3cfca006	0.030838024
115	0x3e0b839c	0.13624424
116	0x3cd78bbe	0.026311751
117	0x3d886420	0.06659722
118	0x3d8213aa	0.06351407
119	0x3d5ca5f0	0.053869188
120	0x3d80d4c5	0.062905826
121	0x3edca5d0	0.43095255
122	0x3e1a2097	0.15051495
123	0x3db52080	0.088440895
124	0x3b5fa9a4	0.0034128213
125	0x3d49d030	0.04927081
126	0x3a8ce155	0.0010748307
127	0x3d13b7ab	0.03606383

gnn_layers.0.gnn.att_i f4 [1, 1, 128]
0	0x3e3d5d0c	0.18492526
1	0x3e8182c0	0.25295067
2	0x3f2bf77c	0.67174506
3	0x3dcb721f	0.09933876
4	0x3c1e388f	0.009657039
5	0xbc836ebe	-0.016044017
6	0x3e624a67	0.22098695
7	0x3e092bbe	0.13395593
8	0xbd8f6c58	-0.07003087
9	0xbe10db50	-0.14146161
10	0xbf3341c9	-0.70022255
11	0x3cb1efcd	0.021720791
12	0x3daeb0d4	0.08529821
13	0x3d21f084	0.039536014
14	0x3f3836fa	0.7195889
15	0xbeb4f36c	-0.35341966
16	0x3dffb34b	0.12485369
17	0x3f2255b7	0.6341204
18	0x3f18e63a	0.597263
19	0xbedfd02d	-0.43713513
20	0xbeb4d8f7	-0.3532178
21	0x3d857030	0.06515539
22	0x3f334b1e	0.70036495
23	0xbdf1b2bd	-0.1180167
24	0xbce4430f	-0.027864007
25	0x3e8f3169	0.27967384
26	0xbdf51be3	-0.119682096
27	0xbe1ef2ec	-0.15522355
28	0x3f04a5af	0.51815313
29	0xbe516912	-0.20450237
30	0xbe59fe3b	-0.21288387
31	0x3f01c99a	0.50698245
32	0x3e78ede1	0.24309494
33	0x3efc3a4e	0.49263233
34	0x3f068c7d	0.5255812
35	0xbd86adc7	-0.06576114
36	0xbcc1c400	-0.02365303
37	0x3eac7fe4	0.33691323
38	0x3ea57ac2	0.3232022
39	0x3e3afef0	0.18261313
40	0xbe4300d6	-0.19043288
41	0xbda019e8	-0.07817441
42	0xbe0c28ae	-0.13687393
43	0x3edcb647	0.43107817
44	0x3e47ad20	0.19499636
45	0x3f24c260	0.6435909
46	0xbdbf8ffe	-0.09353636
47	0x3eca78ab	0.39545187
48	0x3e85b18e	0.26112026
49	0x3e1130d2	0.1417878
50	0xbea34ea0	-0.31895924
51	0x3ed946c8	0.42436814
52	0x3f09c1b9	0.5381122
53	0xbec4fc68	-0.3847382
54	0x3be89a6f	0.007098488
55	0xbf01ca79	-0.50699574
56	0x3b4b9a3c	0.0031067273
57	0xbf8020b2	-1.0009978
58	0x3e08304d	0.13299675
59	0x3f15daed	0.5853718
60	0xbe60743a	-0.21919337
61	0xbf00b01c	-0.5026872
62	0x3c999291	0.018746646
63	0xbde6e48e	-0.11274062
64	0xbeb5ff4f	-0.35546347
65	0xbea62a64	-0.32454216
66	0x3d67a87b	0.05655716
67	0x3d8611fe	0.065464005
68	0xbe6ec395	-0.23316796
69	0x3ec5a452	0.3860193
70	0xbf0df528	-0.55452204
71	0x3e0f1bfb	0.13975517
72	0x3dc3ccca	0.09560545
73	0x3df1145a	0.1177146
74	0xbe329d01	-0.17442705
75	0x3f0446c6	0.5167049
76	0xbf26b3e1	-0.65118223
77	0xbddec0c7	-0.10876613
78	0x3f80096d	1.0002877
79	0xbe48b54e	-0.19600412
80	0xbda06b7f	-0.07833003
81	0x3f1a2fa4	0.60228944
82	0x3da988dc	0.08278057
83	0x3f2d3aca	0.6766783
84	0xbe5c0190	-0.21484971
85	0x3e3654e6	0.17805824
86	0x3e0d2d26	0.13786754
87	0x3ddb2266	0.1069992
88	0x3e780f31	0.24224545
89	0x3d4dd4fd	0.05025195
90	0xbcd37eb1	-0.025817247
91	0x3ee78eaf	0.45226046
92	0xbe57adea	-0.21062437
93	0xbee168b1	-0.44025186
94	0x3d585260	0.052812934
95	0xbe8e56ef	-0.278007
96	0x3e2dc656	0.1697019
97	0x3caa466c	0.020785533
98	0xbf09659b	-0.5367066
99	0x3e201708	0.15633786
100	0xbd88d198	-0.06680602
101	0x3ed58400	0.4170227
102	0xbe403d39	-0.18773355
103	0xbe4a072c	-0.19729298
104	0xbdbe39e1	-0.09288383
105	0xbec59861	-0.38592818
106	0x3ac92e1d	0.0015348826
107	0xbaab7a9d	-0.0013082806
108	0x3e34cb9e	0.17655799
109	0x3f198e47	0.59982723
110	0x3f220a61	0.63297087
111	0xbd968a74	-0.073506266
112	0xbe03b723	-0.1286283
113	0xbf253856	-0.64539087
114	0xbe88a685	-0.26689544
115	0x3e53650f	0.2064402
116	0xbeccaaa3	-0.39973935
117	0x3edd75b3	0.4325386
118	0x3f2b7b47	0.6698498
119	0xbe8d0028	-0.27539182
120	0x3d34a844	0.044105783
121	0x3dc69237	0.09695857
122	0x3c618196	0.013763806
123	0x3e286c43	0.16447549
124	0x3ef713df	0.48257348
125	0x3da08d81	0.0783949
126	0x3e05cee4	0.13067204
127	0xbd1b7539	-0.03795359

gnn_layers.0.gnn.att_j f4 [1, 1, 128]
0	0x3c771f43	0.015083137
1	0x3db3c1e0	0.08777213
2	0x3e068dd8	0.13140047
3	0x3d15f49c	0.03661023
4	0xbbc004a1	-0.005859927
5	0x3abf72b6	0.001460633
6	0xbbfe5d88	-0.0077626146
7	0xbc75e2d0	-0.01500769
8	0xbf164b0c	-0.5870826
9	0xbccb4c48	-0.024816647
10	0xbe0013c8	-0.12507546
11	0x3beb8840	0.007187873
12	0xba127998	-0.0005587577
13	0x3b149001	0.002266884
14	0x3e118420	0.14210558
15	0x3d20984a	0.039207734
16	0x3e1f6754	0.1556676
17	0x3dfd845b	0.123787604
18	0x3d28a838	0.04117605
19	0xba91830d	-0.0011101678
20	0x3b429b88	0.0029694755
21	0xbb48bdac	-0.0030630631
22	0x3e34473a	0.17605296
23	0xbc83f581	-0.016108276
24	0x3b8377c0	0.004012078
25	0x3bf99117	0.007616173
26	0x3a23f0d6	0.0006253844
27	0x3f009e5f	0.50241655
28	0x3e184211	0.14868952
29	0x3c03ebda	0.008051837
30	0x3cba947e	0.022775885
31	0x3d110d14	0.035412863
32	0x3d233998	0.039849848
33	0x3de17dad	0.11010299
34	0x3e09c83a	0.13455287
35	0xbba40d49	-0.0050064665
36	0xba4986c7	-0.0007687625
37	0xba5f154e	-0.00085099495
38	0x3d08923d	0.03334259
39	0x3d45ad2f	0.048260864
40	0x3e1cbe34	0.15306932
41	0xbb9fbcd3	-0.0048748045
42	0x3c262c78	0.010142438
43	0xbcac4165	-0.021027276
44	0x3d356877	0.04428908
45	0x3d88e733	0.06684723
46	0x3dc775cd	0.097392656
47	0x3dca4494	0.098763615
48	0x3ae493cf	0.001743907
49	0x3c4803b4	0.012207914
50	0xbcac8d55	-0.021063486
51	0x3c544fa1	0.012958438
52	0x3e4c4c16	0.199509
53	0x3d58b5eb	0.052907865
54	0x3c5a739b	0.013333227
55	0xbc8ff049	-0.017570632
56	0x3d070240	0.03296113
57	0x3e4f6fbf	0.20257472
58	0x3c629499	0.013829374
59	0x3db048bd	0.08607624
60	0x3d5dec3d	0.054180373
61	0xbe275c1b	-0.16343729
62	0x3ee8631b	0.4538811
63	0x3a66e45c	0.0008807832
64	0xbcb6f3ac	-0.022332989
65	0x3aa3c627	0.0012494967
66	0x3c4a74d1	0.012356953
67	0x3c2f08f8	0.010683291
68	0x3cca466b	0.024691781
69	0xbce27971	-0.027645798
70	0xbe5a37de	-0.21310374
71	0xbb75d993	-0.0037513718
72	0xbb1f16f1	-0.0024275149
73	0xbbf0738c	-0.007337993
74	0xbcea5030	-0.02860269
75	0x3e1a6017	0.15075718
76	0xbe58b1d5	-0.21161588
77	0x3b82bd3d	0.003989844
78	0x3e0f27f3	0.13980083
79	0xbca46197	-0.020066066
80	0xbb9df0e8	-0.004819978
81	0x3e61410a	0.21997467
82	0x3c4d38ea	0.012525776
83	0x3d99f4ef	0.075174205
84	0x3e1eb8f9	0.15500249
85	0xbb9866c1	-0.004650921
86	0x3ce45439	0.027872192
87	0xbc2c65fb	-0.010522361
88	0x3d40610e	0.04696756
89	0x3d3b0cd7	0.045666542
90	0x3b8ea560	0.0043532103
91	0x3e1b2967	0.15152512
92	0xbb5986f5	-0.0033192013
93	0x3c5925db	0.013253654
94	0x3c643796	0.013929268
95	0xbda20289	-0.0791064
96	0x3cb17959	0.021664308
97	0x3db72ca9	0.08944065
98	0xbe737ce8	-0.23778117
99	0xbe5bea1a	-0.21476021
100	0xbc08c8ac	-0.008348625
101	0x3e83c542	0.25736433
102	0xbc948370	-0.01812908
103	0xbdb93464	-0.09043196
104	0x3bd818c3	0.0065947487
105	0xbe08fde4	-0.13378102
106	0x3c129ccc	0.008948516
107	0x3c0e16d2	0.008672433
108	0xba18e9a3	-0.00058331544
109	0x3d1b430a	0.03790573
110	0x3dfefbcd	0.12450371
111	0x3cb8cae5	0.022557685
112	0x3c4a593a	0.012350375
113	0xbdf30216	-0.11865632
114	0x3d09be16	0.033628546
115	0xbca5da95	-0.02024583
116	0x3ba31809	0.0049772304
117	0x3cb1405a	0.02163713
118	0x3ed63940	0.41840553
119	0xbc36b090	-0.011150494
120	0x3c1bc4ba	0.0095073525
121	0x3b09779d	0.0020975836
122	0xb99c8927	-0.00029856825
123	0xbc6ee64a	-0.014581272
124	0x3d836956	0.064165756
125	0xbbbde73e	-0.0057953885
126	0x3d71b960	0.059014678
127	0xbba47fab	-0.005020102

gnn_layers.0.gnn.att_em_i f4 [1, 1, 128]
0	0xbda0cac3	-0.07851174
1	0x3d37693f	0.044778105
2	0xbf46f998	-0.777246
3	0x3c680755	0.014161904
4	0xbe6308ad	-0.22171278
5	0x3e6c3a64	0.2306915
6	0x3e0f86c9	0.1401626
7	0x3e7a7f52	0.24462631
8	0xbe85a9fa	-0.26106244
9	0xba832f08	-0.0010008523
10	0x3ca51750	0.020152718
11	0x3d1f27b5	0.038856227
12	0x3f3a9d45	0.72896224
13	0x3cd90132	0.026489828
14	0xbf19f224	-0.601351
15	0x3f27a764	0.6548979
16	0x3c88a440	0.016679883
17	0x3e889298	0.26674342
18	0xbe1359ef	-0.14389776
19	0x3f11159b	0.5667359
20	0xbd3243d8	-0.043521732
21	0xbf16ce8b	-0.5890891
22	0xbe73335a	-0.23750058
23	0x3f0612e5	0.5237258
24	0x3e95aa18	0.29231334
25	0xbe704089	-0.23462118
26	0x3e3a23e5	0.18177755
27	0xbd9a552f	-0.07535779
28	0xbe1c3ade	-0.15256831
29	0x3e37eef6	0.1796225
30	0x3e6cc930	0.23123622
31	0x3cea73f3	0.028619742
32	0x3dd79cf3	0.105279826
33	0xbd83f3e1	-0.064430006
34	0x3ddd294b	0.10798892
35	0x3eb38039	0.35058764
36	0xbd49151e	-0.049092405
37	0x3e7f355e	0.24922702
38	0x3e333d9f	0.17503975
39	0x3f1e8eff	0.61936945
40	0xbf2b4f33	-0.66917723
41	0xbe1d6aad	-0.15372725
42	0xbdcdad72	-0.10042848
43	0x3edc7575	0.43058363
44	0x3ce063fd	0.027391428
45	0xbeceb6f2	-0.4037395
46	0x3e605608	0.21907818
47	0x3ef07c1d	0.4696969
48	0x3e950f72	0.29113346
49	0x3d09d612	0.03365142
50	0x3e7b05be	0.24513909
51	0xbcd83264	-0.026391216
52	0x3db6330f	0.088964574
53	0x3d9f4e6b	0.07778629
54	0x3d90baa9	0.070668526
55	0xbdcb1a7e	-0.09917162
56	0xbedbff5d	-0.42968264
57	0xbefeb71c	-0.49749076
58	0x3cf11e23	0.029433316
59	0x3d519311	0.051165644
60	0xbda09d3a	-0.078424886
61	0x3dc5d1b6	0.0965914
62	0x3c6c116e	0.014408452
63	0xbec71265	-0.3888122
64	0x3e18d7c9	0.14926066
65	0xbdc71229	-0.09720261
66	0x3e476858	0.19473398
67	0x3d89f180	0.067355156
68	0xbe95e74f	-0.29278037
69	0x3ed73e9f	0.42039964
70	0xbc0d9009	-0.008640298
71	0x3f30b146	0.690205
72	0xbe5f162a	-0.21785799
73	0x3de63c85	0.11242012
74	0x3e18d6c2	0.14925674
75	0x3bb947e7	0.0056543234
76	0x3e223e4a	0.15844074
77	0x3d9423f8	0.07233423
78	0xbf1abb7c	-0.6044233
79	0x3e0a1a17	0.13486515
80	0xbe856661	-0.2605467
81	0x3eba4ef1	0.36388353
82	0x3e019d52	0.12657669
83	0x3c0d75e6	0.008634066
84	0xbf16e67e	-0.58945453
85	0x3e6138a2	0.2199426
86	0xbe4e32ce	-0.20136568
87	0x3d126a96	0.03574618
88	0xbc7fd023	-0.0156135885
89	0x3cde035a	0.027101208
90	0xbd3c52cd	-0.045977402
91	0x3e059dba	0.13048449
92	0xba7a92b3	-0.0009558603
93	0x3e5f3036	0.21795735
94	0x3e508583	0.2036343
95	0xbedc0f9c	-0.4298066
96	0xbd9cae2b	-0.076504074
97	0x3ecca8e1	0.39972594
98	0x3a5b5d39	0.0008368078
99	0x3e2ae9f9	0.16690816
100	0x3d999afb	0.07500263
101	0xbeeda8b5	-0.46417776
102	0x3e3e6f96	0.18597254
103	0x3e122837	0.14273153
104	0xbdaf5a8d	-0.08562193
105	0x3edc7bfe	0.4306335
106	0xbebbfa72	-0.36714512
107	0x3e979a52	0.29609925
108	0xbcb32ead	-0.021872843
109	0x3e048df0	0.1294477
110	0x3f0d1fb2	0.5512649
111	0x3f1e46de	0.61826885
112	0x3eab5c60	0.33468914
113	0x3f2f0289	0.68363243
114	0xbe9bce70	-0.30430937
115	0x3e9224c1	0.28543666
116	0xbdbee5fc	-0.0932121
117	0x3f3ae244	0.73001504
118	0x3cb025d9	0.021502422
119	0x3b56abec	0.0032756282
120	0xbe022229	-0.12708344
121	0x3e249c8a	0.1607534
122	0x3d9a2c0b	0.07527932
123	0x3d5c815c	0.053834304
124	0x3e627664	0.22115475
125	0xbf34d4ce	-0.70637214
126	0x3ca3cac2	0.019994143
127	0x3dabcbb1	0.083884604

gnn_layers.0.gnn.att_em_j f4 [1, 1, 128]
0	0x3eceb856	0.40375012
1	0x3d48da65	0.049036402
2	0xbe006fe2	-0.1254268
3	0xbe65423b	-0.22388546
4	0xbd8eb30b	-0.069677435
5	0xbdac9dbf	-0.08428525
6	0x3e016577	0.12636362
7	0x3ccee839	0.025257217
8	0x3e5cb580	0.21553612
9	0x3c560e67	0.013064957
10	0x3c0876a4	0.008329067
11	0xbdc4addf	-0.09603476
12	0xbe1d25d7	-0.15346466
13	0x3e97edea	0.29673702
14	0xbe66ac84	-0.22526747
15	0x3bb9682f	0.0056581716
16	0xbe03f010	-0.12884545
17	0x3e132d97	0.1437286
18	0xbe109097	-0.14117657
19	0x3f866d0d	1.050203
20	0xbbd17a9d	-0.0063927905
21	0xbe56b1f7	-0.20966326
22	0xbe240306	-0.16016778
23	0x3e9a3d06	0.30124682
24	0x3d1b95cc	0.037984654
25	0x3f2b0982	0.6681138
26	0xbbad072a	-0.005280395
27	0x3c3aeba7	0.011408723
28	0x3d922f37	0.07137912
29	0x3e0495dc	0.12947792
30	0x3c7dba57	0.015486321
31	0x3cc9775b	0.024593046
32	0xbea6bc43	-0.32565507
33	0x3d409e9c	0.04702626
34	0x3d5f8fc0	0.05458045
35	0x3ca0261d	0.019549424
36	0x3da60ac5	0.08107523
37	0xbd508f16	-0.050917707
38	0x3fa4eba6	1.2884414
39	0x3df78d81	0.120875366
40	0xbf76351f	-0.96174806
41	0xbcbecae2	-0.023290101
42	0x3d37a2ff	0.04483318
43	0xbc3afdf8	-0.01141309
44	0x3d80ffd2	0.06298794
45	0x3fb92959	1.4465743
46	0x3d25dabf	0.040491816
47	0x3f2863bd	0.6577719
48	0x3e710e7b	0.2354068
49	0x3eb0a846	0.34503382
50	0xbcbb402c	-0.022857748
51	0x3eb6f6dc	0.35735214
52	0x3e164f06	0.14678583
53	0x3dd89421	0.10575128
54	0x3d52534f	0.05134898
55	0xbd10f023	-0.035385262
56	0xbedc2907	-0.4300005
57	0x3e8bd12b	0.2730802
58	0x3a9f8ef1	0.0012173337
59	0x3d851910	0.06498921
60	0x3f0bab54	0.545583
61	0x3cf27203	0.02959538
62	0x3d585990	0.05281979
63	0xbcee5595	-0.029093543
64	0x3ea6d365	0.32583156
65	0x3d479964	0.04873027
66	0x3bc5aac6	0.0060323207
67	0xbd7ce88e	-0.06174522
68	0x3d1cffc8	0.03832987
69	0xbc411099	-0.011783742
70	0xbb135cc6	-0.0022485717
71	0x3d9c048c	0.07618055
72	0xbb787071	-0.0037908817
73	0xbc59b980	-0.013288856
74	0xbc7831b8	-0.015148573
75	0x3f15aa7e	0.58463275
76	0xbccb89a6	-0.02484591
77	0x3c05879c	0.008150008
78	0xbc7c91a8	-0.0154155865
79	0x3bc7b848	0.006094966
80	0xbe19c6ff	-0.15017317
81	0x3e484482	0.19557384
82	0x3eba689d	0.3640794
83	0x3f287476	0.65802705
84	0x3d798bf5	0.06092449
85	0x3bd09fba	0.006366697
86	0xbd82f916	-0.063951656
87	0xbc8fdf9a	-0.017562676
88	0x3e2046e9	0.1565205
89	0x3af82e32	0.0018934666
90	0x3ea04a14	0.31306517
91	0x3db1fa57	0.08690327
92	0x3c2ddc77	0.010611645
93	0x3e878cba	0.26474553
94	0xbcfd4648	-0.030917302
95	0xbe76ab79	-0.24088849
96	0x3e689bb1	0.22715642
97	0x3e3ae8f9	0.18252935
98	0x3e12e34c	0.1434452
99	0x3ca05049	0.019569533
100	0x3ce26901	0.02763796
101	0x3f0053e0	0.50127983
102	0x3f044ff6	0.5168451
103	0xbd5f6c14	-0.05454643
104	0xbea12237	-0.31471416
105	0x3eaeccad	0.3414053
106	0xbe20f162	-0.1571708
107	0xbc630ff3	-0.013858783
108	0xbd637485	-0.055531044
109	0x3daf8907	0.08571058
110	0xbcf99b4c	-0.03046956
111	0x3daa7bed	0.08324418
112	0x3dde3ddb	0.10851642
113	0x3ef4f76d	0.4784502
114	0x3ef35502	0.47525793
115	0x3f2993a7	0.66240925
116	0x3c817aae	0.015805569
117	0x3ec0a0c9	0.3762267
118	0x3e997fb0	0.2998023
119	0x3e77a1eb	0.2418286
120	0x3ef237da	0.47308236
121	0xbd593fa6	-0.053039216
122	0xbd2e5ea7	-0.042570736
123	0x3ef0c755	0.47027078
124	0xbee8fea9	-0.4550679
125	0xbecd7b58	-0.40133166
126	0x3c4b5af2	0.01241182
127	0xbe0bb942	-0.13644889

gnn_layers.0.gnn.bias f4 [128]
0	0xbc23111b	-0.009952809
1	0xbb776ac1	-0.003775284
2	0xbc9b1528	-0.018930987
3	0xbc46fc88	-0.012145169
4	0x3b270fa6	0.0025491505
5	0xbb8e27d9	-0.0043382463
6	0xba37a4a1	-0.00070054276
7	0xbb8cce6c	-0.0042970683
8	0xbb5cb277	-0.003367571
9	0x3a290fcc	0.00064491923
10	0x39a8ae3d	0.00032173275
11	0xba9c16b0	-0.0011908617
12	0xbd577e02	-0.052610405
13	0x3b548b5a	0.0032431693
14	0xbc387681	-0.011258722
15	0xbd183b5a	-0.037165977
16	0x3bffee01	0.0078103547
17	0xbb3f3aff	-0.0029179452
18	0xbc8d9675	-0.017283658
19	0xbb4473e7	-0.002997631
20	0x3bfa1206	0.007631543
21	0xbbfa936f	-0.00764697
22	0xbc617424	-0.0137606
23	0x3c167661	0.009183497
24	0xbbfa7cf1	-0.0076442887
25	0xbbcd879a	-0.0062722685
26	0xbcb80a5e	-0.022465881
27	0x3abdc4b0	0.0014478173
28	0x3c1e3589	0.009656318
29	0x3b9c483e	0.004769354
30	0x3b76ff3a	0.0037688748
31	0x3c0200fe	0.007934807
32	0xbbbe87f4	-0.0058145467
33	0x3c1e15d7	0.009648762
34	0xbb50a9c0	-0.003183946
35	0xbe38f92e	-0.18063805
36	0x3bb0d786	0.005396786
37	0x3c0fad86	0.008769399
38	0x3bac33c4	0.0052551944
39	0x394b32e0	0.00019378541
40	0xbc04926b	-0.008091549
41	0xbc05e197	-0.008171461
42	0x3b40819e	0.0029374133
43	0xbb1a496f	-0.0023542305
44	0x39b577b2	0.0003461219
45	0x3b68e292	0.0035535437
46	0xbcf7f2f8	-0.030267224
47	0x3aded71b	0.0017001362
48	0x3956ab1a	0.0002047237
49	0x3c5f8178	0.013641708
50	0xbe5490c5	-0.2075835
51	0xbb881f66	-0.0041541336
52	0xb98a28f6	-0.0002635193
53	0xbb240b98	-0.0025031324
54	0xbb44ed6e	-0.0030048746
55	0xbc803405	-0.015649805
56	0xbcf139e1	-0.029446544
57	0xbc159560	-0.009129852
58	0xbccac48d	-0.024751926
59	0x3a3a68cf	0.00071109546
60	0x3c1554af	0.009114428
61	0xbd8f26c2	-0.06989814
62	0xbc6ca3c5	-0.014443343
63	0x3bae9a06	0.0053284196
64	0x3c628f20	0.013828069
65	0x3caa99bd	0.020825261
66	0x3da9ab1a	0.08284588
67	0xbd4631eb	-0.04838745
68	0xbd281b76	-0.041041814
69	0xbaa9d386	-0.0012956716
70	0x3bafe6ef	0.0053681056
71	0x3bbf452e	0.0058371043
72	0xbca3eea8	-0.020011261
73	0xbb3ac58d	-0.0028499097
74	0xbbaa043e	-0.005188494
75	0x3ac6dc38	0.0015171831
76	0x3d2610fb	0.040543538
77	0xbb15f8d3	-0.0022883906
78	0xbb95bf72	-0.004569941
79	0xbd06f293	-0.03294618
80	0x39ec6429	0.00045088053
81	0xbb812699	-0.003941369
82	0xbb30e429	-0.0026991463
83	0xbb153844	-0.0022769133
84	0xbc1c2cf3	-0.009532201
85	0x3c0d1cb7	0.008612803
86	0xbc37aed7	-0.011211119
87	0xbee6c224	-0.45069993
88	0xbb5dbc53	-0.0033834174
89	0xbc449dc3	-0.012000504
90	0x3ac3b797	0.0014932033
91	0xbb4616b2	-0.003022593
92	0xbc32f6d9	-0.010923111
93	0xbd06b243	-0.032884847
94	0xbc4419fc	-0.011969086
95	0x3bd9657c	0.0066344123
96	0x3abf3b00	0.0014589727
97	0xbbde9c1b	-0.0067935116
98	0xbb7ccf89	-0.003857585
99	0x3d3b9e82	0.04580546
100	0xbbdafcd0	-0.0066829696
101	0x3b0d594d	0.002156812
102	0xbc88ab29	-0.016683178
103	0xbc25a766	-0.010110712
104	0x3baedc89	0.0053363484
105	0x3d2e28e1	0.042519454
106	0xbbdd2408	-0.00674868
107	0x3c1c1791	0.009527103
108	0x3a5e68ac	0.0008484225
109	0x3c364083	0.011123779
110	0xbb42399b	-0.0029636386
111	0xbdea78ac	-0.114487976
112	0xbaff7535	-0.0019489886
113	0x3d0c1436	0.034198962
114	0xbc309647	-0.010778016
115	0x3bfec2bb	0.0077746785
116	0xbbf2babe	-0.0074075153
117	0xbacc30a6	-0.0015578463
118	0x3c59400c	0.013259899
119	0xbe849664	-0.2589599
120	0x3b4e4131	0.0031471963
121	0xbb4ed8db	-0.0031562361
122	0x3a99afbb	0.0011725345
123	0x3c24e4b2	0.010064291
124	0xbbfc0cef	-0.0076919715
125	0xbc105317	-0.008808873
126	0x3b570d5b	0.0032814357
127	0x3bcbd071	0.0062199165

gnn_layers.0.gnn.lin.weight f4 [128, 5]
0	0x3ca14e5f	0.01969069
1	0x3d4d9afe	0.05019664
2	0x3c75fe64	0.015014265
3	0xbe5af1ca	-0.21381298
4	0x3ed48211	0.41505483
5	0x3dd72158	0.10504407
6	0xbd16734a	-0.036731042
7	0xbdd9b547	-0.10630279
8	0x3e0dbbf6	0.13841233
9	0x3ede58f2	0.43427235
10	0x3d8c5778	0.06852621
11	0x3eb1cdad	0.3472723
12	0x3e7f2e2e	0.2491996
13	0x3ed16856	0.40899915
14	0x3f0d1bd7	0.55120605
15	0x3cadfd3b	0.021238914
16	0x3d8da15f	0.06915545
17	0xbcfb406d	-0.030670369
18	0x3e6c2bc2	0.23063567
19	0x3e38eac5	0.18058307
20	0xbe945031	-0.2896743
21	0xbdfd7969	-0.12376673
22	0xbd6ae7e0	-0.05735004
23	0xbb940538	-0.0045172237
24	0x3eb5a5f2	0.3547817
25	0xbdb456cb	-0.08805617
26	0xbe2af60d	-0.16695423
27	0xbdd4a9a4	-0.10383919
28	0xbd51d3ec	-0.051227495
29	0x3e679120	0.22613955
30	0x3dd0a950	0.10188544
31	0x3c4471d9	0.011990034
32	0x3d395f33	0.045256805
33	0x3da4d317	0.08048075
34	0x3deae637	0.11469691
35	0x3d3bb6a4	0.045828477
36	0x3d9ca9ff	0.07649612
37	0xbc84850d	-0.016176725
38	0x3e1ecacf	0.15507053
39	0xbded5f2d	-0.11590419
40	0xbe05e08e	-0.13073942
41	0x3e411547	0.18855773
42	0x3de1936f	0.11014449
43	0x3eceaec4	0.4036771
44	0xbf125821	-0.57165724
45	0xbea07218	-0.31337047
46	0xbce01019	-0.027351426
47	0xbecef6db	-0.4042271
48	0x3e9656c8	0.29363084
49	0x3e68d95f	0.2273917
50	0xbecd4e17	-0.4009864
51	0xbe897ec4	-0.26854527
52	0xbdef5017	-0.11685198
53	0xbe94bcef	-0.29050395
54	0xbefad024	-0.48986924
55	0xbd53886f	-0.051643785
56	0xbe17719a	-0.1478943
57	0x3f0ef4b4	0.5584214
58	0xbe62394b	-0.22092168
59	0x3d00e7e2	0.03147114
60	0x3d7e4ad8	0.062083095
61	0x3e4e3021	0.20135547
62	0xbe0064c6	-0.12538442
63	0x3ef8728e	0.48524898
64	0xbead83ed	-0.33889714
65	0x3da82f28	0.08212119
66	0x3de05c6b	0.10955127
67	0xbd7f6c67	-0.06235924
68	0x3e1ed480	0.1551075
69	0xbdfaad3e	-0.122400746
70	0x3e89cc78	0.2691381
71	0x3e36c834	0.17849809
72	0x3e6c5478	0.23079097
73	0x3ed04f2f	0.40685412
74	0x3f07091b	0.5274827
75	0x3df6eb2c	0.12056574
76	0x3dead2aa	0.11465962
77	0x3e0937b3	0.13400154
78	0xbe608fe5	-0.21929891
79	0xbec635d3	-0.3871294
80	0xbe1a6fc8	-0.15081704
81	0xbdcffd9b	-0.10155793
82	0xbda12509	-0.07868392
83	0xbd8aa3a6	-0.06769495
84	0x3f403336	0.7507814
85	0x3e8bf20c	0.27333105
86	0x3e18a152	0.14905289
87	0xbc4e85e2	-0.012605162
88	0xbd83a9e9	-0.06428892
89	0x3f29eb0d	0.66374284
90	0x3e8984cd	0.2685913
91	0x3e061657	0.1309446
92	0x3e2a20ac	0.16614026
93	0x3e340d36	0.17583165
94	0x3e550e02	0.20806125
95	0xbf07c0b2	-0.53028405
96	0xbc828f81	-0.015937569
97	0xbcc0f645	-0.02355493
98	0x3e3fd7ac	0.18734616
99	0x3e9149ef	0.2837672
100	0xbef14ab9	-0.4712732
101	0x3db712fa	0.08939166
102	0x3e0b86eb	0.13625686
103	0x3e803e3e	0.25047487
104	0xbe97d919	-0.2965782
105	0x3cf9e014	0.030502357
106	0x3d05ba53	0.032648396
107	0x3c4f3eb8	0.012649231
108	0xbc676f44	-0.014125649
109	0x3caed063	0.0213396
110	0x3e6f837f	0.23390006
111	0x3e3aa7c0	0.18228054
112	0x3ea9560f	0.3307347
113	0x3de4b158	0.11166638
114	0x3ef31f26	0.47484702
115	0xbe7da989	-0.24771704
116	0xbdaacec7	-0.08340221
117	0xbe15264b	-0.14565389
118	0xbe17e9d2	-0.14835289
119	0xbdec7524	-0.1154578
120	0xbd9d45ee	-0.07679354
121	0xbdd89c74	-0.10576716
122	0xbe931a04	-0.28730786
123	0xbe137c80	-0.14402962
124	0x3ec11b20	0.37716007
125	0x3b227855	0.0024790962
126	0x3dbfe491	0.093697675
127	0x3d4370dd	0.047715057
128	0x3eaed686	0.34148043
129	0xbcbb88c1	-0.022892358
130	0xbd9f6901	-0.077837
131	0xbc926b5b	-0.017873457
132	0xbd5a9e99	-0.053373907
133	0xbe17dab2	-0.1482952
134	0xba8d1eee	-0.0010766664
135	0x3ee5b23b	0.44862542
136	0xbf12a5ee	-0.5728444
137	0x3d010081	0.03149462
138	0x3db5f9c2	0.08885528
139	0xbb0c9ecb	-0.0021456953
140	0x3e0d9f14	0.13830215
141	0x3d47aab8	0.048746794
142	0x3df8e2dc	0.12152645
143	0xbd07ce86	-0.03315594
144	0x3efb5e79	0.49095514
145	0xbce01189	-0.027352111
146	0xbd87658f	-0.06611168
147	0x3d352048	0.04422024
148	0xbe392208	-0.18079388
149	0xbd3c5521	-0.045979623
150	0x3da00c6f	0.078148715
151	0x3eaf38cc	0.3422302
152	0x3db99dd4	0.090633065
153	0xbeae150c	-0.34000432
154	0xbea71142	-0.32630354
155	0x3d99f0ea	0.07516654
156	0x3dde7069	0.10861284
157	0x3db07ae5	0.0861719
158	0x3e1461df	0.1449046
159	0x3e3af56a	0.1825768
160	0xbd83f13e	-0.06442498
161	0xbe09dd89	-0.13463415
162	0xbd79b4c7	-0.06096342
163	0x3f1189da	0.5685097
164	0x3e9461a5	0.28980747
165	0x3dbf985c	0.09355232
166	0x3ced9997	0.029003901
167	0x3dc73ae8	0.09728032
168	0xbe92ddb8	-0.28684783
169	0x3edc3212	0.4300695
170	0x3ed63826	0.41839713
171	0x3c3790f3	0.011203992
172	0x3e28a23f	0.16468142
173	0x3da83e49	0.08215005
174	0x3e8d0216	0.27540654
175	0xbd1cc61b	-0.038274866
176	0x3c87e3b0	0.016588062
177	0xbd2d78e7	-0.04235163
178	0x3c535ced	0.012900573
179	0xbe992bff	-0.2991638
180	0x3c788aec	0.01516984
181	0x3dcc2bd9	0.09969301
182	0xbdf2b648	-0.11851174
183	0xbda320da	-0.0796525
184	0x3cdfc394	0.027314939
185	0xbd40ebbf	-0.047099825
186	0x3d705f6f	0.058684763
187	0x3e4350b5	0.19073756
188	0xbd53b975	-0.051690537
189	0x3e027d59	0.12743129
190	0xbc964f9f	-0.018348513
191	0x3d0c63df	0.034274932
192	0xbcade80c	-0.021228813
193	0xbc1d7b9b	-0.009611989
194	0x3ed63d76	0.41843766
195	0x3daf9531	0.08573378
196	0xbdee3feb	-0.11633285
197	0x3e2a2258	0.16614664
198	0x3e4a4c13	0.19755583
199	0x3e8926c0	0.26787376
200	0xbf0a77bf	-0.5408897
201	0xbcd9598b	-0.026531955
202	0x3ea42586	0.32059878
203	0x3c657511	0.014004962
204	0x3e98549e	0.29752058
205	0xbdaeaed7	-0.08529442
206	0xbd6badee	-0.05753892
207	0xbd161ab6	-0.036646567
208	0xbdec9c82	-0.11553289
209	0xbc827110	-0.015923053
210	0xbd021f8c	-0.031768367
211	0x3eac65c9	0.33671406
212	0x3d83a73f	0.06428384
213	0xbebbbea1	-0.36668876
214	0xbe11ca8e	-0.14237425
215	0x3e82f06c	0.25574052
216	0xbdcb9050	-0.09939635
217	0x3cb3cc6c	0.021948062
218	0x3e30c94b	0.17264287
219	0x3e80c357	0.25149032
220	0x3f0abb48	0.5419202
221	0xbe1997b3	-0.14999275
222	0xbd950be7	-0.07277661
223	0x3dbc3675	0.09190074
224	0x3d0d285f	0.03446233
225	0xbeaf5c5c	-0.34250152
226	0xbe907188	-0.28211617
227	0x3e38a3fb	0.18031304
228	0xbbf15c04	-0.0073657054
229	0x3f244e6c	0.6418216
230	0xbe0cf27b	-0.13764374
231	0xbe22b1f1	-0.15888192
232	0x3ee54b0c	0.4478382
233	0xbf035eab	-0.51316327
234	0x3eb51ae6	0.35372084
235	0x3e60b92d	0.21945639
236	0x3e0e7ca3	0.13914733
237	0x3dc11c56	0.09429233
238	0x3d488c50	0.048961937
239	0x3ea02f34	0.31286013
240	0x3e6cdaeb	0.23130386
241	0xbd1337ca	-0.035941876
242	0x3d6a69a6	0.05722966
243	0xbd649903	-0.055809986
244	0x3dd9c3a9	0.10633022
245	0x3cd31df5	0.02577112
246	0x3e021edb	0.12707083
247	0x3d4d7f44	0.050170198
248	0x3e44bda2	0.19212964
249	0x3de02cdc	0.10946056
250	0x3deb683e	0.11494492
251	0xbe3a4a9e	-0.18192527
252	0x3efaad29	0.48960236
253	0xbe58c9f1	-0.21170785
254	0xbededd66	-0.4352829
255	0x3e29efab	0.16595332

gnn_layers.0.bn.weight f4 [128]
0	0x3e8d3ed6	0.27587003
1	0x3edaf95f	0.4276838
2	0x3e2c06c8	0.16799462
3	0x3ed9e056	0.42553967
4	0x3e737e6a	0.23778692
5	0x3e9a1645	0.30095115
6	0x3f7c49f7	0.9855036
7	0x3ebb99e3	0.36640844
8	0x3f8ad184	1.0845189
9	0x3f5ec064	0.87012315
10	0x3f3de284	0.7417376
11	0x3f0455c5	0.51693374
12	0x3f0de56e	0.55428207
13	0x3f5c7b23	0.8612539
14	0x3e35b090	0.17743134
15	0x3e6cabdc	0.23112434
16	0x3e494bc7	0.19657813
17	0x3f57a6a5	0.84238654
18	0x3eb926b8	0.36162353
19	0x3f8fe671	1.12422
20	0x3f3c7e8a	0.73630583
21	0x3e3e3a60	0.18576956
22	0x3e8b97dd	0.272643
23	0x3f24ae01	0.6432801
24	0x3e8fb925	0.28070942
25	0x3edd02c4	0.43166173
26	0x3ebaaa82	0.36458212
27	0x3f889f8b	1.0673689
28	0x3f186768	0.59532785
29	0x3f60c71c	0.87803817
30	0x3ea91e80	0.33031082
31	0x3f43595b	0.7630822
32	0x3ed01528	0.4064114
33	0x3f4fc085	0.81153136
34	0x3ef9b0e3	0.48767766
35	0x3e3bca81	0.18338968
36	0x3ccfdcfa	0.025373925
37	0x3edf84d1	0.43656018
38	0x3f54ef80	0.8317795
39	0x3f854a72	1.0413344
40	0x3e0c6b6c	0.13712853
41	0x3ebb76f8	0.36614203
42	0x3e5ed780	0.21761894
43	0x3f1af649	0.6053205
44	0x3f40fc0f	0.7538461
45	0x3f1871de	0.5954875
46	0x3f63378e	0.88756645
47	0x3f3192c2	0.6936456
48	0x3f2c9ddf	0.6742839
49	0x3f4e1325	0.8049796
50	0x3e8f67bf	0.2800884
51	0x3edf1f7d	0.4357871
52	0x3e940b89	0.2891505
53	0x3f96e28b	1.1787885
54	0x3f896f9e	1.0737188
55	0x3f5465c5	0.8296779
56	0x3eba121a	0.36341935
57	0x3f6f0037	0.933597
58	0x3e702527	0.23451672
59	0x3f13376e	0.57506454
60	0x3f3abef2	0.7294761
61	0x3ef909d7	0.4864032
62	0x3f4121db	0.75442284
63	0x3e9c49ee	0.30525154
64	0x3e6996ce	0.22811434
65	0x3f3bb95a	0.733297
66	0x3ee46edc	0.4461583
67	0x3ecf7e96	0.40526265
68	0x3ecf51a3	0.4049197
69	0x3f08a00e	0.53369224
70	0x3f2717ef	0.65270895
71	0x3f69ddd3	0.913541
72	0x3e2f34b2	0.17109945
73	0x3ef120c6	0.47095317
74	0x3f4a7a92	0.7909328
75	0x3eea6c2d	0.45785657
76	0x3f0d975e	0.55309093
77	0x3f2d2e2b	0.6764857
78	0x3eb4ff89	0.35351208
79	0x3ebad7ea	0.36492854
80	0x3f565847	0.8372845
81	0x3f09a500	0.53767395
82	0x3eded473	0.4352146
83	0x3f424c17	0.75897354
84	0x3e46468b	0.19362848
85	0x3f333d92	0.70015824
86	0x3e3cfc2b	0.1845557
87	0x3e979959	0.29609182
88	0x3ef5c505	0.48001876
89	0x3ef80c7d	0.48447028
90	0x3c928e3c	0.017890088
91	0x3eaeee82	0.34166342
92	0x3ed8df84	0.4235803
93	0x3eea6d4f	0.4578652
94	0x3e408737	0.1880158
95	0x3f5447f9	0.8292232
96	0x3ef08337	0.4697511
97	0x3fa1ead9	1.2649795
98	0x3f34d322	0.70634663
99	0x3f296493	0.6616909
100	0x3ef857c3	0.48504457
101	0x3f8c7bbe	1.0975263
102	0x3ed97767	0.4247391
103	0x3f97f735	1.1872317
104	0x3f3dd49a	0.7415253
105	0x3f0e7bf5	0.55657893
106	0x3e2d8420	0.16944933
107	0x3e4bd776	0.1990641
108	0x3f2de71c	0.6793077
109	0x3f3d81f9	0.7402645
110	0x3eec5205	0.46156326
111	0x3e693faa	0.22778192
112	0x3ea421a2	0.3205691
113	0x3f0aa6bb	0.5416066
114	0xbe6afab5	-0.229472
115	0x3f28c332	0.65922844
116	0x3ee0b2e5	0.43886486
117	0x3ef5303c	0.47888362
118	0x3fb50acf	1.4143924
119	0x3f5f498f	0.87221617
120	0x3f2e1e22	0.6801473
121	0x3f38fb9b	0.7225892
122	0x3e393d4b	0.18089788
123	0x3ef739d3	0.48286304
124	0x3ecc9488	0.3995707
125	0x3e45a3de	0.19300792
126	0x3e7b8fc2	0.24566558
127	0x3e33ffc4	0.17578036

gnn_layers.0.bn.bias f4 [128]
0	0x3f370047	0.714848
1	0xbf4f5e83	-0.8100359
2	0x3f3fc7af	0.7491407
3	0xbf749eb6	-0.95554674
4	0x3f754744	0.9581187
5	0x3f2f5cb9	0.6850086
6	0xbe6f1e97	-0.23351513
7	0x3f04fbc9	0.51946694
8	0xbe0682c9	-0.13135828
9	0x3e9a9d50	0.30198145
10	0x3eaf1881	0.34198382
11	0x3f1086d8	0.56455755
12	0x3f05bc23	0.522402
13	0x3e9f1e8e	0.31078
14	0x3f489cd0	0.78364277
15	0x3f2ea172	0.68215096
16	0xbf06f1f8	-0.52712965
17	0xbe8983ff	-0.26858518
18	0x3f22e9e9	0.6363817
19	0x3ebce884	0.36896145
20	0x3ecc6943	0.39924058
21	0x3f3861f4	0.72024465
22	0x3f332fa5	0.69994575
23	0x3f08a6bf	0.53379434
24	0x3f20b0b9	0.6276966
25	0xbf681cc5	-0.906689
26	0x3f2822cb	0.6567809
27	0xbe2a4163	-0.16626506
28	0x3ec9ef76	0.39440507
29	0xbe921209	-0.28529385
30	0x3f2b7b0e	0.6698464
31	0x3e0cb9f0	0.13742805
32	0xbf2cf5d3	-0.675626
33	0x3e2446ae	0.16042587
34	0xbecc04c1	-0.39847377
35	0x3f38e075	0.72217494
36	0x3f7b7bd6	0.98235834
37	0x3ee5ab26	0.44857138
38	0x3ed22ffa	0.41052228
39	0x3de04e23	0.109524034
40	0x3f5a4c4a	0.8527266
41	0x3f105328	0.56376886
42	0x3f39861b	0.72470254
43	0x3e88fd37	0.26755688
44	0xbe7f6925	-0.24942453
45	0xbeac9448	-0.3370688
46	0xbe19a321	-0.15003635
47	0xbe9fa89a	-0.3118332
48	0xbe893d53	-0.268046
49	0xbeaa04d1	-0.332068
50	0x3ef17931	0.47162774
51	0xbef20409	-0.47268704
52	0xbef975a0	-0.48722553
53	0xbc5f1cb2	-0.013617681
54	0xbdcf4978	-0.10121435
55	0xbea8115f	-0.32825753
56	0x3f2ee8af	0.68323797
57	0xbe3f29be	-0.18668267
58	0x3f18d830	0.59704876
59	0x3ed2e3d1	0.41189435
60	0xbed1db28	-0.40987515
61	0xbef4a14f	-0.4777932
62	0xbec3ed23	-0.38266858
63	0x3f3adad6	0.7299017
64	0x3f299986	0.66249883
65	0xbcdcae4d	-0.026938582
66	0x3f1b0848	0.6055951
67	0x3eea5e08	0.45774865
68	0x3ee64be0	0.44979763
69	0x3ed91780	0.42400742
70	0xbeb92d5d	-0.36167422
71	0x3eb759fc	0.3581084
72	0x3f46b6af	0.77622503
73	0x3f002d2b	0.5006892
74	0xbf0c5e58	-0.5483146
75	0x3f047377	0.51738685
76	0xbec5952e	-0.38590378
77	0x3ed44df1	0.41465715
78	0x3f077638	0.5291476
79	0x3ef153fc	0.47134387
80	0x3eb0bf99	0.34521177
81	0x3eccc274	0.39992106
82	0x3eb82ba7	0.35970804
83	0x3dc743c2	0.09729721
84	0x3f5f7710	0.8729105
85	0x3f1803fa	0.5938107
86	0x3f553367	0.8328156
87	0x3f34522a	0.7043787
88	0xbf0075e8	-0.5017991
89	0x3ef5a0e5	0.47974315
90	0xbf1f935b	-0.6233422
91	0xbf3027eb	-0.6881091
92	0x3f1d2409	0.6138311
93	0x3f1af143	0.60524386
94	0x3f558ef6	0.83421266
95	0x3e93ce0e	0.28868145
96	0x3f158470	0.5840521
97	0xbe4bfb17	-0.19920002
98	0xbefa4c95	-0.48886552
99	0xbf108cd6	-0.564649
100	0x3f117444	0.5681803
101	0xbe0f5dc0	-0.14000607
102	0x3f119dc7	0.56881374
103	0x3e28b6f1	0.16476037
104	0x3edbdd6b	0.42942366
105	0xbf04b5fd	-0.5184019
106	0x3f313787	0.69225353
107	0x3f755332	0.9583007
108	0xbebbf4ef	-0.36710307
109	0x3e819fb8	0.25317168
110	0x3ee30b60	0.44344616
111	0x3f40538c	0.7512748
112	0x3f32ec14	0.69891477
113	0xbf0b7857	-0.544805
114	0x3f24d88b	0.6439292
115	0x3eb6805b	0.35644802
116	0x3f104a75	0.5636361
117	0x3eec97f0	0.4620967
118	0xbd90052e	-0.07032238
119	0xbe1ad9b2	-0.15122107
120	0xbea5af17	-0.32360145
121	0x3ed56549	0.41678837
122	0x3f74c426	0.956118
123	0x3ebe856c	0.37211168
124	0xbf446923	-0.76722926
125	0x3f4e8f44	0.80687356
126	0xbed8baba	-0.4232996
127	0x3f500257	0.8125357
