model_normal/gdn_smd_w_10_epoch20.pth (torch, 39279 bytes, 16 tensors)

embedding.weight f4 [38, 128]
-0.04222581 -0.15571997 -1.1590476 -0.2527566 -0.4458223 -0.1526079 -0.20296334 -0.19281894
-0.30151296 -0.50704503 0.3559347 -0.09838985 -0.2329759 0.16808425 -0.11739507 0.1760368
-0.35085008 0.0814743 0.39146978 -0.040667683 -0.08036887 0.4450803 0.39674747 -0.44286934
-0.32143715 -0.17744526 0.21044786 -0.046116937 -0.30177698 0.010310434 -0.44959474 0.37679052
-0.39218605 -1.4607133 -0.23611934 -0.34378844 -0.838956 0.30145106 0.19827524 0.071311355
0.010269639 -0.19694549 -0.30775914 0.09013466 0.37301013 0.4232984 0.110676944 -0.0058672037
0.20722488 -0.211626 -0.09914936 0.3206027 0.05958846 0.2348522 -0.5115281 -0.11791321
0.03855251 -0.44228795 -0.65999633 -0.29759943 0.25536722 0.051204458 0.4750821 0.14389995
-0.5782088 -0.09923663 0.33442178 -0.23418947 -0.36440608 0.06650405 -0.3853513 -0.18814176
-0.3546757 0.3334758 0.042993654 0.010951772 0.10898117 0.33810458 -0.39815423 -0.11775799
0.16046143 0.16981809 -0.18361437 -0.34648868 -0.19166635 -0.13015221 -0.24102648 0.1806123
-0.8577433 -0.16232453 -0.91613036 -0.36947855 0.003446096 -0.05014592 -0.23492175 -0.2801548
0.040961403 0.18949792 0.32321638 0.2943365 -0.015892321 0.0845376 -0.24695595 0.007031157
0.02815816 -0.441365 0.038540296 -0.07166434 0.30732894 0.39095634 -0.4801778 -0.2570079
0.060960773 -0.1252934 -0.43225598 0.052279815 0.26620552 -0.54319596 0.1435762 0.20648935
-0.021834817 -0.34641585 0.34789276 -0.051987156 -0.2104338 -0.18033938 0.46535364 -0.6616688
-1.0018967 -0.11639275 0.1447126 -0.71097434 0.3920388 0.53167576 -0.9348588 -1.119774
-0.17620645 0.40133068 -0.41680333 -0.35532054 -0.10720959 0.20716277 -0.09319137 0.30579993
-0.15990181 -0.44030634 -0.23032326 -0.22327194 -0.008587095 0.4718784 0.50191975 -0.59328747
-0.56349254 -0.14187536 0.29965678 -0.013873314 0.46840253 0.29758108 0.41464224 -0.4110513
-0.7464357 -0.332601 -1.0453979 -0.35809317 -0.2741828 0.34642598 -0.03311839 -0.16322994
-0.75338376 -0.28560236 -0.13069707 0.09839477 0.6218206 0.03215806 0.37512797 0.43593094
0.12652415 -0.16821627 -0.08850892 0.35174727 -0.5064289 0.5975329 -0.3329808 -0.58202565
0.4441053 -0.5562404 0.26340017 -0.3769728 -0.7162928 0.1420063 -0.44762468 -0.04063316
-0.31875068 -0.2807021 0.58198667 -0.512714 -0.09102108 0.15994073 -1.2665032 -0.32312217
-0.59838074 -0.16719168 -0.54335904 0.079914294 0.084261104 0.2884776 -0.19405879 0.16793369
0.50114715 -0.004976465 -1.2372801 0.07984558 -0.27046442 -0.3147646 -0.15361342 0.18627825
-0.19469519 -0.1431671 -0.36406124 -1.2606052 -0.68009454 0.17952421 0.17326488 0.11959751
-0.37345403 0.51631975 0.37942806 -0.015026047 -1.2787215 -0.68215644 -0.70687324 -0.2806306
-0.63813853 -0.575562 -0.10631811 0.44509363 0.4788422 -0.25209346 0.0001742015 -1.0744709
0.41364893 0.08549585 -0.2906713 0.092500664 0.15113285 -0.6350126 -0.05637985 0.15162985
-0.027121581 -1.4882535 0.06020715 -0.47435886 -0.0711522 -0.32017648 0.5066625 -0.420129
00000000: f9f4 2cbd 0e75 1fbe ac5b 94bf 5069 81be
00000010: d242 e4be 3f45 1cbe 9fd5 4fbe 5472 45be
00000020: e85f 9abe b4cd 01bf 133d b63e 9e80 c9bd
00000030: 3c91 6ebe 471e 2c3e d46c f0bd fe42 343e
00000040: 9fa2 b3be ffdb a63d ba6e c83e 2893 26bd
00000050: 6f98 a4bd 91e1 e33e 7c22 cb3e c5bf e2be
00000060: 6993 a4be 36b4 35be a57f 573e 1de5 3cbd
00000070: 8382 9abe 18ed 283c 4831 e6be b0ea c03e
00000080: 9ccc c8be a7f8 babf 45c9 71be 0a05 b0be
00000090: d2c5 56bf cb57 9a3e aa08 4b3e b00b 923d
000000a0: fd41 283c 14ac 49be 9b92 9dbe 8598 b83d
000000b0: 2ffb be3e 91ba d83e 98aa e23d ac41 c0bb
000000c0: c232 543e 7cb4 58be d20e cbbd 0926 a43e
000000d0: 0713 743d 187d 703e 81f3 02bf 7b7c f1bd
000000e0: 3de9 1d3d 9173 e2be 85f5 28bf f45e 98be
000000f0: 7ebf 823e c4bb 513d f63d f33e 825a 133e
00000100: 7e05 14bf 933c cbbd 5539 ab3e 5dcf 6fbe
00000110: 6f93 babe 4633 883d c44c c5be 3ca8 40be
00000120: 0e98 b5be 57bd aa3e 1d1a 303d 106f 333c
00000130: 8531 df3d 0b1c ad3e dfda cbbe 1a2b f1bd
00000140: 0050 243e cbe4 2d3e 6805 3cbe f766 b1be
00000150: 2f44 44be 9f46 05be a5cf 76be 6ef2 383e
00000160: 1195 5bbf 6738 26be 8587 6abf 4b2c bdbe
00000170: e6d7 613b cf65 4dbd 548f 70be 7370 8fbe
00000180: 25c7 273d be0b 423e 9e7c a53e 46b3 963e
00000190: 9d30 82bc 0d22 ad3d 05e2 7cbe 9f65 e63b
000001a0: f1ab e63c 98fa e1be 6edc 1d3d c1c4 92bd
000001b0: 385a 9d3e 6e2b c83e ddd9 f5be 8a96 83be
000001c0: 01b2 793d ea4c 00be a850 ddbe 5c23 563d
000001d0: 174c 883e e40e 0bbf a405 133e f271 533e
000001e0: eede b2bc 6b5d b1be 001f b23e 7cf0 54bd
000001f0: f57b 57be e3aa 38be d542 ee3e 2063 29bf
00000200: 273e 80bf 525f eebd 8a2f 143e 6a02 36bf
00000210: 4fb9 c83e e71b 083f e852 6fbf c154 8fbf
00000220: 776f 34be 377b cd3e 3f67 d5be 93ec b5be
00000230: b490 dbbd 7a22 543e 1edb bebd cf91 9c3e
00000240: 4dbd 23be d56f e1be dcd9 6bbe 66a1 64be
00000250: e3b0 0cbc 0c9a f13e d07d 003f b0e1 17bf
00000260: 0c41 10bf c647 11be 9d6c 993e e54c 63bc
00000270: 75d2 ef3e 8c5c 983e fd4b d43e 5175 d2be
00000280: 6916 3fbf ae4a aabe 99cf 85bf fd57 b7be
00000290: b061 8cbe bf5e b13e 26a7 07bd c025 27be
000002a0: c2dd 40bf 793a 92be 74d5 05be 3283 c93d
000002b0: a32f 1f3f 2cb8 033d c610 c03e 5732 df3e
000002c0: 8c8f 013e e340 2cbe 2a44 b5bd 3818 b43e
000002d0: 53a5 01bf ebf7 183f 767c aabe a2ff 14bf
000002e0: c561 e33e c565 0ebf 63dc 863e 9402 c1be
000002f0: f75e 37bf 196a 113e 102f e5be f56e 26bd
00000300: 4a33 a3be 30b8 8fbe 14fd 143f 3a41 03bf
00000310: 4369 babd 81c7 233e c71c a2bf 4570 a5be
00000320: 7b2f 19bf 4c34 2bbe 9419 0bbf 1baa a33d
00000330: 1691 ac3d 56b3 933e 59b7 46be cff6 2b3e
00000340: 2e4b 003f 9d11 a3bb 325f 9ebf 1486 a33d
00000350: 507a 8abe d328 a1be d64c 1dbe babf 3e3e
00000360: 2d5e 47be 659a 12be 3c66 babe 835b a1bf
00000370: ad1a 2ebf 32d5 373e 596c 313e 8aef f43d
00000380: 5e35 bfbe 882d 043f 6544 c23e cf2f 76bc
00000390: 25ad a3bf cea1 2ebf a5f5 34bf d0ae 8fbe
000003a0: 0c5d 23bf 0858 13bf 4fbd d9bd 50e3 e33e
000003b0: ce2a f53e 6512 81be dca9 3639 4388 89bf
000003c0: cbc9 d33e 7318 af3d ded2 94be fd70 bd3d
000003d0: 92c2 1a3e 3090 22bf 8fee 66bd db44 1b3e
000003e0: 142e debc 177f bebf c69b 763d 2adf f2be
000003f0: 3fb8 91bd 2cee a3be a2b4 013f 261b d7be

bn_outlayer_in.weight f4 [128]
0.122609735 0.5202091 0.16350657 0.31545156 0.395579 0.18396433 0.66494006 0.63596416
0.5563089 0.38489667 0.34572738 0.2625267 0.7032729 0.15782817 0.68909425 0.45355073
0.63518625 0.3095944 0.23392609 0.23311767 0.6801538 0.3143505 0.27453935 0.2930228
0.2571026 0.60398394 0.35468307 0.17111284 0.21562852 0.2646283 0.43896192 0.28897232
0.44530606 0.20608161 0.60504764 0.5403852 0.48579016 0.38227224 0.2966713 0.513041
0.3136221 0.55973417 0.6826957 0.21833348 0.10824135 0.3658923 0.38288736 0.1982608
0.7719945 0.6760755 0.6261021 0.4527667 0.3400633 0.22981209 0.36807543 0.22585315
0.8192093 0.23146307 0.3647505 0.3330535 0.20445757 0.39598852 0.3809475 0.23325287
0.36969024 0.45131895 0.111217275 0.75429845 0.47656238 0.40581232 0.57424766 0.50289494
0.6307236 0.3894295 0.5547642 0.4237076 0.1637948 0.31859258 0.5157898 0.51476264
0.4022974 0.48337492 0.69706523 0.3875895 0.6534717 0.2934827 0.59302187 0.5013218
0.56708664 0.6002219 0.32491425 0.55682164 0.26384786 0.28478715 0.385687 0.40046915
0.3447473 0.21588269 0.18031345 0.04320924 0.48330277 0.40135002 0.5761419 0.37159526
0.3473711 0.26501784 0.15950774 0.43109143 0.12925301 0.3472173 0.48299563 0.6500347
0.39561453 0.31182206 0.4312625 0.4066262 0.3027663 0.20892735 0.31133842 0.3524169
0.1983198 0.5353646 0.47044557 0.25749585 0.5832697 0.28107387 0.3504667 0.29248503
00000000: d01a fb3d 6c2c 053f 446e 273e de82 a13e
00000010: 5589 ca3e 2561 3c3e 8339 2a3f 8cce 223f
00000020: 436a 0e3f 2d11 c53e 2e03 b13e e669 863e
00000030: b109 343f b59d 213e 7b68 303f cd37 e83e
00000040: 919b 223f 2883 9e3e 528a 6f3e 66b6 6e3e
00000050: 8f1e 2e3f 8cf2 a03e 6c90 8c3e 1607 963e
00000060: f4a2 833e b19e 1a3f 0599 b53e 3438 2f3e
00000070: b9cd 5c3e 5c7d 873e 9ebf e03e 2ef4 933e
00000080: 28ff e33e 0f07 533e 67e4 1a3f af56 0a3f
00000090: 7db9 f83e 30b9 c33e 4de5 973e a856 033f
000000a0: 1393 a03e bd4a 0f3f 25c5 2e3f d092 5f3e
000000b0: a4ad dd3d 3c56 bb3e d009 c43e e104 4b3e
000000c0: 6ea1 453f 4913 2d3f 3a48 203f 09d1 e73e
000000d0: c71c ae3e dc53 6b3e 6274 bc3e 0c46 673e
000000e0: b3b7 513f a804 6d3e 94c0 ba3e fd85 aa3e
000000f0: 535d 513e 02bf ca3e 8d0b c33e d7d9 6e3e
00000100: 0a48 bd3e 4713 e73e e2c5 e33d b419 413f
00000110: fcff f33e a2c6 cf3e e501 133f b9bd 003f
00000120: 1a77 213f 4e63 c73e 0705 0e3f 34f0 d83e
00000130: d3b9 273e 911e a33e cd0a 043f 7cc7 033f
00000140: edf9 cd3e eb7c f73e de72 323f 2272 c63e
00000150: ec49 273f 5d43 963e 48d0 173f a056 003f
00000160: 972c 113f 24a8 193f 295b a63e dd8b 0e3f
00000170: 1117 873e 9fcf 913e c478 c53e 4b0a cd3e
00000180: b882 b03e 5a10 5d3e 17a4 383e 2cfc 303d
00000190: 7673 f73e c07d cd3e 097e 133f bc41 be3e
000001a0: a0da b13e 6bb0 873e ff55 233e 04b8 dc3e
000001b0: e75a 043e 77c6 b13e 344b f73e ad68 263f
000001c0: fd8d ca3e 24a7 9f3e 70ce dc3e 4f31 d03e
000001d0: 2f04 9b3e 0df1 553e c067 9f3e fd6f b43e
000001e0: 5814 4b3e a80d 093f 3ede f03e 7fd6 833e
000001f0: 2a51 153f eae8 8f3e 5f70 b33e 99c0 953e

bn_outlayer_in.bias f4 [128]
-0.0012199188 -0.22113228 -0.09477162 -0.3322896 -0.09590406 -0.018882198 -0.3041931 -0.26504138
-0.2807949 -0.3279119 -0.22731674 -0.022317424 -0.34463206 -0.12229622 -0.35564306 -0.2004447
-0.2880649 -0.2632541 -0.20602438 -0.15578333 -0.7958999 -0.3211591 -0.19283013 -0.045813918
-0.025897808 -0.27759117 -0.37612176 -0.92993045 -0.14906095 -0.2285675 -0.9877282 -0.20054157
-0.34234047 -0.47009453 -0.28506073 -0.12444708 -0.24109346 -0.23723559 -0.704114 -0.94139224
-0.22973102 -0.34409788 -0.38017353 -1.0609545 0.008835568 -0.44874036 -0.33420864 -0.104589425
-1.0304713 -0.39371133 -0.29786882 -0.50390416 -0.2801961 -0.033414748 -0.14455406 0.0004227256
-0.1810618 -0.011565257 -0.20628923 -0.09309236 -0.22088505 -0.27766782 -0.31296712 -0.17430185
-0.09565276 -0.12182675 0.00086280867 -0.38303775 -0.94309807 -0.44247976 -0.20802714 -0.2735916
-0.56179917 -0.27937046 -0.5227598 -0.2158225 -0.022167675 -0.33898875 -0.5809889 -0.49984232
-0.34201384 -0.5858118 -0.23346625 -0.87904763 -0.23702022 -0.26962838 -0.38453665 -0.9588386
-0.24913849 -0.2878931 -0.14428537 -0.23240383 -0.17179796 -0.19529752 -0.40570596 -0.31118733
-0.3308151 -0.030527119 -0.056166716 -0.57100856 -0.62146115 -0.36025414 -0.26495466 -0.33848354
-0.23566845 -0.0063477024 -0.5700409 -0.41529903 -0.015672646 -0.36480176 -0.6394583 -0.37615928
-0.3308663 -0.20218505 -0.20399348 -0.50752926 -0.31611755 -0.007382914 -0.31798598 -0.3587282
-0.9940471 -0.22007224 -0.591346 -0.236952 -0.2763403 -0.04816116 -0.30838153 -0.1556823
00000000: afe5 9fba 8070 62be a017 c2bd dd21 aabe
00000010: 5969 c4bd d7ae 9abc 33bf 9bbe 81b3 87be
00000020: 59c4 8fbe 12e4 a7be b8c5 68be 08d3 b6bc
00000030: 9d73 b0be 7176 fabd d916 b6be 6041 4dbe
00000040: 3e7d 93be 3ec9 86be 0ef8 52be aa85 1fbe
00000050: 19c0 4bbf f76e a4be 4375 45be 60a7 3bbd
00000060: a427 d4bc 6e20 8ebe 0893 c0be ec0f 6ebf
00000070: 6fa3 18be 990d 6abe c1db 7cbf c55a 4dbe
00000080: 4047 afbe 3bb0 f0be 7bf3 91be 1cde febd
00000090: 34e1 76be e3ed 72be d140 34bf 15ff 70bf
000000a0: 9c3e 6bbe 992d b0be 1ba6 c2be 5bcd 87bf
000000b0: 0fc3 103c 4cc1 e5be 651d abbe fb32 d6bd
000000c0: 7ce6 83bf 8894 c9be 4382 98be ddff 00bf
000000d0: dd75 8fbe e7dd 08bd fb05 14be 45a1 dd39
000000e0: 4468 39be 347c 3dbc 7c3d 53be 35a7 bebd
000000f0: b12f 62be 7a2a 8ebe 3a3d a0be 2f7c 32be
00000100: 98e5 c3bd 4e80 f9bd 1c2e 623a 861d c4be
00000110: e06e 71bf b58c e2be 1105 55be 3314 8cbe
00000120: 12d2 0fbf a509 8fbe 96d3 05bf 9300 5dbe
00000130: fc98 b5bc ef8f adbe b0bb 14bf 55eb ffbe
00000140: 701c afbe c3f7 15bf c711 6fbe 4409 61bf
00000150: 6eb5 72be bb0c 8abe fde1 c4be 7276 75bf
00000160: 291e 7fbe b966 93be 8bbf 13be 45fb 6dbe
00000170: ceeb 2fbe 13fc 47be b1b8 cfbe f253 9fbe
00000180: 9960 a9be 0214 fabc 120f 66bd 9e2d 12bf
00000190: 1418 1fbf 3b73 b8be 23a8 87be b74d adbe
000001a0: 1253 71be 6300 d0bb 33ee 11bf 13a2 d4be
000001b0: ec63 80bc 4cc7 babe 8ab3 23bf f397 c0be
000001c0: 4f67 a9be 9909 4fbe abe3 50be 70ed 01bf
000001d0: 29da a1be 5fec f1bb 0fcf a2be 39ab b7be
000001e0: df79 7ebf 9e5a 61be 7462 17bf 8ca3 72be
000001f0: 7a7c 8dbe a344 45bd 2fe4 9dbe 2e6b 1fbe

bn_outlayer_in.running_mean f4 [128]
-0.0007365244 -0.06121244 -0.00025205774 -0.021546947 -0.2144194 -0.030411355 -0.038541716 -0.049868528
-0.32159686 0.0032724154 0.081917815 -0.16811945 -0.09898204 0.015885133 -0.13053344 0.00029121927
-0.25272706 -0.00439393 0.07154948 0.005416348 -0.013527234 0.022999648 -0.012245868 -0.27608904
-0.18488953 -0.20448112 0.09014441 -0.013686643 0.10095126 0.020162733 -0.04717583 0.06122318
-0.10823574 -0.019704405 -0.06569173 -0.1503507 -0.29557425 -0.001548038 -0.037422556 -0.0060866973
-0.09954007 -0.37999964 -0.08156309 0.03893893 0.058633238 0.029066853 -0.01049961 0.09073912
-0.005126492 -0.35535887 -0.018897139 0.0020229581 0.010488775 -0.05023853 -0.25173724 -0.12635268
6e-45 -0.16837664 0.0014773272 -0.25746745 -0.0025514574 0.13107525 -0.028931329 0.27779597
-0.25598913 -0.11017581 0.024462713 -0.08411882 0.011013269 0.0040595043 -0.100082956 -0.25471786
-0.026894549 0.09397291 -0.01591104 -0.17641746 -0.0044380035 0.0003758932 -0.027565213 0.0043948903
0.090715945 -0.0052079353 -0.0221148 -0.07891688 -0.02707308 0.037881337 -0.31614313 0.015581831
-0.27609617 -0.19613393 -0.3166564 -0.1186403 -0.055776823 -0.006019374 0.0023506146 0.014804014
-0.04954594 -0.060540773 0.010141029 0.07621105 -0.19246311 -0.10483212 -0.0684631 0.0195662
-0.06992847 -0.1805754 -0.0014799037 0.0763185 0.04524912 -0.0012042182 0.014676606 -0.14770876
0.103888236 -0.02992062 -0.25479642 0.0028890069 0.10316903 -0.13920194 0.013986966 0.0017600727
0.035492513 -0.18661043 -0.00092044636 0.082779594 -0.0074195224 -0.23232104 0.054707862 4.3516426e-05
00000000: 5113 41ba e5b9 7abd 9e26 84b9 3983 b0bc
00000010: c290 5bbe 3c21 f9bc ebdd 1dbd f142 4cbd
00000020: 58a8 a4be 0576 563b 87c4 a73d 8127 2cbe
00000030: 19b7 cabd 8a21 823c 8faa 05be caae 9839
00000040: 7165 81be f5fa 8fbb 8988 923d 9f7b b13b
00000050: 55a1 5dbc c269 bc3c e5a2 48bc 8b5b 8dbe
00000060: ae53 3dbe 8063 51be a29d b83d f13d 60bc
00000070: 89bf ce3d 512c a53c 713b 41bd 28c5 7a3d
00000080: b3aa ddbd 226b a1bc 6389 86bd 89f5 19be
00000090: 8255 97be 89e7 caba 6548 19bd eb72 c7bb
000000a0: aadb cbbd 508f c2be 8d0a a7bd 6d7e 1f3d
000000b0: 6829 703d 9c1d ee3c 8e06 2cbc 6fd5 b93d
000000c0: 22fc a7bb 99f1 b5be 2cce 9abc 9b93 043b
000000d0: 1cd9 2b3c ebc6 4dbd b4e3 80be 9962 01be
000000e0: 0400 0000 ed6a 2cbe e0a2 c13a c6d2 83be
000000f0: 5a36 27bb 9738 063e 6501 edbc 463b 8e3e
00000100: 0211 83be dba3 e1bd 0766 c83c 7d46 acbd
00000110: 0071 343c 9705 853b 4bf8 ccbd 616a 82be
00000120: f551 dcbc de74 c03d df57 82bc c7a6 34be
00000130: ac6c 91bb 8813 c539 71d0 e1bc 0303 903b
00000140: 48c9 b93d 54a7 aabb 192a b5bc 2c9f a1bd
00000150: 5dc8 ddbc 7629 1b3d 83dd a1be f04a 7f3c
00000160: 7a5c 8dbe 55d7 48be ca20 a2be b0f9 f2bd
00000170: 3d76 64bd 2b3e c5bb c50c 1a3b 898c 723c
00000180: aff0 4abd 9af9 77bd 8f26 263c 8a14 9c3d
00000190: 0d15 45be 39b2 d6bd 6236 8cbd 4c49 a03c
000001a0: a836 8fbd c2e8 38be 54f9 c1ba e04c 9c3d
000001b0: 2457 393d dcd6 9dba 2676 703c f740 17be
000001c0: 5bc3 d43d 171c f5bc ad74 82be 7e55 3d3b
000001d0: 494a d33d f48a 0ebe 9629 653c 3db2 e63a
000001e0: 9960 113d ce16 3fbe 1c4a 71ba 5988 a93d
000001f0: 771f f3bb 91e5 6dbe 5a15 603d 6885 3638

bn_outlayer_in.running_var f4 [128]
0.005663115 0.011853461 0.049493358 0.18667752 0.8323372 0.1980754 0.0020439292 0.00473885
0.085145235 0.0020353612 0.13407838 0.051905897 0.015269616 0.0010940725 0.025312677 0.0048403717
0.060331166 0.33876285 0.10654385 0.14760092 0.0023295584 0.22209723 0.17564276 0.1419913
0.11957644 0.05641378 0.19708125 0.09109676 0.13490862 0.0011189904 0.1691153 0.1464723
0.11220265 0.11092102 0.0064804447 0.14248921 0.06600439 0.012198247 0.13027626 0.0006122805
0.1889012 0.089939915 0.008477386 0.06455009 0.121068545 0.56583923 0.18609609 0.11026177
0.0016745195 0.09249191 0.0007813349 0.001780687 0.18764591 0.2996321 0.050197255 0.08835927
6e-45 0.10339476 0.0034413657 0.05816824 0.001705908 0.15011983 0.31047714 0.3123082
0.055861246 0.03460423 0.08259067 0.010860556 0.0005616736 0.0031343221 0.0155579625 0.045715176
0.0037491433 0.22744545 0.005579075 0.5536878 0.0068916213 0.0012214632 0.0023122467 0.0010088239
0.25810507 0.0011052701 0.0013128753 0.29133955 0.0017936996 0.12849317 0.06710543 0.00056834356
0.06495668 0.041445784 0.062435742 0.024067031 0.16328685 0.17780216 0.14131308 0.3953849
0.27257493 0.33183897 0.0021662123 0.14958388 0.30405906 0.3304017 0.0057668537 0.11538366
0.22593969 0.27593124 0.065447204 0.18064128 0.10638942 0.15605488 0.001234009 0.027243555
0.1989772 0.1867937 0.047046788 0.0017682175 0.19586544 0.07424962 0.36220476 0.0015672215
0.106745526 0.05336555 0.0018051902 0.15176418 0.00016111405 0.030470207 0.30155787 0.0158768
00000000: a791 b93b 0535 423c 8cb9 4a3d 6428 3f3e
00000010: 0d14 553f 47d4 4a3e 71f3 053b 5b48 9b3b
00000020: a060 ae3d b263 053b d84b 093e 479b 543d
00000030: 692d 7a3c fb66 8f3a 885c cf3c fb9b 9e3b
00000040: d01d 773d 5372 ad3e a933 da3d b224 173e
00000050: 81ab 183b 756d 633e b2db 333e 2b66 113e
00000060: 7ee4 f43d 2312 673d abcf 493e f090 ba3d
00000070: 7c25 0a3e 16ab 923a 902c 2d3e d6fc 153e
00000080: 81ca e53d 8f2a e33d e959 d43b b1e8 113e
00000090: 4f2d 873d 28db 473c 2467 053e 7381 203a
000000a0: 516f 413e 6b32 b83d bce4 0a3c d632 843d
000000b0: c9f2 f73d d7da 103f f98f 3e3e ecd0 e13d
000000c0: 8d7b db3a 666c bd3d 7fd2 4c3a f165 e93a
000000d0: 4026 403e 6169 993e a39b 4d3d b4f5 b43d
000000e0: 0400 0000 a2c0 d33d 8988 613b d241 6e3d
000000f0: c698 df3a 03b9 193e dcf6 9e3e dce6 9f3e
00000100: c3ce 643d 2abd 0d3d 4c25 a93d 79f0 313c
00000110: 473d 133a 3369 4d3b d3e6 7e3c d63f 3b3d
00000120: 30b4 753b 76e7 683e acd0 b63b 7cbe 0d3f
00000130: 1cd3 e13b 8119 a03a 1089 173b 833a 843a
00000140: 5926 843e b6de 903a c914 ac3a 752a 953e
00000150: 921a eb3a b793 033e 926e 893d e4fc 143a
00000160: 0208 853d 0ec3 293d 9fbc 7f3d 3928 c53c
00000170: ab34 273e c511 363e 60b4 103e e46f ca3e
00000180: f18e 8b3e cce6 a93e 03f7 0d3b 842c 193e
00000190: a1ad 9b3e 692a a93e e0f7 bc3b 454e ec3d
000001a0: bc5c 673e dc46 8d3e 2f09 863d 07fa 383e
000001b0: b2e2 d93d dacc 1f3e 79be a13a e02d df3c
000001c0: aec0 4b3e d946 3f3e 22b4 403d 89c3 e73a
000001d0: f390 483e 2f10 983d e772 b93e 3a6b cd3a
000001e0: 669d da3d d695 5a3d 229c ec3a 1268 1b3e
000001f0: b9f0 2839 a89c f93c cb65 9a3e 1010 823c

gnn_layers.0.gnn.att_i f4 [1, 1, 128]
-0.020164799 0.0066018226 0.012633948 -0.015621502 -0.024548553 -0.0061252667 0.0133271385 0.14161292
0.061821416 0.33489853 0.0014586926 -0.07982706 0.08938586 0.06485524 0.27868345 0.006266932
0.038792226 -0.011292815 -0.028148623 -0.0027348266 0.07862118 0.0043457514 -0.048621 -0.09649396
-0.011619042 0.013987544 -0.0029401071 -0.0058771325 -0.010856196 0.08518958 -0.03402643 0.008727767
-0.01366052 0.4853948 0.10737512 -0.020990482 -0.24569009 0.11435314 -0.08217187 0.2699713
-0.034700096 0.05396341 0.015554613 0.0018979702 -0.433013 0.0015467928 0.022407433 -0.04410064
0.042365935 0.069648124 0.0065997723 0.13344137 -0.020946927 -0.020518415 0.11660434 -0.017258497
0.1135012 -0.03952322 0.06584806 0.06444332 -0.008163303 0.0023294177 -0.044155348 0.03577245
0.15515365 0.035194322 -0.023416538 0.033616323 0.031227538 0.24474716 0.04022028 0.06312348
0.16898195 0.018389933 0.22191595 -0.1384574 1.3972893 0.6188919 0.05985932 0.21989067
-0.010418079 0.21940193 0.04656859 -0.16922696 0.053044155 0.00028880485 0.014649378 0.1365896
0.03247619 0.017514365 0.1256247 0.052855875 -0.01777455 -0.00689823 -0.012773737 0.011769974
-0.076036796 -0.01143881 -0.022382522 -0.17985818 0.021962615 -0.01526106 0.009281446 0.0020505772
-0.03259773 0.014747784 -0.003981212 -0.009801927 -0.019079078 0.0026689307 0.1321577 0.004754641
-0.00041966228 0.011146375 -0.12070473 -0.018324176 -0.007871549 0.004750633 0.011121209 0.27198663
0.0032970565 -0.029656582 0.06632876 -0.03128533 -0.09066119 -0.12048478 -0.2697408 0.5752326
00000000: a630 a5bc 1a54 d83b 9efe 4e3c 54f1 7fbc
00000010: 0c1a c9bc 76b6 c8bb 125a 5a3c fa02 113e
00000020: 7438 7d3d d277 ab3e 9a31 bf3a 5f7c a3bd
00000030: ef0f b73d d3d2 843d 99af 8e3e d65a cd3b
00000040: 99e4 1e3d 8005 39bc f197 e6bc c73a 33bb
00000050: 2404 a13d ce66 8e3b d026 47bd a09e c5bd
00000060: cb5d 3ebc 032c 653c d0ae 40bb f694 c0bb
00000070: 30de 31bc e077 ae3d 4c5f 0bbd e8fe 0e3c
00000080: 60d0 5fbc ab85 f83e 7de7 db3d 3bf4 abbc
00000090: 2f96 7bbe fb31 ea3d ba49 a8bd ae39 8a3e
000000a0: b021 0ebd bd08 5d3d c7d8 7e3c 50c5 f83a
000000b0: e1b3 ddbe c1bd ca3a cb8f b73c dfa2 34bd
000000c0: e787 2d3d ada3 8e3d e742 d83b dba4 083e
000000d0: e498 abbc 3c16 a8bc 42ce ee3d b161 8dbc
000000e0: 5173 e83d 1ae3 21bd 59db 863d dcfa 833d
000000f0: 60bf 05bc 25a9 183b 3ddc 34bd 2286 123d
00000100: 99e0 1e3e ec27 103d 0ad4 bfbc 45b1 093d
00000110: e5d0 ff3c 009f 7a3e 05be 243d e246 813d
00000120: 9b09 2d3e 7ca6 963c ef3d 633e c7c7 0dbe
00000130: 60da b23f b36f 1e3f 0c2f 753d 052b 613e
00000140: 97b0 2abc e6aa 603e b5be 3e3d d549 2dbe
00000150: d444 593d bb6a 9739 f203 703c 25de 0b3e
00000160: c105 053d 497a 8f3c c3a3 003e 677f 583d
00000170: ef9b 91bc 8c0a e2bb f048 51bc d9d6 403c
00000180: 2eb9 9bbd d969 3bbc 8d5b b7bc be2c 38be
00000190: f1ea b33c 8609 7abc 3511 183c fa62 063b
000001a0: 3385 05bd b0a0 713c d474 82bb 4398 20bc
000001b0: ba4b 9cbc 3ae9 2e3b 5954 073e d2cc 9b3b
000001c0: 1e06 dcb9 499f 363c 0b34 f7bd 951c 96bc
000001d0: abf7 00bc 33ab 9b3b bb35 363c d541 8b3e
000001e0: 6e13 583b 5cf2 f2bc 5fd7 873d 0c25 00bd
000001f0: 93ac b9bd b9c0 f6bd 771b 8abe 7242 133f

gnn_layers.0.gnn.att_j f4 [1, 1, 128]
-0.048407286 0.015282595 0.07968606 0.10004347 -0.085762486 -0.03778143 0.002988699 0.27287635
0.25338957 0.2783517 -0.18633696 0.04061098 0.114318654 -0.08766638 0.23403189 0.04860269
0.10178681 -0.28279033 -0.24555497 -0.15166688 0.25443506 -0.17479627 -0.39302924 -0.12120562
-0.060546536 0.0050992174 -0.0074646566 -0.14055021 -0.15282065 0.23008269 -0.010672013 0.28220582
-0.06634315 0.044029593 0.1806899 -0.23006494 -0.05084201 0.21478117 -0.13537174 -0.013399864
-0.24456212 0.19515885 0.0136385 -0.1526645 0.0525175 0.035042062 -0.19562939 -0.2774184
0.28566843 0.2652194 0.20513189 0.21851155 -0.43095532 -0.08077037 0.0068704663 -0.1113178
-0.20575154 -0.17206722 0.16257279 -0.11223779 -0.06021235 -0.06709841 -0.2156715 0.0032686952
-0.112810306 -0.13954885 -0.08583731 -0.0015584094 0.20159453 0.29816282 0.0947734 0.18910156
0.14777936 0.1044809 -0.06793215 -0.21023181 -0.41640618 -0.31354994 0.044094834 0.14104871
-0.34943524 0.13235848 0.22949508 -0.33675903 0.107405424 -0.18197621 -0.003764089 0.03854923
0.078560255 0.055003554 -0.058227286 0.14649138 -0.40258688 -0.11593748 0.12185834 -0.22990286
-0.14682223 -0.03408752 -0.050164856 0.19214667 0.081466824 -0.27597606 -0.00079747237 -0.053775437
-0.62838733 0.0060544587 -0.062008504 0.05351811 -0.12752762 -0.16054964 0.2130846 0.019425433
0.18157132 -0.10972781 0.03882824 0.0059895758 -0.007020166 0.08012913 0.037791427 0.31410608
-0.06373842 0.07354924 0.26761833 -0.15506703 0.37876123 0.087713085 -0.16342556 -0.0716858
00000000: b846 46bd d963 7a3c 7232 a33d 97e3 cc3d
00000010: 3ea4 afbd b3c0 1abd 0cde 433b 73b6 8b3e
00000020: 47bc 813e 1d84 8e3e 1ecf 3ebe b357 263d
00000030: e61f ea3d 6e8a b3bd 0ea6 6f3e 9d13 473d
00000040: 9a75 d03d e5c9 90be c372 7bbe 904e 1bbe
00000050: 5045 823e cbfd 32be 213b c9be a73a f8bd
00000060: a5ff 77bd 5617 a73b 149a f4bb 65ec 0fbe
00000070: 047d 1cbe cc9a 6b3e abd9 2ebc 487d 903e
00000080: ebde 87bd 6058 343d c606 393e 2596 6bbe
00000090: b63f 50bd 98ef 5b3e e49e 0abe 1a8b 5bbc
000000a0: 7e6e 7abe b9d7 473e 0474 5f3c 1554 1cbe
000000b0: 971c 573d 4488 0f3d 1253 48be c909 8ebe
000000c0: 2243 923e d6ca 873e 180e 523e 7ec1 5f3e
000000d0: 2da6 dcbe f06a a5bd a621 e13b 96fa e3bd
000000e0: 88b0 52be 6432 30be 7b79 263e eddc e5bd
000000f0: 3aa1 76bd e46a 89bd fdd8 5cbe 9b37 563b
00000100: 1709 e7bd e5e5 0ebe 79cb afbd 8b43 ccba
00000110: cc6e 4e3e cca8 983e 8e18 c23d d7a3 413e
00000120: 7953 173e 15fa d53d 0320 8bbd 0247 57be
00000130: 3133 d5be 9e89 a0be c99c 343d 136f 103e
00000140: 2de9 b2be fb88 073e c200 6b3e ae6b acbe
00000150: 60f7 db3d f957 3abe efae 76bb cce5 1d3d
00000160: 33e4 a03d 684b 613d bc7f 6ebd d601 163e
00000170: de1f cebe a170 edbd de90 f93d a86b 6bbe
00000180: 9158 16be 5b9f 0bbd aa79 4dbd 19c2 443e
00000190: 14d8 a63d bc4c 8dbe 770d 51ba a243 5cbd
000001a0: fedd 20bf 7b64 c63b a1fc 7dbd ce35 5b3d
000001b0: 9a96 02be 2067 24be d932 5a3e 1622 9f3c
000001c0: d5ed 393e f9b8 e0bd 5c0a 1f3d 3444 c43b
000001d0: 6c09 e6bb be1a a43d 2fcb 1a3d 83d2 a03e
000001e0: 4a89 82bd fca0 963d 4505 893e e4c9 1ebe
000001f0: feec c13e eba2 b33d 0859 27be 01d0 92bd

gnn_layers.0.gnn.att_em_i f4 [1, 1, 128]
0.03828135 -0.3046936 -0.05961971 0.027244441 -0.31148422 -0.013178506 0.14633253 0.23977922
0.06040642 -0.06599108 -0.016262319 -0.025202204 0.037732027 -0.062075876 0.17010541 0.0006751767
0.09165479 0.5657772 0.024764238 0.07065106 -0.03449449 0.046011783 0.02730269 -0.09586742
0.009205299 0.09193816 -0.08188514 0.021420658 -0.07411629 -0.1011189 -0.115081266 0.07905192
0.021001281 -0.038215574 0.16060191 0.010517333 -0.071113154 0.08361856 -0.012265136 0.0046128402
0.16063161 0.116539724 0.032704595 0.007106353 0.06990314 0.11818797 0.10918169 -0.037522577
-0.02459349 0.103151746 0.070843935 -0.03067068 0.031367827 -0.10864888 -0.08713092 -0.06958541
0.07846217 0.0071390825 -0.13053386 -0.006370593 0.49975738 -0.021409385 0.52057636 -0.03239724
-0.005355215 0.029376669 0.025118006 0.097942404 -0.14295502 -0.029527074 0.052810352 0.13725927
-0.013776765 -0.012501353 0.09775327 -0.025806967 -0.026831733 0.041978665 -0.013827661 -0.0019899157
0.14604992 -0.0051426175 0.09619332 -0.32406405 0.030827358 -0.06129194 0.18090987 -0.071343884
0.087828435 0.115636185 -0.035404917 0.08187139 0.3935201 -0.030211166 -0.025475157 -0.014830261
0.15081473 -0.02334531 0.0656006 0.04443362 0.0206859 0.38503733 0.025151635 -0.009147473
0.44718748 -0.07076947 0.11627992 -0.03221533 0.101231374 -0.010577014 -0.27150795 0.03482605
0.057318483 -0.029178338 -0.0057863686 -0.08138095 0.023693072 0.043650735 0.03804976 0.0072520375
-0.036704812 0.17171076 0.08439783 0.0018002962 -0.013962532 -0.028836222 0.20689122 -0.23085383
00000000: e8cc 1c3d cd00 9cbe cc33 74bd bc2f df3c
00000010: dc7a 9fbe a9ea 57bc 32d8 153e af88 753e
00000020: b96c 773d 5526 87bd 8e38 85bc da74 cebc
00000030: e68c 1a3d 4643 7ebd 1d30 2e3e 57fe 303a
00000040: 82b5 bb3d c6d6 103f 5fde ca3c 81b1 903d
00000050: 184a 0dbd da76 3c3d e4a9 df3c 2356 c4bd
00000060: d3d1 163c 134a bc3d 65b3 a7bd 607a af3c
00000070: 48ca 97bd 6d17 cfbd baaf ebbd f9e5 a13d
00000080: e10a ac3c ef87 1cbd d474 243e e450 2c3c
00000090: c6a3 91bd 3540 ab3d b6f3 48bc 4f27 973b
000000a0: 9d7c 243e 61ac ee3d 41f5 053d 69dc e83b
000000b0: 6129 8f3d 890c f23d a69a df3d 46b1 19bd
000000c0: 4978 c9bc 3941 d33d a016 913d 1441 fbbc
000000d0: 8d7b 003d 4e83 debd b271 b2bd cc82 8ebd
000000e0: c6b0 a03d f7ee e93b abaa 05be 68c0 d0bb
000000f0: 33e0 ff3e bc62 afbc 7e44 053f f8b2 04bd
00000100: cd7a afbb 57a7 f03c 47c4 cd3c 0796 c83d
00000110: cd62 12be c3e2 f1bc ab4f 583d b28d 0c3e
00000120: f1b7 61bc 7ad2 4cbc de32 c83d 2269 d3bc
00000130: 39ce dbbc d2f1 2b3d 6a8d 62bc 3f69 02bb
00000140: 1c8e 153e 6783 a8bb 0101 c53d b9eb a5be
00000150: a889 fc3c 420d 7bbd 7040 393e be1c 92bd
00000160: 65df b33d aad2 ec3d bf04 11bd 30ac a73d
00000170: 777b c93e 687d f7bc 47b1 d0bc 9ffa 72bc
00000180: 2d6f 1a3e aa3e bfbc 9b59 863d 0700 363d
00000190: 7a75 a93c 9d23 c53e cd0a ce3c 48df 15bc
000001a0: c2f5 e43e 95ef 90bd 2b24 ee3d 39f4 03bd
000001b0: 6552 cf3d 364b 2dbc 1703 8bbe c3a5 0e3d
000001c0: c9c6 6a3d 6907 efbc 949b bdbb 0eab a6bd
000001d0: f917 c23c 1dcb 323d 11da 1b3d 80a2 ed3b
000001e0: c957 16bd f2d4 2f3e c5d8 ac3d ebf7 eb3a
000001f0: 1bc3 64bc f139 ecbc 4bdb 533e f264 6cbe

gnn_layers.0.gnn.att_em_j f4 [1, 1, 128]
-0.13123162 -0.11158929 -0.014232896 0.037792493 0.8005319 -0.0074985176 0.00080481777 -0.11921377
0.043929927 0.3023689 0.0448169 -0.4521222 -0.06371536 -0.0808887 -0.011053047 0.050456293
-0.0067121666 0.024110543 -0.07963425 -0.056373417 -0.100759104 0.007926776 -0.016426556 -0.006939966
-0.14391507 0.03369352 0.010802269 0.0017236194 0.04855788 0.12441011 0.051298827 -0.44049364
0.07537501 0.032432612 -0.14994237 -0.0037693281 0.0835364 -0.14127234 -0.0012107574 -0.28876445
0.016169526 0.05763336 0.028113417 -0.3604601 -0.028433513 -0.6383648 0.024473608 -0.0036261387
-0.32572815 -0.022324795 -0.42999557 -0.52489793 -0.11938852 0.0013274255 0.05061688 -0.011028075
0.021451842 -0.5144469 0.26179963 0.040581334 0.5619844 0.011085015 0.040776655 -0.72118735
0.017596368 -0.25339893 -0.01462749 0.020228237 0.90862566 -0.10876992 0.08770321 0.04003054
0.1763633 0.03869723 0.10076959 0.11234953 -0.032090433 -0.6137949 0.034057535 0.18435365
-0.3196155 -0.26227427 0.20754066 0.83068985 0.0060228966 0.0625082 -0.2966275 0.19835852
0.04451227 0.0071238903 0.05859288 0.045798983 0.021439724 0.05662485 0.00017373757 0.048702005
-0.022608105 0.018323258 0.018714707 -0.12529023 0.055305533 0.038514335 -0.0004848299 0.028989753
0.06077481 0.3459041 -0.40832487 0.021512674 -0.15006703 -0.048356142 0.96135336 -0.01607751
-0.39190906 0.05779416 0.056618907 0.015443606 0.055856634 0.006180906 0.09377451 -0.1769191
-0.011566774 0.061722174 -0.43863028 -0.33352667 -0.055948492 0.033479523 -0.025260262 1.2313335
00000000: 9561 06be ed88 e4bd 1831 69bc 4dcc 1a3d
00000010: a9ef 4c3f 20b6 f5bb 68fa 523a 5926 f4bd
00000020: deef 333d 19d0 9a3e ed91 373d 907c e7be
00000030: 337d 82bd faa8 a5bd d717 35bc 42ab 4e3d
00000040: bcf1 dbbb 7983 c53c 4817 a3bd d0e7 66bd
00000050: ca5a cebd 4fdf 013c fc90 86bc a868 e3bb
00000060: 795e 13be 3702 0a3d 00fc 303c 12eb e13a
00000070: a1e4 463d baca fe3d b81e 523d 6288 e1be
00000080: 375e 9a3d 0fd8 043d 7e8a 19be d506 77bb
00000090: 2215 ab3d b2a9 10be 47b2 9eba efd8 93be
000000a0: f475 843c f510 6c3d 1c4e e63c 3a8e b8be
000000b0: 66ed e8bc e06b 23bf e07c c83c 83a4 6dbb
000000c0: d7c5 a6be 7de2 b6bc 6128 dcbe b65f 06bf
000000d0: f881 f4bd 02fd ad3a a553 4f3d 19af 34bc
000000e0: c6bb af3c cbb2 03bf 9a0a 863e 9d38 263d
000000f0: 36de 0f3f ec9d 353c 6c05 273d bc9f 38bf
00000100: 4226 903c 81bd 81be 24a8 6fbc b0b5 a53c
00000110: b19b 683f c4c2 debd be9d b33d 10f7 233d
00000120: 9598 343e fd80 1e3d 4960 ce3d 8317 e63d
00000130: 4271 03bd aa21 1dbf ea7f 0b3d 34c7 3c3e
00000140: a5a4 a3be d048 86be 8a85 543e 17a8 543f
00000150: b85b c53b 4d04 803d 8fdf 97be 7f1e 4b3e
00000160: 7f52 363d 866f e93b 16ff 6f3d b797 3b3d
00000170: 5ca2 af3c 75ef 673d 532d 3639 c17b 473d
00000180: a234 b9bc a81a 963c 964f 993c 154c 00be
00000190: 0e88 623d 35c1 1d3d c530 feb9 eb7b ed3c
000001a0: 02ef 783d 581a b13e f50f d1be 593b b03c
000001b0: 2cab 19be 1711 46bd 411b 763f fbb4 83bc
000001c0: 4ea8 c8be 92b9 6c3d 3ae9 673d 2e07 7d3c
000001d0: edc9 643d 3389 ca3b da0c c03d 482a 35be
000001e0: 9182 3dbc 64d0 7c3d 2694 e0be 02c4 aabe
000001f0: 3f2a 65bd d321 093d 9cee cebc 569c 9d3f

gnn_layers.0.gnn.bias f4 [128]
-0.40010202 0.003652339 0.0020764486 0.002645839 5.3704886 1.3402042 -2.6204286 -5.1622467
0.002235099 -3.4860587 0.0005536336 -3.7149413 0.017400488 7.329862 2.139704 -9.17603
0.000595519 -0.0010855384 -0.0007387077 -0.0019882398 -0.00076423836 -0.001450086 -0.0017807711 -2.6434407
-2.9586642 1.8807398 -0.0052659097 -0.0013055981 -0.0025373413 10.786933 0.0011808485 0.0017512044
-0.0023034336 0.00045486732 -4.6084833 -0.006365274 -0.36471334 -8.710884 -0.07141496 1.6203997
-0.0020308397 0.0020694775 0.013338313 -0.0012270682 -0.016897162 0.00071560877 -0.0019972501 -0.002533713
0.2440984 0.0021039972 0.00945265 8.340395 -0.0017500177 -1.3106235 -0.28126112 -0.0024759478
0.0026187405 -0.66885495 8.916994 -1.4786427 -3.6097243 -0.0033593809 -0.0032386763 -0.04701716
-1.0710171 0.005585161 -0.010814022 1.8269688 -5.809209 -5.5220795 0.0048483927 0.0015445764
2.3155427 0.0014618773 8.433282 0.101691365 0.0072910185 6.8116775 0.0073661436 9.727568
-0.0024419045 -4.3222985 3.06523 0.010838317 0.6480132 -0.001284099 0.0011483276 4.450039
0.003365095 0.7555425 1.809249 0.00066214305 -0.0022777154 -0.0010050633 0.002403126 -0.0012455855
-0.0017543422 -8.008668 0.7193016 0.023900943 0.0044323457 0.00023100473 1.3318596 -0.0033857683
-0.00096894393 3.0806794 -0.0023957721 -0.0010128341 -0.004109614 -0.00014758564 8.557121 0.0070499545
0.0016388987 -0.00399935 -0.0003063434 6.4724164 -2.5916686 0.74757046 -0.0004032625 -9.176965
-0.0022011297 -0.02518815 -8.191062 -0.0026142146 -0.0015082808 -2.241798 -0.0032521437 -3.5864296
00000000: 2cda ccbe 155c 6f3b 0715 083b d065 2d3b
00000010: 0bdb ab40 d08b ab3f 1ab5 27c0 2031 a5c0
00000020: bd7a 123b 961b 5fc0 b921 113a 99c1 6dc0
00000030: 788b 8e3c 3b8e ea40 e9f0 0840 05d1 12c1
00000040: 9b1c 1c3a a048 8eba d6a5 41ba 214d 02bb
00000050: 2b57 48ba d010 beba c368 e9ba 222e 29c0
00000060: c15a 3dc0 15bc f03f a78d acbb 9a20 abba
00000070: 8649 26bb 4797 2c41 b3c6 9a3a ab88 e53a
00000080: 34f5 16bb 427b ee39 b278 93c0 ca93 d0bb
00000090: b5bb babe c85f 0bc1 0242 92bd 4269 cf3f
000000a0: d617 05bb 12a0 073b f188 5a3c 94d5 a0ba
000000b0: eb6b 8abc b197 3b3a 4ce4 02bb a60c 26bb
000000c0: eef4 793e 37e3 093b 4adf 1a3c 4272 0541
000000d0: da60 e5ba 83c2 a7bf 7501 90be 8343 22bb
000000e0: 2d9f 2b3b 143a 2bbf 02ac 0e41 2a44 bdbf
000000f0: b905 67c0 0f29 5cbb f93f 54bb 1195 40bd
00000100: 1717 89bf ba03 b73b 4c2d 31bc 1dda e93f
00000110: 0ae5 b9c0 e0b4 b0c0 44df 9e3b 6273 ca3a
00000120: da31 1440 769c bf3a b9ee 0641 9043 d03d
00000130: 7fe9 ee3b 43f9 d940 b15f f13b 1ea4 1b41
00000140: 5c08 20bb 4550 8ac0 ba2c 4440 3293 313c
00000150: 31e4 253f 364f a8ba 7b83 963a b866 8e40
00000160: ed88 5c3b 3c6b 413f 7995 e73f ab93 2d3a
00000170: b945 15bb 54bc 83ba c47d 1d3b ea42 a3ba
00000180: f5f1 e5ba 8123 00c1 2624 383f e9cb c33c
00000190: 363d 913b dc39 7239 607a aa3f c4e3 5dbb
000001a0: ba00 7eba da29 4540 6302 1dbb 13c1 84ba
000001b0: f1a9 86bb 38c1 1ab9 f8e9 0841 4e03 e73b
000001c0: 51d0 d63a fb0c 83bb b79c a0b9 091e cf40
000001d0: e6dd 25c0 c760 3f3f fa6c d3b9 d9d4 12c1
000001e0: d440 10bb 6157 cebc 970e 03c1 3e53 2bbb
000001f0: 81b1 c5ba 9e79 0fc0 eb21 55bb 1088 65c0

gnn_layers.0.gnn.lin.weight f4 [128, 10]
0.89858645 -0.007189516 -0.15419227 -0.0052216854 -0.03126932 -0.18006961 -0.023303147 0.0034368362
-0.50100255 -0.34414932 -0.04399565 -0.035895847 -0.02856798 0.0030815562 0.013036581 0.726558
0.0035515856 0.0036324668 0.012010005 -0.0017336141 -0.53776145 -0.117203735 -0.045695692 0.0042542494
0.049220785 0.17737399 0.09630363 -0.010511132 0.04335703 -0.09665768 0.051403347 -0.027996311
-0.033488385 -0.085894935 -0.017289238 -0.040102165 -0.028567312 -0.034053005 -0.018331176 -0.044724494
0.17510022 0.12275428 0.29060987 0.22464843 0.09860429 0.16673033 0.08037396 0.13145123
0.07453361 0.01943239 0.082264565 0.16360644 0.38797954 0.18453456 0.09827678 0.0474283
0.057363145 0.04132074 0.008826548 0.032166153 -0.9403389 -0.44947895 0.0070162155 0.0144449705
-0.007885967 0.0036406058 0.023163926 0.007078251 0.0011007051 -0.014105222 -0.0024254501 -0.015784271
0.00694491 -0.021315511 0.013959782 -0.5474298 -0.13657904 -0.2888891 -0.14443171 -0.24833375
0.017492555 -0.02241274 -0.011551461 -0.027975975 -0.060784213 -0.019845627 0.01640468 -0.08078481
-0.124032654 -0.028034348 -0.48200172 -0.0019115447 -0.015507578 0.0009975377 -0.010159254 -0.3204747
-0.019180685 -0.49248773 -0.25993335 -0.80842185 0.01018736 0.0036001091 0.053894892 0.028101137
0.049108952 0.0069451835 0.059981916 0.04199155 0.08488193 0.01816801 0.7324337 0.34861743
-0.11214836 -0.13593204 -0.1724864 -0.46579447 -0.22269796 -0.21332678 -0.18338077 1.095691
-0.005204171 -0.24137884 0.016357314 -0.023384182 -0.076377735 -0.25676033 -0.008734537 -0.15027809
-0.08801115 -0.1341411 0.2849496 0.04660914 0.073731504 0.07247905 0.11139373 -1.8499188
0.053817183 0.034120537 0.031236654 0.12019788 -0.5537383 0.01921038 -0.09025845 0.005134039
-0.08004055 -0.16863973 -0.005399279 -0.047800593 -0.08813022 -0.23626709 0.022673871 -0.7633596
-0.22279523 -0.37030923 -0.40777513 0.018234601 0.012740636 -0.013558704 0.015671277 -0.009815224
-0.033954535 -0.05211652 -0.063554525 -0.0025051252 -0.13254702 -0.14591604 -0.03766138 -0.059807554
-0.077842236 -0.06693446 -0.0033074794 0.00139444 0.041274626 -0.014794695 0.0050649405 0.10450335
0.025214717 0.0063976217 -0.011735617 0.025646023 0.03942574 0.023430118 0.027155505 0.05319543
0.033016227 -0.008765908 0.023741908 0.021873048 0.009047638 0.056684207 -0.12137858 0.060726695
0.045457903 0.021149538 0.0091360435 0.055824123 0.015911372 0.023559067 0.113543764 0.054946896
-0.01475664 0.021745585 0.012470924 0.03855315 -0.636778 0.0286142 -0.5522857 -0.99822116
-0.7833727 -0.0173949 0.029948045 -0.00895926 0.03878338 -0.0019923279 0.018088493 0.014476854
0.031332325 0.0056816633 0.048293132 0.05337093 -0.027243262 0.0488837 0.0936363 0.027452
0.061201554 -8.9093366e-05 0.08820311 0.07351581 0.017019417 0.04818642 -0.21052273 -0.06714394
-0.0896288 -0.0122372825 0.17104587 0.43408915 0.19407015 0.2646637 -0.0028221097 0.26517728
0.76250273 0.29376677 0.26361153 -0.11851252 -0.060793035 -0.20567635 -0.061372224 -0.060888723
0.020082226 -0.083445325 0.033916064 0.009401871 -0.091436654 -0.054975748 -0.15053315 -0.6235437
00000000: c309 663f 0896 ebbb 94e4 1dbe ac1a abbb
00000010: 4214 00bd 2b64 38be 3ee6 bebc 8b3c 613b
00000020: b441 00bf 5734 b0be c834 34bd 8607 13bd
00000030: 6507 eabc eff3 493b 6297 553c b5ff 393f
00000040: b8c1 683b ae0e 6e3b 9dc5 443c 703a e3ba
00000050: bcaa 09bf 8308 f0bd 682b 3bbd 3b67 8b3b
00000060: bc9b 493d 87a1 353e d63a c53d e236 2cbc
00000070: 2497 313d 76f4 c5bd 518c 523d 8558 e5bc
00000080: 1e2b 09bd afe9 afbd 29a2 8dbc 2b42 24bd
00000090: ff05 eabc 2a7b 0bbd 432b 96bc 0831 37bd
000000a0: 794d 333e 9966 fb3d d1ca 943e 3d0a 663e
000000b0: 0cf1 c93d 5bbb 2a3e 1a9b a43d 279b 063e
000000c0: 14a5 983d ad30 9f3c 537a a83d 7288 273e
000000d0: 41a5 c63e a1f6 3c3e 5645 c93d 2d44 423d
000000e0: 9ef5 6a3d f03f 293d 3a9d 103c a8c0 033d
000000f0: 0dba 70bf 1b22 e6be 48e8 e53b 99aa 6c3c
00000100: 2534 01bc 3b97 6e3b 46c2 bd3c acf0 e73b
00000110: 8945 903a 9719 67bc 4df4 1ebb 044e 81bc
00000120: 2192 e33b de9d aebc 92b7 643c 5c24 0cbf
00000130: 60db 0bbe 46e9 93be e8e5 13be 344b 7ebe
00000140: 8c4c 8f3c ec9a b7bc 5742 3dbc df2d e5bc
00000150: def8 78bd 4c93 a2bc 1c63 863c 8272 a5bd
00000160: d504 febd 4aa8 e5bc eec8 f6be cc8c faba
00000170: 7f13 7ebc d0bf 823a 0073 26bc 4315 a4be
00000180: d020 9dbc 5a27 fcbe fc15 85be bcf4 4ebf
00000190: e3e8 263c cfef 6b3b e4c0 5c3d 5b34 e63c
000001a0: 7826 493d 6c94 e33b 99af 753d 55ff 2b3d
000001b0: 94d6 ad3d 14d5 943c c680 3b3f fc7d b23e
000001c0: 0aae e5bd c531 0bbe 46a0 30be 9d7c eebe
000001d0: ef0a 64be 5672 5abe 2bc8 3bbe 9a3f 8c3f
000001e0: c087 aabb 042c 77be c6ff 853c 2f90 bfbc
000001f0: ee6b 9cbd 1776 83be 4e1b 0fbc 80e2 19be
00000200: 313f b4bd 495c 09be eae4 913e 3ae9 3e3d
00000210: 8b00 973d e56f 943d 6522 e43d 24ca ecbf
00000220: 686f 5c3d fac1 0b3d 03e4 ff3c 4e2a f63d
00000230: cbc1 0dbf 165f 9d3c 6cd9 b8bd 713b a83b
00000240: 4dec a3bd e5af 2cbe 6fec b0bb 8eca 43bd
00000250: 9e7d b4bd 00f0 71be 8ebe b93c 896b 43bf
00000260: 6f24 64be 2c99 bdbe e7c7 d0be bb60 953c
00000270: 1abe 503c 5425 5ebc 0d61 803c 09d0 20bc
00000280: e913 0bbd 2278 55bd e028 82bd 072d 24bb
00000290: 68ba 07be 046b 15be d242 1abd c4f8 74bd
000002a0: c06b 9fbd ef14 89bd 4cc2 58bb a4c5 b63a
000002b0: 950f 293d 7365 72bc cdf7 a53b da05 d63d
000002c0: 188f ce3c 24a3 d13b bf46 40bc 9c17 d23c
000002d0: e27c 213d 85f0 bf3c 3975 de3c 74e3 593d
000002e0: 063c 073d e29e 0fbc 647e c23c 1b2f b33c
000002f0: 8b3c 143c b32d 683d 5595 f8bd 8ebc 783d
00000300: 1132 3a3d cc41 ad3c 58af 153c d6a7 643d
00000310: 9158 823c f2fe c03c a289 e83d ff0f 613d
00000320: d6c5 71bc cc23 b23c d952 4c3c e8e9 1d3d
00000330: e203 23bf 5468 ea3c 9862 0dbf 6c8b 7fbf
00000340: 1d8b 48bf c07f 8ebc 9a55 f53c dcc9 12bc
00000350: 52db 1e3d b791 02bb 522e 943c 5430 6d3c
00000360: 5356 003d 3f2d ba3b 05cf 453d 7a9b 5a3d
00000370: 432d dfbc 463a 483d 63c4 bf3d 04e3 e03c
00000380: 7bae 7a3d a3d7 bab8 d5a3 b43d 758f 963d
00000390: 4e6c 8b3c 205f 453d 4593 57be c382 89bd
000003a0: 4e8f b7bd e27e 48bc a626 2f3e ef40 de3e
000003b0: 53ba 463e 0082 873e 25f3 38bb 51c5 873e
000003c0: 6133 433f 9968 963e 17f8 863e b1b6 f2bd
000003d0: 1e02 79bd d29c 52be 7161 7bbd 7466 79bd
000003e0: 7b83 a43c 62e5 aabd 92eb 0a3d 4e0a 1a3c
000003f0: 2443 bbbd 402e 61bd 5d25 1abe 8fa0 1fbf

gnn_layers.0.bn.weight f4 [128]
0.9532883 0.8972481 0.22041355 -0.24223071 0.89406526 0.7789089 1.3291215 1.1228418
0.07960177 1.3811249 0.26533356 0.7419568 1.5527366 1.280076 0.39335582 1.2164178
0.20576987 0.17511675 0.29229936 0.31582183 1.57994 0.15840267 0.345455 0.7703758
0.8250688 0.34792066 0.27943546 0.38719308 0.30135095 1.2336861 0.8515175 -0.34789175
0.2674661 0.706848 1.11567 0.8164812 0.35309744 1.4345089 0.78093666 1.6040457
0.29481372 0.13439043 0.9909175 0.43966603 0.72365904 0.10184842 0.21929134 0.3801207
1.8418682 0.12079873 0.9533181 1.3375812 0.21097676 0.76532936 0.4416708 0.91387844
0.0036066452 0.8029027 1.2926543 0.44832262 0.9693302 0.25451678 0.20144904 0.13634682
0.53104085 0.8453868 0.6932501 0.7235031 1.3121412 1.4648706 1.176715 0.18767859
1.4667346 -0.2905415 1.3030195 -0.17077112 1.0796556 1.1783513 1.3070636 1.4412755
0.13708232 1.5493039 0.97392386 0.8414903 0.98713934 0.2324663 0.08960505 1.6153646
0.19739711 0.24185729 0.39758855 1.1308546 0.32234454 0.27009082 -0.20922403 0.41390055
0.22403939 0.7769695 1.1263814 0.045991126 -0.0042413566 0.15172987 1.4279935 0.172627
0.3022845 0.97671527 0.46546552 -0.13547918 0.6344906 0.16877289 1.2560523 0.72929895
-0.21013212 0.20836648 0.37863663 1.3871447 0.2025374 0.52826303 -0.15054315 1.4344265
0.48092514 1.6462061 1.4406521 0.23116048 0.82057 0.485339 0.16167304 1.2061923
00000000: b40a 743f 0db2 653f 17b4 613e 540b 78be
00000010: 76e1 643f 9366 473f a720 aa3f 48b9 8f3f
00000020: 4106 a33d b3c8 b03f cdd9 873e e1f0 3d3f
00000030: 13c0 c63f 88d9 a33f ef65 c93e 94b3 9b3f
00000040: 56b5 523e ce51 333e 43a8 953e 66b3 a13e
00000050: 793b ca3f 4f34 223e 7adf b03e 5937 453f
00000060: b537 533f a822 b23e 2a12 8f3e 2c3e c63e
00000070: ac4a 9a3e 6de9 9d3f 0dfd 593f de1e b2be
00000080: 51f1 883e fef3 343f 46ce 8e3f e904 513f
00000090: 30c9 b43e fd9d b73f 77eb 473f 5f51 cd3f
000000a0: d3f1 963e a59d 093e c5ac 7d3f e81b e13e
000000b0: b841 393f e895 d03d e98d 603e 2e9f c23e
000000c0: 56c2 eb3f 5365 f73d a80c 743f dc35 ab3f
000000d0: 4b0a 583e a0ec 433f ad22 e23e f0f3 693f
000000e0: 775d 6c3b 088b 4d3f b275 a53f 8b8a e53e
000000f0: 0626 783f 0650 823e a848 4e3e 809e 0b3e
00000100: 4bf2 073f 456b 583f d778 313f 8037 393f
00000110: 3ef4 a73f e180 bb3f 999e 963f d12e 403e
00000120: f6bd bb3f dbc1 94be 58c9 a63f a0de 2ebe
00000130: 2832 8a3f 37d4 963f dc4d a73f b77b b83f
00000140: 4f5f 0c3e 974f c63f 1353 793f e96b 573f
00000150: 2ab5 7c3f a50b 6e3e da82 b73d 44c4 ce3f
00000160: 7822 4a3e 70a9 773e ba90 cb3e d8bf 903f
00000170: 580a a53e 5849 8a3e d33e 56be c6ea d33e
00000180: 956a 653e 79e7 463f 442d 903f 3161 3c3d
00000190: 14fb 8abb 135f 1b3e 7ec8 b63f 22c5 303e
000001a0: 09c5 9a3e 030a 7a3f 7f51 ee3e 0ebb 0abe
000001b0: fa6d 223f cdd2 2c3e 52c6 a03f 56b3 3a3f
000001c0: e02c 57be 065e 553e a9dc c13e f58d b13f
000001d0: f765 4f3e 3f3c 073f fc27 1abe 4a9b b73f
000001e0: d23b f63e e2b6 d23f 4a67 b83f 55b5 6c3e
000001f0: e010 523f 5a7e f83e 9e8d 253e 8264 9a3f

gnn_layers.0.bn.bias f4 [128]
-0.2873028 0.3648278 0.6748796 1.0685729 0.37871137 0.35989872 -0.2666991 -0.20887467
0.9842712 -0.36966974 0.8345102 0.49887282 -0.06628177 -0.3312514 0.5348189 -0.29571748
0.92635953 1.0337024 0.8693569 0.8445719 -0.43477136 1.0449144 0.6880254 0.54460216
0.433368 0.64058536 0.7986816 0.67470205 0.8500395 -0.35373986 -0.13437761 0.8349649
0.63579106 -0.39403647 -0.15171675 0.40064234 0.78925 -0.2519595 -0.3660659 -0.5686198
0.814796 1.1198258 0.0881397 0.79722416 0.33402652 1.3937707 0.97913724 0.6831134
-0.6196112 1.0782139 -0.2549509 -0.40019152 0.89791435 0.3354734 0.6794011 0.32117075
-0.5089959 0.44241643 -0.2833149 0.6962289 -0.28703475 1.1503695 0.93921596 1.1195669
0.61192274 0.4002886 0.3060524 0.22129644 -0.4550782 -0.36688304 0.03910731 0.90372294
-0.3692774 1.2025269 -0.34144825 1.1901264 -0.14752987 -0.34248114 -0.3255956 -0.4482902
1.0315686 -0.5121043 -0.24387088 0.2566508 -0.22969073 0.9717738 0.99277294 -0.5519647
0.8675039 0.69303095 0.7399279 0.14518692 0.6952302 0.87480354 0.9964496 1.5678611
0.9503072 0.31630042 -0.27879012 0.7337539 1.3137681 1.0851406 -0.14733885 1.0791191
0.7773148 0.40777016 0.47428793 1.0579506 0.4096766 0.9565222 -0.37295726 0.36866897
1.1329887 0.9906444 0.6893934 -0.37892598 0.87050605 0.29318014 1.4196638 -0.41815385
0.7191457 0.18670256 -0.43224773 0.950383 -0.23169808 0.60931474 1.0957552 -0.2089315
00000000: 5a19 93be b6ca ba3e e9c4 2c3f ffc6 883f
00000010: 75e6 c13e a544 b83e c98c 88be 3ee3 55be
00000020: 33f9 7b3f 5a45 bdbe 76a2 553f 426c ff3e
00000030: bdbe 87bd c999 a9be e4e9 083f 4868 97be
00000040: e625 6d3f 5c50 843f 2c8e 5e3f dd35 583f
00000050: 5a9a debe c1bf 853f 6f22 303f 0c6b 0b3f
00000060: 69e2 dd3e 67fd 233f 6676 4c3f 46b9 2c3f
00000070: 309c 593f 641d b5be 499a 09be 42c0 553f
00000080: 34c3 223f 26bf c9be a35b 1bbe fe20 cd3e
00000090: 4a0c 4a3f d600 81be fd6c bbbe 1191 11bf
000000a0: 7896 503f 7456 8f3f 9682 b43d e216 4c3f
000000b0: 8605 ab3e 1467 b23f bda8 7a3f 85e0 2e3f
000000c0: d79e 1ebf ea02 8a3f ed88 82be e7e5 ccbe
000000d0: b7dd 653f 2bc3 ab3e 3bed 2d3f 7e70 a43e
000000e0: 8e4d 02bf 6884 e23e a70e 91be 0f3c 323f
000000f0: 38f6 92be 4f3f 933f 7570 703f f84d 8f3f
00000100: f8a6 1c3f a1f2 cc3e e6b2 9c3e 899b 623e
00000110: 0300 e9be 18d8 bbbe fd2e 203d 635a 673f
00000120: ed11 bdbe 67ec 993f 4ed2 aebe 1056 983f
00000130: 1212 17be b059 afbe 77b4 a6be 4b86 e5be
00000140: 710a 843f 4419 03bf 4ab9 79be bc67 833e
00000150: 0c34 6bbe 2bc6 783f 5e26 7e3f 8f4d 0dbf
00000160: bc14 5e3f 7a6a 313f ea6b 3d3f e1ab 143e
00000170: 9bfa 313f 20f3 5f3f 5217 7f3f acaf c83f
00000180: 5547 733f 21f2 a13e 94bd 8ebe 4cd7 3b3f
00000190: 8e29 a83f e3e5 8a3f ffdf 16be 9320 8a3f
000001a0: 1afe 463f 40c7 d03e ded5 f23e ed6a 873f
000001b0: 22c1 d13e a4de 743f 41f4 bebe 2ec2 bc3e
000001c0: c605 913f df9a 7d3f 167c 303f 9602 c2be
000001d0: 7cd9 5e3f b51b 963e 8bb7 b53f 4318 d6be
000001e0: ef19 383f f52e 3f3e 934f ddbe 4d4c 733f
000001f0: 4342 6dbe 0dfc 1b3f b541 8c3f 24f2 55be

gnn_layers.0.bn.running_mean f4 [128]
-0.39999157 0.0046653817 0.00021344474 0.0014402823 5.3765645 1.344847 -2.626478 -5.165957
0.00078966055 -3.495272 0.002062872 -3.7112753 0.013474743 7.322533 2.1344252 -9.182764
-0.0021993602 -0.00033383432 0.00048412944 -0.00071875105 -0.013047504 -0.00047183406 6.578303e-05 -2.6412508
-2.955267 1.8749105 -0.0017603355 -0.00012765544 -0.001006958 10.774915 0.007828712 0.00066031946
-0.0009085951 0.005659685 -4.613202 -0.0034868675 -0.36464915 -8.716295 -0.06684504 1.6102518
-0.0006927032 0.0008602148 0.008875103 -0.0003036533 -0.010325162 -0.0009113891 -0.00078593445 -0.00093620556
0.23407882 0.0006282825 0.0061162994 8.327502 -0.00033597296 -1.3059565 -0.28067037 -0.0013135877
0.00845613 -0.6630462 8.908018 -1.4801497 -3.6168904 -0.0006488403 -0.0011192792 -0.04777226
-1.0701706 0.007280733 -0.0075164423 1.8242099 -5.820494 -5.528739 0.0005325668 -0.0014960538
2.3073099 0.00032662475 8.423107 0.10528873 0.0071763243 6.807366 0.00035082447 9.717085
-0.0015701287 -4.333074 3.0582945 0.017584398 0.6430755 0.00015782978 -8.6556036e-05 4.4386997
6.664052e-05 0.74970955 1.8096988 -0.0014064567 -0.001253293 2.8588991e-05 0.0010978479 -0.00015366756
0.0007316938 -8.005001 0.7111697 0.016573003 0.00428336 0.0016230809 1.3280741 -0.0017944879
6.5602e-05 3.0838687 0.0008713304 -0.0029883473 -0.0025757416 0.0006894525 8.542636 0.004357901
0.0004281486 -0.0025782017 0.0003038928 6.4577804 -2.5885923 0.75118816 -0.0017153989 -9.186103
-0.00073612784 -0.02718327 -8.203596 -0.00010628745 -0.0027185257 -2.2405922 0.00017073254 -3.5901725
00000000: b2cb ccbe 0fe0 983b 23d0 5f39 dbc7 bc3a
00000010: d10c ac40 f223 ac3f 3718 28c0 854f a5c0
00000020: 3901 4f3a 89b2 5fc0 4031 073b 8985 6dc0
00000030: 2bc5 5c3c 3152 ea40 6c9a 0840 9aec 12c1
00000040: 2423 10bb 7c06 afb9 c1d2 fd39 916a 3cba
00000050: 33c5 55bc 7f60 f7b9 fff4 8938 410a 29c0
00000060: 1823 3dc0 11fd ef3f 0fbb e6ba 3fdb 05b9
00000070: e7fb 83ba 0d66 2c41 0044 003c 4a19 2d3a
00000080: c92e 6eba e174 b93b 5a9f 93c0 ee83 64bb
00000090: 4bb3 babe f275 0bc1 0de6 88bd bb1c ce3f
000000a0: 8696 35ba 0a80 613a e168 113c a833 9fb9
000000b0: de2a 29bc 4aea 6eba 2b07 4eba b16b 75ba
000000c0: 5cb2 6f3e 53b3 243a 3d6b c83b 733d 0541
000000d0: 8725 b0b9 9529 a7bf 07b4 8fbe b02c acba
000000e0: 948b 0a3c 65bd 29bf 3e87 0e41 8c75 bdbf
000000f0: 227b 67c0 ef16 2aba c7b4 92ba d8ac 43bd
00000100: 5afb 88bf 3793 ee3b 7d4c f6bb b67f e93f
00000110: 7d41 bac0 6eeb b0c0 f49b 0b3a 3c17 c4ba
00000120: f7aa 1340 d53e ab39 0cc5 0641 9ea1 d73d
00000130: 5f27 eb3b f1d5 d940 ddee b739 2e79 1b41
00000140: c7cc cdba 8ba8 8ac0 19bb 4340 280d 903c
00000150: 99a0 243f 1c7f 2539 6b85 b5b8 d409 8e40
00000160: 5bc1 8b38 f7ec 3f3f 36a4 e73f db58 b8ba
00000170: 8945 a4ba 64d2 ef37 aae5 8f3a d221 21b9
00000180: 24cf 3f3a 7c14 00c1 380f 363f 1bc4 873c
00000190: 6e5b 8c3b 8fbd d43a 55fe a93f 0635 ebba
000001a0: ce93 8938 1b5e 4540 fe69 643a 26d8 43bb
000001b0: c6cd 28bb 60bc 343a a3ae 0841 b9cc 8e3b
000001c0: 2279 e039 0cf7 28bb cd53 9f39 23a6 ce40
000001d0: 7fab 25c0 de4d 403f 3cd7 e0ba 47fa 12c1
000001e0: b4f8 40ba 73af debc ee41 03c1 a4e6 deb8
000001f0: 4b29 32bb dd65 0fc0 ab06 3339 63c5 65c0
