model_normal/gdn_smap_w_5_epoch50.pth (torch, 18799 bytes, 16 tensors)

embedding.weight f4 [25, 64]
0	0xbdf06fa8	-0.11740047
1	0x3e06057c	0.1308803
2	0x3ddd4a31	0.108051665
3	0x3ddb21ab	0.10699781
4	0xbd5b59fc	-0.053552613
5	0xbee995a7	-0.45621988
6	0x3dcfb1bc	0.10141322
7	0xbea77e82	-0.32713705
8	0x3e3b5c73	0.18296985
9	0xbcc52ab7	-0.02406822
10	0xbe90a941	-0.2825413
11	0x3e947d6a	0.29001933
12	0xbe605238	-0.21906364
13	0x3e0b1960	0.13583899
14	0xbe6316ba	-0.22176638
15	0xbed522c7	-0.41628096
16	0x3e0d66e3	0.1380878
17	0xbe0322a5	-0.12806185
18	0x3dcb36b1	0.09922541
19	0x3e0d763f	0.13814639
20	0x3daca2fc	0.08429524
21	0xbeb8443f	-0.35989568
22	0x3d175c50	0.03695327
23	0x3e65dd2a	0.22447649
24	0x3dc59595	0.09647671
25	0x3e70dc61	0.23521568
26	0x3e2d108f	0.16900848
27	0x3e193bbf	0.14964198
28	0x3de67f64	0.112547666
29	0xbedb01b3	-0.42774734
30	0xbe7c1df5	-0.24620803
31	0x3d841264	0.0644882
32	0x3dd62a0a	0.10457237
33	0x3d907d4f	0.07055151
34	0x3dc4351c	0.09580442
35	0xbdf5c48b	-0.12000378
36	0x3e173eda	0.1477007
37	0x3e7b5b78	0.24546611
38	0xbda43233	-0.08017387
39	0xbda1e90d	-0.07905779
40	0xbecf7eff	-0.40526578
41	0x3dfc3797	0.123152904
42	0xbe600ff9	-0.21881093
43	0xbd908ae5	-0.07057742
44	0xbdc72ec0	-0.09725714
45	0xbe61b23d	-0.22040649
46	0xbe0aa44a	-0.13539234
47	0xbea3d382	-0.31997305
48	0x3ed9f500	0.42569733
49	0xbddadec5	-0.10687021
50	0x3dbab066	0.091156766
51	0xbe0bc983	-0.1365109
52	0xbdd8ab16	-0.10579507
53	0xbed36339	-0.41286638
54	0x3d62190e	0.055199675
55	0xbe6b86c8	-0.23000634
56	0xbe103a6c	-0.14084786
57	0xbecec9af	-0.40388247
58	0xbee06632	-0.4382797
59	0xbf0aa9c2	-0.5416528
60	0xbed47a1c	-0.41499412
61	0xbd521322	-0.051287778
62	0xbeda4c64	-0.42636406
63	0xbd462aa1	-0.048380498
64	0xbedb21da	-0.42799264
65	0xbcfb2eb2	-0.030661914
66	0xbdaf6261	-0.08563686
67	0xbe987aeb	-0.2978128
68	0x3da3bada	0.079946235
69	0xbf7f40b7	-0.9970812
70	0xbccc5c14	-0.02494625
71	0x3d88d2ef	0.066808574
72	0xbe86e5e8	-0.2634728
73	0xbdeb6499	-0.11493797
74	0xbf8d49d5	-1.1038157
75	0xbef25020	-0.47326756
76	0x3c726e67	0.01479683
77	0xbc3264fc	-0.010888334
78	0xbed0d99f	-0.40791032
79	0x3e6cf187	0.2313901
80	0xbd4f78a3	-0.050652158
81	0xbf0290e9	-0.51002365
82	0xbe6ea0d4	-0.23303539
83	0xbe1bddd5	-0.15221341
84	0xbbca13a4	-0.006166892
85	0x3e78307f	0.2423725
86	0x3cf8280a	0.03029253
87	0x3b4e524d	0.003148216
88	0xbeddc8db	-0.43317303
89	0x3de16f00	0.110075
90	0xbc1f5a28	-0.009726085
91	0xbdb04970	-0.08607757
92	0xbcea67d0	-0.028613955
93	0xbe1bb3ba	-0.15205279
94	0xbd677adc	-0.056513652
95	0x3e34c0ff	0.17651747
96	0x3e0c5792	0.1370528
97	0xbbbadee0	-0.0057028383
98	0xbebbd43e	-0.36685365
99	0xbc5eaa10	-0.013590351
100	0xbd1e0530	-0.038579166
101	0xbc2e724c	-0.010647368
102	0xbe724742	-0.23659995
103	0xbe18e088	-0.14929402
104	0xbf9f4b36	-1.2444828
105	0xbe63c083	-0.22241406
106	0xbf37c99c	-0.71792006
107	0x3b0605f6	0.002045033
108	0xbdc27d6f	-0.09496581
109	0xbe83382a	-0.25628787
110	0xbeb7ee59	-0.35924032
111	0xbeea7060	-0.4578886
112	0x3d53e865	0.0517353
113	0xbe76e8dc	-0.24112266
114	0xbd4b8238	-0.049684733
115	0xbe147008	-0.14495862
116	0xbf0b2284	-0.5434954
117	0xbe497801	-0.19674684
118	0xbbe03a15	-0.0068428614
119	0xbf90b2ae	-1.1304529
120	0xbf277f90	-0.6542902
121	0xbf320d9b	-0.6955201
122	0xbf1b7462	-0.6072446
123	0xbf3601c6	-0.71096456
124	0xbf090661	-0.5352536
125	0xbc85ac65	-0.016317556
126	0xbe5a7584	-0.21333891
127	0x3e029738	0.12752998
128	0x3d7dcfa2	0.061965592
129	0xbc3188c6	-0.010835832
130	0xbf13b918	-0.57704306
131	0xbe856f92	-0.26061684
132	0xbf04a703	-0.5181734
133	0xba0f5d61	-0.00054689316
134	0xbeae2b33	-0.34017333
135	0xbdc3f8bc	-0.09568927
136	0x3ad1056d	0.0015947052
137	0xbdb06021	-0.08612085
138	0xbcc92844	-0.024555333
139	0x3cdafe23	0.02673251
140	0xbd2dedde	-0.042463176
141	0xbbd2c9eb	-0.006432762
142	0xbc7b5bd5	-0.015341719
143	0xbdc1657c	-0.09443185
144	0xbe56998f	-0.20957015
145	0x3b9648de	0.004586323
146	0x3b7eb854	0.0038867192
147	0xbd68f993	-0.056878638
148	0xbc92e740	-0.017932534
149	0xbe25a111	-0.16174723
150	0x3dc71716	0.097212
151	0x3bea25e0	0.0071456283
152	0xbbb9da14	-0.005671749
153	0x3c5f2aa6	0.013621008
154	0xbc6b463c	-0.014360007
155	0xbda49b65	-0.08037452
156	0xbc37f04f	-0.011226728
157	0xbc0f2222	-0.008736165
158	0xbdb01edc	-0.08599636
159	0x3c7d18c4	0.015447799
160	0x3b50577c	0.0031790426
161	0x3c9014d7	0.017588062
162	0x3b2660d9	0.0025387316
163	0xbddb4fde	-0.10708593
164	0xbeed1d61	-0.46311477
165	0xbc798296	-0.015228888
166	0xbefbd2aa	-0.4918416
167	0xbc1030d8	-0.008800708
168	0x3cb09d96	0.021559518
169	0xbe19d3b5	-0.15022166
170	0x3ecec7db	0.40386853
171	0xbf3d99f8	-0.7406306
172	0xbea6cee5	-0.32579723
173	0xbcf1eb99	-0.029531287
174	0xbee87f2c	-0.45409524
175	0x3e12fbc2	0.1435385
176	0xbc91861d	-0.017764146
177	0xbed4ec4d	-0.41586533
178	0xbef0f54e	-0.47062153
179	0xbd508d33	-0.050915908
180	0xbe56d30c	-0.20978945
181	0xbbef9d5a	-0.007312459
182	0xbdefcc4d	-0.11708889
183	0xbe19ce9e	-0.15020224
184	0xbe3ad50e	-0.18245336
185	0xba8446d9	-0.0010091915
186	0x3ae4acab	0.0017446479
187	0x3c9eb8bd	0.0193752
188	0x3cece9b0	0.028920025
189	0xbf207337	-0.62675804
190	0xbdc4cef0	-0.09609783
191	0xbebd3774	-0.3695637
192	0xbe8f4414	-0.27981627
193	0xbc2d2f91	-0.010570423
194	0xbd96e2ed	-0.073675014
195	0xbe225f4d	-0.15856667
196	0x3d21f3e4	0.039539233
197	0x3eea7d64	0.4579879
198	0xbd957f02	-0.072996154
199	0x3d14a837	0.036293235
200	0xbe6e3e80	-0.2326603
201	0xbd81b424	-0.06333187
202	0xbf4c0967	-0.79701847
203	0xbe246642	-0.16054633
204	0xbc82b620	-0.015955985
205	0x3c49358c	0.012280833
206	0xbe1a7c45	-0.15086468
207	0x3e34a12b	0.17639606
208	0xbd08c7d0	-0.03339368
209	0xbd8f0233	-0.06982841
210	0xbdb6fe3e	-0.089352116
211	0xbd9bda75	-0.07610027
212	0xbf030b17	-0.51188797
213	0x3e6a7d89	0.2289945
214	0x3d497348	0.049182206
215	0x3ca9a0ea	0.020706613
216	0xbf246098	-0.6420989
217	0x3de14cf7	0.11001008
218	0xbbb34df1	-0.005471938
219	0xbdb9f14e	-0.09079228
220	0xbc1b726f	-0.009487732
221	0xbddb94d3	-0.10721745
222	0xbdb0ee2a	-0.08639176
223	0xbef66193	-0.48121318
224	0xbee093a7	-0.4386265
225	0x3c8ff89f	0.017574606
226	0xbecc8e32	-0.39952236
227	0xbce1399f	-0.027493296
228	0xbd6c6cd5	-0.057720978
229	0x3cbfb2e1	0.023400726
230	0x3ce1696f	0.027516095
231	0xbd9e73ac	-0.077369064
232	0xbf0c5b1d	-0.5482653
233	0xbe394c12	-0.18095425
234	0xbf1c15ad	-0.60970575
235	0xbe215c9b	-0.15757982
236	0xbdc1b10e	-0.094575986
237	0xbe0e622f	-0.13904642
238	0xbf1956b1	-0.59897906
239	0xbeb1d918	-0.34735942
240	0x3dcfaf1a	0.1014082
241	0xbe793ffa	-0.24340811
242	0xbde07cb2	-0.10961284
243	0xbda1330a	-0.07871063
244	0xbea03d28	-0.3129666
245	0xbecac568	-0.39603734
246	0xbc704f38	-0.014667325
247	0xbf2af939	-0.66786534
248	0xbf04a316	-0.5181135
249	0xbecf6518	-0.40506816
250	0xbe276702	-0.16347888
251	0xbf026caf	-0.5094709
252	0xbf4ee9f3	-0.8082573
253	0xbc486ad5	-0.012232502
254	0xbeded3e6	-0.4352104
255	0x3e1cf956	0.15329489

bn_outlayer_in.weight f4 [64]
0	0x3f2607f9	0.64855915
1	0x3f367885	0.7127765
2	0x3f41f1eb	0.7575976
3	0x3f44dc09	0.76898247
4	0x3f305986	0.688866
5	0x3f31c09c	0.69434524
6	0x3f4ae95a	0.79262316
7	0x3f504b53	0.81364936
8	0x3f3ff2a4	0.74979615
9	0x3f3863ce	0.7202729
10	0x3f107ce7	0.56440586
11	0x3f37482c	0.715945
12	0x3f253716	0.6453718
13	0x3f2e4aea	0.6808306
14	0x3f2d7229	0.6775232
15	0x3eeca839	0.46222094
16	0x3f4af70d	0.7928322
17	0x3f245b67	0.6420197
18	0x3f3ea228	0.7446618
19	0x3f3cb233	0.7370941
20	0x3f395a94	0.72403836
21	0x3f4aaeac	0.7917278
22	0x3ec0d5d5	0.3766314
23	0x3f2a5bb1	0.6654616
24	0x3f23be65	0.63962394
25	0x3f4a0b9f	0.7892398
26	0x3ecc9c41	0.39962962
27	0x3f21274c	0.6295059
28	0x3f2f6011	0.6850596
29	0x3f412678	0.75449324
30	0x3f4510dd	0.76978856
31	0x3f09a6e1	0.5377026
32	0x3f2c81ab	0.6738536
33	0x3ee35a0b	0.44404635
34	0x3f328b7a	0.69744074
35	0x3f4b43b1	0.79400164
36	0x3f3f6de6	0.74777067
37	0x3f2d56ef	0.67710775
38	0x3f2b9333	0.67021483
39	0x3f224103	0.6338045
40	0x3f3b83b8	0.7324786
41	0x3f3e8674	0.7442391
42	0x3e5279de	0.20554301
43	0x3f1ee4f6	0.62068117
44	0x3f341493	0.70343894
45	0x3f22d9ce	0.63613594
46	0x3f302aa4	0.68815064
47	0x3eeadc3d	0.45871153
48	0x3f029119	0.5100265
49	0x3f1d1df1	0.6137381
50	0x3f573aef	0.840743
51	0x3f480419	0.7813125
52	0x3f530b51	0.8243914
53	0x3f485b5b	0.782644
54	0x3f1e5bd7	0.61858886
55	0x3f0fe030	0.5620146
56	0x3f09317f	0.5359115
57	0x3f414794	0.75499845
58	0x3f4adc12	0.7924205
59	0x3f032d8c	0.51241374
60	0x3f0c390d	0.5477455
61	0x3f552c57	0.8327078
62	0x3f3eb26e	0.7449101
63	0x3f3aff40	0.7304573

bn_outlayer_in.bias f4 [64]
0	0xbc8e3565	-0.017359445
1	0xbef85b36	-0.48507088
2	0xbf0a51f8	-0.54031324
3	0xbf2bc4fe	-0.6709746
4	0xbe7f1e35	-0.24913867
5	0xbc3b5112	-0.011432903
6	0xbf1273c7	-0.5720791
7	0xbebc218a	-0.36744338
8	0xbf024a5a	-0.508947
9	0xbf213d40	-0.62984085
10	0xbdae771f	-0.08518814
11	0xbf08bdfc	-0.53414893
12	0xbe5d3d61	-0.21605445
13	0xbebbf4c0	-0.36710167
14	0xbc6369a8	-0.013880171
15	0xbeff242a	-0.49832278
16	0xbf025616	-0.50912607
17	0xbed8a5c4	-0.4231397
18	0xbebb5ec1	-0.3659573
19	0xbf10dd25	-0.5658744
20	0xbefe40d5	-0.49658838
21	0xbe11939f	-0.14216469
22	0xbf017447	-0.5056805
23	0xbeb8c507	-0.3608782
24	0xbe9f00bc	-0.31055248
25	0xbf58ba80	-0.84659576
26	0x3d791b26	0.060816906
27	0xbf023dda	-0.5087563
28	0xbeb02d08	-0.34409356
29	0xbe209939	-0.1568345
30	0xbd5e0bdd	-0.054210532
31	0xbf526d35	-0.82197887
32	0xbec44e6b	-0.38341078
33	0xbeeba295	-0.46022478
34	0xbea2a870	-0.31769133
35	0xbc6f225c	-0.014595594
36	0xbf0a0d51	-0.5392657
37	0xbeb6c857	-0.35699722
38	0xbeaa3b9d	-0.33248606
39	0xba923cf7	-0.0011157085
40	0xbebe520e	-0.37171978
41	0xbf231abb	-0.6371266
42	0xbedeb983	-0.4350091
43	0xbea7f711	-0.32805684
44	0xbf26cc5d	-0.65155584
45	0x3d15096f	0.03638595
46	0xbe2f5afa	-0.17124549
47	0xbf1755db	-0.5911538
48	0xbe962f6a	-0.2933305
49	0xbf42d22c	-0.76101947
50	0xbf25e587	-0.64803356
51	0xbdd96ed4	-0.10616842
52	0xbdc5fbca	-0.096671656
53	0xbe99aee2	-0.30016237
54	0xbc441f6f	-0.011970385
55	0x3cd75edd	0.026290352
56	0xbf03b003	-0.5144045
57	0xbe8c55d1	-0.27409223
58	0xbe24d23b	-0.16095822
59	0xbe948b52	-0.29012543
60	0xbedc17fb	-0.42987046
61	0xbd759d17	-0.059964266
62	0xbe263520	-0.16231203
63	0xbe0b1fe0	-0.13586378

bn_outlayer_in.running_mean f4 [64]
0	0xbbfb937e	-0.0076774945
1	0xbd8597c3	-0.06523087
2	0xbe083579	-0.13301648
3	0xbce90739	-0.028445827
4	0xbd460b6d	-0.04835074
5	0xbc85d83e	-0.016338464
6	0xbcd02187	-0.025406612
7	0xbb25f4cb	-0.002532291
8	0xbbf0c956	-0.00734822
9	0xbc650d9c	-0.0139802955
10	0xbd519923	-0.051171433
11	0xbdabc52d	-0.08387218
12	0xbce0ae6f	-0.027426926
13	0xbcacbc91	-0.02108601
14	0xbbc09624	-0.005877273
15	0xbabc983a	-0.0014388629
16	0xbd06f00f	-0.03294378
17	0xbd0fe0a0	-0.03512633
18	0xbd3ed606	-0.046590827
19	0xbd044b07	-0.032298114
20	0xbd76d0be	-0.060257666
21	0xbbd529ee	-0.0065052425
22	0x3c87bd37	0.016569717
23	0xbaf2d020	-0.0018525161
24	0xbd27968c	-0.040915057
25	0xbb933c19	-0.004493248
26	0x3c182944	0.009287182
27	0xbd3f83cf	-0.04675656
28	0xbc8e039d	-0.017335707
29	0xbc7e34d2	-0.015515523
30	0xb9b6b8c9	-0.0003485142
31	0x3c8341f3	0.016022658
32	0xbd07f05e	-0.033188216
33	0x39c14185	0.00036860644
34	0xbd3247de	-0.04352557
35	0xb96d6b78	-0.00022642117
36	0xbe432ad8	-0.19059312
37	0xbc3092a7	-0.010777152
38	0xbe2307a3	-0.15920882
39	0xbb05bd9b	-0.0020407203
40	0xbdad700e	-0.08468638
41	0xbcf5c65b	-0.03000181
42	0x3c96f4ea	0.018427331
43	0xb81a8b4e	-3.68462e-05
44	0xbdad700f	-0.08468639
45	0xbc250f30	-0.010074422
46	0xba5f6288	-0.0008521457
47	0x3d06f09f	0.032944318
48	0x3d455424	0.048175946
49	0xbddef9f7	-0.10887521
50	0xbd1059af	-0.03524178
51	0xbadf1a45	-0.0017021379
52	0xb64a8d7b	-3.0182698e-06
53	0xbb5191e5	-0.003197783
54	0xba1e7391	-0.00060444424
55	0xbbdf47f7	-0.006813999
56	0xbe1fff8f	-0.15624832
57	0xbd735e77	-0.05941626
58	0xbbc4c101	-0.006004453
59	0xbbbb642b	-0.005718728
60	0xbd5b3c49	-0.05352429
61	0xbcac7dbb	-0.021056047
62	0xbc698104	-0.014251951
63	0xba58721c	-0.000825675

bn_outlayer_in.running_var f4 [64]
0	0x3b1d059e	0.0023959647
1	0x3cff1ecd	0.031142617
2	0x3d11abaa	0.035564102
3	0x3ac4c60a	0.0015012634
4	0x3c35ae76	0.011088958
5	0x3c2b1054	0.010440905
6	0x3acf8a6b	0.0015834098
7	0x39e0e35e	0.0004289401
8	0x3a758bfa	0.00093668664
9	0x3b89889b	0.004197193
10	0x3d1942f9	0.037417386
11	0x3c9c1d00	0.019056797
12	0x3b4e99a0	0.0031524673
13	0x3ca6577a	0.020305384
14	0x3aab5fa0	0.0013074763
15	0x3b87ca80	0.004144013
16	0x3b6ac72b	0.003582428
17	0x3c6c5e1c	0.014426734
18	0x3cc38878	0.023868784
19	0x3b2b5ef1	0.0026149119
20	0x3c885d78	0.016646132
21	0x3acd9dbc	0.0015687267
22	0x3c6f01a5	0.014587794
23	0x3ae70661	0.0017625802
24	0x3c883454	0.016626514
25	0x3b093cb0	0.0020940714
26	0x3b5d4009	0.0033760092
27	0x3b97dcd9	0.0046344814
28	0x3c55511a	0.013019824
29	0x3c099a49	0.008398601
30	0x38d7fff9	0.000102996775
31	0x3cd6fde3	0.02624411
32	0x3c96290e	0.018330123
33	0x38151474	3.5543417e-05
34	0x3ca133f8	0.019678101
35	0x38a0fe75	7.676791e-05
36	0x3dcd52b4	0.1002554
37	0x3b8126a3	0.0039413734
38	0x3d46906d	0.04847758
39	0x3991a891	0.00027782147
40	0x3d896148	0.06708008
41	0x3ae84692	0.0017721227
42	0x3d872318	0.065984905
43	0x351fff98	5.9604054e-07
44	0x3b11c626	0.002224335
45	0x3b88850b	0.0041662506
46	0x386b7f14	5.6146717e-05
47	0x3c66ca19	0.01408627
48	0x3d859025	0.06521634
49	0x3b580e62	0.0032967557
50	0x3b29dacd	0.002591777
51	0x3a418267	0.0007381797
52	0x340687f2	1.2529179e-07
53	0x3a8d1197	0.0010762688
54	0x3a641b67	0.0008701593
55	0x3b0fa8a2	0.0021920581
56	0x3c0367b7	0.008020333
57	0x3d01f134	0.03172417
58	0x3ae43ae2	0.0017412568
59	0x3b2b6179	0.0026150628
60	0x3d7384fa	0.05945299
61	0x3dd4b95b	0.10386916
62	0x3bdcc4a1	0.006737307
63	0x384dd495	4.907379e-05

gnn_layers.0.gnn.att_i f4 [1, 1, 64]
0	0xbd207b7d	-0.039180268
1	0x3f045446	0.5169109
2	0xbecdabe0	-0.40170193
3	0xbf445a2f	-0.7670011
4	0xbf5ac673	-0.8545906
5	0x3f17321a	0.59060824
6	0xbf79747f	-0.97443384
7	0x3f069e92	0.5258571
8	0x3ca08965	0.019596765
9	0xbeb0a538	-0.34501052
10	0x3f0badf3	0.545623
11	0xbe1761fa	-0.14783469
12	0xbf0ee302	-0.55815136
13	0x3ebb576b	0.36590132
14	0x3bdc425b	0.0067217774
15	0xbe27fea0	-0.16405725
16	0xbeedee24	-0.4647075
17	0xbe8a947a	-0.27066404
18	0x3f0d3190	0.5515375
19	0xbe4d881b	-0.20071451
20	0x3dcc287e	0.09968661
21	0x3e5a8ee3	0.2134357
22	0x3ebd2eb9	0.3694971
23	0xbe879761	-0.2648268
24	0x3f5204f7	0.82038826
25	0xbeaa63a7	-0.33279154
26	0x3e91eb0a	0.28499633
27	0xbdb47e13	-0.08813109
28	0x3ea54a09	0.32283047
29	0x3d621320	0.05519402
30	0x3d746d78	0.05967471
31	0x3f29c7d7	0.66320556
32	0xbbb7fa71	-0.0056145717
33	0xbe8ca35a	-0.27468377
34	0x3f6b4a1d	0.9190996
35	0x3dba3197	0.0909149
36	0xbee30aac	-0.4434408
37	0x3ed634b7	0.41837093
38	0xbf43707f	-0.7634353
39	0x3f1a7676	0.6033701
40	0x3ea631fe	0.32460016
41	0xbf736d95	-0.95089084
42	0x3e2a4058	0.16626108
43	0xbf47f2e2	-0.78104985
44	0xbeecf2db	-0.46279034
45	0x3e9feb88	0.31234384
46	0xbf90b15d	-1.1304127
47	0x3dca9b74	0.098929316
48	0x3ea2a4c3	0.31766328
49	0xbf51366b	-0.8172366
50	0xbf6b1c75	-0.91840297
51	0x3e9ceacf	0.30647895
52	0xbebe4c99	-0.37167814
53	0xbdf39b44	-0.11894849
54	0xbe69f509	-0.2284738
55	0x3f08c0b0	0.5341902
56	0xbe8422cb	-0.25807795
57	0x3ef6d7c5	0.48211494
58	0xbd237bb0	-0.03991288
59	0x3e3d727a	0.185007
60	0x3eb25892	0.348332
61	0x3e007af4	0.12546903
62	0x3db88e50	0.09011519
63	0xbede9059	-0.43469504

gnn_layers.0.gnn.att_j f4 [1, 1, 64]
0	0x3d9763f1	0.07392109
1	0xbd4d283a	-0.05008719
2	0xbe75d378	-0.2400645
3	0xbe203ff4	-0.15649396
4	0x3ca74b1d	0.020421559
5	0x3e756977	0.23966013
6	0xbe8c64d4	-0.27420676
7	0x3cd9b725	0.026576588
8	0xbbe2fea5	-0.0069273286
9	0x3da54f8e	0.080718145
10	0xbdb8ad76	-0.0901746
11	0x3d0dd816	0.034629904
12	0xbe041664	-0.12899166
13	0xbdc749e0	-0.097308874
14	0xbc0eaa1a	-0.008707548
15	0xbe6b1079	-0.22955503
16	0xbe831d8b	-0.25608477
17	0xbb0bdafd	-0.0021340244
18	0xbddd8392	-0.10816111
19	0xbe189daf	-0.14903902
20	0x3c5b7fa5	0.013397132
21	0x3e107e45	0.14110668
22	0xbd82af70	-0.06381118
23	0x3e24647e	0.1605396
24	0x3e5db782	0.21652034
25	0x3d94658d	0.07245932
26	0xbe8b496d	-0.27204457
27	0x3e2a4c1d	0.16630597
28	0x3e3a4f83	0.18194394
29	0xbdf6c2b3	-0.12048855
30	0xbec19ee1	-0.37816527
31	0x3dcce7e5	0.10005168
32	0x3dc3fcb3	0.09569683
33	0xbe58b19e	-0.21161506
34	0xbcb405d1	-0.02197543
35	0xbe7b9912	-0.2457011
36	0x3d04d5d9	0.032430504
37	0xbe6ab651	-0.2292111
38	0x3dfcb087	0.123383574
39	0xbdbab3ce	-0.09116326
40	0xbde65e97	-0.1124851
41	0x3e261c44	0.1622172
42	0xbe323792	-0.17404011
43	0xbd86ece7	-0.06588154
44	0xbd516aba	-0.051127173
45	0x3dfb2aed	0.12264047
46	0x3d4d7171	0.050157014
47	0x3d7d19e5	0.061792273
48	0x3cac145c	0.021005802
49	0xbd9b54fd	-0.075845696
50	0xbe1178d3	-0.14206247
51	0xbddf70f4	-0.10910216
52	0x3b83f3fa	0.004026887
53	0x3dfbdd91	0.1229812
54	0xbe3c6002	-0.18395999
55	0x3e2d5ee1	0.16930725
56	0x3dad59ad	0.0846437
57	0x3dfc5332	0.12320556
58	0xbdc9191c	-0.09819242
59	0x3d837e83	0.064206146
60	0x3da05d60	0.0783031
61	0xbd46d5a5	-0.04854359
62	0x3d53215b	0.051545482
63	0xbe7e7687	-0.24849902

gnn_layers.0.gnn.att_em_i f4 [1, 1, 64]
0	0x3f36febe	0.71482456
1	0x3f0166a5	0.5054725
2	0x3e29edf2	0.16594675
3	0x3eb1aac4	0.34700596
4	0x3ef7af92	0.48376137
5	0x3f934a76	1.1507099
6	0xbe54044c	-0.20704764
7	0xbf00672c	-0.5015743
8	0x3f07179a	0.5277039
9	0x3e4bdb96	0.19907984
10	0x3f786856	0.97034204
11	0x3f8831fc	1.0640254
12	0x3e75be8b	0.23998468
13	0x3e311660	0.17293692
14	0x3f5b6f1c	0.85716414
15	0xbf44f0fb	-0.76930207
16	0x3eb3753a	0.35050374
17	0x3f5a9a44	0.8539164
18	0x3f57e3f3	0.843322
19	0x3eb1d1d6	0.34730405
20	0x3f077f6e	0.5292882
21	0x3e495c80	0.19664192
22	0xbf22ef52	-0.63646424
23	0x3e3de813	0.1854556
24	0x3f88250e	1.0636308
25	0x3e5f3722	0.21798375
26	0xbe370cf0	-0.17876029
27	0x3e1e9071	0.15484788
28	0x3e3569e5	0.17716177
29	0x3e3e8b90	0.18607926
30	0xbdc05d31	-0.09392775
31	0xbdcc13c3	-0.09964707
32	0x3f1ddc23	0.61664027
33	0xbcd6ec4a	-0.026235718
34	0x3f91919e	1.1372564
35	0xbd380f6e	-0.04493659
36	0x3dfb61d7	0.12274521
37	0x3ed7fc85	0.42184845
38	0x3ea0f383	0.31435785
39	0x3f8bebe8	1.0931368
40	0x3f9e87ef	1.2385234
41	0x3f195323	0.5989248
42	0x3f4d7d86	0.8026966
43	0x3f18a2ff	0.5962371
44	0x3f124234	0.5713227
45	0x3f518882	0.8184892
46	0x3f8715fc	1.0553584
47	0x3edc8819	0.43072584
48	0xbf2f7c6c	-0.6854923
49	0x3f4b958a	0.79525054
50	0xbef5cc70	-0.48007536
51	0x3f074804	0.5284426
52	0x3f95bd0b	1.1698316
53	0x3e2cab8a	0.16862312
54	0xbf3db9f7	-0.74111885
55	0x3fefcd17	1.8734463
56	0x3f894adf	1.0725974
57	0x3f3846c5	0.71982986
58	0x3f59fcef	0.8515157
59	0x3f799635	0.9749482
60	0x3f654fe1	0.8957501
61	0x3d0a2f67	0.033736613
62	0x3e616c91	0.22014071
63	0x3eb6e678	0.3572271

gnn_layers.0.gnn.att_em_j f4 [1, 1, 64]
0	0x3ed86ac9	0.4226897
1	0x3f348da6	0.7052864
2	0x3fb936c4	1.4469838
3	0x3eff6b4b	0.49886546
4	0x3fa88daa	1.3168232
5	0x3e308ea0	0.17241907
6	0x3f030aee	0.5118855
7	0xbe4873ff	-0.19575499
8	0x3e02b844	0.12765604
9	0x3fa3d19d	1.2798344
10	0xbdc7dd2d	-0.09758983
11	0x3e964525	0.29349628
12	0x3c86f737	0.016475303
13	0x3ddcd9a4	0.10783699
14	0x3e8b71ff	0.2723541
15	0xbe843b4d	-0.25826493
16	0x3f3d8174	0.74025655
17	0xbe127bd9	-0.14305057
18	0x3e388382	0.18018916
19	0x3e9e4e47	0.30919096
20	0x3ee78655	0.45219675
21	0xbeacfe87	-0.3378794
22	0xbf0e91a4	-0.5569098
23	0x3e0d00cd	0.13769837
24	0x3e8847fd	0.26617423
25	0x3ea2c666	0.3179199
26	0xbe2822de	-0.16419551
27	0x3e80ad20	0.25132084
28	0x3d996f3d	0.0749192
29	0xbc977b00	-0.018491268
30	0xbd939ba8	-0.072074234
31	0xbec86a9c	-0.39143836
32	0x3e9b9274	0.30385172
33	0xbeaadbe2	-0.33370882
34	0x3e82e975	0.2556874
35	0x3f83b551	1.0289708
36	0x401a288a	2.4087243
37	0x3ea696b3	0.3253685
38	0x3fc74abb	1.5569681
39	0x3f4f633d	0.810108
40	0xbca36ca3	-0.019949263
41	0x3e89d98e	0.26923794
42	0xbf4687f6	-0.7755121
43	0x3fbb6586	1.4640357
44	0x3e8b61a6	0.27222937
45	0x3dc4d103	0.09610178
46	0x3fd70bd9	1.6800491
47	0xbea08c04	-0.31356823
48	0xbf58d7bd	-0.8470419
49	0x3f04e4ed	0.51911813
50	0x3ed8ebbf	0.4236736
51	0x3f1e64d7	0.6187262
52	0x3f71afa1	0.94408613
53	0xbe5fd06f	-0.21856855
54	0x3cc66403	0.024217611
55	0x3ef4b414	0.4779364
56	0xbea3e934	-0.32013857
57	0x3d721946	0.059106134
58	0x3e9678e1	0.29389098
59	0xbebb3cdc	-0.3656987
60	0xbf0672da	-0.52519
61	0x3ff3229c	1.8994937
62	0xbd953818	-0.0728609
63	0x3d44f4af	0.04808491

gnn_layers.0.gnn.bias f4 [64]
0	0xba839ebc	-0.0010041813
1	0xb9b25421	-0.00034013487
2	0x3b9242fd	0.004463552
3	0xbbfd2488	-0.007725302
4	0xbaebe53e	-0.0017997397
5	0x3a5eabaa	0.0008494208
6	0xbb0d15d8	-0.0021527912
7	0xbc121a7b	-0.008917446
8	0xbc4370cc	-0.011928748
9	0x3c13146e	0.008977039
10	0x3b0dc161	0.0021630155
11	0x3c2acfc9	0.010425516
12	0x3b61e909	0.0034471175
13	0x3c261b01	0.010138274
14	0x3b6c8d34	0.0036094906
15	0x3bb4dc68	0.0055194385
16	0x3b8757fa	0.0041303607
17	0x3b265d91	0.002538536
18	0x3b6ee006	0.0036449446
19	0xbc9ef642	-0.019404534
20	0x3bbfe42d	0.005856058
21	0xbe363fee	-0.17797825
22	0x3c22ad3c	0.009928998
23	0xbbb0d062	-0.005395935
24	0x3bcac917	0.0061885226
25	0xbd424d5d	-0.04743706
26	0xbc8ee2be	-0.017442103
27	0xbc19ced2	-0.009387689
28	0xba9a224e	-0.0011759491
29	0xbb4e3e82	-0.0031470363
30	0xbcf58c8d	-0.029974246
31	0xbb4070d6	-0.002936413
32	0xbc8b813a	-0.017029393
33	0xbd657602	-0.056020744
34	0x3a53b4e3	0.00080759655
35	0xbd20e1ce	-0.039277844
36	0x3c38313f	0.01124221
37	0x3da97956	0.08275096
38	0x3bef5516	0.007303844
39	0xbb8bf872	-0.0042715603
40	0xbb8dba2b	-0.0043251715
41	0x3b833612	0.0040042484
42	0xbadee331	-0.0017004964
43	0xb9d7f6e4	-0.00041191943
44	0xbc26d9ba	-0.010183746
45	0xbc345b05	-0.011008029
46	0x39f23c41	0.0004620273
47	0xb8d7c1e6	-0.00010288115
48	0x3ac64d3f	0.0015129222
49	0xbb37594e	-0.0027976814
50	0x3b195a1f	0.0023399664
51	0xbc588cf4	-0.0132172
52	0xbc4dc59f	-0.012559324
53	0xbc10489c	-0.008806374
54	0xbe0096ea	-0.12557569
55	0xbbda3537	-0.0066591757
56	0x399ba5c2	0.00029687403
57	0xbafe4a96	-0.001940089
58	0xbb006d0f	-0.0019596254
59	0x399df053	0.0003012443
60	0x3b3c5056	0.0028734407
61	0xbc836b26	-0.016042303
62	0x3ba3d2fc	0.0049995165
63	0xbf2f715b	-0.6853234

gnn_layers.0.gnn.lin.weight f4 [64, 5]
0	0xbc166153	-0.009178477
1	0x3a969ffe	0.0011491773
2	0xbda75ea8	-0.08172351
3	0x3e95658c	0.29179037
4	0xbb976554	-0.0046202336
5	0x399a4ac7	0.00029428882
6	0xbd4a4233	-0.04937954
7	0xbd97b15e	-0.07406877
8	0x3dd3ee09	0.10348136
9	0x3f0ed4e8	0.5579362
10	0xbd28d0a6	-0.041214608
11	0xbcafa20b	-0.021439573
12	0xbe564c89	-0.20927633
13	0xbec48066	-0.3837921
14	0xbdb1c5c8	-0.08680302
15	0xbd00c8dd	-0.03144156
16	0xbd2fc9ff	-0.042917248
17	0x3c94613b	0.01811277
18	0x3d5402da	0.051760532
19	0xbf2d4e09	-0.676972
20	0x3dad553c	0.08463523
21	0xbdde3af4	-0.10851088
22	0xbee59444	-0.4483968
23	0xbeca1ce9	-0.39475182
24	0xbee1bb8d	-0.44088402
25	0xbe90d6ee	-0.28288978
26	0xbe211c0b	-0.15733354
27	0x3e36b54b	0.17842595
28	0x3e7a77fc	0.24459833
29	0x3df1abaf	0.11800324
30	0xbd55b524	-0.052174702
31	0xbe41b2fb	-0.18915932
32	0xbde78aa4	-0.113057405
33	0xbead45b9	-0.33842257
34	0xbef05aab	-0.46944174
35	0xbe3c236d	-0.18372889
36	0xbe05dc9b	-0.13072436
37	0x3e6e8edb	0.23296683
38	0xbd8dd356	-0.06925075
39	0x3ed5792b	0.41694006
40	0xbd84b998	-0.06480712
41	0x3cd0adbb	0.025473466
42	0xbdae9ac4	-0.08525613
43	0x3e3f9717	0.1870998
44	0xbf03b0be	-0.5144156
45	0xbc806e37	-0.015677555
46	0x3d7213ed	0.059101034
47	0xbe5515d7	-0.20809112
48	0xbea8a5a5	-0.32938877
49	0x3e2091e7	0.15680657
50	0xbe916b7e	-0.28402323
51	0xbe639e91	-0.22228457
52	0x3e3123a6	0.17298755
53	0x3ea3240b	0.31863436
54	0x3e44f3eb	0.19233672
55	0x3da3a679	0.079907365
56	0x3e937b0d	0.28804818
57	0xbead53fa	-0.33853132
58	0xbea48375	-0.32131544
59	0x3e198578	0.1499232
60	0x3cc80b9b	0.024419596
61	0xbe305a9c	-0.17222065
62	0xbe924f6d	-0.28576222
63	0xbe89be18	-0.26902843
64	0xbe454f96	-0.19268641
65	0xbc39ccad	-0.011340302
66	0xbdc67ab6	-0.09691374
67	0xbda703ff	-0.08155059
68	0x3d8428fc	0.0645313
69	0x3f17d9f9	0.59316975
70	0xbe76936c	-0.24079674
71	0x3e2738b7	0.16330229
72	0x3ea66b61	0.325038
73	0xbd75a52f	-0.059971984
74	0x3e0cd528	0.13753188
75	0xbe732308	-0.23743832
76	0x3cd61478	0.026132807
77	0x3eccc14a	0.39991218
78	0x3bee4d13	0.0072723716
79	0xbe876895	-0.26446977
80	0xbe772cd4	-0.24138194
81	0x3e8ff0f7	0.2811353
82	0xbdfff886	-0.12498574
83	0x3dd90ee8	0.10598546
84	0xbec367fe	-0.38165277
85	0x3cc19ca0	0.023634255
86	0xbd4380ee	-0.04773038
87	0xbdd0b5ee	-0.1019095
88	0xbe77c900	-0.24197769
89	0x3e8d7505	0.2762834
90	0x3dab7fc4	0.08373979
91	0x3db8e68a	0.09028347
92	0xbcd3af3e	-0.025840398
93	0x3dfe98ec	0.12431511
94	0x3f07d9df	0.5306682
95	0xbe2e0e86	-0.16997728
96	0x3d0c3cc6	0.034237646
97	0x3e756f69	0.23968281
98	0xbea4c055	-0.32177988
99	0xbdf7427d	-0.120732285
100	0x3eb25177	0.34827778
101	0x3dc231da	0.09482165
102	0x3d10575b	0.03523956
103	0xbd4560cb	-0.048188012
104	0xbd41bea9	-0.04730097
105	0xbc4036f9	-0.0117318565
106	0x3df2091c	0.11818144
107	0x3e44cf57	0.19219719
108	0x3e390592	0.18068531
109	0xbeabd281	-0.3355904
110	0x3d822db5	0.06356374
111	0xbe24fdd3	-0.16112451
112	0x3e914c7b	0.28378662
113	0xbe997146	-0.29969233
114	0x3e7a2532	0.24428251
115	0x3e8a716d	0.27039662
116	0xbe865ff6	-0.26245087
117	0xbde50e49	-0.11184365
118	0x3e3fc067	0.1872574
119	0xbeaf2921	-0.34211066
120	0x3e3d2b82	0.18473628
121	0x3ca0d4d3	0.019632732
122	0x3ecd34cb	0.4007934
123	0x3e9dd350	0.3082528
124	0x3e717d23	0.23582892
125	0x3c7280d6	0.014801225
126	0xbc46742d	-0.012112659
127	0x3d614abd	0.055002917
128	0x3d207c16	0.039180838
129	0xbf3ce27e	-0.737831
130	0xbe13d56f	-0.14436887
131	0xbe42646b	-0.18983619
132	0x3e38b8bf	0.18039225
133	0x3e7c2472	0.24623278
134	0x3c95a64f	0.018267779
135	0xbe0ae267	-0.13562928
136	0x3e6a427c	0.22876924
137	0xbdea3c52	-0.114372864
138	0xbea462fe	-0.32106775
139	0x3d77a24b	0.06045751
140	0x3cd98450	0.02655235
141	0xbd83d63b	-0.064373456
142	0xbdc1b41c	-0.09458181
143	0x3d614aba	0.055002905
144	0x3ef084d9	0.46976355
145	0xbc933e8e	-0.017974164
146	0xbd42d51b	-0.047566514
147	0xbddd1597	-0.107951336
148	0x3edd7ce5	0.4325935
149	0xbe2c485b	-0.16824476
150	0xbe691957	-0.22763573
151	0xbe9010ff	-0.28137967
152	0x3e8dd7e1	0.27703765
153	0xbbe9577e	-0.0071210256
154	0xbdd235a5	-0.10264138
155	0xbe457d4a	-0.19286075
156	0xbd82a31d	-0.06378768
157	0x3e0bad37	0.13640295
158	0x3e92cde2	0.286727
159	0x3e45f442	0.19331458
160	0x3d52c323	0.051455628
161	0xbd6c8369	-0.05774251
162	0x3d2ad0a0	0.041702867
163	0x3ef18e6e	0.47178978
164	0xbe3e7868	-0.18600619
165	0xbe8f6033	-0.28003082
166	0xbe85e63d	-0.2615222
167	0x3dcfda88	0.101491034
168	0x3e70dc64	0.23521572
169	0xbea6be2b	-0.32566962
170	0x3da5a134	0.08087388
171	0xbcdb144c	-0.026743077
172	0x3e8f1492	0.2794538
173	0x3ef0a67b	0.47002015
174	0x3f1d9dc2	0.61568844
175	0xbe58370e	-0.21114752
176	0xbe9b887a	-0.3037756
177	0x3ea021ba	0.3127573
178	0xbdd80eff	-0.10549735
179	0xbdc104a2	-0.09424712
180	0xbee08e32	-0.43858486
181	0x3e21a888	0.15786946
182	0x3cb19b98	0.021680638
183	0xbe8f56db	-0.27995953
184	0xbe11db5b	-0.14243834
185	0x3d6d1189	0.05787805
186	0xbe90b0c1	-0.28259853
187	0x3e75ba8a	0.2399694
188	0x3d09e328	0.0336639
189	0xbe035cac	-0.1282832
190	0x3e7649b4	0.24051553
191	0x3d1c0a7e	0.038095944
192	0x3dd8ead2	0.105916634
193	0xbdfaa21d	-0.12237952
194	0xbeb193e6	-0.3468315
195	0xbe01dc8c	-0.12681788
196	0xbe47317f	-0.19452475
197	0xbad55f46	-0.0016279004
198	0x3ea47e5e	0.3212766
199	0x3ec9caa3	0.39412412
200	0xbe88a8f7	-0.2669141
201	0x3e489fdd	0.19592233
202	0xbdf82947	-0.12117248
203	0x3deac1e4	0.11462763
204	0x3ec37a90	0.38179445
205	0x3d6ce4ca	0.057835378
206	0xbda7a910	-0.08186543
207	0x3b4eb31e	0.0031539868
208	0xbf257ec0	-0.6464653
209	0x3df3d419	0.11905689
210	0xbd4107b4	-0.047126487
211	0xbe224356	-0.15845999
212	0xbe6660cf	-0.22497867
213	0x3cf43aac	0.029813133
214	0x3e832247	0.2561209
215	0xbe4d673f	-0.20058917
216	0xbe38bdb6	-0.18041119
217	0xbef2c1bd	-0.47413436
218	0xbf1121d7	-0.5669226
219	0xbf2dcd44	-0.67891335
220	0x3e3a8140	0.18213367
221	0x3e6ab616	0.22921023
222	0xbeb8e36f	-0.36111018
223	0xbec01cf6	-0.37522095
224	0x3d7cfd2e	0.06176489
225	0xbe4fb069	-0.20282139
226	0xbe16753b	-0.14693157
227	0x3e7d35d1	0.2472756
228	0x3e8e1b4b	0.27755198
229	0xbd976c77	-0.07393735
230	0x3df5057e	0.11963938
231	0x3e07d859	0.13266124
232	0xbed54b94	-0.41659224
233	0xbf1ccb89	-0.6124807
234	0xbf19018a	-0.59767973
235	0xbe154781	-0.14578058
236	0xbe265f68	-0.16247332
237	0x3e6a1430	0.22859263
238	0x3e995414	0.2994696
239	0x3a6df125	0.0009076766
240	0x3a0989ee	0.00052466884
241	0xbdf66455	-0.120308556
242	0xbdf13962	-0.11778523
243	0x3e29e2ec	0.1659047
244	0x3ec0cb17	0.37654945
245	0x3e95ae85	0.2923471
246	0x3e95200c	0.29126012
247	0x3d8ac46f	0.06775748
248	0xbf158edd	-0.5842112
249	0xbef031c9	-0.46912983
250	0x3a018b01	0.00049416727
251	0xbe1c0b64	-0.1523872
252	0x3b97d245	0.0046332204
253	0xbebdc409	-0.37063625
254	0xbf279106	-0.65455663
255	0xbcff00ae	-0.031128254

gnn_layers.0.bn.weight f4 [64]
0	0x3ebf94b5	0.37418142
1	0x3f6122c6	0.87943685
2	0x3f0e0699	0.5547882
3	0x3f451a09	0.7699285
4	0x3f2a21a0	0.6645756
5	0x3ef670a6	0.4813282
6	0x3f498a81	0.78726965
7	0x3e5f9f87	0.21838199
8	0x3f4c9959	0.7992149
9	0x3f266a87	0.650063
10	0x3f397de9	0.7245775
11	0x3f009000	0.50219727
12	0x3f2f9ec8	0.68601656
13	0x3f81faa1	1.0154611
14	0x3ebf04b6	0.37308282
15	0x3ed56376	0.41677445
16	0x3f451ad4	0.7699406
17	0x3f8f3af6	1.1189868
18	0x3f74bcbe	0.956005
19	0x3f468214	0.77542233
20	0x3f318942	0.69350064
21	0x3e99e8ef	0.30060527
22	0x3f883081	1.0639802
23	0x3f8235ad	1.017263
24	0x3f63baf6	0.88957155
25	0x3f48bee7	0.78416294
26	0x3f222f77	0.63353676
27	0x3f9e6688	1.237504
28	0x3f666c66	0.9000915
29	0x3f1a3eac	0.6025188
30	0x3edfc9b1	0.43708566
31	0x3f639d44	0.88911843
32	0x3f71b63a	0.9441868
33	0x3ef4b516	0.47794408
34	0x3f6f91c8	0.9358182
35	0x3ed64cf5	0.4185559
36	0x3f3885d4	0.72079206
37	0x3f291601	0.660492
38	0x3f03a334	0.51420903
39	0x3ea446bb	0.32085213
40	0x3f6e9daa	0.93209326
41	0x3f5c5548	0.8606763
42	0x3e85d765	0.26140895
43	0x3ed56c10	0.41684008
44	0x3e29f02d	0.16595526
45	0x3f01e2f0	0.50736904
46	0x3efe6ad6	0.49690884
47	0x3e4f44fc	0.20241159
48	0x3f929dd3	1.1454414
49	0x3e1b0998	0.15140378
50	0x3f3a8ebc	0.72874045
51	0x3ec26211	0.37965444
52	0x3e829073	0.2550083
53	0x3e92c99e	0.28669447
54	0x3edba78d	0.4290127
55	0x3ebd9a5a	0.37031823
56	0x3e4877c4	0.19576937
57	0x3f347916	0.7049726
58	0x3e8e8ddf	0.27842614
59	0x3e92d6ed	0.286796
60	0x3f6bb7a8	0.9207711
61	0x3f1793d8	0.59209967
62	0x3f07bfa2	0.53026783
63	0x3e46e6f0	0.19424033

gnn_layers.0.bn.bias f4 [64]
0	0xbea131d4	-0.31483328
1	0x3e3328b7	0.17496
2	0x3ec2620e	0.37965435
3	0xbe9f3fef	-0.31103465
4	0xbe0f51ba	-0.1399602
5	0xbed111f2	-0.40834004
6	0xbeb03f38	-0.34423232
7	0xbec0b142	-0.37635237
8	0xbe50a3b6	-0.20374951
9	0xbe96d9a7	-0.2946293
10	0x3e8e1b49	0.27755192
11	0x3ec28757	0.3799388
12	0xbe47edbc	-0.19524282
13	0x3daced58	0.08443707
14	0xbec1e6ff	-0.3787155
15	0x3ea61291	0.3243604
16	0xbdaa18f7	-0.08305543
17	0xbb43b5e6	-0.0029863059
18	0xbb9c43b1	-0.0047688116
19	0xbdb3bec0	-0.08776617
20	0x3e196cde	0.14982936
21	0xbe9f1ced	-0.31076756
22	0x3ce78419	0.028261231
23	0x3be134e6	0.006872761
24	0xbd286704	-0.04111387
25	0xbe82d17b	-0.25550446
26	0xbe69f5fb	-0.2284774
27	0x3bcb4452	0.006203213
28	0x3d8b3208	0.06796652
29	0xbe9c1f8e	-0.30492824
30	0xbeef1ce3	-0.46701726
31	0x3e2f84b8	0.17140472
32	0xbc432872	-0.011911498
33	0xbecbba36	-0.39790505
34	0xbd117288	-0.035509616
35	0xbed8bd9e	-0.42332166
36	0x3e37b848	0.17941391
37	0x3eaf14d2	0.34195572
38	0x3ed0b5e6	0.40763777
39	0xbed47204	-0.41493237
40	0x3b7b4ec4	0.0038346509
41	0xbe86c005	-0.26318374
42	0x3f1c632d	0.6108883
43	0xbec40377	-0.38283893
44	0x3f1019f9	0.5628963
45	0xbecd5582	-0.401043
46	0xbee0a6c5	-0.43877235
47	0x3ef67b46	0.48140925
48	0xbd267855	-0.0406421
49	0x3f00fc0f	0.5038461
50	0xbe910948	-0.28327394
51	0xbed382cc	-0.41310728
52	0xbed8ffb7	-0.42382595
53	0xbf04de1b	-0.51901406
54	0xbedb737d	-0.42861548
55	0xbf04c915	-0.51869327
56	0x3f1ce76a	0.6129061
57	0x3e3442fc	0.17603678
58	0xbeb5434f	-0.35402915
59	0xbf0641c2	-0.5244409
60	0x3cd4c4c0	0.025972724
61	0xbea9a086	-0.33130282
62	0xbe7083b1	-0.23487736
63	0xbebb42c0	-0.36574364

gnn_layers.0.bn.running_mean f4 [64]
0	0x3bc48feb	0.0059986017
1	0x3ca37809	0.019954698
2	0xbcae7624	-0.021296568
3	0xbd07544c	-0.033039376
4	0xbd44b547	-0.048024442
5	0x3bbefb23	0.0058282777
6	0xbd307ea0	-0.04308951
7	0x3b016523	0.001974412
8	0xbceabea2	-0.028655354
9	0xbb28cb4c	-0.002575594
10	0x3c25052d	0.010072035
11	0x3bacdc83	0.0052753105
12	0xbce2ab01	-0.027669432
13	0x3ce7020d	0.02819922
14	0x3c79a040	0.0152359605
15	0x3b3f70c8	0.002921151
16	0xbc0dba21	-0.008650334
17	0x39495961	0.0001920215
18	0x3d04c03b	0.032409888
19	0xbcff6abe	-0.031178828
20	0x3c9171ba	0.017754424
21	0xbe32ab72	-0.17448214
22	0x3c777b49	0.015105077
23	0xbc75eecc	-0.015010547
24	0x3d3b8c64	0.045788184
25	0xbd9221c4	-0.071353465
26	0xbc4efda5	-0.012633716
27	0xbc9d603b	-0.019210925
28	0x3c618952	0.01376565
29	0x39d48804	0.0004053713
30	0xbd28b04e	-0.041183762
31	0x3c2f7370	0.010708675
32	0xbbca2934	-0.0061694626
33	0xbd991957	-0.07475536
34	0x3d51f377	0.051257577
35	0xbd57670f	-0.05258852
36	0xbc42b01d	-0.011882809
37	0x3da3bc28	0.07994872
38	0x3b233f18	0.0024909433
39	0x3c33028a	0.010925898
40	0x3bffe109	0.0078088087
41	0xbc7600f5	-0.015014877
42	0xbbb79130	-0.0056020245
43	0xbd970479	-0.073739
44	0xbca488b0	-0.020084709
45	0xbbdbdc86	-0.006709638
46	0xbd493a83	-0.049128067
47	0x3c061bb5	0.008185317
48	0x3c5d7696	0.013517043
49	0xbca225c1	-0.019793393
50	0xbd22add7	-0.039716568
51	0xbc98ba24	-0.018643446
52	0xbcbc11d1	-0.022957714
53	0x3b15f161	0.0022879469
54	0xbe067486	-0.13130388
55	0xba9d70c9	-0.0012011762
56	0xbc8dd52b	-0.01731356
57	0x3c1ef3f6	0.0097017195
58	0x3bcc65b3	0.0062377094
59	0x3c0dc98c	0.00865401
60	0x3bbc365f	0.005743786
61	0xbc8bfcfa	-0.017088402
62	0x3c120346	0.008911913
63	0xbf2e15c7	-0.6800198

gnn_layers.0.bn.running_var f4 [64]
0	0x3a9152c5	0.0011087289
1	0x3bfcabf1	0.0077109267
2	0x3c535b73	0.012900221
3	0x3c402d87	0.011729605
4	0x3d251602	0.04030419
5	0x3a9008da	0.0010988966
6	0x3d007c5a	0.03136859
7	0x3b2ec6e0	0.0026668832
8	0x3bab2b2d	0.005223653
9	0x3b456e63	0.003012561
10	0x3b04ca4c	0.002026218
11	0x3a9620af	0.0011453832
12	0x3c97e7d5	0.018543163
13	0x3bcdbb27	0.006278414
14	0x3b3e797e	0.0029064114
15	0x3a2753f3	0.0006383054
16	0x3b5d05b5	0.0033725325
17	0x39f7e6ce	0.00047283474
18	0x3c798c36	0.015231183
19	0x3b41d892	0.002957855
20	0x3b6736bf	0.0035280434
21	0x3a6c0951	0.0009004074
22	0x3a5fb832	0.0008534222
23	0x3b144cfc	0.0022628894
24	0x3cf69822	0.03010184
25	0x3c319178	0.010837905
26	0x3a4b5a87	0.0007757325
27	0x3b12c865	0.0022397276
28	0x3b8b7ea5	0.0042570406
29	0x3a366ecc	0.0006959259
30	0x3b3fe79f	0.0029282344
31	0x3b7782a9	0.0037767089
32	0x3b3c74e8	0.0028756205
33	0x3bdcdde7	0.00674032
34	0x3d422795	0.04740103
35	0x3b828e89	0.0039842767
36	0x3c2fe5a7	0.010735906
37	0x39e3b10b	0.0004342872
38	0x3a9822e7	0.0011607081
39	0x3b9e4dce	0.0048310524
40	0x3b593c14	0.0033147382
41	0x3bfe19f6	0.0077545596
42	0x3a6f8d37	0.0009138169
43	0x3dcf3762	0.10117985
44	0x3b29ba86	0.002589853
45	0x3a5378ff	0.0008067041
46	0x3d3dd322	0.04634393
47	0x3adca85e	0.0016834845
48	0x3b3c968e	0.002877626
49	0x3bed4185	0.0072404766
50	0x3d06f96e	0.03295272
51	0x3a7c10b7	0.0009615528
52	0x3b1066aa	0.0022033849
53	0x3b299175	0.0025874053
54	0x3a4106cf	0.000736338
55	0x3a94eedd	0.0011362691
56	0x3bcf2e30	0.0063226447
57	0x3b4abb6b	0.0030934464
58	0x3abe4d50	0.001451889
59	0x3aba00c4	0.0014190902
60	0x3a6c231b	0.00090079167
61	0x3a1d8b7f	0.0006009861
62	0x3a38ab73	0.0007044591
63	0x3a5bfc18	0.0008391752

out_layer.mlp.0.weight f4 [1, 64]
0	0xbca557f3	-0.020183539
1	0x3d2b9320	0.041888356
2	0xbe285c69	-0.16441502
3	0xbe2d1a47	-0.16904555
4	0x3cbbd4f4	0.022928692
5	0xbc9b29a3	-0.018940752
6	0xbe019ace	-0.1265671
7	0xbd682455	-0.056675274
8	0xbd516f18	-0.051131338
9	0x3e3238aa	0.17404428
10	0xbcb93c57	-0.02261178
11	0xbd38b958	-0.045098633
12	0x3c8ba9b9	0.017048704
13	0x3cec5fa0	0.028854191
14	0xbc998978	-0.018742308
15	0x3d257eff	0.040404316
16	0xbdbf2a58	-0.09334248
17	0x3d1c72c7	0.038195398
18	0x3d2482cb	0.040163796
19	0xbd955e8a	-0.072934225
20	0x3d7643ac	0.06012313
21	0x3d7b86c6	0.061407827
22	0x3cf90843	0.030399447
23	0xbccf3b5c	-0.02529686
24	0x3d0852bb	0.033282023
25	0xbe0f6d12	-0.14006451
26	0x3ca8521f	0.02054697
27	0xbd4a26eb	-0.04935352
28	0x3d13a467	0.03604546
29	0x3d422782	0.04740096
30	0x3d5b9333	0.053607177
31	0xbe20b25e	-0.15693042
32	0x3d03e670	0.032202184
33	0x3d0ab4d1	0.033863846
34	0x3d27e009	0.04098514
35	0x3d821db0	0.06353319
36	0xbebdbda4	-0.37058747
37	0xbcd45b1d	-0.025922352
38	0x3d4a0303	0.04931928
39	0xbcdb843e	-0.026796456
40	0x3d457c8f	0.04821449
41	0xbdd552a8	-0.10416156
42	0x3cee6d7e	0.029104944
43	0x3b1d485e	0.0023999433
44	0x3defa907	0.11702161
45	0xbcd4ab1f	-0.025960503
46	0x3c9ed580	0.019388914
47	0xbe2c2d60	-0.16814184
48	0x3ca4213d	0.02003538
49	0x3e353415	0.17695649
50	0xbe4aa24c	-0.19788474
51	0x3d53d965	0.051720995
52	0xbb06ae3d	-0.0020550631
53	0x3d33eab6	0.04392501
54	0x3d0d18a3	0.034447324
55	0xbca527a0	-0.020160496
56	0x3e0fe04f	0.1405041
57	0x3d367ba0	0.04455149
58	0x3d538e3e	0.051649325
59	0x3d0b75d6	0.034047924
60	0x3d17c877	0.037056413
61	0x3d5c8998	0.053842157
62	0x3d3eed84	0.04661323
63	0x3d738c90	0.059460223
