model_normal/gdn_smd_w_50_epoch20.pth (torch, 59759 bytes, 16 tensors)

embedding.weight f4 [38, 128]
0	0xbdc4dfe3	-0.096130155
1	0x3d4607c4	0.04834725
2	0xbda698fe	-0.0813465
3	0xbdd82bed	-0.10555253
4	0x3d56b0fa	0.05241487
5	0xbe20fe33	-0.1572197
6	0xbc104c8d	-0.008807314
7	0xbc51b2db	-0.01279899
8	0xbdbd7796	-0.09251325
9	0x3d6b25e9	0.0574092
10	0x3db616df	0.08891081
11	0xbcaf8927	-0.021427704
12	0xbc296b29	-0.01034049
13	0x3aa7d8a3	0.0012805652
14	0xba3b878d	-0.00071536825
15	0xbdf14cd6	-0.117822334
16	0xbc243169	-0.010021546
17	0xbcbdb4e0	-0.023157537
18	0xbda05679	-0.07828993
19	0xbd855d9e	-0.06511997
20	0xbe03c615	-0.12868531
21	0xbe0fc225	-0.14038904
22	0x3e08ef8c	0.1337263
23	0xbdb475a6	-0.08811502
24	0x3d3fb3b2	0.04680223
25	0xbd11b71a	-0.03557501
26	0xbe1afaf2	-0.1513479
27	0xbbaaccbf	-0.005212396
28	0xbdb7c47c	-0.08973023
29	0xbc6af10a	-0.014339695
30	0xbd843940	-0.06456232
31	0xbdb46933	-0.08809128
32	0xbbfc30ef	-0.007696263
33	0xbec8ece4	-0.39243233
34	0xbd9188c5	-0.07106165
35	0x3e087478	0.1332568
36	0x3d2b32a1	0.04179633
37	0xbba9c87d	-0.005181371
38	0xbd801a94	-0.062550694
39	0xbba52213	-0.0050394624
40	0x3dabdf8c	0.083922476
41	0xbc820118	-0.015869662
42	0x3db5e3dd	0.08881352
43	0xbb5fd075	-0.003415135
44	0xbda0a64a	-0.07844217
45	0xbc4a6b7c	-0.012354728
46	0x3d2ab11d	0.041672815
47	0x3d8f3138	0.069918096
48	0xbdb700ae	-0.089356765
49	0xbcbb982e	-0.022899713
50	0x3c128269	0.008942225
51	0xbda73a9e	-0.08165477
52	0x3ce923ea	0.028459508
53	0xbc06450e	-0.008195175
54	0xbdf4a3c3	-0.119452976
55	0xbd5f8f27	-0.05457988
56	0xbde0994a	-0.109667376
57	0x3d87d3e7	0.06632214
58	0x3dd7a4bd	0.10529468
59	0xbbc8c756	-0.0061272783
60	0xbbbea5c5	-0.005818101
61	0xbc24ed60	-0.01006636
62	0xbdc165df	-0.094432585
63	0xbcc9b9da	-0.024624754
64	0xbb399222	-0.0028315862
65	0xbdaf795f	-0.085680716
66	0xbda45222	-0.08023478
67	0xbda19445	-0.07889608
68	0xbc9dcd12	-0.019262824
69	0xbb8e58b5	-0.004344071
70	0xbbfcc192	-0.007713505
71	0xbca9d605	-0.020731935
72	0xbd5a44e6	-0.053288363
73	0xbc99d580	-0.018778563
74	0xbdc18e5a	-0.094509795
75	0xbca28dce	-0.019843008
76	0xbdb21b2d	-0.086965896
77	0xbe8ef42f	-0.27920672
78	0xbd95b329	-0.07309563
79	0xbcc2d86b	-0.023784837
80	0x3c6508b7	0.013979129
81	0x3d1623a5	0.036655087
82	0xbc7f6c84	-0.015589837
83	0xbda08df8	-0.078395784
84	0xbe3cdfcc	-0.18444747
85	0xbd91c4e4	-0.07117632
86	0xbcfceaf9	-0.030873762
87	0x3d284b75	0.041087586
88	0x3c3c29cd	0.011484575
89	0x3d8805be	0.0664172
90	0x3d9c1de7	0.07622891
91	0x39c45516	0.00037447427
92	0xbd68140e	-0.05665975
93	0x3d8477fe	0.06468199
94	0x3daa48d0	0.08314669
95	0xbe24153c	-0.16023725
96	0xbdc90602	-0.09815599
97	0xbde3a6a4	-0.111157686
98	0xbbcca348	-0.0062450506
99	0xbe05c679	-0.13063993
100	0x3c7e6301	0.015526534
101	0x3da9189e	0.082566485
102	0xbc1e4d88	-0.00966204
103	0xbd9f9d00	-0.07793617
104	0xbc6ce372	-0.014458524
105	0xbbc80271	-0.0061038067
106	0x3df76a97	0.12080877
107	0xbdc21db0	-0.09478319
108	0xbdb452be	-0.08804844
109	0xbde70cf5	-0.11281768
110	0xbda9081f	-0.08253502
111	0xbc38e031	-0.01128392
112	0xbcb24f4d	-0.02176633
113	0xbc1e28cb	-0.0096532805
114	0x3d484530	0.048894107
115	0xbb00c38a	-0.00196478
116	0x3be03cf1	0.0068432023
117	0xbdbaa5fa	-0.09113689
118	0xbd37a812	-0.04483802
119	0xbd1b8933	-0.03797264
120	0xbcd990de	-0.026558336
121	0x3c599edc	0.013282504
122	0xbde055ff	-0.109539025
123	0x3b06505f	0.0020494682
124	0xbdcc279d	-0.09968493
125	0xbb8e9dad	-0.0043522925
126	0xbc93ff3e	-0.018066045
127	0xbd952c1a	-0.07283802
128	0xbe23ca00	-0.15995026
129	0xbe20c9d8	-0.15701997
130	0xbde85f4d	-0.11346302
131	0xbdc53e27	-0.09630995
132	0x3d1c4bf8	0.038158387
133	0xbdfe1fe3	-0.12408426
134	0x3d74285a	0.059608795
135	0x3c590bb2	0.013247417
136	0xbd99b651	-0.07505477
137	0x3d84f04b	0.06491145
138	0x3da7c665	0.08192138
139	0xbb95fc7c	-0.0045772176
140	0xbd168b77	-0.036754098
141	0x3c6f6f8d	0.014613998
142	0xbc4d5fb6	-0.012535026
143	0xbdcf0360	-0.101080656
144	0x3c6e2268	0.01453457
145	0xbca5e767	-0.020251943
146	0xbdc356d8	-0.095380485
147	0xbd22e659	-0.039770458
148	0xbcb2c776	-0.021823626
149	0xbd4a3c33	-0.049373817
150	0x3cea11ce	0.028572943
151	0xbdfedc96	-0.12444417
152	0xbcf9fb59	-0.03051536
153	0x3d714831	0.058906738
154	0xbd7f4fb8	-0.062331885
155	0xbd1fe7fe	-0.039039604
156	0xbd8bc1bb	-0.068240605
157	0x3c2d84fd	0.010590789
158	0xbd7a7e8d	-0.061155844
159	0xbdb4d212	-0.0882913
160	0xbb81e85f	-0.0039644684
161	0x3e0def15	0.13860734
162	0xbd78462c	-0.060613796
163	0x3e0714b4	0.13191491
164	0xbd10072f	-0.0351631
165	0xbd0ed437	-0.034870353
166	0xbd0fb660	-0.035086036
167	0x3d92666e	0.07148443
168	0x3ca4bb11	0.020108731
169	0xbca31947	-0.019909514
170	0x3d845afb	0.06462666
171	0xbb9f00de	-0.0048523983
172	0x3d63a494	0.055576876
173	0x3b147b0f	0.0022656356
174	0x3c982168	0.018570617
175	0x3c8fa3a2	0.01753408
176	0xbe007f67	-0.125486
177	0xbcba6167	-0.022751523
178	0x3c937def	0.018004386
179	0xbd99f681	-0.0751772
180	0x3d3ae63c	0.045629725
181	0xbca617a3	-0.020274943
182	0xbde4d097	-0.11172598
183	0xbd83c736	-0.06434481
184	0xbc43a9d7	-0.011942348
185	0xbc3287d3	-0.010896641
186	0x3dbc3569	0.09189875
187	0x3d911bfc	0.07085416
188	0xbd12c8c9	-0.035836015
189	0x3da86e72	0.08224191
190	0xbd92d3f7	-0.07169335
191	0x3d4db2c1	0.0502193
192	0x3db3e8ad	0.08784614
193	0xbd8ce9f2	-0.06880559
194	0xbd7b0fd7	-0.061294403
195	0xbd9849c5	-0.074359454
196	0xbd3b0795	-0.045661528
197	0x3d64c807	0.055854823
198	0x3d704c8f	0.058666762
199	0x3c4eae61	0.012614817
200	0xbd94cc19	-0.07265491
201	0x3c9565bf	0.018236993
202	0xbdb04681	-0.086071976
203	0xbe3509a8	-0.17679465
204	0xbd973318	-0.07382792
205	0xbe8e5e7e	-0.27806467
206	0xbd6c633e	-0.057711832
207	0xbc3e71cf	-0.011623814
208	0x3cbac727	0.022800041
209	0x3c6d8fef	0.0144996485
210	0xbc243202	-0.010021688
211	0xbd47d136	-0.048783503
212	0x3c1ec270	0.009689912
213	0xbdcc8704	-0.0998669
214	0xbc8ebf19	-0.017425107
215	0xbaecc045	-0.0018062672
216	0x3d87d7c2	0.066329494
217	0x3d3566bf	0.04428744
218	0x3e0c23ba	0.13685504
219	0x3d014a62	0.031565078
220	0xbc0116f2	-0.007879006
221	0x3baa655c	0.0052000713
222	0x3da64648	0.08118874
223	0xbd0e6c0d	-0.034771014
224	0xbde0e517	-0.109811954
225	0xbccf29d2	-0.025288496
226	0xbcafb630	-0.021449178
227	0xbcc9c62c	-0.024630629
228	0xbde55fdf	-0.111999266
229	0x3d1c1da3	0.0381142
230	0xbd1d53ea	-0.038410105
231	0x3d091792	0.033469744
232	0x3cd6fc4d	0.026243353
233	0x3d328880	0.043587208
234	0x3e6e3bee	0.23265049
235	0xbcc65282	-0.024209265
236	0xbe0d6d76	-0.13811287
237	0xbd40fa9c	-0.047114
238	0xbda37154	-0.079806
239	0x3d7b61de	0.06137263
240	0xbc7b50b2	-0.0153390635
241	0x3d2c9812	0.042137213
242	0x3db08e59	0.08620901
243	0x3b0d7416	0.0021584085
244	0x3d05fa91	0.032709662
245	0xbda36fab	-0.07980283
246	0xbd28f3ed	-0.04124825
247	0xbcce39a9	-0.025173979
248	0xbd8b59fd	-0.06804273
249	0xbc9ca745	-0.01912273
250	0xbdad38eb	-0.08458122
251	0x3ccabae8	0.024747327
252	0xbcfcc714	-0.030856647
253	0xbd5ca6ef	-0.053870138
254	0xbc93f301	-0.01806021
255	0xbda3786e	-0.079819545

bn_outlayer_in.weight f4 [128]
0	0x3f5ad1f0	0.8547659
1	0x3f24c9c1	0.6437035
2	0x3f5cb66a	0.8621584
3	0x3f61e7a1	0.8824406
4	0x3f105c05	0.5639041
5	0x3f4b150b	0.79328984
6	0x3f16e077	0.58936256
7	0x3f4cf1f5	0.800567
8	0x3f5b89e9	0.8575731
9	0x3f421fa3	0.75829524
10	0x3f45d7bc	0.7728231
11	0x3f406d2e	0.75166595
12	0x3f530ad3	0.8243839
13	0x3ee95416	0.45571965
14	0x3f30d39d	0.69072896
15	0x3f40267e	0.75058734
16	0x3f553cc4	0.83295846
17	0x3f4c2b29	0.7975336
18	0x3f5e67bb	0.8687703
19	0x3f50cb1f	0.8155994
20	0x3f6ada73	0.9173958
21	0x3f4da57e	0.80330646
22	0x3f52bc46	0.8231853
23	0x3f5a8628	0.85360956
24	0x3f3d82ce	0.7402772
25	0x3f47406f	0.7783269
26	0x3f488a32	0.7833587
27	0x3f56781a	0.8377701
28	0x3f52f238	0.82400846
29	0x3f47a120	0.7798023
30	0x3f5865ac	0.8453014
31	0x3f5b443e	0.85651004
32	0x3f4465c6	0.76717794
33	0x3f31dfc0	0.6948204
34	0x3f50c900	0.815567
35	0x3f428a5e	0.7599238
36	0x3f37eb71	0.7184363
37	0x3f5685e2	0.8379804
38	0x3f3e8f16	0.7443708
39	0x3f3cb2f4	0.7371056
40	0x3f50320d	0.8132637
41	0x3f034f82	0.51293194
42	0x3f516586	0.8179554
43	0x3f381394	0.71904874
44	0x3f4c184b	0.7972457
45	0x3f4c867a	0.79892695
46	0x3f2a5dad	0.6654919
47	0x3f52c3ac	0.8232982
48	0x3f72b97f	0.94814295
49	0x3f591107	0.84791607
50	0x3f42a87f	0.76038355
51	0x3f5379b1	0.8260756
52	0x3f49185e	0.78552806
53	0x3f4107ae	0.75402343
54	0x3f5bdca8	0.8588357
55	0x3f56e539	0.83943516
56	0x3f261b4d	0.6488541
57	0x3f37a42d	0.7173489
58	0x3f438110	0.7636881
59	0x3f389402	0.7210084
60	0x3f492218	0.7856765
61	0x3f3f8782	0.74816144
62	0x3f59927d	0.8498915
63	0x3f38ddf7	0.7221369
64	0x3edcfa87	0.43159887
65	0x3f48b31b	0.78398293
66	0x3f56e02d	0.83935815
67	0x3f66f0c3	0.90211123
68	0x3f5ba0f9	0.857925
69	0x3f405aa7	0.75138324
70	0x3f3ecea5	0.74534065
71	0x3f59d959	0.8509727
72	0x3f70af47	0.9401745
73	0x3f4fa149	0.81105477
74	0x3f53f06f	0.8278875
75	0x3f5686db	0.83799523
76	0x3f626a28	0.8844323
77	0x3f4eac4a	0.8073164
78	0x3f65b3e5	0.8972762
79	0x3f4b044c	0.7930343
80	0x3f44bdb0	0.7685194
81	0x3f42c5b1	0.76082903
82	0x3f4fb3da	0.81133807
83	0x3f414571	0.75496584
84	0x3f66e6de	0.90196025
85	0x3f5a48fa	0.85267603
86	0x3f3bf383	0.73418444
87	0x3f2ef347	0.6833996
88	0x3f3ac765	0.729605
89	0x3f552db1	0.83272845
90	0x3f2f5376	0.68486726
91	0x3f40f94e	0.7538041
92	0x3f59afda	0.85033953
93	0x3f18a3eb	0.5962512
94	0x3f422219	0.7583328
95	0x3f4478ca	0.7674681
96	0x3f36fcce	0.714795
97	0x3f516e4a	0.8180891
98	0x3f45e196	0.7729734
99	0x3f6017d2	0.87536347
100	0x3f3a22a8	0.7270913
101	0x3f51e572	0.8199073
102	0x3f54396c	0.8290012
103	0x3f4a8d60	0.7912197
104	0x3f4d9ab3	0.8031418
105	0x3f4b8c38	0.7951083
106	0x3f17193c	0.5902288
107	0x3f483eb9	0.7822071
108	0x3f6e62db	0.9311959
109	0x3f4f48ef	0.8097066
110	0x3f59a147	0.85011715
111	0x3f510bd0	0.8165865
112	0x3f51b8ab	0.81922406
113	0x3f5d121c	0.8635576
114	0x3ea7248f	0.3264508
115	0x3f492d7a	0.78585017
116	0x3f345541	0.7044259
117	0x3f62974e	0.8851212
118	0x3f4795f4	0.77963185
119	0x3f44b914	0.76844907
120	0x3f50aa1e	0.8150958
121	0x3f2681be	0.6504172
122	0x3f50b968	0.8153291
123	0x3f418d5c	0.7560632
124	0x3f4ea97a	0.8072735
125	0x3f3e228b	0.7427146
126	0x3f570330	0.8398924
127	0x3f6a2bdc	0.91473174

bn_outlayer_in.bias f4 [128]
0	0xbdfa176c	-0.122114986
1	0xbd0b5b12	-0.0340224
2	0xbe59c20e	-0.21265432
3	0xbed04050	-0.40674067
4	0xbe1ff9c1	-0.15622617
5	0xbd88166c	-0.06644902
6	0xbe4670b2	-0.19378927
7	0xbe12af7f	-0.14324759
8	0xbeb20e7c	-0.34776676
9	0xbe2825c5	-0.16420658
10	0xbf07bfa0	-0.5302677
11	0xbf4280c8	-0.75977755
12	0xbdff5ef9	-0.124692865
13	0xbed0b8f5	-0.4076611
14	0xbf254349	-0.64555794
15	0xbd81e71e	-0.0634291
16	0xbe4250ad	-0.18976088
17	0xbe59ea6d	-0.21280833
18	0xbe455a17	-0.19272648
19	0xbd30fda9	-0.04321066
20	0xbe033570	-0.12813354
21	0x3d267836	0.040641986
22	0xbe782452	-0.24232605
23	0xbe7f2ce4	-0.24919468
24	0xbe61da65	-0.22055967
25	0xbe3c5192	-0.18390492
26	0x3d62d8b3	0.05538244
27	0xbe13e5bf	-0.1444311
28	0xbdb01536	-0.08597796
29	0xbe775fa3	-0.24157576
30	0xbe6e71f8	-0.23285663
31	0xbea62df2	-0.32456928
32	0xbe5bd8a5	-0.21469362
33	0xbe581993	-0.21103506
34	0xbe687338	-0.22700202
35	0xbe539f2d	-0.2066619
36	0xbd73b360	-0.059497237
37	0xbe128678	-0.14309108
38	0x3d99dcf7	0.07512849
39	0xbe44a21f	-0.1920247
40	0xbe3c5b8d	-0.18394299
41	0xbe004500	-0.12526321
42	0xbe34f13f	-0.17670153
43	0xbeaa2b95	-0.33236375
44	0xbdfe87c2	-0.124282375
45	0xbe390ad2	-0.18070534
46	0xbc37f119	-0.011226916
47	0xbe531f0c	-0.20617312
48	0xbe2a1356	-0.16608939
49	0xbe51654a	-0.20448795
50	0xbe961bce	-0.29318088
51	0xbe62a1ed	-0.22132082
52	0xbe4fb405	-0.20283516
53	0xbdcd68b3	-0.100297354
54	0xbe7db72d	-0.24776907
55	0xbe5335b2	-0.20625952
56	0xbc2ee8a4	-0.010675583
57	0xbe1aacb1	-0.15104939
58	0xbe185b84	-0.1487866
59	0xbe01ef86	-0.12689027
60	0xbe22348d	-0.15840359
61	0xbd40241a	-0.04690943
62	0xbec084e1	-0.3760138
63	0xbec19e01	-0.3781586
64	0xbf3ac0cf	-0.7295045
65	0xbe7f1b72	-0.24912813
66	0xbea615de	-0.32438558
67	0xbeb72059	-0.35766867
68	0xbd7aa59a	-0.061193086
69	0xbe59395a	-0.21213284
70	0xbea1aa8f	-0.31575438
71	0xbddc1cc1	-0.10747672
72	0xbd313569	-0.043263827
73	0xbe05a973	-0.13052921
74	0xbe98cc41	-0.29843333
75	0xbdb55080	-0.08853245
76	0xbe15dd59	-0.14635219
77	0xbe6277ca	-0.22116008
78	0xbe09ca2f	-0.13456033
79	0xbe146583	-0.14491849
80	0xbe816c7c	-0.2527808
81	0xbe5aba04	-0.21360022
82	0xbe387c38	-0.18016136
83	0x3d93d881	0.07219029
84	0xbda8a793	-0.08235087
85	0xbe34e6a7	-0.17666112
86	0xbe6f9c9c	-0.23399585
87	0xbe2b1068	-0.16705477
88	0xbe630c28	-0.22172606
89	0xbe2013d5	-0.15632565
90	0xbe8bb049	-0.27282932
91	0xbe84c726	-0.25933188
92	0xbd2e09fc	-0.04248999
93	0xbe880cef	-0.26572368
94	0xbedca6bd	-0.4309596
95	0xbe8d7791	-0.27630284
96	0xbe8fb3fe	-0.2806701
97	0xbc3d8f98	-0.01156988
98	0xbd62b811	-0.05535132
99	0xbd866d9d	-0.06563876
100	0xbf085cc4	-0.5326655
101	0xbe72ff4a	-0.23730198
102	0xbdc9fcd6	-0.09862678
103	0xbe6fb793	-0.23409872
104	0xbe210212	-0.15723446
105	0xbe1979b0	-0.14987826
106	0xbec0602b	-0.3757337
107	0x3d402bb5	0.046916682
108	0xbe4b388c	-0.1984579
109	0xbd756938	-0.059914798
110	0xbe673b03	-0.22581105
111	0xbe24b8d3	-0.1608613
112	0xbe8ba622	-0.27275187
113	0xbd9ac65f	-0.075573675
114	0xbea2c67a	-0.3179205
115	0xbe6b202b	-0.2296149
116	0xbea49683	-0.3214608
117	0xbe792821	-0.24331714
118	0xbe37770a	-0.17916504
119	0x3d50d2c6	0.05098226
120	0xbddf9813	-0.10917678
121	0xbdc2ce57	-0.095120125
122	0xbe677e97	-0.22606884
123	0xbe654ef3	-0.22393398
124	0xbe3c74d1	-0.18403937
125	0xbd610f2c	-0.05494611
126	0xbd5c06c8	-0.053717405
127	0xbe05f96b	-0.13083427

bn_outlayer_in.running_mean f4 [128]
0	0xbc8fac78	-0.017538294
1	0xbbe1858a	-0.006882374
2	0xbc6f233d	-0.014595804
3	0xbd8a9a90	-0.06767762
4	0xb934fc82	-0.00017260204
5	0xbd8bda69	-0.06828768
6	0xbb198f76	-0.0023431457
7	0xbc6ab198	-0.014324568
8	0xbd2d0246	-0.042238496
9	0xba8595af	-0.0010191704
10	0x3b934cf8	0.0044952594
11	0xb91fed37	-0.00015251791
12	0xbbe56937	-0.007001068
13	0x3bdaf6e8	0.0066822655
14	0x3b049e12	0.0020235819
15	0xbd869cb6	-0.06572859
16	0xbc29fbfe	-0.010375021
17	0xbc974b0d	-0.018468404
18	0xbc0d82a9	-0.008637109
19	0xbcd5f3da	-0.026117254
20	0xbce57516	-0.028009932
21	0xbd3ff95d	-0.04686867
22	0x3b7f1301	0.003892124
23	0xbca4895d	-0.020085031
24	0x3bc76858	0.006085437
25	0xbb9cba9d	-0.004782988
26	0xbd3993ce	-0.045306973
27	0xbc0bba20	-0.008528262
28	0xbc5afbfa	-0.01336574
29	0xbc3f227d	-0.0116659375
30	0xbd195e40	-0.0374434
31	0xbd882542	-0.06647731
32	0xbc334190	-0.010940924
33	0xbafd590f	-0.001932891
34	0xbd17e91f	-0.037087556
35	0x3b91f33a	0.0044540437
36	0xbc16681a	-0.009180093
37	0xbbd421f4	-0.006473774
38	0xbd1a17e2	-0.037620433
39	0xbc3fa49d	-0.011696962
40	0x3b07cd05	0.0020721566
41	0xbbbeefc1	-0.0058269207
42	0x3a1aaaa7	0.0005900063
43	0x39ba1b63	0.0003549709
44	0xba8b65bd	-0.0010635179
45	0xbc0eab63	-0.008707854
46	0xb9954893	-0.00028473567
47	0x3b454194	0.0030098902
48	0xbb549306	-0.0032436266
49	0xbcdcaecf	-0.026938824
50	0xbbbdea34	-0.0057957415
51	0xbd0d0923	-0.03443254
52	0xbb2e7df7	-0.0026625374
53	0xbbf3a772	-0.0074357325
54	0xbce5b602	-0.02804089
55	0xbd04538f	-0.03230625
56	0xbd1ffe22	-0.03906072
57	0x3b5808c7	0.0032964216
58	0x3b532412	0.0032217545
59	0xbbeaec62	-0.0071692923
60	0xbc0c8795	-0.008577247
61	0xbc0b12de	-0.008488385
62	0xbd28ec79	-0.041241143
63	0x3b34f7f2	0.0027613607
64	0x3b69ce8e	0.0035676095
65	0xbcf5c722	-0.03000218
66	0xbceefed9	-0.029174255
67	0xbd57a41d	-0.052646745
68	0xbc5dc8b9	-0.013536626
69	0x3abf938d	0.0014616117
70	0x3b024521	0.001987763
71	0xbc5bfd95	-0.013427158
72	0xbaa91ee7	-0.0012902886
73	0xbbb4837f	-0.0055088396
74	0xbcfd33a3	-0.030908411
75	0xbc8f7d0f	-0.017515687
76	0xbb6420a2	-0.003480949
77	0xbc7d3f84	-0.015457038
78	0xbb8e738f	-0.0043472718
79	0xbc4070f3	-0.011745679
80	0xbc0883ac	-0.008332174
81	0xbc2f4b98	-0.010699175
82	0xbc36f032	-0.011165665
83	0xbd065189	-0.0327926
84	0xbc9b7bc0	-0.018979907
85	0xbbf5aeab	-0.0074976287
86	0xbcc2e3b6	-0.023790222
87	0x3a2765c4	0.00063857087
88	0x3af75d13	0.0018872343
89	0x3ab36a0d	0.0013688222
90	0xbba55045	-0.0050449693
91	0x3b9ea9b6	0.0048420085
92	0xbcc7c63b	-0.024386516
93	0xbbcbf206	-0.00622392
94	0x3b6f65b3	0.0036529123
95	0xbcb639d8	-0.022244379
96	0xbd1c40dd	-0.038147796
97	0xbcdc8f26	-0.026923727
98	0xbbc7ff6b	-0.0061034462
99	0xbcc309d0	-0.02380839
100	0x3ac9d8ee	0.0015399733
101	0x3b3e63c0	0.0029051155
102	0xbc07e1f6	-0.008293619
103	0x3b397b75	0.0028302346
104	0xbc38eee7	-0.0112874275
105	0xbc2f75c7	-0.010709233
106	0x3d07bcd1	0.033139054
107	0xbd0436c0	-0.032278776
108	0xbc1f7045	-0.009731357
109	0xbd6b0f87	-0.057387855
110	0xbd11208d	-0.035431433
111	0xba2b0c8e	-0.0006525003
112	0xb93877f2	-0.0001759229
113	0xbc318f8e	-0.010837449
114	0xbb42e856	-0.0029740534
115	0xbc2dd8a8	-0.010610737
116	0xbc8f65f9	-0.017504679
117	0xbd5dc46f	-0.05414241
118	0xbc990049	-0.018676894
119	0xbcf10f7a	-0.029426325
120	0xbbdff47a	-0.006834564
121	0xbbf90116	-0.0075990064
122	0xbcf2c26a	-0.02963372
123	0xbae2cbab	-0.001730313
124	0xbc330730	-0.010927007
125	0xbbf8454a	-0.0075766193
126	0xbc10f331	-0.008847044
127	0xbb26baed	-0.0025441006

bn_outlayer_in.running_var f4 [128]
0	0x3c7453ee	0.0149125885
1	0x3c5ee6a6	0.013604796
2	0x398e2126	0.00027109048
3	0x3b52cd31	0.003216576
4	0x38cc7709	9.74965e-05
5	0x3c23b111	0.009990946
6	0x3b4c3f34	0.0031165602
7	0x3b8feb55	0.0043920674
8	0x3aaa9f68	0.0013017477
9	0x3a985986	0.001162336
10	0x3951aca1	0.00019996102
11	0x386c3905	5.631989e-05
12	0x3b6a465d	0.0035747506
13	0x3c58cbe8	0.013232209
14	0x39040c73	0.00012593139
15	0x3c424aac	0.0118586235
16	0x3b84dd02	0.0040546665
17	0x3b39df7c	0.0028361967
18	0x38c3a6e5	9.329411e-05
19	0x3baea04c	0.0053291675
20	0x3d01b7df	0.031669494
21	0x3cd9f42d	0.02660569
22	0x39563ad2	0.00020430543
23	0x39b6514f	0.00034774325
24	0x3b3b98d2	0.0028625024
25	0x3ac3ebda	0.0014947609
26	0x3ced3299	0.02895479
27	0x3b71ce1a	0.0036896528
28	0x3bd14689	0.0063865823
29	0x3b6e085a	0.0036320896
30	0x3addaabf	0.0016911848
31	0x3b930dea	0.0044877427
32	0x3b07ad99	0.0020702838
33	0x3ab84a3c	0.001406021
34	0x3adec73c	0.0016996632
35	0x39a9d797	0.0003239482
36	0x3c348399	0.011017703
37	0x3bbc74a2	0.0057512084
38	0x3cc21a36	0.023694139
39	0x3bb0706f	0.005384497
40	0x391d23ba	0.00014985996
41	0x3b4bdffa	0.0031108842
42	0x398c47f3	0.00026756487
43	0x3798d96a	1.8221053e-05
44	0x3a201847	0.0006107133
45	0x3b143b8b	0.0022618498
46	0x361c4198	2.3283992e-06
47	0x392cfea4	0.00016498059
48	0x380236ff	3.1045634e-05
49	0x3baf0164	0.005340742
50	0x3b197fa4	0.0023422027
51	0x3a0ed31d	0.00054483284
52	0x3a7df6f0	0.00096879806
53	0x3bfecf49	0.007776175
54	0x3a4d7a2e	0.00078383356
55	0x3a8efc4e	0.0010908933
56	0x3d214ff1	0.03938288
57	0x396fca15	0.00022868098
58	0x39be21e9	0.0003626489
59	0x3b9aa398	0.004719209
60	0x3b822229	0.0039713574
61	0x3c3f0ff5	0.011661519
62	0x3a9cf009	0.0011973392
63	0x391288d3	0.00013974616
64	0x3b0eb859	0.002177736
65	0x3a0cb35a	0.00053673016
66	0x3a23adda	0.00062438624
67	0x3b14c674	0.0022701295
68	0x3b4cdc0b	0.0031259086
69	0x38c23010	9.259593e-05
70	0x39039aeb	0.00012550845
71	0x3bb35846	0.0054731695
72	0x373415dc	1.0733926e-05
73	0x3b331d4f	0.0027330702
74	0x3a508f09	0.0007955884
75	0x3ca3dcd7	0.020002766
76	0x3792473e	1.7437731e-05
77	0x3c5eb07e	0.013591884
78	0x37c7859a	2.3784862e-05
79	0x3be20e5d	0.006898685
80	0x3bb817cc	0.005618071
81	0x3bd2b571	0.006430321
82	0x3b61f3a7	0.0034477504
83	0x3c830f20	0.015998423
84	0x3bf864f9	0.0075803963
85	0x38815aba	6.1680985e-05
86	0x3b5c9c0c	0.0033662347
87	0x3a0bdecc	0.00053356285
88	0x39a6bf6d	0.0003180461
89	0x399ea9a4	0.000302625
90	0x3a1634cf	0.0005729915
91	0x3a507213	0.00079515687
92	0x3be3be7e	0.0069501987
93	0x3b7e8a4b	0.0038839753
94	0x3948ae41	0.00019138401
95	0x3c87d28c	0.016579889
96	0x3a7de531	0.0009685336
97	0x3c0e8b1b	0.0087001575
98	0x3c203bac	0.009779852
99	0x3bc19936	0.0059081567
100	0x391e4ada	0.00015095939
101	0x39247f0f	0.00015687592
102	0x3c007b2c	0.007841866
103	0x3920fbe2	0.00015352623
104	0x3b7b3389	0.0038330278
105	0x3bad6dd8	0.0052926354
106	0x3c9abb97	0.018888278
107	0x3c3f0801	0.011659623
108	0x3928f3e0	0.00016112579
109	0x3beb4a77	0.0071805078
110	0x3a5bb6cb	0.0008381425
111	0x3981e97c	0.00024778757
112	0x380413db	3.1489744e-05
113	0x3c133e91	0.008987085
114	0x3bda1f0f	0.0066565345
115	0x3ad64635	0.0016347828
116	0x3be68432	0.007034802
117	0x3ad80503	0.0016480986
118	0x3a3eb78d	0.0007275276
119	0x3c940fec	0.018073998
120	0x3bb83239	0.0056212214
121	0x3b484261	0.0030557143
122	0x3a03d2fd	0.0005028693
123	0x3ba8921c	0.0051443707
124	0x3bb535c6	0.005530092
125	0x3c3e78e2	0.0116255
126	0x3bbefef4	0.0058287326
127	0x3733089e	1.0671238e-05

gnn_layers.0.gnn.att_i f4 [1, 1, 128]
0	0xbedccdc0	-0.43125725
1	0x3e52916b	0.20563285
2	0x3e8d67e7	0.27618334
3	0xbc0f41af	-0.0087436875
4	0x3dd33845	0.10313467
5	0xbe8bf4b8	-0.27335143
6	0x3d00811f	0.03137314
7	0xbd464c02	-0.04841233
8	0xbd799ba2	-0.06093944
9	0x3e81c11d	0.25342646
10	0x3e6f5387	0.23371707
11	0x3dd20fba	0.10256906
12	0xbdb1cf71	-0.086821444
13	0x3ca93b9e	0.02065831
14	0xbd4d3b94	-0.050105646
15	0x3e860885	0.26178375
16	0x3db30b2d	0.08742366
17	0xbc31488e	-0.010820521
18	0xbe6053d8	-0.21906984
19	0xbddef95d	-0.10887406
20	0xbcab2e2f	-0.020896045
21	0xbbe035a6	-0.006842333
22	0x3db83b6c	0.08995709
23	0x3e1e5162	0.15460733
24	0xbd28f368	-0.041247755
25	0xbbddeacd	-0.006772375
26	0xbe8f0b8c	-0.27938497
27	0xbe21885c	-0.15774673
28	0x3e3198ee	0.17343494
29	0xbc971e37	-0.018447025
30	0xbd6fa679	-0.05850837
31	0xbe86acac	-0.26303613
32	0x3e912c98	0.28354335
33	0xbc88284c	-0.016620778
34	0x3df52c8c	0.11971387
35	0x3e2b7926	0.16745433
36	0xbe8712ec	-0.26381624
37	0xbcd1b052	-0.025596771
38	0xbdf2f629	-0.118633576
39	0xbe6fee1e	-0.23430678
40	0xbe2b9dbe	-0.16759393
41	0xbdb16c0b	-0.08663186
42	0x3e40ea74	0.18839437
43	0xbd38a58c	-0.045079753
44	0xbd9bd0ae	-0.07608162
45	0x3c1d7c82	0.0096122045
46	0xbd85d8f6	-0.06535523
47	0x3e01791e	0.12643859
48	0x3dba33b7	0.09091895
49	0xbd60114d	-0.054704
50	0x3da9ef97	0.08297651
51	0x3dbc884f	0.09205686
52	0xbe844646	-0.25834864
53	0xbe094bec	-0.13407868
54	0x3d561e06	0.052274726
55	0xbd5d8d73	-0.054089975
56	0x3ded1621	0.115764864
57	0x3eabca3b	0.33552727
58	0x3e5a096d	0.21292658
59	0xbeb4f6a9	-0.35344437
60	0xbe3948db	-0.18094198
61	0x3c2a6254	0.01039942
62	0xbc78dc7f	-0.015189289
63	0xbe835bd8	-0.2565601
64	0xbceba436	-0.028764825
65	0x3e61d3a6	0.22053394
66	0x3dda76db	0.10667201
67	0xbe9882db	-0.29787335
68	0x3d9f905e	0.07791208
69	0x3e1bc6dd	0.15212579
70	0xbd185c30	-0.03719729
71	0xbd4c23a2	-0.04983867
72	0x3d3d7214	0.04625137
73	0x3da89539	0.08231587
74	0xbcb4f324	-0.022088595
75	0xbe2a06e4	-0.16604191
76	0x3e4c4553	0.1994832
77	0xbe9aa3f4	-0.3020321
78	0x3d8e7217	0.06955355
79	0xbe175e95	-0.14782174
80	0xbdb2baec	-0.08727059
81	0xbcdcb764	-0.026942916
82	0xbe5df205	-0.21674354
83	0xbd9d21c7	-0.07672458
84	0x3da67dbf	0.08129453
85	0x3e87ba5d	0.2650937
86	0xbea1c288	-0.31593728
87	0xbcfdc02a	-0.03097542
88	0xbe7049c8	-0.23465645
89	0x3c6502d0	0.013977721
90	0x3bdc519c	0.006723596
91	0xbdf45245	-0.11929754
92	0xbd83009a	-0.06396599
93	0xbd359a37	-0.044336524
94	0xbbda02a1	-0.0066531454
95	0xbe041951	-0.12900282
96	0x3d782f92	0.06059224
97	0x3b7730d4	0.0037718313
98	0xbe0fe895	-0.14053567
99	0xbb6de931	-0.0036302323
100	0xbe2338e9	-0.15939678
101	0x3e22b6ac	0.15889996
102	0x3d32869b	0.0435854
103	0xbd677d95	-0.05651625
104	0xbc4a50a2	-0.012348326
105	0xbbec6f90	-0.0072154477
106	0x3d3e6ae6	0.046488665
107	0x3cb391b6	0.021920066
108	0x3e2ff084	0.17181593
109	0x3e3f7c1d	0.18699689
110	0x3ea6da8c	0.32588613
111	0xbe15d301	-0.14631273
112	0x3ca36b63	0.019948667
113	0xbd9f4a5e	-0.07777856
114	0x3e7a0068	0.24414217
115	0x3b6fe9be	0.0036607827
116	0x3af6ee00	0.001883924
117	0xbe404da2	-0.18779615
118	0xbefbf24b	-0.49208292
119	0x3dc4c624	0.09608105
120	0xbe533987	-0.20627414
121	0xbd3e3e5e	-0.046446197
122	0xbafd986e	-0.0019347796
123	0xbeb0edd9	-0.34556463
124	0xbe609673	-0.21932392
125	0xbe45608e	-0.19275114
126	0x3e6837a9	0.22677483
127	0xbdb8da77	-0.09026044

gnn_layers.0.gnn.att_j f4 [1, 1, 128]
0	0x3e0f3e03	0.139885
1	0xbd712ee8	-0.058882624
2	0xbe109d4b	-0.14122503
3	0x3d7e5506	0.062092803
4	0xbd2701e6	-0.040773295
5	0xbe28649c	-0.1644463
6	0xbd5a4db2	-0.053296752
7	0xbd8d7332	-0.069067374
8	0x3e33733d	0.17524429
9	0xbdd54493	-0.1041347
10	0x3e87ffda	0.26562387
11	0xbe3adce0	-0.1824832
12	0x3b81535b	0.0039467043
13	0xbb0ac311	-0.0021173398
14	0x3de65bed	0.11248002
15	0xbdf47f16	-0.11938302
16	0x3c4e49f2	0.012590872
17	0x3da8fb85	0.082510985
18	0xbc341d23	-0.010993275
19	0xbe22f529	-0.15913834
20	0xbbb90af1	-0.0056470563
21	0xbdaa641e	-0.08319877
22	0x3e2d8e7f	0.16948889
23	0x3e2aca79	0.166788
24	0xbd26387e	-0.04058122
25	0x3e1ebff6	0.15502915
26	0x3dbe32ab	0.09287008
27	0xbe81f6fa	-0.2538374
28	0xbcfada97	-0.03062181
29	0xbd9ed03e	-0.07754563
30	0xbda8cc4c	-0.082420915
31	0xbb1a5acf	-0.0023552661
32	0x3da9fa81	0.08299733
33	0x3e435808	0.1907655
34	0xbe158fba	-0.14605609
35	0x3de6fc98	0.11278647
36	0xbddd24f4	-0.10798064
37	0xbc433559	-0.011914575
38	0xbe8ecfe7	-0.27892992
39	0x3d888fc1	0.06668044
40	0x3e36243d	0.17787261
41	0x3e059214	0.13044006
42	0x3e128299	0.14307632
43	0xbdbe7af4	-0.09300795
44	0x3da91d3f	0.082575314
45	0x3d2c322a	0.042040028
46	0x3e09621b	0.1341633
47	0xbd48e913	-0.049050402
48	0xbd333337	-0.043750014
49	0xbe1b9c38	-0.15196311
50	0xbc3b9709	-0.011449584
51	0x3c89bfc2	0.01681507
52	0xbd337481	-0.04381228
53	0xbe7e922d	-0.24860449
54	0xbd8dcefa	-0.06924243
55	0x3e1e8370	0.15479827
56	0xbd8bf6cf	-0.068341844
57	0xbe22d400	-0.15901184
58	0xbd125601	-0.03572655
59	0x3baef58f	0.0053393315
60	0x3de37b42	0.11107494
61	0xbd69252a	-0.056920208
62	0x3e0a4a4d	0.13504906
63	0x3e5e01a3	0.21680312
64	0xbe7d7c37	-0.24754415
65	0xbd4078f0	-0.046990335
66	0x3d8fc872	0.07020654
67	0x3e4f59b1	0.20249058
68	0xbdfb466a	-0.1226929
69	0x3d4a68c8	0.049416333
70	0xbdfc2b14	-0.12312904
71	0xbe6f4b3d	-0.23368545
72	0x3cf29be1	0.029615344
73	0x3d4a856b	0.049443644
74	0x3df7386c	0.120713085
75	0x3dba55ef	0.09098422
76	0x3e40b944	0.18820673
77	0xbe0e9376	-0.1392344
78	0xbd37ce03	-0.044874202
79	0xbdefba2b	-0.117054306
80	0xbd7adef2	-0.061247773
81	0xbe5148df	-0.20437954
82	0xbe33a2fd	-0.17542644
83	0x3d87314e	0.06601201
84	0x3ce85e0b	0.028365156
85	0xbe082d7c	-0.13298601
86	0x3d3934c9	0.045216355
87	0xbda876a0	-0.08225751
88	0x3d53b08e	0.051682048
89	0x3e7a30be	0.24432656
90	0x3d324154	0.043519333
91	0x3e3a42ab	0.18189494
92	0x3c531f0f	0.012885823
93	0xbe25c2fc	-0.16187662
94	0x3da7e06b	0.08197101
95	0xbda775a7	-0.08176737
96	0x3e82cec9	0.2554839
97	0xbdd01161	-0.10159565
98	0xbdd3b404	-0.1033707
99	0xbd1327dc	-0.035926685
100	0xbb0cdb03	-0.0021492846
101	0xbddfbd20	-0.109247446
102	0xbe800d61	-0.25010207
103	0xbd79912b	-0.06092946
104	0xbe5b69c2	-0.21427062
105	0xbd013941	-0.031548742
106	0xbe05d12d	-0.13068075
107	0xbd30a987	-0.043130424
108	0xbdc2ffcd	-0.095214464
109	0xbda12397	-0.07868116
110	0xbccfdf40	-0.025375009
111	0x3e4a16f1	0.19735314
112	0x3e01ae09	0.12664045
113	0xbe6db5f9	-0.23213948
114	0x390fdb8f	0.00013719335
115	0xbe364a2c	-0.17801732
116	0xbe0ed619	-0.1394886
117	0x3e154a62	0.14579156
118	0xbd61de84	-0.055143848
119	0x3e003dee	0.12523624
120	0xbe836ad7	-0.2566745
121	0xbdc005da	-0.09376116
122	0x3e0fdb21	0.14048435
123	0xbda70911	-0.08156026
124	0x3be4520f	0.00696779
125	0xbe78efc5	-0.24310215
126	0xbd9930ef	-0.074800365
127	0xbdcda9a9	-0.10042126

gnn_layers.0.gnn.att_em_i f4 [1, 1, 128]
0	0xbdf61aea	-0.12016852
1	0xbef1ff14	-0.47264922
2	0xbe1367c9	-0.1439506
3	0xbe026b73	-0.12736301
4	0xbe00cbd1	-0.1257775
5	0xbe87bf29	-0.2651303
6	0xbe153a9b	-0.14573137
7	0x3cfa98de	0.03059047
8	0xbe29859b	-0.16554873
9	0xbe0fd242	-0.1404505
10	0x3e465901	0.1936989
11	0x3e1f687c	0.15567201
12	0xbe54bcb6	-0.20775113
13	0xbeae931c	-0.3409661
14	0xbdbf88aa	-0.093522385
15	0xbeb81fbe	-0.35961717
16	0x3dda31fd	0.10654066
17	0x3c8a2af9	0.016866194
18	0xbe1bfc68	-0.15233004
19	0xbe6ba3e4	-0.23011738
20	0xbe8fabae	-0.2806067
21	0xbeb316c7	-0.34978315
22	0xbd115af8	-0.035487145
23	0xbd58ae46	-0.052900575
24	0xbe99138b	-0.29897723
25	0xbd4e8b42	-0.050425775
26	0xbee215c6	-0.44157237
27	0xbbc5d3fa	-0.0060372325
28	0x3dbeca2b	0.09315904
29	0x3e797241	0.2435999
30	0x3e1718c8	0.14755547
31	0x3d3882ca	0.045046605
32	0xbdf35687	-0.11881738
33	0xbceda4f5	-0.029009322
34	0x3b3e5053	0.0029039576
35	0xbef001e5	-0.46876445
36	0xbece1969	-0.4025376
37	0xbd544b1f	-0.051829454
38	0xbed019be	-0.4064464
39	0x3d655d5c	0.055997238
40	0x3d25309d	0.040329564
41	0x3ed41e08	0.41429162
42	0xbe5fc39d	-0.21851964
43	0xbd58d154	-0.052934006
44	0xbcd5d067	-0.02610035
45	0x3e4ea0f3	0.20178585
46	0x3e899b1f	0.2687616
47	0xbb18036b	-0.0023195397
48	0xbda0e533	-0.07856216
49	0x3da7deef	0.08196818
50	0x3d111b2b	0.0354263
51	0x3e68e0da	0.22742024
52	0x3e03dbff	0.1287689
53	0xbbd53da3	-0.006507592
54	0x3e1c5ed0	0.15270543
55	0x3ea9a426	0.33133048
56	0xbeee556d	-0.4654955
57	0xbe56bbb4	-0.2097004
58	0xbe78219f	-0.24231575
59	0x3e5d04ec	0.21583909
60	0xbdcab663	-0.09898069
61	0x3c4a39d1	0.012342886
62	0x3e0a3aba	0.13498965
63	0x398b9d97	0.0002662956
64	0xbdd174d6	-0.10227363
65	0x3e86971d	0.26287165
66	0x3d19a8c9	0.03751448
67	0x3d29eb42	0.041484125
68	0xbea739da	-0.32661325
69	0xbd9b507c	-0.075837106
70	0xbd6845de	-0.056707256
71	0x3d4ac5a6	0.0495049
72	0xbe83c361	-0.25735
73	0x3c4f2020	0.012641937
74	0x3c95595e	0.01823109
75	0xbe6f085a	-0.2334303
76	0x3e82fd89	0.25584057
77	0xbeac4631	-0.33647302
78	0xbd53d496	-0.05171641
79	0xbd6deefa	-0.058089234
80	0x3e17a9f7	0.1481093
81	0x3dffdc5a	0.124932006
82	0xbe5c8c1a	-0.2153782
83	0xbec5cb4f	-0.38631675
84	0xbe8ffcf6	-0.2812268
85	0xbd90de02	-0.07073595
86	0x3e8222ab	0.25417075
87	0x3e4437f6	0.19161972
88	0xbe932fbf	-0.28747365
89	0x3dc7d26a	0.0975693
90	0x3f0588df	0.52161974
91	0xbedbe509	-0.42948177
92	0xbdb88d59	-0.09011335
93	0x3d1bddf4	0.038053468
94	0x3e01b7e9	0.12667812
95	0xbe0c90e0	-0.1372714
96	0x3e9e32da	0.30898172
97	0xbe295bb1	-0.16538884
98	0x3bcb2fb2	0.006200754
99	0xbe0aafb5	-0.1354359
100	0x3e6c1aed	0.23057146
101	0x3b011f7f	0.001970261
102	0xbe82786b	-0.25482497
103	0x3ce9a27e	0.028519865
104	0x3da58eb5	0.0808386
105	0x3e86feed	0.26366368
106	0x3e28c256	0.16480383
107	0xbe9bbec7	-0.3041899
108	0x3b6753d5	0.003529777
109	0xbeaea942	-0.34113508
110	0x3e4325b4	0.19057351
111	0x3d0fde72	0.03512425
112	0xbe13e50e	-0.14442846
113	0x3d0fd507	0.035115268
114	0xbd744f06	-0.059645675
115	0xbd00f267	-0.031481173
116	0x3e860d1c	0.26181877
117	0x3e8d69ec	0.27619874
118	0x3c56537f	0.01308143
119	0xbee22ba2	-0.44173914
120	0xbeb8fbb3	-0.3612953
121	0xbea55c90	-0.32297182
122	0x3e9870c9	0.29773548
123	0x3da17147	0.07882934
124	0xbe4c4439	-0.199479
125	0xbebca64e	-0.3684563
126	0x3eafd403	0.3434144
127	0xbd8defcc	-0.06930503

gnn_layers.0.gnn.att_em_j f4 [1, 1, 128]
0	0x3ee829d2	0.45344406
1	0x3eea3da7	0.45750162
2	0xbe95f717	-0.29290077
3	0xbe94d63e	-0.29069704
4	0xbef25c3e	-0.47336
5	0xbf05b28b	-0.5222556
6	0xbed55d60	-0.41672802
7	0xbebdec8d	-0.37094536
8	0xbe8a042e	-0.26956314
9	0xbe7d4057	-0.24731575
10	0xbe776534	-0.241597
11	0x3f0264e3	0.5093519
12	0xbea3ccf8	-0.31992316
13	0xbf07ce09	-0.5304876
14	0x3ec3dbfb	0.3825377
15	0xbef8cae2	-0.48592287
16	0x3e94edaf	0.29087588
17	0x3eefeb2e	0.46859115
18	0xbe85a384	-0.26101315
19	0xbdc2692d	-0.09492717
20	0x3f49ce06	0.7882999
21	0xbee65b4f	-0.44991538
22	0xbed46ad6	-0.4148776
23	0xbeb055b7	-0.34440395
24	0x3f3a90f9	0.7287746
25	0xbea5a920	-0.32355595
26	0xbee618b4	-0.44940722
27	0xbe9c26ea	-0.3049844
28	0x3edd2be2	0.43197542
29	0xbed26aa9	-0.41097
30	0xbedc2a1c	-0.43000877
31	0xbee86cfc	-0.45395648
32	0xbe81f770	-0.25384092
33	0x3f207580	0.6267929
34	0x3f0f4751	0.55968195
35	0xbef65538	-0.48111892
36	0xbf058405	-0.5215457
37	0xbd96b5fb	-0.07358929
38	0xbef15582	-0.4713555
39	0xbee2cfe4	-0.44299233
40	0x3ec6eb68	0.38851476
41	0xbedab596	-0.42716664
42	0xbeb7b63e	-0.35881227
43	0xbdb515de	-0.088420615
44	0x3ee6da93	0.45088634
45	0xbe9a3066	-0.3011505
46	0xbf13e760	-0.57774925
47	0xbef3c4e1	-0.47611144
48	0xbef502eb	-0.4785379
49	0xbed82636	-0.42216653
50	0xbeb689c3	-0.3565198
51	0xbe1e2088	-0.15442097
52	0x3e9d2295	0.30690446
53	0xbed2072c	-0.41021097
54	0xbed63efa	-0.41844922
55	0xbeb10a82	-0.3457833
56	0x3f211dc1	0.62936026
57	0xbea8b57c	-0.32950962
58	0xbefaec9d	-0.49008647
59	0xbeea6f7a	-0.45788175
60	0xbec00372	-0.3750263
61	0x3efe2d28	0.49643826
62	0xbebb1bf4	-0.36544764
63	0x3ec7f834	0.3905655
64	0x3d848676	0.06470959
65	0xbe12df4a	-0.1434299
66	0xbea5dba2	-0.3239413
67	0xbeaa3654	-0.33244574
68	0x3e148a19	0.14505805
69	0x3e8f97cc	0.280455
70	0x3f02d193	0.51101035
71	0xbcc5b582	-0.024134401
72	0xbea8262b	-0.3284162
73	0x3e959566	0.29215544
74	0xbeb80d11	-0.3594747
75	0x3f221273	0.633094
76	0xbea1592c	-0.31513345
77	0x3f1a0dda	0.60177386
78	0xbdb8f69a	-0.090314105
79	0x3da5acc9	0.08089597
80	0xbedc3589	-0.43009594
81	0xbee03098	-0.43787074
82	0xbe8b4ace	-0.2720551
83	0xbed160a4	-0.40894043
84	0x3efb4e84	0.4908334
85	0xbe8811b7	-0.26576015
86	0x3f0d16b8	0.5511279
87	0x3edb4c76	0.42831773
88	0xbec4716c	-0.38367784
89	0x3f23d474	0.6399605
90	0xbf04f2d1	-0.5193301
91	0x3f2256c7	0.6341366
92	0x3c254200	0.010086536
93	0xbeed7cda	-0.46384317
94	0xbeee7959	-0.46576956
95	0x3f401f00	0.750473
96	0xbecc9101	-0.3995438
97	0xbe631a14	-0.22177917
98	0x3ee7b06f	0.45251796
99	0x3e9527b4	0.29131854
100	0x3e258073	0.1616228
101	0xbeb2d2ad	-0.34926358
102	0x3e259038	0.16168296
103	0x3ecd36c9	0.4008086
104	0xbeb75a62	-0.35811144
105	0xbed85ca3	-0.42258176
106	0xbf2352d7	-0.6379828
107	0xbeb1f133	-0.34754333
108	0xbedc458d	-0.43021813
109	0xbe83e8b5	-0.2576348
110	0xbe9ddb34	-0.308313
111	0xbe0e5e13	-0.13903074
112	0xbea0af08	-0.31383538
113	0x3e44f312	0.19233349
114	0xbf008e8b	-0.50217503
115	0xbec313fb	-0.3810118
116	0xbedc609e	-0.43042463
117	0xbe78f473	-0.24312
118	0xbd6f2320	-0.058383107
119	0xbec3425d	-0.3813657
120	0xbee18ca6	-0.4405262
121	0xbefb9a4d	-0.4914116
122	0xbeae2e79	-0.3401983
123	0xbebca9cd	-0.36848298
124	0x3d15ad91	0.03654248
125	0x3ef599e3	0.4796897
126	0x3c180755	0.009279092
127	0xbe1b170d	-0.15145512

gnn_layers.0.gnn.bias f4 [128]
0	0xbb9cc3ed	-0.0047840984
1	0x3b9a727d	0.004713355
2	0xbc3c6819	-0.011499428
3	0x3bf49944	0.0074645597
4	0xbb0d7959	-0.0021587221
5	0xbb1a6ffd	-0.0023565285
6	0x3aac3078	0.0013137003
7	0xbab1a51b	-0.0013553234
8	0x3b492ff5	0.003069875
9	0x3b3b3e11	0.002857093
10	0xbc6d7101	-0.014492274
11	0xbbc54892	-0.006020614
12	0xba96b8ac	-0.0011499128
13	0xb9fefd07	-0.00048635175
14	0x3ca64c62	0.020300094
15	0xb9015d8b	-0.00012337246
16	0xbbad00fc	-0.0052796584
17	0xbbc53551	-0.0060183187
18	0x3c159d32	0.009131717
19	0xbcf0db33	-0.029401397
20	0xbb229f9d	-0.0024814375
21	0xbb601a06	-0.0034195199
22	0xbd087cf8	-0.033322304
23	0x3b6704c7	0.003525065
24	0xbbe23a64	-0.0069039334
25	0x3ace141c	0.0015722546
26	0xbaed19c9	-0.001808935
27	0xbbd57e4a	-0.006515299
28	0xbb87dd54	-0.0041462574
29	0xbb9383db	-0.0045018024
30	0xb9e343db	-0.0004334737
31	0xb9548c0f	-0.00020270071
32	0xbc606722	-0.013696464
33	0x395354fe	0.0002015419
34	0x397939f4	0.0002376808
35	0xbb159e78	-0.002283005
36	0x3b346d7a	0.0027531073
37	0xbb331d5f	-0.002733074
38	0xba53258b	-0.00080546056
39	0x3b8c5e23	0.004283683
40	0xbbc76134	-0.0060845856
41	0xbc07d491	-0.008290426
42	0x3b89679e	0.0041932603
43	0x3b68e139	0.0035534634
44	0x3b8221f2	0.0039713318
45	0xbc212432	-0.00983529
46	0x3bc0c2b5	0.005882586
47	0x3d4741a6	0.04864659
48	0x3b0be498	0.002134597
49	0xbc223b24	-0.009901796
50	0xbb703cbc	-0.0036657294
51	0x3ad408af	0.0016176904
52	0x3b5efe0e	0.003402594
53	0x3bba0ab2	0.0056775445
54	0xbbcb245e	-0.0061994037
55	0xbbc9e16c	-0.0061609056
56	0xbcfd784b	-0.03094115
57	0x3d1551b4	0.03645487
58	0xbb93130d	-0.004488355
59	0x3a82c168	0.0009975852
60	0x3b98b200	0.004659891
61	0x39198976	0.00014642425
62	0x3b6d9725	0.003625342
63	0x3bd88663	0.006607817
64	0xbb19fd0c	-0.0023496775
65	0x3abbb609	0.0014321218
66	0x3b2b5e90	0.0026148893
67	0x3c136584	0.008996371
68	0xbcaff7a8	-0.021480396
69	0xbb4fced3	-0.003170897
70	0x3df45dbd	0.11931942
71	0xbaa30b05	-0.0012439197
72	0x3bf8755e	0.0075823506
73	0xbb8c7415	-0.004286299
74	0x3b2dd9fb	0.0026527632
75	0x3a23ca46	0.00062480976
76	0x3aeedd02	0.0018223824
77	0x3b54fd67	0.0032499672
78	0x3c37131d	0.011173991
79	0xbb6957b2	-0.003560525
80	0xbbd2a724	-0.006428616
81	0xbb503c2e	-0.003177415
82	0xbb702f5e	-0.0036649327
83	0xbb33d956	-0.0027442775
84	0xbe8697ea	-0.26287776
85	0xbb83b3db	-0.004019243
86	0xbb5689bd	-0.0032735907
87	0xbb047c1e	-0.0020215581
88	0xb904d3d0	-0.00012667407
89	0xbc038902	-0.008028271
90	0xb9ca7f2f	-0.00038623202
91	0xbc34a258	-0.011025034
92	0xbc3574c4	-0.011075202
93	0xbbca8c4d	-0.006181276
94	0xba0bc289	-0.0005331417
95	0xbb8f06dd	-0.004364832
96	0x3b9e8d85	0.004838648
97	0xbb72d8f1	-0.0037055577
98	0xbbea59c2	-0.0071518132
99	0xbe95cd66	-0.2925827
100	0x3c9d90fb	0.019234171
101	0x3ca3aac1	0.019978883
102	0x3a8f00f9	0.0010910324
103	0x3b8f5d0f	0.004375107
104	0xbb8c5a9f	-0.004283264
105	0xbc8f5f4f	-0.017501501
106	0x3c019c36	0.007910779
107	0xbb55e39b	-0.0032636884
108	0xbcfc8851	-0.03082672
109	0xbb992d4c	-0.0046745893
110	0x39484aa8	0.00019101298
111	0xbb6e8861	-0.0036397206
112	0x3bc12f8f	0.005895562
113	0xba80a134	-0.0009813667
114	0xbabcfdfc	-0.0014418955
115	0xbaf9ae65	-0.0019049166
116	0xbb8b5308	-0.0042518415
117	0xbb561e29	-0.0032671785
118	0xbb866e07	-0.0041024718
119	0xbad52200	-0.0016260743
120	0x3a508789	0.00079547666
121	0x3c104d95	0.0088075595
122	0x3b249052	0.0025110436
123	0xbb8bcfa4	-0.004266696
124	0x3b513ccd	0.003192711
125	0x3adf8c6b	0.0017055398
126	0xbc2f7ff7	-0.010711662
127	0x39931da9	0.00028060123

gnn_layers.0.gnn.lin.weight f4 [128, 50]
0	0x3e6e0b53	0.23246507
1	0xbdf447fc	-0.119277924
2	0xbe065c5b	-0.13121168
3	0xbd9d3105	-0.07675365
4	0xbd9ba20d	-0.07599268
5	0x3d6f8701	0.05847836
6	0x3dfdf771	0.12400711
7	0xbe21d219	-0.15802802
8	0xbe4d9170	-0.20075011
9	0xbe10afc0	-0.14129543
10	0x3e6d5038	0.23175132
11	0xbe004b5b	-0.12528746
12	0xbd9e7dc3	-0.07738831
13	0xbdf02d48	-0.11727387
14	0x3e209934	0.15683442
15	0x3d2313af	0.039813694
16	0x3d3202a9	0.04345957
17	0x3dcaa61f	0.09894966
18	0xbd29ca06	-0.04145243
19	0x3d493f5a	0.049132682
20	0x3eb97331	0.36220697
21	0x3db2d0bd	0.0873122
22	0xbe395994	-0.18100578
23	0x3c0c6ca5	0.008570825
24	0x3e02147f	0.12703131
25	0xbe0435ee	-0.12911198
26	0x3da68cb5	0.081323065
27	0xbdc7e97b	-0.0976133
28	0xbe50a728	-0.20376265
29	0x3d6c74b6	0.05772849
30	0x3e75e577	0.24013315
31	0xbcb509fc	-0.022099487
32	0x3dead7af	0.1146692
33	0x3d95759e	0.07297824
34	0xbdd173c2	-0.10227157
35	0x3d9f9359	0.07791776
36	0x3e17dfb7	0.14831434
37	0xbd17d280	-0.037065983
38	0xbd985cf3	-0.07439604
39	0xbe1fc6db	-0.15603201
40	0x3eb8d841	0.3610249
41	0x3c0bdc76	0.008536449
42	0x3e2f464d	0.17116661
43	0x3d340955	0.043954212
44	0x3e24811e	0.1606488
45	0x3d30ec10	0.043193877
46	0x3da65392	0.081214085
47	0x3dfff1e0	0.12497306
48	0x3dc8df7f	0.098082535
49	0x3ef4a186	0.47779483
50	0xbe083dfe	-0.13304898
51	0x3ca89085	0.020576725
52	0x3e3d48da	0.18484822
53	0x3dbb6fd0	0.09152186
54	0x3dae2f98	0.085051715
55	0x3e81ae28	0.25328183
56	0x3e568e5f	0.20952748
57	0x3e174fee	0.14776585
58	0x3e2b3d9b	0.1672272
59	0x3e78b38d	0.24287243
60	0xbceed993	-0.029156482
61	0x3e272709	0.16323484
62	0x3d41d964	0.04732646
63	0x3ca7f29a	0.020501424
64	0x3e3e5623	0.18587546
65	0x3db3497c	0.087542504
66	0x3e763e52	0.24047211
67	0x3e4d21f2	0.2003248
68	0x3e5567dd	0.20840402
69	0x3e296cc0	0.16545391
70	0xbcaa64d9	-0.020800041
71	0xbca9ffa3	-0.02075178
72	0x3e0f2f71	0.13982941
73	0x3df401af	0.119143836
74	0x3dc85421	0.09781671
75	0xbd47f1d4	-0.04881461
76	0xbbce6f0e	-0.00629986
77	0xbc14545b	-0.009053315
78	0x3e597b02	0.2123833
79	0xbd525b27	-0.05135646
80	0x3d8eeeaf	0.06979119
81	0x3e6b3f20	0.22973299
82	0x3d121388	0.035663158
83	0xbd00b8f1	-0.031426374
84	0xbd925409	-0.07144935
85	0x3dc793e7	0.09745007
86	0x3e1e2f4a	0.15447727
87	0x3d409902	0.04702092
88	0xbc92b9f5	-0.017910937
89	0x3e584a7f	0.21122168
90	0xbdf17632	-0.11790122
91	0x3dff9c7c	0.12481019
92	0x3d7d79d9	0.06188378
93	0x3e018624	0.12648827
94	0x3e3181da	0.1733469
95	0x3e14ad36	0.145192
96	0x3e1328ee	0.14371082
97	0xbdce28d8	-0.10066384
98	0xbe30a7d3	-0.1725152
99	0xbe8a9c7f	-0.27072522
100	0x3bb00308	0.005371455
101	0x3cb68cd6	0.022283953
102	0xbd0ae7b7	-0.033912387
103	0x3c12d7bc	0.008962568
104	0xbe00596e	-0.12534115
105	0xbe07b782	-0.13253596
106	0xbd5a32af	-0.053270992
107	0xb8497c50	-4.803791e-05
108	0xbce71aad	-0.028210962
109	0x3df3f3d9	0.119117446
110	0xbe6483f6	-0.22315964
111	0x3d759159	0.059953067
112	0xbc56a92a	-0.013101855
113	0x3cef303b	0.029197803
114	0xbc59574a	-0.01326544
115	0xbd433a92	-0.04766328
116	0xbcbf836c	-0.023378097
117	0x3d9b9620	0.075969934
118	0xbc93931d	-0.018014485
119	0x3b92c162	0.0044786194
120	0xbef60113	-0.48047695
121	0xbe418bb9	-0.18900956
122	0xbc9ec26b	-0.019379815
123	0xbd8d0e9a	-0.06887551
124	0xbcbf0084	-0.023315676
125	0xbcde97e9	-0.027172046
126	0xbdfad0c2	-0.12246849
127	0xbe2b5903	-0.16733174
128	0xbcc35989	-0.023846405
129	0xbb95ca0c	-0.004571205
130	0x3c8efd09	0.017454641
131	0x3d52ec83	0.051495086
132	0x3d2e2b3d	0.042521704
133	0xbd566577	-0.05234286
134	0xbdaa3a03	-0.08311846
135	0xbd8a2dd6	-0.06747024
136	0x3d2a8759	0.041632984
137	0x3cac6f58	0.021049187
138	0x3d40979f	0.047019597
139	0x3df424b4	0.11921063
140	0xbe4c58fc	-0.1995582
141	0xbda1d99c	-0.07902834
142	0x3d319a43	0.043360006
143	0x3c7e2268	0.015511133
144	0x3d0cfc17	0.0344201
145	0xbc1a7bc6	-0.009428924
146	0x3d09be70	0.03362888
147	0xbdf05e4d	-0.117367364
148	0xbe9f4d18	-0.31113505
149	0xbf0af8a2	-0.54285634
150	0xbde25d9e	-0.11053012
151	0xbdd02896	-0.10163991
152	0xbdebb953	-0.11509957
153	0xbdd8d307	-0.10587125
154	0xbd84eba3	-0.06490257
155	0xbc81cb76	-0.015844088
156	0xbd1d3a74	-0.038385823
157	0xbd9023f3	-0.07038107
158	0xbd5eea51	-0.05442268
159	0xbd50be22	-0.050962575
160	0x3c7faaa9	0.015604653
161	0xbdc94ccf	-0.09829103
162	0xbd89ecef	-0.067346446
163	0xbcfb7a78	-0.030698046
164	0x3c970963	0.018437093
165	0xbd659e2f	-0.05605906
166	0xbd2476d2	-0.04015238
167	0xbda9fa45	-0.08299688
168	0x3c5af2bb	0.0133635355
169	0xbcfc3a73	-0.03078959
170	0x3d29fa60	0.04149854
171	0xbe07b910	-0.1325419
172	0xbd0ed24a	-0.034868516
173	0xbd03a643	-0.03214098
174	0xbdc47123	-0.095918916
175	0xbe330839	-0.17483605
176	0x3c5b9f58	0.01340469
177	0xbcd6d233	-0.026223278
178	0x3d3710ea	0.044693865
179	0xbded16b3	-0.11576595
180	0xbd05c303	-0.03265668
181	0x3cc0447b	0.023470154
182	0xbd54ad4a	-0.051923074
183	0xbd6a6ae9	-0.057230864
184	0xbccae9f2	-0.024769757
185	0x3d4e64d7	0.050389137
186	0xbe4813de	-0.19538829
187	0xbda232f7	-0.07919877
188	0xbde695e7	-0.1125906
189	0x3c224a1a	0.0099053625
190	0xbde57902	-0.11204721
191	0xbdd54045	-0.10412649
192	0xbe4bf447	-0.19917403
193	0xbe1fa3e4	-0.15589863
194	0xbe017827	-0.1264349
195	0xbe83eb44	-0.2576543
196	0xbcc31e56	-0.023818176
197	0xbe0b3b9f	-0.13596962
198	0xbe2ccfa4	-0.16876084
199	0xbe15e176	-0.14636788
200	0x3e2b6d6d	0.16740961
201	0xbe191650	-0.14949918
202	0x3e001d9e	0.12511298
203	0x3e2a6915	0.16641648
204	0xbd656a16	-0.056009375
205	0x3d53b4b4	0.051686004
206	0xbd8e1ee2	-0.06939484
207	0xbdbde600	-0.09272385
208	0xbc47968d	-0.01218189
209	0xbe01677a	-0.1263713
210	0x3d1b9066	0.037979506
211	0x3d0ad905	0.033898372
212	0xbe32df64	-0.1746803
213	0xbd610808	-0.0549393
214	0xbe4804aa	-0.19533029
215	0xbc92b082	-0.017906431
216	0x3e11ede7	0.14250909
217	0x3d761bc8	0.060085088
218	0x3e4331a7	0.1906191
219	0x3e221f47	0.15832244
220	0xbe9544cc	-0.2915405
221	0xbcbfce11	-0.02341369
222	0x3d0440c8	0.032288343
223	0xbd51af05	-0.051192302
224	0xbe5f4bb7	-0.21806227
225	0x3e0e05b7	0.13869368
226	0xbdf9b60b	-0.12192925
227	0x3e4bca43	0.19901375
228	0xbdc6063e	-0.09669159
229	0xbe020550	-0.12697339
230	0xbcdd1676	-0.02698825
231	0x3e22be00	0.15892792
232	0xbda1417c	-0.07873818
233	0xbdb1bc10	-0.08678448
234	0xbcb88b05	-0.022527227
235	0xbe45a03e	-0.19299409
236	0xbe13fd73	-0.14452152
237	0xbb91d037	-0.00444987
238	0xbdaf283e	-0.085525975
239	0xbc9b685b	-0.018970659
240	0x3e39755d	0.18111177
241	0xbccbe886	-0.02489115
242	0xbd65385d	-0.055961955
243	0xbe3d476c	-0.18484277
244	0xbc8836df	-0.016627727
245	0x3e2f5db9	0.17125596
246	0x3e100af6	0.14066681
247	0x3de4ef21	0.11178423
248	0x3df7f222	0.1210673
249	0xbea739af	-0.32661197
250	0x3e0c59b6	0.13706097
251	0x3ddf97dd	0.109176375
252	0x3e31df2f	0.17370294
253	0x3e3c088b	0.18362634
254	0x3e3ecb8d	0.18632336
255	0xbe23b72b	-0.15987842

gnn_layers.0.bn.weight f4 [128]
0	0x3f23ca2e	0.63980377
1	0x3f35bbc8	0.70989656
2	0x3f65944a	0.89679396
3	0x3eb0acbf	0.34506795
4	0x3f58b0b5	0.84644634
5	0x3f064332	0.5244628
6	0x3ee3b993	0.4447752
7	0x3eddc029	0.4331067
8	0x3ee7d36e	0.45278496
9	0x3f556101	0.8335114
10	0x3f80c08a	1.0058758
11	0x3e38a908	0.1803323
12	0x3eeeee8f	0.4666638
13	0x3f161331	0.58623034
14	0x3f757deb	0.9589526
15	0x3f014075	0.5048898
16	0x3eb2844d	0.34866562
17	0x3e0980e0	0.13428068
18	0x3f3dfa84	0.7421038
19	0x3f16f5f0	0.5896902
20	0x3f37ab78	0.71746016
21	0x3f2908fe	0.66029346
22	0x3f73aac3	0.95182437
23	0x3f5b9093	0.8576748
24	0x3f6e821e	0.93167293
25	0x3f5d24f6	0.8638452
26	0x3f29833a	0.6621586
27	0x3ee3d6d4	0.44499838
28	0x3f01d5b9	0.5071674
29	0x3c8de53d	0.017321223
30	0x3dbc62ae	0.09198509
31	0x3dd1e0eb	0.10247978
32	0x3e2b6f04	0.16741568
33	0x3f6432c1	0.89139944
34	0x3de08ccf	0.10964357
35	0x3f6d1a04	0.9261782
36	0x3f34766d	0.70493203
37	0x3eefefd8	0.46862674
38	0x3f33d2f4	0.70243764
39	0x3ed34018	0.41259837
40	0x3f7f2534	0.9966614
41	0x3f086b00	0.5328827
42	0x3f7900bb	0.9726674
43	0x3f6369c0	0.88833237
44	0x3f828685	1.0197302
45	0x3ccd2dd5	0.025046268
46	0x3f2db729	0.67857605
47	0x3f7a3e09	0.9775091
48	0x3f4058ad	0.7513531
49	0xbb966dcd	-0.004590726
50	0x3c1a5d2a	0.009421626
51	0x3dcd69ae	0.100299224
52	0x3f56bd56	0.83882654
53	0x3f226038	0.6342807
54	0x3f71a65c	0.9439447
55	0x3da3c671	0.07996834
56	0x3f3d00b3	0.7382919
57	0x3f8132e3	1.0093654
58	0x3f815e98	1.0106993
59	0x3f09f3d2	0.53887665
60	0x3efeb668	0.4974854
61	0x3f187ba0	0.59563637
62	0x3ebdf256	0.3709895
63	0x3f79b148	0.97536135
64	0x3f0078c0	0.5018425
65	0x3f0ca895	0.54944736
66	0x3ef5048a	0.47855026
67	0x3e55cd74	0.20879155
68	0x3f2badd4	0.67062116
69	0x3f45623a	0.77103007
70	0x3f714137	0.94240135
71	0x3ee0b48a	0.4388774
72	0x3f24b529	0.6433893
73	0x3e9ac67d	0.3022956
74	0x3f2b73fb	0.6697385
75	0x3f203ae5	0.62589866
76	0x3f2e81c7	0.68166775
77	0x3f43175b	0.7620751
78	0x3f3c3e18	0.7353225
79	0x3f14603a	0.5795933
80	0x3bf7a2ae	0.0075572347
81	0x3e889abe	0.2668056
82	0x3ec8cd33	0.39219055
83	0x3f275113	0.65358084
84	0x3f29bb04	0.6630099
85	0x3f216245	0.6304057
86	0x3deeb908	0.11656386
87	0x3f6d9989	0.928124
88	0x3f72cc1e	0.9484271
89	0x3f82479e	1.0178106
90	0x3f4f7fb9	0.81054264
91	0x3f75055d	0.9571131
92	0x3f1a2ae4	0.60221696
93	0x3e8d1a3e	0.27559084
94	0x3f8199c1	1.0125047
95	0x3dc2efc7	0.0951839
96	0x3f3bbfbb	0.7333943
97	0x3f2eeaa2	0.6832677
98	0x3f29bd43	0.66304415
99	0x3f173b1c	0.5907457
100	0x3f7040e7	0.93849033
101	0x3f809053	1.0044044
102	0x3f18dcf0	0.59712124
103	0x3f72ddf6	0.94869936
104	0x3ed55ec3	0.4167386
105	0x3eed8101	0.46387485
106	0x3dab0dbf	0.08352231
107	0x3f2a43fa	0.66509974
108	0x3f590590	0.8477411
109	0x3ee03754	0.43792212
110	0x3df1ee10	0.11812985
111	0x3f7b8d16	0.98262155
112	0x3f2ad727	0.66734546
113	0x3f1e6abb	0.6188161
114	0x3f6edc8c	0.9330528
115	0xbc0d3f59	-0.00862106
116	0x3d62cf42	0.055373438
117	0x3e0404dc	0.12892479
118	0x3d88e7e2	0.06684853
119	0x3f43e2c5	0.765179
120	0x3f129c61	0.57269865
121	0x3f106abd	0.5641287
122	0x3f2904a3	0.660227
123	0x3e35b6a8	0.17745459
124	0x3f2044be	0.6260489
125	0x3f333d48	0.7001538
126	0x3ef5981b	0.4796761
127	0x3f346ad1	0.7047549
