model_normal/gdn_smd_w_100_epoch20.pth (torch, 85384 bytes, 16 tensors)

embedding.weight f4 [38, 128]
000000 18 27 c7 ba d8 cf fa be 32 31 07 be c7 7a ed be
       -0.0015194146 -0.48986697 -0.1320236 -0.46382734
000010 5a 4f 9e bd ff e6 0b be 36 26 5c be ca 33 af be
       -0.07729979 -0.13662337 -0.21498951 -0.342192
000020 01 c3 be 3c b6 96 49 3e 57 b6 da 3d 8e 3b 5d bc
       0.023286344 0.19686398 0.1067931 -0.0135029685
000030 d9 2b ee 3b e1 3a a0 be 91 ff 86 bf 4e e4 85 3e
       0.0072684106 -0.3129492 -1.0546743 0.26150745
000040 b7 d7 48 bf 62 19 61 bd e6 d5 49 3d 65 dc 9a be
       -0.78454155 -0.054955848 0.049276255 -0.30246273
000050 61 9c 21 bf a0 79 b4 bd 58 c7 a1 3e ae d4 cf bd
       -0.6312924 -0.08812261 0.315974 -0.10147987
000060 f5 cb cb bd 5b 94 0d bf 20 fe b9 3d de 77 a7 bd
       -0.09951011 -0.553045 0.090816736 -0.0817716
000070 5c 3e d9 be 7f d1 27 be d1 a2 c4 bd c4 a0 15 bf
       -0.4243039 -0.1638851 -0.09601367 -0.58448434
000080 48 d4 14 bf 3b 83 1a bf 63 9f 52 be 23 16 85 3e
       -0.58136415 -0.6035649 -0.20568614 0.2599345
000090 10 7d 4e be 8f f0 26 be d9 2e 15 3e 1e 26 b0 bd
       -0.20164895 -0.16302703 0.14568652 -0.0860102
0000a0 ba 66 38 be 64 5c ab 3e 68 51 5e 3d 51 67 d8 be
       -0.18007937 0.33468926 0.054276854 -0.42266324
0000b0 72 79 63 3e 00 36 55 3d 03 84 15 be 09 58 4a bf
       0.22214296 0.05205345 -0.1460114 -0.7904058
0000c0 be a2 40 bf 9a af 36 be 98 2e 72 bf 34 42 76 3c
       -0.75248325 -0.17840424 -0.94602346 0.0150304325
0000d0 cc 81 be be a8 d7 53 bf 70 0a 87 be 59 15 c6 bd
       -0.37208402 -0.8275094 -0.2637515 -0.096720405
0000e0 52 71 9b bc cc 81 d8 bd 2f 45 db be 98 13 2b be
       -0.018974934 -0.10571632 -0.4282622 -0.16706693
0000f0 07 cf 51 be 29 f6 4d be 2d f8 b8 3e b8 ed 25 bd
       -0.20489131 -0.20113434 0.36126843 -0.04050991
000100 51 1c 80 bf 4e d2 c7 be 02 3c b3 bd 0d 38 55 bf
       -1.0008641 -0.39027637 -0.0875168 -0.8328865
000110 9b 91 f7 be 78 6b 1d b9 3c 68 36 3d c8 40 41 be
       -0.48353276 -0.00015012722 0.044533 -0.18872368
000120 09 dc fd be f2 a2 a7 be 6d 73 2b be a8 1c 40 bf
       -0.49581936 -0.32741505 -0.1674325 -0.75043726
000130 49 4c 15 be 03 90 48 bf 24 c8 c8 be 77 4a c2 bc
       -0.14579882 -0.78344744 -0.39215195 -0.023717148
000140 84 75 54 be 0b 65 ae bd 4c e9 66 3e 65 45 46 bf
       -0.20747954 -0.08515366 0.22549933 -0.7744964
000150 e1 c5 ce 3e 8b 50 9a be eb b4 66 bf 59 06 83 3e
       0.40385345 -0.30139574 -0.9011981 0.2559078
000160 17 71 70 3e 3a cd df 3e fb ce 24 be c7 48 e5 bc
       0.2348064 0.43711263 -0.16094582 -0.027988805
000170 d7 c7 28 be 70 6e 00 3d 3b ac da 3b 35 90 5d bd
       -0.16482483 0.03135532 0.0066733635 -0.054092605
000180 4e d1 83 be 1b cf 0b bf eb 95 1b 3e 04 22 67 3e
       -0.25745624 -0.5461289 0.15193908 0.2257157
000190 a6 b4 82 3e d4 d2 8a be d7 67 37 bf ba 7e 71 bc
       0.2552845 -0.27113974 -0.7164282 -0.014739687
0001a0 94 23 f6 bd bf 0f 1a bf 7f 6a 09 bf 48 34 a2 be
       -0.12018505 -0.60180277 -0.53678125 -0.31680512
0001b0 6e 76 27 bf 7d 71 89 bf 90 73 78 bf d6 96 4b bf
       -0.65415084 -1.0737759 -0.97051334 -0.7952703
0001c0 8e de 95 bd 53 f8 46 bf 91 7b 9f be 14 ba 14 be
       -0.073178396 -0.7772266 -0.3114896 -0.14524108
0001d0 4e 0d be be 9d 26 e6 3d 74 ae 14 3c b1 66 2c 3d
       -0.37119526 0.11237834 0.009074796 0.04209012
0001e0 61 89 4d 3e 71 e0 b5 3c 5d be fc bd b4 89 09 bf
       0.20071937 0.022201749 -0.123409964 -0.53725743
0001f0 79 88 32 be ab 6c 25 be 46 fe 32 3f 7e 57 43 3b
       -0.17434873 -0.16154735 0.6991924 0.0029806788
000200 8b 55 7b be ff 19 d9 bc eb 7b bb bd 1a 06 ba be
       -0.24544351 -0.026501654 -0.09154495 -0.3633278
000210 1d e2 9a bd 63 04 d8 3c 7c 45 55 3d 04 89 71 3e
       -0.07562659 0.02636928 0.05206822 0.23587424
000220 2b 85 f7 be b1 c8 06 3e 03 b4 70 3d 2e ca d1 bc
       -0.48343787 0.13162495 0.058765423 -0.025609102
000230 20 1d 08 3f a1 2e 35 be 7e 50 92 3c 70 d5 8a bd
       0.5316944 -0.17693569 0.017860647 -0.06778991
000240 99 76 cb 3c db 64 a2 bd 1a 0b 03 bf 4e 95 28 bd
       0.024836825 -0.07929393 -0.51188815 -0.041158013
000250 41 e4 dc be d2 8f df bc 23 1d 46 3e 76 5e ba bd
       -0.43142894 -0.027290259 0.19347052 -0.09100048
000260 ee a3 ff bd ad bf b2 bd 7c 2f 0b 3e cc 65 54 bf
       -0.12482439 -0.087279655 0.13592333 -0.8296783
000270 41 ed c6 be 61 5d e2 bd 48 ac 50 be 1f 95 f7 3d
       -0.38852885 -0.11052967 -0.2037822 0.120889895
000280 64 7a d4 3d 29 08 19 bd 97 fb c2 3c 01 4f 48 3e
       0.10374907 -0.037361298 0.023801608 0.19561388
000290 f3 2b 2a be 26 ec 13 bd 3c 03 8a bd f8 76 3a bf
       -0.16618328 -0.03611388 -0.06738898 -0.7283778
0002a0 18 5d cf 3d f0 2b fa 3d 3d e9 33 3d c8 1d 04 bf
       0.10125178 0.12215412 0.043923605 -0.5160794
0002b0 71 84 f7 bc e6 5d fe 3c 17 5a 42 bc 9c 5f 12 bf
       -0.03021452 0.031050634 -0.011862299 -0.5717714
0002c0 b5 7e 49 be d5 37 ad be 16 14 2c be 4e 51 59 3e
       -0.19677241 -0.3383166 -0.16804537 0.21222422
0002d0 53 5c 24 3d ec 6c 00 bf 57 ec 03 bf 19 f4 11 bd
       0.04012711 -0.501662 -0.515325 -0.03563318
0002e0 0f ac db 3e d7 80 6f bd 67 e8 d0 be 00 f8 cf be
       0.42904708 -0.05847248 -0.4080231 -0.40618896
0002f0 3e 3c e3 be 9e ef 3e 3e d6 50 6e be b9 ec 75 bf
       -0.443819 0.18646094 -0.23273024 -0.96064335
000300 cb eb d0 be 55 ec 60 be 45 63 0d be 59 1e 48 bf
       -0.40804896 -0.21965154 -0.138074 -0.78171307
000310 8d 5c 29 be 3f 68 7b 3e c3 4e 97 be 22 19 11 bf
       -0.16539212 0.24551485 -0.29552278 -0.56678975
000320 47 fd 04 bf 68 73 b3 3d ee 11 ec bd 31 60 c1 3c
       -0.5194897 0.08762246 -0.11526857 0.023605438
000330 af c7 a1 bc fe 7e 89 be bc 75 03 bf f0 03 95 3d
       -0.019748537 -0.268547 -0.51351523 0.07276142
000340 62 93 f9 be 46 9e ec bd 06 a4 16 be ef ed a8 be
       -0.48745257 -0.11553626 -0.14711007 -0.3299403
000350 06 a1 70 3e 73 f5 62 be ee 0f 33 be d7 a9 5b 3e
       0.23498926 -0.22163944 -0.17486545 0.21451508
000360 93 73 53 bd d4 0a d4 3e 3e 5f 1c 3e f8 c6 a3 bc
       -0.051623892 0.4141451 0.15270707 -0.019992337
000370 c2 79 58 3d b3 68 c8 be 0e bb 84 bc 01 b9 98 be
       0.052850492 -0.3914238 -0.016202476 -0.29828647
000380 13 64 96 bf a6 20 e9 be a7 45 2a 3d 6f 9e 0f 3e
       -1.174929 -0.4553272 0.041570332 0.14025281
000390 ff 91 01 bf 91 85 48 bd ce 17 27 be 78 bb 1f bf
       -0.506134 -0.048955504 -0.16317675 -0.6239543
0003a0 1f 4b 20 bf c0 56 f8 be 3e 15 e1 be 45 37 9d be
       -0.62614626 -0.48503685 -0.4396152 -0.3070623
0003b0 73 bf 07 bf 18 78 0f be 31 ae 85 bf aa d1 11 bf
       -0.53026503 -0.14010656 -1.0443784 -0.56960547
0003c0 75 79 6d bd 12 e1 9e bd 0c 36 1f bf 71 2a bb 3c
       -0.05797716 -0.077577725 -0.62191844 0.022847386
0003d0 20 c3 2b bb 09 c7 24 be 7d 96 fe 3c bd 7f 9e 3d
       -0.0026208833 -0.16091551 0.031077618 0.07739208
0003e0 2f bb 4f 3e cd c1 95 be 9b 2b 95 3e 50 8c 6d 3d
       0.20286249 -0.2924942 0.2913483 0.05799514
0003f0 75 e2 96 3d 55 03 46 be 74 02 6b 3e 0b 90 17 3d
       0.07367412 -0.19337209 0.22950155 0.037002604

bn_outlayer_in.weight f4 [128]
000000 06 6a 5a 3e a3 29 70 3e 5a 13 40 3f 72 7d 45 3f
       0.21329507 0.23453383 0.7502953 0.7714454
000010 d6 9a 94 3e cc 2c a6 3e 19 25 70 3e a7 35 10 3e
       0.2902438 0.32456052 0.23451652 0.14082967
000020 82 54 79 3e 26 02 51 3e 7d b2 4b 3e 86 a3 4c 3f
       0.24348643 0.20410976 0.19892307 0.79937017
000030 10 6a a6 3e 2c 0e 07 3f ad 47 c6 3e 00 b0 91 3e
       0.32502794 0.52756 0.3872656 0.2845459
000040 a5 25 11 3f 71 49 3c 3f 2b a0 6e 3f eb f1 b5 3e
       0.56698066 0.7354956 0.93213147 0.3553613
000050 21 c7 1d 3f cd 02 04 3f 9a 52 0b 3e 24 c9 8c 3e
       0.6163197 0.51566774 0.13605729 0.27497208
000060 a5 9e d7 3d 3c 0b df 3e a6 73 bb 3e 3b cb 48 3e
       0.10528306 0.4356326 0.3661167 0.19608776
000070 34 5d d0 3e f1 3a af 3e 39 2d fa 3e 4a 24 53 3e
       0.40696108 0.34224656 0.48862627 0.20619312
000080 31 14 9f 3e ed 0e 82 3e 68 93 08 3f 55 fa ce 3d
       0.31070092 0.25402012 0.53349924 0.10106341
000090 fe b2 88 3e a0 f8 95 3e 32 0c 18 3e 7c 05 e9 3e
       0.2669906 0.29291248 0.14848402 0.45511997
0000a0 dd 7d a3 3e f0 9c 3b 3c 1b 05 00 3f aa f3 20 3f
       0.31931964 0.011450991 0.5000779 0.628718
0000b0 57 75 92 3d 32 57 8a 3e ea 9b d6 3e 96 d2 21 3f
       0.07151287 0.2701965 0.41915828 0.63211954
0000c0 69 bb 13 3f 5b b7 c8 3e e6 49 23 3f 08 83 1b 3f
       0.5770784 0.3920239 0.63784635 0.6074681
0000d0 5a fc d8 3e c6 2e 39 3f 75 cb 16 3f 32 c9 11 3f
       0.4238003 0.72336996 0.589042 0.56947625
0000e0 72 5f 02 3e f2 03 a8 3e d1 35 0e 3f 6c 4b 2f 3f
       0.12731722 0.3281551 0.5555087 0.6847446
0000f0 06 98 1a 3f de cb b6 3e bf d2 f1 3e fa 29 4f 3f
       0.6038822 0.35702413 0.472311 0.80923426
000100 1f a7 4e 3f d6 8a 0c 3f f1 ca 15 3f ae b3 4d 3f
       0.80723757 0.54899347 0.5851279 0.80352294
000110 11 69 22 3f 9c e8 e0 3d 9e 1b 80 3e 78 fb ca 3e
       0.6344157 0.10981867 0.2502107 0.3964498
000120 0d e2 b8 3e 15 ac 2c 3e fe 79 35 3f 29 c3 fb 3e
       0.36109963 0.16862519 0.7088927 0.49172333
000130 fb 82 8d 3e 8d a8 36 3f 69 62 4c 3f 11 cb 2a 3f
       0.27638993 0.7135094 0.7983766 0.66716105
000140 52 00 20 3f 36 10 da 3e f2 3a 00 3f 77 e9 b1 3e
       0.6250049 0.42590493 0.50089943 0.34748432
000150 43 f7 50 3e a4 a5 fd 3e b7 c6 41 3f ff 5a 16 3e
       0.20406823 0.49540436 0.7569384 0.1468315
000160 68 2b 5a 3e 35 33 9b 3e 5c 42 08 3f 0a 50 17 3e
       0.2130562 0.30312505 0.53226256 0.14776626
000170 8c 99 1f 3f 5e 1d 33 3f 80 c1 59 3f a8 a2 82 3e
       0.6234367 0.69966686 0.8506088 0.25514722
000180 03 65 16 3f f9 4d 21 3f 9e 08 84 3e d0 e9 48 3e
       0.5874788 0.630096 0.25787824 0.19620442
000190 29 e2 e1 3e 8a 42 d7 3e ea af 14 3f 7a 27 11 3f
       0.4411786 0.42042953 0.58080924 0.5670086
0001a0 91 98 1a 3f 20 e8 39 3f 15 14 66 3f 9f fa 24 3f
       0.6038905 0.7261982 0.8987439 0.6444492
0001b0 f1 8e 36 3f d9 6f 47 3f e3 dd 20 3f c4 59 3f 3f
       0.7131186 0.7790504 0.6283857 0.74746346
0001c0 eb 2c 87 3e 29 c3 d3 3e b6 a4 84 3e 80 61 91 3e
       0.26401457 0.41359833 0.25906914 0.283947
0001d0 b0 f9 ce 3e 58 d9 d5 3e 3c 6e 29 3e 23 57 ae 3e
       0.4042487 0.41767383 0.16545957 0.34050855
0001e0 7c 26 6f 3e 48 c9 09 3f e6 04 ef 3e b6 07 ca 3e
       0.23354524 0.53822756 0.46683425 0.39459008
0001f0 62 41 07 3f df c1 ee 3e 6a 5c 0a 3e ab e7 53 3e
       0.5283414 0.46632287 0.13511816 0.20693843

bn_outlayer_in.bias f4 [128]
000000 71 30 64 be c5 a8 0c bd d6 58 c9 be 0a 41 98 be
       -0.22284104 -0.03434064 -0.3932559 -0.2973712
000010 27 2c b5 bf a9 2d 9e be 8a f7 9a bd 4f bb b7 bc
       -1.4154099 -0.3089421 -0.075667456 -0.022428183
000020 00 b3 39 bf bb 29 70 bd 0d 8e 35 bd 9a a5 87 be
       -0.7253876 -0.058633547 -0.044324923 -0.2649353
000030 27 46 08 bf 66 df aa be 32 df 68 bd e2 ae 2c be
       -0.53232044 -0.33373564 -0.05685348 -0.16863587
000040 44 78 f5 bd 33 30 15 bd b8 70 c2 be 03 89 96 be
       -0.119858295 -0.03642292 -0.37976623 -0.29401407
000050 90 ef 4f be d9 1a 53 bf f0 65 01 3c d1 54 3c be
       -0.2030623 -0.8246284 0.007897839 -0.1839173
000060 2f 93 ee ba 68 02 a2 bd f9 11 45 be 00 11 2c bd
       -0.0018201823 -0.07910615 -0.19245137 -0.0420084
000070 5b 1b 42 be 8a 67 02 be a2 05 73 be c1 d9 f8 bc
       -0.18955748 -0.1273481 -0.23732617 -0.03037727
000080 4b c8 0b be eb 93 0a bd 0b 9f d2 bd 3e 11 22 bb
       -0.13650624 -0.03383247 -0.10284241 -0.0024729515
000090 6a a4 37 bf f0 da 77 be 71 33 22 bf 8a 60 67 be
       -0.7173525 -0.24204612 -0.63359743 -0.2259542
0000a0 7f 9b 6c bd 90 91 42 bf 07 04 ff bd 26 58 f8 be
       -0.05776548 -0.7600336 -0.1245194 -0.48504752
0000b0 78 9e d5 be 0d 45 b9 be e7 83 cd be 93 22 5a bf
       -0.41722465 -0.36185494 -0.40139696 -0.85209006
0000c0 5d 0b 05 bf c4 db 11 be 52 6c dd be 3d 1f f3 be
       -0.51970464 -0.1424399 -0.43246704 -0.4748477
0000d0 cb ac 2d be b1 2c 8d be ff 5d 3a be d6 53 69 bf
       -0.16960447 -0.2757316 -0.18199919 -0.9114355
0000e0 7e a6 f3 bc 77 6a fa be 7f 81 69 be 86 c1 06 bf
       -0.029742476 -0.4890935 -0.22803305 -0.52639043
0000f0 65 d1 a6 be 55 09 87 be f4 44 c8 be cb 49 59 be
       -0.3258163 -0.26374307 -0.39115107 -0.21219556
000100 29 f5 8d be 25 e8 81 be fe 86 c3 be 73 d9 90 be
       -0.27726105 -0.25372425 -0.38188928 -0.282909
000110 04 62 d5 be 70 73 53 bd 4c d4 15 bd f8 5a 7a be
       -0.41676342 -0.05162376 -0.036579415 -0.24448764
000120 ef 75 00 be 0c 80 b7 bc 4c a4 d3 be 2c ef e5 bd
       -0.12544988 -0.022399925 -0.41336286 -0.11227259
000130 d9 8d 7c be a3 d7 ef be 66 72 83 be 8b 39 8c be
       -0.24663486 -0.46844205 -0.25673217 -0.27387652
000140 9b 3c b5 be a8 c2 6c bf 70 c0 de bd 7f a8 91 be
       -0.353978 -0.9248452 -0.10876548 -0.28448865
000150 38 76 3d be 37 95 c1 be 2b 23 0b bf ec 01 55 bc
       -0.18502128 -0.37809154 -0.5435054 -0.0130009465
000160 fd 20 99 be 04 22 0f bf 71 4c 0e bf 77 8e 81 bb
       -0.2990798 -0.5591128 -0.5558539 -0.0039537507
000170 33 95 57 be 3d 24 b7 be 51 bd 22 be 21 ac ec be
       -0.21053009 -0.35769835 -0.15892531 -0.46225074
000180 29 3e a2 be 49 60 64 be 86 99 c1 bf f2 86 06 bd
       -0.3168805 -0.22302355 -1.5124977 -0.032843538
000190 74 01 94 bf 77 f2 52 be 0d 21 f4 be 12 47 f3 be
       -1.1562943 -0.20600305 -0.47681466 -0.4751516
0001a0 51 32 a4 be ca d5 9a be a2 8f b9 be 67 f4 0e bf
       -0.32069638 -0.30241233 -0.36242396 -0.5584168
0001b0 76 f6 a0 be 14 3c ce be 95 28 ee be 2b 8d 65 be
       -0.31438035 -0.4028021 -0.46515337 -0.22417133
0001c0 93 96 c1 be ba b8 9d be 72 29 59 bd 99 e5 fa bd
       -0.37810192 -0.30804998 -0.05301804 -0.122508235
0001d0 94 f6 d6 bd 7a 6c 55 be 8a a7 f7 bd b7 7f fd bc
       -0.1049625 -0.20842162 -0.120925024 -0.030944688
0001e0 0c 21 d4 bd 9f 58 1e bf ac e2 22 bf be 1a 19 be
       -0.10357866 -0.61853975 -0.63627124 -0.14951608
0001f0 6f 42 c5 be ee 8e ca be e3 f0 6f bf 85 87 80 bf
       -0.38527247 -0.39562172 -0.9372694 -1.0041357

bn_outlayer_in.running_mean f4 [128]
000000 04 00 00 00 d2 3c d4 bd e5 59 99 bd f7 76 cd be
       6e-45 -0.10363163 -0.07487849 -0.40129825
000010 04 00 00 00 69 ff 99 3c a8 cf 88 bd dd 54 04 bb
       6e-45 0.018798547 -0.06680232 -0.0020192184
000020 a3 99 18 bd a7 28 c8 ba f2 73 92 bd 77 66 f7 bc
       -0.037255894 -0.0015270904 -0.07151021 -0.030200226
000030 fb 51 f4 3d 3e 2e 45 be 5c 71 f4 bd 09 24 bf 3c
       0.11929699 -0.19255921 -0.11935684 0.023332613
000040 6a 45 03 be 3a 55 2f ba 99 44 6a bd 58 c2 c5 bc
       -0.12819448 -0.000668842 -0.057194326 -0.024140522
000050 d9 a3 6c be 4c 22 e2 bb 22 39 7d 3c 76 33 f6 bc
       -0.23109378 -0.006901061 0.015455516 -0.030053835
000060 62 1c dd bc af 07 8f bd 87 15 7b bd 72 71 90 bd
       -0.026991073 -0.069838874 -0.061299827 -0.07052888
000070 14 f0 fb bb d8 df 9b bd d8 a2 58 be 94 6a f9 bb
       -0.0076885317 -0.07611054 -0.2115587 -0.007611582
000080 c2 a4 2f bd 40 36 0d be 90 cf 0d be 7e e4 88 3d
       -0.042881735 -0.13790226 -0.1384871 0.066842064
000090 52 14 1d 3c 00 66 24 3c 04 00 00 80 bd 12 13 be
       0.009587364 0.010034084 -6e-45 -0.14362617
0000a0 62 84 46 bc 1c 04 b7 bb f3 6f c3 bd 07 ef a3 be
       -0.012116523 -0.0055852067 -0.09542837 -0.320183
0000b0 04 00 00 00 25 b7 0a 90 ad de 05 3d 76 91 17 bf
       6e-45 -2.735679e-29 0.032683063 -0.5920633
0000c0 2a 05 6e be b5 2e 7e be 7b 90 51 be 44 fe 81 bc
       -0.23244157 -0.24822505 -0.20465271 -0.015868314
0000d0 5e c5 ad bd 25 82 83 be 9f 38 3b bd 24 87 4a bb
       -0.084849104 -0.2568523 -0.045708295 -0.0030903304
0000e0 07 19 27 bb c1 6a 1e bc e0 bc 75 bd f1 c8 8c be
       -0.0025497095 -0.009669007 -0.05999458 -0.27497056
0000f0 00 28 c5 be 8f 51 94 bd 6c f4 9d bc 2a ba 4d bd
       -0.3850708 -0.072421186 -0.019281588 -0.050226368
000100 54 a4 79 be 47 9a e7 bd 4e 43 30 be 29 f6 c0 bd
       -0.24379092 -0.11308723 -0.17213175 -0.09421951
000110 2f c6 cc bd 8a a8 83 3d 7f 7b bf bd 9a 05 15 be
       -0.09998738 0.06428631 -0.09349727 -0.14552918
000120 fa ab bb bd 16 c0 c0 bd b6 33 de bd bb 80 09 be
       -0.09163661 -0.094116375 -0.10849707 -0.13428013
000130 12 8f 8b bc d8 e0 76 be 3c a1 f5 bc 04 00 00 00
       -0.017035995 -0.24109209 -0.02998411 6e-45
000140 59 57 25 be cd a0 ff bb f3 c6 9c bd 5f 47 20 bc
       -0.16146602 -0.0078011514 -0.07655134 -0.009782641
000150 3e f6 8f 3d 7a 41 10 bd be e7 7c be ee 7b d3 bb
       0.07029389 -0.035218693 -0.24697778 -0.0064539826
000160 31 72 99 bb 94 04 06 3d 5f c9 aa bc 70 14 0c 3c
       -0.004682802 0.03271921 -0.020847974 0.008549795
000170 04 00 00 00 04 00 00 00 9e 0b 44 bd 8d 6d d6 b4
       6e-45 6e-45 -0.04786264 -3.9940315e-07
000180 59 f0 56 be 0d 83 61 be d1 25 96 3d 54 7e 9c bb
       -0.20990123 -0.22022648 0.07331432 -0.0047758017
000190 ba 26 cd bd 17 46 0c be 6a 18 6c be 58 05 a7 be
       -0.10017152 -0.13698612 -0.23056188 -0.32621264
0001a0 85 94 e7 bd 2f fb 59 be d0 a9 73 be d2 58 91 be
       -0.11307625 -0.21287225 -0.23795247 -0.28388077
0001b0 ba a7 83 be a1 2b ca bd a1 ce 9f be 06 51 78 be
       -0.25713903 -0.09871603 -0.31212333 -0.24249658
0001c0 a5 2d 2c bc 5c 6b 89 be e7 ff b7 bd bc 2f 2f bd
       -0.010508929 -0.2683972 -0.089843564 -0.042770132
0001d0 c8 50 00 be 5f a2 43 bc 57 b6 1a 3d b6 b2 14 be
       -0.12530816 -0.011940568 0.03777155 -0.14521298
0001e0 7a 5d c5 bd 04 00 00 00 92 83 43 bc 1a 4a ee bd
       -0.0963697 6e-45 -0.011933224 -0.116352275
0001f0 04 00 00 00 29 38 c2 bd ef 59 14 3e 75 0f 98 3b
       6e-45 -0.09483368 0.14487432 0.0046405145

bn_outlayer_in.running_var f4 [128]
000000 04 00 00 00 20 f9 42 3d 2a 4f 10 3c 3a d2 d6 3f
       6e-45 0.047600865 0.008807937 1.6782906
000010 04 00 00 00 20 ae 07 3d c0 1e 67 3e bc 19 94 3b
       6e-45 0.033125043 0.22570324 0.0045196693
000020 0f a2 99 3c 68 94 c9 3a ed d4 f4 3d 27 e2 ec 3b
       0.018754033 0.0015379312 0.11954675 0.007229108
000030 9d 14 81 3d 7c 11 14 3d ca 01 de 3d 3b ec 94 3d
       0.0630276 0.036149487 0.10840185 0.0727162
000040 ba 8e cd 3d 30 59 5b 38 6e f1 3e 3d fc 4c 94 3d
       0.100369886 5.229673e-05 0.046616964 0.07241246
000050 f1 80 0e 3f 4f 39 bd 3a e0 2b 08 3d b8 67 58 3d
       0.556655 0.0014436635 0.033244967 0.05283329
000060 c8 bb 9e 3d 66 0e 64 3e f9 dd c0 3d 82 c7 90 3d
       0.0775066 0.22271118 0.09417338 0.07069303
000070 a6 90 0b 3b 80 7f 2b 3e b7 ab 79 3d 8b f2 bc 3b
       0.0021295934 0.16747856 0.060954776 0.005766218
000080 a9 63 52 3e 82 e0 aa 3d ac c6 12 3e 8f 75 39 3d
       0.2054583 0.08343603 0.143336 0.04527813
000090 70 9b ee 3d 49 f6 3f 3d 04 00 00 00 ab f3 10 3d
       0.11650741 0.046865735 6e-45 0.03538863
0000a0 d3 5e 1b 3c e7 2d df 3c 1a 5d 0b 3e a0 c0 93 3d
       0.009483057 0.027243568 0.13609734 0.07214475
0000b0 04 00 00 00 2d bc c4 0d 52 f5 57 3d 12 56 aa 3d
       6e-45 1.2124734e-30 0.05272419 0.08317198
0000c0 cf 48 a8 3c 68 40 45 3e eb 0a 1b 3d 3f 70 72 3d
       0.02054253 0.1926285 0.03785221 0.059189077
0000d0 1c 1a 30 3d b3 94 fb 3e 01 60 a8 3c 01 c6 c2 39
       0.04299365 0.49136886 0.02055359 0.00037150088
0000e0 21 a7 ff 3a 81 c7 3c 3b 55 99 a4 3c b1 00 26 3d
       0.0019504764 0.0028805437 0.020092646 0.040528003
0000f0 4a 67 3b 3e f4 c7 80 3d 94 67 13 3e 03 b7 27 3d
       0.1830112 0.06288138 0.1439498 0.040946018
000100 9f 85 25 3f 0a f9 64 3e e1 01 1f 3d a8 80 e0 3d
       0.64657015 0.22360626 0.03882015 0.10962039
000110 ed 17 8c 3d a7 c9 b3 3d b3 34 04 3f 4a b8 c6 3c
       0.06840501 0.087786965 0.5164291 0.024257798
000120 2e 86 d2 3d d2 79 91 3d d2 5d 65 3c 2a 61 f9 3d
       0.10279499 0.071033135 0.013999419 0.12176736
000130 40 2e d7 3c 1b b8 6f 3d 5f 2f a3 3c 04 00 00 00
       0.02626717 0.058525186 0.01992005 6e-45
000140 d5 b1 14 3d 24 98 64 3b f4 85 39 3e 21 8a 55 3b
       0.036302406 0.0034880722 0.18117505 0.0032583552
000150 14 13 01 3d e0 11 c9 3d 69 71 2c 3d 33 53 ec 3d
       0.031512335 0.098178625 0.042100344 0.115393065
000160 22 47 bc 3a d7 04 0c 3d b7 b7 96 3b 7b 03 0e 3d
       0.0014364461 0.034184303 0.0045995372 0.034671288
000170 04 00 00 00 04 00 00 00 55 04 cc 3c a0 73 08 33
       6e-45 6e-45 0.02490441 3.1770128e-08
000180 72 95 87 3d e0 e8 df 3e 35 2c 3f 3d 5b 76 ef 3a
       0.06620301 0.43732357 0.04667302 0.0018269526
000190 53 3b 91 3e 42 c5 9f 3d ca 65 06 3d 15 a3 f5 3e
       0.28365573 0.07801296 0.032811917 0.47975984
0001a0 fd b5 a2 3c 69 21 9b 3e 37 5a c4 3e f5 62 08 3d
       0.01986217 0.30298927 0.38350078 0.033297498
0001b0 d1 b3 e4 3e 73 93 5f 3c fb 18 b0 3d 0c 58 65 3f
       0.4466844 0.0136459945 0.08598515 0.89587474
0001c0 b5 db 06 3d 68 5d 53 3d 88 56 03 3e 07 2d 02 3d
       0.032924373 0.05160275 0.12825978 0.031781223
0001d0 a3 72 82 3d 62 49 b3 3b 88 27 e3 3c 38 fe 38 3e
       0.063695215 0.0054713944 0.02772881 0.18065727
0001e0 2c 43 07 3e 04 00 00 00 95 4f ec 3b bc 56 3c 3d
       0.13209218 6e-45 0.0072116354 0.045981154
0001f0 04 00 00 00 1a 02 84 3d 94 59 30 3e f8 66 60 39
       6e-45 0.06445713 0.17221671 0.00021400664

gnn_layers.0.gnn.att_i f4 [1, 1, 128]
000000 72 7e b7 3b c4 f9 37 bc ea b8 b6 bc 95 d2 01 bc
       0.0055997903 -0.011228982 -0.02230497 -0.007923742
000010 c0 13 44 3c 5b a3 61 3a 82 0e a9 3b 67 a3 52 be
       0.011967599 0.0008607411 0.0051592 -0.20570146
000020 0c 2c d4 b9 57 1c 7d bd 81 e7 3d bc 12 4a c9 3c
       -0.00040468608 -0.061794605 -0.011590839 0.024571452
000030 65 17 07 3c 00 8a ce bc 5c 44 16 bb b3 58 f5 bc
       0.008245324 -0.025212288 -0.002292893 -0.029949522
000040 9b 7a 00 3c 0d 04 59 3d e4 c0 e2 3c 04 26 09 3c
       0.007841731 0.05298238 0.027679868 0.00837088
000050 3a 60 30 3d 78 bc 5c 3c e3 fd ff 3d 9d 9e 5d 3d
       0.04306052 0.013472669 0.12499597 0.054106344
000060 93 fb c2 3b ab ff 1c bc 0c fb c4 3a c5 2c a3 bc
       0.0059504 -0.00958244 0.0015028431 -0.019918809
000070 86 a5 f9 3b c5 2b e1 bc 91 0d da ba ef 74 a7 3d
       0.007618609 -0.027486691 -0.0016636123 0.081766
000080 b3 79 73 3c e6 29 03 bc 94 e0 f0 3a 9a c0 8c 3d
       0.014860558 -0.008005595 0.0018377476 0.06872673
000090 6d 9d 9f 3c d0 ed 88 3a 7d 8a ef ba ac 5a 51 3c
       0.019484246 0.001044685 -0.0018275526 0.0127779655
0000a0 04 5a 5d 3e 3a a4 22 3c bd 17 b0 be e4 26 30 bb
       0.2161637 0.00992685 -0.3439311 -0.002687865
0000b0 6c 1d ad bb 89 ee 33 bb 9c 91 11 bc 1f ef da bd
       -0.0052830484 -0.002745541 -0.008884814 -0.1069014
0000c0 d2 a1 2f be 42 5a 04 b5 65 d6 a4 3a b4 b9 be bc
       -0.17151573 -4.9305174e-07 0.0012576102 -0.02328191
0000d0 cb e9 1f bb be bc ff 3d 49 c0 a4 bb be 76 96 3b
       -0.0024400826 0.124871716 -0.005027805 0.004591792
0000e0 ec 7b 86 3e ae 35 11 3c c1 51 18 b9 9c d8 2c 3e
       0.2626642 0.008862896 -0.00014526305 0.16879505
0000f0 fd 3d 8a 3d 6b 5c 10 3c d2 bd 29 39 7a 89 48 bd
       0.067501046 0.008811097 0.0001618781 -0.048959233
000100 9d 0d c0 3c aa aa 31 be 97 79 af bc 41 ad ca bc
       0.023443991 -0.1735026 -0.021420283 -0.024740817
000110 7e 6c c8 3b b2 55 b5 b8 bc 6d a1 3d c0 fe 28 bd
       0.006116449 -8.6467146e-05 0.07882258 -0.041258574
000120 9e 6a e7 bc 2b 1a aa 3b de 92 e5 bd e7 e4 07 bb
       -0.028249081 0.0051911077 -0.11209653 -0.0020735802
000130 37 99 93 3d 15 52 05 bc 13 6c 56 3c 06 fa 3c bb
       0.07206958 -0.008137246 0.01308729 -0.002883555
000140 f2 ae b8 3c 80 ba 4c 3d ee 60 c2 bd 0d 9e c4 bc
       0.022544358 0.049982548 -0.09491144 -0.024001146
000150 04 a1 81 3c c1 13 9f ba b5 0f 40 bd a7 55 17 3c
       0.015823849 -0.0012136624 -0.04688998 0.00923673
000160 7c 01 db 3c ae 5e 59 3b 5a da cb bc 39 e0 b8 3c
       0.026734106 0.0033168006 -0.024884392 0.022567855
000170 ce 52 ff bb 71 9b 89 bb 40 9e 68 3c e9 cf 82 3b
       -0.0077918535 -0.0041994383 0.014197886 0.00399207
000180 0b 17 f0 bb a8 2d 6f 3c 42 39 57 bd 37 08 3f bd
       -0.0073269657 0.014598288 -0.05254484 -0.046638694
000190 73 12 cd be 70 35 aa 3c ac 00 89 3b ad 0d c1 3a
       -0.40053138 0.020777434 0.0041809883 0.0014728807
0001a0 19 a8 4a bc 0b ab 36 3b 43 0e ff 3e 52 22 06 bc
       -0.012369179 0.0027872946 0.49815568 -0.008186894
0001b0 d9 8f 23 bb 90 f2 39 be cd 21 b5 bc 35 4e 83 3c
       -0.0024957566 -0.18158937 -0.022110844 0.016028503
0001c0 f0 22 1e bc 50 05 f8 bb 00 bf 60 be 02 16 09 bb
       -0.009651884 -0.0075689927 -0.2194786 -0.0020917659
0001d0 c1 88 82 bb 1c c2 43 bc 28 6a 9c 3b 17 54 65 bb
       -0.0039835875 -0.011948135 0.004773397 -0.0034992748
0001e0 6c ce 04 3b 4b ca 78 bb 32 69 d3 3d fd d6 8e 3a
       0.0020264639 -0.0037962373 0.10322799 0.0010897812
0001f0 04 8e e9 3b 6b e6 a1 3d 8d 79 a3 3c d2 fc 6b bc
       0.0071275253 0.07905277 0.01995542 -0.014403539

gnn_layers.0.gnn.att_j f4 [1, 1, 128]
000000 97 b1 fd b9 08 76 e0 bb f8 15 8e bc 12 3f 13 3c
       -0.00048388235 -0.006850008 -0.01734446 0.008987205
000010 c7 a7 e0 bb 06 0e 6d 3c 88 a3 18 bb 63 b5 44 3d
       -0.006855938 0.0144686755 -0.0023290832 0.048024546
000020 99 6c b0 3b 92 bf 8a bc cb bc dc 3a 26 28 5f ba
       0.0053840396 -0.016937051 0.0016840933 -0.00085127575
000030 dd 85 bb ba 29 97 a6 bc b6 3e cd 3a 5c 18 0c bc
       -0.0014306862 -0.02033575 0.0015658948 -0.00855073
000040 53 75 a0 39 77 81 10 bc 95 6f 8d bc 82 ec 12 3b
       0.00030604991 -0.008819929 -0.01726512 0.0022418802
000050 60 60 c5 bb 4e c1 5f bb e1 07 47 3e 8d 7e 6d 3d
       -0.0060234517 -0.0034142318 0.194366 0.057982016
000060 b2 0a 81 3c e3 ee 86 3b 57 01 6e 3a d8 06 fe 39
       0.01575217 0.004117833 0.0009079179 0.00048451754
000070 97 04 2d bb 05 0d d8 bc 90 a0 b8 3b f5 25 5d bd
       -0.002640044 -0.026373396 0.005634375 -0.053991277
000080 92 5f 02 bb c9 d0 df bb de 64 dc 39 b2 a3 75 bc
       -0.001989339 -0.006830309 0.00042036822 -0.014992641
000090 df f8 27 ba 9c ce a1 ba 0a fa 98 3b 75 6e 2c bc
       -0.0006407629 -0.00123449 0.004668479 -0.010524382
0000a0 36 f8 0e 3d 9f 29 56 bb b6 32 0a be 61 4a be bb
       0.03490468 -0.0032678617 -0.13495907 -0.0058072065
0000b0 69 5b 79 3b d9 1c 0b bb cc 24 96 ba 95 8a 4f be
       0.003804887 -0.0021226911 -0.0011455058 -0.20267709
0000c0 46 67 7d be bb 1c b7 bb 65 1d 65 bb 9a a9 10 b9
       -0.24746427 -0.0055881417 -0.0034960147 -0.00013796092
0000d0 12 31 04 39 e3 96 05 bd 2c 57 06 ba 51 d2 bb bb
       0.00012606781 -0.0326146 -0.0005124684 -0.005731859
0000e0 d2 6e 0f 3d e8 08 ad 3b bd 6a c9 ba 3b 1e 78 bd
       0.035017796 0.0052806027 -0.0015366893 -0.060575705
0000f0 79 ab a9 3c db 54 dc bc 59 c1 0a bb 2e 79 00 3c
       0.020711647 -0.026895931 -0.0021172373 0.0078413915
000100 b1 0c a0 3a c7 f7 72 3d 9c 61 95 bd f8 a7 ca 3c
       0.0012210814 0.05931833 -0.07294008 0.024738297
000110 85 76 04 3c 06 41 ac bb 9c 8e 38 bc 0b 3f a3 bb
       0.008084898 -0.005256775 -0.0112644695 -0.0049818805
000120 66 f3 c8 3c fd 50 d1 bb c9 87 78 bb 26 3e 17 39
       0.024530124 -0.0063878284 -0.003792273 0.00014423634
000130 9c c2 a2 3d 6b c6 65 bc 62 07 94 bc ab 43 60 3a
       0.07947275 -0.014024357 -0.018069927 0.0008555005
000140 f3 9e c0 bc c3 08 bc bb ed 31 70 bc 54 cd 4f 3b
       -0.023513293 -0.005738349 -0.014660341 0.0031708078
000150 2f e5 75 3d 14 3d 9f ba 56 75 df bb 01 f0 e1 3c
       0.06003302 -0.001214894 -0.0068194075 0.027580263
000160 a4 3d fb 3b b4 3d 96 3b 54 4f 32 3c 33 fd de 3c
       0.0076672602 0.0045849923 0.010883171 0.027220344
000170 88 e4 22 3b ea 4c 05 3b 55 19 39 b8 ea e2 df ba
       0.0024855454 0.0020340034 -4.413103e-05 -0.0017081175
000180 3a 71 3d bc a7 2a b2 bb 24 39 7f 3c 5d be 29 3c
       -0.01156264 -0.0054372135 0.015577588 0.010360328
000190 a3 47 ed bd 97 99 7f 3b 4e e4 5b bc d8 e7 da ba
       -0.11585929 0.0039001459 -0.013421131 -0.0016701175
0001a0 26 ae 27 bb b9 b3 9b 3b 83 e5 b1 3d 72 59 86 bc
       -0.0025585978 0.004751649 0.08686354 -0.016400073
0001b0 fb e8 3e ba ae dc 10 bc d6 72 6e 3a 0a 88 90 3c
       -0.00072826416 -0.008841677 0.00090960914 0.017642993
0001c0 70 cd 1e bb 8f 84 7e 3b 6a 87 57 3d a2 2d 29 bc
       -0.0024231337 0.0038836335 0.052619375 -0.010325821
0001d0 d7 b9 b5 3b 79 f0 7d bb 15 e6 ea bb 66 16 88 3a
       0.0055458355 -0.003874807 -0.007168541 0.0010382652
0001e0 5f ff 44 3b 65 1e 39 3a 07 a4 87 bc b0 13 41 ba
       0.003005944 0.0007061719 -0.016557707 -0.00073652994
0001f0 e6 d3 78 bb 02 66 5f 3d b5 3e a2 3b d1 fa 0c 3b
       -0.0037968098 0.05454064 0.004951323 0.0021511803

gnn_layers.0.gnn.att_em_i f4 [1, 1, 128]
000000 b7 b0 e4 b7 68 c2 a6 3e 9e 44 85 3e 48 18 b5 3d
       -2.7262007e-05 0.32570195 0.26028913 0.08842522
000010 eb 90 93 3c 96 ea da be d6 a4 9c bc ba e9 97 bd
       0.018013438 -0.427571 -0.019121569 -0.07417627
000020 b0 2d 84 3e de 43 f9 bb 42 ee b2 3c e0 ae ad 3e
       0.25816107 -0.0076069674 0.021842126 0.33922482
000030 bf 18 59 bc 2c 35 60 be 75 88 c4 3e 32 67 41 3e
       -0.013250529 -0.21895283 0.38385358 0.18887022
000040 38 cf 79 3e 06 ca 42 bd b7 3b a6 3d e1 49 f9 bd
       0.24395454 -0.047555946 0.081168585 -0.121722944
000050 16 46 6e bd f1 5d a5 bc da ee 62 be f7 2c 53 3d
       -0.058172308 -0.020186396 -0.22161427 0.051556554
000060 a7 4a 84 3d 2a 2a c0 bd ab 46 cd 3e 02 1f 3f 3d
       0.06459551 -0.09383042 0.40092978 0.04666043
000070 c2 80 2a bc 21 f0 6d bc 43 1e ea 3e fc 04 ef bd
       -0.010406675 -0.014522583 0.45726213 -0.116708726
000080 ef cb 02 bd 25 b4 55 3e a2 b2 e2 3e a7 4f 3a be
       -0.031932767 0.20869501 0.4427691 -0.18194447
000090 01 43 9e bc 1b 47 32 bd fa 6a c3 bc 0d 0a 76 3e
       -0.01931906 -0.043524843 -0.023854721 0.24027272
0000a0 a9 35 a2 3d 1b 62 fd 3e 36 36 9f 3c 46 fb 1f 3f
       0.07920391 0.4948891 0.01943503 0.6249279
0000b0 57 1d 49 3d 0a 8b 7c bc e6 4f f2 bd cb 2c 23 3f
       0.049100246 -0.015414009 -0.11831646 0.63740224
0000c0 90 ef 93 be 94 47 95 3d 2a dd ba 3d d4 04 43 bd
       -0.2889371 0.07289043 0.09124215 -0.047612026
0000d0 03 66 c6 3e 3c fa 93 bd 73 44 19 3d de 57 64 bc
       0.38749704 -0.07225463 0.037418794 -0.013936965
0000e0 51 2c 67 3e e6 c1 00 bc 49 c4 df 3c 19 79 88 3e
       0.22575499 -0.007858729 0.027315276 0.2665489
0000f0 3e 43 91 3e 7e a1 83 3c 26 fa be bd 7b fd 0d 3d
       0.28371614 0.016068216 -0.09325056 0.034665566
000100 8a f4 50 bd ff 11 54 bd 3b 89 62 3d 28 cb 8d 3d
       -0.05101446 -0.051774975 0.055306654 0.069235146
000110 42 01 4d 3c 92 d5 f4 bc 67 05 20 be d7 35 26 bd
       0.012512507 -0.029886995 -0.15627061 -0.04057869
000120 9a 38 90 3c 0b 87 12 3c 95 46 80 bb 3d bd 0e 3f
       0.017605115 0.00894333 -0.003914664 0.55757505
000130 1a fd f1 bc 53 25 2e 3e 56 b8 db 3e f0 96 d3 bd
       -0.029539634 0.17006426 0.42914075 -0.103315234
000140 eb 08 71 3e 53 97 32 3d 7b 36 2f 3e 52 ab 16 bd
       0.23538558 0.043601345 0.17110626 -0.036784478
000150 8d 56 0e bd 4c 32 a6 bd 16 b5 08 bf 82 ab 01 be
       -0.03475051 -0.08115062 -0.53401315 -0.12663081
000160 a0 45 e0 3c 6a 18 f3 bc 90 87 a4 3d 1b ab a6 bb
       0.02737695 -0.029674727 0.08033669 -0.0050863153
000170 e2 e9 c7 3c 8f d0 2a 3d 7d 9c a9 3d e3 66 95 3b
       0.024403516 0.041702803 0.08281801 0.004559384
000180 01 96 09 3f 53 c2 bb bd 3d 22 4f bd c6 58 c3 b9
       0.5374451 -0.09167924 -0.05056976 -0.0003725944
000190 ad 52 31 3e 7f c3 ec 3e f4 8c 4e 3d bc 5e 3b 3d
       0.17316695 0.46242902 0.050427392 0.045744643
0001a0 ad be 0a 3e cf e9 2c 3d ed 3b 9b 3e 21 ac be 3e
       0.135493 0.042215165 0.30319157 0.372407
0001b0 5a df 6e 3d 09 19 3e be b2 b9 a8 3e 3b 27 17 bc
       0.058318473 -0.18564238 0.32954174 -0.009225662
0001c0 32 ca c9 3b a8 5c 03 3f 3e e4 93 bc 9a 5b 0c be
       0.0061581368 0.5131326 -0.01805317 -0.13706818
0001d0 b8 87 13 3f 3c 84 35 3c 1c 0a 90 bd e7 fd 6e 3e
       0.57628965 0.01107889 -0.07033178 0.23339044
0001e0 7c 24 a2 3c 83 17 97 3a ce eb 40 3d 91 78 3f 3e
       0.019792788 0.0011527393 0.04709988 0.18698336
0001f0 ec 0d cf 3c 07 c2 69 3e c9 27 98 3e c7 c9 29 bd
       0.025275193 0.22827922 0.29717854 -0.041452195

gnn_layers.0.gnn.att_em_j f4 [1, 1, 128]
000000 15 2e 30 3c 9e c2 38 3d d5 56 07 3f 75 ad 25 bc
       0.010753174 0.045107476 0.5286687 -0.010112156
000010 52 53 8e be a5 09 d0 3d ac 79 32 3d dc 62 89 3d
       -0.27797943 0.101580895 0.043573067 0.06708309
000020 e8 c7 08 3e c9 5a 07 3d c4 c7 17 bb cd 23 a1 3e
       0.13357508 0.033045564 -0.002315984 0.31472626
000030 71 d0 fe 3b ec df 2f 3e c6 a4 06 3e 83 96 cb bc
       0.007776313 0.17175263 0.13148794 -0.024852043
000040 c5 7e b5 3e 25 d5 1f 3d 34 8d 80 bc 41 9e f1 3b
       0.3544828 0.03902163 -0.01569233 0.0073736017
000050 d0 cf 73 3e b2 8a 8b 3d 25 76 89 3e f9 35 fd 3d
       0.23809743 0.068135634 0.2684795 0.1236381
000060 a8 d8 06 bd 23 6e 29 3e 8a 87 1a bf 76 2c 02 3e
       -0.032921463 0.1654592 -0.60363066 0.12712273
000070 24 3e 20 3e c4 22 21 3b 67 0a 37 3c 67 66 bd 3d
       0.15648705 0.0024587372 0.011171914 0.09248047
000080 a2 8e a3 bc 1a 03 b3 3c c1 5a 0d 3d 38 6b e6 3d
       -0.019965474 0.021852065 0.034510378 0.11250919
000090 98 95 bd bc 72 bd a5 bc 2a 5e a3 3e 71 1b 24 3d
       -0.02314262 -0.020231936 0.3190778 0.040065233
0000a0 c6 0c 97 3d 8d 61 48 be 2e 16 ab 3d 20 ce 1a 3f
       0.07375483 -0.19568463 0.0835384 0.6047077
0000b0 8f bd a8 bd a4 e2 5a 3c 07 fd c7 bc d1 bd 71 3f
       -0.082392804 0.013359699 -0.024412645 0.9443026
0000c0 8e 4b 4b 3e 1e cf e8 3d de ec 90 3e ea ba 96 3f
       0.1985304 0.113676295 0.28305715 1.1775792
0000d0 f9 85 1a 3e 3b 82 5f 3e 40 34 d0 3d 2d 94 dc 3d
       0.15090169 0.21827023 0.10166216 0.1077045
0000e0 b2 96 b5 bd cc 61 f5 3c 67 be 1e bd 11 b9 81 3e
       -0.088666335 0.02995386 -0.0387558 0.25336507
0000f0 16 c6 bc 3c 13 b4 e7 ba ce b5 37 bd 83 09 81 3c
       0.023043673 -0.0017677568 -0.044851117 0.015751606
000100 96 a5 c9 3d 66 58 c1 3c da c5 fb 3d 4b b5 fb bc
       0.09846036 0.023601722 0.122935966 -0.030726096
000110 6a 1a 08 bb f9 9e cd 3b 05 ec 3c bd 46 49 4b 3d
       -0.0020767697 0.0062750545 -0.046123523 0.049630426
000120 38 c2 0e 3c 5c d0 ab 3d 38 70 ce 3e d6 03 1d bc
       0.008713298 0.08389351 0.4031999 -0.009583434
000130 2d 32 8a 3d 35 8b e4 3e b0 80 4f 3f 00 cd 28 3f
       0.067478515 0.44637457 0.81055737 0.65937805
000140 d1 e9 3c bc ca a6 bb bd 11 5c 6e 3f e5 cc 46 bd
       -0.011530356 -0.09162672 0.9310923 -0.048535246
000150 21 cc 23 bc 04 1e 1b 3f f1 7c 45 3f 5f db e8 bd
       -0.009997399 0.60592675 0.7714377 -0.11369967
000160 65 1c 3b 3d e6 2d 55 bb 37 71 65 3f 1c 47 58 3d
       0.045681376 -0.0032528578 0.8962588 0.05280219
000170 f7 dd c8 be 91 43 53 bd 38 59 cc 3d d5 4c b4 3c
       -0.39231846 -0.05157811 0.099779546 0.022009293
000180 bd 38 70 3f 20 44 42 3d 6f 93 12 be 9f 77 86 3d
       0.93836576 0.04742825 -0.14314054 0.06565785
000190 2e 80 15 3d 3b 2d 38 3f ab 6c 98 3e d4 65 2b 3f
       0.036499195 0.71944016 0.29770407 0.6695225
0001a0 80 0f 29 bd fa 04 60 bd b7 a8 3a 3f 4d 60 4f 3e
       -0.041274548 -0.054692246 0.7291369 0.2025158
0001b0 28 48 4e bd 6d b9 6c 3e f5 c9 2c 3d cd b9 a1 3c
       -0.050361782 0.2311761 0.04218479 0.019741917
0001c0 ca bc 1e bd f8 42 ad 3d 74 a2 82 3c 82 e4 d5 3e
       -0.038754262 0.08460039 0.015946604 0.417759
0001d0 2d 3d 6d 3d 6f 6a 7d bd a9 0c 8c bc f4 50 f4 3d
       0.05791967 -0.06186908 -0.01709588 0.11929503
0001e0 f2 38 82 3e 0e 57 dd 3c 6d 8f 08 bd 7f 04 c1 3d
       0.2543407 0.02701905 -0.033339906 0.09424686
0001f0 4b 7e ab be 56 c5 2c 3e 20 70 52 bf 26 b0 d3 bb
       -0.3349479 0.16872153 -0.8220234 -0.0064602075

gnn_layers.0.gnn.bias f4 [128]
000000 24 92 c5 ba 64 7c 49 3a 8f f9 f2 ba 83 7a b9 3b
       -0.001507346 0.0007686077 -0.0018537509 0.0056603565
000010 e3 2f 89 3a 7c 3a 6a bb b0 ee 46 3b f3 ba ba bc
       0.0010466542 -0.0035740426 0.0030354671 -0.022794222
000020 5e c2 b3 bb ca 47 e3 3a 91 f2 80 3a 26 c8 f1 ba
       -0.005485817 0.001734012 0.0009837915 -0.001844649
000030 fd 22 89 3a d5 bf 76 bb 1a 42 44 3b f2 7c a5 39
       0.0010462698 -0.0037650962 0.0029946626 0.00031564344
000040 49 53 f1 3a c4 40 dc bc d3 d0 10 bb 81 59 55 3a
       0.0018411662 -0.026886351 -0.0022097125 0.00081386423
000050 94 3a 39 b9 c7 b7 f5 38 b5 fe a0 3b 34 c1 80 bb
       -0.00017664797 0.000117167416 0.004913176 -0.0039292816
000060 35 50 91 3b 8a d6 84 3c 52 5e b5 39 76 58 18 bb
       0.0044346103 0.016215581 0.00034593284 -0.0023246086
000070 ae db ed 3a cb 8f 2c 3a 27 cc 90 bb 86 96 55 3b
       0.0018147135 0.0006582706 -0.004418868 0.003259094
000080 fe 5f 83 ba a4 2d 96 bb 0e 0e 5f b9 28 f1 59 bb
       -0.0010023115 -0.0045830775 -0.00021272173 -0.0033255313
000090 38 69 eb 3a e6 8d 48 3a 3d 64 63 3c b6 42 3c bb
       0.0017960435 0.0007650539 0.013878879 -0.0028726286
0000a0 c3 0c 0f 3a 12 11 99 39 cd 34 17 39 be 3c 6d 3c
       0.0005456919 0.00029195152 0.00014420152 0.014479814
0000b0 0a 06 41 bb ac 83 fd 3a 3f 1e 37 3a 9b 5e 04 bc
       -0.0029453062 0.001934161 0.0006985403 -0.008079196
0000c0 10 0e c9 3b b3 57 57 39 50 e6 7f ba 40 ef b3 3a
       0.0061357096 0.00020536668 -0.0009761797 0.0013727918
0000d0 bc 1c eb 38 e4 e9 81 3b 12 35 04 ba ac fe 08 3a
       0.000112110254 0.0039646495 -0.00050433085 0.00052259373
0000e0 c6 f2 91 bc f7 14 81 ba 88 c9 ce bb 28 6d f5 3a
       -0.017815959 -0.0009848167 -0.0063106455 0.0018724548
0000f0 7d c0 a8 bb 06 2c 4b ba 42 24 0c 3a ec 3b 72 3d
       -0.0051498995 -0.00077503955 0.0005345979 0.059139177
000100 c0 8c da 38 ec 29 36 ba b3 09 6f bb 78 06 10 3a
       0.00010421267 -0.0006948996 -0.0036474287 0.0005494128
000110 72 4e 64 3b 47 85 42 ba 5f 1e 36 3a ba 21 04 ba
       0.0034836796 -0.00074203726 0.00069472747 -0.0005040426
000120 42 42 4a 3a 37 d6 41 ba 41 4e 81 b9 ae 49 84 3a
       0.00077155617 -0.0007394286 -0.000246631 0.0010092759
000130 1f 78 35 ba 90 0a 3d bc f6 21 e6 ba 17 70 02 3a
       -0.00069225015 -0.011538163 -0.0017557729 0.0004975809
000140 83 5e 7e bb b4 7e a3 bb 02 14 d0 39 a0 eb 2f 3b
       -0.0038813658 -0.0049894694 0.00039687759 0.0026843324
000150 20 e6 f0 bb b4 87 df bb 17 2a ab 3c 01 9c 11 3b
       -0.007351652 -0.006821597 0.020894093 0.002221823
000160 43 1e 1a 3c af 01 26 3b 60 3b f2 39 43 07 af 38
       0.009406629 0.0025330593 0.00046202075 8.346003e-05
000170 a8 c6 19 3c ec 59 30 ba f1 05 a0 3c aa b0 97 ba
       0.009385742 -0.00067272666 0.019534083 -0.0011573036
000180 3c cf 37 bb f3 d5 d1 3a a7 ef 03 bb 1c f5 3e 3b
       -0.0028047105 0.0016009196 -0.0020131858 0.0029137796
000190 22 4f 13 3b 54 a6 32 3b 4b a4 24 3c ec 51 8e 36
       0.0022477587 0.0027259784 0.010048936 4.2414667e-06
0001a0 6d 48 3a bb 33 17 b6 3b 55 a2 94 3a 29 fa e7 bb
       -0.0028424517 0.005556965 0.0011339883 -0.007079382
0001b0 2c eb d3 39 ce 7b 06 bc 70 c2 80 bc bb 02 bc 3a
       0.00040420273 -0.008208228 -0.015717715 0.0014344075
0001c0 21 16 c3 b9 7e 55 fa bb 14 6b db b9 12 2e bc bb
       -0.00037209786 -0.007639586 -0.00041850714 -0.0057427967
0001d0 5e 18 8b 3b 50 c2 2f 3c d1 3e 83 bb 22 83 c9 3a
       0.004244848 0.01072748 -0.004005291 0.0015374164
0001e0 3e 12 70 3a 67 09 ca b7 81 67 89 bb fe e1 02 38
       0.0009157992 -2.4084655e-05 -0.004193247 3.1204887e-05
0001f0 8f b3 60 bb 0c 08 f9 39 c2 8b 32 3b 5b 81 8a ba
       -0.0034286713 0.00047498976 0.0027243947 -0.0010567115

gnn_layers.0.gnn.lin.weight f4 [128, 100]
000000 4b 9d 61 3e ba ed 31 3e b0 39 78 be 0a f2 eb bd
       0.22032659 0.17375842 -0.24240756 -0.11520775
000010 bc ca fa bd a8 91 30 3e 02 ae 0a 3d 0a 54 de bd
       -0.122457 0.17243063 0.033857353 -0.10855873
000020 82 aa fe bd 2b 5b 1b 3e 06 8e f9 ba dc 88 94 3d
       -0.124348655 0.15171497 -0.0019039519 0.07252666
000030 14 38 8f bd 3f 44 93 bc ba d7 37 3d e8 9d 2a 3e
       -0.06993118 -0.017976878 0.044883467 0.16661799
000040 62 4d db 3a 93 9f a4 bd d3 fd b9 bd b9 2d 52 be
       0.0016731436 -0.08038249 -0.09081616 -0.20525254
000050 8f ad e9 3d 93 ba fc 3d 85 a3 4f 3d b8 5f 25 be
       0.11410057 0.12340274 0.050693054 -0.16149795
000060 ff 87 ac bd 52 74 0e 3e 00 5e c9 3c d6 33 41 bd
       -0.08424377 0.1391156 0.024580956 -0.047168575
000070 d9 4e 7c bc 2a b1 fb 3c e8 94 2f 3e 8d a7 49 bd
       -0.015399658 0.030724127 0.17146647 -0.049232055
000080 d1 f5 c9 3d 0f 75 1e be 32 44 be bd 3b 8d f2 bb
       0.09861339 -0.15474342 -0.09290351 -0.00740209
000090 c1 65 23 3e 8b 1c f1 3d fb 31 dd 3d 71 7d 77 3d
       0.15956785 0.11773022 0.10800549 0.060422365
0000a0 c1 05 0e be fb 59 11 be 54 a0 88 3d 01 bb 41 be
       -0.13869382 -0.14194481 0.06671205 -0.18918993
0000b0 04 fa 94 be 07 04 eb 3b fa 8f 4b 3d d4 d6 55 bc
       -0.29096997 0.007172111 0.049697854 -0.013051707
0000c0 da 26 12 be c0 d7 ae bc 39 6e a5 3d c2 02 84 3d
       -0.14272633 -0.021343112 0.08077664 0.064458385
0000d0 09 c0 20 3e 06 02 c8 3d ce 6a 14 be 0e 2c 16 bd
       0.15698256 0.09766011 -0.14493868 -0.036663108
0000e0 6d 46 98 3d e9 68 a7 3d 4f 77 2d 3d 39 0d ce bd
       0.07435308 0.08174307 0.04235011 -0.10061116
0000f0 38 3f 89 bd 35 07 3d 3e 26 c5 28 3e 0c 0f 04 3d
       -0.06701511 0.1845978 0.16481456 0.032240912
000100 7a 2e 0a be 20 32 9c be c6 02 b9 bd 0e d3 0f 3e
       -0.13494292 -0.30506992 -0.09033732 0.14045355
000110 0b 29 2f 3d 54 eb 58 3e b0 a8 b0 bd 74 da fd 3d
       0.04276375 0.2118352 -0.086259246 0.12395182
000120 7a eb 32 3d 8f 49 f1 bd a0 83 17 be c5 d2 4d be
       0.0436816 -0.11781608 -0.14796305 -0.20099933
000130 67 8a 9c 3d d0 fc 01 3e e2 10 62 3e 71 a3 b2 3d
       0.07643586 0.12694097 0.22076753 0.0872258
000140 28 99 8a be 0e 47 96 bd 5b 13 27 3d 36 37 c4 bb
       -0.27069974 -0.07337771 0.040789943 -0.005988027
000150 2c 17 5f bd 9d e2 9b be f7 89 79 bc fe 76 50 3e
       -0.054465458 -0.3044633 -0.015230647 0.20357892
000160 ae d4 60 3e 69 63 b9 3d a4 6e 00 bd 41 11 1f 3d
       0.21956131 0.09052164 -0.031355515 0.038834814
000170 f8 df b2 3e 26 29 c9 3e d6 ad 64 3d e2 37 13 be
       0.349365 0.39289206 0.055829845 -0.14376786
000180 f3 e9 0d 3d 90 66 fc bd 51 1b 14 be 7a 7c fe be
       0.03464694 -0.1232425 -0.14463545 -0.49704343
000190 08 4e 87 be ba df c1 be d7 ce 1a 3e e4 c2 d7 bd
       -0.2642672 -0.37866002 0.15117966 -0.10535219
0001a0 00 ca 1e 3d 2e 5f 02 3b 3a 0e 02 3e 50 45 63 be
       0.03876686 0.0019893157 0.1270074 -0.2219441
0001b0 d4 9d 9a 3e 0e ff 02 be 0a 0c 71 be a2 00 4f be
       0.30198538 -0.12792608 -0.23539749 -0.20215085
0001c0 31 ef d5 3e d4 cd b2 3c 8b 2b 83 3e 0d 85 dd 3d
       0.4178405 0.021826662 0.25619158 0.10816393
0001d0 08 24 fe 3d 8a fe db bd 12 38 e2 3e ed 03 4a 3e
       0.12409216 -0.10741909 0.44183403 0.1972806
0001e0 d5 e2 e3 bd cc 3c 21 be 5b 17 ed 3e 0a e5 b7 bc
       -0.11127249 -0.15745848 0.4630688 -0.022448082
0001f0 87 ad 79 3e 5f d6 f6 3b 20 11 38 3e 9f 45 6d bd
       0.24382602 0.0075328792 0.17975283 -0.057927724
000200 39 79 56 3e 2f f0 72 3c 97 44 68 be 53 06 72 be
       0.2094468 0.014827772 -0.22682415 -0.23635225
000210 f2 30 15 3e 6e 75 5e be 9c a8 03 3c 9f ac 09 be
       0.14569452 -0.21724483 0.008035805 -0.13444756
000220 72 ec 4a 3c fc b4 3c be 93 8a c4 3d 5d 28 65 be
       0.0123854745 -0.18428415 0.095967434 -0.22378679
000230 51 47 07 bf d1 2c 59 be f7 ea ae 3e ee 89 bc bd
       -0.52843195 -0.21208502 0.3416364 -0.092059955
000240 5a e2 b6 3e 57 ac 6d 3e a7 97 74 3e 1c c8 27 bd
       0.35719568 0.23210274 0.23885976 -0.040962324
000250 d0 d5 61 3e 1c 0d fb 3d b6 38 93 be 97 b7 60 be
       0.22054219 0.1225836 -0.28754205 -0.21945034
000260 99 c1 a5 3e 3c 45 9a bd 57 92 1a 3e 76 ff 0e bc
       0.32374266 -0.07532737 0.15094887 -0.008727899
000270 06 7a 12 3e 61 5b 74 be 8f 64 b1 3d 01 07 c7 bd
       0.14304361 -0.23862983 0.08661758 -0.09718133
000280 90 17 3b be a6 6c 77 be ed 72 fe 3d 1d 2c a4 be
       -0.18270707 -0.2416254 0.12424264 -0.32064906
000290 94 94 45 bd b3 ff 00 be b9 63 3e bc 7f e4 8a be
       -0.0482374 -0.12597542 -0.011620455 -0.27127454
0002a0 0b b0 92 3d 5c 7b 12 bc f4 7c 92 be e7 78 3f be
       0.07162484 -0.008940544 -0.28610957 -0.18698464
0002b0 ae 3b 9d 3e f2 91 76 be 7d c7 5b 3e 44 9d de 3d
       0.30709594 -0.24079111 0.21462817 0.1086984
0002c0 ce 2a 86 3e 42 94 14 be f8 66 b6 3e 2a c6 39 3d
       0.26204532 -0.14509681 0.35625434 0.045355
0002d0 8b 0a c4 bd de d4 c2 bd 4d 28 ca 3e 65 53 22 be
       -0.095723234 -0.095132574 0.39483872 -0.15852125
0002e0 19 7f 83 3e f4 af a6 3e f5 8b 81 3e bc 9c da bd
       0.25682905 0.32556117 0.2530209 -0.10674426
0002f0 bf 93 97 3e 94 bb c4 bd ef cc 82 bd ff 28 8a be
       0.2960491 -0.0960609 -0.06386744 -0.26984403
000300 7b 58 ac 3e 90 d0 6c be 5a 44 10 3c 20 1e ce 3e
       0.33661255 -0.23126435 0.008805359 0.4025736
000310 88 b1 bb 3d 11 e1 16 be b4 b1 86 3d f2 3a f1 be
       0.09164721 -0.14734294 0.06576863 -0.47115284
000320 83 d3 dc bb 95 ed cf 3d ef 43 6d 3e 8b 59 81 bd
       -0.0067390813 0.10152737 0.23170446 -0.06315907
000330 5c 97 84 3d 7b 87 0d be 0a f0 9f be cd 4d 9e be
       0.06474182 -0.13821213 -0.31237823 -0.30918732
000340 dc 14 2c be 57 92 20 3d 21 5c 3f bf 77 5f 9e be
       -0.16804832 0.03920206 -0.7474995 -0.3093221
000350 cb 6f cb bd 2f 11 65 3e 17 89 bf 3e f1 8a a4 bc
       -0.09933432 0.22369836 0.3740928 -0.020085784
000360 71 da 1f 3e 7b a2 89 bc 51 5d c0 3e 70 37 db 3e
       0.15610673 -0.01680111 0.37571195 0.42815733
000370 ec 4d 2f bd 0c 01 8f 3d e6 b9 21 3e 01 e2 1b 3c
       -0.04279892 0.069826216 0.15793571 0.009514333
000380 75 47 42 3c e3 5b ec be 22 58 8f be 89 d5 65 be
       0.011857857 -0.46163854 -0.27996927 -0.22444738
000390 7b ba d0 bd f2 84 5a 3e 93 dd 94 be 9c 1c b6 bd
       -0.10191818 0.21339777 -0.29075298 -0.088921756
0003a0 05 13 08 3e 88 3d e6 bd 46 d1 30 bc 3d 39 6e 3e
       0.13288505 -0.11242205 -0.010792082 0.23264022
0003b0 04 94 99 3e 19 73 73 3c aa 80 49 3e 34 b2 d5 3e
       0.2999574 0.014858984 0.19677988 0.4173752
0003c0 59 b6 97 be 55 a0 a2 3d 57 7a 4e 3c 03 99 81 bd
       -0.29631308 0.07940737 0.01260241 -0.06328013
0003d0 27 7f 06 3d 6b 5d 40 bd 51 fc 86 bd 9b 64 9a be
       0.032836106 -0.04696409 -0.06591094 -0.3015488
0003e0 a6 c3 3b bb 4f b0 d9 3e c9 5f 7d be e7 75 a4 3d
       -0.002865055 0.42517325 -0.2474357 0.080303006
0003f0 f3 d2 b8 3c 6e 3c 04 3e 5b 60 b1 3e 1a d0 10 3e
       0.022561526 0.12913677 0.34643826 0.14141884

gnn_layers.0.bn.weight f4 [128]
000000 24 34 07 3d 8a 20 c9 3e e4 67 b6 3e b8 eb 05 40
       0.03300871 0.39282638 0.35626137 2.0925121
000010 9d 65 4e 3d 7d 20 79 3e 68 fe 34 3e 40 88 f9 3e
       0.050389875 0.243288 0.17675173 0.48736763
000020 e5 f0 32 3f 9c f6 1d 3f de 5b cd 3e 08 5f 5d 3f
       0.69898826 0.6170442 0.40109152 0.8647313
000030 9a 46 1b 3f 1f 73 c2 3e ff 08 2d 3f d4 9d 7e 3e
       0.60654604 0.37978455 0.6759185 0.24864894
000040 42 15 15 3f 57 50 86 3e a9 56 0f 3f 67 61 b6 3e
       0.5823556 0.2623317 0.5599161 0.35621187
000050 52 2c a9 3f 97 de b6 3e 3f dc 67 3f bb f2 0e 3f
       1.321665 0.35716698 0.90570444 0.5583913
000060 a4 b3 ae 3e 99 58 51 3f d5 65 00 bf ee 63 9f 3e
       0.3412143 0.81775814 -0.50155383 0.31130928
000070 a2 a5 9a 3e 72 9c 93 3f f8 64 6a 3e 3b 03 01 3f
       0.30204493 1.1532118 0.22890079 0.50395554
000080 b7 de bd 3d 21 60 eb 3e c0 b1 2f 3f 3e 39 82 3f
       0.09270995 0.45971778 0.686306 1.0173719
000090 cf f1 85 3f ae ba c2 3e 89 a2 13 3d 4a 9a 0e 3f
       1.0464419 0.3803305 0.036043677 0.55704176
0000a0 eb 6a de 3e 93 7f c8 3e a9 6a a3 3e 99 54 b1 3e
       0.43440947 0.3915983 0.31917313 0.34634855
0000b0 bd db c1 3c 87 2e c8 3d 07 0b 43 3f 64 f0 e0 3d
       0.02366435 0.097744994 0.761887 0.10983351
0000c0 9b bb 5d 3e 73 5c 00 3f a5 e4 95 3e c8 48 5a 3f
       0.21653597 0.50141066 0.29276004 0.85267305
0000d0 64 9e ba 3e 4c 1e 7b 3f 94 b8 62 3f b3 ac 68 3e
       0.36448967 0.98093104 0.88562894 0.2272213
0000e0 31 e3 bd 3e ae c7 be 3e a0 19 86 3f 0f 6d 83 3e
       0.37087396 0.3726172 1.047657 0.25669143
0000f0 da df 75 3e b5 b6 d0 be f4 61 44 3f 6c 9c 33 3f
       0.24011174 -0.40764394 0.76711965 0.70160556
000100 65 2c 85 3f e3 63 67 3f d4 fb a5 3e 50 6c 18 3f
       1.0404173 0.9038679 0.32418692 0.5954027
000110 8c da 1a 3f 69 f6 81 3f 62 29 ed 3f 6f c5 9f 3e
       0.60489726 1.0153323 1.8528254 0.31205317
000120 3d d8 45 3f 07 a6 0a 3e b7 1d 9c 3e c7 14 28 3f
       0.7728308 0.13539897 0.3049142 0.65656704
000130 df 91 8f 3e 1c 96 87 3e cd b5 d6 3e e8 b9 8b 3c
       0.28040978 0.26481712 0.41935578 0.01705642
000140 f5 0f fa 3e 09 a5 f4 3e 24 a0 73 3f eb 7b 44 3f
       0.488403 0.47782162 0.9516623 0.76751584
000150 cd 79 0a 3f 7a 83 a1 3c d0 b7 45 3e 31 1f d6 3f
       0.54092103 0.019716013 0.193084 1.6728269
000160 ee 9a ba 3e 7c 00 0c 3f 31 13 1a 3f 33 58 8e 3f
       0.36446327 0.5468824 0.60185534 1.1120666
000170 89 9f 96 3c 46 78 b0 3c 60 81 2d 3f 72 ce ba 3d
       0.01838662 0.021541726 0.67775536 0.091214076
000180 dd 06 00 3f 77 d7 50 3f b4 d6 9b 3f 3a 3c 2e 3f
       0.5001047 0.81578773 1.2174897 0.6806065
000190 73 e4 df 3f 9d 5e c6 3e 3e 64 7b 3e 0f 21 6f 3d
       1.7491592 0.3874406 0.24549958 0.058381137
0001a0 15 14 dc 3e 9f 45 2c 3f 70 28 84 3f 83 81 68 3e
       0.4298407 0.67293733 1.032484 0.22705655
0001b0 84 9b 6e 3f 06 23 8a 3e 02 de 6a 3e 81 25 b2 3f
       0.9320605 0.26979846 0.22936252 1.3917695
0001c0 c3 5f 81 3f e4 c1 7a 3e 3d 96 bc 3f dc 59 5d 3f
       1.0107349 0.24488026 1.4733349 0.8646524
0001d0 11 e7 dd be 72 9b e5 3e c2 c1 25 3f 24 55 4e 3f
       -0.43340352 0.44845158 0.64748776 0.80598664
0001e0 b8 df 2a 3e dd 38 18 3d f0 75 06 3f ac 5a 45 3e
       0.16686904 0.037163604 0.5252371 0.1927287
0001f0 cd 5e ef 3b b6 11 b9 3e 58 c1 d0 3e a1 db 1c 3f
       0.0073050023 0.36146325 0.4077251 0.6127263
