model_normal/gdn_smap50.pth (torch, 42869 bytes, 16 tensors)

embedding.weight f4 [25, 64]
00000000: 7aea 3a3e 871e 65bf 630c 233e 29f2 a4bc
00000010: 6926 56be 6de9 5f3e 7c1f afbc ccca ddbd
00000020: 0d0e 9cbe 3904 6bbe 4cb7 df3d 7cb7 23bf
00000030: bd9e 2f3e 7dbe 55bf 8ca3 293e 2228 e33d
00000040: 78d4 a8be b4b3 27bf 3782 df3d d17e 3b3e
00000050: 9977 20bf da52 ed3d b557 1dbf 7d3b 59bd
00000060: 82f0 453e 91be 4abf 83cd 0c3e c86f c0be
00000070: 3078 793e 1ab8 6cbf 1313 83bf 09ed 4ebf
00000080: 3964 80bf e1bb cbbc 756a 1cbf c77b 3f3e
00000090: 303e 0bbf f572 263e 6d8f 8d3d 4200 a8be
000000a0: b39b 323e 6c77 a6bd 2fcd f7be bb8c 7bbd
000000b0: 0880 7f3e e15a e6bf 0a32 4bbf 850b 003d
000000c0: 2530 f2be 4d5b 97bf dfd2 0c3e bf97 c13d
000000d0: 7f66 21bf dbb4 2c3e 562e f23d 047b 86bd
000000e0: a027 85be 083e 93bc 5b98 03be d36e 2ebf
000000f0: 0a2b 79bf b233 af3e 91f1 9abe 9fd5 f53d
00000100: ab1a 5dbc 5b14 0fbd 5279 2ebd 4f1e ccbc
00000110: a908 b23d 8982 3cbc 870b d9bc 1e64 ebbd
00000120: 1747 4abf a37a 19bf abf9 23be 4ea4 fc3d
00000130: 3340 42bd d800 8bbd ceba a8bd 4bbd 3cbe
00000140: aa56 1abe 948f b9bd e73d 35be 727e f6bc
00000150: c1cf be3d 038f 9abe 2b26 a8be 0158 9bbc
00000160: c2c1 63bd d26b 60bb a2ba 54be ea22 83be
00000170: dde8 a2bd 14c8 023f 51d5 82bd d2ca d63d
00000180: 86f6 8c3e c02a 323e b835 39be 3697 b7bd
00000190: b2eb 78bd 06fc d5bd f507 4dbe 28e3 d0bd
000001a0: cee9 85bd 5db0 1d3d 85e8 a4bd f6d3 99be
000001b0: c75f 3dbd 9d9d 9e3d 528d a1bc b31a 4b3c
000001c0: 2fd4 153d e7ee c6bd fb47 6bbe eb26 32be
000001d0: d9e1 9cbc a53d 2ebe e778 93bd 3a55 3ebd
000001e0: d266 02be dcaf e53d f1b9 e9be c9ed 18be
000001f0: 4ec3 adbd c321 533e 531c 76bc 9c12 42be
00000200: 549b b0ba dbd6 d63d 7c84 a5bd 296f c63d
00000210: 92ab 633d 564e 473a e7b3 e8be bab3 f3bd
00000220: 5b8a e83d 8679 253d 34cc 32bd 74ae 4cbf
00000230: 75f3 86be 1cd9 993d 7c3f 32be 1dad bcbc
00000240: 36f5 943d 0c72 98be fc9d a3bd 9349 05bf
00000250: c24f 273d 0ae7 adbe 18ae 56be 0235 153c
00000260: aa07 a2bd 3522 fb3d 5f49 89be d0e7 89bd
00000270: d118 7a3d dacf 913f c28b bbbd 4771 8abc
00000280: 673d c83e 1e4d fbbf 759b 6e3d 8204 8cbd
00000290: 2eee 21bd c778 00be 0e2f c9be 81e2 a8bd
000002a0: 2417 d3be c7b2 d0bf 295a f43d c736 8d3d
000002b0: ccd8 593d d241 983e 217c ec3d 4010 02be
000002c0: 2f1b ed3d 0b53 93bd cab4 c1bb 3e1b 1ebe
000002d0: b247 973d 1cc9 2abc 2fbf 7aba 0edc f5be
000002e0: 0df5 253d 655b 45be 3964 57bd 5dfd 43bd
000002f0: 7e5e 4abd d4c9 3e3e e913 f83d bdcd a5be
00000300: c33b 61bc 59a8 413c ae9a 23bd 4356 6bbb
00000310: 7e10 c73c e03a 16bc a292 c7bc d90f a6bd
00000320: af72 9cbe bf1b a0be c8f5 3dbe 3b3a 213e
00000330: 13c8 06bd 5e38 7fbd a941 c7bd 0b59 48be
00000340: 1c5d cabd 92fc adbd a160 44be a38a 95bc
00000350: 991a d1be 6fbb babe 2d3e c8bb 1242 e2ba
00000360: 3b16 5fbd 80fc 903c 3903 83be b912 0cbf
00000370: 4368 98bd 0398 a63e 7fc0 5bbd 6c2c 7bbd
00000380: c2f3 803e 32fa 533e e399 82bd 181a b63d
00000390: 6183 edbc 5a9a d7bd 7dbe 46be 5943 c9be
000003a0: c4b7 9abd ab48 c23e cb73 9dbd fc08 5dbf
000003b0: 6664 2abd ccae 8a3d 9349 ddbc 99b4 1dbc
000003c0: 03bf 95be bd3b abbd 9ee1 43be e9f4 3fbe
000003d0: b640 57bb 8bd3 2abe 3f69 7bbd cc93 38bd
000003e0: 3093 15be b2f2 a33d c891 37bf 04e1 a4bd
000003f0: d5ad 28bd eb33 4cbe 417b 47bc b55c 2cbe
0.18253508 -0.89499706 0.15922694 -0.020135002 -0.2091309 0.21866389 -0.021377318 -0.10829696
-0.3047947 -0.2295083 0.10923633 -0.6395185 0.17150398 -0.8349379 0.16566294 0.11091639
-0.329746 -0.6550858 0.109135084 0.18310095 -0.6268249 0.11588068 -0.61461955 -0.053035248
0.19330028 -0.7919703 0.13750271 -0.37585282 0.24362254 -0.92468417 -1.0240196 -0.80830437
-1.0030586 -0.024869861 -0.6109994 0.18699561 -0.54391766 0.1625479 0.06912122 -0.32812697
0.17442207 -0.08128247 -0.4839873 -0.061413508 0.24951184 -1.7996484 -0.7937323 0.031260986
-0.47302356 -1.1824738 0.13752316 0.094527714 -0.6304702 0.16865866 0.11825244 -0.06566432
-0.26006794 -0.017973915 -0.12851088 -0.68137854 -0.973313 0.34219128 -0.30262426 0.120036356
-0.013495128 -0.034931522 -0.04259617 -0.024916796 0.08693058 -0.011505731 -0.026494754 -0.11493705
-0.79014724 -0.59952754 -0.1601321 0.12336026 -0.047424506 -0.0678727 -0.08238755 -0.18431585
-0.15072122 -0.090605885 -0.17699395 -0.03008959 0.0931697 -0.30187234 -0.3284162 -0.018962862
-0.055604704 -0.0034243953 -0.2077432 -0.25612575 -0.079545714 0.51086545 -0.06388343 0.10487904
0.27531832 0.1739912 -0.18086898 -0.08964388 -0.06077165 -0.1044846 -0.20022567 -0.101995766
-0.06538735 0.03849827 -0.08052162 -0.30044526 -0.04623392 0.07744906 -0.019720707 0.012396502
0.036579307 -0.09713536 -0.22976677 -0.17397659 -0.019150661 -0.17015703 -0.07200795 -0.046467997
-0.12734535 0.11215183 -0.45649675 -0.14934458 -0.08484517 0.20618348 -0.015021401 -0.18952411
-0.0013474026 0.10490199 -0.0808191 0.09689171 0.055583544 0.00076029205 -0.45449755 -0.118995145
0.11354514 0.040399097 -0.043651775 -0.79953694 -0.26357618 0.075121135 -0.1740703 -0.023031766
0.07273333 -0.2977451 -0.079891175 -0.5206539 0.040847547 -0.3396533 -0.20964849 0.009106876
-0.07911618 0.12262384 -0.2681379 -0.06733668 0.061058823 1.1391556 -0.09157516 -0.016899718
0.39109346 -1.9632909 0.058253724 -0.06836797 -0.039533786 -0.12546073 -0.39293712 -0.08246327
-0.41228592 -1.6304559 0.11931259 0.068952136 0.05318527 0.29737717 0.11547113 -0.12701511
0.115774505 -0.071935736 -0.0059114443 -0.1544008 0.07386722 -0.010423925 -0.0009565232 -0.4801945
0.0405169 -0.19273145 -0.052585814 -0.047849048 -0.04940652 0.18631679 0.121131726 -0.32383528
-0.013747158 0.011819922 -0.039942436 -0.003590957 0.024299856 -0.00916931 -0.024361912 -0.081084915
-0.30556247 -0.3127117 -0.1855079 0.1574487 -0.03290565 -0.062309615 -0.097293206 -0.19565217
-0.098810405 -0.084954396 -0.19177486 -0.018254584 -0.40840605 -0.36471125 -0.0061109276 -0.0017262122
-0.05446456 0.017698526 -0.25588396 -0.5471607 -0.07441761 0.3253785 -0.053650375 -0.06132166
0.25185972 0.2070091 -0.06377008 0.08891696 -0.02899331 -0.10527487 -0.19408603 -0.39309195
-0.07554582 0.37946066 -0.076881014 -0.86341834 -0.041599654 0.06771621 -0.027012622 -0.009625577
-0.29247293 -0.083610035 -0.19129035 -0.1874577 -0.0032844967 -0.1668226 -0.061379667 -0.045062825
-0.14606929 0.08005275 -0.7170682 -0.08050731 -0.041181404 -0.1994168 -0.012175382 -0.1683224

bn_outlayer_in.weight f4 [64]
00000000: 9874 2e3f ed5d 023f 0264 2c3f adf6 2e3f
00000010: 5e50 673e fb69 123f 8ba5 093f 276e 103f
00000020: 8e2e ec3e c1cb fb3e 97b4 333f 830b 193f
00000030: d562 2a3f ce9f 0d3f f78f 233f a077 3a3f
00000040: e935 0d3f 480d 073f 4216 3a3f 5c9e 303f
00000050: dd40 fe3e 09f7 233f cc73 1b3f dcfd 063f
00000060: 0782 173f 08ee c83e 30fa 3a3f 79a9 1b3f
00000070: f9cd 273f 427a 3e3e 77e2 0c3f 407f 0d3f
00000080: afe6 543e 289d 1a3f 0c9f da3e 3576 2a3f
00000090: ac44 083f 6406 2e3f c5ef 3a3f 2b59 0e3f
000000a0: b560 2c3f dcbc c13e 4db7 033f df04 ff3e
000000b0: 14b4 233f 92b7 1b3d c010 043f a7c4 0a3f
000000c0: 555e d03e b788 243f 52e6 323f d9db 3b3f
000000d0: dd21 193f 2c5a 2c3f 4cf8 223f da9c 013f
000000e0: a704 173f eff4 a73e 2003 053f 8b5b 193f
000000f0: 9c36 e93e 4b7f 243f 3ab2 e03e 2571 363f
0.6814666 0.5092457 0.673401 0.6834515 0.22589251 0.57192963 0.53768224 0.5641808
0.46129268 0.4917889 0.70197433 0.5978319 0.66557056 0.5532197 0.6389155 0.72838783
0.55160385 0.5275464 0.7269021 0.6899164 0.49658862 0.6404882 0.60723567 0.5273111
0.5918278 0.39244103 0.73038006 0.6080547 0.65548664 0.18601325 0.5503306 0.55272293
0.20791124 0.6039605 0.42699468 0.6658662 0.53229785 0.679785 0.7302211 0.5560481
0.67335063 0.378394 0.5145157 0.49808404 0.6394665 0.038016863 0.5158806 0.5420632
0.4069697 0.6427111 0.6988269 0.73382336 0.59817296 0.6732509 0.6366012 0.5062996
0.58991474 0.32804057 0.51957893 0.5990531 0.45549476 0.64256734 0.43885976 0.71266395

bn_outlayer_in.bias f4 [64]
00000000: 2c79 72be 25bf 95be f3fc c7be c841 cebe
00000010: 8079 b9bd 45eb 13be 986e 89be c5cb aebe
00000020: a2c1 15bf ebe9 13bf a58d f6be 4cdc d4bd
00000030: 7374 babe f1bf b4bd b065 e5be b724 ecbe
00000040: 455b 41be 3fcd 10bf 1ec8 edbe 495f a5be
00000050: f3fd e1bd ef93 1cbf 7c29 f6bd 3fca 13bf
00000060: 4a33 ccbe ef1c 4ebf b675 0abf d97f 03be
00000070: bc64 18bf 1923 b8be 06e1 81bd 56dd b7bd
00000080: 35a3 0cbf 0830 81bd 3067 06be 2da5 e5be
00000090: 3aff efbd 59c4 00bf f398 14bf b0ee 5dbe
000000a0: 9c09 d2be 7d19 a7be 9081 2ebf 546c ccbd
000000b0: 4012 17bf 66f1 2fbf 83dd e7be 3e3d 1dbf
000000c0: d110 7ebf f464 a6bd 49d1 aebe 848c f6be
000000d0: 0868 12be f47b aabe 9fd6 5fbe 9a0a fdbd
000000e0: 3a10 13be 6459 21bd 2a9f 24be 1011 ddbd
000000f0: 64bf adbd 8afd 16bf de66 76bf ece4 fcbe
-0.23679036 -0.29247394 -0.39060172 -0.40284562 -0.090563774 -0.14445217 -0.2684219 -0.3413984
-0.58498585 -0.57778805 -0.4815494 -0.10393581 -0.3641697 -0.088256724 -0.44804144 -0.4612176
-0.18882473 -0.5656318 -0.4644174 -0.3229926 -0.11034765 -0.6116323 -0.12019631 -0.5773048
-0.3988288 -0.805129 -0.5408586 -0.12841739 -0.5952871 -0.35964277 -0.06341748 -0.08977763
-0.54936534 -0.06307989 -0.131253 -0.44852582 -0.117186025 -0.502996 -0.5804588 -0.21673083
-0.41022956 -0.32636634 -0.68166447 -0.099815995 -0.5901222 -0.6872772 -0.45286188 -0.61421573
-0.9924441 -0.08124724 -0.34144047 -0.4815408 -0.14297497 -0.33297694 -0.21859215 -0.12355538
-0.14361659 -0.03939189 -0.16076341 -0.1079427 -0.084837705 -0.5898062 -0.9625071 -0.49393404

bn_outlayer_in.running_mean f4 [64]
00000000: e075 2bbd 1427 98bc 001f b2bd ca08 abbd
00000010: 96b0 82bc 6e18 cebc d90b 20bc d127 bdbc
00000020: 9f0d bdbb 63ed 47bb 6276 d9bd a9e6 5cbb
00000030: 9788 07bd f791 5dbc 12eb e7bd d74f fdbd
00000040: d0fd 73bc f315 47be 69a5 13be 63ba 74bd
00000050: 7a75 a5bc fd7f 5cbe 8409 0dbc bcb1 2fbc
00000060: b5d4 8abd c3ae f93c bac9 70be 1ae1 e7bb
00000070: d0ce 8fbd 654f a83e 059d 1abc e2c7 8bbc
00000080: ffa7 9bbc 1324 79bb ea3f 0cbc eef1 a6bd
00000090: f393 3dbc b1e2 98bc 5137 c7bd b583 21bc
000000a0: 14fd b0bd 00ef 39be dbf8 6f3d 31f6 dabb
000000b0: 6b1f fdbd 801a 5bbc 66b7 f8bc a366 21bd
000000c0: 73c8 19bc 7ccf 04bc 2045 2cbe 40eb 0dbe
000000d0: 6e0e 80bc f235 d6bd 9d25 a0bc 1737 7fbc
000000e0: ab9c ebbb 6a82 6cba a15e 02bc 5606 bfbb
000000f0: a71a 08bc 1bd7 27be eaae 413d 5616 f1bd
-0.04186046 -0.018573321 -0.08697319 -0.08351286 -0.015953343 -0.025158133 -0.00976845 -0.023090275
-0.005769446 -0.0030506484 -0.10618283 -0.003370682 -0.033089247 -0.01352357 -0.11324133 -0.12368744
-0.014892057 -0.19441967 -0.14418568 -0.059748065 -0.020197619 -0.21533199 -0.008608226 -0.0107235275
-0.06778852 0.03047884 -0.23514453 -0.0070763947 -0.07021868 0.32873073 -0.00943685 -0.017063085
-0.019001005 -0.0038015887 -0.00856016 -0.08151613 -0.011570918 -0.018662782 -0.09727348 -0.009858062
-0.08642021 -0.18157578 0.058586936 -0.0066821803 -0.12359508 -0.013373017 -0.030360889 -0.039404523
-0.00938617 -0.008106109 -0.16823244 -0.13859272 -0.01563188 -0.10459508 -0.019549185 -0.015577099
-0.007190307 -0.0009022119 -0.007957132 -0.0058296127 -0.008307136 -0.1639065 0.04728595 -0.11771838

bn_outlayer_in.running_var f4 [64]
00000000: 8bd2 b53c bf02 5d3c 529b 1a3d 2afb 543e
00000010: 5a9b b53c 31d4 553c 9a8f a43b 4452 6b3c
00000020: 3507 eb3a c390 d73c 75b0 f13c 974d 883a
00000030: ea86 923c ca38 373c f223 f83c 4a8d 363d
00000040: 3c71 c83b 33a9 4f3c a122 793d a4dd b13c
00000050: a1e8 573c 7dcc 883d d231 6a3b 6a7f b03c
00000060: 800c 963c 15c3 ca3c fc80 263e 2099 0b3b
00000070: fa14 833d d4c6 9f3e 79b7 163c 347e 873c
00000080: 30b6 773d 1898 173b 149d a43b f3fc 2a3d
00000090: dc16 f53b 5135 9a3b 5b1c b33c 0382 8c3b
000000a0: c531 d23c 69df 793e 51ba 883c 84d3 043b
000000b0: a1ca a63d a095 273d 5a2a 903d d6ef 0c3e
000000c0: b473 493b 7de3 c13b d966 133e 6588 5a3d
000000d0: 03fe f53b 772c 543d 1a08 8c3b 7a2e e03b
000000e0: 5a4e 313b 4c0a b439 be09 233b f5df 393b
000000f0: c5be 633b 973a 083e a3fa 603c fa45 103d
0.022195121 0.013489424 0.03774578 0.20798936 0.022168804 0.013051079 0.0050220015 0.014362875
0.0017931225 0.026314145 0.029503087 0.00103991 0.017886598 0.011182973 0.030290578 0.044568338
0.006117014 0.012674618 0.06082404 0.021712132 0.013178022 0.06679628 0.0035735262 0.02154513
0.018316507 0.024751225 0.16260141 0.0021300986 0.06400485 0.3120638 0.009199017 0.01653967
0.060476482 0.0023131426 0.005023608 0.041745137 0.0074795317 0.004706063 0.021864107 0.0042879595
0.025658498 0.2440163 0.016690405 0.0020267675 0.08144117 0.040914178 0.07039328 0.13763365
0.003073913 0.0059170113 0.14394702 0.053352732 0.007507087 0.051800217 0.0042734267 0.006841478
0.0027054758 0.00034339947 0.0024877633 0.0028362249 0.0034751159 0.133036 0.013731631 0.035222985

gnn_layers.0.gnn.att_i f4 [1, 1, 64]
00000000: 5ad4 37bd 414d 20be 1dd3 5abe d05a 08bd
00000010: 8c48 43bd eeb6 2fbe 02a5 2dbd 9975 a83d
00000020: 0af8 8f3e f446 873d dcc8 953d 1ca5 a0bd
00000030: e6bb b3bd a093 7d3e 4641 b73c 2c83 06bc
00000040: b59e 5a3e 5ea5 73be 4e97 283e 964f aabe
00000050: 2746 14be 0319 3abd b85d 38be 3d83 09bd
00000060: f95d e7be 2da0 c73e 3dd9 d0bc 5ebe 7bbe
00000070: 9b39 b93e 55ec b5bf 58df 1dbe 05c9 793e
00000080: c191 4fbe 07b0 18bd df89 1fbe 880b 593e
00000090: 4380 283d 78d0 95be fe18 d1bd 9ed3 c7bd
000000a0: bb9c 8cbe 2cb2 68be ee11 f1bc 71b6 1d3d
000000b0: 266c eebb 7b3a b5be 7789 b1bc 3717 083d
000000c0: cad9 2d3e 77cb 45be 0e31 ccbd 6e22 613e
000000d0: 708f 063c b912 0e3e 6da5 18be b4e5 1b3e
000000e0: 75b3 8cbd db0f 123e cb68 a9bd 93bb 33be
000000f0: 689c 84be c860 f43d d7fe a03e e0a5 88bd
-0.04488025 -0.1565447 -0.21369596 -0.03328973 -0.047676608 -0.17159626 -0.04239369 0.08225555
0.28118926 0.0660533 0.073137015 -0.07843992 -0.08776073 0.24763346 0.022369992 -0.008209985
0.21349604 -0.23793551 0.16463968 -0.33263844 -0.14479886 -0.04543401 -0.18004501 -0.033572424
-0.45188883 0.38989392 -0.025494212 -0.24584338 0.36176762 -1.4212748 -0.1541723 0.24393089
-0.20270444 -0.037277248 -0.15579937 0.21195805 0.041137945 -0.29260612 -0.10209845 -0.0975716
-0.27463326 -0.22724217 -0.029427495 0.038504068 -0.007276076 -0.3539618 -0.021671994 0.033225264
0.16977611 -0.19315897 -0.09970294 0.2198579 0.008212909 0.1387433 -0.14906855 0.15224344
-0.06870166 0.14263861 -0.08271941 -0.17552023 -0.25900578 0.11932522 0.31444427 -0.06672263

gnn_layers.0.gnn.att_j f4 [1, 1, 64]
00000000: 3592 8abb e1ca 8bbb 6f3e b9bc ffc8 883c
00000010: 38c5 113c a35a 4ab9 ba25 0fbc ebf0 4a3b
00000020: 8852 bf3b 5726 3bbc 3100 87bb 8a9e d7ba
00000030: 65d3 9238 e60b e53b fbc1 0abc 4465 33bb
00000040: e355 29ba adc2 5cbb 7782 ecbb eac7 01bc
00000050: b3a3 393c a72e bbbb f76a 16bb ec48 6e3c
00000060: c900 64bc 6aa6 b5bc 6ba9 63bb a170 cc3a
00000070: c253 c1bb dbd7 ed3b 7e0f 173c 3991 473c
00000080: 61e0 0e3c 9ecf 8bbb e61e 533c 0d78 f3bc
00000090: f4bf 9b3b 17f6 4cbb e76d 20bc f49a 593c
000000a0: ffd5 ff3a 56d3 8c3c 9cee 1f3c 1ae9 9d3b
000000b0: f880 33bc 09a4 68bc 7adf e23b 092d 723b
000000c0: 64bb 18bb 08ba 82bb 70c5 00bc 7338 9bbb
000000d0: 6e19 803b 50e0 9dbb d7ba 1cbc 8fa4 a13c
000000e0: 4607 ca3a 0976 0f3c 1a66 f63b 6d2e 3d3c
000000f0: 20e8 f43a ab51 0abc 2bd1 143c 8250 0ebc
-0.004228855 -0.0042661284 -0.022612778 0.016697405 0.008897118 -0.00019297986 -0.008737022 0.0030966352
0.005838696 -0.011422715 -0.004119896 -0.0016450447 7.001198e-05 0.006989944 -0.0084691 -0.0027373591
-0.00064596365 -0.0033685372 -0.007217701 -0.007921198 0.011330533 -0.0057123485 -0.002295194 0.014543753
-0.013916203 -0.022174079 -0.0034738432 0.0015597531 -0.0058998773 0.007258398 0.009220002 0.01218062
0.008720488 -0.0042666933 0.012885785 -0.02972033 0.004753107 -0.003127461 -0.009791828 0.013281573
0.0019518732 0.017190617 0.009761479 0.0048190476 -0.0109560415 -0.014199265 0.006923613 0.0036953113
-0.0023305053 -0.003989462 -0.007859573 -0.004736954 0.0039092815 -0.004818 -0.00956603 0.019731788
0.0015413545 0.008756169 0.0075194957 0.011546713 0.0018684901 -0.008442323 0.009083073 -0.008686187

gnn_layers.0.gnn.att_em_i f4 [1, 1, 64]
00000000: ab82 ee3e 97b1 5abf 6062 aa3e 0794 1b3e
00000010: cef8 21bf 39bf fb3d 5441 5cbe ca9d 58bc
00000020: 41de 97bd 5602 f13d 0224 303f 6b4a bfbe
00000030: 1bbd 063f 49d2 72bf 06ac 893f e7b6 e83e
00000040: 3619 a43d a686 18bf 1dca 183f 359f b93e
00000050: a550 0bbf 4528 203f 7aa0 01bf 46be 63bd
00000060: 8560 1f3f 61aa 83bf 3181 723f 02a1 11bf
00000070: 55ed 973e d504 aabf eb7c b9bf 8a20 3ebf
00000080: 2efb eebf ca61 7bbb 8595 0fbf 6bdc f23e
00000090: 0120 38bf 225a a43e b0be 573f 4160 a0be
000000a0: 345a 4a3f 44b9 c3be 2560 52bf 7f5e de3e
000000b0: 366b 5e3f 7df8 2bc0 4a16 6ebf 02b7 b93d
000000c0: c280 02bf cfc1 fcbf 3928 473f f17e 063f
000000d0: 5fbf b9be 5ce4 263e 6645 d43e 5d2a 2dbe
000000e0: d524 abbd ce91 3abc be36 763d e39f 38bf
000000f0: 4a86 ddbf e620 423f f661 57bf 220d d03e
0.46584067 -0.8542723 0.3327818 0.15193187 -0.6327027 0.12292332 -0.21509296 -0.013221214
-0.074154384 0.11768024 0.68804944 -0.37361464 0.526323 -0.9485212 1.0755622 0.45452043
0.08012621 -0.5958046 0.596834 0.36254278 -0.5441993 0.62561446 -0.5063549 -0.05560138
0.6225665 -1.028637 0.9472838 -0.56886303 0.29673257 -1.3282725 -1.4491247 -0.742684
-1.8670404 -0.0038357847 -0.56087524 0.4743379 -0.71923834 0.32100016 0.8427534 -0.31323436
0.7904389 -0.38227284 -0.82177955 0.4343147 0.8688234 -2.6870415 -0.9300276 0.09068109
-0.5097772 -1.9746646 0.7779575 0.5253745 -0.36278817 0.1629805 0.41459197 -0.16910692
-0.083566345 -0.011387302 0.0601108 -0.7211897 -1.7306607 0.7583145 -0.8413385 0.4063502

gnn_layers.0.gnn.att_em_j f4 [1, 1, 64]
00000000: d924 9f3e b1c5 a9be fa2d 77bd bbf3 553f
00000010: a918 0cbc a6ea ac3d c5e4 6abc ca8a 313f
00000020: 2fcb ddbe bbe5 2dbf e074 42bb 7d04 0c3e
00000030: 72d9 153f 4293 a6bc 5b47 babd aa59 e6bb
00000040: d973 0ebf 3c46 29bd 8fde e93b 412c 083f
00000050: d139 f9bd cceb 4b3e e7a9 b7bd 661a f63e
00000060: e410 313c 17ef b2be 44aa 26bd d206 f3bc
00000070: da92 b1bc 7680 0bbf 8f3a 45be 7349 a63d
00000080: 5e28 5abe e9fb cd3f ecaf 0ebf 8a07 9e3e
00000090: 0dfc 343a c9bf 303e e89d 2039 4748 903a
000000a0: 6f48 e93d 87b8 c83f bb21 37bd 1c0d b5be
000000b0: 015f acbc e542 b6bc cb2d d6be 72ab 953e
000000c0: 9225 0bbf 857e 8dbd 8dde cabe 0930 ac3b
000000d0: 75dc 5abb ff78 1d3e f74c ed3d 8bdd 0cbc
000000e0: a063 2b3f 503c 213c dc1c b23b ee8a 0dbc
000000f0: 0264 11be 6944 00bf 5781 84bd e45e f33e
0.310828 -0.3315864 -0.06034658 0.8357503 -0.008550801 0.08443193 -0.0143367695 0.693524
-0.4331908 -0.67928666 -0.0029671714 0.13673587 0.5853492 -0.02033389 -0.09095641 -0.0070297318
-0.5564552 -0.041326746 0.0071371268 0.53192526 -0.12169231 0.19914168 -0.08967953 0.48067015
0.01080725 -0.34948036 -0.04068972 -0.029666338 -0.02167647 -0.5449289 -0.1926062 0.08119478
-0.21304461 1.6092502 -0.55737185 0.30865127 0.00069040136 0.1726066 0.00015317614 0.0011007868
0.11390769 1.5681313 -0.044709902 -0.35361564 -0.021041395 -0.022248695 -0.41831812 0.29232365
-0.543542 -0.06908897 -0.39622918 0.0052547497 -0.0033395563 0.15378188 0.115869455 -0.008597742
0.6694889 0.00984104 0.005435569 -0.00863908 -0.14198306 -0.50104386 -0.06469982 0.47533333

gnn_layers.0.gnn.bias f4 [64]
00000000: bcdf 963c 0e38 85ba 741c 173b e6a9 bb3b
00000010: 4471 db3a 50b3 973c ac49 efbc cf8e 863b
00000020: d5ae dcb9 b10f 993b 0f33 b33b ef62 fabb
00000030: 6302 07bb 3519 a3bb a0ee 4b3b 5fd4 313a
00000040: 5dd6 9c3b 0c8f 1abb 5225 ba39 7b5c 893c
00000050: 710e 6cba bf6a cb3a d71a 85bb ef82 2e3c
00000060: 021d 863c f6c0 533a a5f0 d13a 724e f9bb
00000070: e919 15bb 4cec b5b8 23ef 29bd 5c06 383b
00000080: ad77 20ba 8c1c e1bb 7847 be3a eac3 3539
00000090: 637a 0f3a 381c e73b ca3c 19bb bffb 64bb
000000a0: 7d96 433c 15f5 9539 51c3 95bc d760 b53b
000000b0: 682f bc39 31d7 143a 21f5 9aba 9683 6a3a
000000c0: 3b9c 85ba 0f55 0abd ffab 6a3b 421a bcb9
000000d0: de43 9fbb dc91 46ba aa82 74ba a5e6 9f3a
000000e0: 6946 15ba 3fd9 f239 b53c 1f3b e6d4 a7bb
000000f0: 93be 8bbc d468 2abb 2dc1 9ebb 2b65 a83b
0.018417232 -0.00101638 0.002305773 0.0057270406 0.001674213 0.01851812 -0.029209934 0.0041063796
-0.0004209193 0.00467106 0.005468733 -0.0076411883 -0.0020600788 -0.00497737 0.0031117573 0.000678366
0.0047862963 -0.0023583798 0.0003550449 0.016767731 -0.00090048375 0.0015519484 -0.0040620374 0.010651334
0.016371254 0.00080777647 0.0016017152 -0.0076082284 -0.002275104 -8.674766e-05 -0.041487824 0.0028079962
-0.00061213487 -0.006869858 0.0014517149 0.00017334489 0.0005473254 0.0070529245 -0.002338218 -0.0034940091
0.011937735 0.00028602095 -0.01828161 0.005535226 0.00035893475 0.0005677818 -0.0011822322 0.00089459994
-0.0010193655 -0.033772524 0.0035808084 -0.00035877718 -0.0048603853 -0.00075748353 -0.0009327332 0.0012199475
-0.0005694391 0.00046319698 0.0024297659 -0.005121815 -0.017058646 -0.0026002424 -0.0048448057 0.0051390133

gnn_layers.0.gnn.lin.weight f4 [64, 100]
00000000: 503e 69bd ad13 853c a9dd 063d d5cb 253e
00000010: b3c4 a8bc ba54 1bbd 5287 783d ecd9 08bc
00000020: 3440 58bd e20a 9aba b6a5 a73c fc22 8ebc
00000030: b93c 2b3c 7bd9 833b c044 343d aa3f 15bd
00000040: 442c e93d fa83 a6bd e60a aebd 6f89 ee3b
00000050: f05e 6fbd 1e94 a03c 0fcb 1cbd 839f c1bb
00000060: 4e00 6dbb 32fb 283c f1fe 3d3d cafb cc3c
00000070: f30f 41bc a95d 2f3d f1fc 693d cdd2 70bd
00000080: 6d03 63bd b184 20bd e396 3abd d7d8 80bd
00000090: 04de 47bd f67f e03b d54e a53b 11d4 4e3d
000000a0: 8ce3 02bc 3d13 9a3d a878 953b 4fdf c93c
000000b0: be8e d4bc 3f90 a43c 70e6 d1bc 1bd1 34bc
000000c0: 9b0d 2c3d 76ed 10bd 4609 943c c9ed 013d
000000d0: be6c 2abd 0324 0fbd a7ad 1ebc 44b4 f9bb
000000e0: 16ac 703d c147 753c 9e6e 7fbc 10d3 9e3d
000000f0: 47c5 b13b 79a9 38bd 833e 493d 6a60 433d
00000100: 62f3 203d b185 e63b 0b0a fbbc 1693 10bc
00000110: 571a 71bd 4408 35bd 5f48 87bd 6b18 813c
00000120: 02e4 633d d90c 51bd fcd4 c2bc 6e2a ff3b
00000130: 3f7c 4e3d 89f5 553d bf6a d9bc 9e45 f63c
00000140: e058 cc3d 90af b23d 0fe5 863e 6a04 133e
00000150: 245e 40bf 49c1 5a3d f8dc 203d 85f0 e43d
00000160: 5753 cdbd 67eb 44be d44c 99bd cc7c 7f3c
00000170: 0ecd 203d 7ac4 313d e10a c43d d6cb 8b3e
00000180: b9ee d9bd dae0 093f 6e64 463f 39ae 25c0
00000190: 8059 093d 1259 4b3d fd0b 40be c9c0 6dbd
000001a0: 322c b13d e1f5 2f3e af82 983e f613 8bbd
000001b0: 57fa 33be 0952 04bd 6eac 67bd ae6a 05be
000001c0: f86c 2f3d 32e6 82bd 6639 0ebd af1e 2fbe
000001d0: 49fa 0bbe 4326 8bbe 29ad 563e 8ea8 cb3d
000001e0: e701 443e 9104 6c3e 95a4 bbbd f276 f3bc
000001f0: c1b0 b63e bf75 fdbd 05d1 76be a2ac 4fbe
00000200: 76c7 083e 11ee 253e e39d fd38 4e25 91bc
00000210: 51d4 a4bc cf21 77be f51b 953e 95e2 a13d
00000220: 7cdb 4e3e d004 9b3d 8374 4abe 869d 02bd
00000230: fd8d cfbe aa80 94bd 57a8 9c3e d80b e33d
00000240: 8dfa 553e 72e4 c6bd 1eb4 da3d fa4f 46bd
00000250: f92a 8e3c de83 b03d 3a57 43be 1c72 3abd
00000260: d9ea 0bbe 1f61 333e dc32 51be caa6 323c
00000270: 1ddd e43d 0b24 f83c e3ee b33d c1c9 713c
00000280: cf8f 723e 93db 113c 0faa cbbd 5b75 bcba
00000290: ce08 e93c c0e9 36be b922 81bc 3850 dcbd
000002a0: a124 8dbd c67e 903e 910c 113e 0529 14bd
000002b0: af2d 9a3c e586 dbbd 8af7 9a3e 2c54 1abe
000002c0: 2f53 023c 843f 143c 2359 773d f185 9bba
000002d0: 6388 5bbe 8b03 e6bd 61ea 16be 5f92 b1bd
000002e0: f4aa d4bd f7b9 1fbe ed02 50be fac5 2dbe
000002f0: fd9f a2be 3247 86bd b63c 973e 7353 6fbf
00000300: 157b 513f 7317 5d3f 69fe 1d3f e779 08bf
00000310: ce7c 30be 4c75 fbbe bada c2be b331 09be
00000320: c0fa ae3e 92ba bf3d 9782 d1bd 1e67 d1bc
00000330: ee5c 53be 581e 37be 14ef 993b a192 9f3d
00000340: d470 b63d e5c8 813d 94ac 3a3d a52a 543d
00000350: c78e 9bbd 8111 15be 640e 13bf 886d ddbe
00000360: 0431 78be 8992 3d3e 415b 303e 8fd4 1f3e
00000370: b6fa 2f3e 4886 dd3d 685e 2c3e 5a69 6b3d
00000380: 7100 c63d ca12 3e3d 4ccd ddbc 59e6 3b3d
00000390: 339c a7bc af17 2ebd 56fd adbd 6f18 68bd
000003a0: 3d3c 38bd f28e 773c ef77 eb3d 5c9d b3bb
000003b0: 72b8 e03d 5c1d 4fbc 0b05 313d 5352 9fbd
000003c0: 3989 fc3c 3bf2 673d 7f10 f83c 71df a1bc
000003d0: 6d9d 2abb 045f a8bc c8d7 29bc 1f16 4abc
000003e0: 66ee b7bc aa00 913c 5999 98bd 6b74 2dbd
000003f0: bcae d63c 6318 fc3d d18a f23c 89c5 5cbd
-0.05694419 0.016244734 0.032926235 0.16191037 -0.020601606 -0.0379226 0.060675927 -0.008352738
-0.052795604 -0.0011752511 0.02046476 -0.017350666 0.010451489 0.0040237284 0.044010878 -0.036437668
0.11385396 -0.08130641 -0.084981725 0.007279567 -0.05844015 0.019601878 -0.03827959 -0.005908908
-0.0036163512 0.010313796 0.04638571 0.025022406 -0.011783588 0.04281393 0.05712599 -0.058794785
-0.05542319 -0.039189044 -0.045554053 -0.06291359 -0.048795715 0.0068511916 0.005044798 0.05049521
-0.007988822 0.07523201 0.0045615025 0.024642615 -0.025946971 0.020088313 -0.025622576 -0.011036183
0.042005163 -0.03538271 0.018070828 0.03172091 -0.04160761 -0.034946453 -0.009684957 -0.0076203663
0.058757864 0.014970721 -0.015590338 0.07755101 0.0054251286 -0.045083497 0.04913188 0.04769937
0.039294608 0.00703498 -0.030644437 -0.0088241305 -0.05886301 -0.044197336 -0.066056006 0.015758714
0.055637367 -0.051037643 -0.0237832 0.0077870404 0.05041146 0.052236114 -0.026540158 0.030062493
0.09977889 0.08724892 0.26346633 0.14357153 -0.7514365 0.053406987 0.039273232 0.11178688
-0.100256614 -0.19230424 -0.07485357 0.015593719 0.039258055 0.043400265 0.095723875 0.27303952
-0.10641236 0.5385872 0.77496994 -2.5887587 0.03353262 0.04964549 -0.18754573 -0.058045182
0.08651008 0.17183639 0.29787204 -0.067909166 -0.17575966 -0.032304797 -0.056560926 -0.13028976
0.04282853 -0.063915625 -0.03472271 -0.17101549 -0.13669695 -0.2717763 0.20964493 0.09944259
0.1914135 0.23048617 -0.09162251 -0.029719803 0.35681728 -0.12375974 -0.24103172 -0.20280698
0.13357338 0.16204096 0.00012093389 -0.017717984 -0.020120772 -0.2413399 0.29122892 0.07904545
0.20200914 0.07569277 -0.19771008 -0.031888507 -0.40538016 -0.07251103 0.30597183 0.110862434
0.20896359 -0.09711541 0.10678886 -0.048416115 0.017354475 0.08618902 -0.19076243 -0.04551898
-0.13663806 0.17517518 -0.20429558 0.010904023 0.111749865 0.030290624 0.087857984 0.014757575
0.23687671 0.008902448 -0.099445455 -0.0014378236 0.028446581 -0.17862606 -0.015763627 -0.10757488
-0.06891752 0.2822172 0.1416495 -0.03617193 0.018820612 -0.107190885 0.30266982 -0.15071172
0.007954403 0.009048346 0.06038774 -0.0011865479 -0.21438746 -0.112311445 -0.14737846 -0.08670496
-0.10384169 -0.15598284 -0.20313616 -0.16970053 -0.31762686 -0.06556548 0.29538506 -0.9348671
0.81828433 0.86363906 0.61716324 -0.5331101 -0.17235109 -0.49112928 -0.380575 -0.13397865
0.34175682 0.09361757 -0.10229986 -0.025561865 -0.20640919 -0.17882669 0.00469769 0.07791639
0.08908239 0.06337146 0.04557474 0.05179848 -0.07595592 -0.14557458 -0.57443833 -0.43247628
-0.24237448 0.1851293 0.1722231 0.15608428 0.17185482 0.10816628 0.16832888 0.057473518
0.09668053 0.046404637 -0.027075432 0.045873974 -0.020460224 -0.042503055 -0.084955856 -0.056663927
-0.044979323 0.015109764 0.11497485 -0.005481405 0.1097268 -0.012641277 0.0432177 -0.07779374
0.030827152 0.056627493 0.030281303 -0.019759865 -0.0026033774 -0.02055312 -0.010366388 -0.012334376
-0.022452544 0.017700512 -0.07451124 -0.042347353 0.026206367 0.12309339 0.029607208 -0.05389932

gnn_layers.0.bn.weight f4 [64]
00000000: ab88 303f 0f21 103f c601 543f c578 a73f
00000010: dfb8 2e3f 4917 1f3f 3176 e33e cf25 543f
00000020: dfbc c23e 4693 0c3f e443 213f 94ef c83e
00000030: 50fc 213f 2903 123f 364b 093f 50a9 2b3f
00000040: 63b9 013f b56e 4c3e f6eb 463f 877a 0e3f
00000050: 1599 343f 2d8b 743f ea79 f73e b900 223f
00000060: e195 0f3f b56b 0a3f 7961 a93f d166 ae3e
00000070: 6e92 b93e 99aa 8e3e 6aef 083f 855e 2f3f
00000080: 5693 5a3f 5a78 963e 1326 e53e 921f 203f
00000090: 2dd7 083f d470 fd3e 9b40 593f fe60 063f
000000a0: f0cb 113f 8168 9f3e 40dd 993e a080 a83e
000000b0: 7711 b33e df9b e13e 6f5e 743f 61ee ad3f
000000c0: 4422 c33e 62ea c43e 89da 5a3f 0cfd 443f
000000d0: a639 f43e 213c 2a3f 36f6 213f 8dde 133f
000000e0: 0c58 f83e 9e28 6a3e 8f9d cc3e 9618 c23e
000000f0: 5931 e03e 9e7c 913e c816 bd3e 09b2 043f
0.6895854 0.56300443 0.82815206 1.3083731 0.6825084 0.62144905 0.4442611 0.8287019
0.38034722 0.5491222 0.6299422 0.39245284 0.63275623 0.5703607 0.5363039 0.67055225
0.506735 0.19964106 0.777038 0.5565571 0.70546085 0.95524865 0.483352 0.6328235
0.5608807 0.540706 1.3232871 0.34062818 0.3624453 0.2786453 0.53490317 0.685036
0.85381067 0.29388696 0.4475561 0.6254817 0.5345333 0.49500144 0.84864205 0.5249175
0.5695181 0.31134418 0.30051613 0.32910633 0.34974262 0.44064233 0.95456594 1.3588372
0.3811208 0.3846007 0.8548971 0.7694862 0.47700232 0.66498 0.63266313 0.5776146
0.48504674 0.22867057 0.39963958 0.37909383 0.4378765 0.28415388 0.36931443 0.5183416

gnn_layers.0.bn.bias f4 [64]
00000000: bc9f a93e 59e5 cdbe 2cbe a23e 702d 083e
00000010: f2c2 b33e f6ce 863e 9524 9fbe 648d 1dbe
00000020: 827f c3be f5ec 853e 2502 5a3e b4a8 1bbf
00000030: 528f 4cbe 01be c8be d1c5 963e d677 a03e
00000040: 54dd c9be c64e 463f 1658 a03e 5ad2 a23e
00000050: 659b dabe 0a50 ae3e ca1d 0bbf 74fe 3e3e
00000060: d14d 923e 3ed6 c73e 1fb4 85bd 4dee aabe
00000070: 36c8 503f 3a6b 3a3f 4b6c d4be a6dd cbbe
00000080: 5da5 d2be b507 1bbf 2ff4 ffbe 7d65 993e
00000090: 2e0a 02bf 1e2b c1be 28f0 61be e6aa a9be
000000a0: 5a42 cb3e 201f b33e fd99 1a3f 4c36 dabe
000000b0: 8105 3d3f e32e bbbe abe9 24bd 7e3f 843c
000000c0: 83ae bbbe a9c1 eabe 1c38 a43e f584 413e
000000d0: 3711 b8be daf1 c63e 4eab b3be d1dc abbe
000000e0: 2db8 f5be 0899 c6be 956f d6be 666d f9be
000000f0: 1679 0bbf c3c8 2d3f f892 eb3e fa27 be3e
0.3312968 -0.4021404 0.31785715 0.13298583 0.3510967 0.26329774 -0.31082597 -0.15385967
-0.38183218 0.26157346 0.2128988 -0.60804296 -0.19976547 -0.3920746 0.29447797 0.31341428
-0.39426672 0.7746395 0.31317204 0.3180111 -0.42696682 0.3404544 -0.5434233 0.18651754
0.28574994 0.3903064 -0.06528496 -0.33384934 0.815555 0.72819865 -0.4148887 -0.39817542
-0.41141787 -0.60558635 -0.49990985 0.29960242 -0.5079678 -0.37728208 -0.22064269 -0.33138198
0.3969906 0.34984684 0.6039122 -0.4261955 0.73836523 -0.3655921 -0.040261906 0.016143557
-0.3665658 -0.45850876 0.32074058 0.18898375 -0.35950634 0.38856393 -0.35091633 -0.33566907
-0.47992077 -0.3878863 -0.41882005 -0.48716277 -0.5448164 0.67884463 0.46010566 0.37139875

gnn_layers.0.bn.running_mean f4 [64]
00000000: 56cf dd3c f985 e43b b526 483c d8ed 633c
00000010: 2675 0aba f57f bc3c f6c5 f7bc 0fe6 573a
00000020: c886 01bc db20 8e3c e14b b3bc 0d92 d3bb
00000030: 7528 5e3c 3ba1 87ba 05ad 0e3d 6f91 0dbd
00000040: aa35 6f3c 861a a6bb cdcb e3bc 49ca d63c
00000050: a9de b23b 0af4 eb3c 3898 12bc 1956 1c3c
00000060: a123 e63c 56d8 dcbb e133 febc bef7 60bb
00000070: d960 b1bc de02 d5bc 48e0 2bbd da0b 883b
00000080: 6fda a7bb 7e36 2ebb 903a 193b dae6 aabc
00000090: ec40 3e3c fd92 ddbc 9c0a bc3c 88bc cbbb
000000a0: 1356 903c f725 a1bb b64d 96bc da99 e83b
000000b0: 7220 efbc dd68 fdbb 93a0 fe3a 52e1 ad3b
000000c0: 3b41 69bc a461 edbc 8907 b7bc e881 e4bc
000000d0: 1574 183c b87a ffbc 72c8 f73c 931e 913a
000000e0: a25f 383b 27b4 4dbb 747a 1ab9 7ca4 e0bb
000000f0: 5791 af3b 5d1d edbc 33e0 39ba 9090 e03c
0.027076405 0.0069739786 0.01221626 0.013911687 -0.00052817387 0.023010233 -0.030245762 0.00082358805
-0.0079056695 0.017349651 -0.021886768 -0.0064566196 0.01355945 -0.0010347733 0.034832973 -0.034562524
0.014600197 -0.00506908 -0.02780714 0.026219504 0.005458672 0.02880289 -0.008947425 0.009542012
0.028093161 -0.0067396564 -0.031030597 -0.0034327353 -0.021652626 -0.026002344 -0.04196194 0.0041518034
-0.005122475 -0.0026582773 0.0023380853 -0.020862032 0.011612158 -0.027047629 0.022954278 -0.006217543
0.017619168 -0.004917856 -0.018347602 0.0070984187 -0.029190276 -0.007733448 0.0019426517 0.0053064013
-0.014236744 -0.028977223 -0.02234246 -0.027893975 0.00930502 -0.031186447 0.030246947 0.0011071734
0.0028133173 -0.0031387897 -0.00014732202 -0.0068555456 0.005357902 -0.028944666 -0.0007090598 0.027412683

gnn_layers.0.bn.running_var f4 [64]
00000000: b8d8 003d df51 c93c b7a0 bd3c 7df4 913c
00000010: eb1e 7e3c ea7d e03c 36d6 803c a060 733c
00000020: 32ac 9e3c cd59 923c b19c 893d be81 963c
00000030: 5d6f 3c3d ebbd 9e3c ebc7 c63d 05e5 c93d
00000040: cd02 913c cb02 b93c 766e ac3d 685f 0e3d
00000050: b806 5e3c d348 8e3d bd43 843c a23b 853c
00000060: 5168 f03c 1111 c63c a2a8 c93d 2432 5f3c
00000070: dc07 7b3d 3e68 ff3d c9e3 833c dbdb 8e3c
00000080: 33c0 603c a16f a03c 574d 9c3c eff0 5c3d
00000090: 66e7 983c 6935 053e 1bb1 c33d 100c 8a3c
000000a0: 4bf6 f23c 6506 5c3c 682a 743c cce7 643c
000000b0: bc88 af3d e5a0 903c 074f 853c 4660 963c
000000c0: 2f5a de3c 8348 923c 4634 933d 25b3 b33d
000000d0: 186a a93c f2e1 a93d 3c5d 113e 535a 893c
000000e0: fa7f 943c 586f 723c 0e0c 4f3c 39ae 8c3c
000000f0: a349 253d 5191 853d cf1c 9a3c 4ee5 903d
0.03145668 0.024575172 0.023147924 0.017816776 0.015510301 0.02740379 0.015727144 0.01485458
0.019369218 0.017865086 0.0671934 0.018372413 0.04600464 0.01937767 0.097061 0.09858135
0.01770153 0.02258434 0.08419506 0.034758955 0.013551407 0.06947484 0.016145581 0.016263787
0.029346617 0.02417806 0.09846617 0.013622794 0.061286792 0.124710545 0.016099827 0.01743882
0.013717699 0.019584479 0.019079847 0.05394071 0.018665027 0.13008656 0.095552646 0.016851455
0.029658457 0.013429259 0.014902689 0.01397128 0.08571002 0.017654845 0.016273035 0.018356454
0.027142612 0.017856842 0.07187705 0.087744035 0.020680472 0.08295049 0.14195722 0.016766703
0.01812743 0.014797054 0.012637151 0.01717292 0.04035343 0.065218575 0.018812565 0.070749864

out_layer.mlp.0.weight f4 [1, 64]
00000000: c3a1 adbd a010 a43d 95b0 e5bd 1187 ef3d
00000010: fbee 20bd ee16 a4bd daa0 b93d 1088 913d
00000020: e0ea c4bd 7e8a ca3d 33d8 093e 3f67 e53d
00000030: 209e 0ebe 95ba 6d3d dcce e7bd f565 0f3e
00000040: c629 a23d 46fb 1f3e f61b 123e 226f b7bd
00000050: 9e88 8e3d a13b 1cbe 9705 ca3d 0b60 d03d
00000060: 2485 c4bd a229 eabd 5fd7 213e bddb c23d
00000070: fd78 0b3e f3d5 eebc 1d8c 9d3d f1b8 be3d
00000080: 59b9 55be 53a9 f03d c4c8 a03d d8f5 c63d
00000090: be09 79bd 9e54 e73d caef 85be 5dc3 bc3d
000000a0: 8dee d5bd 3564 c3bd 95a3 e43d e1a3 a73d
000000b0: 788c 1e3e e40e cc3b dada 923d 9121 183e
000000c0: 4c16 26be 77a7 b83d 81cd 1e3e dd9f 1b3e
000000d0: 1b40 9b3d b9f0 d03d 5cff c0bd 3a33 b13d
000000e0: cf76 a53d 17e9 32bd 9970 be3d 84c3 b93d
000000f0: 115d e93d 2cd1 353e eea5 cd3d 3f27 17be
-0.08478119 0.080109835 -0.11215321 0.11695684 -0.03929041 -0.08012186 0.09063883 0.0710603
-0.09615111 0.098896965 0.1346138 0.11201333 -0.13927507 0.058039267 -0.11318752 0.14003737
0.07918124 0.15623197 0.14268479 -0.08956744 0.069596514 -0.15257122 0.098643474 0.10174569
-0.09595707 -0.11433722 0.15804814 0.09514568 0.13620372 -0.029154753 0.0769274 0.093126185
-0.20871486 0.11751046 0.07850793 0.0971486 -0.060800306 0.11295436 -0.26159507 0.0921695
-0.104458906 -0.09540597 0.11164013 0.08185554 0.15483272 0.006227361 0.07170649 0.14856555
-0.16219443 0.090163164 0.15508081 0.15197702 0.075805865 0.10202164 -0.09423706 0.08652349
0.080793016 -0.043679323 0.0929882 0.09070495 0.11394704 0.17755574 0.10041414 -0.14761065
