model_normal/gdn_smap50.pth (torch, 18549 bytes, 16 tensors)

embedding.weight f4 [25, 64]
00000000: c41d 6f3e fcd6 6b3e 0899 d9bd 896c 053e
00000010: ef03 2a3e 4c5a 1b3e 461a debd 6fbb 203b
00000020: 3015 00be 043c 503e 4f7e ccbe 74a2 14be
00000030: 1152 793e 413e 0abc 61f3 343e 3ce6 b2bc
00000040: 13cb afbb f7cd a9be 703a 1b3e 2840 473e
00000050: f146 6b3d 12f8 83be 0d48 07be 16a8 c7bd
00000060: 2817 a6bd 5f05 033e 3008 5ebd 7683 1b3e
00000070: 9f22 113e fe38 5b3e 42a8 3ebe 98ec 9ebd
00000080: 16c3 313e e081 70bd 330e 94be 923d 193e
00000090: d8e8 5e3e 8c7b 9dbd bb2a 0fbe 59d8 07be
000000a0: f0aa 823e 5310 a23d e385 863e a31c 273e
000000b0: 6609 b0bd e2c9 ae3d 384b 89bd 9345 b4bd
000000c0: b2f3 9b3d 2f73 04bd 59bd 3f3e c335 513e
000000d0: 1e87 88be 729d 443e 009d 373e 8d1c 48bd
000000e0: 90ae 8d3e 3b98 0cbe d3ff 083e d0c5 fe3d
000000f0: 880c 02be f01d 453e 6c08 2fbe 8e1c 90be
00000100: 593a 84bc 7854 f03b c6e7 933c e9c7 3bbc
00000110: b447 a8bb cfb3 21bd b87d 20be 6e36 723d
00000120: 9b24 a7bc ff96 b0bb 103d b0bb 51b3 adbd
00000130: bad8 a5bc 4002 dab9 f0bc faba 71e5 00bf
00000140: e2e9 7dbb ea0f 97bc 531f e0bd 24eb 87be
00000150: 5cb7 5b3e 0965 0cbf 9772 703a 0457 64be
00000160: ad31 80be 1393 22bb 76c2 48be 7424 4dbc
00000170: 64ae 18be 1da3 63bd 7f8d cebb dabc 6fbc
00000180: 4dcb 92be c436 403e 5131 b9bd 0d24 d63c
00000190: a222 77bc 4cb1 b53c 5287 01bb 6298 dbba
000001a0: c4d7 bfbb 8ab6 a7bd f623 07bc ad18 55bc
000001b0: 3c69 33bd f254 b8bc f6cc 91bc ed50 37bc
000001c0: b0e2 6c3e 36c6 f0bc db2b 58bb 3631 cf3c
000001d0: ac86 8bbb 28e4 85bb 0708 aabd 2a80 cbbd
000001e0: f602 98ba 7a44 f6be 97f7 1f3c 626f 11bd
000001f0: 52ae 7fbc ee99 55bd f709 1ebc 990e 70bc
00000200: c8d4 50bd d242 4b3c 84b9 a63c d331 bebc
00000210: c671 46bc dd0a 0cbe 70ea 073c 2596 a23b
00000220: 683c 833c 14da 58bc 71dd 0ebc 8661 c63c
00000230: c6ea c7be d249 5a3c bfae 00bc c9e6 2ebe
00000240: 2e08 4dbd 1a8e 1e3c 2a18 c4bd b9dd 04be
00000250: 7a9d 743f 587b ed3a 1e3b 3bbe 75ff a83a
00000260: 8ec7 573b 730c 913a c467 cfbd 8710 02bc
00000270: 91fb d6bc 5881 15be 9411 71be 4977 6abc
00000280: ed23 88bd d73f 6d3f 4d4f 9bbd d3b2 c6bc
00000290: df5e 02bc 2b01 f6bb 6d65 4fbb f1e8 24be
000002a0: 03f7 b1b8 a2c7 60bb 83eb 19bc 4f3f 9b3c
000002b0: 2968 7cbe abbb e9bc 2317 08be 4307 e3bc
000002c0: d2ad 923e 7435 eebd a061 76bc 2ede 013a
000002d0: 4389 c4bb 3985 1fbc f94d 413c 3ca7 5bbc
000002e0: 1a4d 54bd 349f 40bc 4470 3bbb 9818 8abd
000002f0: 57bc b6bc 74ae 36bd b53f dbbb ed41 17be
00000300: f37e da3b 7396 a03c 1b18 f1bd 8ef2 1a3d
00000310: e057 163c 0f93 893d 6cd4 0ebe b631 543c
00000320: b60b e5bd 767c 24ba f9f3 e8bc d334 c63d
00000330: 62ec ff3c 2b1d 93be 04d8 9d3c 7ad9 783c
00000340: 9632 23bd 5775 d73a 1762 363c 120a 913d
00000350: 0020 91be 16ae d23d 50be 18bd 58ca 37be
00000360: 9c07 a7bd 2241 c4be 216f 80bd b13f 5d3b
00000370: d051 413c 4a17 943d 16e4 65bd f541 91be
00000380: 09ad e9be 1ed6 89be 5a1e 98bc 7df1 5fbd
00000390: b7bf 16be 6962 6bbe b525 acbc 51c3 3e3d
000003a0: 8600 353a 5c53 97bd daba ca3d 0466 96be
000003b0: c213 843c 9fa1 983c 5d77 c9bd 6b49 76be
000003c0: e59c c8bd 2ee5 8ebb 0d02 a83c b682 7fbe
000003d0: dc38 9abc cb68 573c fc2f 783d 3e64 283c
000003e0: 64f7 eb3c 9da3 8b3d 88d1 11bf b1f3 f03c
000003f0: 3e46 53be cd4d aa3d bde5 2f3d 6fc0 6ebd
0.23351198 0.23031229 -0.106248915 0.13029684 0.16603063 0.15171164 -0.10844855 0.0024525782
-0.12508082 0.20335394 -0.39940116 -0.14515096 0.24347712 -0.008437694 0.17670967 -0.0218383
-0.0053647845 -0.3316495 0.15159011 0.19458067 0.057440702 -0.257752 -0.13211079 -0.09748857
-0.081098855 0.12795018 -0.054207027 0.15186867 0.14173363 0.2140846 -0.18618873 -0.077599704
0.17359576 -0.05871761 -0.28917083 0.14964893 0.2176851 -0.0768958 -0.13981144 -0.13266124
0.2552104 0.0791327 0.26274022 0.16319518 -0.085955426 0.085346 -0.067038 -0.08802333
0.076148406 -0.03233641 0.18724574 0.20430665 -0.26665586 0.19200686 0.17930984 -0.048855353
0.27672243 -0.13729946 0.13378839 0.124400735 -0.12700093 0.19249701 -0.17093056 -0.28146785
-0.016141104 0.007334288 0.018054854 -0.0114612365 -0.005135501 -0.03947812 -0.15672958 0.05913394
-0.020403197 -0.005389094 -0.005378373 -0.084814675 -0.020244945 -0.00041581877 -0.0019129794 -0.503501
-0.0038744141 -0.018440206 -0.109434746 -0.26546586 0.21456665 -0.5484167 0.00091723487 -0.22298819
-0.250379 -0.0024806901 -0.19605431 -0.012520898 -0.14910275 -0.05557548 -0.0063034887 -0.014632428
-0.2867073 0.18770891 -0.090426095 0.026140237 -0.015083941 0.022179268 -0.0019764495 -0.0016753788
-0.0058545787 -0.081891134 -0.00824832 -0.013006371 -0.04380153 -0.022501443 -0.017797928 -0.011188728
0.2313335 -0.02939139 -0.0032985124 0.02529202 -0.0042579975 -0.0040860362 -0.08302312 -0.09936555
-0.0011597562 -0.48099118 0.00976362 -0.035506614 -0.015605526 -0.052148752 -0.0096459305 -0.014651918
-0.050984174 0.012406068 0.020352133 -0.023217117 -0.012112087 -0.13676019 0.00829564 0.0049617463
0.016020015 -0.013235588 -0.008719788 0.024216425 -0.39046305 0.013323264 -0.007854163 -0.17080225
-0.05005663 0.009677434 -0.095749214 -0.12975205 0.9555279 0.0018118424 -0.1828427 0.0012893515
0.003292534 0.0011066332 -0.101272136 -0.007938511 -0.026243003 -0.14600122 -0.23541862 -0.014310666
-0.06647477 0.92675537 -0.07583485 -0.024255192 -0.007957189 -0.0075074635 -0.0031646148 -0.16104485
-8.486027e-05 -0.0034298678 -0.009394529 0.018951086 -0.24649109 -0.02853187 -0.13290076 -0.027713424
0.2864824 -0.11631289 -0.015037924 0.0004954067 -0.005997808 -0.009736353 0.011798375 -0.013406571
-0.051831342 -0.011756707 -0.002860085 -0.06742972 -0.022306604 -0.044599965 -0.006690944 -0.14771242
0.0066679656 0.01960299 -0.11772176 0.037828974 0.0091762245 0.06717502 -0.1394822 0.012951305
-0.11183874 -0.00062746496 -0.028436648 0.09678044 0.031240646 -0.2873319 0.019268043 0.015188569
-0.039843164 0.0016438168 0.011131785 0.07081999 -0.28344727 0.102871105 -0.03729087 -0.17948282
-0.08155748 -0.38330942 -0.06271196 0.0033759887 0.011799291 0.072310045 -0.056125723 -0.28370634
-0.45639828 -0.2692117 -0.01856916 -0.05467366 -0.14721571 -0.22986759 -0.021014074 0.046572987
0.000690468 -0.073889464 0.0989892 -0.29374707 0.016122703 0.018631754 -0.0983722 -0.24051444
-0.0979555 -0.0043608164 0.02050879 -0.24952206 -0.01882594 0.013147543 0.060592636 0.010277806
0.028804488 0.06818316 -0.56960344 0.029413076 -0.20632264 0.083156206 0.042943705 -0.058288988

bn_outlayer_in.weight f4 [64]
00000000: ba22 583f 7537 433f a742 3b3f 3645 513f
00000010: c041 493f 73d6 573f 7842 5f3f 5422 343f
00000020: 931c 4c3f 088b 513f b372 443f 814d 563f
00000030: 64d0 563f 7c79 383f a5ec 573f e67f 653f
00000040: 43fc 343f d047 403f 4ba2 4a3f 6c40 593f
00000050: 2d4f 803e 8bfc 493f 4d97 5e3f 2cb0 583f
00000060: 6545 573f d2df 383f e61a 473f cddb 4d3f
00000070: 798a 4d3f 97a8 613f 2059 433f 51f6 553f
00000080: 4044 4f3f 95b0 4d3e e314 583f f405 513f
00000090: d4c4 4e3f ae7c 453f 7c0e 4b3f 13f4 463f
000000a0: 0ed0 4d3f 2ef4 513f 594f 453f d40b 513f
000000b0: 0c0d 513f 349f 3f3f 0327 603f 636b 513f
000000c0: 7230 ac3e c589 6c3f a448 463f d668 433f
000000d0: 55fb 4d3f dcc3 413f 4785 453f b3dc 613f
000000e0: 9714 473f 54f8 5f3f 7ffd 563f 3022 5b3f
000000f0: 89f4 543f 153e 493f 436d 353f 1623 593f
0.8442799 0.76256496 0.7314858 0.8174623 0.7861595 0.843116 0.872108 0.7036488
0.797311 0.8185277 0.7673752 0.8371201 0.8391173 0.7206037 0.84345466 0.8964828
0.7069742 0.7510958 0.7915389 0.84863925 0.25060406 0.78900975 0.86949617 0.84643817
0.8409026 0.7221652 0.7777542 0.80413514 0.8028942 0.8814787 0.7630787 0.83578974
0.80963516 0.20086892 0.8440687 0.8164971 0.80769086 0.7714337 0.79318976 0.7771618
0.8039559 0.82013214 0.770742 0.81658673 0.8166053 0.748523 0.8755953 0.81804484
0.3363071 0.9239772 0.7745459 0.7633184 0.8046163 0.7568948 0.7715649 0.88227385
0.7776579 0.87488294 0.83980554 0.8559904 0.8318563 0.78610355 0.70869845 0.8481916

bn_outlayer_in.bias f4 [64]
00000000: 72b8 91be 8bfa 2fbf 2aa1 e0bd e8b0 acbe
00000010: 9c80 ddbe 2f89 c2be c709 bcbc a74e debe
00000020: 8ce5 1bbd cf01 74be 42c7 1bbe 5717 6c3d
00000030: fe23 5bbe 61de b6bd ee8c d0be dfa7 9abe
00000040: 592e 0bbd 2670 bf3d 45ff a9be 5a8b 86be
00000050: cefa e5be 53b2 7f3d 5a16 a2bd 7391 1bbd
00000060: 777f 71bd 445e e0bd 6260 f7be 3ece acbe
00000070: a5c8 d3be 24af 81be 80ed 66bd bb7a 1fbd
00000080: f02d e8be 3db6 fcbe 561b f2bd 0b14 e1bd
00000090: f04b 46be 3794 c73d 75d0 35be a5ce e7be
000000a0: 152a 9ebe 3ce6 0abe 0b75 63be 261a e1be
000000b0: 7655 03be 160e 97be ed54 4a3d f763 06bd
000000c0: a5e2 11be 2861 2fbe 8d3b d3be cb3d 23bf
000000d0: a59f 0ebe 3bb6 dbbe 9695 b8be 1421 d0bd
000000e0: 09b7 c3be c3e8 da3c 44ca 0dbf 7f7f 4dbe
000000f0: 5dbf 01be d530 f5be c24e 153e 3f6d 0fbe
-0.28461033 -0.68741673 -0.109682396 -0.3372872 -0.43262184 -0.37995288 -0.022953881 -0.43419382
-0.03806071 -0.23828815 -0.1521273 0.057639446 -0.21400449 -0.08929134 -0.4073252 -0.302062
-0.033979747 0.093475625 -0.33202568 -0.26278192 -0.4491791 0.062425923 -0.079144195 -0.037980508
-0.05895945 -0.1095548 -0.48315722 -0.337511 -0.41364017 -0.25328934 -0.05637884 -0.038935404
-0.45347548 -0.49357787 -0.1182162 -0.10990151 -0.19364905 0.097450666 -0.17755301 -0.45274845
-0.3089148 -0.1356439 -0.22212617 -0.43965262 -0.1282557 -0.29502934 0.049397398 -0.032810178
-0.14246614 -0.17126906 -0.4125637 -0.63766164 -0.13928087 -0.42912468 -0.36051625 -0.10162559
-0.38225582 0.026722318 -0.5538676 -0.20068167 -0.12670656 -0.47888818 0.14580825 -0.14006518

bn_outlayer_in.running_mean f4 [64]
00000000: e616 89bb d7ee c93b ee8c 40bd c512 a83a
00000010: 6139 82bb 6cc2 56bc 8aef b4bc 11b3 00bb
00000020: f48d dcbc 97a3 46bb db53 8dbb 89df b0bc
00000030: 2596 e4bb 2869 4fbb f1bc a93b 63fc 82bc
00000040: e4fe c0ba b041 0dbc b5bf 22bc 23d3 62bc
00000050: c9a2 8c3c 0883 e1bc d888 c1bc 50ea e7bc
00000060: cc4b bcbc b4f9 9ab8 131d 2dbd d756 06bb
00000070: f736 38bb 91c6 c0bc b1af bcbc 9739 97bc
00000080: c5f5 b4ba 29a6 893c 8e55 0abc 5a80 5abc
00000090: c353 b9bc b17d 8ebb c1b3 ddba f3fc 2539
000000a0: a08a 89ba a14e e9ba 0ccf db3a ba53 5ebb
000000b0: 3821 a1bb f2cb 19bc e8f4 c2bb 7616 98bc
000000c0: 88ed 353b 9428 ddba 6ad1 5bbb 0035 193a
000000d0: 2980 0abb da1f 9dbb cde2 0fb9 98bf dbbb
000000e0: 1ee7 0cbb e04d f0bc f737 063a 66a2 29bc
000000f0: 7e90 70bc 9292 a8bb 41a2 8dbb 679b 17bc
-0.004183638 0.006162505 -0.0470094 0.0012822977 -0.0039741253 -0.013107877 -0.022086877 -0.0019637982
-0.026923157 -0.003030991 -0.004312975 -0.021590965 -0.0069759064 -0.0031648371 0.0051799943 -0.015989488
-0.0014724401 -0.008621618 -0.009933402 -0.013844284 0.017167466 -0.0275283 -0.023624822 -0.028309971
-0.022985362 -7.389803e-05 -0.042264055 -0.0020498538 -0.0028108933 -0.023532184 -0.023032995 -0.018460078
-0.0013806155 0.016802864 -0.008443249 -0.013336265 -0.022622949 -0.0043484797 -0.0016914533 0.00015829857
-0.0010493584 -0.0017799922 0.0016770079 -0.0033924417 -0.00491729 -0.009387003 -0.0059496053 -0.018565398
0.0027759988 -0.0016873055 -0.0033541569 0.00058443844 -0.0021133518 -0.004795057 -0.00013722033 -0.0067061894
-0.0021500061 -0.029334009 0.0005120034 -0.01035366 -0.014682887 -0.0051444257 -0.0043223207 -0.009253359

bn_outlayer_in.running_var f4 [64]
00000000: bc89 143a c56d da3a c15a e13b b43f 843a
00000010: b2ac be3a 64be f83a db5f 593c 1a91 433b
00000020: 61c4 0d3b 5e43 a939 2866 d73a 308c e93c
00000030: 1248 3e3b aee5 593b fcce ce3a 2510 2c3c
00000040: 86c0 a83b 0ebc 793b 8092 8c3a c2ef 203b
00000050: 3ee5 943c ba21 0a3d 1177 873b 610b b03b
00000060: 14db c13b acc4 a638 68f2 833a bd12 333a
00000070: a696 9b3a daa5 1b3c 48de 7c3b c4e8 a33a
00000080: 2baf 783b 6a24 693b cdb0 8e3b 6fa8 a13a
00000090: 9fc0 c73b c935 b03a 6432 493a ffc3 7637
000000a0: 6898 4a39 5c23 ac39 6f83 2a3b 2fec 053b
000000b0: 6c9c e43a 826b 313a b5d2 d23a b461 bd3b
000000c0: 31e7 603a 8eec 7339 bb4c a03a b610 193b
000000d0: eea5 c739 cbb6 bf3a 7517 343a 0ead 023c
000000e0: cf95 ef39 0913 2a3d 03fc d03a f920 f43a
000000f0: 48e5 1c3c 8cf2 473a d9dc 5d3a 8015 c83b
0.0005666276 0.0016664794 0.006877274 0.0010089786 0.0014547317 0.0018977639 0.013267483 0.0029841126
0.0021631944 0.00032284384 0.0016433643 0.02850923 0.0029034656 0.0033248472 0.0015778239 0.010501896
0.0051499037 0.0038106474 0.0010724813 0.002455697 0.018175717 0.03372357 0.004134067 0.00537245
0.0059160087 7.95213e-05 0.001006675 0.00068311003 0.0011870458 0.009499991 0.0038584638 0.0012505283
0.0037946205 0.0035574683 0.0043545724 0.0012333522 0.0060959603 0.0013443764 0.00076750503 1.47083765e-05
0.00019320997 0.0003283274 0.0026018282 0.0020434966 0.0017441637 0.0006768034 0.0016084524 0.0057794694
0.0008579372 0.0002326241 0.0012229899 0.0023355908 0.00038079865 0.001462662 0.00068699504 0.00797583
0.00045697248 0.04152206 0.0015944246 0.0018625549 0.009576149 0.000762739 0.000846339 0.0061060786

gnn_layers.0.gnn.att_i f4 [1, 1, 64]
00000000: 2d85 a63e 9c41 2a3e 5a09 efbe 58f2 943e
00000010: 8889 8dbe 47cf 1abe 90b0 cdbe 7cb4 2d3f
00000020: 6093 723d 0cf2 2c3e 2694 13bf 621e b4be
00000030: fbc6 473e cd9e c5be 3d4d 37be 27fa b6be
00000040: 05b6 d53e 6b57 e93e 42f0 463d ea8c 033f
00000050: a6bc 933e fe0e 02bf 8910 053f d9d8 573e
00000060: 1694 11bf 5f1d c33d d042 ba3e 279a 8b3e
00000070: a84f 653c d7d3 863e 97bd 0cbe 1657 2bbe
00000080: b109 acbd c391 fe3e 96ec 033c 1260 a23e
00000090: 7786 993e 0d0f f0bd 35b8 a9be 614e 87be
000000a0: bc7c 513e b7cb 0cbf 34a4 76be 7fbe 67bf
000000b0: 2a0e 9cbf ca52 8dbe 636b 99bd 3ae9 bdbe
000000c0: 4720 44be eb90 cabe ad77 e5bd c9b4 e63d
000000d0: 2de4 05bd 639e b9bd c363 6abe d1b1 00bf
000000e0: 327b d83e b325 bc3e d4e7 02be ac57 6cbe
000000f0: 1274 97bd b0f3 fb3e 9522 77be f7e2 0d3d
0.3252348 0.1662659 -0.46686822 0.29091144 -0.2764399 -0.15118133 -0.4017377 0.6785352
0.05922258 0.16889209 -0.5764793 -0.3517943 0.19509499 -0.38597718 -0.17900558 -0.35737726
0.41740432 0.45574507 0.04856897 0.5138689 0.28854865 -0.50804126 0.51978356 0.21078815
-0.56866586 0.095270865 0.363791 0.27266046 0.013996042 0.26333496 -0.13744198 -0.1673244
-0.08400286 0.49720582 0.008052012 0.3171392 0.299854 -0.11721621 -0.3314835 -0.26426986
0.20457739 -0.54998344 -0.24086076 -0.9052505 -1.2191823 -0.27602226 -0.074911855 -0.37092
-0.19152938 -0.3956369 -0.11204467 0.11264951 -0.03268831 -0.09063413 -0.22889619 -0.50271326
0.4228149 0.36747512 -0.12783748 -0.23080319 -0.073951855 0.49209356 -0.24134286 0.03464028

gnn_layers.0.gnn.att_j f4 [1, 1, 64]
00000000: 1954 ac3e 7565 7f3e b8f5 28bd 35bb 39be
00000010: 1e8d 56bd 3b36 5bbd 92b1 0dbd 6577 443d
00000020: 7acf 1bbe 132f bf3d 9e02 39be b702 ccbd
00000030: 7498 e8bc 8ead 17bd c95d 6c3d fc4b 45be
00000040: c45d 3abe 365b 943d 6012 8abe b03b 12be
00000050: 7100 843d 18e0 e33c 2449 a6bd e9bc 1d3d
00000060: 03bb eabd 2bee 5cbd 9429 a13c 79e3 17be
00000070: e6a1 88be e878 16bd d53e 61be 4360 9fbd
00000080: 5031 f6bd 7c30 94bd fa41 49be 21f1 943d
00000090: 5052 10bd 1f14 17bd 685d d3bd 4958 ad3e
000000a0: 559a c1be 3346 acbe 8cd4 3e3d 21c6 0dbd
000000b0: eb68 a1be 5ccd 7cbe 6cce 893c 2b7d eb3d
000000c0: 1c12 87bc 2857 13be cc4a 953c dfee a8be
000000d0: 97a0 a1bd cbbf 30be 5040 733e 87c2 8c3d
000000e0: 57db eb3d 4677 833d 3229 d2bb e197 413e
000000f0: 7b66 6fbe e719 533e bee3 1c3b 855a 0a3c
0.3365791 0.24941047 -0.04124996 -0.1813782 -0.052380674 -0.053518515 -0.034593172 0.047965426
-0.15215865 0.093351506 -0.18067405 -0.09961455 -0.028393008 -0.03703075 0.057706628 -0.19267267
-0.18199831 0.072439596 -0.26967144 -0.14280581 0.06445397 0.027816817 -0.08119419 0.038510237
-0.11461451 -0.053938072 0.019673146 -0.14832868 -0.2668602 -0.0367364 -0.21996625 -0.07782032
-0.12021124 -0.0723581 -0.19654074 0.07272554 -0.03523475 -0.036884423 -0.1032055 0.3385642
-0.37813058 -0.33647308 0.04658942 -0.03461278 -0.3152536 -0.24687713 0.016822062 0.11498483
-0.016488127 -0.14388716 0.018224142 -0.32994744 -0.07891958 -0.17260663 0.23755002 0.06873041
0.11516445 0.06419234 -0.0064136023 0.18905593 -0.23378937 0.2061535 0.0023939456 0.008444433

gnn_layers.0.gnn.att_em_i f4 [1, 1, 64]
00000000: 56a5 e93d 93c4 603d 2ccc cb3e 2e50 80be
00000010: a058 e6bd 3b8d 97bd 87d4 54be 1696 1cbc
00000020: d078 a43e fa2e 82bd b044 7abe b9e0 dbbb
00000030: 903b 0dbf b4db d53c 59c7 dfbd 7141 01bf
00000040: d600 09bf 2472 093f f537 ba3e 68a3 013f
00000050: d644 193e f0b5 20be 13a7 40be d817 5abe
00000060: eec8 d7bd b2e7 afbd 199c 9a3c 4239 b3be
00000070: 48e2 73be bf49 13bf 9380 353e ac8e 9fbd
00000080: a3c2 81be c8f6 0d3f 098b 12be 52cd b63c
00000090: 5cc3 993e 23c9 6a3d b4c5 edbe 2792 1f3e
000000a0: 51f9 aa3e 635e eebe 22d0 e2be e06b 1abe
000000b0: e5e9 ebbe e023 773e 9312 71bc b672 2cbe
000000c0: 16cf 023f 47fe f1be 8087 88be 2e2b 9e3e
000000d0: ad89 f1be 24c1 173d 1964 643f 9ed7 873e
000000e0: a5d9 a7bd 47e7 203d 2597 bf3e 06b8 40be
000000f0: 8616 49bf cdb2 9c3d c7ff c53e f67e 0abf
0.114084885 0.054874968 0.39804208 -0.25061172 -0.112473726 -0.073999844 -0.20784198 -0.009557268
0.32123423 -0.06356616 -0.24440265 -0.0067101386 -0.5516901 0.02610574 -0.109266944 -0.5049048
-0.535169 0.5368979 0.36370817 0.50639963 0.14967665 -0.15694404 -0.18813734 -0.21298158
-0.10536371 -0.08589114 0.018873261 -0.35004622 -0.23816788 -0.575344 0.17724828 -0.077908844
-0.2534381 0.55454683 -0.1431085 0.022314701 0.3003186 0.057320725 -0.46439898 0.15583096
0.33393338 -0.46556386 -0.44299418 -0.15080214 -0.46076885 0.24134779 -0.014713901 -0.16840634
0.5109724 -0.4726431 -0.26665878 0.30892318 -0.4717535 0.037049428 0.89215237 0.2653169
-0.08195809 0.039283063 0.37420002 -0.188202 -0.78549993 0.07651291 0.38671705 -0.54099977

gnn_layers.0.gnn.att_em_j f4 [1, 1, 64]
00000000: 2171 533d c80b 1abe b92a fbbe 3718 2cbd
00000010: d727 dcbd c1b2 603e 7829 e73e a2e1 96be
00000020: e1be e4be bd77 c4bc 7baa 6bbe 41f0 533f
00000030: 5536 813e f527 3fbf 9bad 62bd fb3b 403f
00000040: f361 07bf 5f2e 95bd 1fb6 8ebe 932d 453e
00000050: fe08 b8bf be6a a63e a7c1 01be 273e cabd
00000060: 16e3 3ebd ed5d 80be 8b9c 063d d496 74bd
00000070: cc58 313b 6f65 123f 25d8 1cbe 0310 ddbe
00000080: e9fe 253e bc36 93bf c131 873c 2ff4 0a3e
00000090: fff4 f6be f89f 35bf 973a a8bd 7114 afbe
000000a0: 6ed9 37bd 7ef5 783b 37a6 833d 855a 35be
000000b0: d2fe 4d3d 595d 34be f913 ffbe 70d1 9bbc
000000c0: da74 a4bf f9ba 5b3f 4782 4dbe 725f 9dbe
000000d0: 2c6b c0bc f2ae b9bd 09b5 433d 7489 8d3e
000000e0: 5331 24bd 2ae1 a03f 84e9 9bbe a5f5 3fbd
000000f0: 0f91 59be 7247 6dbd 27d5 ecbe 4b5f 22be
0.05162156 -0.15043557 -0.49056032 -0.04201528 -0.10749786 0.21943189 0.45148826 -0.2946902
-0.4467688 -0.023982877 -0.23014252 0.82788473 0.25236765 -0.74670345 -0.055341344 0.7509152
-0.52883834 -0.07284235 -0.27873322 0.19255666 -1.4377744 0.32503313 -0.12671529 -0.09875136
-0.046603285 -0.2507166 0.032864135 -0.059714153 0.0027060984 0.57186025 -0.15316828 -0.43176278
0.16210522 -1.1501079 0.016503217 0.13569711 -0.48233792 -0.7094722 -0.082143 -0.34195283
-0.04488509 0.0037988122 0.06428187 -0.17710312 0.050291844 -0.17613734 -0.49819925 -0.019020766
-1.284816 0.8583217 -0.20069228 -0.30736881 -0.023488604 -0.09066571 0.04778007 0.2764393
-0.0400861 1.2568715 -0.30451596 -0.046865124 -0.21246742 -0.057929464 -0.46256372 -0.15856664

gnn_layers.0.gnn.bias f4 [64]
00000000: f36b 5cbc 6818 1f3f adf5 083b 56ae e13d
00000010: 27fb 353e e985 f63b 719c 5e3c b164 a13c
00000020: fadc d83b fcc9 b63d 11f2 a53d 9eae d5ba
00000030: e0be 073c 175f 58be 8186 8e3d 28f7 a43b
00000040: 0750 a8bd 0834 fd3b 2e4b f03b 42a8 493b
00000050: c465 053b a8f5 91bc 6f77 a23b 28ee 4cbb
00000060: addd 0a3b ee32 1d3e fa9b 703b 22bf 353f
00000070: 1ea6 e33c d70e e33b 15d5 123c 6a4d bf3b
00000080: 04b0 2c3b 4833 db3a 2fc7 94bb e11f 20bd
00000090: 43c2 efba b6e5 ee3b d2b8 0c3d e6a0 c43e
000000a0: dbc9 9b3d 5508 11bd 13f2 913c 35d6 ae3d
000000b0: a202 b23b 3c78 9b3c 7824 c1bc baa0 8c3b
000000c0: 7a58 b5bd ed96 3ebe 590c a33b f76e cf3d
000000d0: 0b0a 473c 7057 193e d747 e53e 5096 6c3b
000000e0: 6858 643e e310 d6bc 7e07 94bc a7bb 293c
000000f0: 2eda 0bbd 34f3 e53d 8905 f3bc 8075 efbc
-0.0134534715 0.62146616 0.0020898387 0.1101958 0.17771588 0.0075232876 0.013587103 0.019701334
0.0066181393 0.08925244 0.08102811 -0.001630265 0.008285254 -0.21130024 0.06959248 0.005034346
-0.08218389 0.00772715 0.007333181 0.0030770455 0.0020354846 -0.017817333 0.0049580853 -0.0031269882
0.0021189258 0.1535146 0.0036714063 0.7099477 0.027789172 0.0069292593 0.0089619355 0.005838086
0.002635003 0.0016723657 -0.004540346 -0.039092902 -0.0018292147 0.0072905673 0.034355946 0.38404006
0.0760686 -0.035408337 0.017815625 0.085369505 0.0054324428 0.01897823 -0.02357696 0.004291621
-0.08854766 -0.18612261 0.004975837 0.10128587 0.0121483905 0.14974761 0.44781372 0.0036100335
0.2229935 -0.0261311 -0.018069979 0.010359681 -0.03414362 0.11228028 -0.029665725 -0.029230833

gnn_layers.0.gnn.lin.weight f4 [64, 5]
00000000: 9c38 98bc 4da6 c7bb a6d4 e93c 6c53 873c
00000010: 8f2d 8bbe 2aee 903d efa8 823d 6c1e 273d
00000020: 925d 22bd a800 b1be da03 35be 5fc6 1fbd
00000030: a987 363d 7015 233f e10c 5b3f 2bd4 3b3d
00000040: 1e57 b0bb b4b3 b0bd 33c0 cebe 45c3 35be
00000050: b063 f43b 6b3c 8e3b fc7c ea3b 89c3 9a3c
00000060: 17cb c53e 9c36 33bc 8c4c debb 05d7 a63a
00000070: a3bb 12ba 135b 03bf ae18 d0bd a972 863c
00000080: e9e1 f03c d04c 523e da4d 3e3e 095a e73d
00000090: 84ad 4d3d da1b 103d 97bc 61be b81e 0fbe
000000a0: b9c9 9c3d 1569 de3d e5fe 1a3e b22d 54be
000000b0: 0716 8d3e c85a df3d 2a22 bfbd 32eb ca3d
000000c0: f282 1b3e 00cb aebe 5aef bf3c 5f71 523e
000000d0: c8b3 f33b 4398 acbd f57e 83bc 2223 a3bd
000000e0: 6c02 f93d 13dc 4b3e b795 883e fb27 a53e
000000f0: f63f 3b3d 4a30 7a3d 740f f1bd 2d28 a3be
00000100: 1696 533e 5a0b 373e ae0c 29bd b35f febd
00000110: fd33 06be 024f 863e 0681 053d 6dc6 1b3d
00000120: 27bd e03c 6212 a13d 3d01 ae3e 3a24 3a3e
00000130: 7a43 523e 3171 6d3e 0229 0cbe 18bb 453e
00000140: c175 1abd 4eb3 1f3e 123c 1a3e cc1f 38be
00000150: 8151 aa3c c5fb 703e 65ae 91bd 4d33 a43e
00000160: 3271 2bbe d196 3abe 5ec2 433c e940 42be
00000170: 8b99 4bbe 78ac c5be 5beb a03d cefa ebbd
00000180: abf8 bfba 6f68 a53c 5b61 8ebe 8584 b2be
00000190: 66cc 723e b818 243e d999 153e 8ca4 d33d
000001a0: 8c1b 52be dd9b e8bd 5253 09bd ffdb 443e
000001b0: a6e0 613d e404 e83e a1ab 543d 3fc6 8b3e
000001c0: e7bf 823d dc74 783c 13e0 99bd c2e4 053e
000001d0: 24ad 183e 658f c43d ca71 5cbe b453 11be
000001e0: d2f7 2b3d de76 99bc 263d c5bd 00b9 9d3e
000001f0: 3141 d03e 5efa a03c 1068 e2be 2398 fc3d
00000200: 00a8 bb3c 8e2f a4bb eaa9 c73c f57e 23bd
00000210: f65b 12be 653d 1bbf 361e 0abf 9ec6 a93c
00000220: ce94 873d b242 993b 68bb 993d 3d68 97be
00000230: 8092 083d 0206 af3c 939e 863e ddd0 fb3c
00000240: 2e4d 993e d6e7 eebc e92a bebc 7813 46bd
00000250: d9f1 fd3d 8480 ffbe 3415 083e 4177 053d
00000260: f6e5 393e 893f 143d ad10 a53e bfd7 bbbd
00000270: ea96 a2bd fdeb 043d 34a1 903e d5d2 95bd
00000280: 7505 b23d 2776 db3d b66d 4e3d 0d40 b33d
00000290: db3f 7d3e 1a9d 28be 98ac 493d aa91 a6be
000002a0: 8013 8abe 712a 03bf 1a98 6a3e 0ec8 8cbd
000002b0: bcac 8dbe 8f49 5e3e 6386 ec3d 287b d73e
000002c0: ea48 863d a90d a1bc d7a6 073e 6900 dbbc
000002d0: df12 963d 0f6b 3f3e 9bc5 80be 2316 283e
000002e0: c5de 2f3e e940 093e 136f cb3d 1d41 64be
000002f0: 3953 32be 3578 8c3e 8bcc dabe ba13 403d
00000300: 98f3 113e 50e7 c93d 15ad 4ebd bde5 97be
00000310: 04eb 6ebe 576e 233e 8396 c73d ced4 1bbe
00000320: 14e9 953d fbdf ed3c c7f9 513b 9bf4 b5be
00000330: 800a 693e ed84 c9be 12ce 673d a678 9c3d
00000340: 4da5 d63d e314 7e3b 7b7d bb3c 683b b93d
00000350: 65ef 2e3e 1e68 013e 18d3 dfbb d14b b53b
00000360: 7b98 683c 7c10 c13c b331 533d 84ac 643e
00000370: 2dc3 db3b d6b9 88be 39be 17be 5577 cf3e
00000380: e79b 6d3e ecdc 6dbe 86b6 8dbe fbe9 c8be
00000390: aa09 82bb 2d1d f4bd 88ca 7a3d 6abb ca3b
000003a0: 4754 9f3d f51d 2d3e 63be 1dbe 50e8 dcbc
000003b0: 36bd 9bb8 7d51 693e fa4f edbc fc8d cb3e
000003c0: a8a1 84bd 4192 31bd 3399 bdbc 5c4d 9abc
000003d0: 1361 703e a939 dd3d e78f 083e 3734 3f3e
000003e0: 9941 f1bd 77f2 a23e 0263 a43d e7b5 a9bc
000003f0: 4f64 823d 4dfd 9c3e 65f9 423d 36df 16bc
-0.018581681 -0.0060928226 0.028543781 0.01651927 -0.27183196 0.07076676 0.06379878 0.040800497
-0.039640017 -0.34570813 -0.1767725 -0.03900754 0.04456297 0.63704586 0.85566527 0.045856636
-0.005381479 -0.08628026 -0.4038101 -0.1775027 0.0074581727 0.0043406985 0.0071560126 0.018892067
0.38631508 -0.010938313 -0.0067840274 0.0012728876 -0.0005597418 -0.51310843 -0.10160957 0.016412096
0.029404597 0.20537114 0.18584386 0.1129647 0.050214306 0.03518281 -0.22044598 -0.13976562
0.07655663 0.108598866 0.15136297 -0.20720556 0.27555868 0.10905987 -0.09332688 0.09908141
0.1518667 -0.34139252 0.023429561 0.2055106 0.007437203 -0.08427479 -0.016051749 -0.079656854
0.12158665 0.1990817 0.26676723 0.32257065 0.045715295 0.06108121 -0.117705256 -0.3186659
0.20662722 0.17875424 -0.041271858 -0.12420597 -0.1310577 0.26232153 0.03259375 0.03803103
0.027433945 0.07864834 0.3398532 0.18177882 0.20533553 0.2318771 -0.13687518 0.19309652
-0.037709955 0.15595743 0.15061978 -0.1798088 0.020790817 0.23533542 -0.07113341 0.3207039
-0.167424 -0.18221594 0.011948196 -0.18970074 -0.1988279 -0.38608146 0.078573905 -0.115224466
-0.0014646252 0.0201914 -0.2780865 -0.3486673 0.23710784 0.16025054 0.1460947 0.10334119
-0.20518321 -0.113578536 -0.033526726 0.19224547 0.055145882 0.4531623 0.05192149 0.27299687
0.06384259 0.01516458 -0.07513442 0.13075545 0.14909798 0.09597663 -0.21527782 -0.14192086
0.041984387 -0.018733438 -0.09630804 0.30805206 0.40674737 0.019650634 -0.44220018 0.12333705
0.022907257 -0.005010552 0.024373014 -0.039915998 -0.14292893 -0.60640556 -0.5395235 0.02072459
0.06620179 0.00467714 0.07506448 -0.29571715 0.03334284 0.02136517 0.26292858 0.030739242
0.29941696 -0.029163282 -0.02321382 -0.04835841 0.123996444 -0.49902737 0.13289338 0.032584433
0.1815413 0.036193404 0.32239285 -0.0917201 -0.07938941 0.03245162 0.28247988 -0.07315604
0.08692447 0.10715895 0.050397597 0.08752451 0.2473139 -0.1646618 0.049236864 -0.32533008
-0.26968002 -0.51236635 0.22909585 -0.06874095 -0.27670848 0.21707748 0.1154907 0.42086148
0.06556876 -0.019659834 0.13247238 -0.026733594 0.07327818 0.18693183 -0.2515076 0.16414694
0.17174824 0.13403668 0.09933295 -0.22290464 -0.1741456 0.2743546 -0.4273418 0.046893813
0.1425308 0.098585725 -0.050458033 -0.29667464 -0.23331839 0.1596006 0.09745505 -0.15217897
0.07319847 0.029037466 0.0032039748 -0.35538182 0.22757912 -0.39359227 0.05659301 0.07640199
0.10480747 0.0038769774 0.022886982 0.09044534 0.1708351 0.12637374 -0.0068305843 0.0055327197
0.01419651 0.02356743 0.05156107 0.22331434 0.0067066164 -0.26704282 -0.14818658 0.4052073
0.23204003 -0.23228806 -0.27678317 -0.39241013 -0.003968437 -0.11919627 0.061228305 0.0061868923
0.077797465 0.16905959 -0.15404658 -0.026966244 -7.426219e-05 0.22784992 -0.0289688 0.39756763
-0.06476146 -0.04335237 -0.02314434 -0.018835716 0.23474531 0.108020134 0.13336144 0.18672262
-0.1178009 0.3182561 0.08026697 -0.02071662 0.063667886 0.30662003 0.047601122 -0.009208491

gnn_layers.0.bn.weight f4 [64]
00000000: ae47 553f e811 133f 833c 263f ec84 fc3e
00000010: 1495 cb3e f869 313f 4115 683f e20a 2c3f
00000020: 828f 283f 67be f23e 4243 2a3f 8697 f93e
00000030: a56f 5e3f b0be 253f 4796 be3e ffeb e03e
00000040: 20ae 503f a3da 423f 3e9f 3a3f e85e 133f
00000050: dd05 853e 2565 1b3f 5576 443f 3ed6 3a3f
00000060: 5f70 1b3f b82b 853e 8f6f b73e f771 073f
00000070: 92d6 8e3e 7c7a 783f 6f98 313f 6980 213f
00000080: 1093 883e 22ea b03e db0d 0f3f 3efd bb3e
00000090: 18e7 2c3f e42b 463f 4eab 0e3f e338 5b3e
000000a0: 6366 363f 7ab7 cb3e feea ef3e aaa7 b53e
000000b0: 7c64 ba3e 30ee 063f 8f99 373f 2813 2f3f
000000c0: 200b 243e 7de0 813e 72bb aa3e 0cd2 0c3f
000000d0: 48db 203f de2c c63e 2300 ea3e ed78 323f
000000e0: c6db 1c3f 0b28 fa3e 085c 2a3f 5c7c 473f
000000f0: f542 433f 340d 373f f2fa fb3e 09c8 683f
0.833125 0.574492 0.64936084 0.4932016 0.39762175 0.6930232 0.9065743 0.67204106
0.65843976 0.4741089 0.6650888 0.48748416 0.86889106 0.6474409 0.37224028 0.4393005
0.81515694 0.76114863 0.72899234 0.5756669 0.25981036 0.6070121 0.7674306 0.7298316
0.6071834 0.26009917 0.358273 0.5290827 0.2789808 0.97061896 0.6937322 0.63086563
0.266747 0.3455363 0.55880517 0.36716646 0.6754012 0.7741072 0.5573014 0.2140842
0.7124998 0.3978842 0.46858972 0.3547948 0.36404788 0.52707195 0.71718687 0.68388605
0.16019869 0.25366583 0.33346134 0.55008006 0.62834597 0.38706106 0.4570323 0.6971577
0.6127285 0.48858675 0.6654668 0.7792413 0.76274043 0.7150452 0.49214894 0.9093023

gnn_layers.0.bn.bias f4 [64]
00000000: ce9a 17bd c989 a13e 6676 773e bee2 833e
00000010: 5c87 9f3e 4b59 cabc d5d6 403d 3ff9 e6bd
00000020: bc35 3e3e 2227 f83d a80a d1bc 096a 36be
00000030: b8ef f13d cc2c e5bd 5e34 b53e 17ca d33d
00000040: 8b75 1bbd 0379 97bd e951 063d 881f 173d
00000050: a859 08bf cc81 89be a8bd 353e 2f05 333e
00000060: df8c 2b3e 0011 75be ad4d 9f3e db13 893e
00000070: 8ffb 833e 9fd7 c6bd 7046 533e c9d9 ff3d
00000080: 5208 ad3e c387 7abe 60fe a7bd 7fc7 3b3e
00000090: ca0d 703e 0871 32be 00a0 8cbd 80fd a6be
000000a0: 2833 b3bc dc5d 82bd 4a22 913e 64be a73e
000000b0: 2aae a3be fca6 6b3e 9275 31be 610f 183e
000000c0: a9a3 a6be 87d8 e0be 0c8d 793e f551 953e
000000d0: e67a 21be 7977 923e a8e0 223e edd6 643e
000000e0: c899 273e a6e6 50be 9901 943e 59b1 e93c
000000f0: 7156 443c 317d 463d 032c 1ebe 0837 81bc
-0.037012868 0.31550434 0.24166259 0.25758928 0.31157959 -0.024700781 0.04707988 -0.11278009
0.18575186 0.12116839 -0.025517777 -0.17813887 0.11813301 -0.11190185 0.35391515 0.1034128
-0.037953895 -0.07396128 0.03279296 0.036895305 -0.53261805 -0.2685684 0.1774813 0.17482446
0.16752957 -0.23932266 0.3111395 0.2677296 0.2577786 -0.09709095 0.20632339 0.12492711
0.3379541 -0.24465851 -0.08202815 0.1833782 0.2344276 -0.1742593 -0.06866455 -0.3261528
-0.02187498 -0.063655585 0.28346473 0.32762444 -0.31968814 0.23012918 -0.17330006 0.14849617
-0.32546738 -0.43915197 0.24370211 0.2916409 -0.15769538 0.28606775 0.15906012 0.22347613
0.16367257 -0.20400485 0.2890747 0.028526949 0.0119835 0.048459236 -0.15446477 -0.015773311

gnn_layers.0.bn.running_mean f4 [64]
00000000: 6477 56bc 729d 1e3f fdf8 a53b 1b29 dd3d
00000010: 0f78 343e 07fe fd3b ce2a 6f3c 3570 9e3c
00000020: 74ed f03b 99a3 b63d eb75 a63d cd8e be39
00000030: 0853 033c 2859 58be 7230 903d 5e77 d33b
00000040: 1de7 a8bd 1a91 083c e8a7 9c3b df2f ee3a
00000050: 5532 553b 2275 88bc a798 bf3b f100 5abb
00000060: 2b6d 623b f011 1b3e 4a49 0a3a 6af4 343f
00000070: a828 ed3c 4c18 b23b e9aa 2c3c 9345 d13b
00000080: 47cd 853b 67e1 a4ba 4f38 83bb b37b 1bbd
00000090: da0a a1ba 4683 e73b 101f 0c3d f1f2 c33e
000000a0: c806 9a3d 25dd 0fbd ce37 a23c dd92 ac3d
000000b0: 650a cd3b 52c4 873c 2ae2 bcbc ea71 ba3b
000000c0: 526c b0bd bee5 3cbe 8778 c23b 1b7a cd3d
000000d0: 062d 4e3c a7a5 183e e090 e43e c2e9 a63b
000000e0: b560 653e 9cdc cdbc d20b 9abc 6297 0e3c
000000f0: 9906 08bd 5970 e33d 04e9 edbc 93b0 e7bc
-0.013089988 0.6195899 0.005065082 0.10798856 0.17623924 0.0077512297 0.014597608 0.019340614
0.0073525254 0.089179225 0.0812796 0.0003634602 0.008015402 -0.2112776 0.0704049 0.0064534387
-0.08247206 0.008335376 0.004780758 0.0018172226 0.003253122 -0.016657416 0.005847055 -0.0033264721
0.0034549932 0.15143561 0.0005275203 0.70685446 0.02895005 0.0054350253 0.010538795 0.0063864677
0.004083309 -0.0012579382 -0.0040045152 -0.037959766 -0.0012286559 0.0070652096 0.03420931 0.38271287
0.07520825 -0.03512301 0.019802 0.084264494 0.0062573426 0.016573105 -0.023057062 0.005689849
-0.086144105 -0.18447015 0.005934778 0.100330554 0.012583977 0.14906941 0.4464178 0.005093784
0.22400172 -0.025129609 -0.018804464 0.008703085 -0.033209417 0.11105413 -0.029041775 -0.02828244

gnn_layers.0.bn.running_var f4 [64]
00000000: 0ea8 6038 8aa5 9238 f3f1 b03a 9f18 a939
00000010: bbdb 0839 579f 6039 6194 d938 8968 8438
00000020: 380e 2139 3f3c bd38 b44e 0638 08c5 f039
00000030: 0818 f538 6dd2 9a38 55b7 2a39 3bc6 a439
00000040: 8aa9 6c38 19ec 3439 3f29 d539 7736 b139
00000050: 7279 5139 b413 8439 43cc d138 73fd 8638
00000060: 3f93 a439 5d00 1a39 126e 993a 68b2 4438
00000070: 18df 9339 e2e7 5039 36f2 9d39 ed06 9238
00000080: 773f 4839 080d 743a be14 1b39 ad62 9539
00000090: 4533 2239 a37f dc38 42db 1b39 a0dd 3e39
000000a0: e5a5 f638 f555 f938 ed94 0039 9b1d 8738
000000b0: 0c74 4c39 ca81 353a 5b1a 7138 8181 7f39
000000c0: a205 f637 7b7a 8a39 372a 4739 2412 a238
000000d0: f8aa f338 2bbc ab38 734d bc38 ec12 a839
000000e0: 3ab2 7e38 cdc3 8039 634b 5437 8b4e 9239
000000f0: 33ea 2c39 693e 4c39 6546 0039 a64e 4739
5.3562275e-05 6.9926566e-05 0.0013499841 0.00032252536 0.00013051827 0.00021421663 0.00010375004 6.313722e-05
0.00015359453 9.023444e-05 3.2021388e-05 0.00045923167 0.000116869865 7.382487e-05 0.0001628076 0.0003142821
5.642468e-05 0.00017254091 0.00040657257 0.0003380065 0.00019977035 0.00025191682 0.00010003943 6.4368265e-05
0.00031390224 0.0001468672 0.0011705777 4.6896195e-05 0.00028204243 0.00019922809 0.00030125835 6.9631125e-05
0.00019097129 0.0009309803 0.00014789679 0.00028493014 0.00015468623 0.00010514192 0.00014863632 0.00018202374
0.00011761094 0.00011889256 0.0001226251 6.442816e-05 0.00019498187 0.0006923942 5.7483423e-05 0.00024366939
2.9328108e-05 0.00026412666 0.00018993845 7.728141e-05 0.00011618988 8.1889644e-05 8.9789646e-05 0.00032057555
6.0724306e-05 0.00024559945 1.2653737e-05 0.0002790581 0.00016490444 0.00019478206 0.00012233255 0.00019007418

out_layer.mlp.0.weight f4 [1, 64]
00000000: 7c27 b5bc 9846 07bd 9556 8dbb 194f 1bbd
00000010: 66ce ae3c 222c 87bd 0e6b 84bc dfff 96bc
00000020: d6fa 3ebc d620 f6bc 07b6 e83c 0527 c9bc
00000030: 54cf e1bc cb74 953c a5c3 ca3c 69ef 793d
00000040: b735 583c e67c 82bc 4178 0fbd 386d 2ebd
00000050: 1771 b9bc 02c6 ddbc c574 85bc ab24 cfbc
00000060: 3737 8dbc ba2b bb3c ac37 b63d ef54 f1bc
00000070: 7917 2f3d f3fb 97bd f316 f4bb 2b96 74bc
00000080: 417c 3f3d 73a5 bebb 1d18 cf3c d4a4 cd3c
00000090: 5959 943c 26c5 55bc 93c9 b23c f21a 0f3d
000000a0: cd47 79bc 51fd e43c 8769 e53c a2e2 f43c
000000b0: 5451 d1bc 7274 bdbc d88c c4bc 95d1 9fbc
000000c0: 4cf1 bdbc 1419 7bbd d7d0 fe3c daaa 28bd
000000d0: 5f48 b63c dbbf cd3c 88c5 1cbd d17e 92bc
000000e0: 6d0e 94bc 13cf cbbc 987c 6dbd e181 2cbd
000000f0: a966 0b3d 786e e2bc 53c2 98bc 62df c33c
-0.022113554 -0.033026308 -0.0043133 -0.03791723 0.021338653 -0.066002145 -0.016164329 -0.018432556
-0.011656484 -0.030044954 0.02840711 -0.024554739 -0.027564682 0.018244168 0.024751494 0.061019335
0.0131964 -0.015928697 -0.035026792 -0.042584628 -0.022636933 -0.027071957 -0.016291032 -0.02528604
-0.017238243 0.022847999 0.08897337 -0.029459445 0.042746995 -0.074211024 -0.007449025 -0.014928381
0.046749357 -0.005818063 0.025280053 0.02510301 0.01810901 -0.013047492 0.021824634 0.034937806
-0.015214873 0.027952822 0.02800442 0.029893223 -0.025551476 -0.023126815 -0.02399294 -0.019509116
-0.023186348 -0.061303213 0.031105442 -0.04117856 0.022251306 0.025115898 -0.038274318 -0.017882736
-0.018073285 -0.024879014 -0.05798015 -0.04211605 0.03403345 -0.027640566 -0.018647349 0.023910228
