model_normal/gdn_smd_w_75_epoch20.pth (torch, 72559 bytes, 16 tensors)

embedding.weight f4 [38, 128]
000000 d1 c1 04 c0 54 bd a9 3e 5c b7 20 bf 9c 1e 8c bd
       -2.0743296 0.33152258 -0.62779784 -0.06841776
000010 18 e5 b0 bd 96 fe 80 3e 1e ce 65 be 28 82 dd be
       -0.08637446 0.25194234 -0.22441909 -0.43263364
000020 ab ab ab bd f2 78 e7 be a0 56 8e be 68 5a 93 bd
       -0.083823524 -0.4520946 -0.27800465 -0.07194978
000030 bf 7b 8e 3e a5 41 d2 ba e3 ce fc be 80 ec 8b 3e
       0.27828786 -0.0016041292 -0.49376592 0.27328873
000040 60 22 15 bd 35 cf ab 3e d5 51 cc 3c 10 d7 0e be
       -0.036409736 0.33556524 0.024941364 -0.13949227
000050 8b 2e db be b2 b5 0a bf 50 76 50 be 2d 4f 0b bf
       -0.42808947 -0.54183495 -0.20357633 -0.5441769
000060 90 b1 a7 3e 1a 92 0c 3d fc f3 d1 3d 5d 1d 90 3e
       0.32752657 0.03431902 0.102516145 0.28147402
000070 9b a4 18 bd e3 a9 69 be d3 f1 1f be 56 61 04 bf
       -0.037266355 -0.22818713 -0.15619592 -0.5171102
000080 e6 ab 8b bd 43 98 42 be 29 a1 20 be e1 b7 b1 3e
       -0.068198964 -0.19003396 -0.15686478 0.347106
000090 6b 7f 03 3d d5 40 bf 3d f2 26 21 bf cc ff 18 3e
       0.032103937 0.093385376 -0.6295005 0.14941329
0000a0 25 64 77 3e 57 df 15 3d 46 21 86 3e ba 32 83 be
       0.24159296 0.036589947 0.2619726 -0.2562464
0000b0 c4 d0 74 3e 00 6c 20 3d 25 c9 85 3e b9 fd a5 bd
       0.23907763 0.039165497 0.26130024 -0.081050344
0000c0 60 f6 67 be 82 1b bb 3e bf f5 a0 bd 13 64 34 be
       -0.22652578 0.36544424 -0.07859372 -0.176163
0000d0 ef a0 c7 be 58 f6 bd be 43 08 b9 3e fd 3e c5 3d
       -0.3898997 -0.37102008 0.36139116 0.09631155
0000e0 53 df 9f bd 6b 2d 5e 3e 93 ab 0d 3d 67 bb a5 bd
       -0.078062676 0.21697013 0.034587454 -0.08092385
0000f0 f6 5c 98 be a4 05 7e bd d9 e9 c9 3e a4 88 8c bf
       -0.29758424 -0.062017098 0.39436224 -1.09792
000100 3d c3 57 3e 18 f2 c9 3d 33 b2 02 bd c0 cd 94 3e
       0.21070571 0.09860629 -0.031908225 0.29063225
000110 f9 2a 17 be 0f 64 d0 3e 2b aa 27 3f 6a 25 16 be
       -0.14762487 0.4070134 0.6549403 -0.1466271
000120 d9 f0 29 bd c6 19 83 be 2d f6 9a bd cd eb 18 bf
       -0.041489456 -0.256056 -0.075664856 -0.59734803
000130 94 c4 61 bd 57 56 03 3f b0 fc 58 3e 2e 74 94 3e
       -0.055119112 0.5130362 0.21190143 0.28994888
000140 2c fe 14 3f 6f 72 5f 3e 35 37 06 3d b9 f5 79 be
       0.58200336 0.21820997 0.032767493 -0.24410142
000150 f8 32 21 bf 97 83 b1 bd ed 68 8c 3e 58 f6 04 3f
       -0.629684 -0.08667677 0.27423802 0.5193839
000160 13 4a da bd 15 2c ff 3d cc 6f 8e bd a8 82 1e bf
       -0.1065866 0.1245958 -0.06954917 -0.61918116
000170 0e 25 08 bf 3d 4e 80 bd 28 e8 54 3d f2 68 b2 be
       -0.5318154 -0.06264923 0.051979214 -0.34845692
000180 7f 52 ab 3e 84 29 e3 3e 85 7c 99 bd 53 32 63 be
       0.33461377 0.4436761 -0.07494453 -0.22187166
000190 de 29 93 3e bd fa 0f bd b6 be 9e 3e c7 a9 f5 be
       0.2874288 -0.035151232 0.31004876 -0.47981092
0001a0 84 54 ce bd 7a 14 07 3e d7 04 f8 be a7 a8 be be
       -0.10074714 0.13191405 -0.48441193 -0.37238047
0001b0 a0 f1 67 bf 4e a6 17 be 53 10 11 be 5c 96 c0 3e
       -0.90603065 -0.14809534 -0.14166383 0.37614715
0001c0 bf 23 16 be d2 bf b0 3e 2d 6e c0 bd c6 a4 93 bd
       -0.14662074 0.34521347 -0.09396014 -0.072091624
0001d0 4d 85 7e 3d a9 82 9a bd 5c 95 ae bd 59 69 9f 3e
       0.062138844 -0.07544453 -0.08524582 0.3113506
0001e0 eb a0 cb be 2c 43 38 be f2 50 a2 bd cb 6c 66 3e
       -0.39771208 -0.17994374 -0.07925595 0.22502439
0001f0 42 70 98 bd b9 95 ce bd a3 3a 57 be 40 fc b4 3e
       -0.074432865 -0.10087151 -0.21018462 0.353487
000200 44 96 19 3e 15 2f b7 bd ea af af 3c 82 77 49 be
       0.14998728 -0.08944527 0.021446187 -0.19674495
000210 4d f4 5a be 1a 1a 0a 3e d6 f6 cf 3c 24 7a 73 bd
       -0.21382256 0.1348652 0.025386255 -0.059442654
000220 e4 33 2a be ab 7e 88 bd 4f fa 54 bd fb c3 29 be
       -0.16621357 -0.06664785 -0.051996525 -0.16578667
000230 52 b2 f5 be 55 08 81 bd 96 ed 66 be 09 fe 40 3d
       -0.4798761 -0.06300417 -0.2255157 0.047117267
000240 7a 40 8e bd f3 33 fe bd 8b 14 b6 bc de 59 63 be
       -0.06945892 -0.12412252 -0.022226593 -0.2220225
000250 7b ef 46 3e 1f 2b 42 3e f7 29 67 3e 2c 40 6f be
       0.19427292 0.18961762 0.22574602 -0.23364323
000260 29 14 4e bd 1c 8f 63 3d 2b cd c5 3d 24 c0 14 bf
       -0.050312195 0.0555564 0.09658273 -0.58105683
000270 1f e4 9f 3d 7b f3 07 3e 9d 76 73 be 1e 7d 65 be
       0.078071825 0.13276474 -0.23775716 -0.2241101
000280 6d 89 5b be 3f 12 8d be 5c e9 53 be 37 b8 9c 3d
       -0.21439143 -0.27552983 -0.20694488 0.07652324
000290 b0 3c 99 3c 65 6e e3 bd 0e 5d 84 3e d4 10 0e be
       0.018705696 -0.111050405 0.25852245 -0.13873607
0002a0 d5 9c 86 3e 29 97 37 3e 12 00 20 3e 82 12 24 be
       0.26291528 0.17928757 0.15625027 -0.16022685
0002b0 93 72 0f be 5a 63 e0 bc 6e f1 49 bf f5 5e 57 be
       -0.1400855 -0.027391125 -0.7888402 -0.21032317
0002c0 2e 18 d7 3d 61 f9 35 3e fc 1a 18 be 5b 06 eb bc
       0.10502659 0.17770912 -0.14854044 -0.028689554
0002d0 e0 ea 48 bf 75 10 3a 3e 16 32 d8 bd 39 d9 90 3d
       -0.7848339 0.1817034 -0.10556428 0.07072682
0002e0 56 23 6b be 8c 0b 05 be 7d 3b 10 3e af 8b 2f be
       -0.22962698 -0.12992686 0.14085193 -0.17143129
0002f0 0f f4 3e be ee c5 0b 3d 44 50 e6 bd 61 f8 2d bd
       -0.18647788 0.034124307 -0.11245778 -0.0424732
000300 d6 11 d2 bd 60 fe 19 3e e4 c3 95 be 41 1d 03 bf
       -0.10257308 0.15038443 -0.29251015 -0.5121651
000310 2e 12 49 be e5 a4 56 3e 1c db b4 3d 00 c0 44 be
       -0.19635841 0.2096134 0.08830854 -0.19213867
000320 b8 ab 6b 3c 43 54 1c 3e b9 0f 75 be c5 85 92 3e
       0.014384203 0.15266518 -0.23931779 0.28617683
000330 55 0d ed bd a2 c9 c0 3e d1 3f fa bc 97 43 f9 3d
       -0.115748085 0.37653834 -0.030548008 0.12171095
000340 81 0f 80 bc 48 1f 1f be 91 01 3d 3d 1c 22 33 be
       -0.015632393 -0.15539277 0.046144072 -0.1749348
000350 b1 2a 9f 3c d0 6f 3d be 25 9d 98 be 2b 67 35 3d
       0.019429537 -0.18499684 -0.29807392 0.04428784
000360 f0 a5 48 be 65 23 15 be f9 49 1c be e5 ea 29 3d
       -0.1959455 -0.14564283 -0.15262593 0.04148378
000370 ea 36 6d 3e 0c 01 4f be d1 56 34 be 41 1b 0a be
       0.2316548 -0.20215243 -0.17611243 -0.13486959
000380 22 bc 18 3e 3d 8d b4 3d 33 78 61 be 1d 8c 5d be
       0.14915517 0.088160016 -0.22018509 -0.2163548
000390 ae c5 96 3e 12 d5 3d be 00 12 27 bd 2f f6 08 bf
       0.29447693 -0.18538311 -0.04078865 -0.53500646
0003a0 cd 20 57 be 42 1f fa 3d 5e 46 7c be f0 90 6c 3e
       -0.21008606 0.12212993 -0.24636218 0.23102164
0003b0 f3 98 09 bf d6 1b 0d bf 9f 62 3f be ab 0f 05 3e
       -0.53749007 -0.551206 -0.18689965 0.12994258
0003c0 9d 21 88 bd 71 37 3a bd 24 89 0b 3e 08 83 64 be
       -0.06647036 -0.04546303 0.13626534 -0.2231561
0003d0 94 65 2a 3e bf 33 4b be e4 4d 07 be 9e fa 94 be
       0.16640311 -0.19843958 -0.13213307 -0.29097456
0003e0 56 19 34 be 2a 6b bf be 84 fd 7d be 6d 2e 78 3e
       -0.1758779 -0.37386447 -0.2480374 0.2423646
0003f0 23 77 6d be 7b 63 05 3e d7 9c 6d be 2f bf 9a 3d
       -0.23189978 0.1302623 -0.23204361 0.075559966

bn_outlayer_in.weight f4 [128]
000000 90 ee 23 3e eb 14 e3 3e ae 98 c3 3e 1c f2 2c 3f
       0.16008973 0.44351897 0.38202423 0.6755693
000010 b8 5a 30 3f 01 7e a3 3e a6 35 0b 3f bd 34 82 3e
       0.68888426 0.3193207 0.54378736 0.2543086
000020 23 75 28 3f dd 94 cf 3e 10 5c 24 3e a2 27 30 3f
       0.65803736 0.4054326 0.16050744 0.68810475
000030 a4 4f a6 3e 89 46 19 3f 4c 38 af 3e 01 1d 7c 3e
       0.32482636 0.59873253 0.3422264 0.24620439
000040 e5 1c d9 3e 1e 7b ea 3d 2c bd e6 3e 5d 36 10 3f
       0.42404857 0.11449264 0.45066202 0.5633295
000050 9e de be 3e 4b d1 bb 3d b5 9b b8 3e ff 96 18 3f
       0.37279218 0.09170779 0.36056295 0.596054
000060 7f 71 a7 3e 10 ba d5 3e e6 7e ec 3e a4 16 93 3e
       0.32703778 0.41743517 0.46190566 0.2872821
000070 30 90 f7 3e 5c f0 3c 3e 4d e0 52 3f 96 be 02 3f
       0.48352194 0.18451065 0.82373506 0.5107206
000080 a7 4b 2e 3f 8c b5 27 3f 67 a9 20 3f 66 23 ab 3d
       0.68084186 0.65511394 0.6275849 0.08356361
000090 a6 2a b7 3e da 7c ff 3e e9 bb c7 3e 7a c5 02 3f
       0.35774726 0.49899942 0.39010552 0.51082575
0000a0 75 80 be 3d 59 d5 c8 3e 74 20 cc 3d 75 24 16 3f
       0.09301845 0.3922527 0.099671274 0.5864938
0000b0 dd 38 b4 3e 29 d6 04 3f 42 04 eb 3e 31 26 27 3f
       0.35199633 0.5188928 0.45901686 0.6529265
0000c0 fb 72 f7 3e ed 01 b9 3e 9d c2 23 3f 1b ae 0c 3e
       0.4832991 0.36134282 0.6396883 0.13738291
0000d0 5d d0 bb 3e d8 4a e9 3e 17 51 88 3d d9 34 00 3f
       0.36682406 0.45564914 0.06656092 0.5008064
0000e0 f6 ed 2b 3f d9 35 5f 3e fb 65 ce 3e d2 48 20 3f
       0.67159975 0.21797885 0.4031218 0.62611115
0000f0 63 72 66 3e 0f 46 02 3f ea 68 0b 3c e3 00 a3 3e
       0.22504573 0.5088815 0.0085089 0.31836614
000100 d2 08 40 3e 84 99 8b 3c 14 0a 4f 3f 4f 0e c5 3e
       0.18753365 0.017040975 0.80874753 0.3848748
000110 73 86 37 3f 7a ab c5 3e 31 ad cd 3d 6a 75 1d 3f
       0.7168953 0.3860739 0.10042799 0.61507285
000120 34 78 be 3e 04 b1 e5 3d 66 c3 1e 3f 90 df 85 3e
       0.37201083 0.11215404 0.62016904 0.26147127
000130 9d ed 0c 3f 5b 27 55 3e fc 50 ee 3e a3 76 ef 3e
       0.5505007 0.20815794 0.4654616 0.467702
000140 71 71 39 3e 4a d0 5d 3e 11 e5 dc 3e bc eb 1d 3f
       0.1810968 0.21661487 0.43143514 0.6168783
000150 ac 2a e0 3e 97 e2 1c 3f 9c 0b 87 3e 95 e8 3b 3e
       0.43782556 0.6128325 0.26376045 0.18350442
000160 3a 45 14 3f 17 80 34 3f d5 13 36 3f c4 12 c3 3e
       0.5791813 0.7050795 0.7112401 0.38100255
000170 ec 9c 86 3e 53 dc 34 3f cf 70 94 3d cc c1 a0 3e
       0.26291597 0.7064869 0.07248079 0.31397855
000180 56 e0 c8 3e 3d fa a6 3e 4b 96 31 3f 12 6c 1b 3f
       0.39233655 0.32612792 0.69369954 0.6071178
000190 56 55 d0 3d e6 bc 63 3f 7f 45 8f 3e 47 40 21 3f
       0.101725265 0.8896011 0.2798271 0.62988704
0001a0 8f db 36 3f b5 c6 b3 3d 48 15 0d 3f cf e8 eb 3e
       0.7142877 0.08778135 0.551106 0.46076056
0001b0 ea a3 c8 3e 8a 77 29 3f 1d 89 2b 3f 62 66 a3 3e
       0.39187557 0.6619803 0.67006093 0.3191405
0001c0 44 f8 f2 3e bd 18 56 3e e7 be c7 3e 86 43 46 3f
       0.47455037 0.20907874 0.39012834 0.7744678
0001d0 b0 93 a2 3d 98 0e 3e 3f 08 66 0b 3f 2f 61 a7 3e
       0.079383254 0.7424102 0.5445256 0.32691333
0001e0 e3 ed c2 3e f9 d3 18 3f d2 b5 2d 3f cb bd d4 3e
       0.38072118 0.59698445 0.6785556 0.4155105
0001f0 39 76 2d 3f 9d 69 cd 3e da 8a 31 3f d6 0a 0a 3f
       0.6775852 0.4011964 0.69352496 0.53922784

bn_outlayer_in.bias f4 [128]
000000 ea 18 94 be 46 07 82 be 88 65 d9 be 4e 9f 3f be
       -0.28925258 -0.25396174 -0.42460275 -0.18713114
000010 dc 84 8e be ba 9f 88 be 50 06 58 bf 8a 71 23 be
       -0.2783574 -0.26684362 -0.8438463 -0.1596128
000020 cf 02 5f be de 49 5f bd 52 4f 2a bf 69 e4 a1 be
       -0.21778415 -0.054513805 -0.66527283 -0.31619576
000030 b5 46 3c bf 34 1d 1a bf 58 44 dc be fd 68 2d bd
       -0.7354539 -0.6020081 -0.43020892 -0.042336453
000040 1a f0 89 be 95 84 3b bc c1 39 1b bf fe 95 c9 be
       -0.26940995 -0.011445184 -0.60635 -0.39372247
000050 ea 1c 89 be 33 65 d3 3a a1 26 87 be 98 25 c0 be
       -0.26779872 0.0016128182 -0.2639666 -0.37528682
000060 95 2f 9a be c4 74 9a be 5e da f3 be 4a f2 55 bf
       -0.30114427 -0.3016721 -0.47627538 -0.8357283
000070 7f 23 31 bf ef 1b 81 be 88 d6 9b be b4 68 f0 bd
       -0.6919479 -0.25216624 -0.30437112 -0.117387205
000080 19 d5 9d be d8 13 c8 be 55 2b d5 be b8 24 1b 3c
       -0.30826643 -0.3907764 -0.41634622 0.009469204
000090 83 6a 9b be ca 2b ff be 44 dd d9 be ed 17 e6 bd
       -0.303547 -0.49838096 -0.42551625 -0.11235032
0000a0 21 50 c2 3c ec cc a5 be 40 fa 8d 3c 62 23 4d be
       0.023719849 -0.32382905 0.017331243 -0.20033029
0000b0 93 8f 43 bd 5d a2 9b bf be e7 84 bf 76 78 b8 be
       -0.047744345 -1.2158924 -1.0383222 -0.36029404
0000c0 9e c4 01 bf 49 fa 9a be 30 cd 1d be 90 1c 11 bf
       -0.5069064 -0.30269077 -0.15410304 -0.5668421
0000d0 2c 44 8d bd d7 54 ec be 87 8a 56 3b 1a f0 4b bf
       -0.068977684 -0.46158478 0.0032736377 -0.7966324
0000e0 1e ef d7 be 46 65 2f bd f1 8a 90 be 4c f2 86 be
       -0.4217462 -0.04282119 -0.28231004 -0.26356733
0000f0 f1 59 f4 bd ff 4c 20 bf 13 46 f6 be 04 6c 40 be
       -0.119312175 -0.62617487 -0.48100337 -0.18791205
000100 fd 96 88 bd 82 d6 78 3b 11 13 9b be b1 d9 34 bf
       -0.06669424 0.0037969653 -0.30287984 -0.7064467
000110 a2 ea 6f be f8 21 a2 be 81 bb 17 bc 51 e5 c0 be
       -0.23429349 -0.3166654 -0.009261013 -0.37674955
000120 95 88 c5 be d2 ed 57 bd d4 3d 4d be 77 24 04 be
       -0.38580766 -0.052717037 -0.20043117 -0.12904535
000130 bf c8 31 bf 57 85 27 be 4b ef cf be 76 f8 95 be
       -0.6944694 -0.16359459 -0.40612254 -0.29291123
000140 55 49 aa bd 27 66 89 bd ea be be be 69 46 1f be
       -0.08314768 -0.06708937 -0.3725503 -0.15554203
000150 ab 31 80 be 52 7c 5f be 1b 48 1e be 62 f3 0c be
       -0.25037894 -0.21824768 -0.15457194 -0.13764718
000160 15 7f bd be da 5b 27 be 5e 23 23 be 1a 2d 93 be
       -0.37011018 -0.16343632 -0.1593146 -0.28745347
000170 a4 fe 7b be 4b bc cd be 7a eb c4 bc d1 17 87 be
       -0.24608856 -0.4018272 -0.024038065 -0.26385358
000180 de 92 9a be 02 8a 87 be f6 de ea be bf 76 d2 be
       -0.30190176 -0.2647248 -0.4587323 -0.4110622
000190 a1 07 6a 3c 44 33 a0 be 92 b8 9d be f7 7b e6 be
       0.014284045 -0.31289113 -0.30804878 -0.45016453
0001a0 4d fd f5 be bd 4c 1a 3b 1e ea 61 bf 31 69 e5 be
       -0.48044816 0.0023544275 -0.8824786 -0.44806817
0001b0 04 b2 60 bf 08 58 fb be 67 0e fe be b2 0f 2d be
       -0.8777163 -0.490906 -0.49620363 -0.16900519
0001c0 9b 9b 29 bf b6 96 05 be 69 f2 9d be 74 4f 52 be
       -0.6625306 -0.13045773 -0.30849007 -0.20538121
0001d0 00 cf 58 bc f8 45 8a be cf a4 47 be 75 4d 9f bd
       -0.013232946 -0.27006507 -0.19496463 -0.07778446
0001e0 11 37 62 bd 1e ee bb be ce 76 60 be b1 9a df be
       -0.055228297 -0.36705106 -0.2192032 -0.43672708
0001f0 d4 5d 6f be f5 79 02 bf 42 01 e8 be fd 0d de be
       -0.23375636 -0.5096734 -0.4531346 -0.43370047

bn_outlayer_in.running_mean f4 [128]
000000 5a 3c 4d bc 71 fb b7 bd 3f 74 58 bd ab f9 f6 bc
       -0.012526596 -0.089835055 -0.052845236 -0.030148348
000010 16 49 cd bd 0d 00 28 be 97 d2 a2 3b b8 d4 0f be
       -0.10023706 -0.1640627 0.004968952 -0.1404599
000020 f2 0b 82 bd 86 31 fc bd 42 f8 95 bc 9d aa a5 bd
       -0.06349935 -0.12314133 -0.018306855 -0.080891825
000030 e7 48 f2 bb 1f 21 b5 bb 81 1c 47 bb 59 46 8f bd
       -0.0073939445 -0.00552763 -0.003038198 -0.069958396
000040 fc 22 30 be 21 b6 af bc df 29 e9 3b 44 84 50 be
       -0.17200845 -0.02144915 0.007115587 -0.20362955
000050 50 41 ca ba d0 a2 d5 3b d1 92 18 3d 22 6a 2d be
       -0.0015430842 0.006519653 0.03724939 -0.16935018
000060 df 82 37 be f3 e4 e5 bd d0 d8 70 b9 b8 61 8d bd
       -0.17921017 -0.11225309 -0.00022968953 -0.06903404
000070 2c f0 f1 3c ad 75 0e bd 39 58 7c bd cd b1 0e be
       0.029533468 -0.034780193 -0.061607573 -0.13935013
000080 03 42 5c bd f7 a0 68 be 49 ec 81 be e8 00 5f 3d
       -0.05377389 -0.22717653 -0.25375584 0.054444224
000090 99 cc 80 bd ac be 6f 38 86 a9 49 bc 3d 0e f6 bd
       -0.06289024 5.7159617e-05 -0.012308484 -0.120144345
0000a0 1e f8 32 3d 4c c2 c6 bc a8 d6 be 3c 30 e7 da bd
       0.043693654 -0.02426257 0.023295715 -0.10688627
0000b0 de a3 79 bd cf 82 3a 3c 02 fe 2c bd 1a 55 d0 bd
       -0.06094729 0.011383726 -0.04223443 -0.10172482
0000c0 e7 5a 59 bc 00 e4 95 bd 4a c7 09 bd a9 3b e2 39
       -0.013266302 -0.07318878 -0.033637322 0.0004315053
0000d0 2d 90 02 be 31 ef 0f bd aa 51 3f bc 83 a9 75 3c
       -0.12750311 -0.03514022 -0.011677185 0.014994028
0000e0 fa ff cd bd 68 12 8b bd db b2 b4 bd d2 c3 9f bd
       -0.10058589 -0.0679062 -0.088231765 -0.07801022
0000f0 ac 08 ba bd 66 3b fd bb 25 df 10 bb 6e 44 a2 bd
       -0.09083685 -0.007728028 -0.002210566 -0.07923208
000100 9c 65 8e bd a7 c9 98 3d 82 21 75 bc 8e 15 b7 3c
       -0.06952974 0.07460337 -0.014961602 0.022349145
000110 53 70 68 bd 17 6f 01 bd da f5 24 3a 30 a9 36 be
       -0.056747746 -0.031600084 0.0006292738 -0.17837977
000120 27 da 0c bd db 67 a0 3d 24 8d e2 bc d6 f4 0c bd
       -0.034387734 0.07832309 -0.027655192 -0.03441318
000130 a4 6b 01 bc dd ff d5 3c 83 1a b0 be 7d 16 b5 bd
       -0.007899199 0.026122982 -0.34395227 -0.0884218
000140 bb 07 f8 3d 5e 5c a1 bd 2b 1b ca bd a7 01 b5 bd
       0.121108495 -0.07878946 -0.09868463 -0.08838206
000150 24 88 ca bb 4b 59 7d bd 10 45 98 bd 5f 8b 70 3d
       -0.00618078 -0.061852735 -0.074350476 0.058726665
000160 94 7b 29 be 03 80 10 be 0d 98 d0 bc 62 0b 6d bb
       -0.16551048 -0.14111333 -0.025463128 -0.0036170115
000170 55 46 0b bd c5 e5 a4 bd 32 f1 fd b9 2a be c0 bd
       -0.03400262 -0.080516376 -0.00048435625 -0.09411271
000180 bc 81 4b bd ec 97 a5 3b e7 25 fa bd cd 75 2b be
       -0.04968427 0.005053511 -0.122142605 -0.16744156
000190 99 a5 cd 3c 9c 1d 02 bc 1f b1 d5 3c 68 72 6a be
       0.025103377 -0.00794163 0.026085434 -0.22895205
0001a0 19 04 04 be 66 3e 37 3c 3d d8 8c 3a 33 49 db 3c
       -0.12892188 0.011184311 0.0010745596 0.026768303
0001b0 d5 7c ff bc e3 ae 82 be 7c cb f1 bd bc 7d 14 bd
       -0.031187454 -0.25524053 -0.1180639 -0.036252722
0001c0 b9 f6 1d bc 2a bd 4e bd 48 35 ba bc b4 19 21 bd
       -0.009641343 -0.05047337 -0.022730485 -0.039331153
0001d0 02 a0 06 3c 94 9b 5b bd 56 5e ab bd 5d 06 77 bd
       0.00821686 -0.053615168 -0.083676025 -0.060308803
0001e0 28 b0 0b be 72 bd 3d be 79 a1 9c bd b6 8f 80 3d
       -0.13641417 -0.18529299 -0.07647986 0.06277411
0001f0 6b 85 ad bd e1 ca 73 ba bd 11 4e be 10 da 42 3b
       -0.08472713 -0.00092999457 -0.20123954 0.0029732026

bn_outlayer_in.running_var f4 [128]
000000 0c 37 e6 3d f6 72 48 3e 8c 69 e4 3d 7a f3 31 3b
       0.11240968 0.19575104 0.11152944 0.002715318
000010 96 ae 8b 3c 37 6c 7e 3e 35 7b 93 3a e9 fc 12 3e
       0.017051022 0.24845968 0.0011251929 0.1435429
000020 87 5d ec 3b 26 e5 9a 3d 8c 9c c1 3c f1 9c 22 3c
       0.0072132978 0.07563238 0.023634218 0.009925113
000030 70 92 f6 3d 59 c2 88 3b 8e a6 e5 3d e0 c3 00 3e
       0.120396495 0.0041735587 0.112134084 0.1257472
000040 0f ad 9b 3d 9e 73 26 3e 3d ea a3 3a 96 20 d6 3c
       0.07601368 0.16255042 0.0012505722 0.026138585
000050 54 ac c9 3d 5b 2e 37 3b b3 bb 65 3e 66 76 c7 3c
       0.09847322 0.0027951214 0.22434883 0.024348449
000060 95 d8 6b 3e 78 7d 9f 3d f7 6e bc 3a e1 3b 83 3e
       0.23031838 0.07787603 0.0014376332 0.2563162
000070 b9 19 d9 3a 0f 2a 86 3d c3 89 91 3c 30 b4 28 3d
       0.0016563452 0.06550991 0.017765885 0.041187465
000080 f6 10 87 3b c0 66 0f 3d 8a 38 40 3d 30 e4 fa 3d
       0.004121895 0.0350101 0.04692892 0.122505546
000090 a2 40 69 3e 84 2e b9 3a e8 97 c1 3d a3 45 08 3f
       0.22778562 0.0014128243 0.09452802 0.5323126
0000a0 88 14 c6 3b d1 e5 c3 3d 07 6c e4 3a 5b ab 07 3d
       0.006044928 0.095653184 0.0017427214 0.0331224
0000b0 ca 7e 06 3e 30 3c e0 39 23 41 34 3d 00 79 48 3c
       0.13134304 0.00042769453 0.04400743 0.01223588
0000c0 96 66 2a 3b 83 18 f7 3d 93 7a 5d 3b 65 44 a6 3c
       0.0026001087 0.12065222 0.0033794984 0.020296285
0000d0 5f 07 d3 3d cf 7e d7 3d 00 e2 8a 3d 63 dc 7f 3a
       0.1030414 0.10522234 0.06781387 0.0009760318
0000e0 89 5e 24 3c 5e 2f 52 3d ab 80 f0 3d 52 75 05 3c
       0.010032305 0.051314704 0.117432915 0.008145647
0000f0 a6 ac df 3d 8c 66 01 3b 10 b7 81 3b b4 63 1a 3e
       0.10921602 0.001974496 0.0039585903 0.15077096
000100 56 a8 32 3d 95 7e de 3d 1f ed 6b 3a 2c b5 ea 3d
       0.04361757 0.10863987 0.00089998724 0.11460337
000110 f7 f7 75 3c 07 0a d4 3d 21 6b e6 3a 64 98 b0 3c
       0.015012733 0.10353475 0.0017579534 0.02155704
000120 6d 24 97 3d e9 cf dd 3d 20 7f 00 3b 5d 54 11 3d
       0.073799945 0.10830671 0.0019607022 0.035480846
000130 d7 00 1c 3b 1f f0 ce 3a 25 6c 8d 3e 07 37 f7 3d
       0.0023804212 0.0015788114 0.2762157 0.120710425
000140 22 98 d8 3d 35 38 8b 3d a3 56 b7 3e b2 45 e5 3c
       0.10575892 0.0679783 0.35808286 0.027987335
000150 33 16 61 3b f1 36 b6 3b 3a 00 84 3d a1 0e f9 3d
       0.0034345507 0.0055607487 0.06445356 0.12160993
000160 1a 29 a3 3c 0a 25 76 3e 24 88 1e 3b d1 dd 50 3a
       0.01991706 0.24037567 0.0024190033 0.00079676235
000170 41 11 05 3e 97 6a e4 3b f5 6a 0b 3a e9 b0 ef 3d
       0.12994863 0.0069707143 0.0005318367 0.11703665
000180 2e fa b2 3d 36 e4 b3 3a 05 15 6b 3c ed 34 cd 3c
       0.08739124 0.0013724628 0.014348273 0.025049651
000190 57 01 54 3b c3 77 bc 39 9f ba 11 3b ff b5 fe 3c
       0.0032349431 0.00035947384 0.002223648 0.031092642
0001a0 3e 73 87 3c ab a0 65 3c 80 ef 6d 3a 26 a6 a8 3d
       0.016534444 0.014015357 0.0009076521 0.08234815
0001b0 e4 27 2c 3e ae 70 0f 3d 7c 1d 45 3c ce a8 0a 3e
       0.16812092 0.03501957 0.012030955 0.13540956
0001c0 a6 2a a3 3a a1 f2 81 3d fd 5d 76 3e a2 3d a2 3b
       0.0012448623 0.06345106 0.24059291 0.004951195
0001d0 83 8c 0c 3d 70 fc db 3b 33 2d 2b 3c a0 74 2a 3e
       0.03431369 0.0067134425 0.010447788 0.16646051
0001e0 b3 c7 e3 3c 56 96 d3 3c 76 37 57 3c db a9 74 3e
       0.027805185 0.025828522 0.0131357815 0.2389292
0001f0 64 d7 6a 3c 59 bc b8 3a 46 fb ff 3c 12 61 f9 3a
       0.01433358 0.0014094218 0.031247746 0.0019026122

gnn_layers.0.gnn.att_i f4 [1, 1, 128]
000000 1d 8b b3 3d 32 10 5e 3b a0 cf d4 ba 17 8f e0 3b
       0.08766768 0.0033884165 -0.0016236193 0.006852995
000010 e3 b0 7d bb 72 ce 93 ba 87 5f b7 3d c5 1a 8a 3a
       -0.003871017 -0.0011276735 0.08953767 0.0010536542
000020 9f d1 17 3c ab 1a fd 3a 94 eb 65 3a ef 47 17 3d
       0.009266286 0.0019310316 0.00087707606 0.036933836
000030 93 2b c6 3d da 6e ef bc e6 77 47 be c1 44 e2 3b
       0.0967628 -0.029227663 -0.19479331 0.0069051688
000040 63 3d 1f 3c 1c bf 92 3b a2 f5 0c bd 8d 08 25 3a
       0.009719226 0.0044783484 -0.03441394 0.00062955247
000050 2c 61 7a be c1 d2 d6 bd f9 0a 5b 3b 86 5b a0 bc
       -0.2445113 -0.10489417 0.0033423288 -0.019574892
000060 83 29 9f ba 7e 0e 23 3b 8f 7f 66 bc 13 ff 78 bc
       -0.0012143109 0.0024880464 -0.014068498 -0.015197533
000070 9d 3a 4d bc 42 5d be bb 84 35 e7 3d 77 7b 37 3d
       -0.0125261815 -0.005809457 0.11289504 0.04479548
000080 6a 72 85 bb 6b 12 06 3a e1 45 89 bb d2 10 c9 bb
       -0.004072477 0.0005114439 -0.0041892384 -0.0061360383
000090 f3 35 4a 3b 1d ef 23 3e b2 f8 78 bb 71 f9 ca ba
       0.003085491 0.16009183 -0.003799003 -0.0015485716
0000a0 c9 ca 00 bd d5 96 c9 3a 64 ec fc b9 4b 76 35 3c
       -0.03144339 0.0015380034 -0.0004824131 0.0110755665
0000b0 27 a8 f9 bc 7d 28 ef 3d 7d c6 4b bc 3e dc 6a bc
       -0.03047569 0.116776444 -0.01243746 -0.014334736
0000c0 47 f6 4e bc 31 20 51 38 33 32 26 3d 3e d0 b0 bb
       -0.012631959 4.9859464e-05 0.040575217 -0.005395918
0000d0 cf 44 82 3e e0 f2 a5 3b 20 e7 e9 3b ca a8 e2 3d
       0.25443122 0.0050643533 0.007138148 0.1106735
0000e0 9a 9a 0b bc e8 ca 31 be 28 ac ed bd a7 a9 27 3e
       -0.008520747 -0.17362559 -0.11605102 0.16373311
0000f0 f8 89 b0 3a 52 d5 a1 3b 5e a1 b1 3c 61 fb 02 3b
       0.0013468852 0.00493876 0.021683391 0.001998626
000100 c1 46 d0 bc 62 cb cf 3c d0 9d 14 bc 2b 51 51 3e
       -0.025424363 0.025365535 -0.009070829 0.2044112
000110 11 8c 27 3a 3b af 2e be 18 6b df bb f5 29 07 bb
       0.0006391416 -0.17059033 -0.0068181865 -0.0020624374
000120 93 03 39 bb be b3 56 bb d3 60 85 3d 43 e1 e2 3a
       -0.002823089 -0.0032760943 0.065126084 0.0017309565
000130 77 de fe 3c a0 24 40 3e 20 2f 91 be d3 f4 74 3b
       0.031111939 0.18763971 -0.28356266 0.0037377372
000140 93 15 34 3b f9 1c 99 3a a0 3a 2c ba 2e 00 90 3c
       0.002747868 0.0011681608 -0.0006570015 0.01757821
000150 46 a0 81 3d f6 6e 16 3a 4e 14 2b be 2e 04 5c bb
       0.06329398 0.00057385804 -0.16706964 -0.0033571827
000160 71 f4 34 bb ac cf 70 3b d2 36 29 3e 82 75 3d 3b
       -0.0027611519 0.0036744876 0.16524819 0.0028909151
000170 7b 3d c4 3a 42 9b 51 3d a2 9c 0c bd 23 83 b6 b8
       0.0014971936 0.051173456 -0.034329064 -8.7028624e-05
000180 96 d0 41 3a f6 49 04 bd a8 11 be 3a bd 0e 47 3e
       0.00073934474 -0.032297097 0.0014501112 0.19439216
000190 6f e1 05 bc 6d 71 16 3e ef ec 6c 3e 60 0e 83 bb
       -0.008171423 0.14691706 0.23137258 -0.0039995164
0001a0 85 93 d4 3d 35 15 88 3d f0 ba 5e 3e 11 b2 43 bb
       0.103796996 0.0664467 0.21750998 -0.0029860775
0001b0 ce 6c 51 bc f5 2f bb 3a b2 eb 4f 3b 28 90 e3 3a
       -0.012782289 0.001428126 0.0031726179 0.0017361687
0001c0 2f e4 ab 3d 10 56 82 3b 71 63 52 ba 76 69 c7 3c
       0.08393132 0.0039775446 -0.0008025682 0.02434228
0001d0 21 91 9b 3d f6 86 95 3b 11 c5 09 bd 00 37 50 bb
       0.075960405 0.0045632077 -0.033635203 -0.0031771064
0001e0 bf 7a 03 bd 4c 59 4d be b9 41 5d 3c f5 6f 72 3a
       -0.03209948 -0.20053595 0.013504439 0.000924825
0001f0 f7 16 ed 3d 2e f3 ec bc 47 19 0d 3c 06 92 d1 3d
       0.11576646 -0.02892455 0.008611984 0.1023293

gnn_layers.0.gnn.att_j f4 [1, 1, 128]
000000 b8 4a 4e bd d7 fa 08 bd 8a 81 af 3b be f1 c4 3b
       -0.050364226 -0.033442345 0.0053560184 0.006010263
000010 81 5e b4 3c 15 93 47 bc d4 f2 65 bd ea 3a 9c bc
       0.02201772 -0.012181063 -0.056139782 -0.019071061
000020 85 5f d3 ba 6c b6 3e 3d b3 59 80 3b 19 7f 49 3d
       -0.001612649 0.04656069 0.003916943 0.049193475
000030 18 14 5b 3d f9 86 6b 3d be 58 51 bd a7 82 f0 bb
       0.05348596 0.057501767 -0.05111002 -0.0073397937
000040 bd fc dd bc bc 4c 83 3c e8 9a c8 3d 14 3b b0 3c
       -0.027098054 0.0160278 0.09795171 0.021512546
000050 c7 8b df 3c 3d 6a 8a bc b4 05 86 bc 4b 6b ad 3d
       0.02728833 -0.016896361 -0.016360141 0.0846773
000060 47 ed 33 3b 0e 0c fb bb 88 73 cf 3c 03 e0 21 3b
       0.002745466 -0.007661349 0.025323644 0.0024700172
000070 9f 95 a5 3d 41 bf 8a bc aa e6 b1 bc 35 e0 90 bd
       0.080851786 -0.0169369 -0.021716435 -0.07074014
000080 5a f3 53 3d 30 70 f0 3b 4e a6 3d 3b 28 13 a9 bc
       0.05174575 0.0073375925 0.0028938237 -0.020639017
000090 06 d5 aa bc ab c8 bc 3d 82 1d 3c 3b b0 42 96 3b
       -0.02085353 0.09217962 0.0028704111 0.0045855865
0000a0 4b 79 7e bc bc 4f 62 bc 94 64 17 3b 18 b9 b0 bc
       -0.015531848 -0.0138129555 0.002310072 -0.021572635
0000b0 a9 d8 5e bd 34 6d 04 3e 75 42 16 bd 1e 5d 8f 3c
       -0.054405842 0.12932283 -0.036684472 0.017500456
0000c0 ba 88 a5 ba 68 bd 66 3c 13 44 9a 3c 25 68 78 bb
       -0.0012629249 0.014083244 0.018831288 -0.0037903872
0000d0 8e 7c 35 be fe a9 c9 bc 5f 28 28 3b 43 ff 3b 3e
       -0.17723295 -0.024617191 0.0025658829 0.18359093
0000e0 32 f1 3d bc 5b a5 9d bc 81 04 fd 3c 93 e1 8a bc
       -0.01159315 -0.019243887 0.030885937 -0.016953265
0000f0 d4 91 c6 3b bc 26 30 3d 9b 9d 7a 3c 20 e8 d0 bc
       0.0060598645 0.04300569 0.015296365 -0.02550131
000100 f4 f3 89 bd 02 6f 0f be 59 38 e4 3d 1c 41 a1 bd
       -0.067359835 -0.1400719 0.1114356 -0.07873747
000110 8c 02 3c bc af 6f 82 bd 25 c2 b7 ba 3a e5 91 3a
       -0.011475217 -0.06368958 -0.0014019652 0.0011130937
000120 37 a1 0b bd e5 a7 1e bb 27 87 82 3d d7 ae 10 3d
       -0.034089293 -0.002420896 0.063734345 0.03532299
000130 b7 f2 46 3b 13 5c b4 3d 94 3c 2d 3d 74 7e 68 bc
       0.0030357072 0.08806624 0.0422941 -0.014190305
000140 9c 8b bd ba b3 3b cd ba f6 0d 51 3a 30 c2 9d 3d
       -0.0014461163 -0.001565805 0.00079747976 0.07703054
000150 0b e1 1f 3c b6 c6 3c 3d 56 b0 ba 3c 3b 60 29 3b
       0.009758244 0.046087943 0.022789162 0.0025844711
000160 c2 a9 d5 3a e8 61 93 3c 46 95 96 3d 91 07 e3 3c
       0.0016301202 0.017991021 0.073526904 0.027713569
000170 a0 78 67 bc 9f 5d d1 3d 9a f8 a2 bd 81 6b 82 bc
       -0.01412788 0.10222935 -0.07957573 -0.015920402
000180 8e d2 a5 bc 2d 53 c5 3d c4 92 51 3d 88 63 d5 3d
       -0.020242002 0.09635005 0.051165357 0.10419375
000190 25 ba 0a bb 6c 2e 6f bd 6d b0 9c 3d 63 d7 1f 3c
       -0.002116808 -0.05839388 0.07650838 0.009755942
0001a0 b3 e8 0c 3e b6 49 50 be d0 04 e2 3c 39 c1 0a 3c
       0.13760643 -0.20340618 0.027590185 0.008468919
0001b0 78 2e 78 bc 9c 83 57 3c ea fa 02 3b 95 a2 7e bc
       -0.015147798 0.013153937 0.0019985982 -0.015541692
0001c0 2f c5 04 3e d2 95 39 bc f1 e8 68 3c a1 95 af bc
       0.12965845 -0.011327224 0.014215694 -0.021433653
0001d0 19 51 6f be 58 fa 67 3c 11 90 32 bb 6c 44 c7 bb
       -0.2337078 0.014158808 -0.0027246515 -0.0060811546
0001e0 8e 94 f7 bc 49 8b c8 3d f4 eb e7 3c ee 3c 67 bc
       -0.030222204 0.097921915 0.028310753 -0.014113648
0001f0 4d 6a 34 3d 5f 54 0f bc bf 1e fd 3a ad d3 22 3e
       0.04404669 -0.008748143 0.0019311531 0.1590106

gnn_layers.0.gnn.att_em_i f4 [1, 1, 128]
000000 d5 fc 5d 3d 03 eb 46 be d9 df 5b 3e 94 67 99 3d
       0.054196198 -0.19425587 0.2147211 0.07490459
000010 54 79 a1 bd 06 0a 91 3d 8c d0 d1 3d d9 ab 14 3e
       -0.0788447 0.0708199 0.10244855 0.1451868
000020 8b 8c c8 bb 20 a7 8e bd de e0 7a 3e dd e1 c4 bd
       -0.0061202697 -0.0696547 0.24499843 -0.096133925
000030 6f ef 27 be 98 e4 61 bd db f6 92 3e 0c 00 93 3d
       -0.1639993 -0.055149645 0.2870396 0.07177743
000040 12 25 af bc f1 e8 a4 3d 45 30 5e be dd 40 97 3d
       -0.021379981 0.080522425 -0.21698101 0.073854186
000050 c7 65 25 3d 1a 81 99 3e 49 a2 c7 3d 3c 53 99 3d
       0.040380266 0.2998131 0.0974775 0.07486579
000060 77 c3 e6 3d 1f 82 a7 3c 4e 15 05 3e 04 24 53 be
       0.11267751 0.020447789 0.12996408 -0.20619208
000070 d9 2f c6 bd 62 9b 07 be 85 1b 2f bf d8 cb 3a 3c
       -0.09677095 -0.13242868 -0.68401366 0.011401139
000080 63 83 08 be 6d 30 07 bd e0 a3 04 3e 15 01 00 bd
       -0.1333137 -0.033005167 0.12953138 -0.031251032
000090 03 e4 c8 bc 97 f3 90 3d 2d 49 e0 3d dd 91 f4 3c
       -0.024522787 0.07077711 0.10951457 0.02985471
0000a0 3f d8 05 3e d0 fc 78 3d 70 05 98 bd 26 1e c6 be
       0.13070773 0.060787976 -0.07422912 -0.38694876
0000b0 d1 83 d9 3d f7 c8 01 be 56 91 2c be 7c 24 7a 3d
       0.10620845 -0.12674318 -0.16852316 0.06106995
0000c0 4a ce 58 3d ff cb 64 3c 89 2c 11 3e dd 7a 6a 3d
       0.052931108 0.013964652 0.14177145 0.057246078
0000d0 02 ed 36 be b7 ee 19 3e 32 5f 01 3e 25 94 c7 bd
       -0.17863849 0.15032469 0.1263397 -0.09745053
0000e0 e1 c9 fa bc 06 c8 99 bd b5 8e 56 bd 9c 6d 52 bb
       -0.030613841 -0.075088546 -0.05238219 -0.003210879
0000f0 b3 27 f3 3d 25 7a 39 3e 3d b6 e6 bd e2 c2 52 bc
       0.118728064 0.18113 -0.11265228 -0.0128638465
000100 4d 8b a2 bc db df c6 3d d7 ba 1c 3e 03 4e 44 be
       -0.019841814 0.09710666 0.15305649 -0.19170384
000110 3e 44 54 bf ae 92 d7 3d a3 a4 d5 bd 69 8d 0c bd
       -0.8291663 0.10526024 -0.104317926 -0.034314547
000120 f9 4f f6 3d c4 7f 8a 3d 94 33 fe 3d 02 7f 8e bc
       0.12026972 0.067626506 0.124121815 -0.017394546
000130 c9 2c dd 3c 00 d6 0e bd 62 f6 14 3f c9 67 6f 3e
       0.026998894 -0.034872055 0.5818845 0.23379435
000140 33 f6 9e bd d1 9c 67 bd 8c c0 e8 bc 82 1f 95 3e
       -0.077618025 -0.056546036 -0.028412126 0.291256
000150 f0 d8 23 be 34 d1 ca bc f8 62 ad 3d b3 b5 b1 3b
       -0.16000724 -0.024757959 0.084661424 0.0054232716
000160 54 8a a3 3c ca 48 38 3e aa 4f 82 3d 1e fb 08 3f
       0.01996342 0.17996517 0.06362851 0.53508174
000170 5d b7 24 3e 60 a1 95 bd 23 49 c4 be 34 65 8a 3d
       0.16085573 -0.073061705 -0.3833705 0.06757584
000180 4f 5e a7 3d 83 a3 bc bb 35 7d 8e 3c 5c 65 f5 3d
       0.08172285 -0.005756797 0.017393688 0.119822234
000190 3f ac 9d 3d 2b 89 ec 3c 40 2c 96 be 67 63 4c 3d
       0.07698869 0.028874 -0.29330635 0.049899485
0001a0 f5 77 e6 3c 9a 56 07 be e0 c7 b7 bd 1d 34 7c bd
       0.028133372 -0.1321663 -0.0897367 -0.061573137
0001b0 55 ec e4 3d 6d 92 54 bd 73 12 d2 3b 3b d1 6c bd
       0.11177889 -0.051897455 0.0064108907 -0.057816725
0001c0 0f ea 0a 3e 45 9e fe 3d 61 77 a1 3c 8b 11 1b 3d
       0.13565849 0.12432531 0.019710245 0.037858527
0001d0 d1 b4 03 3e 76 0e 90 3d b0 56 af 3d 98 b2 24 be
       0.12861945 0.07034008 0.08561456 -0.16083753
0001e0 34 58 37 be 78 20 af 3d 38 ba d7 bb dc 11 d4 3d
       -0.1790474 0.08551115 -0.0065834783 0.10354969
0001f0 e7 4d a8 bd da 3b 8f bd e4 cc 11 bd 6b 9a e9 3c
       -0.08217984 -0.06993838 -0.03559579 0.028516015

gnn_layers.0.gnn.att_em_j f4 [1, 1, 128]
000000 9b 84 05 3f fd 47 06 3f 1a 75 91 be b8 87 de bd
       0.52155465 0.52453595 -0.28409654 -0.1086573
000010 4d b2 9e be 65 5e 3a bc 13 56 ce 3d 9f 58 0b 3d
       -0.30995408 -0.0113750445 0.10075011 0.034020063
000020 e4 15 1d be 8b f0 aa bb 23 96 b6 be 4d 11 2b be
       -0.15340382 -0.0052166632 -0.3566142 -0.16705818
000030 cf e3 09 3f e6 bc 80 3c ce 8f bb be c3 8d 5b bd
       0.53863233 0.015715074 -0.36633152 -0.05360199
000040 61 52 7e 3b dc 50 e3 be a1 44 c4 3e 4b db 10 3d
       0.0038806426 -0.44397628 0.3833361 0.035365384
000050 96 40 14 be d3 66 df 3d d6 2b 78 be c0 74 63 3d
       -0.14477763 0.10908284 -0.24235472 0.055531263
000060 ea 6a cb 3b 32 6a d0 3c 2c 51 e2 bd 34 ed 00 3f
       0.0062078135 0.025441263 -0.110506386 0.50361943
000070 e0 0f 9c 3d 66 6d 8e bd 25 6d ea bd 9e b2 0e 3b
       0.076202154 -0.0695446 -0.11446599 0.0021773945
000080 45 fe d8 bd 37 07 07 3e 16 02 07 be a7 c4 00 be
       -0.10595373 0.13186346 -0.1318439 -0.12575017
000090 be ab 0a 3d 2e f3 ea bd 1f 80 fb bc 51 e4 0c 3d
       0.033855192 -0.11472164 -0.030700741 0.034397427
0000a0 74 da 0c bc 2f 7b 90 be ee 37 89 bd 23 45 61 be
       -0.008597005 -0.28218982 -0.06700121 -0.2199903
0000b0 c6 81 f8 bc d3 62 06 3f 6a ec cd 3e b3 55 2b be
       -0.030335318 0.52494544 0.40219432 -0.1673191
0000c0 f8 7f 04 be c5 a9 9c 3b 42 7a 3a bd eb 7a 63 be
       -0.12939441 0.0047809803 -0.04552675 -0.22214858
0000d0 32 0e 28 bc 7c 08 c1 be 1d a8 4e be 45 96 b3 3e
       -0.010257291 -0.37701786 -0.20181318 0.35075584
0000e0 ad 92 3b bc 68 c6 c7 bb 8b f6 df 3d 2f 27 49 be
       -0.011448544 -0.00609665 0.10935696 -0.19643854
0000f0 80 f6 21 bd 03 8a a4 be c6 80 84 3f f1 de 85 3d
       -0.03954172 -0.32136545 1.0351799 0.06536663
000100 82 4d 2e 3c 4b 93 c1 be 4a 74 97 bd a2 ed e5 3e
       0.0106385965 -0.37807688 -0.07395227 0.44907862
000110 e8 81 18 bf 5b 8d 96 be 74 93 4c be c7 f2 0f 3e
       -0.5957322 -0.2940472 -0.19978124 0.14057456
000120 94 27 09 3c 98 36 a2 be 3a 11 3b be af a3 56 bc
       0.008371253 -0.31682277 -0.1826829 -0.013100549
000130 68 67 0d be 30 57 46 3e d6 16 91 be e9 12 e3 3d
       -0.13808978 0.19369197 -0.28337735 0.11087591
000140 3e e4 f5 bd 25 30 ce bb 41 e4 4e bc 74 bb 75 be
       -0.12006424 -0.0062923604 -0.012627662 -0.23997289
000150 96 8d b4 3f 38 a7 e9 bd f6 8f 16 bd 30 e6 90 bd
       1.4105709 -0.114088476 -0.036758386 -0.07075155
000160 0e 6a d8 bd 69 27 03 bc db 12 60 bd 6b d1 11 bd
       -0.10567103 -0.008005002 -0.054705482 -0.035600107
000170 06 30 9c be 06 c5 a5 bd 56 45 8a 3e 8e a3 32 be
       -0.3050539 -0.0809422 0.27006024 -0.17445204
000180 15 ec 82 bd b5 f5 48 3e a0 e5 8e 3c 7e 78 4c 3d
       -0.06392685 0.1962498 0.017443478 0.049919598
000190 4c c2 0a 3c c1 88 3b 3f 96 87 0c 3f 2e 78 f1 3d
       0.008469176 0.73255545 0.5489439 0.117905006
0001a0 ce b5 94 bd 1c 98 35 be 90 f4 ec 3e 48 31 e0 bc
       -0.07261239 -0.17733806 0.46280336 -0.02736725
0001b0 e3 c8 b4 bd f2 f6 17 3e 6b 49 fb bd 08 4a 01 3e
       -0.088273786 0.14840296 -0.12269863 0.12625897
0001c0 6c 6a 53 be ed 7e 40 be 19 18 8d bd c0 a3 0d be
       -0.20646065 -0.18798418 -0.06889362 -0.13831997
0001d0 ec 4b c0 be 17 9c af be d8 1a 87 3c c6 f4 80 3d
       -0.37557924 -0.34298775 0.016492292 0.06296687
0001e0 5b 34 f2 bc e7 91 19 3d 64 42 43 be 02 d7 0e be
       -0.02956598 0.03749266 -0.19068295 -0.13949206
0001f0 db 18 2d be 05 37 23 be 94 e6 bf 3d 16 73 be be
       -0.16904013 -0.15938957 0.09370151 -0.3719718

gnn_layers.0.gnn.bias f4 [128]
000000 8c 7f 26 3c 64 6a c4 bb 09 b0 86 ba 8b cc e2 bc
       0.0101622455 -0.005994128 -0.0010275851 -0.027685424
000010 5e bc e2 3b 11 ec 6a bb 82 72 c2 bd ae ad 72 bb
       0.006919428 -0.0035846273 -0.09494497 -0.003702979
000020 8d d9 d0 3b 50 5e 06 bc d0 bc 3a 3b b3 61 1b 3c
       0.0063735903 -0.008201197 0.0028493889 0.0094837425
000030 66 cc 6d bb b8 74 ce bc 65 ef b7 bb 78 b9 8a bc
       -0.003628516 -0.02520214 -0.005613255 -0.016934142
000040 e5 ae 27 bb 4f 4f 64 bb 1c 3d 67 be bf fe 57 3b
       -0.0025586423 -0.003483731 -0.22581905 0.0032958237
000050 97 ef c1 bb 6b 9f 6c 3d 50 fa 1a bb 97 b3 01 3c
       -0.005918454 0.05776922 -0.0023647733 0.007916353
000060 18 6d 90 bb 57 83 1f bc 87 24 b6 bc f0 1e 25 3c
       -0.0044075362 -0.009735904 -0.022234214 0.010078177
000070 01 b5 39 be 35 d9 33 bb fa 7e 8b bf d1 c6 10 bc
       -0.18135454 -0.0027442698 -1.0898125 -0.008836464
000080 bc 6d a2 3b cd 54 8b 3b 52 db 80 bb fe 4c 3c bb
       0.004956929 0.0042520524 -0.003932395 -0.0028732414
000090 ce 50 97 bb c3 66 c0 bc c5 d8 c8 ba e1 7e 94 3c
       -0.004617787 -0.0234865 -0.0015323391 0.018126907
0000a0 73 c1 3f 3d 18 4d 46 bb 96 19 46 3c 29 ab 57 3c
       0.046815347 -0.0030258354 0.012091061 0.013163366
0000b0 e1 ef 36 bc 47 a0 4d bd 14 e9 88 bb 62 04 02 3c
       -0.01116559 -0.05020168 -0.0041781757 0.007935615
0000c0 2b ad 43 bd b0 10 02 3b 57 74 14 bc 02 35 fd ba
       -0.047772568 0.0019846372 -0.009060941 -0.0019318166
0000d0 4c 6c 00 bc 5b 4c 28 bb a2 40 15 bc af 6b fe be
       -0.00783832 -0.0025680277 -0.009109648 -0.4969153
0000e0 da d6 3d 3c e7 26 06 bc d6 fc a1 bb df 2a 12 3c
       0.011586869 -0.008187986 -0.0049434705 0.008921354
0000f0 d6 4b 14 bc 09 c6 55 3d 44 dd d6 3a 7a b1 83 bb
       -0.009051284 0.052190814 0.0016392847 -0.0040189596
000100 72 89 6c bc eb 0e 2f 3d 34 70 2b 3b bd 49 a3 bb
       -0.014437066 0.042738836 0.0026159408 -0.0049831555
000110 2e b6 e4 bb 27 9a fc bb ba df 10 3d f6 0e 5b 3b
       -0.0069797253 -0.007708806 0.035369612 0.0033425665
000120 b3 de 4f bb 97 ba 2b 39 08 7f ad 3c f8 82 30 3a
       -0.0031718432 0.00016377341 0.021178737 0.0006733383
000130 1e 9a 99 3d c5 d1 67 3c 76 53 c5 bb 76 dc 7c bb
       0.07500099 0.014149134 -0.006021912 -0.0038583553
000140 20 cf 97 bb 58 01 e1 bc 2f e3 19 ba b5 2f 85 bb
       -0.0046328455 -0.027466461 -0.000587034 -0.004064525
000150 8c 91 98 be 57 9a 9a 3a 4f 95 b5 bb 65 f0 a4 bb
       -0.29798543 0.0011795264 -0.0055414806 -0.00503354
000160 f3 c9 8a bb 1f fe 56 3e 6b 31 a4 3c eb 5e c6 bd
       -0.0042355 0.20995377 0.020043096 -0.09686073
000170 79 90 63 bb 79 87 2a 3c e9 9c 47 bc e5 77 4e bb
       -0.0034723564 0.010408276 -0.012183406 -0.0031504568
000180 47 a3 fd ba 3c 54 1a be ee 73 03 3c 70 b2 1c 3c
       -0.0019351029 -0.15071195 0.008023245 0.009564027
000190 d0 53 fc 3c b0 c0 d8 3c 02 19 a2 bd 4a 3c 7f 3b
       0.030801684 0.026459068 -0.07914926 0.0038945847
0001a0 c5 86 03 3c 1b b9 4b 3e 40 22 b6 bf 42 04 08 3a
       0.008027737 0.19894831 -1.4229202 0.0005188623
0001b0 c1 f9 be bb 97 53 89 3b 3b 11 b2 3b 37 3d b4 bb
       -0.005828113 0.004190873 0.005434183 -0.0055004614
0001c0 b3 66 5e be 3f c1 80 bb 31 d3 60 bb 68 f8 b5 3c
       -0.21718864 -0.0039292867 -0.0034305567 0.022213176
0001d0 34 df 58 3d 8a f1 a9 bc 5e c2 2c bb 3b 86 ad bc
       0.052947238 -0.020745058 -0.002636097 -0.02118217
0001e0 01 7a 88 bb 8d 14 07 3c b6 83 20 bc 91 86 40 bb
       -0.0041649346 0.008244646 -0.009797027 -0.0029377083
0001f0 c9 42 b6 bb 5f fe 44 bd 07 b0 8d 3b 82 7e b3 bd
       -0.0055621606 -0.04809415 0.0043239626 -0.08764364

gnn_layers.0.gnn.lin.weight f4 [128, 75]
000000 bc bd fa 3d a2 50 3d be 0a 6b 25 3e 0b 3f 55 bc
       0.1224322 -0.1848779 0.16154113 -0.013015519
000010 77 4d 19 3e ef 0d 8c bd 27 48 fa bd 03 fd 9b 3d
       0.14970957 -0.06838595 -0.12220793 0.076166175
000020 6f ac 76 3c 81 53 d5 3d 42 c6 81 3e 9d 33 35 3d
       0.01505576 0.10416318 0.2534657 0.044238675
000030 80 d6 e9 3d c8 20 98 3d 5a 8c 0a 3e ff a3 9b be
       0.11417866 0.074281275 0.13530102 -0.30398557
000040 fa 5f 2b 3e b5 3f 70 3d f9 a7 4c 3e e8 62 35 3d
       0.16735831 0.058654506 0.19985951 0.044283777
000050 52 84 a6 3d fe e3 b0 3d 67 43 e9 3d 9f 87 8b 3c
       0.08130707 0.08637236 0.11389809 0.017032443
000060 b8 1c 92 3d d8 b1 07 bc 7a f9 03 3e c9 24 84 3d
       0.07134384 -0.008282147 0.12888137 0.06452329
000070 9e 64 b4 3d 6c d1 d2 bd a7 f2 af 3d 32 92 46 3c
       0.08808254 -0.1029385 0.08591204 0.012119817
000080 d3 97 cc 3c 1d 43 76 3d 05 ce c6 3d e7 ff 0d be
       0.02497474 0.060122598 0.09707264 -0.1386715
000090 0f a5 17 be 75 23 c7 3d 29 4d 43 3e 4a dd c5 bd
       -0.14809059 0.0972356 0.19072403 -0.09661348
0000a0 5d 5b e8 3d 37 5d 27 3e dc 20 26 3e f2 ae 95 3d
       0.11345551 0.16344152 0.16223472 0.07308759
0000b0 d3 14 92 3d a4 ec 79 be 15 3c 2d bb f9 be 10 3e
       0.07132878 -0.24406677 -0.0026433517 0.1413535
0000c0 f4 51 80 3d b8 7c 27 3e 46 09 ad 3d 09 14 2f 3e
       0.06265631 0.1635617 0.084490344 0.17097487
0000d0 e1 74 0c 3e f5 00 44 3d 94 45 a7 3e 1d 18 8c bd
       0.13716461 0.047852475 0.3267027 -0.06840537
0000e0 47 51 1b 3e 0b cd 26 3e 1d 7f 8d 3e 87 b5 b6 3d
       0.15167724 0.16289155 0.27636042 0.08921342
0000f0 db 73 45 bd 54 8d 17 3e f4 87 be 3d 4c e9 d4 3d
       -0.04820619 0.14800006 0.09303275 0.1039606
000100 1b 7b 9b 3e a9 3d 09 be c6 45 61 3e ee f8 e4 3d
       0.3036736 -0.13402428 0.21999273 0.11180292
000110 b3 50 ab 3d 02 a0 8a 3e 31 50 d3 bd da 6f 4b 3e
       0.083650015 0.270752 -0.1031803 0.19866887
000120 24 f9 c1 be 81 7c c2 be b9 3d 87 bf 10 bb 79 3d
       -0.37885392 -0.37985614 -1.0565711 0.060969412
000130 d2 6e 28 3d b6 ae 7c 3d 67 8e c4 bd 6f 76 49 3d
       0.04112131 0.061690055 -0.095974736 0.049185213
000140 33 7f 01 be d1 bf 17 3e e2 ca 75 3d 3c 3f 1e 3d
       -0.12646179 0.14819266 0.060007937 0.038634524
000150 88 85 79 3d 0a 9e 84 3d e7 67 e5 bc 12 33 ac 3d
       0.06091836 0.06475456 -0.028003646 0.084081784
000160 57 2a 1b bd de 50 07 3e 8b bd 63 be 7f b4 8e 3d
       -0.037882175 0.13214442 -0.22240274 0.06968021
000170 2b 37 03 3e cb 72 de 3b 24 d0 7d 3d ae 42 23 be
       0.12814014 0.0067885867 0.061966076 -0.15943405
000180 ef ec 9a 3d cb b2 2f bb c9 90 3f 3d 7e e6 81 3d
       0.07564723 -0.002680945 0.046768937 0.06342791
000190 ca 16 9d bd 24 c7 27 3e 76 7e ec 3c 6e 75 3f 3a
       -0.07670362 0.1638456 0.028868895 0.000730357
0001a0 f9 2f 40 bd 1d f8 ee bc c3 90 42 bd 0f 6f c5 3c
       -0.04692075 -0.029171044 -0.047501337 0.024100808
0001b0 f6 80 fc 3c 50 b8 8c 3d 10 97 69 bd 4d 30 bb bd
       0.030823212 0.06871092 -0.05702883 -0.09140072
0001c0 24 65 ce 3c 6a 01 aa 3d 9b f1 15 bd 79 a0 01 3e
       0.025194712 0.08301051 -0.036607366 0.12658872
0001d0 26 c3 6b 3d ed 02 8e 3d 1f aa 97 3b 4e c8 28 bd
       0.057559155 0.06934152 0.0046284343 -0.04120665
0001e0 0b b4 af bd 7e 06 d8 3c 89 dc a7 3d bf ae a4 3d
       -0.08579262 0.026370283 0.081963606 0.08041143
0001f0 27 be 91 3c 49 ed 54 3d fd e0 b7 3c e5 00 9e bd
       0.017790867 0.051984105 0.02244615 -0.07715014
000200 6e c2 5f 3d 8d 52 23 3e 10 e8 30 3d 3c 77 cb 3d
       0.054628782 0.1594946 0.043190062 0.099348515
000210 62 fc bd 3c 63 30 ed 3c a8 37 8a bb 66 7f ac bc
       0.023191635 0.028953737 -0.0042180605 -0.021056842
000220 52 e0 c4 3d 52 bc fc 3c 50 6c 4d 3d a9 3c 9a 3d
       0.09613098 0.030851517 0.050152123 0.07531101
000230 dc e0 3a bd 2a 8a b1 3d 6f 3e ab bd 49 6f 33 bd
       -0.0456246 0.08668931 -0.08361518 -0.0438073
000240 18 82 ca 3b 7a 2b 71 3d 81 20 c6 bc be d7 93 bd
       0.006180059 0.058879353 -0.024185421 -0.07218884
000250 92 5e 95 bb fd 1d e1 3c 70 ee c4 ba bc cb 07 bd
       -0.004558393 0.02748012 -0.0015024673 -0.03315328
000260 86 8d 17 3c af 0d 4f bd c1 a3 a3 3d d3 f1 f4 bc
       0.00925005 -0.05055016 0.07990218 -0.029900467
000270 b6 b4 50 bd e4 ee 86 bd cf b4 b7 bc 79 05 49 bd
       -0.05095359 -0.065885335 -0.022425083 -0.049077485
000280 5b ec 36 bc fb 49 7a bd 45 03 44 bd bb 10 32 bd
       -0.01116475 -0.06110571 -0.04785468 -0.043472987
000290 6e 88 c6 3c 43 66 4a bd fe 2b 9c 3c 04 85 7c 3c
       0.024234977 -0.04941393 0.019063946 0.015412573
0002a0 2e cf a0 bd 97 f4 34 3d 5c 7f 81 3c 18 7c 0f 3d
       -0.078520164 0.04417857 0.0158078 0.035030454
0002b0 a5 a2 c4 bc a5 cf 83 3d 3f 67 3e 3d ff 20 08 3e
       -0.024003336 0.064360894 0.046485182 0.13293837
0002c0 7c f5 91 3d a1 82 4e bd 5c 12 86 bc 22 4f 11 3c
       0.071269006 -0.050417546 -0.016366176 0.008868964
0002d0 07 ad 51 bc 03 ed 17 be 62 b6 96 bd 56 ef d1 3c
       -0.012797601 -0.14836507 -0.073590055 0.02562682
0002e0 86 fe cf bd d7 94 2f 3b 86 5e 81 3d 0f a5 86 bd
       -0.10155968 0.0026791596 0.06316857 -0.06574451
0002f0 2d 10 1b bd b3 b3 68 3d ee 27 a5 bc 90 fb aa bc
       -0.037857223 0.056812 -0.020160642 -0.020871907
000300 76 2f 5c bd ef 16 2a bd c8 7f 26 bd 21 0e 38 bd
       -0.0537562 -0.041525777 -0.040649205 -0.04493535
000310 b5 02 95 bc d8 0d 4e bb 9e 0a 85 bd 25 29 55 bd
       -0.018189767 -0.0031441357 -0.06496166 -0.05204119
000320 2d 71 c1 bc ba 20 de 3c 02 6e 5e bc ed cc 37 bd
       -0.023613537 0.027115215 -0.013576033 -0.044873167
000330 4f 19 ab bd e3 8c 4a bd 61 e2 d2 bc 5c 53 0b bd
       -0.083544366 -0.049450766 -0.025742711 -0.034015045
000340 40 89 25 bd cd 3e a4 bc c2 a8 a3 bd 5f b1 05 bd
       -0.040414095 -0.020049477 -0.079911724 -0.032639857
000350 d7 86 82 bb 0f b5 0d be 99 a6 05 bc 76 a4 46 3d
       -0.0039833593 -0.138386 -0.008157396 0.048496686
000360 79 b7 fc 3c 3c ff 0d 3c 52 dd 35 bd e0 ee 68 3d
       0.030849205 0.00866681 -0.04440052 0.056868434
000370 52 ea 67 bd e8 f6 ee 3c 7c bd f9 3c c0 1d 0e bd
       -0.05661995 0.029170468 0.030485861 -0.03469634
000380 59 ea 70 bd 3b d0 ee 3d 80 fc 2a 3d 58 20 5b 3c
       -0.05881724 0.116608106 0.04174471 0.013374411
000390 9b 4e 0e 3d b3 7d 61 3d 56 de b6 3d ff 41 8e 3c
       0.034742933 0.055051517 0.08929126 0.017365454
0003a0 46 c1 57 3b d3 9e 85 3d dc e4 d3 3d 12 9c b3 bb
       0.0032921596 0.06524434 0.10346386 -0.0054812515
0003b0 1a 10 4e 3d bb 44 6d bc a9 4f 42 3d ef ef bf 3c
       0.050308324 -0.014481719 0.04743925 0.023429839
0003c0 94 45 66 bd 82 3c 83 bd c5 6b d1 3c 0b e2 df bf
       -0.0562187 -0.06408025 0.025564084 -1.7490858
0003d0 75 66 26 c0 b5 81 9b bc b6 09 42 bd 93 be e9 3b
       -2.6000035 -0.018982748 -0.047372542 0.007133314
0003e0 77 19 7d 3b 92 f2 00 bc e3 65 ff 3a b0 74 dd bc
       0.0038619915 -0.007870333 0.0019485321 -0.02703318
0003f0 48 96 5c bd 44 c8 10 bd 9d cd d7 bc 5d ce bf 3c
       -0.053854257 -0.03534724 -0.026343161 0.023413831

gnn_layers.0.bn.weight f4 [128]
000000 96 9e 54 3f 1c 32 f5 3d 92 11 19 be 6d 9e 89 3f
       0.8305448 0.11972448 -0.14948109 1.0751473
000010 2c a1 91 3f 01 b7 ef 3d e1 f7 b6 3f 20 fa 87 3e
       1.1377311 0.11704827 1.4294397 0.26558018
000020 e0 cd 2e 3f ac 84 35 3f 03 81 04 3f e1 e8 1a 3f
       0.6828289 0.70905566 0.51759356 0.60511595
000030 c4 f0 3e 3f 5e 8c d3 3f 56 9b 2a 3e e2 7a ec 3e
       0.7458613 1.6527212 0.16660818 0.46187502
000040 fc 2a 1e 3e ee 06 ca 3e f3 88 af 3f ab da 20 3e
       0.15446085 0.39458412 1.3713669 0.15708415
000050 f4 90 fa 3d 3f f6 84 3f 81 44 20 3e 50 76 86 3e
       0.12234679 1.0387648 0.15651132 0.2626214
000060 ff 30 42 be d1 6f b1 3d b0 ea a7 3f 5d ea 71 3f
       -0.18964003 0.086639054 1.3118496 0.94498235
000070 66 bc c3 3f e1 90 7c 3e 94 e4 1c 3f b9 ef 14 3f
       1.529187 0.24664642 0.6128628 0.5817829
000080 ea c6 52 3f b7 2c 4a 3e 34 a0 38 be a6 b5 26 3f
       0.8233477 0.1974362 -0.18029863 0.65120924
000090 18 6b 61 3e a9 25 c7 3f 70 ef ac bd 60 57 49 3f
       0.2201351 1.5558368 -0.084441066 0.7864895
0000a0 a0 ce 90 3f 24 46 0e 3e 02 e9 86 3f 88 32 36 3f
       1.1313057 0.13893944 1.0539858 0.71170855
0000b0 bd 90 bd 3e 0a d0 9b 3f 7d 0a b2 3e 57 a4 1e 3f
       0.3702449 1.2172863 0.34773627 0.6196951
0000c0 a9 66 ad 3f 96 22 14 be 62 d3 78 3f 91 3f 07 3f
       1.3546954 -0.14466318 0.97197545 0.5283137
0000d0 d7 c8 3b 3f 24 cd 0d 3e 75 d0 fe 3e e8 5e bb 3f
       0.7335333 0.13847786 0.49768415 1.4638338
0000e0 d8 81 df 3e 1d 81 c6 3e 35 50 4d 3e a1 ce 31 3f
       0.4365375 0.3877038 0.20050128 0.69455916
0000f0 6b da f0 3e e3 96 c0 3f ef 17 3b 3e 88 f2 7f 3e
       0.4704164 1.5046047 0.18270849 0.24994862
000100 5f 77 b2 3e ee a4 91 3f 2b 15 52 3f 2b d4 a8 3e
       0.34856698 1.1378458 0.8206355 0.3297437
000110 8d f0 46 3f 1a 25 1b 3e 3a 2b 39 3f d5 59 11 3e
       0.777108 0.15150872 0.72331583 0.14194424
000120 19 2e 4f 3e 00 b8 34 3e d3 e6 71 3f eb e9 19 3f
       0.20232429 0.17648315 0.94492835 0.60122555
000130 54 4d d0 3f f7 9c 92 3f 36 bf 0f 3e e4 c8 13 3e
       1.6273599 1.1454152 0.14037785 0.14432102
000140 32 e3 13 3e dd a8 ec 3e 6f 90 d7 bd 4a 54 25 3f
       0.14442137 0.46222582 -0.105255954 0.6458174
000150 6a 6a 7b 3f 33 6f 21 3f d5 7b 88 3e 87 db db 3d
       0.9820925 0.630603 0.26656976 0.10735231
000160 3a 3e 31 be 37 a3 10 3f 80 30 7e 3f f8 e1 8d 3f
       -0.17308894 0.56499046 0.99292755 1.1084585
000170 ba fc e1 3d b1 b4 03 3f 2e a6 64 3e c7 66 05 3e
       0.11034532 0.5144759 0.22329018 0.13027488
000180 36 23 20 3e 0e 9a 8b 3f af 86 ca 3e ba ed a3 3e
       0.15638432 1.0906389 0.3955588 0.32017308
000190 42 6d 89 3f 1d 2b 56 3f 32 81 8e 3f bf 10 f7 3d
       1.0736468 0.83659536 1.1133177 0.12063741
0001a0 ef 7e d5 3e c6 59 9f 3f 38 e4 ae 3f 93 bf f7 bd
       0.41698405 1.2449272 1.3663397 -0.12097087
0001b0 bc 07 54 3f 2a 2d 06 3e 12 dd 9b 3e cf dd 68 3e
       0.828243 0.13103166 0.304421 0.22740863
0001c0 0a a0 bf 3f dd 01 80 3e ac 09 e1 bb 47 c3 90 3f
       1.4970715 0.25001422 -0.006867608 1.1309594
0001d0 9a 64 b0 3f e3 7e 9c 3f 50 f2 19 3f 76 a7 0c 3f
       1.3780701 1.2226223 0.60135365 0.54943025
0001e0 e5 80 e9 3e 5a 20 53 3e 25 9c c4 3f 90 72 20 3e
       0.4560615 0.2061781 1.5360152 0.15668702
0001f0 48 3d b5 3f cb 11 ba 3f 89 d5 80 3e 79 cb b3 3f
       1.4159327 1.453668 0.25162914 1.404647
