model_normal/gdn_smap50.pth (torch, 42869 bytes, 16 tensors)

embedding.weight f4 [25, 64]
000000 9a bb c0 3d 3e 47 92 bd 03 4e 29 be 19 cd 2a 3e
       0.09410782 -0.071424946 -0.16533665 0.16679801
000010 84 9a 28 be a6 50 fe bd 13 67 5a 3e 7d e0 22 3e
       -0.16465193 -0.12417726 0.21328382 0.15905948
000020 78 24 e2 bb c8 79 f0 bc af 24 8a 3e 50 f5 a9 bf
       -0.00690132 -0.029354945 0.26981112 -1.3277988
000030 6b 13 87 be 53 2b 07 bf 28 ca 0b 3e 8f 21 8c 3e
       -0.26382002 -0.5280048 0.13651335 0.27369353
000040 de b1 d7 3e ac 56 bd 3d e0 94 c2 3e 6e ee 55 3e
       0.4212789 0.09245047 0.38004208 0.20891735
000050 9b e1 55 be b9 a6 ec 3d e3 52 12 bf ca 9f 50 3e
       -0.20886843 0.11555237 -0.57157725 0.20373455
000060 f8 31 b7 3e 9a f3 e0 3d 2a c4 1c be 48 92 fc 3d
       0.3578031 0.10983963 -0.15309206 0.123325884
000070 ef 76 3b be 89 1d 4c 3e 20 19 8e bd f8 6e 97 be
       -0.18307088 0.19933142 -0.06938386 -0.2957685
000080 a0 26 48 be ba 57 29 be 65 13 19 be bb d9 1f 3e
       -0.19545984 -0.16537371 -0.14948805 0.15610401
000090 9d 1d 1f bc 82 8c fd be 19 34 b7 bf ba b4 00 3e
       -0.00971165 -0.4952126 -1.4312774 0.12568942
0000a0 17 e6 22 be 4e 56 82 3e 8b dc c1 bd 83 26 03 bd
       -0.15908085 0.2545647 -0.09465893 -0.03201915
0000b0 40 74 9b be de 67 3d bd 2f 2b df 3d ca fc b3 3e
       -0.3036213 -0.046241634 0.108969085 0.351538
0000c0 5b fe c9 3d 39 d3 fb bd 0d 0e 50 be 70 fb 94 3e
       0.098629676 -0.12296147 -0.2031786 0.29098082
0000d0 ed de cf 3d 58 2e ce bd a9 d6 4b bd 41 f8 72 be
       0.101499416 -0.10067433 -0.049765263 -0.23727514
0000e0 70 94 12 3f ec ff 2a be 8b 20 8f bd 36 3d aa 3e
       0.5725775 -0.16699189 -0.06988629 0.33249825
0000f0 6e 73 23 be 88 89 06 3e 1b bd 57 3e a7 6c c7 3d
       -0.15962002 0.13138402 0.21068232 0.09737521
000100 7d fb 2c be 79 0c d5 bd e8 d9 55 be fa fe 08 bd
       -0.1689281 -0.104027696 -0.20883906 -0.03344629
000110 33 e2 9d be 13 b6 2e 3e ce 0e 97 bf d3 22 17 be
       -0.3083664 0.17061643 -1.1801393 -0.14759378
000120 33 64 ae bf 8e c1 f2 bc f9 3c 9a bf 73 85 a2 be
       -1.3624328 -0.02963331 -1.2049857 -0.3174244
000130 5f d3 b5 be 84 e6 fd bb e1 68 ca bd e3 bd 02 bd
       -0.35512826 -0.007748427 -0.09883285 -0.03191937
000140 76 5b df 3c 41 c5 11 be 25 c9 62 bf 47 10 69 be
       0.027265292 -0.14235403 -0.8858817 -0.22760116
000150 71 b4 ac 3e 39 54 23 be 4f 93 95 be 3e 7e bf bd
       0.33731416 -0.15950097 -0.2921395 -0.09350251
000160 d8 cc 38 bf 36 91 76 be 9e 29 c3 bf 8e 59 dc bc
       -0.72187567 -0.24078831 -1.5247076 -0.026898172
000170 9c 94 74 be 0b da 24 bd d1 71 15 be 51 05 84 3f
       -0.23884815 -0.040247004 -0.14594199 1.0314122
000180 e1 6e 0d 3e 08 4f a9 bd 52 fc 07 3f 66 19 88 be
       0.13811828 -0.08267027 0.53119385 -0.26581877
000190 ef 7d 84 be 1a ac ce be 8f c9 21 bf 8a 68 c2 bc
       -0.2587733 -0.40365678 -0.6319818 -0.023731489
0001a0 f9 02 39 be 9e e8 a7 3e bb 4c 83 3e 72 5f e4 bc
       -0.1806754 0.3279466 0.25644478 -0.027877543
0001b0 91 d5 f0 bc db 29 4c bd 17 82 9e bc 20 9b 73 bf
       -0.029398711 -0.049844604 -0.019349141 -0.95158577
0001c0 e7 57 96 bc 49 66 1f bf 97 32 68 be 8b 71 d6 bf
       -0.018352462 -0.6226545 -0.22675548 -1.67534
0001d0 52 20 43 be 46 74 e6 c0 fb 23 3d bf d1 3e 9b 3e
       -0.19055298 -7.2016935 -0.73883027 0.30321363
0001e0 e5 48 b9 3b 2e e5 37 3e 28 fd 4b bd 2b b8 9a 3d
       0.0056544417 0.17958519 -0.049801975 0.075546585
0001f0 35 6a 22 be 15 c3 39 bd 8f d6 8a be 99 c3 2c be
       -0.15860827 -0.04535206 -0.2711682 -0.1687149
000200 9f 9f 62 be f7 65 cf 3d db 3a 1c bd 6e 58 92 be
       -0.22131203 0.1012687 -0.038142066 -0.28583091
000210 ea c1 05 be d8 c9 4e bd e2 0c 5d be 2a 19 da be
       -0.13062254 -0.050485462 -0.21586946 -0.42597324
000220 e8 c1 14 c0 12 00 5d bd 30 b7 d7 be 96 fd 1d 3e
       -2.324335 -0.053955145 -0.42131948 0.15428767
000230 4b d6 bd bd 80 ac be 3e 66 a3 03 be 44 c3 25 bf
       -0.09269389 0.37240982 -0.128553 -0.64751077
000240 8e e2 bb be 97 c8 78 be ea 4a 6c be 04 86 8a bf
       -0.36696285 -0.24295269 -0.23075452 -1.0822148
000250 ae 30 c7 bf bd 1c 4a bf c7 6d f0 bf 86 a2 05 bf
       -1.5561731 -0.789501 -1.8783501 -0.52201116
000260 18 b3 5b 3d 40 2a 59 bf cb a0 e2 bf ce 45 46 bf
       0.053637594 -0.84830093 -1.770532 -0.77450264
000270 29 c8 cc be 58 5a 27 bf cc 2e 27 bd 91 ff bd 3f
       -0.3999646 -0.6537223 -0.040816113 1.4843618
000280 83 f4 ef 3d 66 19 cf 3c bf 29 44 bf 23 2e 60 bf
       0.11716559 0.025280666 -0.766262 -0.875704
000290 8a ae 04 c0 71 57 04 3d b1 ff b4 3e bd ee 6c bf
       -2.073153 0.032309953 0.35351327 -0.92551786
0002a0 28 1e ad be df f1 8e 3e a1 ff b6 3c 57 18 13 3d
       -0.3381207 0.27918908 0.02233869 0.035911884
0002b0 26 32 9e 3e b1 9a 26 bb 3e cd 94 bf b5 76 5e 3e
       0.30897635 -0.0025421793 -1.1625135 0.2172497
0002c0 2c 1f 03 bc 38 59 13 c0 bc 87 b1 bd 8e 75 a0 bf
       -0.008003037 -2.3023205 -0.086684674 -1.2535875
0002d0 e2 cb 55 bf 2a db 5c c0 46 9a 13 3e b1 dc b9 bc
       -0.83514225 -3.4508767 0.1441432 -0.022688242
0002e0 1a cf ae 3e 08 68 76 bf b9 46 80 3e 87 40 14 be
       0.3414238 -0.9625249 0.25053957 -0.1447774
0002f0 ab 36 c3 be 98 62 eb be 6f 0f 07 bf 1e 29 8e be
       -0.38127646 -0.4597366 -0.52757925 -0.27765745
000300 bb 4d 1c be c8 28 0a bf b5 e6 28 be 73 88 65 bd
       -0.15264027 -0.5396848 -0.16494258 -0.05603833
000310 11 e8 99 bf 80 e5 33 3e 6f a4 ac bf f2 b4 01 be
       -1.2023946 0.17568016 -1.3487681 -0.12666681
000320 79 ea a6 bf 2f 99 9e bc 97 e9 67 bf 87 49 e3 be
       -1.3040305 -0.019360153 -0.90590805 -0.44392034
000330 ca a6 eb be 77 31 a0 bd c1 ea c2 bd 37 7e c6 bd
       -0.46025687 -0.07821935 -0.09517432 -0.09692042
000340 0f 7d 6e bc 66 50 0c be 37 4f f7 3d 03 ca d6 bd
       -0.0145561835 -0.13702545 0.12075656 -0.104877494
000350 80 b2 c2 3e 82 c4 2b be 7c 3b 8d be 31 27 c2 bd
       0.3802681 -0.1677418 -0.27584445 -0.094801314
000360 ee a0 f2 3d b9 10 70 be 8f 0a 98 bf a5 1c 86 bd
       0.11847101 -0.23443879 -1.1878222 -0.06548432
000370 d5 c4 5d bf e2 8d 7e bd cd 01 b7 be b1 26 75 3f
       -0.86628467 -0.06214703 -0.3574356 0.95762163
000380 06 22 0b 3e d1 76 eb bd b7 e2 1c 3f 44 02 a7 be
       0.13587198 -0.11497272 0.6128344 -0.32618916
000390 bc 99 28 bf 8d 49 7a 3e ee f4 f3 3e 45 ad f6 bc
       -0.6585958 0.2444212 0.47647804 -0.030111918
0003a0 7f 6e 94 be ff 4a ba 3e e5 43 c7 be 62 81 fa bc
       -0.28990552 0.36385342 -0.38918987 -0.030579273
0003b0 e9 23 c6 bd 4b 46 5d bd 84 44 07 bd 38 c7 01 3e
       -0.09674818 -0.054022115 -0.033024326 0.12673652
0003c0 b9 14 5b bc d1 ab dd be a0 55 8d be ec e0 93 bf
       -0.01337164 -0.43295148 -0.2760439 -1.1553016
0003d0 f9 1d 58 be 01 d1 e5 c0 d3 d3 32 be 50 01 c8 3e
       -0.21105184 -7.181763 -0.17463617 0.390635
0003e0 19 49 2b 3e 3a d3 63 be 39 06 3a bc d3 09 5e 3e
       0.16727103 -0.22248545 -0.011354023 0.21683435
0003f0 8f 48 c9 3d e3 1e 9d bd 3d 20 a6 be 23 dc 30 be
       0.098282926 -0.07671907 -0.3244647 -0.17271475

bn_outlayer_in.weight f4 [64]
000000 f5 b8 34 3f da d9 e0 3e bd 64 da 3e 56 22 44 3f
       0.7059472 0.43916208 0.42654982 0.7661489
000010 1f 55 f3 3e 04 e0 ed 3e ae 3e 5f 3f b7 1a 28 3f
       0.4752588 0.46459973 0.87205017 0.65665764
000020 e3 bc 4e 3f 51 db df 3e 19 a5 55 3f 72 fa 3b 3f
       0.8075697 0.43722013 0.83455044 0.73429024
000030 0d e0 f9 3e 50 e0 95 3e 83 5e 17 3f 4f 15 0c 3f
       0.4880375 0.292727 0.5912859 0.54720014
000040 b8 a0 13 3f a0 ca 48 3f 40 c3 f6 3e 27 22 27 3f
       0.5766711 0.7843418 0.4819584 0.6528649
000050 21 35 a5 3e 3e e0 50 3f 56 8d 8c 3e 8d e5 2e 3f
       0.32267097 0.81592166 0.2745158 0.68319017
000060 f2 2d 19 3f fc d8 65 3f 21 44 6d 3d da ac 36 3f
       0.5983573 0.89784217 0.0579263 0.713575
000070 60 27 b3 3e 95 89 4b 3f 40 a5 a2 3e ce 8e 5e 3e
       0.34990978 0.7950681 0.317667 0.21734163
000080 a8 4e f4 3e 69 41 0d 3f 9a c7 63 3e c5 14 48 3f
       0.4771626 0.5517793 0.2224411 0.7815669
000090 b9 27 22 3f 21 94 ea 3e 45 2d 4b 3e 1e 80 45 3f
       0.6334186 0.45816138 0.19841488 0.77148616
0000a0 ce 6f 28 3f 2c 9b b1 3e cc 91 04 3f b2 f8 f6 3e
       0.657956 0.346887 0.5178497 0.48236614
0000b0 89 a4 7c 3e 27 1c ed 3e d1 0f 57 3f ed 74 1a 3f
       0.2467214 0.4631054 0.8400851 0.60334665
0000c0 71 e0 9d 3e 00 c3 25 3f 02 29 f2 3e ce 42 58 3f
       0.30835298 0.6475067 0.4729691 0.84476936
0000d0 c2 cd 68 3f ba 99 c6 3e 44 d8 af 3e c5 11 ae 3e
       0.9093896 0.3878916 0.34344685 0.33997932
0000e0 96 ec a6 3e f2 3e da 3e c5 e8 09 3f 89 17 12 3f
       0.32602376 0.42626148 0.53870803 0.5706716
0000f0 75 6b aa 3e 9e 68 3d 3f 54 0e 3f 3f bd 6a 3e 3f
       0.33285108 0.7398776 0.7463124 0.7438162

bn_outlayer_in.bias f4 [64]
000000 22 fc 3a bf d4 cf 75 be c3 69 91 be 10 52 ee be
       -0.73040974 -0.24005061 -0.28401002 -0.46546984
000010 27 0f 14 be 19 a3 aa be a7 31 ba be 09 e8 fe be
       -0.14458905 -0.3332756 -0.36366007 -0.49786404
000020 fd 79 30 be 84 df d6 be e6 9f c3 be bb 8d 2c be
       -0.17234035 -0.41967404 -0.3820793 -0.16850941
000030 df d0 08 be 26 7e 3b bf 16 7e 18 be 8f 1e a0 be
       -0.13360928 -0.7323936 -0.14891848 -0.31273314
000040 b5 ea a8 be b6 c2 1c bf 73 73 06 bf 54 72 e0 be
       -0.32991567 -0.61234605 -0.5251991 -0.43837225
000050 30 7f 4e bf 9c 5e fc be 0f 76 05 bf c1 69 08 bf
       -0.8066282 -0.4929093 -0.5213327 -0.5328637
000060 64 a1 10 bf b5 c4 fd be 51 02 d0 3c df 70 10 bf
       -0.5649626 -0.49564138 0.02539173 -0.5642223
000070 b5 22 12 bf 20 2a ea be 57 08 2c be c0 60 db be
       -0.5708421 -0.45735264 -0.16800056 -0.42847252
000080 a6 6c fc bd c0 8b 89 bf 54 30 5b bf 80 b7 0d bf
       -0.123254105 -1.0745773 -0.8562062 -0.55358124
000090 f2 1d 05 bf b3 e0 08 bf c7 59 cb be 40 50 0d bf
       -0.5199882 -0.53467864 -0.39716932 -0.55200577
0000a0 4f 52 a0 be 18 10 57 bf 75 32 f5 be 5d c1 45 bf
       -0.31312796 -0.8400893 -0.47890058 -0.77248174
0000b0 04 4e 04 bf 32 54 d1 be de 9e 16 bf 1b 42 10 bf
       -0.5168154 -0.40884548 -0.5883616 -0.5635087
0000c0 3a b3 61 bd 9b 3a 5b bf 8a d3 de bd 28 cb e6 be
       -0.055102564 -0.856363 -0.108801916 -0.4507687
0000d0 d5 25 ff be 80 69 e7 be 48 aa 01 bf 16 d3 e1 be
       -0.4983355 -0.45197678 -0.50650454 -0.44106358
0000e0 c9 67 ab bf fb 17 98 be 21 f4 27 bf 75 75 14 bf
       -1.3391048 -0.29705796 -0.65606886 -0.57991725
0000f0 ed 83 65 be 00 70 08 bf fd ac 17 bf 77 bf 29 bf
       -0.22413607 -0.532959 -0.59248334 -0.6630778

bn_outlayer_in.running_mean f4 [64]
000000 79 04 62 be e4 b1 eb bc 02 80 68 bd 21 36 1a be
       -0.22072019 -0.028771348 -0.056762703 -0.15059711
000010 2c 82 fc bc 10 fe 57 bd 7e e8 8e be c2 51 64 be
       -0.03082379 -0.052732527 -0.27911752 -0.22296813
000020 cf ec cd bd ea e1 56 bc 34 ce 76 be 04 00 00 00
       -0.10054933 -0.013115386 -0.24102098 6e-45
000030 4f 51 0c bd 05 2d f3 bd da 42 a6 bb ac 04 69 be
       -0.03425723 -0.11873821 -0.0050738873 -0.22755688
000040 c4 a4 80 bd 28 86 20 be 3d c2 cb bd 10 47 6a be
       -0.062814265 -0.15676177 -0.099491574 -0.2287867
000050 86 df 0a bd 38 60 d7 bd 32 57 74 bd 56 41 90 be
       -0.033904575 -0.10516399 -0.05965347 -0.28174847
000060 de c7 37 bd 0a 17 c8 bd 02 ff 2b be cb bb 88 be
       -0.044868343 -0.09770019 -0.16796497 -0.26705775
000070 4d d1 27 be ba 8e 12 be 2a fa 92 bc 5d 9f a6 3e
       -0.16388436 -0.14312258 -0.017941553 0.3254346
000080 46 fa cf bc c4 77 be bc fd b1 26 bd bf e2 8c be
       -0.025387894 -0.023250468 -0.040697087 -0.27516744
000090 c7 47 8d bd ba 3c 8a bd 10 56 e1 bd 55 5e 90 be
       -0.06898456 -0.06749864 -0.11002743 -0.2819697
0000a0 a6 ad 65 be 41 ec 8b 3c 7f 10 a8 bd 1d 97 fc bc
       -0.22429523 0.017080428 -0.082062714 -0.030833775
0000b0 ed ff 09 be d1 aa 50 bd 5f 49 9e be ec f0 68 bd
       -0.13476534 -0.050944153 -0.30915353 -0.056870386
0000c0 d6 33 81 ba 31 e8 e9 bd c7 e1 b0 bc f1 7f e5 be
       -0.0009857367 -0.1142124 -0.021592034 -0.44824174
0000d0 dc 2c 98 bd f6 3c 55 be b9 10 8b bd 5f 3f 42 bd
       -0.07430431 -0.20824036 -0.06790299 -0.047423717
0000e0 b9 c9 d1 3d 82 3f b4 bd 3c 77 7c 3d bc 61 e0 bd
       0.10243554 -0.08801176 0.06163715 -0.10956141
0000f0 4b 80 80 bd ac f3 18 be 6f d7 83 be f0 28 34 be
       -0.0627447 -0.14936703 -0.257503 -0.17593741

bn_outlayer_in.running_var f4 [64]
000000 cd 12 83 3d d5 da c7 3c 50 9d 0e 3d 3c 9b 9d 3d
       0.0640007 0.02439634 0.034817994 0.07695624
000010 dc df b8 3c 26 51 5b 3d dd 32 23 3f 07 9c 17 3e
       0.022567682 0.053544186 0.63749486 0.14805613
000020 70 ec cf 3e b2 09 89 3d cb 00 c5 3e 04 00 00 00
       0.40610075 0.06691302 0.38477167 6e-45
000030 6e 6a cc 3c e2 1a 80 3e 8e cb a2 3a 62 f0 56 3e
       0.024953093 0.2502051 0.0012420283 0.20990136
000040 e6 5f 0c 3d a1 11 60 3d 20 40 29 3d 30 02 29 3e
       0.034271143 0.054704312 0.04132092 0.1650474
000050 85 c7 a5 3d 60 c0 35 3d 3a ef ce 3d 64 56 42 3e
       0.08094696 0.044372916 0.101042226 0.18978268
000060 8e 3a 1b 3e 8c 70 27 3d 75 b0 1b 3f 59 a2 14 3e
       0.15159056 0.040878817 0.6081613 0.14515056
000070 43 5f d6 3d f7 04 a5 3d 20 33 7c 3c 72 b4 1d 3f
       0.104673885 0.080575876 0.0153930485 0.6160346
000080 e2 59 6c 3c 32 07 57 3c 28 9c b8 3d f5 ca 6a 3e
       0.014425727 0.013124274 0.090141594 0.22928984
000090 ea dc e2 3d 00 8b 4d 3d 91 ed 2f 3e 27 81 41 3e
       0.11077292 0.05018139 0.17180468 0.18896924
0000a0 38 5c 67 3e 6d 6d 8e 3d 9b 00 a1 3d 4c 2e 88 3d
       0.22593772 0.06954465 0.078614436 0.066494554
0000b0 84 6f 5c 3e 5b d6 00 3e ab 46 79 3e f7 f7 c8 3d
       0.21526915 0.1258177 0.24343364 0.098129205
0000c0 bd d6 db 38 ff f8 0d 3e 3c eb 98 3c 05 e3 59 3f
       0.00010482732 0.13864516 0.018666856 0.8511203
0000d0 b9 28 cd 3c ff c3 e0 3f e8 84 40 3e 9e d6 83 3e
       0.025043832 1.7559813 0.188007 0.25749677
0000e0 31 81 1b 3e 43 c8 57 3d 2b 54 3b 3d e7 ff df 3d
       0.15186001 0.05268122 0.045734566 0.109374814
0000f0 04 90 4f 3d e8 58 a0 3d df cf 17 3e 6b 99 63 3d
       0.050674453 0.078294575 0.1482539 0.055566233

gnn_layers.0.gnn.att_i f4 [1, 1, 64]
000000 50 fd 27 be 92 06 90 bd 9b 3d 40 bd 47 7a 88 be
       -0.16405225 -0.07032503 -0.04693375 -0.2665579
000010 a3 0c 90 3d 47 8f ab ba 5e c8 ac 3b 49 b6 2b bd
       0.0703366 -0.0013088965 0.005272909 -0.041921888
000020 c6 41 28 be 77 ae cf be 03 3a 9d bd 79 cc 17 bf
       -0.1643134 -0.40562794 -0.076770805 -0.59296376
000030 0e 5a 03 3e b3 0f 2e bc 51 d2 44 3d ce 33 aa bd
       0.12827322 -0.01062386 0.048052136 -0.08310662
000040 d4 00 32 bf bc 82 0e be 42 ad ae bf 8e 51 dd 3e
       -0.69532514 -0.13917059 -1.3646624 0.43226284
000050 92 38 63 bd 30 a0 84 be 2c 0e a7 3d 77 12 b6 3d
       -0.05547387 -0.25903463 0.08157 0.08890241
000060 14 6a a6 3d 15 76 ba 3b 3a b2 95 3f da f5 31 3e
       0.081257015 0.005690346 1.1695015 0.17378941
000070 d0 9e aa bd b5 fc 82 be 2b 6e 46 be 87 13 d8 3c
       -0.08331072 -0.25583425 -0.19377963 0.026376499
000080 b2 cd 00 3e 0d 94 de bd 99 91 26 be 28 49 32 3e
       0.12578467 -0.10868082 -0.16266479 0.1741072
000090 04 29 40 3e 69 88 16 bd e6 71 e9 3c fc bf b8 3e
       0.18765646 -0.036751185 0.028496694 0.36083972
0000a0 3b c1 ce bc 4e 47 13 3e ae 9a 5f 3e 69 5f ea 3e
       -0.025238624 0.1438267 0.2183635 0.45775917
0000b0 6c 0f 3e 3d 3a 3a 94 3c 7d 77 0f 3e 5f b6 b4 be
       0.046401426 0.01809417 0.14010425 -0.35295388
0000c0 9a e7 4c 3e bd 2a a7 be 3d 08 79 be 31 72 9e bd
       0.20010224 -0.32649794 -0.24319549 -0.07736624
0000d0 6e 28 82 3e 63 30 61 3f 92 19 bc bc 63 b2 06 be
       0.2542147 0.8796446 -0.022961412 -0.13153987
0000e0 50 71 d9 3e a6 f0 89 bb e1 23 ee bd 38 fe ac 3c
       0.42469263 -0.0042095957 -0.11627937 0.021117315
0000f0 d2 41 a1 bd d3 45 22 be fb b8 8d bd 13 27 f6 bd
       -0.07873882 -0.15846948 -0.06920048 -0.120191716

gnn_layers.0.gnn.att_j f4 [1, 1, 64]
000000 1f 08 e8 bb a9 8a fe bb 42 92 ca bb 85 ae 95 3b
       -0.0070810462 -0.0077679944 -0.006181986 0.0045679235
000010 a9 3b bd 3b a5 03 9f bc d6 cf 63 bc d8 98 6f 3b
       0.0057749343 -0.019410918 -0.013904532 0.0036559608
000020 21 05 9f bb f3 51 57 3c 03 f2 86 bc e9 21 34 3c
       -0.0048529063 0.013142097 -0.016472822 0.010994413
000030 8a d9 fd bb 5e 05 b2 bc 8d 85 70 bc fd d7 2d bc
       -0.00774688 -0.021731075 -0.0146802785 -0.010610578
000040 9a 43 16 bd 3d 12 3f bb ab a5 f0 bc 9c 0f c1 3b
       -0.036685564 -0.0029155158 -0.029375872 0.0058917534
000050 9a 23 85 3b 21 f3 c3 bc 65 8b 25 3b de 7b 9e ba
       0.004063082 -0.023919644 0.0025260088 -0.0012091359
000060 27 ee 2c ba f2 6b 44 bb 83 a9 b4 3c 02 90 0d bb
       -0.0006596767 -0.0029971567 0.022053486 -0.0021600728
000070 b5 6e 80 3c b0 7c 96 bb 51 26 90 3c cb 19 a9 bb
       0.01567779 -0.0045925006 0.017596396 -0.0051605455
000080 08 48 23 3c 61 2a a6 bb 93 76 00 3c 12 18 7e b9
       0.009965904 -0.00507097 0.00784077 -0.00024232295
000090 09 98 93 3b c1 a5 66 3b 11 aa c3 3b c9 53 57 ba
       0.004504208 0.0035194012 0.005971201 -0.0008214084
0000a0 33 05 d0 3a 70 c6 41 3c c6 1a 24 3c 3a c9 8b 3b
       0.001587069 0.011827096 0.010016149 0.0042659314
0000b0 cf 40 0a 3c aa d5 80 3a db a6 5a bb c6 46 20 ba
       0.008438303 0.0009829302 -0.0033363614 -0.00061140617
0000c0 5d 1f 93 3a 19 88 30 bc ff ec 73 bb 0a 48 a4 bb
       0.0011224557 -0.010774636 -0.0037220118 -0.0050134705
0000d0 1f 94 8f bc 66 6f 46 bd b6 a6 b6 bb 88 76 25 bb
       -0.017526684 -0.04844608 -0.0055740727 -0.0025247652
0000e0 71 57 c1 3c 10 f5 07 39 f8 3f 88 3c 20 21 8a ba
       0.023601266 0.00012965896 0.016632065 -0.0010538436
0000f0 19 b5 f6 bb 52 18 19 3c 7d d0 a2 bb da 98 b7 ba
       -0.0075289127 0.009344177 -0.0049687014 -0.0014007345

gnn_layers.0.gnn.att_em_i f4 [1, 1, 64]
000000 15 b4 36 be 45 d8 3e 3e df e3 54 3e 80 9a 07 3e
       -0.17842133 0.18637188 0.20790051 0.13242531
000010 5a 19 5f 3d 5c c5 6a 3e cf e9 1a 3e 9d 6d 09 3e
       0.054467537 0.22926849 0.15128253 0.1342072
000020 e6 bf b0 be 9e 31 9e 3d 4e dd 66 bd 25 40 ef 3f
       -0.34521407 0.077243075 -0.056363396 1.869145
000030 e6 75 fb 3d 9a 01 65 3f 89 85 b5 bc 20 0e 07 3e
       0.12278347 0.8945557 -0.022158401 0.13188982
000040 f8 2d 9a be 6b 1a 21 be f1 d4 1e bf f1 fd 18 bf
       -0.30113196 -0.15732734 -0.6204367 -0.59762484
000050 a9 4a 5c 3f 9b 34 96 3c 4b a5 a2 3f 0e 88 93 bb
       0.8605142 0.018335631 1.2706693 -0.004502303
000060 64 c9 a9 be 64 4b 89 bd ec 52 ee 3e a8 8e f6 3d
       -0.3316146 -0.06703833 0.4654764 0.12038928
000070 01 af 36 3f a1 c7 96 3d 03 d7 97 3e cd 2e b6 3e
       0.71360785 0.07362295 0.29656228 0.3558258
000080 7e 26 04 3e 5a ee 74 3e b4 bd 82 3e 42 68 82 3b
       0.12905309 0.23919049 0.25535357 0.0039797137
000090 5b 4e 3b 3e 75 dc 1c 3f 88 d3 ba 3f d2 d7 65 be
       0.18291609 0.6127389 1.4595804 -0.2244561
0000a0 88 39 9e 3e 8f 55 17 bf 19 a1 8f 3e 0f fa 6b bd
       0.30903268 -0.5911493 0.28052595 -0.05761152
0000b0 17 f2 3f 3f 43 8b 55 bd 7c e4 d6 bd 1e 7e df be
       0.74978775 -0.052134763 -0.10492799 -0.43650907
0000c0 e6 d0 db bb 3d e2 69 3f 01 68 2e 3e aa 5f 5a be
       -0.0067082522 0.9136084 0.17031862 -0.21325555
0000d0 9d c9 a2 bb 7b 62 11 bd c8 75 0b 3e 2b 60 88 3e
       -0.004967882 -0.03549431 0.13619149 0.2663587
0000e0 ed ba 2e bf 5f 7b ad 3d 35 e8 09 be ee 7c f8 bd
       -0.68253976 0.08470797 -0.13467486 -0.121332034
0000f0 85 6a db 3c 07 d6 1d bd 89 f9 ad bc ae 7c ba 3d
       0.02678419 -0.03853419 -0.021237152 0.09105812

gnn_layers.0.gnn.att_em_j f4 [1, 1, 64]
000000 1b 91 40 3e f2 34 a7 bb e7 1c 75 bd df 3b ad 3c
       0.18805353 -0.005102747 -0.059842017 0.021146713
000010 16 99 32 ba f2 3e a6 bb 9e 29 ac 3f 70 c9 89 bb
       -0.0006812973 -0.0050734216 1.34502 -0.0042049214
000020 b6 43 9f 3f 44 da 34 bc 00 ca 82 3f c7 7f 58 3d
       1.2442539 -0.011038367 1.0217896 0.052856233
000030 e8 86 e6 bb 60 15 2e bf 71 01 1b 3f 34 85 88 3d
       -0.007035125 -0.68001366 0.60549074 0.066660315
000040 2b 3e 80 3e d8 ae ec 3e 82 5e 8f 3e 3e 9d 05 bd
       0.2504743 0.46227145 0.2800179 -0.03262066
000050 da eb 5e bb e7 68 e0 3e 38 3f a9 bc c3 e4 7a 3e
       -0.003401509 0.43830034 -0.020660028 0.24501328
000060 6f b7 02 3e ce 4d 00 3f b7 6a 01 40 3c 85 e6 bc
       0.12765287 0.5011872 2.0221384 -0.028139703
000070 cf 4c c7 3e c0 25 96 3e 12 70 f0 bc c2 bf a2 bf
       0.38925788 0.29325676 -0.029350314 -1.271477
000080 8a c1 94 bd 3c 22 ad bc b3 9d b3 bb 4c cb ce 3c
       -0.07263477 -0.021134488 -0.0054814457 0.025243424
000090 76 0d 41 3d f0 a8 8a 3b 67 ee 91 bb be 8f 7d bc
       0.047131978 0.0042315647 -0.0044534686 -0.015476165
0000a0 ed bf ea bb dd 03 7b bf cc 45 70 bc df ed 56 bc
       -0.0071639926 -0.9805277 -0.014665078 -0.013118236
0000b0 c8 b4 01 bf d1 8d 5a bc a5 f3 30 bd fd 39 1f bd
       -0.50666475 -0.013339476 -0.043201108 -0.03887366
0000c0 80 30 c3 3d b8 b5 05 40 55 1c b1 bb b6 e4 da 3f
       0.09530735 2.0892162 -0.005404989 1.7101047
0000d0 8c af c7 3d f9 53 08 40 36 1c d7 3e 55 5d f0 be
       0.0975028 2.1301253 0.4201371 -0.46946207
0000e0 a8 2f 8d bd 4b 62 30 bc b9 20 2a be 04 1a 6b bd
       -0.06893855 -0.010765622 -0.16614045 -0.057397857
0000f0 03 21 ee bb a2 18 4e 3e c1 63 ab ba 16 36 85 3e
       -0.007267119 0.20126584 -0.0013075994 0.26017827

gnn_layers.0.gnn.bias f4 [64]
000000 19 1a 93 3c 48 1c b4 3c 8f f3 66 3c 80 94 d3 3c
       0.01795678 0.021986142 0.014096155 0.025827646
000010 8e 3a 46 3a 96 84 c6 3b 6f 87 b4 3b cb 14 cb 3b
       0.0007561826 0.006058286 0.005509309 0.006197547
000020 28 5c 00 bc b2 53 57 3d 19 e8 13 3c a0 f3 66 b9
       -0.007834472 0.052570052 0.009027504 -0.00022025267
000030 5a 97 36 ba 54 77 07 3d f5 10 f6 bb 04 07 8c 3b
       -0.0006965302 0.033072785 -0.0075093457 0.0042732973
000040 8c e5 b7 3c 8e 46 c8 3c 43 c3 9e 3c e1 bd 13 3c
       0.022448324 0.024447706 0.019380217 0.009017439
000050 e4 c9 98 3b f2 f5 89 3b cc c3 31 bb d0 ae a1 3b
       0.004662739 0.004210227 -0.002712476 0.0049341694
000060 87 a5 9a bb 62 8a 31 3b 2b fc c5 b9 dc 76 bb 3c
       -0.0047194394 0.002709054 -0.00037762648 0.022883825
000070 20 51 96 3a ec 74 ad 3c 27 3d a6 3c ce ec 8d ba
       0.0011468269 0.021173917 0.020292832 -0.001082802
000080 0b 07 36 ba bd 49 d2 ba 10 90 d7 3a 8c d3 68 3c
       -0.00069437985 -0.0016043704 0.0016446132 0.014210593
000090 a1 b7 cf 3b 8c ba 8f 3b 36 46 a8 3a e4 6f ce 3c
       0.006339029 0.004386252 0.0012838307 0.025199838
0000a0 62 dc d2 ba b5 ef ed 3b 04 26 4a 3c fd 22 aa 3c
       -0.0016087408 0.0072612413 0.012338165 0.020768637
0000b0 2f 75 23 3c 0a af 34 3c 54 57 15 3d 53 65 a5 ba
       0.009976669 0.011028061 0.036460236 -0.0012618698
0000c0 1b 0f 9b bc 58 8b 24 bb ac 0b 2c 3a a2 df d9 3b
       -0.018928101 -0.002510747 0.00065630185 0.0066489736
0000d0 32 ae 4d bc a0 f9 10 38 12 8d 36 3b 3b 7b 17 3c
       -0.012553738 3.4564757e-05 0.002785508 0.009245689
0000e0 4a 6e 2e 3b ec aa 96 ba 04 af 69 3c c9 85 83 3a
       0.002661603 -0.001149503 0.014262918 0.0010034378
0000f0 a3 46 18 3b d9 5f 0d 3c 6f e4 a5 3b 4d 00 81 3c
       0.0023235462 0.008628809 0.005062632 0.015747214

gnn_layers.0.gnn.lin.weight f4 [64, 100]
000000 db 80 9b 3c a1 af a5 3c c5 f9 82 bd 2b ae b0 3c
       0.018982342 0.020225348 -0.06395296 0.021567425
000010 c7 fa 31 be 88 1b 80 be e8 3a ed bd 76 56 db bd
       -0.1738082 -0.25021005 -0.11583501 -0.107098505
000020 7f bc bc bd e9 46 32 bc fb af 35 3c f0 88 39 3d
       -0.0921564 -0.010881164 0.01108932 0.04529661
000030 0b 12 44 3b 67 f9 91 bc 38 6d f3 bd 87 d4 88 3d
       0.002991798 -0.01781912 -0.11886066 0.066811614
000040 9f 7a 4c be 25 5f 63 3d 35 12 ba ba 53 ca 1e bd
       -0.19968651 0.05551066 -0.00141961 -0.03876717
000050 22 85 3c bd f2 cd a5 3d bf bc 11 3d ce ba 62 bd
       -0.046025403 0.080959216 0.035580393 -0.055353932
000060 8b 23 c1 3d 4d eb b4 bd ce 57 53 3d 8e 4d 07 3d
       0.094306074 -0.088339426 0.05159741 0.033032946
000070 9d ce f3 3d 28 a2 81 3d d1 ea ef 3c 93 34 0c 3d
       0.11904643 0.06329757 0.029286774 0.034229826
000080 62 22 1c 3c b6 f0 36 3d d5 fe 8f 3d 51 60 28 3d
       0.009529682 0.044663154 0.07031027 0.04110748
000090 3b 82 0e 3d 36 0a 1e 3c 40 86 17 3d 12 3a da 3c
       0.034792166 0.009645989 0.036993265 0.026639018
0000a0 4a a6 95 3d 79 f4 cd be d6 7d 97 bc 99 6e c6 bc
       0.07307108 -0.4022558 -0.01849262 -0.024222659
0000b0 62 18 9c bd ba a3 98 3c 70 48 0a 3d 2f 81 57 3d
       -0.07621838 0.018632758 0.033760488 0.052613433
0000c0 77 36 f6 3c fb a7 02 bd f1 3c dc bc e7 61 d7 3d
       0.030055268 -0.03189848 -0.026884528 0.1051672
0000d0 66 e3 a1 bc b2 38 a6 bd e0 06 b3 bd d8 07 bf 3c
       -0.019761752 -0.081162825 -0.08741546 0.02331917
0000e0 16 fb cf bd 68 43 38 bc d8 70 9c bc 1f 35 98 3c
       -0.10155313 -0.01124654 -0.019096777 0.018580018
0000f0 27 30 86 bc 2e bd d5 bc 77 2f e6 3b 33 78 c2 3d
       -0.016380383 -0.026091184 0.007024701 0.094955824
000100 88 35 a3 3d eb f7 45 3d c5 75 ba 3c 90 55 5a bc
       0.07969195 0.048332136 0.022761235 -0.013326064
000110 b7 8f 41 3d 0a 20 17 bd 22 97 fb bc 08 4d 91 bb
       0.047256198 -0.03689579 -0.030711714 -0.0044342317
000120 7a 52 e5 bc 0d 44 c7 bc 60 1c 5e bc ca 38 c3 3c
       -0.02799343 -0.024324441 -0.01355657 0.02383079
000130 2e 26 04 39 76 8e 5a bd dd 57 31 3d e9 11 64 3d
       0.00012602724 -0.053358518 0.043296684 0.055681143
000140 5b 54 c1 bd e7 49 d9 bd ba 49 52 3d 46 f3 2c 3d
       -0.09439918 -0.10609799 0.051339842 0.04222419
000150 d4 3d 9c bd c9 8e 0a bd f2 54 c2 3d ba 98 c2 bc
       -0.0762898 -0.033827577 0.09488858 -0.023754466
000160 c7 1b 4d bd 98 df 51 3d 1e d7 09 3d ce 00 fe 3d
       -0.05007532 0.051238626 0.033652417 0.12402497
000170 51 57 c6 3b 79 a4 1b 3d 63 ad 9b 3d 99 47 b6 bc
       0.0060528894 0.03799865 0.0760143 -0.022250937
000180 d8 d0 60 3e 81 9c bd bf a0 f8 a7 bf 10 85 8f bf
       0.21954668 -1.4813386 -1.3122749 -1.1212482
000190 58 68 4a be 0c 74 a1 3d 1a 23 18 bd a8 01 9c 3c
       -0.19766366 0.07883462 -0.03714285 0.019043759
0001a0 51 38 23 bd 02 13 1e 3d 5d 82 cb 3b 0a e3 3c bd
       -0.03984863 0.038592346 0.006210609 -0.04611496
0001b0 71 4e b6 3d ff 1e 4f 3c 86 b1 4d 3d 0f bb 4b 3c
       0.0890168 0.012641667 0.050218128 0.012434735
0001c0 90 31 10 3e 1f c4 9a 3d 4d 98 d0 bb ac 11 bf be
       0.14081407 0.075569384 -0.006365812 -0.3731817
0001d0 ba 44 dc 3d cc 48 d7 3a e2 4d 93 bc 6b ff 6b ba
       0.10755296 0.0016424893 -0.017981473 -0.0009002599
0001e0 5d 31 54 bd 69 67 85 3d 85 f1 a4 3d d2 f8 c5 bd
       -0.05180489 0.065138645 0.08053879 -0.09666599
0001f0 ad 1e 22 3e d3 eb 99 be e5 2e 86 bc 94 3a a1 bc
       0.15832014 -0.30062732 -0.016379783 -0.019681253
000200 de 6c 61 3c 93 3e 6e be 1d df 94 bd 0f 5d 5a be
       0.013758866 -0.23266058 -0.07269118 -0.21324562
000210 1c ec a7 bc 1f d7 dd bd 88 57 ef 3d 97 b1 cd 3d
       -0.020498328 -0.10832047 0.11686617 0.10043638
000220 6d 90 09 3c a7 21 9c 3c 13 64 01 3c 6f 26 8a 3d
       0.00839625 0.019059015 0.007897395 0.06745612
000230 0f 9a 2f bd dc 55 68 bd 51 7b 61 3c 0f ab 5d 3d
       -0.04287153 -0.056722507 0.013762311 0.054118212
000240 d4 71 9a bb 79 2d 36 be 3b 37 92 b9 c3 5e a2 bc
       -0.0047132764 -0.17790784 -0.0002788844 -0.019820577
000250 c2 fe d1 bc 4e b7 67 3d a4 9f bb 3d 91 97 e8 3b
       -0.025634173 0.056571297 0.091613084 0.0070981462
000260 34 3a ad 3c e2 23 94 3c 15 19 b9 3d 37 26 25 be
       0.021145917 0.018083517 0.09037987 -0.16127859
000270 c5 80 5c 3d 4e d2 cd 3d e1 ca 3e 3e 17 66 bd 3d
       0.05383374 0.10049878 0.1863208 0.09247988
000280 03 bf cf 3d 1d 3d cf 3d 51 14 83 3d 1b db d2 3d
       0.101438545 0.10119078 0.064003594 0.10295697
000290 a0 2a 1c 3d 91 fb 26 bd 20 45 95 bd 4d 14 1d be
       0.038126588 -0.040767256 -0.07288575 -0.15339775
0002a0 8e 3d fc 3d 1a 5c 8f bd ff 67 06 3e 0c c9 bd 3e
       0.12316428 -0.06999989 0.13125609 0.3706745
0002b0 95 43 72 3e a3 19 d5 3e db 7a 17 3e 99 91 65 3d
       0.23658593 0.41621122 0.1479296 0.056047056
0002c0 fe 6b eb 3d 3b f1 f7 bc 22 7a a4 bd 2b eb 95 bd
       0.11495207 -0.030266395 -0.080311075 -0.07320245
0002d0 28 fe 56 bd 7c cd 59 be f6 4f 8a bd b5 33 06 be
       -0.052488476 -0.21269792 -0.067535326 -0.13105662
0002e0 2e 39 c0 bd be 00 8d be 00 6c 19 be 7b eb 8e be
       -0.09385906 -0.2753963 -0.14982605 -0.27914032
0002f0 57 47 d4 be af 1f 07 3f 8b 43 07 3f b4 83 0e c0
       -0.41460678 0.5278272 0.5283744 -2.2267885
000300 2f 0e 23 3f 6d 2d 2b 3f ec 89 2e 3f 23 2f 2f 3f
       0.6369352 0.6686619 0.681792 0.684313
000310 24 99 33 3f 36 18 76 bf c0 80 b5 be 28 53 1b bf
       0.7015555 -0.9613069 -0.3544979 -0.6067376
000320 b0 aa 89 3d b4 8f 81 3d 45 b3 00 be ee 26 1a 3e
       0.06722009 0.06326237 -0.12568386 0.15053913
000330 30 19 e4 3b 40 cb 04 3c 89 f4 0c be f9 5c 45 3c
       0.0069610104 0.008105099 -0.13765158 0.012046092
000340 ec ce 38 3d 25 b5 d6 bd 62 11 92 3c 2d d5 a6 3d
       0.04511921 -0.10483769 0.017830554 0.08146129
000350 b4 e1 12 3d 46 10 6c 3d 92 70 90 3d e5 4b 2d bd
       0.03585978 0.057632707 0.07052721 -0.042308707
000360 22 ea 66 3d ab cc 72 3d 4e 60 b7 3d 8f 97 a6 3d
       0.05637563 0.059277218 0.089539155 0.08134376
000370 26 b0 89 bd de f2 53 3d 42 d9 33 be ce ff ed 3d
       -0.06723051 0.051745288 -0.17563346 0.116210565
000380 e4 79 a7 3d 07 7b d9 bd ce b5 bf 3d ef 83 29 3d
       0.08177546 -0.10619169 0.09360848 0.041385587
000390 b5 0a 72 bd 1a 4d 83 be b8 8f 23 be d4 42 d0 3c
       -0.059092242 -0.2564476 -0.15972793 0.025422491
0003a0 78 71 64 bd 0c a9 5b 3d c4 39 23 3e 66 9e 1e bd
       -0.055772275 0.053628013 0.15940005 -0.03872528
0003b0 c7 53 e5 3d 87 6d 08 3e e3 94 c9 bd f9 fb 46 3e
       0.1119762 0.13323031 -0.09842851 0.19432057
0003c0 5d 18 7d be f2 38 bb 3d c3 80 06 bb e5 cc 1c 3d
       -0.24716325 0.09141721 -0.0020523525 0.03828134
0003d0 1f 60 9d 3c 34 90 aa 3d 60 28 17 bd 35 d9 87 bd
       0.019210873 0.08328286 -0.03690374 -0.06633226
0003e0 09 9a 18 be 8d 66 99 bc 49 21 86 bd f7 82 83 bd
       -0.1490251 -0.018725658 -0.065493174 -0.06421464
0003f0 5a 48 0b 3e 98 e2 8a 3c c1 a8 43 bd 65 38 b0 bc
       0.13601819 0.016953751 -0.04776836 -0.021511266

gnn_layers.0.bn.weight f4 [64]
000000 c6 af 33 3f b5 00 95 3f d3 dd 56 3f 1f 3e e1 3f
       0.70190084 1.1640841 0.83932227 1.7597083
000010 d9 b8 28 3f d8 06 98 3f b4 63 5b 3f 7d df 84 3f
       0.65907055 1.1877089 0.8569901 1.0380703
000020 72 45 2e 3f 99 e9 67 3f e5 61 46 3f ff 2e c9 3c
       0.68074715 0.90590817 0.77493125 0.024558542
000030 e8 79 2a 3f f6 08 12 3f 75 60 a2 3e 6e 4e 94 3f
       0.66592264 0.57044923 0.31714216 1.1586435
000040 e5 55 c4 3f fe 4f 52 3f dd 51 1a 3f 66 57 2c 3f
       1.5338713 0.8215331 0.60281163 0.6732086
000050 1b 5b 7b 3f 95 e4 87 3f 2b 2d 86 3f 04 1d 69 3f
       0.9818589 1.0616633 1.0482534 0.910599
000060 25 a9 c0 3e 7f 8f 63 3f 45 d1 8d 3f 02 d0 0e 3f
       0.37629047 0.8889083 1.1079489 0.55786145
000070 eb 67 e7 3e b5 1a ac 3f 05 0d 71 3f f0 bc 9c 3e
       0.4519647 1.344565 0.9416049 0.30612898
000080 e8 55 20 3f db bc 55 3f c3 6c 4b 3f b4 b2 3e 3f
       0.6263108 0.83491296 0.7946283 0.7449143
000090 02 9e 13 3f 63 ff 0d 3f 97 db 72 3f 72 09 0e 3f
       0.57662976 0.55467814 0.9486632 0.5548316
0000a0 2c 52 dc 3f 1d 69 41 3f 25 00 14 3f 11 eb 3b 3f
       1.7212577 0.75551015 0.5781272 0.7340556
0000b0 ac f4 33 3f 86 70 99 3f ec 3c 0a 3f d6 26 b5 3e
       0.70295215 1.1987464 0.5399921 0.35381192
0000c0 56 66 81 3e b3 69 77 3f 6a 84 17 3f 1b c4 39 3f
       0.2527339 0.9664566 0.5918642 0.7256486
0000d0 be 0c 54 3f 91 a6 cd 3e a7 46 00 3f 0c e1 ab 3f
       0.82831943 0.40166143 0.50107807 1.3428054
0000e0 f6 2c e9 3f ef 89 56 3f 6f ca c1 3e cd af d9 3e
       1.8216846 0.8380422 0.37849757 0.42516938
0000f0 fb ed 7f 3f 5d b5 80 3f 57 d0 53 3f 85 78 29 3f
       0.99972504 1.0055348 0.82739776 0.66199523

gnn_layers.0.bn.bias f4 [64]
000000 39 66 34 3f 90 90 8a be 51 2e 75 be 3a 94 d8 3c
       0.7046848 -0.27063417 -0.2394345 0.026437867
000010 c9 bd a5 be 97 7c cc bd b6 06 7a 3e a1 f9 79 3e
       -0.32371357 -0.09984701 0.24416623 0.24411632
000020 f2 a3 12 bf 75 02 8e 3e 52 3d dd 3e 38 5b b5 be
       -0.5728141 0.2773625 0.43210846 -0.35421157
000030 da a4 d1 be 93 2b 00 3f dd 2c f7 be de 5c 58 3e
       -0.40946084 0.5006649 -0.48276415 0.21129176
000040 88 62 28 be 59 b5 14 3f 4e 4f f2 3e e7 49 c6 3e
       -0.16443837 0.58089215 0.4732613 0.38728258
000050 fc 93 68 3e 16 5e a4 be 29 05 1e 3e d4 24 af 3e
       0.22712702 -0.32103032 0.15431656 0.34207785
000060 89 97 7b 3f 9f 32 b5 be 41 03 8a 3d 65 27 0d 3f
       0.982781 -0.35390183 0.06738902 0.55138236
000070 26 39 fd 3e 44 cb 8d bd b2 7c ce be 53 2a 42 3f
       0.49457663 -0.069235355 -0.4032951 0.7584583
000080 2b cd ee be 96 44 e0 be ea 02 a8 3e f4 10 c2 3e
       -0.46640906 -0.43802327 0.32814723 0.3790356
000090 01 b6 07 3f 10 5a 05 3f 07 d2 49 3e bc c5 07 3f
       0.5301209 0.5209055 0.19709025 0.53036094
0000a0 df fc 62 3d 6f 9d c1 3e 54 fa 00 3f 5c 39 d6 3e
       0.055416938 0.37815425 0.5038197 0.41840637
0000b0 6e 20 b3 3e 7d bc 0b 3e 15 c8 0f 3f db 89 3f 3f
       0.3498568 0.13646121 0.56164676 0.74819726
0000c0 c2 09 94 be d3 3a 50 be 68 14 a0 be 6b 53 ec 3e
       -0.28913695 -0.2033494 -0.3126557 0.46157393
0000d0 ab b7 d7 be ec c4 b1 be 4a 3d 3e 3f 7b 08 2b 3e
       -0.42132315 -0.34720552 0.7431227 0.16702454
0000e0 4c 35 1b bd 4f 41 0a be 84 03 28 3f 88 d4 44 3f
       -0.037892625 -0.13501476 0.65630364 0.76886797
0000f0 7b 37 4b be e1 0d cd 3e 13 f8 a4 3e ca 6e 1f 3f
       -0.19845383 0.4004965 0.32220516 0.62278426

gnn_layers.0.bn.running_mean f4 [64]
000000 a3 6b c5 bc d5 bf d0 3c 10 a1 92 bb 5d 0a 9b 3a
       -0.024099177 0.025482098 -0.0044747666 0.001182865
000010 e0 6f a4 3c a6 b4 05 bc 76 e5 0b 3d 50 be 91 3c
       0.020072877 -0.008160746 0.034154378 0.017790943
000020 fd 11 ae bc c3 46 0f 3d 9c bb a7 3c 10 31 b8 bb
       -0.021248812 0.034979593 0.020475201 -0.005621083
000030 24 a6 0c bc 90 b3 07 3d 03 bf 03 3a 5b ec f1 bc
       -0.008584533 0.03313023 0.00050257164 -0.029531648
000040 a0 b0 fb ba 43 8c 5a bc 4b 16 0f bd cd 2f 54 3d
       -0.0019202419 -0.013339105 -0.03493337 0.0518034
000050 ba b7 8f 3c c6 6e 08 bd bb a6 0a 3c fb 8e b4 3c
       0.017543662 -0.033308767 0.008462603 0.022040835
000060 48 69 ce 3c 4f 48 a1 bc ed d5 93 3c 3c b6 75 3d
       0.025196686 -0.0196878 0.018046344 0.059988245
000070 d3 65 53 bc 4c 0b 9e b9 91 23 07 3c 2f b8 2a bc
       -0.012902695 -0.00030144525 0.008248226 -0.010419889
000080 a2 06 85 3c de 45 9d bd 29 4a f4 bc b7 5c 02 3d
       0.016238514 -0.07679342 -0.029820519 0.0318267
000090 90 21 05 bc d9 28 8f bc cc ae 9a 3c fa b8 8a 3d
       -0.008125678 -0.017475532 0.018882178 0.06773563
0000a0 3c dd fc 3b ad 8e 17 3c 49 e7 83 3c f6 0b 01 3d
       0.007716803 0.009250325 0.016101496 0.031505547
0000b0 71 08 fe 3b 6d 59 fb 3c 35 06 89 3d a0 e1 13 3d
       0.007752471 0.03068229 0.06690637 0.036103845
0000c0 0c 5b 55 bc 70 17 f9 bc 9a 9c a2 3b ab 59 d9 3c
       -0.013022196 -0.030406684 0.004962516 0.026532015
0000d0 56 98 33 bd 24 36 6a 3b 7f 6b c6 3b 56 8c 9c 3c
       -0.04384645 0.0035737837 0.006055295 0.019109886
0000e0 72 37 a2 3d 33 1b 6a bc fb 7d b0 3c 43 cc eb 3c
       0.079207316 -0.014288711 0.021544447 0.028783923
0000f0 43 61 24 bc f2 53 4b bc 60 a3 c8 3c 9a 5a 91 bc
       -0.010032955 -0.012410151 0.024491966 -0.017743398

gnn_layers.0.bn.running_var f4 [64]
000000 71 fe b7 3d 2c 77 37 3d 9c 36 2c 3d e5 cd 86 3d
       0.08984078 0.044791386 0.042044267 0.0658224
000010 b5 c7 18 3d 85 4c ff 3c cf ea 5f 3d cb 2b b9 3d
       0.03729983 0.031164417 0.05466729 0.09041556
000020 16 53 cd 3c 96 75 1e 3d 85 5d 9d 3d ae e3 40 3d
       0.025064033 0.038686357 0.07683853 0.047092132
000030 74 1a 45 3d d6 84 38 3d 28 16 49 3d 71 1b 2a 3d
       0.04812093 0.045048557 0.049093395 0.041530076
000040 6f 33 90 3d a7 4d c2 3d 57 3f 1d 3e 9d bd c0 3d
       0.0704106 0.09487467 0.15356193 0.09411166
000050 24 8c 4f 3d 29 6e 98 3d 81 ad d4 3c d0 a5 92 3d
       0.050670758 0.074428864 0.02596164 0.071605325
000060 91 95 41 3d ad 30 de 3d 1b 06 a4 3d a8 48 b8 3d
       0.04726178 0.10849128 0.08008977 0.08998233
000070 da 7e ea 3c 73 74 77 3d 0f 33 1b 3d d2 f4 f5 3c
       0.02862494 0.06041379 0.03789049 0.030023966
000080 63 93 02 3d e0 96 20 3e 0a 4b 55 3d ac eb 49 3d
       0.03187884 0.15682554 0.052073516 0.04929702
000090 f9 4d 14 3d f4 0a da 3c 79 95 b3 3c 55 df e4 3d
       0.036207173 0.026616551 0.02192186 0.1117541
0000a0 93 33 2b 3d e5 09 3f 3d 5a d2 e0 3c e3 12 29 3d
       0.041797232 0.046640296 0.027444053 0.041277777
0000b0 31 88 8e 3d 92 8c 37 3d 6b 67 97 3d 23 e1 78 3d
       0.0695957 0.044811793 0.07392772 0.060761582
0000c0 54 b5 82 3d 9c 97 5b 3d 9b d4 07 3d 6f 70 8c 3d
       0.06382242 0.053611383 0.03316174 0.068573825
0000d0 10 fd 20 3e 57 8e 7e 3d f6 18 b2 3c 5e 52 8e 3d
       0.15721536 0.062147465 0.021740418 0.06949304
0000e0 ac ef 76 3e f3 82 fe 3c d7 05 17 3d ea fc 12 3d
       0.24114865 0.0310683 0.036870804 0.03588573
0000f0 9d de 8c 3d 4e 07 51 3d 73 2b 83 3d 47 be a9 3d
       0.068783976 0.051032357 0.06404772 0.08288246

out_layer.mlp.0.weight f4 [1, 64]
000000 02 25 79 be 83 9a db 3d 8b 13 01 3e fc 4d f9 bd
       -0.24330524 0.1072283 0.12605111 -0.121730775
000010 cc a6 1e 3e 4b 93 bb 3d b1 2d 63 3e 2c 30 39 3e
       0.15493315 0.09158953 0.22185399 0.18084782
000020 c8 b5 3e 3e bd c7 a8 3d 0f f5 08 3e 8a 80 be bc
       0.18624032 0.08241222 0.13374732 -0.023254652
000030 55 83 bd 3d 3b 03 66 3e f1 40 2a 3e b2 ef 77 be
       0.09253565 0.2246217 0.16626336 -0.2421253
000040 25 30 4f bd 52 8c 62 be 9f 80 cb bd 49 e6 29 3e
       -0.050583024 -0.2212384 -0.09936642 0.16591753
000050 a2 0b d1 bd 7c 4c b8 be 32 01 e1 bd 07 23 15 3e
       -0.10207297 -0.35995853 -0.10986556 0.14564143
000060 59 de 39 3e 9d b1 8e be 43 17 e9 bc 21 8b 9b 3e
       0.18151225 -0.27869883 -0.028453475 0.30379584
000070 01 82 dd 3d a1 8f 1a be 1f cf d8 3d e1 72 a0 bd
       0.10815812 -0.15093853 0.1058638 -0.078344114
000080 a1 67 0b 3e aa 47 0f 3e 82 7e 0a be 8e 58 5d 3e
       0.1361375 0.13992181 -0.13524821 0.21615812
000090 7f f5 d2 3d 26 7f e6 3d ef fc 21 be 4d 6e 95 3e
       0.10300731 0.112547204 -0.15819143 0.29185715
0000a0 6a 21 a9 bd 4f 94 f8 3d 2b bc a5 3d 3f c9 dd 3d
       -0.08258326 0.121376626 0.08092531 0.108294
0000b0 05 2d 01 3e 24 07 d0 3d bf 01 c3 3e 22 ac 31 3e
       0.1261483 0.10157612 0.3808727 0.1735082
0000c0 f5 d6 b6 3d d4 46 fa 3e 4e 83 ef 3d 3a 68 47 3e
       0.089277185 0.48882163 0.11694966 0.19473353
0000d0 40 d7 b3 be 96 cc 5c bc b1 20 df bd 89 e8 ee 3d
       -0.3512516 -0.013476511 -0.10894907 0.11665446
0000e0 67 ce 89 be 3e ef d9 3d c6 f7 c9 3d 97 e6 1e 3e
       -0.26915285 0.10641335 0.09861712 0.1551765
0000f0 d2 a8 b3 bd f2 4f 46 be c8 d9 00 3e 66 df 73 be
       -0.08772434 -0.19366434 0.12583077 -0.23815688
