model_normal/gdn_smd_w_5_epoch50.pth (torch, 36694 bytes, 16 tensors)

embedding.weight f4 [38, 128]
0	0xbe700cc4	-0.2344237
1	0x3ee755f1	0.45182756
2	0x3f0d5adf	0.55216783
3	0xbf974b3d	-1.1819836
4	0x3db85e0f	0.09002315
5	0xbe9f6063	-0.31128225
6	0x3e9558d5	0.29169336
7	0xbf3b21dc	-0.7309854
8	0xbe1fc27e	-0.15601537
9	0xbe2dae47	-0.16961013
10	0xbd495251	-0.04915077
11	0x3e714556	0.23561606
12	0xbe3845bd	-0.17995353
13	0x3f0b2746	0.543568
14	0x3f13cba4	0.57732606
15	0x3e670378	0.22559917
16	0xbf8fc668	-1.1232424
17	0xbe2cc9e0	-0.16873884
18	0x3d2ea0e7	0.042633917
19	0x3f1f6ea2	0.6227819
20	0x3c4204e6	0.011841988
21	0xbcd04dff	-0.025427816
22	0x3ebf87be	0.3740825
23	0x3d08e07c	0.03341721
24	0xbef1b94f	-0.47211692
25	0xbd8e4646	-0.06946997
26	0xbdf1a90d	-0.11799822
27	0xbf032999	-0.5123535
28	0xbebbef54	-0.3670603
29	0x3e8539a2	0.26020533
30	0xbd766c25	-0.06016173
31	0xbee3b607	-0.44474813
32	0xbe022078	-0.12707698
33	0x3dd3c374	0.10340014
34	0xbeacccf1	-0.33750108
35	0xbc96424f	-0.018342165
36	0xbee9d06e	-0.45666832
37	0x3e208a32	0.15677717
38	0xbf098a37	-0.53726524
39	0xbdd9d6c8	-0.106366694
40	0xbed58ec9	-0.417105
41	0xbd872add	-0.065999724
42	0xbf14f60d	-0.58187944
43	0xbedc0dad	-0.42979184
44	0x3e1aefd1	0.15130545
45	0x3e11273d	0.14175124
46	0x3ed194e7	0.40933916
47	0x3e5725d2	0.21010521
48	0x3e6492e1	0.22321655
49	0xbea5dcdb	-0.32395062
50	0xbde2f5bc	-0.11082026
51	0x3d7855ff	0.060628887
52	0x3ee193af	0.44057986
53	0xbe1009e7	-0.14066277
54	0xbe8efc93	-0.27927074
55	0x3e15e06b	0.1463639
56	0x3edf9d6b	0.43674788
57	0x3d89dcc8	0.06731564
58	0xbf3c568b	-0.73569554
59	0x3e06f95b	0.13181059
60	0xbeb51089	-0.35364178
61	0x3edbfa25	0.42964283
62	0xbe076657	-0.13222633
63	0xbdbc90a3	-0.09207275
64	0xbe96358c	-0.29337728
65	0xbf380c23	-0.7189352
66	0xbec548d7	-0.38532135
67	0xbf56be78	-0.8388438
68	0xbed42bbc	-0.41439617
69	0x3da04aa8	0.078267395
70	0xbe25062e	-0.16115639
71	0xbe84686d	-0.2586092
72	0xbea65c80	-0.32492447
73	0xbd23dbe9	-0.040004645
74	0xbed03c0f	-0.4067082
75	0xbf8ae8e2	-1.085232
76	0x3d87c658	0.06629628
77	0xbda6450a	-0.08118637
78	0xbe5e0f4b	-0.21685521
79	0x3eb625a0	0.3557558
80	0xbf47cc3d	-0.7804602
81	0xbd92d948	-0.07170349
82	0xbf31f634	-0.695163
83	0xbe19243e	-0.14955232
84	0xbf10a0e5	-0.56495506
85	0x3e04ca74	0.12967855
86	0xbead6a2c	-0.33870065
87	0xbd869d38	-0.06572956
88	0x3e7f177a	0.249113
89	0x3f325877	0.69666237
90	0xbe8e47fc	-0.27789295
91	0xbea26a6c	-0.31721818
92	0x3dbe6ac9	0.092977114
93	0x3db83cd2	0.089959756
94	0xbf06e6d4	-0.52695966
95	0x3f040aac	0.51578784
96	0x3f2e7a82	0.6815568
97	0xbf278bd4	-0.65447736
98	0xbe6f0148	-0.23340333
99	0xbea458ed	-0.32099095
100	0xbe642b17	-0.22282062
101	0x3f17f849	0.5936323
102	0xbf1e742c	-0.61896014
103	0xbeb58a53	-0.35457096
104	0xbeb9441a	-0.3618477
105	0xbc95350c	-0.018213771
106	0xbf385a07	-0.7201237
107	0xbe313036	-0.17303547
108	0xbc26564e	-0.010152413
109	0x3f11a840	0.56897354
110	0x3f04440b	0.51666325
111	0xbd6a9767	-0.057273295
112	0xbe1c238c	-0.15247935
113	0xbe103d84	-0.14085966
114	0xbf321c22	-0.6957418
115	0xbe648e20	-0.22319841
116	0xbf02ff22	-0.5117055
117	0x3ddc75cc	0.107646555
118	0x3f060c09	0.52362114
119	0xbf2daa3b	-0.67837876
120	0x3e9ae2bd	0.30251113
121	0xbef17e35	-0.471666
122	0xbecf65b7	-0.4050729
123	0x3f0585ed	0.5215748
124	0xbe5ba815	-0.21450837
125	0xbcd2cc93	-0.025732314
126	0xbe0254c7	-0.12727652
127	0xbd823d77	-0.0635938
128	0xbdf45400	-0.11930084
129	0xba5c0d55	-0.00083943206
130	0xbf306ada	-0.6891304
131	0xbe421f8d	-0.18957348
132	0x3eac1da4	0.33616364
133	0x3eb0c4c0	0.34525108
134	0x3decf612	0.11570372
135	0xbd9110bc	-0.0708327
136	0xbf0d4171	-0.5517798
137	0x3eb28202	0.34864813
138	0xbf050b94	-0.5197079
139	0x3e92da7f	0.28682324
140	0x3f1b8ea0	0.60764503
141	0xbe5ac59b	-0.21364443
142	0x3f246506	0.6421665
143	0xbeaa0ded	-0.3321375
144	0xbec5c7ec	-0.3862909
145	0xbe60a589	-0.21938147
146	0x3de4ed84	0.11178115
147	0x3cdbaf84	0.02681709
148	0xbf0fb950	-0.5614214
149	0xbec9a5af	-0.3938422
150	0xbe91c879	-0.2847326
151	0xbe36110d	-0.17779942
152	0xbe9c26e1	-0.30498412
153	0x3f2a7854	0.66589856
154	0x3ed5145d	0.41617098
155	0xbeb4d0e7	-0.3531563
156	0x3e907f48	0.28222108
157	0x3ee3c40f	0.44485518
158	0x3de5f64e	0.112286195
159	0x3e629c95	0.22130044
160	0xbf06698f	-0.5250482
161	0xbdd70760	-0.104994535
162	0xbf8f8fdb	-1.1215776
163	0x3f0c127b	0.547157
164	0xbdced990	-0.101000905
165	0x3d11e714	0.035620764
166	0x3e1518eb	0.14560287
167	0x3e9dfa0f	0.30854842
168	0x3e3ef6a7	0.18648778
169	0x3eb933f3	0.36172447
170	0xbdf8d854	-0.12150636
171	0xbaccbf27	-0.0015620933
172	0x3eae94a4	0.3409778
173	0x3e97823d	0.2959155
174	0xbd722475	-0.0591168
175	0x3c991f4b	0.01869168
176	0x3f34a7b1	0.70568377
177	0xbd881647	-0.06644874
178	0xbf0c16bd	-0.54722196
179	0x3e8bb99f	0.27290055
180	0xbd2e67af	-0.04257935
181	0x3eab036e	0.33401054
182	0xbee4011e	-0.44532102
183	0x3eae39e0	0.3402853
184	0x3f70f275	0.9411996
185	0x3f63b207	0.88943523
186	0xbd402918	-0.04691419
187	0x3e358676	0.17727074
188	0xbf9cea59	-1.2259017
189	0xbf468fc8	-0.7756314
190	0x3e8a1cc8	0.26975083
191	0xbeff67b1	-0.49883798
192	0x3ec2dcb6	0.38059014
193	0x3ed12853	0.40851077
194	0xbe12d0ce	-0.14337465
195	0xbedb3e2a	-0.42820865
196	0xbf4d02e9	-0.80082566
197	0x3ea32082	0.3186074
198	0x3ca7035e	0.020387348
199	0xbe4d28c7	-0.20035087
200	0x3e263699	0.16231765
201	0xbdec0b44	-0.11525586
202	0xbf19ad15	-0.6002973
203	0xbd26b046	-0.04069545
204	0x3ec4eb50	0.3846078
205	0xbe85391c	-0.26020133
206	0xbe150e01	-0.14556123
207	0x3f37c29d	0.7178133
208	0xbebfc87a	-0.3745764
209	0x3eca77b3	0.39544448
210	0xbf059dcb	-0.521939
211	0xbf22f052	-0.6364795
212	0xbd944635	-0.072399534
213	0x3ec2c4e9	0.38040856
214	0xbf5b686b	-0.85706204
215	0xbefbc1df	-0.4917135
216	0x3cd75f2c	0.026290499
217	0x3ef11a34	0.47090304
218	0x3eb8d4c5	0.3609983
219	0x3f211bd6	0.629331
220	0xbd47c0e6	-0.048767947
221	0x3e80ce97	0.25157616
222	0x3f103c3f	0.5634193
223	0xbf2e317e	-0.6804427
224	0x3ec8fb27	0.39254114
225	0xbdb9064a	-0.09034403
226	0xbf310e89	-0.69162804
227	0x3ea4cfbb	0.32189736
228	0x3ea24c7a	0.31698972
229	0xbf2f4fa1	-0.6848088
230	0xbf218085	-0.6308673
231	0xbe415d4b	-0.18883245
232	0x3ef5b360	0.47988415
233	0x3ee5bb67	0.4486954
234	0xbd3bd53d	-0.045857657
235	0x3eee598c	0.46552694
236	0xbf1a91f6	-0.6037897
237	0x3de039f6	0.10948555
238	0x3eb3b174	0.35096323
239	0x3d335cbf	0.04378962
240	0x3c06b057	0.008220754
241	0x3cceb9f1	0.025235148
242	0xbd3e1548	-0.046407014
243	0x3ec2bf1c	0.3803643
244	0xbfbbcf97	-1.4672726
245	0x3ebc36e2	0.36760622
246	0x3e1f5190	0.15558457
247	0xbea71f3b	-0.32641014
248	0x3ed940d0	0.4243226
249	0x3e89b1cf	0.2689347
250	0xbf0dc81c	-0.5538347
251	0xbf618ea2	-0.88108265
252	0xbe8f373b	-0.27971825
253	0xbfc1cffb	-1.5141596
254	0x3e937f33	0.28807983
255	0x3f2abfed	0.66699106

bn_outlayer_in.weight f4 [128]
0	0x3eb7fd50	0.3593545
1	0x3e664bdf	0.2248988
2	0x3ed81b01	0.42208102
3	0x3f1a5a34	0.6029389
4	0x3ec7e818	0.3904426
5	0x3ebdc63c	0.37065303
6	0x3ea8a8a1	0.32941154
7	0x3f3e10a7	0.7424416
8	0x3ee8d6cf	0.45476386
9	0x3ebd9096	0.37024373
10	0x3ec08810	0.37603807
11	0x3eba22e3	0.3635474
12	0x3eade192	0.3396116
13	0x3eb10986	0.34577578
14	0x3ea38930	0.31940603
15	0x3ec695a1	0.38786033
16	0x3f0ec2d0	0.5576601
17	0x3e2e72c5	0.17035969
18	0x3eb96b2b	0.36214575
19	0x3e4469fa	0.19181052
20	0x3ef1d314	0.47231352
21	0x3e16f265	0.14740904
22	0x3ebd743a	0.37002736
23	0x3e78c081	0.24292184
24	0x3f13e7a1	0.5777531
25	0x3ef65789	0.4811366
26	0x3ed9785d	0.42474642
27	0x3f1059ed	0.56387216
28	0x3e17d900	0.14828873
29	0x3e5a3c07	0.21311961
30	0x3ed38b28	0.41317105
31	0x3e829252	0.2550226
32	0x3f17ad4c	0.59248805
33	0x3eef40d1	0.46729138
34	0x3f04c7f7	0.5186762
35	0x3f0d8ac6	0.55289876
36	0x3f1edbce	0.62054145
37	0x3eed3c56	0.46335095
38	0x3e0a1467	0.13484345
39	0x3eb0b81e	0.3451547
40	0x3f046c87	0.517281
41	0x3ed6ce4b	0.41954264
42	0x3eb52951	0.35383084
43	0x3ec64672	0.3872562
44	0x3e910f5a	0.28332025
45	0x3f0bcc16	0.54608285
46	0x3eb2d236	0.34926003
47	0x3e87d907	0.26532766
48	0x3e9f104e	0.31067127
49	0x3efcd9eb	0.49385008
50	0x3f14420d	0.57913285
51	0x3e37d133	0.17950897
52	0x3e4159e3	0.18881945
53	0x3f0da477	0.5532908
54	0x3ee00b15	0.43758455
55	0x3f017d80	0.5058212
56	0x3eb19393	0.34682903
57	0x3e213516	0.15742907
58	0x3f58ea7e	0.84732807
59	0x3e777369	0.24165119
60	0x3f354579	0.7080913
61	0x3eb0c4ae	0.34525055
62	0x3f0de18c	0.5542228
63	0x3ebd2bef	0.3694758
64	0x3ed5dfec	0.417724
65	0x3f232240	0.63724136
66	0x3eaac737	0.33355114
67	0x3f1be87e	0.6090163
68	0x3f0fb2d4	0.56132245
69	0x3eac07d6	0.33599728
70	0x3f19eba1	0.60125166
71	0x3eb3d0e2	0.35120302
72	0x3e5df15e	0.21674106
73	0x3ea16b57	0.31527206
74	0x3f08023b	0.53128403
75	0x3ed533d5	0.41641107
76	0x3ea16856	0.31524915
77	0x3e62c8a8	0.22146857
78	0x3f180d62	0.5939542
79	0x3e436ecf	0.19085239
80	0x3f0f842f	0.5606107
81	0x3e1482c0	0.14503002
82	0x3e9988c5	0.2998716
83	0x3eab35bb	0.3343943
84	0x3f1dffc0	0.6171837
85	0x3efd4d75	0.49473158
86	0x3e766d45	0.2406512
87	0x3f241214	0.64090085
88	0x3e82b405	0.2552797
89	0x3e396761	0.18105842
90	0x3eb63f7c	0.3559531
91	0x3ef7ba57	0.48384354
92	0x3ed34533	0.41263732
93	0x3eb71e76	0.35765427
94	0x3eac688d	0.33673516
95	0x3ec64be3	0.38729772
96	0x3e5853f4	0.21125776
97	0x3e197a78	0.14988124
98	0x3eb0cd6b	0.3453172
99	0x3e8d171c	0.27556694
100	0x3f12bf75	0.5732339
101	0x3ecfc29f	0.40578172
102	0x3ec0f6a3	0.3768817
103	0x3eb52b6f	0.353847
104	0x3eeb5383	0.45962152
105	0x3ec5d031	0.386354
106	0x3f2c60d1	0.6733523
107	0x3eea8a1b	0.4580849
108	0x3e8f5f31	0.28002313
109	0x3e8873d0	0.26650858
110	0x3e784a74	0.24247152
111	0x3ebac829	0.36480835
112	0x3f4c3cad	0.79780084
113	0x3ec25241	0.3795338
114	0x3f29b419	0.6629043
115	0x3ef3336d	0.47500172
116	0x3f379a3e	0.7171973
117	0x3ee8555e	0.4537763
118	0x3f0b9bb1	0.5453444
119	0x3f3ee63a	0.7457005
120	0x3eabc301	0.33547214
121	0x3ef63920	0.48090458
122	0x3eab30ad	0.33435574
123	0x3ec952d3	0.39321002
124	0x3f1d509f	0.61451143
125	0x3e19ef0a	0.15032592
126	0x3df8dc0f	0.12151348
127	0x3e85e056	0.26147717

bn_outlayer_in.bias f4 [128]
0	0xbe66f93b	-0.22556011
1	0xbe3bad57	-0.18327843
2	0xbea760a7	-0.32690927
3	0xbea92014	-0.33032286
4	0xbeb8f392	-0.3612333
5	0xbeace6a4	-0.33769715
6	0xbe5dc98d	-0.21658917
7	0xbeb08484	-0.344761
8	0xbdbeb8c9	-0.09312589
9	0xbf0dfa1d	-0.5545977
10	0xbe8e9200	-0.27845764
11	0xbe961689	-0.29314068
12	0xbe6ee992	-0.23331288
13	0xbeaa354c	-0.33243787
14	0xbe664a31	-0.2248924
15	0xbf239d64	-0.63912034
16	0xbeac0c07	-0.33602926
17	0xbd0dcbbc	-0.034618124
18	0xbe57d51c	-0.21077389
19	0xbdf8dde7	-0.121516995
20	0xbf1a5887	-0.6029133
21	0xbfabf589	-1.3434306
22	0xbe72da9b	-0.23716204
23	0xbe9f4601	-0.31108096
24	0xbebfd7bf	-0.3746929
25	0xbeff5c07	-0.498749
26	0xbdfc6487	-0.123238616
27	0xbeaa3d70	-0.33249998
28	0xbfa44a50	-1.2835178
29	0xbf51f2a5	-0.8201087
30	0xbf154bcf	-0.583188
31	0xbcfa61f5	-0.030564288
32	0xbe2daa18	-0.16959417
33	0xbf6c06ac	-0.9219768
34	0xbf203f94	-0.6259701
35	0xbda95dca	-0.08269842
36	0xbe956c53	-0.29184207
37	0xbf6be7b4	-0.92150426
38	0xbd567e7b	-0.052366715
39	0xbfb8a391	-1.4424917
40	0xbf141d92	-0.5785762
41	0xbf21a6b8	-0.6314502
42	0xbe5326b0	-0.20620227
43	0xbe894257	-0.26808426
44	0xbe033378	-0.12812603
45	0xbf8b8945	-1.0901266
46	0xbe61fce7	-0.22069131
47	0xbe290191	-0.16504504
48	0xbf3283af	-0.69732183
49	0xbe27890a	-0.1636087
50	0xbe00cc3f	-0.12577914
51	0xbd2d4e4d	-0.042311
52	0xbd27a110	-0.040925086
53	0xbe2e3111	-0.17010905
54	0xbea78500	-0.32718658
55	0xbf67f8d3	-0.9061405
56	0xbf5c3886	-0.8602375
57	0xbd1b4bf6	-0.03791424
58	0xbeb6a7b8	-0.35674834
59	0xbc71694e	-0.014734579
60	0xbeb87503	-0.36026773
61	0xbe824aa1	-0.25447562
62	0xbf3d3627	-0.73910755
63	0xbd362894	-0.044472292
64	0xbef555c7	-0.47917005
65	0xbe4f2fc9	-0.20233072
66	0xbe494923	-0.19656806
67	0xbec0be70	-0.37645292
68	0xbecf73ca	-0.40518028
69	0xbf082fa7	-0.5319771
70	0xbf4c76a5	-0.7986854
71	0xbe708761	-0.23489143
72	0xbe44d89a	-0.19223252
73	0xbf074580	-0.52840424
74	0xbe0db085	-0.13836868
75	0xbefdff32	-0.4960876
76	0xbea78296	-0.32716817
77	0xbd05267a	-0.032507397
78	0xbe70f72b	-0.23531787
79	0xbdc315a1	-0.0952561
80	0xbebb7005	-0.36608902
81	0xbcc2a257	-0.02375905
82	0xbd3d43d1	-0.046207253
83	0xbe0b04d7	-0.13576065
84	0xbe904155	-0.28174844
85	0xbee6bca6	-0.45065802
86	0x3caf3ab7	0.021390302
87	0xbe1c494d	-0.15262337
88	0xbe5a6f01	-0.21331407
89	0xbd67da0e	-0.056604438
90	0xbe8f6258	-0.28004718
91	0xbecd85f0	-0.4014125
92	0xbf106c51	-0.5641528
93	0xbe1b09fd	-0.15140529
94	0xbef923ba	-0.4866007
95	0xbeb49acb	-0.35274348
96	0xbf8238ad	-1.0173546
97	0xbdafb494	-0.085793644
98	0xbe883de8	-0.2660973
99	0xbeb2bf35	-0.34911504
100	0xbe013052	-0.12616089
101	0xbebc8eab	-0.36827597
102	0xbeab2a3f	-0.3343067
103	0xbef10d05	-0.47080246
104	0xbdd1ae6d	-0.10238347
105	0xbf2f5050	-0.6848192
106	0xbeb99645	-0.3624746
107	0xbf15b7c9	-0.5848356
108	0xbe478f83	-0.19488339
109	0xbebd9920	-0.37030888
110	0xbf69071f	-0.9102649
111	0xbe5e6b06	-0.21720514
112	0xbe3dde09	-0.18541731
113	0xbf1dde1c	-0.61667037
114	0xbe9bb5d0	-0.3041215
115	0xbde08604	-0.109630615
116	0xbeb7dcb0	-0.3591056
117	0xbeef06bc	-0.46684825
118	0xbf2cf90e	-0.6756753
119	0xbed55e0f	-0.41673324
120	0xbe747587	-0.23872958
121	0xbf3a9576	-0.7288431
122	0xbe582761	-0.21108772
123	0xbe89b170	-0.26893187
124	0xbe8bc8dc	-0.2730168
125	0x3c47eb21	0.012202055
126	0x3ca9b348	0.02071537
127	0xbe60fcf7	-0.21971498

bn_outlayer_in.running_mean f4 [128]
0	0x3e194b1c	0.14970058
1	0x3d8ff349	0.07028825
2	0x3e009d2a	0.12559953
3	0xbea140a4	-0.3149463
4	0x3c497c59	0.012297713
5	0x3bcd578c	0.00626654
6	0x3d5076be	0.05089449
7	0xbdfd2896	-0.12361257
8	0xbe3bb15a	-0.18329373
9	0x39fd3f51	0.00048303095
10	0x3cb23efa	0.021758545
11	0x3c02539f	0.007954507
12	0x3deb25d2	0.11481823
13	0x3dc33858	0.09532231
14	0x3e3360b2	0.17517355
15	0x80000004	-6e-45
16	0xbe922be9	-0.28549126
17	0xbce5e255	-0.028062025
18	0x3c903a9f	0.017606078
19	0x3e1a32f0	0.15058494
20	0xbb59bf7f	-0.0033225713
21	0x3da0fae8	0.078603566
22	0x3de84abd	0.1134238
23	0x3db5ec26	0.08882932
24	0xbea7fdeb	-0.32810912
25	0x3da19e5e	0.07891534
26	0xbdd41d0a	-0.10357101
27	0xbe996088	-0.2995646
28	0x3c14c133	0.009079265
29	0x3e0add92	0.13561085
30	0xbc8c1b83	-0.017102962
31	0xbacc27e7	-0.0015575857
32	0xbe3f2456	-0.18666205
33	0x98039da8	-1.701095e-24
34	0xbacbbe67	-0.0015544415
35	0xbdb12441	-0.08649493
36	0xbd18a4a3	-0.037266385
37	0x00000004	6e-45
38	0x3e2a9e3a	0.16661921
39	0x3d8620cc	0.06549224
40	0xba724d72	-0.00092431076
41	0xbad6139e	-0.0016332751
42	0x3ce54518	0.027987048
43	0x3ce165a1	0.02751428
44	0x3c044c28	0.008074798
45	0x3c8e8613	0.017397916
46	0x3e2f1e14	0.17101318
47	0xbc4d5f79	-0.0125349695
48	0xbc3cd144	-0.011524502
49	0xbd1de22b	-0.03854577
50	0xbe0605cd	-0.1308815
51	0x3e21df08	0.15807736
52	0xbded3d46	-0.115839526
53	0xbe037537	-0.12837683
54	0x3cdc20c7	0.026871098
55	0x3cb8baa4	0.022549935
56	0x3e69982e	0.22811958
57	0xbd4e9033	-0.050430488
58	0xbdf782ca	-0.12085493
59	0xbbc9a8dc	-0.006154163
60	0xbe41deb9	-0.18932618
61	0x3e1aff9f	0.15136574
62	0xbbd98dd5	-0.006639222
63	0xbe07ab3e	-0.13248917
64	0xbb5b9d3a	-0.0033510462
65	0xbe75be9f	-0.23998497
66	0x3cc27cc5	0.023741135
67	0xbe9d7102	-0.3075028
68	0xbcdc4cee	-0.026892152
69	0xbc4719f7	-0.012152187
70	0xbc1e3e8f	-0.00965847
71	0xbdd9cfb0	-0.10635316
72	0x3df11bfc	0.11772916
73	0x3dccef36	0.10006563
74	0xbe3888f2	-0.1802099
75	0xbdcd786c	-0.10032734
76	0x3ca0d946	0.019634854
77	0xbd2462a8	-0.04013315
78	0xbd919fb5	-0.0711054
79	0x3e70e3ff	0.23524474
80	0xbe972f4b	-0.2952827
81	0x3d4a7dfd	0.049436558
82	0xbe539f62	-0.20666268
83	0x3d91d314	0.07120338
84	0xbdbeda42	-0.09318973
85	0x3c8b5bfc	0.017011635
86	0xbe81d256	-0.25355786
87	0xbe445e3a	-0.1917657
88	0x3d99a504	0.07502177
89	0x3e61babe	0.22043893
90	0xbaecb25f	-0.001805853
91	0x3dc59e17	0.09649294
92	0xb6568182	-3.1963868e-06
93	0xbcb678a1	-0.022274317
94	0xbd24ee04	-0.040266052
95	0x3dcb6139	0.09930653
96	0x3c375a2d	0.011190933
97	0xbdf44d30	-0.11928785
98	0x3de7f7f7	0.113265924
99	0x3c54396d	0.0129531445
100	0xbdc92842	-0.09822132
101	0x3df34e02	0.11880113
102	0x3ca7d5b4	0.020487644
103	0xbdb9806a	-0.09057696
104	0xbe19153b	-0.14949505
105	0x3ca5270a	0.020160217
106	0xbca25cd8	-0.019819662
107	0x3caee015	0.021347085
108	0x3e0cdd3c	0.13756269
109	0x3d0e43b8	0.03473255
110	0x00000004	6e-45
111	0xbd7ed62d	-0.062215973
112	0xbd28d261	-0.041216258
113	0xbc05a658	-0.008157335
114	0xbbe9cb2c	-0.0071348157
115	0xbdbab3dd	-0.091163374
116	0xbe6e1d40	-0.23253345
117	0x3c7bba0a	0.015364179
118	0x00000004	6e-45
119	0xbe9d4f55	-0.30724588
120	0x3b0ac727	0.0021175833
121	0xbe2e5868	-0.17025912
122	0x3cdc973a	0.02692758
123	0x3e3bd024	0.18341118
124	0xbdb5cfad	-0.08877502
125	0x3b9be228	0.0047571845
126	0x3c9e6135	0.019333461
127	0x3d88d308	0.06680876

bn_outlayer_in.running_var f4 [128]
0	0x3e4be7b5	0.19912608
1	0x3e64a3e8	0.2232815
2	0x3e9028c1	0.28156093
3	0x3d88ddb9	0.06682915
4	0x3b97e623	0.0046355887
5	0x3a722382	0.00092368585
6	0x3e3ea551	0.1861775
7	0x3d0ac709	0.03388122
8	0x3d03889e	0.03211271
9	0x3abdd3a5	0.0014482631
10	0x3e64a52d	0.22328635
11	0x3aef8f18	0.0018276898
12	0x3e8463bf	0.2585735
13	0x3e8e5774	0.27801096
14	0x3e994560	0.2993574
15	0x00000004	6e-45
16	0x3d865cf8	0.06560701
17	0x3dc4af53	0.09603753
18	0x3e67f38f	0.22651504
19	0x3e6a6819	0.22891273
20	0x3a94d089	0.0011353652
21	0x3e5e8fc5	0.21734531
22	0x3e8fca12	0.28083855
23	0x3f16ae04	0.58859277
24	0x3d8a16b1	0.06742609
25	0x3e0b605f	0.13610981
26	0x3e142185	0.14465912
27	0x3d5eb6f4	0.054373696
28	0x3dccfc5b	0.100090705
29	0x3e4bcf0d	0.19903202
30	0x3b1b1ecf	0.0023669486
31	0x3b91b576	0.0044466807
32	0x3dba6928	0.09102088
33	0x1483fbce	1.3326939e-26
34	0x3b6557fe	0.0034995074
35	0x3e88d97b	0.26728424
36	0x3b2d9e09	0.0026491901
37	0x00000004	6e-45
38	0x3de56391	0.112006314
39	0x3c260f10	0.010135427
40	0x3a1fd8ba	0.00060976634
41	0x3a189609	0.0005820697
42	0x3e6bf8ac	0.2304408
43	0x3e5fc906	0.21854028
44	0x3b363099	0.0027799963
45	0x3a2881e0	0.0006428044
46	0x3e81aac0	0.25325584
47	0x3e27cdc9	0.16387095
48	0x3dfce946	0.12349181
49	0x3b5b53fb	0.0033466804
50	0x3d77182c	0.060325786
51	0x3eae4483	0.34036645
52	0x3e8e729d	0.27821818
53	0x3e392089	0.18078817
54	0x3e9cf87b	0.30658326
55	0x3a5dd557	0.0008462271
56	0x3e0260ab	0.12732188
57	0x3e97e515	0.29666963
58	0x3d284da7	0.04108968
59	0x3be219a5	0.0069000297
60	0x3d94f173	0.07272615
61	0x3ebd898d	0.37019005
62	0x3acfd354	0.0015855827
63	0x3e1c7b26	0.15281352
64	0x3b0d520d	0.0021563799
65	0x3f3bee46	0.7341045
66	0x3ba800ae	0.005127034
67	0x3db00f62	0.08596684
68	0x3ea010a9	0.3126271
69	0x3e2d0820	0.1689763
70	0x3ab4e26b	0.0013800388
71	0x3e89b01a	0.26892167
72	0x3e5ee75d	0.21767946
73	0x3e6908f3	0.2275732
74	0x3e0240ed	0.1272008
75	0x3e29d373	0.16584568
76	0x3aba4c99	0.0014213502
77	0x3db1ab8a	0.086752966
78	0x3cc67c3f	0.024229167
79	0x3e55be4b	0.20873372
80	0x3d893b2a	0.06700738
81	0x3bd2faa3	0.0064385696
82	0x3d97eeac	0.0741857
83	0x3e3bd23a	0.18341914
84	0x3c8bb2c5	0.017053017
85	0x3b06bd0b	0.0020559456
86	0x3d9dc9b0	0.077044845
87	0x3e776a1f	0.24161576
88	0x3ec304fa	0.38089734
89	0x3df74305	0.1207333
90	0x3be973a6	0.007124382
91	0x3e654631	0.22390057
92	0x34a85110	3.135142e-07
93	0x3c470a8b	0.01214851
94	0x3e808519	0.25101545
95	0x3e9ce817	0.3064582
96	0x3c598dad	0.013278407
97	0x3e8fcdbf	0.2808666
98	0x3e5d120f	0.2158892
99	0x3a832965	0.0010006843
100	0x3e361e9d	0.17785116
101	0x3ec42518	0.3830955
102	0x3e3f8ca8	0.18706
103	0x3e373567	0.17891465
104	0x3ec1e153	0.3786722
105	0x3a254498	0.0006304472
106	0x3a579604	0.0008223953
107	0x3b1295ea	0.0022367188
108	0x3e8ea6a7	0.2786152
109	0x3ed2f375	0.41201368
110	0x00000004	6e-45
111	0x3f1ae457	0.6050467
112	0x3ce03316	0.02736811
113	0x3abd6488	0.0014449516
114	0x392abb2b	0.00016282189
115	0x3e22ace7	0.1588627
116	0x3db4a7a2	0.08821036
117	0x3b470221	0.003036626
118	0x00000004	6e-45
119	0x3dd3b439	0.10337109
120	0x3e7e8657	0.24855934
121	0x3ee5e565	0.44901577
122	0x3e64c38d	0.22340222
123	0x3e97c13a	0.29639608
124	0x3cca2ef8	0.0246806
125	0x3b2d4e1e	0.0026444267
126	0x3a48b22d	0.0007655945
127	0x3dba8db3	0.09109058

gnn_layers.0.gnn.att_i f4 [1, 1, 128]
0	0x3d57c1c5	0.052675027
1	0x3da6ea75	0.08150188
2	0x3db9e78f	0.090773694
3	0x3ec00abb	0.37508187
4	0x3d85b3d3	0.065284394
5	0x3eac8b0b	0.3369983
6	0xbd6c6286	-0.057711147
7	0x3e33a3d3	0.17542963
8	0x3d8876a9	0.06663258
9	0x3d1a143c	0.037616953
10	0x3b953db3	0.0045544743
11	0x3d822311	0.06354345
12	0xbdbfd853	-0.093674324
13	0x3e1cf73e	0.1532869
14	0xbe39bacc	-0.18137664
15	0x3ef23ac2	0.47310454
16	0x3e0b295d	0.13589998
17	0xbd206380	-0.03915739
18	0xbae5f1e5	-0.0017543404
19	0x3e7d51f0	0.24738288
20	0x3d2effc4	0.042724386
21	0xbd3acd6e	-0.04560607
22	0xbdd326b9	-0.1031012
23	0xbcbcd06e	-0.023048606
24	0x3ebc31c1	0.3675671
25	0x3d249391	0.040179793
26	0xbe71ee6e	-0.2362611
27	0x3ed2f794	0.41204512
28	0x3aebc744	0.0017988463
29	0x38de95af	0.00010613666
30	0x3d76ef77	0.060286965
31	0x3d50b985	0.050958175
32	0xbcb02cdf	-0.021505771
33	0x3e893261	0.2679625
34	0x3d80fa43	0.06297734
35	0xbea4a3f8	-0.32156348
36	0x3e7cc413	0.24684171
37	0x3f020bfd	0.5079954
38	0xbb9371e5	-0.0044996613
39	0x3dd7cd7c	0.1053724
40	0x3e1d7a99	0.15378799
41	0x3c07277d	0.008249161
42	0xbed7f39f	-0.42178056
43	0xbb1ad021	-0.002362259
44	0x3d93daeb	0.0721949
45	0x3e7572a5	0.23969515
46	0xbe12e859	-0.14346446
47	0xbc697a86	-0.014250403
48	0xbd58ea83	-0.052958023
49	0x3e1ae186	0.15125093
50	0xbc5ae26c	-0.013359647
51	0x3db84fd0	0.08999598
52	0xbdca4d4d	-0.09878025
53	0xbda377fc	-0.079818696
54	0xbdfa5f09	-0.12225158
55	0x3d125a44	0.035730615
56	0xbe058e26	-0.13042507
57	0xbd4b75bf	-0.04967284
58	0x3ec475f5	0.38371244
59	0x3d20bd81	0.039243225
60	0x3ea35d9a	0.3190735
61	0xbe9aff10	-0.30272722
62	0x3e71a718	0.23598897
63	0xbc0e4eea	-0.008685807
64	0x3ca752be	0.020425197
65	0xbe30611c	-0.17224544
66	0x3e648c75	0.22319205
67	0x3ed9adbf	0.4251537
68	0x3d8dd036	0.06924479
69	0xbe4bbb31	-0.19895627
70	0x3d85df4a	0.0653673
71	0x3d10716e	0.035264425
72	0xbd89754c	-0.06711826
73	0x3e09b201	0.1344681
74	0xbe5a15fe	-0.21297452
75	0xbc0514a9	-0.008122602
76	0x3f134e51	0.57541376
77	0xbcef8cd0	-0.02924195
78	0xbe6074b1	-0.21919514
79	0xbe06db79	-0.1316966
80	0x3f2b5911	0.6693278
81	0x3e64b0fa	0.22333136
82	0xba7e04db	-0.00096900546
83	0xbd803485	-0.06260017
84	0x3e5571b4	0.20844156
85	0x3e0b4959	0.13602199
86	0x3d5c505a	0.053787567
87	0xbe561b41	-0.20908834
88	0xbd4c1caa	-0.049832024
89	0x3f8d6eb5	1.104941
90	0x3eb4d556	0.35319012
91	0xbae27cfc	-0.001727968
92	0x3d71c96a	0.059029974
93	0x3c5d1d82	0.013495805
94	0xbd9f05a0	-0.07764745
95	0xbdc5c6b6	-0.09657042
96	0x3e830d9b	0.25596318
97	0xbd2e2b5f	-0.04252183
98	0x3decc019	0.11560077
99	0x3d19c509	0.037541423
100	0xbdae2651	-0.08503402
101	0xbdfe027b	-0.12402817
102	0xbd2c82f6	-0.04211708
103	0xbde7d823	-0.11320522
104	0xbd9a4bc7	-0.07533985
105	0x3d509e45	0.050932188
106	0x3e5c9f78	0.21545208
107	0x3ea33bbf	0.3188152
108	0xbe296754	-0.16543323
109	0x3ce20588	0.027590528
110	0x3dd8b7a6	0.10581903
111	0xbe9e3bef	-0.309051
112	0x3bdc86d9	0.0067299423
113	0x3e9c3058	0.30505633
114	0xbcb91488	-0.022592798
115	0xbdb6f719	-0.08933849
116	0x3d94f8c4	0.07274011
117	0x3ea66679	0.32500055
118	0x3ad76225	0.0016432448
119	0x3e2c6a3b	0.16837399
120	0xbe5a907f	-0.21344183
121	0xbe9a3f83	-0.3012658
122	0x3d023499	0.031788442
123	0xbe58654d	-0.21132393
124	0x3e4a2daf	0.1974399
125	0x3e379c9d	0.17930837
126	0x3e3110b0	0.17291522
127	0xbcd2519f	-0.025673686

gnn_layers.0.gnn.att_j f4 [1, 1, 128]
0	0xbf12525f	-0.5715694
1	0xbd3a4b41	-0.045481924
2	0x3d01d291	0.031694952
3	0x3f60d796	0.8782896
4	0xbd2ff7db	-0.042960983
5	0x3e6fcde2	0.23418382
6	0x3e06b7a8	0.13155997
7	0xbe3c17bb	-0.18368427
8	0xbea3f91a	-0.32025987
9	0x3c4e7f81	0.0126036415
10	0xbe5ffcba	-0.21873751
11	0x3c197d29	0.009368219
12	0xbd073048	-0.03300503
13	0x3bb4f79d	0.005522682
14	0xbf665789	-0.8997732
15	0x3e317015	0.17327912
16	0x3f01746e	0.5056828
17	0xbd63b86f	-0.05559581
18	0x3d7c502e	0.061599903
19	0x3e08fc98	0.13377607
20	0xbc49923a	-0.01230293
21	0xbd412359	-0.04715285
22	0x3d249908	0.040185004
23	0x3e9bcbbb	0.30428872
24	0x3f4e50ed	0.8059223
25	0xbf887082	-1.0659335
26	0xbe6f756f	-0.23384641
27	0x3f4f317d	0.8093489
28	0x3bd6ed0e	0.006559021
29	0xbc277952	-0.010221796
30	0xbd34ede9	-0.0441722
31	0xbd592031	-0.053009216
32	0xbdcbfdca	-0.09960516
33	0x3eac7c76	0.33688706
34	0x3d9360c6	0.071961924
35	0xbd410491	-0.047123495
36	0x3cfa6a91	0.030568393
37	0xbc5f8261	-0.013641925
38	0x3e3ab3d6	0.18232664
39	0x3dbec7b6	0.093154356
40	0x3e13c5a2	0.1443086
41	0xbd7bc1ab	-0.061463993
42	0xbe5bec79	-0.21476926
43	0xbe0bfacb	-0.13669889
44	0x3dd8f590	0.10593712
45	0x3e98baa7	0.29829904
46	0xbd4a9d67	-0.049466517
47	0xbd940137	-0.07226794
48	0xbd80bab2	-0.06285609
49	0x3ea1e921	0.31623176
50	0xbe013ec9	-0.12621607
51	0x3cd1017d	0.025513405
52	0xbde8e5e7	-0.113719754
53	0xbd44e6a8	-0.048071533
54	0xbe874c04	-0.26425183
55	0x3dca2ee1	0.09872223
56	0xbe14ddcf	-0.14537738
57	0xbe183005	-0.14862068
58	0x3ecafd9d	0.39646617
59	0x3d6c814a	0.057740487
60	0x3e4e89b8	0.20169723
61	0xbe5050c7	-0.20343314
62	0x3e95dcb3	0.29269943
63	0x3dce8c01	0.100852974
64	0xbc89911c	-0.016792826
65	0xbe164b98	-0.14677274
66	0xbe1fa37a	-0.15589705
67	0x3f600dbb	0.8752095
68	0xbf9325e8	-1.1495943
69	0xbe451846	-0.19247541
70	0x3cb0c31e	0.021577414
71	0xbd6e901b	-0.0582429
72	0x3e92e886	0.28693026
73	0xbdc77de5	-0.09740809
74	0xbe0baf7f	-0.13641165
75	0x3c8537f9	0.016262041
76	0xbe3e4340	-0.18580341
77	0xbe89bf61	-0.26903823
78	0x3dd366bb	0.10322329
79	0xbdf43647	-0.11924415
80	0x3f5e3162	0.867941
81	0x3e2c7581	0.16841699
82	0xbd8eae45	-0.06966833
83	0xbd45dbc6	-0.048305295
84	0x3e1e9827	0.15487729
85	0x3e607988	0.2192136
86	0x3dd3139a	0.10306473
87	0xbd299399	-0.041400526
88	0x3d19599f	0.037438985
89	0xbeed84b3	-0.46390304
90	0xbcbfdba1	-0.023420157
91	0xbf964965	-1.1741148
92	0x3d58257e	0.05277013
93	0x3c43d625	0.0119529115
94	0xbe060596	-0.13088068
95	0xbeb10bc3	-0.34579286
96	0x3e91f6f6	0.2850873
97	0x3e53ddbd	0.20690055
98	0x3d4da147	0.050202634
99	0xbd9bdf38	-0.07610935
100	0xbdc0ac4e	-0.094078645
101	0xbf23c4fc	-0.6397245
102	0x3e324d65	0.17412336
103	0xba914e54	-0.0011085966
104	0xbd82f0b4	-0.06393567
105	0x3d202a0b	0.039102595
106	0x3e444527	0.19167005
107	0x3e12fd38	0.14354408
108	0xbeaed7ff	-0.34149167
109	0xbc67f0a5	-0.014156495
110	0xbda6eea7	-0.08150988
111	0xbe1888a1	-0.1489587
112	0xbabd7b5a	-0.0014456317
113	0x3e24a25a	0.16077557
114	0x3ef4af54	0.47790015
115	0xbdaba1aa	-0.08380444
116	0x3d4e06bd	0.050299395
117	0xbe0f2a8d	-0.13981076
118	0x3b949947	0.0045348736
119	0x3e1e6b37	0.15470587
120	0xbe19f00c	-0.15032977
121	0xbde8928c	-0.113560766
122	0xbf42d9c9	-0.76113564
123	0xbea4ea6a	-0.32210094
124	0x3d258056	0.040405594
125	0xbdd5adbd	-0.104335286
126	0xbd667cc1	-0.05627132
127	0xbdb85d0a	-0.09002121

gnn_layers.0.gnn.att_em_i f4 [1, 1, 128]
0	0xbd76dec6	-0.060271047
1	0xbcaa370e	-0.020778205
2	0x3e417428	0.18891966
3	0x3e7b3853	0.24533205
4	0x3d335bdd	0.04378878
5	0xbd5b489e	-0.05353605
6	0xbdb46981	-0.08809186
7	0x3e1f7944	0.15573603
8	0xbe93a4de	-0.2883672
9	0xbcbd1828	-0.023082808
10	0x3d403779	0.046927903
11	0x3c333ba0	0.010939509
12	0x3dd36c96	0.103234455
13	0x3e1e31a7	0.15448628
14	0x3e9307d5	0.28716913
15	0x3d5701e2	0.05249203
16	0x3e9fa32b	0.31179175
17	0x3e169720	0.14706087
18	0xbc7574c6	-0.014981454
19	0xbd8daa24	-0.069172174
20	0xbd536b77	-0.05161616
21	0x3e78ecb4	0.24309045
22	0x3e0b2d48	0.13591492
23	0xba490eeb	-0.00076697645
24	0x3e335e77	0.17516504
25	0x3e2cb1a9	0.16864647
26	0x3d828bdc	0.06374332
27	0x3e505627	0.20345365
28	0x3d2d1c5a	0.042263366
29	0xbd81335e	-0.06308626
30	0x3cff5b0f	0.03117135
31	0x3c8880cf	0.016662983
32	0xbe57ed02	-0.21086505
33	0x3dd7f306	0.105444
34	0x3d384571	0.0449881
35	0x3daf5fab	0.08563169
36	0x3df47fcb	0.11938437
37	0xbd896002	-0.06707765
38	0x3d3a9f18	0.04556188
39	0xbe0913e0	-0.13386488
40	0xbe12ce84	-0.14336592
41	0xbc527374	-0.012844909
42	0x3ea61f03	0.32445535
43	0x3e3ebcdb	0.1862673
44	0xbdbdaa1e	-0.09260963
45	0xbe1e4226	-0.15454921
46	0x3dd8f952	0.10594429
47	0x3da7db44	0.081961185
48	0xbea946dc	-0.33061874
49	0x3e77e743	0.24209313
50	0xbe471337	-0.19440924
51	0xbe9533d5	-0.29141107
52	0xbcb7a731	-0.02241859
53	0x3d41ea8e	0.04734283
54	0x3e6081df	0.21924542
55	0xbe02e062	-0.12780908
56	0xbeb0bd80	-0.34519577
57	0x3d793d83	0.060849678
58	0x3ccbc154	0.02487246
59	0x3bfb5fb0	0.007671319
60	0x3e7a82ac	0.2446391
61	0x3ebc3d34	0.36765444
62	0x3dc34935	0.095354475
63	0xbe9ef0fd	-0.31043234
64	0x3e3ad070	0.18243575
65	0xbc838fe9	-0.016059833
66	0xbe31eaa4	-0.17374665
67	0x3e8cf836	0.2753312
68	0x3f83c4c0	1.0294418
69	0xbe796ce0	-0.24357939
70	0xbbd3f742	-0.0064686844
71	0x3df62412	0.120185986
72	0x3d34701e	0.044052236
73	0x3c4329ca	0.011911819
74	0xbe816ac4	-0.25276768
75	0xbb8125c6	-0.0039412705
76	0x3c908511	0.017641576
77	0x3cb901e7	0.022583915
78	0xbeb67ab8	-0.35640502
79	0x3dff5a05	0.12468342
80	0x3e49a9a1	0.19693615
81	0xbd8ff049	-0.07028253
82	0xbd2d431e	-0.042300336
83	0xbcfd7af8	-0.030942425
84	0x3deb8067	0.114991
85	0xbe1fb1c6	-0.15595159
86	0xbe863acb	-0.2621673
87	0xbe9b974c	-0.30388868
88	0x3b8cae56	0.0042932434
89	0xbea93fdb	-0.3305653
90	0x3dc38368	0.09546548
91	0x3ef080e8	0.46973348
92	0xbde7461c	-0.11292669
93	0x3d8027a0	0.06257558
94	0xb901bcd5	-0.00012372744
95	0x3ec8475e	0.3911695
96	0xbdc1e937	-0.0946831
97	0xbc949b03	-0.018140322
98	0x3e2b6a9c	0.16739887
99	0xbc94eb22	-0.018178526
100	0x3c8c05d8	0.01709263
101	0x3d761154	0.06007512
102	0x3e2d4bf1	0.169235
103	0x3e0567dc	0.130279
104	0xbcb6af2a	-0.022300322
105	0xbe28ad4f	-0.16472362
106	0x3d359056	0.044327103
107	0xbddd65c3	-0.10810425
108	0x3df66619	0.12031192
109	0xbe222279	-0.15833463
110	0xbdaa3930	-0.08311689
111	0xbdafefd0	-0.085906625
112	0x3d276264	0.040865317
113	0x3cd7af44	0.02632869
114	0x3d1a11f0	0.037614763
115	0x3d8dfb05	0.06932644
116	0x3c9fa4ce	0.019487765
117	0xbd4e0315	-0.050295908
118	0xbd870d6d	-0.06594358
119	0x3d52a8cd	0.051430512
120	0xbd1726ff	-0.036902424
121	0xbe1bea6f	-0.15226148
122	0x3d8177d0	0.063216805
123	0x3e24fae5	0.16111334
124	0xbda3c6ea	-0.07996924
125	0x3c4fd554	0.012685139
126	0xbe9a5d7c	-0.30149448
127	0x3d6be23d	0.057588805

gnn_layers.0.gnn.att_em_j f4 [1, 1, 128]
0	0xbe959522	-0.29215342
1	0x3a9834ae	0.001161238
2	0xbc84734a	-0.016168255
3	0x3e359dbc	0.17735952
4	0xbdaf3a0d	-0.08555994
5	0x3ddccbb9	0.107810445
6	0x3d1aec80	0.0378232
7	0xbe970cdd	-0.29502
8	0xbd273f78	-0.040832013
9	0xbe444a4f	-0.19168971
10	0xbc8938ec	-0.016750775
11	0x3daaedfa	0.08346172
12	0xbcf838a2	-0.030300442
13	0xbe7a97a1	-0.24471904
14	0x3cde63f4	0.02714727
15	0xbe878e1b	-0.26475605
16	0x3e0c69c1	0.13712217
17	0x3cc0cc2a	0.023534853
18	0xbd3cb2c3	-0.046068918
19	0xbecb9a4c	-0.39766157
20	0x3bab1856	0.005221407
21	0xbee46943	-0.44611558
22	0x3c6296cf	0.013829901
23	0xbf18b717	-0.5965437
24	0x3e1f4113	0.15552168
25	0xbe8eee94	-0.27916396
26	0x3a938887	0.0011255898
27	0x3dd37935	0.10325853
28	0x3d27325e	0.04081952
29	0xbe114698	-0.14187086
30	0xbdd43334	-0.10361329
31	0x3e17269f	0.14760827
32	0x3c5c7aa7	0.013456977
33	0xbf36f4cd	-0.71467286
34	0x3e8005c7	0.25004408
35	0xbbd5595e	-0.0065108975
36	0xbcbc0836	-0.022953134
37	0xbd6c8055	-0.057739574
38	0x3d95ffa0	0.07324147
39	0x3eaefaf9	0.34175852
40	0xbe84dffd	-0.2595214
41	0xbecf5ba1	-0.40499595
42	0x3d2dda8d	0.042444754
43	0xbcc5831c	-0.02411037
44	0x3d8fe14e	0.07025395
45	0x3f083d20	0.5321827
46	0xbce196cc	-0.027537726
47	0xbbab46cc	-0.0052269455
48	0xbdf69dcf	-0.12041818
49	0x3c7aafd2	0.015300708
50	0x3bb48b37	0.0055097598
51	0x3c965fbe	0.0183562
52	0xbcfcba70	-0.03085062
53	0x3c6c3bbe	0.0144185405
54	0xbebafc49	-0.36520603
55	0x3ea7fc35	0.32809606
56	0xbeb16975	-0.3465077
57	0x3c4ab434	0.012372065
58	0x3e68a9eb	0.22721069
59	0x3d9a6d50	0.07540381
60	0x3d7e1da9	0.062040005
61	0x3c99e772	0.01878712
62	0xbee7d23f	-0.45277593
63	0x3edace80	0.42735672
64	0xbc48126a	-0.0122114215
65	0x3e9cd5a1	0.30631736
66	0x3f2af52f	0.6678037
67	0x3dca8aad	0.098897316
68	0x3d875f91	0.06610025
69	0x3e248dd4	0.16069728
70	0xbea8f17e	-0.32996744
71	0x3cb0657a	0.021532763
72	0xbd8fb404	-0.07016757
73	0xbd573900	-0.052544594
74	0x3aa40f7b	0.001251682
75	0x3d89e730	0.06733549
76	0x3c8c2c93	0.017111098
77	0x3b5867c0	0.0033020824
78	0xbd8b0e20	-0.067898035
79	0x3d998e81	0.074978836
80	0x3ddb604f	0.10711729
81	0x3d96848b	0.07349499
82	0x3d3f0cf5	0.046643216
83	0xbbd6e2df	-0.006557807
84	0xbd206ba3	-0.03916515
85	0x3aaa89d9	0.0013011053
86	0x39b4fa33	0.00034518688
87	0x3eb43ed4	0.35204184
88	0xbe8ab641	-0.27092174
89	0xbe1425e4	-0.14467579
90	0xbdc24a0f	-0.09486782
91	0x3cdd91f2	0.027047131
92	0x3ef6fdcd	0.4824051
93	0x3e449af9	0.19199742
94	0x3d550b46	0.052012704
95	0xbc84ffbc	-0.016235225
96	0xbd6feaf5	-0.05857368
97	0x3d76d9e8	0.060266405
98	0xbd609ea9	-0.05483881
99	0xbc6e0d7a	-0.01452958
100	0xbbaafbbd	-0.005217998
101	0x3c50d48f	0.01274599
102	0x3d2caf5f	0.042159434
103	0x3d2b14c9	0.04176787
104	0x3e485a9f	0.19565819
105	0x3ebf81f6	0.3740384
106	0xbd012574	-0.03152986
107	0x3f35bea9	0.7099405
108	0xbde12eb7	-0.10995238
109	0xbd083d17	-0.033261385
110	0xbce10ddf	-0.027472435
111	0xbdc08fcf	-0.09402429
112	0xbc6feea6	-0.014644301
113	0xbe2bef9c	-0.16790622
114	0xbe4ef9a2	-0.20212415
115	0x3c8bae71	0.017050954
116	0xbe198876	-0.14993462
117	0xbc9d13cb	-0.019174477
118	0xbd0e2b8f	-0.03470951
119	0xbe9e959e	-0.30973524
120	0x3d18fb04	0.037348762
121	0x3e95a681	0.29228595
122	0xbd0c0801	-0.03418732
123	0xbc42e52b	-0.011895458
124	0xbd0c3c35	-0.034237105
125	0xbb822800	-0.0039720535
126	0x3d19a8f4	0.037514642
127	0x3ca7c4c5	0.02047957

gnn_layers.0.gnn.bias f4 [128]
0	0xb8e3b236	-0.00010857398
1	0x3b0287b6	0.0019917316
2	0x3b28642f	0.002569448
3	0x394c8f19	0.00019508264
4	0x409c4c31	4.8843007
5	0xc00adf68	-2.1698856
6	0xbb9476f6	-0.004530783
7	0xbeb4f1d6	-0.35340756
8	0xbcd6d414	-0.026224174
9	0x40405bb4	3.005597
10	0xbb0f06cc	-0.002182412
11	0x40363261	2.846825
12	0xbb5d52be	-0.0033771242
13	0x3ad32b8d	0.0016111002
14	0xbaf306b5	-0.0018541428
15	0x400e8bfd	2.2272942
16	0x3affd3cb	0.0019518075
17	0xbc53fbb9	-0.012938433
18	0xbbb3f3bc	-0.005491702
19	0x3b20854a	0.002449351
20	0x3f57b4d4	0.84260297
21	0xbb5eed40	-0.0034015924
22	0xbb71796a	-0.003684605
23	0x3a882f6d	0.001039011
24	0x3af8800c	0.0018959059
25	0xbb3bf1b2	-0.0028677997
26	0x3f112a30	0.56705
27	0x3a820f60	0.0009922795
28	0x3b832a64	0.004002856
29	0xbad3fb27	-0.0016172872
30	0x4005854c	2.0862608
31	0xc0c364bf	-6.106048
32	0xba860689	-0.0010225336
33	0x3f988271	1.1914808
34	0x40acb928	5.397602
35	0xc080f6ac	-4.0301113
36	0x3c5d5d61	0.013511033
37	0xc043fd46	-3.0623336
38	0x3ac07116	0.001468214
39	0xbe554a1c	-0.20829052
40	0xc00aa509	-2.166323
41	0xbfa22874	-1.2668595
42	0xbbf8f1b6	-0.0075971736
43	0xbab99bad	-0.0014160775
44	0x405a4b7f	3.410858
45	0x40123b6c	2.2848768
46	0xbb04afe4	-0.002024644
47	0xbf1c01a0	-0.6093998
48	0x3ad1fcca	0.0016020772
49	0x3b8c2b6a	0.0042776363
50	0xbc615b40	-0.013754666
51	0x3b79a40b	0.0038092162
52	0x38ae87dc	8.322272e-05
53	0xc0860545	-4.1881433
54	0xb88d4b05	-6.7373774e-05
55	0x40447515	3.0696461
56	0xbb9ab6e4	-0.0047215093
57	0xc0373607	-2.8626726
58	0x3c4152c3	0.011799517
59	0xc0a0351c	-5.006483
60	0x3d9b1a25	0.07573346
61	0xbc3b13cf	-0.011418297
62	0x404c966c	3.196681
63	0xc0c82a69	-6.255177
64	0xc0820c11	-4.063973
65	0x3cbe097d	0.023197884
66	0xc0bd4126	-5.9142027
67	0x3b10f6c8	0.002211975
68	0x3a7ca71a	0.0009637937
69	0x3b81c8d2	0.003960707
70	0xbf959096	-1.1684749
71	0xbf02918e	-0.5100335
72	0xb77610db	-1.4666667e-05
73	0x3b227bba	0.0024792985
74	0xbbdc0f81	-0.0067157154
75	0xba1feb53	-0.00061004347
76	0x40890125	4.2813897
77	0xbce2d110	-0.02768758
78	0xbbd9d684	-0.0066478867
79	0xbad0abf8	-0.0015920391
80	0x3ae2ba14	0.0017297887
81	0xbec1c4ce	-0.37845463
82	0xbbd92427	-0.006626624
83	0xbbc951d8	-0.0061437897
84	0xbcb8e707	-0.0225711
85	0xc0ab55aa	-5.354207
86	0x3f4ad710	0.7923441
87	0xc059abc6	-3.4011092
88	0xbbbf97ac	-0.005846938
89	0xbab10ad9	-0.0013507261
90	0xc096c1ab	-4.711141
91	0x34d659b3	3.992587e-07
92	0x3b2f582d	0.0026755438
93	0xc00a4640	-2.1605377
94	0xbbf7c2b9	-0.0075610545
95	0xbb0d4e55	-0.0021561582
96	0x3f663f4c	0.89940333
97	0x3a12743d	0.0005586779
98	0x3a99c233	0.001173085
99	0x40840c76	4.126521
100	0xc0a32fed	-5.0996003
101	0xbb1ec657	-0.0024227106
102	0x3ab4a93f	0.001378335
103	0xbf05502e	-0.5207547
104	0xc0338e05	-2.8055432
105	0xc09402fa	-4.6253633
106	0x3bf21df8	0.0073888265
107	0x405644c4	3.3479471
108	0xba95de13	-0.0011433981
109	0xbf561301	-0.8362275
110	0x404992a3	3.149575
111	0xbe298edf	-0.16558407
112	0xba85c1ae	-0.0010204816
113	0xbe4c91d8	-0.1997751
114	0x3b5a58dc	0.0033317124
115	0xc062ca97	-3.543615
116	0x3c21af97	0.009868524
117	0xc0add7a2	-5.4325724
118	0xbb0238b1	-0.0019870216
119	0x3bdc3c7b	0.006721077
120	0xbdec0f58	-0.11526364
121	0xbc8919af	-0.01673588
122	0x3a64d6d0	0.00087295193
123	0xbace903e	-0.001575954
124	0x3a49dc7e	0.00077003974
125	0xc0c43e16	-6.132579
126	0x3ce615dc	0.028086595
127	0xbcaceca0	-0.021108925

gnn_layers.0.gnn.lin.weight f4 [128, 5]
0	0x3d66c1c3	0.05633713
1	0x3d90ce47	0.07070594
2	0x3d339ce1	0.043850783
3	0x3ce9e044	0.028549321
4	0xbbb8a171	-0.0056344797
5	0xbd8ce30c	-0.06879243
6	0xbd4e9fe5	-0.050445456
7	0xbc2d99b3	-0.010595727
8	0x3c276e10	0.010219112
9	0xbc6411a8	-0.013920225
10	0xbcd59e12	-0.02607635
11	0xbd0a51fe	-0.0337696
12	0x3a3aab8b	0.0007120899
13	0xbc1f4f26	-0.00972346
14	0xbcd88f7a	-0.026435602
15	0xbcca862d	-0.024722183
16	0xbb44f2c7	-0.0030051933
17	0xbcf2f278	-0.029656634
18	0xbce5edac	-0.028067432
19	0xbd236991	-0.039895598
20	0xbfb25616	-1.3932521
21	0x3c6d9a75	0.014502157
22	0xbc6e476c	-0.0145433955
23	0xbc6f83c4	-0.014618818
24	0x3bb7c3f3	0.0056080758
25	0xbcc98da5	-0.024603674
26	0x3b56e874	0.0032792361
27	0xbbb97af2	-0.005660408
28	0xbececce6	-0.403907
29	0xbf3c0558	-0.73445654
30	0xbe2f5e74	-0.17125875
31	0xbd8bb94f	-0.06822454
32	0xbdf654a0	-0.1202786
33	0xbcb3a532	-0.021929357
34	0x3efa7c4c	0.48922956
35	0x3cd3e631	0.0258666
36	0x3bb9b8f0	0.005667798
37	0x3dad9fb1	0.08477724
38	0x3d2a4d42	0.041577585
39	0xbf36399d	-0.7118166
40	0x3c6bf288	0.014401086
41	0xba765c82	-0.000939794
42	0x3f00d3e0	0.50323296
43	0xbe248316	-0.1606563
44	0xbe826c65	-0.25473323
45	0xbcd3c309	-0.025849836
46	0xbcb02da3	-0.021506136
47	0xbfb1186a	-1.3835576
48	0xbc8aa9ee	-0.016926732
49	0xbcc41744	-0.023936875
50	0x3dea60a8	0.11444217
51	0x3d902fb1	0.070403464
52	0x3c29d62b	0.010366003
53	0x3c9236b3	0.017848348
54	0xbd51f25f	-0.051256534
55	0xbf95c136	-1.1699588
56	0xbc3fbbb4	-0.011702467
57	0x3c712243	0.014717641
58	0x3b13d559	0.0022557585
59	0xbbe3eed7	-0.006955962
60	0x3c935268	0.01798363
61	0xbc0df728	-0.008664884
62	0x3d74409b	0.059631925
63	0x3ccafe2a	0.024779398
64	0x3dd40300	0.10352135
65	0xbcbca6fe	-0.023028847
66	0xbd151e71	-0.036405984
67	0x3c1b693f	0.009485542
68	0xbb014d8e	-0.0019730064
69	0xbd43bcb6	-0.04778739
70	0xbccbaacf	-0.024861721
71	0x3c6f2d71	0.014598236
72	0x3a95e65f	0.0011436454
73	0x3d18e3e2	0.0373267
74	0x3d58b3c3	0.05290581
75	0xbe68e32a	-0.22742906
76	0x3b1433a3	0.0022613786
77	0xbc71af29	-0.014751234
78	0xbcbeb681	-0.023280384
79	0xbf2f4a63	-0.6847288
80	0xbc8c479b	-0.017123988
81	0xbd4e40b0	-0.05035466
82	0xbd0c163d	-0.034200896
83	0x3aac1131	0.0013127682
84	0xbd7e7297	-0.062121
85	0x3cbd990f	0.023144273
86	0x3dbcd06e	0.09219442
87	0x3d84b6e0	0.06480193
88	0x3d897733	0.067121886
89	0x3d9757ae	0.073897704
90	0x3d20ddd9	0.03927407
91	0x3d390f03	0.045180332
92	0xbd564f48	-0.052321702
93	0xbe287179	-0.16449536
94	0x3f07aa0b	0.5299384
95	0xbe06a4d5	-0.13148816
96	0x3cdb4aa3	0.026768988
97	0xbda2c67f	-0.079480164
98	0xbd1cc33a	-0.03827212
99	0xbd2ae50f	-0.041722354
100	0xbca2c691	-0.019870074
101	0x3a5d29af	0.00084366923
102	0xbc815104	-0.015785702
103	0xbf37643c	-0.7163732
104	0x3c3de256	0.011589607
105	0x3c0b04d4	0.008485038
106	0xbb640775	-0.0034794484
107	0x3bee05ef	0.007263891
108	0xbbb19eba	-0.005420533
109	0x3e2b4bba	0.16728106
110	0x3dc9ca6a	0.098530605
111	0x3daebb02	0.08531763
112	0xbcdcd100	-0.026955128
113	0x3ceda7db	0.029010704
114	0x3c9e0bb9	0.0192927
115	0xbce69ece	-0.028151896
116	0xbd346857	-0.04404482
117	0xbd974fdc	-0.07388279
118	0xbc6c29ad	-0.014414233
119	0xbd9ab2fa	-0.07553668
120	0xbd1476de	-0.036246173
121	0xbcd6ffe1	-0.02624506
122	0xbcd84db6	-0.026404243
123	0xbc11cead	-0.008899373
124	0xbd094c4b	-0.033520024
125	0x3d4d6b99	0.05015144
126	0x3c5d6998	0.013513945
127	0x3caaa314	0.020829715
128	0x3d1febe6	0.03904333
129	0x3d709ac9	0.058741365
130	0x3e484fa0	0.19561625
131	0x3dd71ff7	0.10504144
132	0x3e49f7b8	0.19723403
133	0xbe38b0d3	-0.18036203
134	0x3ee4b37f	0.44668195
135	0xbcb3b785	-0.021938095
136	0xbc7d8f1b	-0.0154760135
137	0xbc9784d6	-0.018495958
138	0xbd095d34	-0.03353615
139	0xbd3563e9	-0.044284735
140	0xbcc47e52	-0.023986015
141	0xbd10233f	-0.035189863
142	0x3dc868b7	0.09785598
143	0xbd80e1a3	-0.06293037
144	0x3d33aa48	0.043863565
145	0xbcd9aad3	-0.026570713
146	0x3d844142	0.064577594
147	0xbb8d0a27	-0.004304189
148	0xbc9025b9	-0.017596113
149	0xbccada9c	-0.024762444
150	0x3d0b3126	0.03398242
151	0x3d8f3a06	0.06993489
152	0x3a107edd	0.0005512068
153	0xbf7a54ca	-0.9778563
154	0x3c509821	0.012731583
155	0x3d43322d	0.047655273
156	0x3d75de4e	0.06002646
157	0xbb662dba	-0.003512247
158	0xbf668fa6	-0.9006294
159	0xbc92a81c	-0.017902426
160	0xbe19f4fe	-0.15034863
161	0xbdf4a3f0	-0.11945331
162	0x3e944c51	0.28964475
163	0x3dfbe722	0.122999445
164	0x3d6abfbd	0.057311762
165	0xbdf8961f	-0.12138008
166	0xbe6c7c7c	-0.23094362
167	0xbb86a284	-0.004108729
168	0xbf2e373c	-0.6805303
169	0xbe7c2893	-0.24624853
170	0xbb3c3bcb	-0.0028722163
171	0xbc10f6ab	-0.008847873
172	0xbf4e1d5e	-0.8051356
173	0xbf4d6c43	-0.8024332
174	0x3d2ef801	0.042716984
175	0x3e5e8a9f	0.21732567
176	0x3cff484d	0.031162405
177	0x3daf3b4d	0.085562326
178	0x3dc9049b	0.098153315
179	0x3ef680d4	0.48145163
180	0xbe54216a	-0.20715871
181	0x3badc48f	0.0053029726
182	0xbc8b5600	-0.017008781
183	0x3ad5747a	0.0016285323
184	0xbe9175b8	-0.28410125
185	0xbc83f86f	-0.016109673
186	0xbb8edc7d	-0.0043597803
187	0x3b4d630e	0.0031339559
188	0xbcf49a85	-0.029858837
189	0xbf94c3cc	-1.1622252
190	0x3da43df9	0.08019633
191	0x3cc22d8d	0.02370336
192	0xbdc01a77	-0.09380048
193	0xbe2f387e	-0.17111394
194	0xbd889e0f	-0.06670772
195	0xbca58b00	-0.020207882
196	0xbd994c5b	-0.07485267
197	0xbd439b4e	-0.047755532
198	0xbcf6c4fc	-0.030123226
199	0xbedc00cb	-0.42969355
200	0xbf2af175	-0.66774684
201	0xbed6a14d	-0.41919938
202	0xbb6d32dc	-0.0036193645
203	0x3a02c9ca	0.00049891754
204	0xbca424e7	-0.020037128
205	0xbf1b60ce	-0.6069459
206	0x3c875ecc	0.016524695
207	0xbf02b12a	-0.5105158
208	0xba77fc98	-0.00094599416
209	0x3a55738e	0.0008142524
210	0x3e99e14b	0.30054697
211	0xbe0bfd60	-0.13670874
212	0x3e52fc18	0.20603979
213	0xbc8d17e4	-0.017223306
214	0x3f19b064	0.60034776
215	0x3dd3aa2c	0.10335192
216	0x3d61e3cf	0.055148896
217	0x3d6c02f4	0.057620004
218	0x3e0c3055	0.13690312
219	0xbe445810	-0.19174218
220	0x3cb474be	0.022028323
221	0xbf6214e0	-0.883131
222	0x3c6bfb6a	0.0144032035
223	0x3b2fe246	0.002683775
224	0x3d8369f7	0.064166956
225	0xbc5c01b5	-0.013428141
226	0xbc1e5382	-0.0096634645
227	0xbeb220b6	-0.3479058
228	0xbeda9688	-0.4269297
229	0xbf5ed393	-0.87041587
230	0xbc83a689	-0.016070621
231	0xbb8472e4	-0.0040420163
232	0x3c2064c3	0.0097896485
233	0xbdd0848a	-0.1018153
234	0x3e6c5984	0.23081023
235	0x3d7355b2	0.059407897
236	0xbd598daf	-0.053113636
237	0xbd21e3e5	-0.039523978
238	0x3e0c80f2	0.13721064
239	0x3cf18d87	0.02948643
240	0x3dc51c8b	0.09624585
241	0x3d823828	0.06358367
242	0x3e0e3ae7	0.13889657
243	0x3de945cf	0.11390268
244	0x3d5c8810	0.053840697
245	0xbe7ad270	-0.24494338
246	0x3d27df0a	0.04098419
247	0x3c0a1b54	0.008429367
248	0x3d0e6c93	0.034771513
249	0xbe129997	-0.14316402
250	0x3e363021	0.17791797
251	0x3de4afa1	0.11166311
252	0x3ce4625a	0.027878929
253	0x3d928af7	0.07155412
254	0xbdcce05f	-0.10003733
255	0x3eef85d6	0.46781796

gnn_layers.0.bn.weight f4 [128]
0	0x3e7565e6	0.23964652
1	0xbe12c773	-0.14333896
2	0xbdcca139	-0.09991688
3	0x3e5640b7	0.20923124
4	0x3f9c0394	1.2188592
5	0x3f980847	1.1877526
6	0x3e5ab247	0.2135707
7	0x3f8c9f0f	1.0986041
8	0x3f2524aa	0.6450907
9	0x3f9cc564	1.2247739
10	0x3e50fde2	0.20409349
11	0x3f982764	1.1887021
12	0x3e686c97	0.22697674
13	0xbe133259	-0.14374675
14	0x3e5715f0	0.21004462
15	0x3f64d0e7	0.8938126
16	0x3e7347d3	0.23757868
17	0x3f133298	0.57499075
18	0x3e3408e7	0.17581521
19	0x3ea2e40f	0.3181462
20	0x3f755507	0.95832866
21	0x3f8ea99f	1.1145514
22	0x3e2bcac0	0.16776562
23	0x3e424836	0.18972859
24	0x3e488a0f	0.19583915
25	0x3e9bdf43	0.30443773
26	0x3f471dce	0.77779853
27	0x3e3ac20a	0.18238083
28	0x3df7e754	0.12104669
29	0x3e3d61aa	0.18494287
30	0x3faa4560	1.3302422
31	0x3f999357	1.199809
32	0x3f4c4271	0.7978888
33	0x3fa03fb3	1.251944
34	0x3f9e6b7a	1.2376549
35	0x3f278136	0.65431535
36	0x3f7ab7e6	0.97936857
37	0x3f8088c1	1.0041734
38	0x3eb9cf07	0.36290762
39	0x3fa7c1d8	1.3106031
40	0x3fa2681b	1.268802
41	0x3f3fb8fd	0.74891645
42	0x3e6c4a81	0.23075296
43	0x3e1ad928	0.15121901
44	0x3f8cdf4f	1.1005648
45	0x3fadaff8	1.3569326
46	0x3dfdad42	0.12386562
47	0x3e3eda64	0.18637997
48	0x3fa3946e	1.2779672
49	0x3f6f4de6	0.9347824
50	0x3f544d6b	0.8293063
51	0x3e64b3c0	0.22334194
52	0xbe5a165e	-0.21297595
53	0x3f4716b2	0.77769005
54	0x3e8754a4	0.26431763
55	0x3fb0239c	1.3760867
56	0x3ec957ef	0.393249
57	0x3f4cae06	0.7995304
58	0x3fceff00	1.617157
59	0x3f97c0ca	1.185571
60	0x3ed431a3	0.4144412
61	0x3dea3e63	0.114376806
62	0x3fb5b846	1.4196861
63	0x3f670daf	0.90255255
64	0x3f920d4f	1.1410311
65	0x3f025122	0.5090505
66	0x3f8c60d9	1.0967056
67	0x3e63491f	0.22195862
68	0x3e409877	0.1880816
69	0x3f417745	0.75572616
70	0x3fa756b8	1.307334
71	0x3e3a2706	0.18178949
72	0x3ed71239	0.4200609
73	0xbe9e363b	-0.3090075
74	0x3f47fc92	0.78119767
75	0x3f3db663	0.74106425
76	0x3f8cd750	1.1003208
77	0x3f48302c	0.78198504
78	0x3f52d684	0.82358575
79	0x3ebe18b4	0.37128222
80	0x3e7565fc	0.23964685
81	0x3fa34fc8	1.2758722
82	0x3f3207cb	0.6954314
83	0x3e8bd0ef	0.2730784
84	0x3f963018	1.1733427
85	0x3fa3bb87	1.2791604
86	0x3f266d2e	0.65010345
87	0x3f6a57e8	0.91540384
88	0xbe75d675	-0.2400759
89	0x3e9952aa	0.2994588
90	0x3fa2cb19	1.271823
91	0x3e49891b	0.19681208
92	0x3e81f44a	0.2538169
93	0x3f8d4347	1.1036156
94	0x3fa90225	1.320378
95	0x3e0f9ede	0.14025447
96	0x3fa76feb	1.308103
97	0x3e86a6b3	0.26299056
98	0xbe69f16e	-0.22846004
99	0x3f8ed564	1.1158872
100	0x3f3d3cb4	0.7392075
101	0x3e2abcfa	0.16673651
102	0xbe7326d1	-0.23745276
103	0x3f9167a3	1.1359752
104	0x3f40fbc0	0.7538414
105	0x3faf7985	1.370896
106	0x3f712cf5	0.94209224
107	0x3f8a8953	1.0823158
108	0x3e82d799	0.25555113
109	0x3fa8ff49	1.3202907
110	0x3f51b223	0.8191244
111	0x3e1634c1	0.14668562
112	0x3f4d9ffe	0.80322254
113	0x3fa2c313	1.2715782
114	0x3f6e8ca9	0.9318338
115	0x3f415c65	0.7553161
116	0x3ea697dc	0.32537735
117	0x3fa414fb	1.2818903
118	0x3c508db4	0.012729097
119	0x3e9e80a8	0.30957532
120	0x3dd92224	0.10602215
121	0x3fc07baf	1.5037745
122	0x3e85bf65	0.26122585
123	0x3dff480c	0.12464914
124	0x3f4a012a	0.78908026
125	0x3f9c8eec	1.2231116
126	0x3f3a98b5	0.7288926
127	0x3edb9703	0.4288865

gnn_layers.0.bn.bias f4 [128]
0	0x3f71ecd3	0.9450199
1	0x3f596e64	0.8493407
2	0x3f64336f	0.8914098
3	0x3f52eb0e	0.82389915
4	0xbeb18e64	-0.34678948
5	0xbee820f8	-0.45337653
6	0x3f593c19	0.84857327
7	0x3e074ce8	0.13212931
8	0x3edb3e8b	0.42821154
9	0xbee878c3	-0.45404634
10	0x3f8005e7	1.0001801
11	0xbed2907d	-0.4112586
12	0x3f664b46	0.8995861
13	0x3f7cee9e	0.988016
14	0x3f6d3c3b	0.9267003
15	0xbf0f0887	-0.55872387
16	0x3f55092d	0.83217126
17	0x3efd32da	0.4945286
18	0x3f871441	1.0553056
19	0x3f6c415c	0.9228723
20	0xbe9a7702	-0.3016892
21	0x3e4569b4	0.19278604
22	0x3f7e42c5	0.9932063
23	0x3fa45058	1.2837019
24	0x3f6fe000	0.9370117
25	0x3f556fa0	0.8337345
26	0x3ea84d06	0.32871264
27	0x3f5d1435	0.8635896
28	0x3f570157	0.8398642
29	0x3f6e74d1	0.93147
30	0xbed535d3	-0.41642627
31	0xbebc33b7	-0.36758205
32	0x3ee98e4f	0.45616385
33	0xbf1f9723	-0.6233999
34	0xbece1982	-0.40253836
35	0x3eb0f72a	0.3456357
36	0xbe5e0b39	-0.21683969
37	0xbf19ca52	-0.6007434
38	0x3f4c7a50	0.79874134
39	0xbe74302f	-0.23846506
40	0xbf0111e1	-0.50417906
41	0xbe8c2e03	-0.27378854
42	0x3f6cd337	0.9250979
43	0x3f698aaf	0.9122724
44	0xbeaf70af	-0.34265658
45	0xbf0aaced	-0.54170114
46	0x3f82865d	1.0197254
47	0x3f502097	0.8129973
48	0xbf05a620	-0.5220661
49	0xbdbf0a21	-0.09328104
50	0x3ed39a8e	0.41328853
51	0x3f9e5a71	1.237135
52	0x3f854cc8	1.0414057
53	0x3ea90354	0.33010352
54	0x3f8d2b72	1.1028883
55	0xbeffa0c8	-0.49927354
56	0x3f2910e4	0.660414
57	0x3ea6d83b	0.32586846
58	0x3ce383e7	0.027772857
59	0xbea78b36	-0.32723397
60	0x3f04c254	0.5185902
61	0x3f81eb1a	1.0149872
62	0xbf085272	-0.532508
63	0x3ead56c5	0.33855262
64	0xbecf1716	-0.404473
65	0x3f00b76d	0.50279886
66	0xbe8f18ad	-0.27948514
67	0x3f5626ae	0.8365277
68	0x3f7633a1	0.9617253
69	0x3ee8bb8f	0.45455596
70	0xbef4b850	-0.4779687
71	0x3f8edb44	1.1160665
72	0x3f535aed	0.82560617
73	0x3f9ba1e2	1.2158778
74	0x3ece1588	0.40250802
75	0xbe54bf9a	-0.20776215
76	0xbeb7a5b6	-0.35868615
77	0x3eaba9b2	0.33527905
78	0x3ec69693	0.38786754
79	0x3f473e7e	0.7782973
80	0x3f505b2d	0.81389123
81	0xbe755bee	-0.2396085
82	0x3eff97d2	0.49920517
83	0x3f515ee2	0.81785405
84	0xbd340b34	-0.043955997
85	0xbedd850d	-0.43265572
86	0x3ef31816	0.47479314
87	0x3ecf0129	0.40430573
88	0x3fa68bf1	1.3011457
89	0x3f39a0f6	0.7251123
90	0xbeae2d0b	-0.3401874
91	0x3f638aed	0.8888386
92	0xbf179235	-0.5920747
93	0xbe8258ea	-0.2545846
94	0xbd8c72d5	-0.0685784
95	0x3f88ef30	1.0697994
96	0xbe5eab92	-0.21745136
97	0x3f80a7ea	1.0051243
98	0x3f6df8fd	0.9295805
99	0xbec2e2f4	-0.38063776
100	0x3e91a2e2	0.28444582
101	0x3f89509b	1.0727724
102	0x3f4c8863	0.7989561
103	0x3e972e18	0.29527354
104	0x3eb483c0	0.35256767
105	0xbf05dd15	-0.5229047
106	0xbe8b7deb	-0.27244505
107	0xbeb0cd96	-0.3453185
108	0x3f6ec0b6	0.93262804
109	0x3e39b744	0.18136317
110	0xbf3ef66b	-0.74594754
111	0x3fe89b9a	1.8172486
112	0xbedc2d35	-0.4300324
113	0xbee74d8e	-0.45176357
114	0xbea35631	-0.31901696
115	0x3eaaa2f9	0.33327463
116	0x3f236c69	0.63837296
117	0xbecf7015	-0.405152
118	0xbf256a1a	-0.64615023
119	0x3f589360	0.84599876
120	0x3f6d6e7e	0.9274672
121	0x3e20ee28	0.1571585
122	0x3f53dc30	0.82757854
123	0x3f7211f3	0.9455864
124	0x3ec5c5df	0.38627526
125	0xbec6c67c	-0.38823307
126	0xbe54432a	-0.20728746
127	0x3f273ad7	0.6532416
