model_normal/gdn_smap50.pth (torch, 18549 bytes, 16 tensors)

embedding.weight f4 [25, 64]
00000000: 27e8 1cbe fbb9 58bd b9d4 1f3d 1915 4b3e
00000010: 7892 98be 20ec 8dbc b693 71be ea02 2ebe
00000020: 5461 f23d 97f6 173e c0ca adbb 6da1 033e
00000030: 4cf0 843d eb2f e23d 8f03 c8be c94d adbb
00000040: a659 70be d689 2abb 2715 4f3e 21bb 153e
00000050: f184 7c3e 37cb d0b9 27fe 233e e770 703d
00000060: 128e 7bbe 8645 4e3e 155e 483e f207 70be
00000070: f2ea c1bd 0d14 24bd 4cec 91be 6748 30be
00000080: b7ad 323e 2d5c 0c3e 9713 573d 7a01 19be
00000090: c24e 283b 7f9f 21bd d654 573e e57b 743e
000000a0: c1ef 36bd f4b1 803c fe8e 733e 4252 8fbc
000000b0: 7c69 00bc f104 253d 2a7d bfbe 4f89 403e
000000c0: 76c7 69be 706c 25bd 3108 14ba f88e 51be
000000d0: 9f8d 5dbe 9500 663d d060 23be d931 263e
000000e0: 6af3 2ebe 6ec7 c73d 5d8a 0fbc 77e2 86be
000000f0: 09a7 6dbd 9567 043b 1760 733e d020 b63d
00000100: f5b5 e3bd 14db 0ebc 1c58 a7bd a74a 6cbb
00000110: f9ef 383e a224 433d 6991 4c3d 58bf aabd
00000120: 2a19 48bb 9710 0f3d d402 b1bd bcf8 05bb
00000130: 1405 7a3d a633 bbbd fbb3 32be 8efd a1bb
00000140: 901d ce3a 8d4c 19be 94f2 42bb 9575 a8bb
00000150: 5f65 37be 058e ea3d 28cf 11be 5702 263d
00000160: a6fc e5bd c5ae e6bc 54c3 f2b9 dcd5 2a3c
00000170: 1308 26bc bc64 28bc 0717 823c 2f05 f93d
00000180: bca2 d1bd 4b9e d63c 18f8 5b3c 677d 03bc
00000190: 6c7f 34be 1ef4 7f3d 59ae 9f3d aaf2 2d3c
000001a0: 6244 5dbe 6714 34bd d922 733d 72ca 193e
000001b0: 5fcb bdbd e46a 093d edc7 093d ecab 31be
000001c0: 0870 163d 0589 3cbe c217 4bbc 7118 37be
000001d0: f648 77bb 8ee5 6fbc 7183 de3c 6281 1d3b
000001e0: 3680 b23d 0bba 2a3d 8df4 3abc d446 37bc
000001f0: 98db 2fbe 18f3 16be ddd3 e13b 8cdf 0e3c
00000200: 4186 1bbe 78b3 303d b8f2 0dbe 65fe 70ba
00000210: 76b9 a8bd 05f6 c9bd 4218 bdbd 65c5 d3bd
00000220: 1230 1ebe 8654 0c3d 6115 1a3c a85b f1bd
00000230: 48a3 3fbe 26ff 083d e202 efbc 4dd6 80bd
00000240: 475f f13c 8561 0bbc 20ce efbd f673 58bb
00000250: 84d8 08bc 98d6 dc3d cb6e ddbb 80ec 5fba
00000260: 4fc9 1dbe 801f 723c ce40 e5bd d43d 83bb
00000270: f156 87bd 80bd c538 8db9 793d 620b cb3c
00000280: f100 95bd 7593 1bbe 000d d73c 2ca0 bd3c
00000290: eca4 1dbc a997 fa3c 0769 ae3d a2c5 a8ba
000002a0: d027 fbbb eb05 3e3d 38b1 bd3c d94d 943c
000002b0: 757a 2ebe 0921 1a3a 0692 213d 1fde 94bd
000002c0: 6e91 093d 1105 b3bd 1abd d5bd c41c 083d
000002d0: 58a9 0b3d 5289 cf3c 97d5 763d 602b 9cbd
000002e0: a3a8 d43b 70b2 41be f6b1 a53b 8c1e 383d
000002f0: 55c6 eabb 60b4 fcbd 4129 5bbb cfd9 1bbe
00000300: 4daa 01be 2212 abbc 1c19 f4bb 2f6e c93c
00000310: 635e 9d3b b2de e7bd 4104 8d3d e621 81bd
00000320: 2dda fc3b 296b 2f3d b24e 07be 0e03 63bc
00000330: 7570 6a3d f761 86be d4cc 383d 5442 2ebe
00000340: 39be b4bd 8610 14be a950 f0bd e46e 1dbe
00000350: cb8d 2abc 4bee 843c eb3f eabd 22dd 793b
00000360: dbe5 993d 2273 97bc 5b80 3bbe 15f8 2bbe
00000370: 6f17 183d c3f6 12be 0bd9 113d c402 a23d
00000380: f147 aebd 9d01 fbbd e2a9 33be 1139 153d
00000390: f0bc f6b9 5e00 22be f25e 473d 9cd1 c03c
000003a0: c63e c3bc b7da cd3c 29cb 03be 28be d73d
000003b0: 7bb5 0f3d 8689 4abd d8eb 98bd bdb2 b7bd
000003c0: d698 023d 99b0 1fbe df0d a23d f986 19be
000003d0: f386 efbd 43f2 cebd 1ca2 73bb 5625 2bb8
000003e0: ed35 463d 2128 38be ce7a 623d d61e d4bd
000003f0: 0ac8 5bbc 3115 ecbd f9ae e839 5b5c 9d3c
-0.15322934 -0.05291174 0.039021228 0.19832267 -0.29799247 -0.017324507 -0.23591504 -0.16993299
0.1183497 0.1484016 -0.0053037107 0.12854548 0.064911455 0.11044296 -0.39065215 -0.0052888137
-0.23471698 -0.0026022098 0.20222913 0.14622165 0.24660088 -0.00039824258 0.1601492 0.058701422
-0.24565914 0.20143709 0.1956714 -0.23440531 -0.094686404 -0.040058184 -0.28500593 -0.1721512
0.1744908 0.13707037 0.052508917 -0.1494197 0.002568171 -0.039458748 0.21028456 0.23875387
-0.04466224 0.015709855 0.23785016 -0.017495278 -0.007837649 0.040287916 -0.3740018 0.18802379
-0.22829995 -0.040386617 -0.00056469726 -0.20464694 -0.21636055 0.0561529 -0.159549 0.16229953
-0.17085043 0.09754835 -0.008761016 -0.26344654 -0.058020625 0.0020203341 0.23767124 0.08892977
-0.1111869 -0.0087192245 -0.081711024 -0.0036055238 0.18060292 0.047642358 0.04994336 -0.08337277
-0.0030532577 0.03492793 -0.086431175 -0.0020442447 0.06104 -0.091407105 -0.1745147 -0.004943556
0.0015725363 -0.14970608 -0.0029746639 -0.00514097 -0.17909764 0.11452869 -0.1423918 0.040529575
-0.112298295 -0.028159508 -0.00046303368 0.010426965 -0.010133761 -0.010277923 0.01588012 0.12159192
-0.10236117 0.026198527 0.013425849 -0.008025504 -0.17626733 0.062488668 0.07796926 0.010616938
-0.21608117 -0.04396477 0.059359405 0.15018633 -0.092673056 0.033549204 0.03363793 -0.17350739
0.036727935 -0.18411644 -0.012395801 -0.17880417 -0.0037732697 -0.014642132 0.027162286 0.0024033417
0.087158605 0.04168133 -0.0114108445 -0.01118632 -0.17173612 -0.1474117 0.006891711 0.00872029
-0.15187933 0.043139905 -0.13862121 -0.0009193181 -0.08238499 -0.098613776 -0.092331424 -0.103403844
-0.15448025 0.034260295 0.009404511 -0.1178506 -0.1871463 0.033446454 -0.02917618 -0.06290875
0.029464377 -0.008507137 -0.11709237 -0.0033028102 -0.008352403 0.10783118 -0.0067575923 -0.0008542016
-0.15408824 0.014778018 -0.11194001 -0.004005173 -0.0660838 9.428989e-05 0.06096797 0.024785701
-0.0727557 -0.15192969 0.026251316 0.023147665 -0.00962184 0.030589895 0.08516126 -0.0012876282
-0.007664658 0.046392363 0.023155794 0.018103527 -0.17038901 0.00058795564 0.0394459 -0.07268929
0.03358596 -0.08741201 -0.10436459 0.033230558 0.034097046 0.025334034 0.06026229 -0.076254606
0.0064898296 -0.18915725 0.005056615 0.044951007 -0.0071647563 -0.12339091 -0.0033441337 -0.15219806
-0.12662621 -0.02088267 -0.0074492823 0.024588672 0.0048025115 -0.11321773 0.06885577 -0.06305294
0.0077164383 0.042826805 -0.13213614 -0.013855709 0.057236154 -0.26246616 0.045117214 -0.1701749
-0.088253446 -0.14459428 -0.11734135 -0.15374333 -0.010409783 0.016226908 -0.11437973 0.003812619
0.075145446 -0.018487517 -0.18310682 -0.16793855 0.037131723 -0.14351945 0.03560738 0.07910684
-0.085098155 -0.12256167 -0.17545274 0.036431376 -0.00047061546 -0.15820453 0.04867453 0.02353745
-0.023833644 0.025128705 -0.12870468 0.10534316 0.035085183 -0.04944756 -0.074668586 -0.089696385
0.031884037 -0.1559471 0.07912802 -0.14992894 -0.116956614 -0.101048015 -0.0037175482 -4.080435e-05
0.04839127 -0.17984058 0.055292897 -0.10357444 -0.013414392 -0.115274794 0.00044380853 0.019209078

bn_outlayer_in.weight f4 [64]
00000000: df9b 713f 1a67 663f 6d7e 713f 9c7b 6a3f
00000010: 7218 483f 24bd 6f3f 6e17 743f 9653 6b3f
00000020: 7ca8 6c3f 523b 6f3f 5025 723f 1c56 6e3f
00000030: 208b 603f 4bd1 6e3f da6d 6c3f 14c6 713f
00000040: 5811 743f 6457 723f 7c55 693f 29bc 6c3f
00000050: 27dd 6d3f 09f5 723f 2a15 6f3f c837 6c3f
00000060: 3b86 623f eb5b 713f 81d3 683f 6990 6f3f
00000070: 4f91 6e3f 4257 6f3f 264a 6e3f 5f68 6c3f
00000080: 8942 6b3f 2bb3 6c3f 8008 6e3f 16d4 6a3f
00000090: 2191 713f 05c5 473f 1858 6d3f a355 683f
000000a0: 8d1f 493f 93b6 6f3f aaf4 6f3f e812 723f
000000b0: 1d9a 733f c1a5 6d3f 8ea9 683f 0d55 733f
000000c0: 7dc3 673f bc2d 5e3f 1d47 753f 6764 683f
000000d0: ff22 723f 4d20 613f d82c 6e3f ab9e 6c3f
000000e0: 52dc 713f 7372 6e3f cc70 733f 50dc 683f
000000f0: c57c 6e3f 9af6 6f3f 69e2 6a3f 2f51 733f
0.94378465 0.9000107 0.94333535 0.9159486 0.781623 0.9364798 0.9534825 0.91924417
0.92444587 0.9344989 0.94588184 0.9310014 0.8771229 0.93288106 0.9235512 0.9444287
0.95338964 0.946646 0.91146064 0.9247461 0.92915577 0.94905144 0.9339167 0.92272615
0.8848607 0.9428088 0.9094773 0.9357973 0.93190473 0.9349252 0.9308189 0.9234676
0.918984 0.9246089 0.9298172 0.9172987 0.94362074 0.78035 0.92712545 0.9075567
0.7856377 0.9363796 0.937327 0.945601 0.95157033 0.92831045 0.9088372 0.9505165
0.90532666 0.86788535 0.95811635 0.907782 0.9458465 0.8793991 0.93037176 0.9242961
0.9447681 0.93143386 0.9509399 0.9096117 0.93159133 0.9373566 0.91751724 0.9504575

bn_outlayer_in.bias f4 [64]
00000000: 8a0b 993c 0865 803d 2a83 96bd fff8 83bc
00000010: 6435 d5bc 2089 d5bc 6e71 e2bc 82a8 2e3d
00000020: b7fc 62bc 7cd1 dcbb f1ee 5fbd f3c8 2cbd
00000030: bd15 18bd 8646 9bbc c279 a53d e004 acbd
00000040: da4e 03bd 36e3 6abd cac7 7c3c cf61 ddbd
00000050: b568 2cbd 1b0a 2bbd 9bc4 adbd 593b d6bc
00000060: 545b 743d e9a5 43bd b815 b1bd 034d e1bd
00000070: 963b ed3c f386 f3bc 5b40 7ebd 71cc dcbd
00000080: 218d 2b3b 4467 d1bb 8e82 75bd 8772 1e3d
00000090: 1f2c 40bd ea75 b53d 36a0 4c3c 172c 31be
000000a0: c1f4 243e 4765 14bd 2bfe a6bd 5dd3 82bd
000000b0: 894d 04bd aaee 85bd bc91 d5bd 14d0 afbb
000000c0: f034 3ebd 3610 183d 9e7b b2bd 8cc1 203d
000000d0: 854d 9dbd c2ea 57bd 656e fdbc 1c40 47bd
000000e0: fed8 b8bd 898f 00bd 1bd2 06bd 9b59 f63b
000000f0: 3618 15be 2cc3 56bd 40e8 1cbe 8f8e 94bb
0.01868226 0.0626927 -0.07349236 -0.016109942 -0.026026435 -0.026066363 -0.027641978 0.04264117
-0.013854197 -0.0067388397 -0.05467123 -0.042183828 -0.037130106 -0.018954527 0.08079864 -0.08399367
-0.03205762 -0.05734559 0.015428493 -0.10809671 -0.042092044 -0.041757684 -0.08484765 -0.026151346
0.05965741 -0.047765646 -0.08646721 -0.11001017 0.028959077 -0.029727435 -0.062073093 -0.107811816
0.0026176649 -0.006390484 -0.05993896 0.03868344 -0.046917077 0.08860381 0.012489369 -0.17301975
0.16108991 -0.036229398 -0.081539474 -0.063879706 -0.032300506 -0.06539662 -0.10428187 -0.005365381
-0.046437204 0.037124835 -0.08714984 0.03924708 -0.07680801 -0.052714117 -0.03093643 -0.048645124
-0.09025763 -0.031386886 -0.032915216 0.007518006 -0.14560017 -0.052432224 -0.15322971 -0.004533596

bn_outlayer_in.running_mean f4 [64]
00000000: a9a6 77bb 3fd7 4dbc a4b4 00ba fb31 edba
00000010: 4482 b2b8 182a 90ba 2a9a 68bb 596d 86bb
00000020: 4a9d 87b8 6f11 f639 7e85 e836 29dd 1dba
00000030: 5741 74b8 bb61 55ba 8e38 02bc 055f 98b9
00000040: 84f2 73ba 5c3c 70ba ebad 913a 74fa 9ebb
00000050: 63a8 fb39 ae59 b539 f777 71bb 1599 54ba
00000060: d279 14bb e119 b7bb d7f0 2eba a7e8 12bc
00000070: c98a 6bbb bf55 a1b8 93f6 82ba 9fc4 48bb
00000080: 9c73 bbba 95be f4b7 f269 06bb 1cbb 92bb
00000090: 5222 6fbb d28a 44bc 0b41 7c3a 6003 063b
000000a0: de97 67bb 624c 2ebb 8bb1 3ab8 9c3c a2ba
000000b0: b5f1 f3b9 ebde 07bb af94 10bb 60c7 c83a
000000c0: 6d6d 0bb9 144c 36bc 8f67 b3ba 20a0 fcbb
000000d0: 7fa0 f6bb e256 0cbb edd6 1cbb fa89 c2ba
000000e0: 15fb dcbb 0715 043a e83b 34ba 805f 1aba
000000f0: fc59 a7bb 6acb 48bb f282 63bb aef0 8f3a
-0.0037788546 -0.012563526 -0.000490973 -0.001809656 -8.511965e-05 -0.0010998873 -0.003549228 -0.0041023907
-6.466599e-05 0.00046933765 6.9296793e-06 -0.000602203 -5.8234986e-05 -0.0008139868 -0.007948054 -0.00029062494
-0.0009305852 -0.00091642677 0.0011114454 -0.0048516337 0.0004799991 0.00034589827 -0.0036845186 -0.0008109969
-0.0022655618 -0.005587802 -0.0006673461 -0.008966601 -0.0035940877 -7.69305e-05 -0.0009991698 -0.0030634773
-0.0014301422 -2.9175813e-05 -0.0020509926 -0.0044778716 -0.0036488962 -0.011995988 0.0009622729 0.002044879
-0.0035338323 -0.002659582 -4.4511205e-05 -0.0012377682 -0.00046528658 -0.0020732235 -0.0022061279 0.0015318207
-0.00013296837 -0.011126537 -0.0013687479 -0.007709518 -0.007526457 -0.002141409 -0.0023931817 -0.0014842146
-0.0067437985 0.0005038534 -0.0006875382 -0.00058888644 -0.0051071625 -0.0030638822 -0.00347155 0.0010981762

bn_outlayer_in.running_var f4 [64]
00000000: 7843 9939 a75b 503a 41ae 0238 5f91 ac39
00000010: 843a ad37 1511 c037 7d2c ce39 d898 093a
00000020: fd59 b639 9f82 ba3a 1532 0439 2f0a 4739
00000030: 466f 8c36 c26b 683a d62f 3f3b 0294 1437
00000040: d22b f23a 76e9 8137 57cd ae3a a1c4 d43a
00000050: e62c b53a ee0f 3a38 c886 c939 fdf9 1239
00000060: a36e 8b39 111a 7f39 4855 093a 8936 593b
00000070: 31ee 5039 3e13 cf36 499e 153b 43fb 243a
00000080: c42a 4d39 b1bb f238 7604 153a 932b e039
00000090: 535b 763a 1e23 553a 79b1 d83a 2df7 1a3a
000000a0: 80d3 8c39 8c15 ec39 55bc e439 54ee 9e38
000000b0: 384b 4338 07c3 f739 8ef4 713a b18c 073b
000000c0: 355c a13a 6d18 1c3a c2cb f238 6fd8 0f3a
000000d0: b560 d03a cbcb c339 db45 1d39 18ac 9e3a
000000e0: e7d8 ac3a c7cf b639 b9c9 1838 96da 8a37
000000f0: fdaa fb39 8f57 223a c76a 333a 9f7f 013a
0.00029232702 0.00079482276 3.1156702e-05 0.00032914706 2.0650456e-05 2.2896138e-05 0.00039324528 0.0005248911
0.00034780792 0.0014229602 0.00012607158 0.00018981913 4.185279e-06 0.0008866155 0.00291728 8.855948e-06
0.0018476194 1.5486712e-05 0.0013336343 0.0016232916 0.0013822585 4.436069e-05 0.00038438127 0.00014016773
0.00026594577 0.00024328406 0.0005238843 0.0033144078 0.00019925159 6.171321e-06 0.002282994 0.00062935444
0.00019566255 0.000115744195 0.00056845637 0.00042757075 0.00093977636 0.0008130538 0.0016532383 0.0005911466
0.0002686046 0.0004502948 0.00043627867 7.578419e-05 4.6561676e-05 0.00047256818 0.0009229862 0.0020683224
0.0012310805 0.00059545675 0.00011577412 0.0005487268 0.0015897962 0.00037345136 0.0001499871 0.0012105731
0.00131872 0.0003486855 3.6427493e-05 1.6552669e-05 0.00048001847 0.0006192857 0.0006844219 0.00049399765

gnn_layers.0.gnn.att_i f4 [1, 1, 64]
00000000: cf66 d7be ad99 26bd 4981 ab3c 1728 ea3d
00000010: 2b2d 6d3c cd69 be3e 4ba1 84bd 105d 88be
00000020: b89d 733e 69d0 d53e b029 b5bd db04 d3bd
00000030: a858 83be 6682 e03d 8672 bdbe 3316 c43e
00000040: ebfa b63d 8433 603e 25b7 153e 5390 753d
00000050: 2645 223e 50ce 2dbd f6ce 07be 730f 0fbd
00000060: e0e6 b5be cbcb 94be 36a2 97be 1196 f33d
00000070: 62ca bdbe d492 a2be 3e44 df3e 1e4c 9d3d
00000080: 44ac 4e3e e78c 813e e400 773e 8429 c23c
00000090: 302d 7fbe 8264 83bc 9d01 fbbd 48d9 6ebe
000000a0: 6f43 a6be b9cb 4f3d dbad dbbe 77bd d6bd
000000b0: cda5 9c3d 5c3d efbd 371d d93d 93d7 c6bd
000000c0: 4a4b 8f3d 3916 0abe 76ca 623e 1ddf 003e
000000d0: cc29 1b3e 5cfd 863e 231d 383e 63df b0be
000000e0: e9ae b23d 4309 27bc 2e22 92bb c196 8cbd
000000f0: ac4e c93e 3566 403d 3b56 123e 3c45 f33d
-0.42070624 -0.0406739 0.020935671 0.11433428 0.014476101 0.37190095 -0.06476077 -0.266335
0.23790634 0.41760567 -0.08845842 -0.103036605 -0.25653577 0.109623715 -0.37001437 0.38298187
0.089345776 0.21894652 0.14620645 0.05995209 0.1584669 -0.042433083 -0.13262543 -0.034926843
-0.35527706 -0.29061732 -0.29615945 0.11893857 -0.37068468 -0.31752646 0.43606752 0.07680534
0.20182902 0.25302812 0.24121433 0.023701437 -0.24919581 -0.016039137 -0.12256167 -0.23325074
-0.32473323 0.050731394 -0.4290608 -0.10485356 0.076488115 -0.11681625 0.106012754 -0.09709086
0.06996782 -0.1348504 0.22147545 0.12585111 0.15152663 0.26365173 0.17979865 -0.3454543
0.08724768 -0.010195079 -0.004459641 -0.068646915 0.39317834 0.046972472 0.14290707 0.1187844

gnn_layers.0.gnn.att_j f4 [1, 1, 64]
00000000: 6eaf 713d a4e8 173d b0ad 933d a115 103e
00000010: 9022 823e 4ba3 183d 0011 363e 1a33 6cbd
00000020: 17d0 04be 6618 a43d 2012 7c3d 912a 20bd
00000030: 0b8d 953c f22d d2bd 643e 3cbe 4465 3b3e
00000040: 843a 9ebd 423e 86be 872d a13e 6e7c a33d
00000050: 0621 123e 0f7d 37be 3b8d 50bd 530c 073c
00000060: d108 0a3e ebb6 96bd a3ba 80bd 2621 7bbd
00000070: a0d4 833b 15ac 883e ace0 613e 262c ee3c
00000080: 9e28 f1bc 2869 0bbe 70b7 163e 3913 633e
00000090: 1148 54be f2a3 7dbe 5e30 7a3e 249b 973c
000000a0: f81e 863e be1c b0bd c7f3 363e d645 5cbd
000000b0: 99eb 683e 98de 85be b24f b53d 5958 003e
000000c0: f3ca 79be 0b18 51be d843 dc3d c358 afbe
000000d0: 17b6 9b3b d1d3 073e 6f35 0d3e 6864 933d
000000e0: 74fb 043e 5c56 2bbe 1d60 dfbc 3b54 c4bb
000000f0: c973 943e 79f1 973d 0e97 cf3d 1d9c 80be
0.059005193 0.037087098 0.07210863 0.14070751 0.25416994 0.037265103 0.17779922 -0.05766592
-0.12970005 0.08012466 0.061540723 -0.039103094 0.018255731 -0.102626696 -0.18383175 0.18300349
-0.07726005 -0.26219374 0.31480047 0.079827175 0.1427041 -0.179188 -0.050915938 0.008242684
0.13479926 -0.073591076 -0.06285598 -0.06131091 0.0040231496 0.26693788 0.22058362 0.029073786
-0.029438313 -0.13614333 0.14718413 0.22175302 -0.20730616 -0.24769571 0.24432513 0.018506594
0.26195502 -0.08599232 0.17866431 -0.05377754 0.22746123 -0.26146388 0.08853091 0.12533702
-0.24393825 -0.20419328 0.10755128 -0.34247407 0.0047519314 0.13264395 0.13789915 0.07196885
0.12986547 -0.16732162 -0.02726751 -0.0059914864 0.28994587 0.07419104 0.10136233 -0.25119105

gnn_layers.0.gnn.att_em_i f4 [1, 1, 64]
00000000: 3771 00be a929 3ebc 6562 c7bc 78ce 8ebc
00000010: b85b 1f3e 3a7d 033e 57d1 363d 4212 873e
00000020: 2191 183d 45fd e13b df23 98bd 5232 66bd
00000030: 4e6b 833d baa8 e0bd 3f53 b63d 58dd 043d
00000040: 9cb1 ec3d fd63 64be 333b 05be 5e7b afbd
00000050: 203c abbc 3230 8abd 5e28 75bd 42a3 113e
00000060: 7576 f63d 65a6 e83c 5c0f 02bd 22d1 d43d
00000070: da3c 163d dcfe 8dbd 1e58 d53d 988f 123e
00000080: 04bc 493d 0a95 283d 80a4 133d eb57 e43c
00000090: ac78 2cbd ca85 a9bd a21b a3bd 91b8 293d
000000a0: e4c0 19bd bc3a 2b3c d91c 25be 856f 7e3d
000000b0: b915 61bd 389c 9f3c 50bd 723c 87a2 15be
000000c0: 28c9 4f3e 33a9 3c3d 6cd1 373e 6170 2ebd
000000d0: bba1 f33d 1a2f 06be 9a38 f93d f64b 3e3c
000000e0: 857a 35bc 3561 e33c a857 50bd 1fe9 a33d
000000f0: cec9 9cbd 7b3d aabc ea73 ffbc b5e5 53bc
-0.12543188 -0.011606612 -0.02433891 -0.017432436 0.15562332 0.12840739 0.044633236 0.26381117
0.03724778 0.006896647 -0.07428717 -0.056200333 0.06416951 -0.10969682 0.08902597 0.032437652
0.11557314 -0.22303768 -0.13010864 -0.08568452 -0.020902693 -0.06747474 -0.05985295 0.14222434
0.12034313 0.028399656 -0.03175293 0.103914514 0.036679126 -0.06933376 0.10417198 0.14312589
0.04925157 0.04115776 0.03604555 0.027873954 -0.04210727 -0.08277471 -0.07964255 0.041435782
-0.03753747 0.010451015 -0.16124286 0.062118072 -0.054952357 0.01948367 0.014815643 -0.1461278
0.20291579 0.0460598 0.17950982 -0.04258764 0.11896082 -0.13103905 0.12168999 0.01161479
-0.011076574 0.027756313 -0.050864846 0.08003449 -0.07655679 -0.02078127 -0.031183202 -0.012933184

gnn_layers.0.gnn.att_em_j f4 [1, 1, 64]
00000000: 0743 e7bc 2dc5 c53d cb12 0b3e 2e26 913e
00000010: f5df 5fbe 69cb 153c aeb0 58be 9f4f 37be
00000020: abbf 2a3e c3a5 9a3e 7b18 183d 456e 2a3e
00000030: 8ffc a53e 054e 6a3e f5d6 cabe 186d d73c
00000040: e68d 74be cd38 473e 2ade 813e 11b4 403e
00000050: 0290 8d3e f67f 8c3d a50f 033e 85b5 e63d
00000060: c2e6 23be 7f43 9c3e 6f32 2e3e cc97 57be
00000070: be3c a43a d7eb 30bd 1a85 c4be 1eda 3fbe
00000080: 5d3b 9f3e 71b2 ca3e 29a0 6f3d 57cd 43be
00000090: 3887 23bd 83ab c63d 4e00 453e 193d 453e
000000a0: fe88 3c3c 7c99 8a3e 8af5 463e 3d4e 0cbe
000000b0: 6552 813e 7607 9a3d 2646 cabe 8883 663e
000000c0: 9271 93be dcda e43c 457e 9abd 7b1b 90be
000000d0: d10c aabe 663b bfbc 6f45 6ebe 3f8c 4b3e
000000e0: b2bf 94be 7821 d73e 712b 8abc ed52 46be
000000f0: 40af 0c3d c2d6 39bd 55bf 6a3e 618d 953e
-0.028230203 0.09656749 0.13581388 0.2834944 -0.21862777 0.009142735 -0.21161148 -0.17901467
0.16674678 0.3020459 0.03713272 0.16643627 0.3241925 0.22881325 -0.39617124 0.026297137
-0.23882255 0.19455262 0.2536481 0.1881869 0.27648932 0.06860344 0.12798937 0.11265091
-0.16005996 0.30520245 0.17011426 -0.21054 0.001253031 -0.043193664 -0.38382798 -0.18735549
0.31099978 0.39589265 0.05850235 -0.191213 -0.039923877 0.09700682 0.19238397 0.19261588
0.011507271 0.27070224 0.19429603 -0.1370172 0.25258175 0.07520954 -0.39506644 0.22511113
-0.28797585 0.027936392 -0.07543615 -0.28145966 -0.33212903 -0.023343753 -0.23268674 0.19877718
-0.29052502 0.42017722 -0.016866418 -0.19367571 0.03434682 -0.045370825 0.2292455 0.29209426

gnn_layers.0.gnn.bias f4 [64]
00000000: 8c3a e836 5d02 99b7 a8d0 3437 d549 89b7
00000010: d7e6 6737 d738 55b5 17e3 9635 6120 6934
00000020: 9037 4737 deff 1fb7 c202 f6b5 e2bd 2f37
00000030: 10e3 bd34 630e 92b7 f792 9536 fd89 d239
00000040: e472 9ab6 2077 db38 c913 1438 e0f4 1ab7
00000050: 01be 5838 1a98 2e37 cd3a 28b8 4e98 8136
00000060: 0511 4ab6 5b5e 9338 6e0a 4737 a83c c6b6
00000070: d94b d534 7dca a339 bdf3 59b7 7a6a ddb7
00000080: 0638 d335 cabc 8039 cf79 f535 8156 6138
00000090: 18d8 20b9 e40a 11b8 2e16 9d37 ce63 8035
000000a0: 310f 9037 7243 80b7 4a2f a038 e62b be39
000000b0: 4b3e ce34 602d 2938 51c8 f9b7 e310 5c37
000000c0: 969b 28b7 7de7 0eb8 9c9b 99ba a078 49b7
000000d0: 942e c533 8028 0539 1e75 1f34 1f96 cc38
000000e0: 1fdc e5b8 d565 dfb6 4f93 82b6 f3e7 2ab7
000000f0: dc4b 7f37 b0ab 7d39 4d0c 3eb8 0cc3 62b7
6.9209545e-06 -1.8240122e-05 1.0777418e-05 -1.6366053e-05 1.38224195e-05 -7.9431396e-07 1.1241963e-06 2.1711595e-07
1.1874261e-05 -9.536712e-06 -1.8329231e-06 1.0475023e-05 3.5369203e-07 -1.7411256e-05 4.457655e-06 0.0004015713
-4.6029327e-06 0.000104649225 3.5304376e-05 -9.23613e-06 5.1675368e-05 1.0406622e-05 -4.0109084e-05 3.86223e-06
-3.0110252e-06 7.027081e-05 1.1863753e-05 -5.907921e-06 3.9729528e-07 0.00031240648 -1.2990958e-05 -2.6394835e-05
1.573703e-06 0.0002455472 1.8289373e-06 5.3724743e-05 -0.0001533929 -3.4580837e-05 1.8726187e-05 9.56579e-07
1.7173212e-05 -1.5290196e-05 7.638203e-05 0.0003627233 3.8415814e-07 4.0335e-05 -2.9776393e-05 1.3116954e-05
-1.00498055e-05 -3.407103e-05 -0.0011719349 -1.2008619e-05 9.182e-08 0.00012698956 1.4850636e-07 9.75544e-05
-0.00010960572 -6.6577727e-06 -3.891451e-06 -1.01867945e-05 1.5216847e-05 0.00024191919 -4.5310986e-05 -1.3516063e-05

gnn_layers.0.gnn.lin.weight f4 [64, 5]
00000000: 2ccf 37be 8257 e9bd efb2 943d aacf a23e
00000010: 464f 073e 42f4 dfbd e616 c93d 6144 4c3e
00000020: 75d2 5e3e 6261 47be 4cc1 80bd 635e 17be
00000030: 856f aa3d da5a cabd 5313 62be 2e8e 113c
00000040: 82d4 dd3d 9156 13bb 57e5 54bd 860f acbd
00000050: 4227 4f3e b2bc 55be e634 7f3e 4b8b 94bd
00000060: dee2 27be 9acd 38be e68d 91be 62f3 06be
00000070: 3675 a23c 79bb e0be 0742 293d 9738 033e
00000080: 34bb f4bd 0492 ffbd eadf 85be bbeb 883d
00000090: 94fb d8bd 05e2 723d 51ef a73d 04fa 443e
000000a0: 95a2 243d f157 3cbe 40b2 53be 6757 cb3d
000000b0: 54cd 2f3d 3344 bfbd 3116 cfbd 0201 5d3d
000000c0: 2cf6 a9be dd6c f2bd 3b03 3b3e d6f0 85be
000000d0: e9ad 5bbe 7ecb 01be 5c62 483e a710 95bd
000000e0: bf91 5a3e 7a1e ddbd 46bc 003c 8309 87be
000000f0: 441d 283d f793 513e 43da a13e 2477 a13b
00000100: e1b1 1dbe 203d 4cbe 40e8 52be 061e cebd
00000110: 8e08 bf3d 9251 6f3d 3ed0 e93c b490 913e
00000120: 6d50 6c3e fcc9 183e d31d 203e a2fd 6ebe
00000130: 55d6 2dbe 01e9 303e e855 99be b89c 12be
00000140: 81a3 653e 268f 75be 4087 6cbe 92a8 41be
00000150: aa10 65be 9b35 41bd eff2 81be 6d93 9abe
00000160: 01c3 2e3e 7ce1 0abe e7c5 27be bde0 dfbd
00000170: 76ba b43e 3414 973d 5dfa afbe d7d7 083e
00000180: d65a f0bd 6059 e83d 66b0 173e 2e03 b13e
00000190: 9876 b43c 9e3d ff3d 8bc3 363c a5dd 853d
000001a0: be65 9cbe f772 983d e50d 7e3d 3f57 5bbe
000001b0: d773 4abe 0b30 0d3d 4031 833e c126 54be
000001c0: 0fb0 2c3e 3d8a 723e cbf3 a9bd e98a d33d
000001d0: d715 e7bd 62ee afbd e5fa 5ebe 2f20 e8bd
000001e0: af05 703e 29b4 813e e20d d73e 98b8 c43e
000001f0: 14ef b33c 1752 4b3c 6645 5f3e 881d ea3d
00000200: 803f 393e 757f 5e3e bedc 283e 0d83 de3d
00000210: 5798 2c3e fde8 bf3d bc03 b33e 3661 08be
00000220: 4966 95bd 671c f7bd e933 203e 6ae7 3bbe
00000230: 9b9b 963e 49a6 abbc 8595 fa3d 595e c83d
00000240: 9ff9 443e f39a 673c f499 d3bd cd19 073e
00000250: ad3f 203e 5857 e63c 34b8 063e 3ba6 143e
00000260: 9119 e0bd 728a 3bbe 1e83 b8be e837 13be
00000270: 8606 4b3e 9906 863d 28c8 533e 03dd 65be
00000280: 48cb e53d e2f4 72be a37a 403e 2b3a 483e
00000290: 0dbb b9be 2641 023e b253 f83d e0e1 72be
000002a0: 760a 1b3e 01c0 93be 616e 64be 7265 e7bd
000002b0: ef3d b7bc 3656 883e acda 0c3d 3ef5 963d
000002c0: ee53 ea3d 1010 a13e 2f1a b43d 32da 6cbe
000002d0: 243d 10be e17b 043d 301a 243e 6ae0 9ebd
000002e0: d784 913e 4f06 0b3e 2707 503e 1388 4fbe
000002f0: e157 33be b3ef a93e bdaa 04be 5aed a53c
00000300: a7d9 acbc 8a3d 113e cde4 e7bd 202b f53d
00000310: 2b9e 193e 8883 ce3e daf7 04be e2be c23d
00000320: 4371 9c3e 84a4 d83d d63b d63e b649 733e
00000330: 5aec 53be 2158 09be 3859 8f3e 7d63 85bc
00000340: d3c9 273e 9dbc 88be c523 0cbd e1bf 9e3d
00000350: cd59 563e 46a8 ce3e 13ba 3cbc f902 88bb
00000360: 2675 2f3d e715 4a3e 44b8 49be 49d4 7fbe
00000370: 9c51 9f3c 5c0a 67be 0b2b 9ebd 2ac2 c73d
00000380: ea1a 6bbe 5fc6 f5bc 4ed0 11bc 0821 0bbd
00000390: c9be 59be aaf0 5cbd 64b6 173e 7900 413c
000003a0: 59cc d0bd 65c2 563e 6467 ec3d e2e9 803e
000003b0: be67 aabd 2134 983d e341 1dbe 6227 8cbe
000003c0: 5850 3b3e e194 ccbd 2ab1 23be 3956 84be
000003d0: 7b49 75be bb74 f0bd c5ef 613e 6986 033e
000003e0: 25b3 0dbe e95f 183e d5cc 21be 2b71 60be
000003f0: 9e63 9c3d 1296 503d 9f5c 72bc f5d3 8c3e
-0.17950124 -0.11393644 0.072606914 0.3179906 0.13213834 -0.1093526 0.09818821 0.1994796
0.2175997 -0.19470742 -0.062868685 -0.147821 0.08322052 -0.0988061 -0.22077684 0.008883996
0.10831548 -0.0022482018 -0.051976528 -0.08401398 0.2022982 -0.20872763 0.24922523 -0.072531305
-0.16395137 -0.18047181 -0.28428572 -0.1317878 0.019831281 -0.4389303 0.041322734 0.12814556
-0.11949769 -0.12479022 -0.26147395 0.06685587 -0.1059486 0.05929758 0.08199943 0.19235998
0.040194113 -0.18392922 -0.20673466 0.0992878 0.042920426 -0.0933918 -0.101116545 0.05395604
-0.33195627 -0.1183717 0.18262951 -0.26160306 -0.2145306 -0.12675282 0.19568771 -0.07278567
0.2134466 -0.107968286 0.007857388 -0.26374444 0.041043535 0.204666 0.31611833 0.0049275327
-0.15399887 -0.19945192 -0.20596409 -0.1006432 0.093278036 0.0584274 0.02854168 0.28430712
0.23077555 0.14920801 0.15636377 -0.2333894 -0.16976292 0.17276384 -0.29948354 -0.14317596
0.22425653 -0.23980388 -0.23098469 -0.1891196 -0.22369638 -0.047170263 -0.25380656 -0.30190602
0.17066576 -0.13562578 -0.16384088 -0.10931537 0.35298508 0.073769 -0.343707 0.13363586
-0.117360756 0.11345172 0.14813384 0.34572738 0.022029206 0.124629244 0.0111550195 0.06536416
-0.30546373 0.07443803 0.06202497 -0.2142 -0.19770752 0.034469645 0.25623512 -0.20717908
0.16864036 0.23685546 -0.08298453 0.103292294 -0.112834625 -0.0859039 -0.21775396 -0.113342635
0.23439668 0.25332764 0.4200278 0.38422084 0.021964587 0.012409708 0.21803817 0.11431414
0.1809063 0.21728308 0.16490456 0.1086484 0.16854988 0.09370611 0.34963787 -0.13318333
-0.072949 -0.12065964 0.15644802 -0.18349996 0.29415593 -0.020953314 0.1223555 0.097836204
0.19235848 0.014136064 -0.103320986 0.13193436 0.1564929 0.02811782 0.13156205 0.14516537
-0.109423764 -0.18314531 -0.36037534 -0.14376795 0.19826707 0.06544227 0.20681822 -0.2244759
0.112204134 -0.23726228 0.18796782 0.1955344 -0.3627552 0.12720165 0.121253386 -0.23718977
0.1514071 -0.28857425 -0.22307731 -0.11298646 -0.0223684 0.26628274 0.03438823 0.07370995
0.114417896 0.31457567 0.087940566 -0.2313011 -0.14085823 0.032344703 0.16025615 -0.07757647
0.2842166 0.13576625 0.20315228 -0.20266752 -0.17513992 0.33190688 -0.12955756 0.02025478
-0.021099878 0.14183632 -0.11322937 0.11971116 0.15001743 0.40334725 -0.12985173 0.09509064
0.30555162 0.10578254 0.41842526 0.23758587 -0.2069563 -0.13412525 0.27997756 -0.016282791
0.16385584 -0.267064 -0.0342138 0.07751442 0.20932694 0.40362757 -0.011518973 -0.004150745
0.04283633 0.19734918 -0.19699198 -0.24983324 0.019448094 -0.22562546 -0.077230535 0.09753831
-0.22959486 -0.030001817 -0.008899761 -0.033967048 -0.21264185 -0.053940453 0.1481567 0.011779898
-0.10195226 0.20972593 0.11543158 0.25178438 -0.083205685 0.07431818 -0.15357165 -0.27373797
0.18292367 -0.09989334 -0.15985551 -0.25847033 -0.23953812 -0.117410146 0.22064121 0.12844242
-0.1383787 0.14880337 -0.15800793 -0.2191817 0.07636188 0.05092437 -0.01479259 0.2750546

gnn_layers.0.bn.weight f4 [64]
00000000: 0385 a53e 39c2 783e c7b0 e03d 2ef7 893e
00000010: 2d71 a13d 49df 093e cb97 1c3e d0e5 8e3e
00000020: 719b 4c3e a491 b23e 419a a33e 9843 1d3e
00000030: e5f6 e23c 5646 d03e 01f9 843e 1634 d73e
00000040: 39b4 873e 040f b53e 0780 c33e 42f5 ff3e
00000050: 5f98 cb3e 1b26 b53e 68dd 7d3e 9ce8 413e
00000060: 5fb1 7f3e 728a 4e3e a625 9c3e d0ea f63e
00000070: edf9 673e 4b40 f23d 5e32 8d3e ece5 b23e
00000080: 34b7 4f3e 7fa2 5e3e 1bf9 ba3e a27b 7c3e
00000090: 5e87 0c3f 678f c13e 0926 ae3e 2ef2 093e
000000a0: 31a0 9a3e 47fd 9b3e f037 8a3e cd31 393e
000000b0: 13b8 643e 74a0 a03e b1bb af3e 0408 e33e
000000c0: 884c 4f3e 09dd b13e 0d3c f13e 139f 893e
000000d0: f147 af3e 578b af3e 885e 153e b71a 043f
000000e0: d082 df3e 671c bd3e c3e6 083e cce7 593d
000000f0: 8c90 343f a781 ce3e d7af 9c3e 1cdd c83e
0.32328042 0.2429284 0.109712176 0.26946396 0.07882915 0.13464083 0.1529228 0.27909708
0.19981171 0.3487674 0.31953624 0.15357816 0.02770562 0.40678662 0.25971225 0.42031926
0.26504686 0.3536302 0.38183615 0.49991804 0.39764687 0.35380635 0.24791491 0.1893639
0.24970005 0.2017 0.30497473 0.48226023 0.22653933 0.11828669 0.2757749 0.3494104
0.2028473 0.21741675 0.36518177 0.24656537 0.54894054 0.3780472 0.34013394 0.1347129
0.3020034 0.30466673 0.26995802 0.18085404 0.22335844 0.31372416 0.34322885 0.44342053
0.20244038 0.3473895 0.47116128 0.26879176 0.34234574 0.34285995 0.14586842 0.51603264
0.4365449 0.36935732 0.13369279 0.053199574 0.7053306 0.40333292 0.30602905 0.39231193

gnn_layers.0.bn.bias f4 [64]
00000000: 2a3b a9bd 084a 173e 46f0 34be 76a0 073d
00000010: f88c 93bd a5e8 433b 2c30 673d 382e edbb
00000020: ef50 f63d 3e8a 383e 17d1 9dbc 60ef 983d
00000030: fbee 9a3b 3347 b83d 5827 f43d 3243 debd
00000040: f827 183e 47bc 18bd 622b 573e 13cc 753d
00000050: 91fe 0e3e 2be9 cbbc 82d7 253e 2485 21be
00000060: fd75 6d3c 685e 173e 6cbf 443e e759 b5bc
00000070: 1eb4 a43b 7922 2dbe 4712 a43d 1ff7 96bc
00000080: 6dea da3c d01c 3dbd 4740 a6bd a3c3 1e3c
00000090: 2e7c 7ebc 7d2c f83d 65af 4d3e 9d0a d23e
000000a0: ebca 01bd 851e 91bc f316 263e 3776 16be
000000b0: 8fee ae3c 037a 29be b85a 803c dbf5 6d3e
000000c0: 5460 e23d 1d3f eb3d f8c4 89bd 05f5 f33d
000000d0: 3f48 403b 5cc0 6dbc 2681 4b3c 265b 3e3e
000000e0: 13ae 33bd c01a 8c39 3b76 503d 567e 6ebd
000000f0: 8cf2 41bd 7fef b4bc 833c 923e 742a a63d
-0.08263238 0.14774334 -0.17669782 0.03311201 -0.07204622 0.0029893306 0.056442425 -0.0072381757
0.120271556 0.18021485 -0.01926474 0.07467532 0.0047281957 0.08997955 0.11921567 -0.1085266
0.14858997 -0.03728893 0.21012643 0.060009073 0.13964297 -0.024891457 0.16195491 -0.15773445
0.014493463 0.14782107 0.19213647 -0.022137595 0.0050263545 -0.16907682 0.080112986 -0.018428383
0.026723111 -0.046170056 -0.08117729 0.009690198 -0.015532536 0.121178605 0.20086439 0.41023722
-0.03168766 -0.017714748 0.16219692 -0.14693533 0.021353988 -0.1655045 0.015668258 0.23238318
0.110535294 0.11486647 -0.06727022 0.11911968 0.0029339937 -0.014511194 0.012420928 0.18589458
-0.043867182 0.0002672281 0.050894003 -0.058225952 -0.04735045 -0.022086857 0.28561792 0.08113566

gnn_layers.0.bn.running_mean f4 [64]
00000000: 9dc5 1c3b 5de7 323b e9aa 6abb d09b 2bb9
00000010: f052 f039 fbff 0ebc d106 4ebb 92fe 263b
00000020: 2a95 19bb 15db a7bb b0d2 40bb 3a44 f9ba
00000030: eb80 923b 5e1b 4fbb 1e11 033c 3356 aabb
00000040: 84c8 d5bb a456 b3bb ba40 d3b9 460d b03b
00000050: b296 cbb9 9eb3 39bb 744f 6c3b 4a10 87bb
00000060: 2fa2 4d3c bf9f dd3b 4c34 ff3b 56b3 45bb
00000070: 6f5b c13b ebc5 1c3b e861 69bb 187c c43a
00000080: 9c66 50b9 33d1 adba 5080 5ab9 ea19 863b
00000090: c779 1b3b 234a d63a 54a2 1cba ff64 cd3b
000000a0: 221f 0c3c f76e 333a a9cf d53b cf19 a4ba
000000b0: a3b3 6fbb f163 4cbb 7f40 453b 00c3 cbba
000000c0: a1e5 b6bb 1e52 1b3b 5036 58bb d87c 1bba
000000d0: af36 60bb 8632 d23a 1e00 2fbb 703e 8a3b
000000e0: c632 d2ba fc59 5fbb c235 68bb 38e4 aaba
000000f0: ef6a bcbb 6720 68b8 85dc 433b 2b71 6bbb
0.0023921498 0.0027298548 -0.0035807437 -0.00016365875 0.0004583816 -0.008728023 -0.0031437168 0.0025481326
-0.0023434856 -0.005122552 -0.0029422455 -0.0019017525 0.0044709346 -0.0031602005 0.0079996865 -0.005198264
-0.0065241475 -0.005472975 -0.0004029328 0.005372676 -0.00038831454 -0.002833582 0.00360581 -0.004121815
0.012550875 0.006763428 0.0077882167 -0.0030166707 0.0059007923 0.002392168 -0.0035611335 0.0014990596
-0.00019874651 -0.0013261199 -0.000208379 0.0040924447 0.0023723708 0.0016348999 -0.00059751165 0.006268143
0.0085523445 0.0006844843 0.006524999 -0.0012519899 -0.0036575578 -0.00311875 0.0030098257 -0.0015545785
-0.005581573 0.0023700069 -0.0032991357 -0.0005931384 -0.0034212281 0.0016036786 -0.002670295 0.004218869
-0.001603686 -0.0034080734 -0.0035432433 -0.0013037985 -0.005750052 -5.5343287e-05 0.0029886079 -0.0035925608

gnn_layers.0.bn.running_var f4 [64]
00000000: f1ec cf39 b5a9 ca39 9178 4c3a 9aa2 e137
00000010: b6cb 9039 4aa0 7b3b 3ae0 0e3a e2db bf39
00000020: cdf8 9c39 cf42 b63a 3214 fa39 6b72 ad39
00000030: ae1c 6b3a b2a3 103a 8e08 373b 6032 eb3a
00000040: 8ac3 f63a 3bae ba3a c0c7 073a 2c0f c73a
00000050: b930 2739 a0cf c439 2a78 503a 19c1 463a
00000060: c953 dd3b 1af6 083b 431e 3d3b bec6 0b3a
00000070: 5957 e53a bc37 8a39 316d 453a f84c 7b39
00000080: afc3 dd39 c411 bc39 f082 2539 6e6e 4c3a
00000090: 7e33 de39 8bf2 163a ed97 b338 4ef4 ec3a
000000a0: 6e6c 553b 8b82 7e39 5748 ee3a 2a21 a539
000000b0: 9ece 443a 7c05 f539 d98b 1a3a 4258 ab39
000000c0: c41e b83a 13ff c839 5b62 af39 3610 7739
000000d0: 0c15 3a3a 1584 a239 5296 f839 1b6c 703a
000000e0: 9e83 da39 4bec 193a c94c 2d3a da8d 8d39
000000f0: 6c7d ec3a 290d a239 f6b0 383a efd3 303a
0.00039658652 0.00038654884 0.0007799948 2.6897807e-05 0.00027617597 0.00383951 0.00054502825 0.00036594184
0.0002994001 0.0013905409 0.00047698763 0.0003308238 0.0008968812 0.00055175566 0.0027928683 0.001794409
0.0018826586 0.0014242599 0.00051796064 0.0015187017 0.00015944512 0.00037538726 0.0007952476 0.00075818744
0.0067543727 0.002089864 0.0028857149 0.0005332044 0.0017497345 0.00026362936 0.00075312244 0.00023965898
0.000422982 0.0003587139 0.00015784404 0.0007798438 0.00042381504 0.00057581876 8.5636835e-05 0.001807818
0.003256585 0.00024271959 0.0018179518 0.00031495962 0.0007507595 0.00046734128 0.0005895473 0.0003268142
0.0014047255 0.00038337018 0.00033451882 0.00023561795 0.0007098473 0.00030997457 0.00047414243 0.00091713824
0.00041678263 0.0005871697 0.0006610868 0.00026999303 0.001804275 0.00030908853 0.0007045412 0.0006745448

out_layer.mlp.0.weight f4 [1, 64]
00000000: f7f4 1cbd e557 a0bc f048 52bd 505b 63bc
00000010: d4b9 ce3b ad9b 203b 90cb f93b d9a9 bcbb
00000020: 0284 1bbc 8b4e 1ebc 38e7 b3b9 a844 79bc
00000030: 3b58 f53a bd3a f0bb 2469 29bc ca96 503d
00000040: 1700 4bbc e0b2 713c 1b9b 51bc 4117 203d
00000050: 54b1 51bc e69b b73a 0a7b d13c 066d b9bc
00000060: b7d7 b3bb ad59 af3c 27f9 c03c bab0 313d
00000070: 6f06 f1bb 63f9 8abc 8f31 2cbd 1899 5a3c
00000080: 790b 59bc e506 3fbc c27e 03b8 d3a3 b2bc
00000090: aef9 973c 35f6 7fbc 6a63 07bc d25c 963c
000000a0: dad5 96bc fbdb 5bbb 26ae af3c d073 e13c
000000b0: f774 b63a b2aa 08bd fa2e ac3c 0c9a 5abc
000000c0: 25b8 f5bc 0d72 9bbc a5e9 233d d3f6 b1bb
000000d0: 0cea 483c e686 403c 6391 e43b bb1b ce3c
000000e0: 2f5a e73c 9879 0dbc 122a bcba e221 9ebb
000000f0: fc73 3c3d b77c 2e3c 91c3 b03c bc35 edbb
-0.038319554 -0.019573161 -0.05133909 -0.013876751 0.0063087735 0.0024506852 0.0076231435 -0.005757552
-0.009491922 -0.009662281 -0.00034313812 -0.015214123 0.0018718311 -0.007331221 -0.010340009 0.050925054
-0.012390158 0.01475212 -0.012793328 0.039084677 -0.012798626 0.0014008253 0.025571365 -0.022634994
-0.0054883617 0.021405065 0.023556305 0.04338143 -0.0073555033 -0.01696462 -0.04203945 0.013342164
-0.013247364 -0.011659359 -3.1350886e-05 -0.021806633 0.018551674 -0.015622665 -0.008263448 0.018354807
-0.01841252 -0.0033547867 0.021445345 0.027521044 0.0013920356 -0.033365913 0.021018494 -0.013342392
-0.029995034 -0.018975282 0.040017743 -0.005431035 0.012262832 0.011750912 0.0069753393 0.025159707
0.028241245 -0.008634947 -0.00143558 -0.0048258165 0.04600905 0.0106498515 0.021577628 -0.0072390717
