model_normal/gdn_smd_w_20_epoch20.pth (torch, 44399 bytes, 16 tensors)

embedding.weight f4 [38, 128]
0	0x3d9ae618	0.07563418
1	0xbf4e1048	-0.80493593
2	0xbf23236a	-0.6372591
3	0xbe0f1db1	-0.1397617
4	0xbe257286	-0.16156968
5	0xbe30d58b	-0.1726896
6	0xbebc59b4	-0.36787188
7	0xbea9f995	-0.33198228
8	0xbea49056	-0.3214137
9	0xbe0e9130	-0.13922572
10	0xbe7fcf1c	-0.2498135
11	0x3e479591	0.19490649
12	0x3d51054c	0.051030442
13	0xbe4b1d9c	-0.19835514
14	0xbe5bbc9e	-0.2145867
15	0xbe19af8a	-0.15008369
16	0xbefbe02f	-0.49194476
17	0xbcd146b8	-0.025546417
18	0x3d77f27e	0.060533993
19	0xbe8da35c	-0.27663696
20	0xbce14cd6	-0.027502459
21	0xbefb2eda	-0.49059182
22	0x3e0534a0	0.13008356
23	0xbe301aa2	-0.1719766
24	0x3e2f8606	0.1714097
25	0xbf90face	-1.132654
26	0x3de674ed	0.112527706
27	0xbc74290b	-0.0149023635
28	0xbdfa92eb	-0.12235054
29	0x3e90b89a	0.2826584
30	0xbf152ecd	-0.5827454
31	0x3db967d4	0.09053007
32	0xbf96c839	-1.1779853
33	0xbf2bb626	-0.6707481
34	0xbeee4670	-0.46538115
35	0xbe48549b	-0.19563524
36	0xbdfce333	-0.12348022
37	0xbdedfd66	-0.116205975
38	0xbf070550	-0.5274248
39	0xbf23bfa4	-0.63964295
40	0xbf2cd3c0	-0.67510605
41	0x3df29682	0.11845113
42	0xbd8f136a	-0.06986125
43	0xbd6718ab	-0.05642001
44	0xbed3714a	-0.4129737
45	0x3e2e0f3e	0.16998002
46	0xbe6a1333	-0.22858886
47	0xbea8a022	-0.32934672
48	0xbd6ef80c	-0.058342025
49	0xbeb42903	-0.3518754
50	0xbe993506	-0.29923266
51	0xbeecd436	-0.46255654
52	0xbefec666	-0.4976074
53	0xbf85fe32	-1.0468199
54	0x3e8ee1e9	0.2790673
55	0x3a8e4615	0.0010854626
56	0xbec7f9cd	-0.3905777
57	0xbe62a10e	-0.2213175
58	0xbe543d8e	-0.20726606
59	0xbea6b95c	-0.32563293
60	0xbbc35b24	-0.0059617925
61	0xbf803b70	-1.0018139
62	0xbec4ced4	-0.38439047
63	0x3da031fb	0.07822033
64	0xbd139ed7	-0.036040153
65	0x3e5f4f95	0.21807702
66	0xbf36a5ef	-0.71346945
67	0xbfb5da1c	-1.4207187
68	0xbf27c34e	-0.65532386
69	0xbd166df0	-0.03672594
70	0x3e997fac	0.29980218
71	0xbf2bd0b6	-0.6711534
72	0xbea41d18	-0.32053447
73	0xbe249185	-0.16071136
74	0xbf09d92e	-0.53847015
75	0xbdbadbb4	-0.09123936
76	0x3f3026cb	0.68809193
77	0xbe91fe04	-0.2851411
78	0xbe5fa3ce	-0.2183983
79	0xbd01f26a	-0.031725325
80	0xbe7a6236	-0.24451527
81	0xbf9955df	-1.1979331
82	0xbea4c682	-0.321827
83	0xbf0cd734	-0.55015874
84	0xbd894b98	-0.067038715
85	0xbb96bc89	-0.004600112
86	0xbe4b94b7	-0.19880949
87	0xbf99bd3a	-1.2010872
88	0xbeab4daa	-0.3345769
89	0x3d9c6d2e	0.07638012
90	0xbe9598d7	-0.2921817
91	0xbe7181d3	-0.2358468
92	0xbf590802	-0.84777844
93	0xbf00db06	-0.50334203
94	0x3ebfd809	0.3746951
95	0xbe4accf4	-0.19804746
96	0xbecc3521	-0.39884284
97	0xbe2cdfc7	-0.1688224
98	0xbe70e244	-0.23523813
99	0xbf3994c0	-0.724926
100	0xbf228640	-0.634861
101	0x3e5caa30	0.21549296
102	0xbcec6f45	-0.028861651
103	0xbef9ff34	-0.48827517
104	0xbef0378b	-0.46917376
105	0x3e8a7e6a	0.2704957
106	0xbf18800b	-0.5957038
107	0xbd3c46cc	-0.045965955
108	0xbdebf6b1	-0.11521662
109	0x3d7a6aa7	0.061136868
110	0xbeefbd42	-0.4682408
111	0xbe709de5	-0.23497732
112	0xbe660f03	-0.22466664
113	0x3f083303	0.5320284
114	0xbf2244ee	-0.6338643
115	0xbeb45eb5	-0.35228506
116	0xbf383b2c	-0.7196529
117	0x3d0d8c8f	0.034557875
118	0xbed24f29	-0.4107602
119	0x3de50d50	0.1118418
120	0xbf8e8cb6	-1.1136692
121	0xbe358e0e	-0.17729971
122	0xbc72f785	-0.014829521
123	0xbea0f448	-0.31436372
124	0xbd77eac4	-0.060526624
125	0xbf94acaf	-1.1615199
126	0xbf10fb6d	-0.56633645
127	0x3ef618fc	0.48065937
128	0xbedad67b	-0.4274176
129	0xbfde2214	-1.735415
130	0xbf0a0321	-0.53911024
131	0xbcf0099d	-0.029301459
132	0x3e3ee1ae	0.18640777
133	0xbedd6676	-0.43242234
134	0xbf4fba8a	-0.8114401
135	0xbea26493	-0.31717357
136	0xbe865a75	-0.26240888
137	0xbfc5ed2a	-1.5463002
138	0xbe6f0a1e	-0.23343703
139	0xbef3c3c2	-0.4761029
140	0xbe016471	-0.12635972
141	0xbe3a9889	-0.1822225
142	0x3e328153	0.17432146
143	0xbd770a2e	-0.060312442
144	0xbed5def7	-0.4177167
145	0xbdc07b96	-0.09398572
146	0xbe53b48e	-0.20674345
147	0x3c984cf8	0.018591389
148	0x3db15fe2	0.08660866
149	0xbee6f960	-0.45112133
150	0x3d3f6d77	0.046735253
151	0xbe9748a4	-0.29547608
152	0xbd74f376	-0.059802495
153	0xbf90bbe8	-1.1307344
154	0xbe9b8a31	-0.3037887
155	0xbe91eafa	-0.28499585
156	0xbcf49ab2	-0.02985892
157	0x3e0a443a	0.13502589
158	0xbebb0147	-0.36524412
159	0xbd0b0cc4	-0.03394772
160	0xbe5e5a46	-0.21714124
161	0xbf07a478	-0.52985334
162	0xbebe6386	-0.37185305
163	0xbe1ee12a	-0.15515581
164	0xbdc2960b	-0.09501275
165	0xbe44061d	-0.19142957
166	0x3cc006f4	0.023440816
167	0xbf089ad2	-0.5336124
168	0xbef21dd5	-0.47288385
169	0xbf357c1b	-0.70892495
170	0xbf66c96d	-0.901511
171	0xbd11060f	-0.03540617
172	0xbe95a4b2	-0.29227215
173	0xbdb415d1	-0.08793224
174	0xbc5c3535	-0.01344042
175	0xbca8bf66	-0.020599078
176	0x3eb3a101	0.35083774
177	0xbf3ca809	-0.736939
178	0xbe41bfc6	-0.18920812
179	0xbefa3af5	-0.48873106
180	0xbec68ccb	-0.38779292
181	0xbea6327f	-0.324604
182	0x3e8256be	0.25456804
183	0xbd9291cb	-0.07156714
184	0x3daa7060	0.08322215
185	0xbe94a2e8	-0.29030538
186	0xbda15e7c	-0.078793496
187	0xbe04a5fe	-0.12953946
188	0x3db2dcbd	0.08733509
189	0xbe982fae	-0.29723877
190	0xbb7ac9ac	-0.0038267178
191	0x3d75dabf	0.060023066
192	0xbcce1485	-0.025156269
193	0xbe56b89d	-0.20968862
194	0xbe768805	-0.24075325
195	0x3d0d676a	0.03452245
196	0xbeec7108	-0.46179986
197	0xbf604ecd	-0.8762024
198	0xbb5bc1f5	-0.0033532355
199	0xbec52ff6	-0.38513154
200	0xbe9c3d6c	-0.3051561
201	0xbec4e906	-0.38459033
202	0xbede5c18	-0.43429637
203	0xbf121322	-0.57060444
204	0x3ea2f284	0.3182565
205	0xbe0d4531	-0.13795926
206	0xbe635362	-0.22199777
207	0xbefe86d3	-0.49712238
208	0x3e1b74da	0.15181294
209	0xbeaa7a25	-0.33296314
210	0xbf042659	-0.51621014
211	0xbf05d7d0	-0.5228243
212	0x3e08a378	0.13343608
213	0xbb9de0e3	-0.0048180684
214	0x3e93d74e	0.28875202
215	0xbeabdb88	-0.33565927
216	0xbf235e9a	-0.63816226
217	0xbe0b0d5d	-0.13579316
218	0xbe901ce0	-0.2814703
219	0xbe894cca	-0.26816398
220	0xbf84eb9d	-1.0384403
221	0x3c060e02	0.008182051
222	0x3e17686d	0.14785929
223	0xbf67d611	-0.90561014
224	0xbec4af9e	-0.38415235
225	0xbe1536cd	-0.14571686
226	0xbe3f1971	-0.18662049
227	0xbf0f5684	-0.5599139
228	0x3cc97eec	0.024596654
229	0x3e76ce14	0.2410205
230	0x3e357658	0.17720926
231	0x3cdcc62a	0.02694996
232	0xbec1e870	-0.37872648
233	0x3e96af39	0.2943056
234	0x3cbd05ea	0.02307411
235	0xbda7691e	-0.081743464
236	0xbdc1311b	-0.09433194
237	0xbf05a096	-0.5219816
238	0x3d94c78e	0.072646245
239	0xbecc0dee	-0.39854378
240	0x3cd7fe2f	0.026366321
241	0x3dcf58fa	0.10124393
242	0xbf1028a9	-0.5631204
243	0xbeae12ac	-0.3399862
244	0xbc2c8d20	-0.010531694
245	0x3e801cac	0.25021875
246	0xbeb353b8	-0.3502481
247	0x3ec97c81	0.393528
248	0x3cf14919	0.029453801
249	0xbec2d65c	-0.38054168
250	0xbc79f4a3	-0.01525608
251	0xbeaf06f5	-0.34184995
252	0xbeb54c7d	-0.35409918
253	0xbcbd0157	-0.023071928
254	0x3d889866	0.06669693
255	0x3edbc1a9	0.42921188

bn_outlayer_in.weight f4 [128]
0	0x3e0d770e	0.13814947
1	0x3e076150	0.13220716
2	0x3f3a465a	0.727636
3	0x3dcb9935	0.09941331
4	0x3e830ca2	0.25595576
5	0x3ee5af20	0.44860172
6	0x3ee9ef87	0.45690557
7	0x3f52dcb8	0.8236804
8	0x3f008980	0.5020981
9	0x3e0bf627	0.13668118
10	0x3f45b3f7	0.7722773
11	0x3e9dbf36	0.30809945
12	0x3e164165	0.14673384
13	0x3eedf39d	0.46474925
14	0x3f02d340	0.5110359
15	0x3e8ee3da	0.27908212
16	0x3f157237	0.58377403
17	0x3f0a49e1	0.5401898
18	0x3e107452	0.14106873
19	0x3ecb9d84	0.39768612
20	0x3e28642b	0.16444461
21	0x3f274c8e	0.6535119
22	0x3ef3bd7b	0.476055
23	0x3edae16b	0.42750105
24	0x3e6b0146	0.22949705
25	0x3f64b2d1	0.8933535
26	0x3e897706	0.2684862
27	0x3e02097b	0.12698929
28	0x3ec57a99	0.38570097
29	0x3dbef81b	0.09324666
30	0x3ee76101	0.45191196
31	0x3defca7a	0.11708541
32	0x3e888383	0.26662835
33	0x3f27e468	0.65582895
34	0x3f189a97	0.59610885
35	0x3e80deb5	0.25169912
36	0x3eb2545a	0.3482998
37	0x3f024781	0.50890356
38	0x3ed471db	0.41493115
39	0x3ef9214b	0.48658213
40	0x3f24e9ce	0.6441926
41	0x3ec49e34	0.3840195
42	0x3f38c697	0.72178024
43	0x3e61a22a	0.22034517
44	0x3f13922b	0.5764491
45	0x3f0847f2	0.5323478
46	0x3f0f2b5d	0.5592554
47	0x3f0467c0	0.5172081
48	0x3e988bec	0.29794252
49	0x3f04ab35	0.5182374
50	0x3f2065d4	0.6265538
51	0x3f1dc350	0.6162615
52	0x3f1db583	0.6160509
53	0x3f2dd6c3	0.67905825
54	0x3ec05ace	0.37569278
55	0x3df4ee06	0.11959462
56	0x3e95ff80	0.29296494
57	0x3f71d11a	0.9445969
58	0x3ecc04ff	0.39847562
59	0x3f2d8b2f	0.677905
60	0x3e98689c	0.2976731
61	0x3f388d1c	0.72090316
62	0x3dda9da9	0.106746025
63	0x3e064a02	0.13114169
64	0x3f4a2d4c	0.7897537
65	0x3ee0ef41	0.43932536
66	0x3f477ba2	0.77923024
67	0x3ed89bb0	0.4230628
68	0x3f5e51a5	0.8684333
69	0x3e4afde5	0.19823416
70	0x3ecb435c	0.3969983
71	0x3f4430e6	0.76637113
72	0x3f1b45d7	0.6065344
73	0x3f048a25	0.5177329
74	0x3f24ef53	0.6442768
75	0x3f1be4c7	0.6089596
76	0x3e05b0b5	0.1305569
77	0x3f2cee03	0.6755068
78	0x3f37a690	0.7173853
79	0x3e9117e5	0.28338543
80	0x3f0c6bb1	0.54851824
81	0x3f19f48d	0.6013878
82	0x3ee6ef99	0.45104674
83	0x3f23cdc9	0.6398588
84	0x3df48608	0.11939627
85	0x3f585b19	0.84514004
86	0x3f0dd515	0.5540326
87	0x3f1483b1	0.58013445
88	0x3edd6eac	0.43248498
89	0x3dd0e029	0.10199005
90	0x3f32899d	0.6974123
91	0x3f1a4581	0.60262305
92	0x3f0bdbb4	0.54632115
93	0x3e99208d	0.29907647
94	0x3e9f3c76	0.31100816
95	0x3ec5007c	0.38476932
96	0x3eda1fbf	0.42602345
97	0x3f337076	0.70093477
98	0x3eba2537	0.36356518
99	0x3f22665d	0.63437444
100	0x3edec771	0.43511537
101	0x3e3eb050	0.18621945
102	0x3e0fad56	0.14030966
103	0x3f38cf6d	0.72191507
104	0x3f0341e6	0.5127243
105	0x3ee1611b	0.44019398
106	0x3f289d44	0.6586497
107	0x3e9f1cb2	0.3107658
108	0x3ed36e95	0.41295305
109	0x3e76e627	0.24111234
110	0x3f20119a	0.6252686
111	0x3e9bc289	0.30421856
112	0x3ecae82f	0.39630267
113	0x3e81c805	0.25347915
114	0x3f486f48	0.782948
115	0x3eac8763	0.33697042
116	0x3f007e4b	0.5019271
117	0x3ecb9755	0.39763895
118	0x3f0dabd6	0.55340326
119	0x3eafda76	0.3434636
120	0x3efcd85c	0.4938382
121	0x3f1f0233	0.6211273
122	0x3f0699b5	0.5257829
123	0x3f2c0d13	0.6720745
124	0x3e02f854	0.12790042
125	0x3f034c43	0.5128824
126	0x3ee161b5	0.44019857
127	0x3e704552	0.23463944

bn_outlayer_in.bias f4 [128]
0	0xbcb0c911	-0.021580251
1	0x3aac1065	0.0013127445
2	0xbea30a8f	-0.31843993
3	0x3bcf64e0	0.006329164
4	0xbddb9eb8	-0.107236326
5	0xbe006f54	-0.12542468
6	0xbe8d4c27	-0.27597162
7	0xbe860cb0	-0.26181555
8	0xbe20748e	-0.15669462
9	0xb9c3d209	-0.00037349787
10	0xbf04e928	-0.5191827
11	0xbed52ba5	-0.4163486
12	0xbd39bdd9	-0.04534707
13	0xbe3d77cc	-0.1850273
14	0xbed8bfce	-0.42333835
15	0xbe597bac	-0.21238583
16	0xbe580aa0	-0.21097803
17	0xbd7dc39b	-0.061954122
18	0xbcaa2038	-0.020767316
19	0xbe0c798d	-0.13718243
20	0xbde6954f	-0.11258947
21	0xbf58802d	-0.8457058
22	0xbf87074c	-1.0549102
23	0xbf43b422	-0.76446736
24	0xbdebcdaa	-0.11513837
25	0xbe9ce14f	-0.30640647
26	0xbf343967	-0.7040009
27	0xbc832f6e	-0.016013827
28	0xbe79a978	-0.24381053
29	0x3c076791	0.008264438
30	0xbe05b2b8	-0.13056457
31	0xbc8190e0	-0.015816152
32	0xbe0e070d	-0.13869877
33	0xbf0845f2	-0.5323173
34	0xbef927ae	-0.48663086
35	0xbdb1737a	-0.086646035
36	0xbead6c69	-0.33871773
37	0xbe2233ea	-0.15840116
38	0xbe1a9075	-0.15094168
39	0xbdaff911	-0.085924275
40	0xbf213bc3	-0.62981814
41	0xbeae23e1	-0.34011748
42	0xbedf326f	-0.43593165
43	0xbf07a1fc	-0.52981544
44	0xbe3efcb0	-0.1865108
45	0xbf1a8c34	-0.60370183
46	0xbd9b0b47	-0.0757051
47	0xbda03426	-0.078224465
48	0xbea41213	-0.3204504
49	0xbea82547	-0.3284094
50	0xbe2bf9a1	-0.16794445
51	0xbecb7ef2	-0.3974529
52	0xbf35629f	-0.7085361
53	0xbedf6363	-0.43630514
54	0xbecd998e	-0.40156215
55	0xbc7d5199	-0.015461349
56	0xbfaad5ae	-1.334646
57	0xbcaab31c	-0.02083736
58	0xbe8b6ecc	-0.2723297
59	0xbe35a4a4	-0.17738587
60	0xbf33cc36	-0.70233476
61	0xbee02d37	-0.43784496
62	0x3b1e174a	0.0024122768
63	0xbc153456	-0.009106716
64	0xbc81dbba	-0.015851844
65	0xbeed6d76	-0.46372575
66	0xbf1ebab6	-0.6200365
67	0xbdcf265a	-0.10114737
68	0xbe995d72	-0.29954106
69	0xbd49c33d	-0.04925846
70	0xbf5ca3e9	-0.8618761
71	0xbe8226e5	-0.254203
72	0xbec398ab	-0.38202414
73	0xbe87e92e	-0.2654509
74	0xbe98c063	-0.2983428
75	0xbec02711	-0.37529805
76	0xbf16da30	-0.5892668
77	0xbe5117aa	-0.20419183
78	0xbf09349c	-0.535959
79	0xbcaaa5a1	-0.020830931
80	0xbe67dc79	-0.22642697
81	0xbec0aeed	-0.37633458
82	0xbe6b9f24	-0.23009926
83	0xbea0e50a	-0.31424743
84	0xbd9a363e	-0.07529877
85	0xbeb0d5ee	-0.34538215
86	0xbe8f3755	-0.27971902
87	0xbec27c62	-0.37985522
88	0xbf8dc730	-1.1076412
89	0xbc7a482b	-0.015275995
90	0xbed4b011	-0.41540578
91	0xbed6769b	-0.41887364
92	0xbec797f0	-0.38983107
93	0xbef08a8b	-0.469807
94	0xbf72958d	-0.94759446
95	0xbe6db9d3	-0.23215418
96	0xbe91f450	-0.28506708
97	0xbf18cd77	-0.59688514
98	0xbe194d0e	-0.149708
99	0xbb87b258	-0.0041411333
100	0xbda1d1ee	-0.07901369
101	0xbdf1c620	-0.118053675
102	0xbe2b861c	-0.16750377
103	0xbe555688	-0.2083379
104	0xbe3f7402	-0.18696597
105	0xbec944ff	-0.39310452
106	0xbe200d54	-0.15630084
107	0xbe109e2f	-0.14122842
108	0xbf3e7f2d	-0.74412805
109	0xbf0e31ee	-0.55544937
110	0xbe289a41	-0.16465093
111	0xbf6b4651	-0.9190417
112	0xbee9389a	-0.45550996
113	0xbed24b2c	-0.41072977
114	0xbe7e1049	-0.248109
115	0xbf2c11f7	-0.6721491
116	0xbe01c23f	-0.12671755
117	0xbf0d4381	-0.5518113
118	0xbe4b5724	-0.1985746
119	0xbecf9ee8	-0.40550923
120	0xbddb0c2b	-0.1069568
121	0xbe93c4d8	-0.28861117
122	0xbd9386e7	-0.07203465
123	0xbf2eec89	-0.68329674
124	0xbc7619cb	-0.015020798
125	0xbd68ed41	-0.056866888
126	0xbda52814	-0.08064285
127	0xbf6357e8	-0.8880601

bn_outlayer_in.running_mean f4 [128]
0	0xbc43e85c	-0.011957254
1	0x3b8816a7	0.004153091
2	0xbe6a69b8	-0.22891891
3	0x3d54a8b0	0.051918685
4	0xbe0479e9	-0.1293713
5	0xbdf65969	-0.120287724
6	0xbe81d9c2	-0.2536145
7	0xbe66ede0	-0.2255168
8	0xbe0f0ceb	-0.13969772
9	0xbcd57918	-0.026058719
10	0xbeac4c5a	-0.33652002
11	0xaf435780	-1.7766233e-10
12	0x3be1d053	0.0068912893
13	0x3ce0bdd5	0.027434269
14	0xbe00f252	-0.12592438
15	0xbd0a1768	-0.03371373
16	0xbe19fadb	-0.150371
17	0xba38e146	-0.00070526113
18	0xbc9af3e4	-0.018915124
19	0xbdfdf22d	-0.12399707
20	0xbbb7cf3c	-0.005609421
21	0xbe93c192	-0.2885862
22	0xbc1fd38f	-0.009755029
23	0xbcd91f25	-0.026504109
24	0xbc9b83be	-0.018983718
25	0xbe4d42a6	-0.20044956
26	0x00000004	6e-45
27	0xbc00eb72	-0.007868635
28	0x3dc8f024	0.09811428
29	0x3d4db0a5	0.05021729
30	0xbe134eeb	-0.14385574
31	0xb952d2c7	-0.00020105681
32	0xbc980ebf	-0.018561719
33	0xbea022de	-0.31276602
34	0xbe94c612	-0.29057366
35	0xbd16d404	-0.036823288
36	0xbd069e52	-0.03286583
37	0xbe13b40a	-0.14424148
38	0xbe0a2aca	-0.13492885
39	0xbe537d33	-0.20653228
40	0xbe8b8a22	-0.27253824
41	0xba884699	-0.0010397016
42	0xbe5defab	-0.21673457
43	0x2d3cf053	1.07399254e-11
44	0xbe2cacb8	-0.16862762
45	0xbc405966	-0.011740064
46	0xbe1f3dee	-0.15550968
47	0xbe5990f2	-0.21246698
48	0x3daef0f5	0.08542053
49	0xbe517634	-0.20455247
50	0xbe380580	-0.17970848
51	0xbeae049e	-0.33987898
52	0xbe6bc674	-0.23024923
53	0xbe791188	-0.24323094
54	0xbc1dfa38	-0.009642176
55	0xbbc6ae3d	-0.0060632513
56	0xbc7088a2	-0.014681013
57	0xb9142b95	-0.00014130615
58	0xbc98e6de	-0.018664774
59	0xbe378672	-0.1792238
60	0xbab00f54	-0.0013432303
61	0xbe388311	-0.18018748
62	0x3c289531	0.010289476
63	0xb9fd4461	-0.00048306867
64	0xb9bf605b	-0.0003650215
65	0xbc6e3495	-0.014538904
66	0xbe4b9fa6	-0.1988512
67	0xbe50ee42	-0.20403388
68	0xbe880b07	-0.26570913
69	0xbd4028d3	-0.046913933
70	0xbb2cbda6	-0.0026358156
71	0xbe6e3fc7	-0.23266517
72	0xbd28dc46	-0.041225694
73	0xbdeb3bc6	-0.1148601
74	0xbe9a60d0	-0.30151987
75	0xbe1da633	-0.15395431
76	0x3d9c3b89	0.07628543
77	0xbe4fe8b5	-0.20303614
78	0xbe0f5a46	-0.1399928
79	0xba60d83c	-0.00085771433
80	0x3b648d28	0.0034874175
81	0xbe484cb6	-0.19560513
82	0xbe0c2ebb	-0.13689701
83	0xbd6e6f94	-0.058211878
84	0xbb8b7a8f	-0.0042565535
85	0xbb0f1a3c	-0.0021835705
86	0x00000004	6e-45
87	0xbe5cfddd	-0.21581216
88	0xbc5f8de0	-0.0136446655
89	0xbc010d43	-0.007876697
90	0xbe1cd88c	-0.15316981
91	0xbcb9e41d	-0.02269178
92	0xbea28b43	-0.31746873
93	0xbbbd111c	-0.005769862
94	0xbc666c57	-0.014063916
95	0xbe7a8764	-0.2446571
96	0xbe5dd481	-0.21663095
97	0xbcfe9da6	-0.031081032
98	0xbddea754	-0.10871759
99	0xba16a205	-0.00057461887
100	0xbe0f3043	-0.13983254
101	0x3e02e674	0.12783223
102	0x3a307ea3	0.00067327375
103	0xbe33dd13	-0.17564802
104	0xbe330c7f	-0.17485236
105	0x3cafa69d	0.021441752
106	0xbe298783	-0.165556
107	0xbd23397c	-0.039849743
108	0xbbd7c15f	-0.006584331
109	0xbad5ff03	-0.001632661
110	0xbd9e030e	-0.077154264
111	0x39dbfcf8	0.00041959411
112	0xbd035f2c	-0.032073185
113	0x998b29b9	-1.4389115e-23
114	0xbee76c7a	-0.4519995
115	0xbd4c5eb6	-0.04989501
116	0xbe1622ea	-0.14661756
117	0xbc20f1ac	-0.009823244
118	0xbe17530e	-0.14777777
119	0x3cdac3b9	0.026704656
120	0xbe20a134	-0.15686494
121	0xbe22dec6	-0.15905294
122	0xbdaa7b01	-0.083242424
123	0xbe60290c	-0.21890658
124	0xbd8af76c	-0.06785473
125	0xbe4cc7c1	-0.19998075
126	0xbe0e14d1	-0.13875128
127	0x3df5875d	0.11988709

bn_outlayer_in.running_var f4 [128]
0	0x3d0013ec	0.031269
1	0x3d1c8ccf	0.038220223
2	0x3e93a5a4	0.2883731
3	0x3d163b91	0.0366779
4	0x3db7314c	0.089449495
5	0x3e63a3cf	0.22230457
6	0x3d8b9133	0.06814804
7	0x3f1c4fae	0.6105908
8	0x3e669ce3	0.22520785
9	0x3d705773	0.058677148
10	0x3dcdae21	0.10042978
11	0x2d8369c6	1.4939949e-11
12	0x3d295862	0.041344054
13	0x3d9d770d	0.07688723
14	0x3e0f18f8	0.13974369
15	0x3d33996e	0.043847494
16	0x3e3a94b7	0.18220793
17	0x371a4207	9.1944885e-06
18	0x3d3ddda8	0.046353966
19	0x3e12f308	0.14350522
20	0x3d014415	0.03155907
21	0x3c9779e8	0.018490747
22	0x3b889a43	0.00416878
23	0x3c1f60f9	0.00972771
24	0x3dded5c8	0.10880619
25	0x3eef2e2c	0.46714914
26	0x00000004	6e-45
27	0x3c3636c3	0.011121455
28	0x3d97b80a	0.074081495
29	0x3d7c4c36	0.061596118
30	0x3dd94d39	0.10610432
31	0x3c02a5a9	0.007974067
32	0x3c9e2256	0.019303482
33	0x3d7bb435	0.061451156
34	0x3d69b632	0.05705852
35	0x3d61cd15	0.055127222
36	0x3d3c5f11	0.0459891
37	0x3e57a23e	0.21057984
38	0x3e1e508f	0.15460418
39	0x3eb374eb	0.3505014
40	0x3ce83423	0.028345173
41	0x3888ef32	6.529539e-05
42	0x3d80981b	0.06279012
43	0x28b97bfe	2.0592899e-14
44	0x3e9d0ced	0.30673924
45	0x3bbc4a60	0.005746171
46	0x3e7f73fc	0.24946588
47	0x3edd1fa6	0.43188208
48	0x3d18acb6	0.037274085
49	0x3d87594a	0.066088274
50	0x3f0eddb5	0.5580705
51	0x3df9eb08	0.12203032
52	0x3c7d5215	0.015461464
53	0x3d787853	0.060661625
54	0x3ad8ad7f	0.0016531198
55	0x3c3c9280	0.011509538
56	0x3b948ce7	0.0045333984
57	0x375509a9	1.26980385e-05
58	0x3df0b3d3	0.11753049
59	0x3f0facfd	0.56123334
60	0x3daf4d8f	0.08559715
61	0x3d154e22	0.036451466
62	0x3c99c4f2	0.018770669
63	0x3c68c9b0	0.014208242
64	0x36bb41a9	5.580678e-06
65	0x3b32ed6b	0.0027302157
66	0x3d03b354	0.032153443
67	0x3e45f2ea	0.19330946
68	0x3f31bc30	0.69427776
69	0x3d288db7	0.041150775
70	0x3a7f1b57	0.0009731552
71	0x3f0cd9c2	0.5501977
72	0x3d08e4ca	0.033421315
73	0x3cb90bc9	0.022588627
74	0x3ef4781d	0.4774789
75	0x3d0058cb	0.03133468
76	0x3de85f84	0.11346343
77	0x3f12c9d7	0.57339233
78	0x3d1fe62a	0.03903786
79	0x3957aafc	0.00020567694
80	0x3de25a74	0.11052409
81	0x3d25e6f7	0.04050347
82	0x3d8aa15f	0.0676906
83	0x3d5ffabd	0.054682482
84	0x3a8d39e0	0.0010774694
85	0x37861643	1.5984411e-05
86	0x00000004	6e-45
87	0x3d3c148d	0.045918036
88	0x3abeff60	0.0014571957
89	0x3d152c26	0.036419056
90	0x3cebf837	0.028804881
91	0x3c7163c5	0.01473326
92	0x3d904716	0.070448086
93	0x3bc899ca	0.0061218487
94	0x3c48a2ce	0.012245847
95	0x3d50a98e	0.05094295
96	0x3d29e763	0.041480433
97	0x3cb4709c	0.022026353
98	0x3dc5c2d1	0.09656299
99	0x37a3b857	1.9516954e-05
100	0x3e18e8f6	0.14932618
101	0x3d0f2fbc	0.034957632
102	0x3ab93bdf	0.0014132223
103	0x3e3bc237	0.18335806
104	0x3e8338cb	0.25629267
105	0x3d81994b	0.063280664
106	0x3e69f97e	0.2284908
107	0x3db23a67	0.087025456
108	0x3a943ff6	0.0011310566
109	0x3bd5e288	0.006527249
110	0x3dcde7e6	0.10053997
111	0x3975b46b	0.00023432232
112	0x3d4928b2	0.049111076
113	0x1c492a78	6.656021e-22
114	0x402ab630	2.6673698
115	0x3d5c9574	0.053853467
116	0x3df6d8d3	0.12053075
117	0x3c5e46f1	0.013566718
118	0x3e4291d3	0.1900094
119	0x3dfe1f04	0.124082595
120	0x3e1b0d7b	0.15141861
121	0x3dac4371	0.08411301
122	0x3dde7903	0.10862925
123	0x3cad5ca2	0.021162335
124	0x3e19f845	0.15036114
125	0x3ee04b84	0.43807614
126	0x3e101ee6	0.14074287
127	0x3dc36cb0	0.09542215

gnn_layers.0.gnn.att_i f4 [1, 1, 128]
0	0xbe2fe13a	-0.17175761
1	0xbd89ffd6	-0.0673825
2	0x3d27114a	0.040787973
3	0xbe21f7c5	-0.15817173
4	0xbd7d11f1	-0.06178469
5	0x3dbe9659	0.0930602
6	0xbc1dde49	-0.009635516
7	0x3c78b02e	0.015178723
8	0x3d0c649a	0.03427563
9	0x3bac6bf7	0.005261894
10	0x3dedfa63	0.11620023
11	0x3c7800c9	0.015136906
12	0xbda3a0f2	-0.07989682
13	0x3da9a626	0.082836434
14	0x3ddf8d5e	0.109156355
15	0xbba411e2	-0.0050070146
16	0x3d433b18	0.047663778
17	0xbd26d563	-0.040730845
18	0xbe708f02	-0.23492053
19	0x3cfa7ebf	0.030578015
20	0x3df57976	0.119860575
21	0x3d341e81	0.043974403
22	0xbeb639c5	-0.3559095
23	0x3d60967e	0.05483102
24	0x3b3f7fde	0.0029220502
25	0x3dfe9a21	0.124317415
26	0xbdae0a30	-0.08498037
27	0xbecc0fe7	-0.39855883
28	0x3cf90b70	0.030400962
29	0x3f5f3dd8	0.8720374
30	0x3e3bd1e7	0.1834179
31	0xbf5bae02	-0.8581239
32	0xbd819280	-0.06326771
33	0x3d739586	0.05946877
34	0x3dac3c93	0.08409991
35	0x3d37602d	0.044769455
36	0x3e059d67	0.13048325
37	0xbd8fbc35	-0.070183195
38	0x3d9be428	0.07611877
39	0x3d82a877	0.06379788
40	0xbd48f7b3	-0.04906435
41	0xbe87e610	-0.2654271
42	0xbe84c610	-0.2593236
43	0x3cfb1f06	0.030654442
44	0x3cfcd444	0.030862935
45	0x3e991aa4	0.29903138
46	0x3d91bedd	0.071164824
47	0x3d7e280a	0.062049903
48	0xbe0524b6	-0.13002285
49	0xbd9c79e8	-0.07640439
50	0x3e2a12fb	0.16608803
51	0x3e5bdb17	0.21470295
52	0x3e2adf0c	0.16686648
53	0xbd0cd970	-0.034387052
54	0xbf1873a0	-0.5955143
55	0x3e6ca083	0.23108105
56	0xbf2b9efd	-0.6703947
57	0x3e5a0242	0.21289924
58	0xbc00d15f	-0.007862418
59	0x3e1c49c3	0.15262513
60	0xbd178c80	-0.036999226
61	0xbe247f1a	-0.1606411
62	0xbeabb08d	-0.33533135
63	0x3f1180ce	0.56837165
64	0xbeb04c0f	-0.34433028
65	0xbf197761	-0.5994778
66	0xbd867eaa	-0.06567128
67	0x3d7ca84e	0.061683945
68	0x3db97f56	0.090574905
69	0xbd2d28cc	-0.042275235
70	0x3ec47a13	0.38374385
71	0x3d2f1eae	0.042753868
72	0x3e326aec	0.174236
73	0xbea452a3	-0.32094297
74	0x3ec22574	0.379192
75	0xbecd7db7	-0.40134975
76	0xbdc6046c	-0.09668812
77	0x3e0312a0	0.12800074
78	0x3dd6151d	0.10453246
79	0xbe690060	-0.2275405
80	0x3eac6a99	0.33675078
81	0x3e21f524	0.1581617
82	0xbcdbef3e	-0.026847478
83	0x3e04f8f6	0.12985596
84	0xbd2819d1	-0.041040245
85	0xbf048322	-0.5176259
86	0x3adedd35	0.0017003181
87	0xbca591fe	-0.020211216
88	0x3ed6c76e	0.41949028
89	0xbec433f7	-0.38320896
90	0xbeb7dfb0	-0.35912848
91	0x3e47db45	0.19517238
92	0xbe5d4205	-0.21607216
93	0xbd8c9f2d	-0.06866298
94	0x3dcafdd8	0.09911698
95	0xbc242156	-0.0100177135
96	0x3dd1509c	0.10220453
97	0x3de4538e	0.11148749
98	0x3dd45d61	0.10369373
99	0xbedf88f2	-0.43659168
100	0x3ddaeaa5	0.10689286
101	0x3f205f6e	0.62645614
102	0xbec58e04	-0.38584912
103	0x3f21a3a8	0.63140345
104	0x3d47cb8a	0.048778094
105	0x3ca5bf49	0.020232813
106	0x3d252a53	0.040323567
107	0xbc8f2c7c	-0.017477266
108	0x3b04a5ba	0.0020240382
109	0xbe369a55	-0.1783231
110	0x3f03a644	0.51425576
111	0xbed6f97d	-0.4198722
112	0xbd9cc3db	-0.07654544
113	0x3cddad0c	0.027060054
114	0x3df4bea4	0.11950424
115	0x3c6e077b	0.014528151
116	0x3d68ff41	0.056884054
117	0xbe4acf74	-0.198057
118	0x3d1abc98	0.037777513
119	0xbae2e971	-0.0017312003
120	0x3cdac18b	0.026703617
121	0xbf0d382b	-0.5516383
122	0x3d4a1065	0.04933204
123	0x3d82f5eb	0.063945614
124	0xbc19e100	-0.009392023
125	0x3f20d78d	0.62828904
126	0x3d9cf69f	0.07664227
127	0xbe6cc9b1	-0.23123814

gnn_layers.0.gnn.att_j f4 [1, 1, 128]
0	0x3e57b08f	0.21063446
1	0x3ea69c74	0.3254124
2	0x3abe7de2	0.0014533366
3	0x3e58be1d	0.21166272
4	0x3c1a6433	0.009423303
5	0xbd876514	-0.06611076
6	0x3a77ab87	0.0009447862
7	0x3da57001	0.08078004
8	0x3c32120a	0.010868559
9	0xbd33c511	-0.04388911
10	0x3e8f55e6	0.27995223
11	0xba86921f	-0.0010266936
12	0x39660c80	0.00021939166
13	0xbcaaab08	-0.020833507
14	0xbc31846f	-0.010834797
15	0x3c23d9d1	0.010000662
16	0x3aff214f	0.0019464883
17	0xbb3faeac	-0.00292484
18	0x3e9236c8	0.2855742
19	0x3bc9afc2	0.006154985
20	0x3caf3bd7	0.021390839
21	0x3d7e8fa0	0.06214869
22	0x3d069f2b	0.03286664
23	0xbd0bc9d1	-0.034128014
24	0xbc903bad	-0.01760658
25	0x3ae43065	0.0017409442
26	0xbba332f7	-0.0049804407
27	0xbd5ebd21	-0.054379586
28	0xbb4f563e	-0.0031637098
29	0x3e5dc762	0.2165809
30	0xbe03a105	-0.12854393
31	0xbf0697d5	-0.5257543
32	0x3de52939	0.11189503
33	0xbbfa353d	-0.007635741
34	0xbc80b857	-0.0157129
35	0xbbdef119	-0.0068036434
36	0xbcaee6fc	-0.021350376
37	0x3ba268a6	0.0049563227
38	0xbae30041	-0.0017318801
39	0xbb998b69	-0.0046858084
40	0xbd7abf53	-0.061217617
41	0x3d1f39c9	0.038873468
42	0xbb04b13e	-0.0020247246
43	0x3c5b7f56	0.0133970585
44	0x3c04421d	0.008072403
45	0x3d6acf2b	0.057326477
46	0xbbb4a797	-0.0055131423
47	0x3ba235c7	0.0049502584
48	0x3c035a78	0.008017175
49	0xbb9e4d15	-0.0048309662
50	0x3db931c1	0.09042693
51	0xbcf63c28	-0.030057982
52	0xbddf9a63	-0.10918119
53	0xbbc4530f	-0.0059913467
54	0x3c9bd153	0.019020712
55	0xbe4fc1be	-0.2028875
56	0xbe410743	-0.18850426
57	0x3db174fe	0.086648926
58	0xbcc80724	-0.024417467
59	0xbd195a58	-0.037439674
60	0x3d975a83	0.073903106
61	0xbe9a9ebe	-0.30199236
62	0xbe254683	-0.1614018
63	0xbee3571f	-0.44402406
64	0xbd2f3ff2	-0.042785592
65	0xbd663889	-0.05620626
66	0xbd46ab05	-0.04850294
67	0xbc5b7b64	-0.013396118
68	0x3d95f5d7	0.07322281
69	0x3c7afacf	0.0153185865
70	0x3cc64c6f	0.024206368
71	0x3c06299e	0.008188633
72	0xbd2b5541	-0.04182935
73	0xbd158560	-0.03650415
74	0x3c1bca2c	0.009508651
75	0xbd3b0956	-0.0456632
76	0xbc5dd03f	-0.013538419
77	0xbca72827	-0.020404888
78	0xbbac5e52	-0.0052602673
79	0xbd84bd91	-0.064814694
80	0xbd813c26	-0.063103005
81	0xbd177b92	-0.03698308
82	0x3b94bdcd	0.0045392276
83	0xbd2958f0	-0.041344583
84	0xbe296984	-0.16544157
85	0xbd891ee5	-0.06695346
86	0x3b08b2ae	0.0020858455
87	0x3c457d7c	0.012053844
88	0xbde75702	-0.11295892
89	0xbca80cdf	-0.02051395
90	0xbe9bea81	-0.3045235
91	0xbce92974	-0.02846215
92	0x3d93113f	0.07181024
93	0xbd005a53	-0.03133614
94	0x3ba6a195	0.00508518
95	0xbc307ffe	-0.010772703
96	0xbc866d5d	-0.01640957
97	0x3c4db2b0	0.012554809
98	0xbbd749a8	-0.00657006
99	0xbe0b23be	-0.13587853
100	0xbd17851c	-0.036992177
101	0x3e1e311e	0.15448424
102	0xbbe1ef72	-0.006894999
103	0x3e1e07d5	0.15432675
104	0xbac7712d	-0.0015216224
105	0xbdaa6274	-0.0831956
106	0xbb9cbd9a	-0.0047833445
107	0x3b068dfc	0.0020531407
108	0xbc14ebfd	-0.009089467
109	0x3e468e2b	0.1939017
110	0x3e1a24d2	0.15053108
111	0x3c050391	0.008118526
112	0x3c1965e8	0.009362675
113	0xbc0b6e40	-0.008510172
114	0x3d1aa282	0.037752636
115	0xbdc03562	-0.09385182
116	0xb8fddb28	-0.00012104801
117	0xbe5a1168	-0.21295702
118	0x3a0652a4	0.0005124009
119	0x3b31c466	0.002712512
120	0xbca158c3	-0.019695645
121	0xbda40959	-0.080095954
122	0x3c56999d	0.013098148
123	0xbb8281aa	-0.0039827423
124	0xb90703b3	-0.00012875981
125	0x3e15364e	0.14571497
126	0xbd3b02d9	-0.045657013
127	0xbd98d38b	-0.074622236

gnn_layers.0.gnn.att_em_i f4 [1, 1, 128]
0	0xbe11053f	-0.14162157
1	0xbeb59af4	-0.35469782
2	0x3e07ea91	0.13273074
3	0xbe97d805	-0.29656997
4	0x3c0bf2b5	0.008541753
5	0x3f1c2930	0.6100035
6	0xbe7099ab	-0.2349612
7	0x3e816c36	0.2527787
8	0x3d2c12da	0.042010166
9	0x3e2a2cc3	0.16618638
10	0x3e62ce8f	0.22149108
11	0x3f00e778	0.50353193
12	0x3f142108	0.578629
13	0xbeed1c10	-0.46310472
14	0x3e146043	0.14489846
15	0xbe354895	-0.17703469
16	0x3c9fd6a2	0.019511525
17	0x3e861d35	0.26194158
18	0x3d02e453	0.03195603
19	0x3e914fbd	0.28381148
20	0xbcca6d11	-0.02471021
21	0x3f136b0f	0.57585233
22	0x3e82b2b9	0.2552698
23	0x3e32b433	0.17451553
24	0x3e5feafb	0.21866982
25	0x3dd70a7f	0.10500049
26	0x3f017001	0.5056153
27	0x3d993407	0.074806266
28	0xbf2de305	-0.6792453
29	0xbefc17e1	-0.49236968
30	0x3ec1656d	0.37772694
31	0xbee686c3	-0.4502469
32	0xbe0d9b80	-0.1382885
33	0x3e1b201d	0.15148969
34	0x3e90bfbd	0.28271285
35	0xbe1971a0	-0.14984751
36	0xbe306a45	-0.17228039
37	0x3e63215a	0.22180691
38	0xbce6f531	-0.028193088
39	0x3da0100d	0.078155614
40	0x3ecb9e98	0.39769435
41	0x3f19fa05	0.60147125
42	0x3e44c711	0.19216563
43	0x3c405e10	0.011741176
44	0x3c26a945	0.010172193
45	0x3c3add82	0.011405351
46	0x3f48b7e0	0.7840557
47	0x3ebed5e0	0.3727255
48	0xbeaa2df0	-0.33238173
49	0x3eaaff69	0.33397987
50	0x3d7752c8	0.06038168
51	0x3e5b601a	0.21423379
52	0x3e80030c	0.25002325
53	0x3edde979	0.43342188
54	0x3d0fbe09	0.03509334
55	0xbbf753a3	-0.007547812
56	0x3c613819	0.013746285
57	0x3eeb8efc	0.46007526
58	0xbe9e4b7d	-0.30916968
59	0x3c06a047	0.008216924
60	0xbe3f9e0a	-0.18712631
61	0xbf0708a2	-0.5274755
62	0x3d53f4cf	0.05174714
63	0xbecf2c5e	-0.40463537
64	0x3e4905c2	0.19631103
65	0xbba34eb7	-0.004983749
66	0x3de5a05a	0.11212225
67	0x3e2fb0b1	0.17157246
68	0x3ca0f6e5	0.019648978
69	0x3d65d3a1	0.05611003
70	0x3dbf005f	0.09326243
71	0x3e8146b2	0.2524925
72	0x3c31c3e7	0.010849929
73	0xbf5de876	-0.8668283
74	0x3f1b4edc	0.60667205
75	0xbdc0bbf9	-0.09410853
76	0x3d8c2810	0.06843579
77	0x3ddb2557	0.107004814
78	0x3d08c5f6	0.033391915
79	0x3bc59d08	0.0060306825
80	0xbf009fa9	-0.5024362
81	0x3d9f139c	0.07767412
82	0x3eb709e3	0.3574973
83	0x3d33da08	0.043909103
84	0x3e26dc8b	0.16295068
85	0x3e463ae0	0.19358397
86	0xbe371de6	-0.17882499
87	0xbe3bc820	-0.1833806
88	0x3a68f5ca	0.0008886723
89	0x3ef3665b	0.4753903
90	0x3de86100	0.11346626
91	0x3e456508	0.19276822
92	0x3f322aa4	0.69596314
93	0xbe2733c1	-0.16328336
94	0x3f253d84	0.6454699
95	0x3e053e12	0.13011959
96	0x3e8ca321	0.27468207
97	0x3c75130f	0.014958157
98	0x3e9ed7ca	0.3102401
99	0x3f3550df	0.70826524
100	0x3eb3ab77	0.35091755
101	0xbe846ce3	-0.25864324
102	0x3c4780bd	0.01217669
103	0x3ec72fe3	0.38903722
104	0xbdc8b44b	-0.09800013
105	0xbdda5576	-0.10660832
106	0x3e4989b7	0.1968144
107	0x3e30ff9a	0.17285004
108	0xbe8803b6	-0.2656533
109	0x3ecb3501	0.39688876
110	0x3e079bc9	0.13243021
111	0xbdb658cb	-0.08903655
112	0xbeb706ee	-0.35747474
113	0xbda2989c	-0.07939264
114	0xbdb85130	-0.0899986
115	0x3ee9f3de	0.45693868
116	0x3e7c7032	0.24652174
117	0x3de5a6f9	0.11213488
118	0x3e23a83f	0.1598215
119	0x3f4cca90	0.79996586
120	0x3e13a941	0.14420034
121	0xbece7ae8	-0.40328145
122	0x3ec80d66	0.39072722
123	0x3e3470d4	0.17621166
124	0x3da54bad	0.08071075
125	0x3e9d2715	0.3069388
126	0x3ee51538	0.4474275
127	0xbe40b595	-0.18819268

gnn_layers.0.gnn.att_em_j f4 [1, 1, 128]
0	0x3e900cd1	0.28134778
1	0xbe826871	-0.25470307
2	0x3b3cd694	0.0028814422
3	0xbdae829c	-0.085210055
4	0x3c7476d0	0.014920905
5	0x3d245984	0.04012443
6	0xbb3922b6	-0.002824945
7	0x3f2c01aa	0.6719004
8	0x3ec5b100	0.38611603
9	0xbaebd72e	-0.0017993206
10	0x3fc1dfcf	1.5146426
11	0x3f7b2b20	0.9811268
12	0xbde7aea7	-0.11312609
13	0xbf00cc47	-0.503117
14	0x3e82a9ed	0.25520268
15	0x3cb069c7	0.021534814
16	0x3d8aefc8	0.06784016
17	0x3b975a80	0.0046189427
18	0xbc823126	-0.015892576
19	0x3e03c233	0.1286705
20	0xbbbf3526	-0.005835193
21	0x3d0a658f	0.03378826
22	0x3eef5247	0.4674246
23	0x3d0bed89	0.034162078
24	0x3b910b9f	0.004426434
25	0xbc952f05	-0.018210897
26	0xbc85b8b1	-0.01632342
27	0xbbceddaf	-0.006313048
28	0xbe5ad793	-0.21371298
29	0x3c3197e3	0.010839435
30	0x3c84ddd1	0.016219052
31	0xbc8e97ee	-0.01740643
32	0x3cd8bdd8	0.026457712
33	0xbcc988b9	-0.024601327
34	0x3dc6dbbc	0.0970988
35	0xbc1c3823	-0.009534868
36	0x3bd4ef36	0.0064982427
37	0x3e9927ec	0.2991327
38	0x3e1c051a	0.15236321
39	0x3f3a9918	0.7288985
40	0x3ca14e50	0.019690663
41	0x3bd34232	0.0064471
42	0x3f7c395a	0.9852501
43	0x3b263914	0.002536361
44	0xbc571317	-0.01312711
45	0x3a54e193	0.00081207714
46	0x3dc6d702	0.09708978
47	0x3d5cd107	0.05391028
48	0xbb587c9a	-0.0033033253
49	0xbc62038a	-0.013794789
50	0x3ac299a2	0.0014846812
51	0xbc9b3f55	-0.018951098
52	0x3cc0edb3	0.023550844
53	0x3e8a620b	0.27027926
54	0xbb9d30ed	-0.004797092
55	0x3e2761de	0.16345927
56	0xbb193a01	-0.002338052
57	0x3fad3047	1.3530358
58	0x3b27186e	0.002549674
59	0x3dd1185d	0.10209725
60	0x3ce6065e	0.028079208
61	0xbd8eee6e	-0.069790706
62	0xbcc0fdbc	-0.02355849
63	0xbe8481f9	-0.2588041
64	0x3e06db38	0.13169563
65	0x3bc89188	0.0061208643
66	0x3e96994e	0.29413837
67	0x3d9d49c2	0.07680084
68	0x3e0f7443	0.14009194
69	0x3b8639b2	0.0040962333
70	0x3b49d370	0.0030796193
71	0x3d0f31bd	0.034959543
72	0x3c8f2197	0.017472072
73	0x3e840eed	0.25792637
74	0x3f8032db	1.001552
75	0x3e06849a	0.13136521
76	0xbff1402c	-1.8847709
77	0x3ca64ae4	0.020299383
78	0x3e087d1c	0.13328975
79	0xbb6aeb7f	-0.0035845933
80	0xbebd8337	-0.3701417
81	0x3b8cb87d	0.0042944537
82	0x3d592a92	0.053019114
83	0x3ca1c925	0.019749233
84	0xbc2fad28	-0.010722436
85	0x3ccf3beb	0.025297126
86	0x3f180f90	0.59398746
87	0xbc6ef063	-0.01458368
88	0x36e97d96	6.9585612e-06
89	0xbe47132e	-0.1944091
90	0x3e110129	0.14160599
91	0x3a566a54	0.0008179296
92	0x3d5ceebf	0.053938624
93	0x3cceda6e	0.02525064
94	0x3bb5b114	0.005544791
95	0x3c9bec6a	0.01903363
96	0x3cede4fb	0.02903985
97	0x3c0fb546	0.008771246
98	0xbddcd6a2	-0.107831255
99	0x3f9a51d8	1.2056227
100	0x3e826aaa	0.25472003
101	0x3e4a9229	0.19782318
102	0xbbefdf97	-0.007320355
103	0x3d2874a9	0.04112688
104	0xbd3eb1a6	-0.046556138
105	0x3d9e4f74	0.07729998
106	0x3eef08f6	0.46686524
107	0x3be80753	0.0070809512
108	0xbad4427e	-0.0016194133
109	0x3b735631	0.0037130232
110	0xbbbacb4d	-0.005700505
111	0xbd13de5c	-0.03610073
112	0xbba7b1d4	-0.0051176343
113	0x3f32c74a	0.6983534
114	0x3da1b161	0.078951605
115	0x3cf34367	0.029695226
116	0x3e012a1c	0.1261372
117	0x3eaa8ee8	0.33312154
118	0x3dc5262f	0.096264236
119	0xbf03f923	-0.5155203
120	0x3e23e623	0.16005759
121	0x3f54682d	0.8297146
122	0x3e7f775f	0.2494788
123	0x3d2c1094	0.042007998
124	0x3a127fb6	0.00055884884
125	0x3e211c59	0.1573347
126	0x3dbb89d3	0.09157147
127	0xbe0cb1e0	-0.13739729

gnn_layers.0.gnn.bias f4 [128]
0	0xbb853a84	-0.0040658135
1	0xbb24b71c	-0.0025133556
2	0x3cd7d118	0.02634482
3	0x3a5add04	0.0008348974
4	0x3ac87516	0.0015293683
5	0xbac0ccea	-0.0014709507
6	0x3ba73377	0.0051025706
7	0x39a4b9f2	0.00031419058
8	0x3ba3bf5a	0.004997176
9	0x3b214617	0.0024608427
10	0xbc9aaba5	-0.018880675
11	0x3bfe4321	0.0077594672
12	0x3a3e53d9	0.0007260419
13	0xbc24a1a3	-0.010048303
14	0x3a78420c	0.0009470291
15	0x3bdbefb1	0.006711923
16	0x3c2311f1	0.009953008
17	0x3cd68c42	0.026189927
18	0xba96e051	-0.0011510943
19	0x3bb1a84b	0.0054216734
20	0x3da9736d	0.08273969
21	0x3aeb822b	0.001796787
22	0xbc4f7148	-0.012661286
23	0xbbcf5cee	-0.0063282168
24	0xb9ef09df	-0.00045592987
25	0xbbab9386	-0.005236092
26	0x3bd11541	0.0063807075
27	0xbd55e15e	-0.05221688
28	0xbce68dee	-0.02814385
29	0x3a1b6341	0.0005927571
30	0xbbc228c0	-0.005925268
31	0xbbc9d44f	-0.0061593424
32	0x3c31bd2d	0.010848326
33	0x3c2fc660	0.010728449
34	0x3c396402	0.011315348
35	0xbcb216f1	-0.021739455
36	0xbc9eafd7	-0.019370956
37	0x39709a9e	0.00022945783
38	0x3c3a350e	0.011365188
39	0xbb66749d	-0.0035164722
40	0xbb93ca93	-0.0045102327
41	0x3c113d64	0.008864734
42	0xbc08b72a	-0.008344451
43	0xbb5b4ad4	-0.003346135
44	0x3b20fca2	0.0024564643
45	0x380a03db	3.2905355e-05
46	0xb9a9b5bc	-0.00032369595
47	0xba75c8c0	-0.00093759224
48	0x3a3900e2	0.00070573215
49	0xbbc7cb7e	-0.006097256
50	0xba82b6f4	-0.0009972737
51	0x3bb39a66	0.005481052
52	0x39c1141f	0.0003682682
53	0xbc1358d8	-0.00899335
54	0x3af83303	0.0018936101
55	0xbc99f638	-0.018794164
56	0xbac44732	-0.0014974831
57	0xbd0baa0d	-0.03409772
58	0x3bd0894e	0.0063640242
59	0x3c1c2a1f	0.009531527
60	0xbb1b965a	-0.002374074
61	0xbbdf153e	-0.006807952
62	0xbaeed529	-0.0018221486
63	0xbc4aa242	-0.012367787
64	0x3d30c5e3	0.04315747
65	0xb7de43fb	-2.6496118e-05
66	0xbbf8a6b5	-0.0075882324
67	0x3c098841	0.008394302
68	0xbb57b97c	-0.0032916954
69	0x3bb16f06	0.0054148464
70	0x3b0fcc81	0.0021941962
71	0xbb2ebd7b	-0.0026663232
72	0xba603167	-0.00085522834
73	0xbb8a3e57	-0.0042188573
74	0x3af66dbf	0.0018801017
75	0xbbcaca0e	-0.0061886376
76	0xbc0582cb	-0.008148859
77	0xbae5453a	-0.0017491945
78	0x3cf9c4c9	0.030489342
79	0x3c0a86e9	0.008455017
80	0xbc1717ce	-0.009221984
81	0xbb8f996d	-0.0043823035
82	0xba63b6de	-0.0008686612
83	0xba234727	-0.0006228559
84	0x3d3f0616	0.046636663
85	0x3ce6a667	0.028155519
86	0x3c21e178	0.009880416
87	0xbbe21f2c	-0.0069006886
88	0xbd17ba3e	-0.03704285
89	0x3c574190	0.01313819
90	0xbd04b0f0	-0.032395303
91	0xbba9aa6f	-0.005177788
92	0xbcf4fbf4	-0.029905297
93	0xbb73b980	-0.0037189424
94	0x3b275d96	0.002553796
95	0xbb7ad5f0	-0.003827449
96	0xbbb11f57	-0.0054053473
97	0xbb5b4036	-0.003345502
98	0xba213fe1	-0.00061511813
99	0x3d3cd920	0.046105504
100	0xbafff70a	-0.001952858
101	0xbc33cf63	-0.010974738
102	0x3a59bf08	0.0008306359
103	0x3910144b	0.0001374047
104	0x3ab09866	0.0013473153
105	0x3b9a388e	0.004706449
106	0x3a0542bf	0.00050834933
107	0x3b43efed	0.0029897646
108	0xbcbe776c	-0.023250304
109	0xbccb419a	-0.024811555
110	0x392ab48b	0.00016279721
111	0x3b60cf95	0.0034303416
112	0xbc318709	-0.010835418
113	0xbb4bea04	-0.0031114826
114	0x3ac8aeb0	0.001531085
115	0x3b2780f8	0.002555905
116	0x3adc3e8a	0.0016803306
117	0x3b217110	0.002463404
118	0x3ba1e28d	0.004940337
119	0xbba1aeae	-0.0049341535
120	0xbb8be332	-0.004269027
121	0xba8c70d8	-0.0010714782
122	0x3a93f632	0.0011288582
123	0xbc44b876	-0.01200687
124	0x3b1e5c62	0.0024163951
125	0xbb2b3a9e	-0.0026127468
126	0xbc2172d7	-0.00985404
127	0xbbe9f202	-0.0071394453

gnn_layers.0.gnn.lin.weight f4 [128, 20]
0	0xbea5a9df	-0.32356164
1	0x3df7bae4	0.120961934
2	0xbcb10a53	-0.021611368
3	0xbdbef711	-0.09324468
4	0x3f026ff8	0.509521
5	0xbf0e2b4f	-0.55534834
6	0xbdc7b375	-0.097510256
7	0x3dda3441	0.10654498
8	0x3ebbf7b3	0.36712417
9	0xbee421c3	-0.44557008
10	0x3e7f1540	0.2491045
11	0xbd504d1e	-0.050854795
12	0x3d2ea13c	0.042634234
13	0x3e5bd8ad	0.21469374
14	0xbf30e645	-0.69101363
15	0x3f049512	0.51789963
16	0x3e739d84	0.23790556
17	0xbd6f4ab7	-0.058420863
18	0xbf040e75	-0.5158456
19	0x3ef55a98	0.4792068
20	0x3e5b8274	0.21436483
21	0x3e7bf3a1	0.24604656
22	0x3d72c3c9	0.059268747
23	0xbe2c673f	-0.1683626
24	0xbd414b06	-0.04719069
25	0x3d26342c	0.0405771
26	0xbd6ea1af	-0.058259662
27	0x3f0567f1	0.52111727
28	0xbf36b185	-0.71364623
29	0xbcc5cfd9	-0.024146961
30	0x3ef735dc	0.4828328
31	0x3e5ab16e	0.21356747
32	0xbe9a7f70	-0.30175352
33	0xbdd9732c	-0.106176704
34	0x3d850c3e	0.06496476
35	0x3e3577e8	0.17721522
36	0x3cedf5f7	0.02904795
37	0xbf66a581	-0.9009629
38	0x3e983ecd	0.29735413
39	0x3cd108f0	0.025516957
40	0x3d98cc1b	0.07460805
41	0x3c06bf01	0.00822425
42	0x3d090902	0.033455856
43	0xbc13627a	-0.008995647
44	0xbc937a3c	-0.018002622
45	0xbc9e97ee	-0.019359555
46	0xbd844406	-0.06458287
47	0xbe44f8b8	-0.19235504
48	0x3dc6d51d	0.09708617
49	0x3e6d92c3	0.23200516
50	0xbd659a8e	-0.056055598
51	0x3ccb5582	0.024821047
52	0x3d65c351	0.05609447
53	0xbd2d24a8	-0.042271286
54	0x3dbb6a15	0.09151093
55	0xbd769a33	-0.06020565
56	0x3e30d8cd	0.17270203
57	0x3e7680c9	0.24072565
58	0x3e90cbe7	0.28280565
59	0xbdf05629	-0.11735184
60	0x3f50b790	0.81530094
61	0x3e464d53	0.19365434
62	0xbe510067	-0.2041031
63	0x3e8742db	0.26418194
64	0xbe6b312e	-0.2296798
65	0xbf2eb6d7	-0.6824774
66	0xbf1c26da	-0.6099678
67	0xbe1812e7	-0.1485096
68	0xbd22c85a	-0.03974185
69	0xbe5a679f	-0.21328591
70	0x3f023269	0.5085817
71	0x3e9e9f3f	0.3098087
72	0x3d6a00ab	0.057129543
73	0xbe190d93	-0.14946584
74	0xbc191953	-0.009344417
75	0xbe8d21fe	-0.27564996
76	0x3e04865a	0.12941876
77	0x3e2de1a8	0.16980612
78	0xbd86dc64	-0.06585005
79	0x3e9b3e16	0.30320805
80	0x3ed67bcf	0.41891333
81	0xbe5e622a	-0.21717134
82	0xbe217e47	-0.15770827
83	0xbdd30a87	-0.10304742
84	0x3c97aa54	0.018513836
85	0xbd932c1b	-0.07186147
86	0xbd3842ad	-0.044985462
87	0xbe977980	-0.29584885
88	0xbdb01c01	-0.08599091
89	0x3e1a1053	0.1504529
90	0x3f00a14f	0.5024614
91	0xbeb3bf2f	-0.351068
92	0x3dc0b416	0.09409349
93	0xbd37d44a	-0.04488019
94	0x3d4a8e20	0.049451947
95	0x3e8e694a	0.27814704
96	0xbd161863	-0.03664435
97	0x3d1a4434	0.0376627
98	0xbeaa3947	-0.33246824
99	0xbed22270	-0.410419
100	0xbe8ef268	-0.27919316
101	0xbe559e13	-0.20861082
102	0x3f087ee3	0.53318614
103	0xbdeb54c5	-0.11490778
104	0xbcae69fa	-0.021290768
105	0xbe2bddac	-0.1678378
106	0x3e78d43a	0.24299708
107	0x3ea585bf	0.32328603
108	0x3e830a7b	0.25593933
109	0xbf1c2053	-0.6098682
110	0xbf072e7a	-0.5280529
111	0x3f353141	0.7077828
112	0x3e4e2595	0.20131524
113	0xbe39296b	-0.18082206
114	0xbe0a38e1	-0.1349826
115	0x3ebd2ae6	0.3694679
116	0x3e900676	0.2812993
117	0x3dab31f2	0.08359136
118	0xbea38f87	-0.3194544
119	0x3d99600a	0.07489021
120	0xbd9b15f9	-0.0757255
121	0xbd388414	-0.045047835
122	0x3d8e1b67	0.0693882
123	0xbe0c5138	-0.13702857
124	0xbd454f7f	-0.048171517
125	0xbcc76505	-0.024340162
126	0xbd37982d	-0.04482286
127	0x3c8f70d2	0.017509852
128	0x3de526a5	0.111890115
129	0x3d96f0fc	0.07370183
130	0xbe3599cf	-0.17734455
131	0xbd690a0c	-0.056894347
132	0x3c7d28a1	0.015451581
133	0xbd5aa563	-0.05338038
134	0xbc7a0836	-0.015260747
135	0xbe643350	-0.22285199
136	0x3d29077f	0.041266914
137	0xbe1da407	-0.15394603
138	0xbdd27da0	-0.10277867
139	0xbd4d6ea8	-0.05015436
140	0x3edfd69b	0.43718418
141	0xbe42821d	-0.18994947
142	0xbe0287c3	-0.12747101
143	0xbd2ae5f9	-0.041723225
144	0xbdd2b5e2	-0.10288598
145	0x3ea6c3a3	0.32571134
146	0x3e3d8c69	0.18510593
147	0xbec5c578	-0.3862722
148	0xbca22219	-0.01979165
149	0x3e80cece	0.2515778
150	0x3f0e464a	0.55576
151	0xbf118a41	-0.56851584
152	0xbe96579c	-0.29363716
153	0x3dfd02e9	0.12354071
154	0x3de28a42	0.11061527
155	0x3e499db0	0.1968906
156	0xbe95b53b	-0.2923983
157	0xbe0bc51e	-0.13649413
158	0xbe7d1de7	-0.24718438
159	0x3f21c2d2	0.631879
160	0xbdce3a4e	-0.100697145
161	0x3e16b04a	0.14715686
162	0xbd90b9c1	-0.0706668
163	0xbe956cf0	-0.29184675
164	0x3e00138b	0.12507455
165	0x3dfd8a73	0.12379923
166	0x3e1052d2	0.14094093
167	0xbe83e010	-0.25756884
168	0x3dca2ae5	0.09871463
169	0x3da6ab79	0.081381746
170	0xbdfbe56c	-0.12299618
171	0x3e25486d	0.1614091
172	0xbe179cd8	-0.14805925
173	0x3eedc2f6	0.46437806
174	0xbd870128	-0.065920174
175	0xbdde486f	-0.10853659
176	0xbd906083	-0.07049658
177	0x3e980824	0.2969371
178	0xbedebf06	-0.43505114
179	0x3f24e982	0.64418805
180	0xbf1f494c	-0.6222122
181	0x3dc44f15	0.09585396
182	0x3d033f84	0.032042995
183	0x3da334e8	0.079690754
184	0x3dc1dd37	0.094660215
185	0x3d5ce1c7	0.053926256
186	0x3de305fa	0.11085124
187	0x3e43f311	0.19135691
188	0x3e720023	0.23632865
189	0x3e29d906	0.16586694
190	0xbed7899d	-0.42097178
191	0x3cd81893	0.026378905
192	0x3ec108f5	0.37702146
193	0x3b89457d	0.004189192
194	0xbd9a330d	-0.075292684
195	0x3d800ebb	0.062528096
196	0x3e8e5ad0	0.2780366
197	0xbc47cedf	-0.012195318
198	0x3e1b9301	0.15192796
199	0xbf2f66d3	-0.6851627
200	0x3ecb9db0	0.39768744
201	0xbe8cde57	-0.27513382
202	0x3d7a46eb	0.06110279
203	0xbe2f286c	-0.17105263
204	0xbd0273d2	-0.031848736
205	0x3e41d0d1	0.18927313
206	0x3e923f77	0.28564045
207	0xbe070bd7	-0.1318811
208	0xbdbf55d6	-0.09342544
209	0x3eefe346	0.46853083
210	0x3ee3fea7	0.44530222
211	0x3da9df23	0.08294513
212	0x3d292205	0.04129221
213	0xbd384714	-0.04498966
214	0x3e11711f	0.14203309
215	0x3e175cc4	0.14781481
216	0x3e8b18b2	0.2716728
217	0x3cfd08d9	0.030888008
218	0xbdc580d1	-0.096437104
219	0x3f708e39	0.93967015
220	0x3db05a5c	0.08610985
221	0x3cad5cb7	0.021162374
222	0x3d3b7941	0.045769934
223	0xbca1c3aa	-0.01974662
224	0x3dc2606f	0.094910495
225	0xbdca4834	-0.09877053
226	0xbd93cf1a	-0.07217236
227	0x3d0f3057	0.03495821
228	0x3e269698	0.16268384
229	0x3d48cda0	0.049024224
230	0xbad7b145	-0.0016456029
231	0x3ccbfed8	0.024901792
232	0xbdf2f410	-0.118629575
233	0xbd0ba5b4	-0.034093574
234	0x3daced4c	0.08443698
235	0x3cf64496	0.030062001
236	0x3dfb83d8	0.122810066
237	0xbd6dbac2	-0.058039434
238	0x3e15d47e	0.1463184
239	0xbd12eff0	-0.035873353
240	0xbc50deea	-0.012748459
241	0x3e801ea3	0.25023374
242	0x3db74ec1	0.08950568
243	0xbdf8b89f	-0.12144589
244	0x3e075015	0.13214143
245	0xbe769bf0	-0.24082923
246	0x3a7a8ca4	0.00095577
247	0xbe26e9c7	-0.16300116
248	0xbd26b6b4	-0.040701583
249	0xbc3cd8bd	-0.011526284
250	0xbcb246fb	-0.021762362
251	0x3e21123d	0.15729614
252	0x3d5410d5	0.051773865
253	0x3d92fea8	0.07177478
254	0x3ccb12ad	0.024789179
255	0xbd5fbac4	-0.054621473

gnn_layers.0.bn.weight f4 [128]
0	0x3f555dcb	0.8334624
1	0x3f44cc38	0.76874113
2	0x3f11f004	0.5700686
3	0x3f49fc65	0.7890075
4	0x3e803d19	0.25046614
5	0x3f920382	1.140732
6	0x3ede79af	0.43452212
7	0x3fac62c9	1.3467647
8	0x3f6d8322	0.9277822
9	0x3ea57f08	0.3232348
10	0xbe4fcd0d	-0.20293064
11	0x3d9c8fe5	0.07644633
12	0x3ee0eda0	0.43931293
13	0x3ea0435a	0.31301385
14	0x3eaf6177	0.34254047
15	0xbedfec53	-0.4373499
16	0x3f05088f	0.51966184
17	0x3ecd2ef2	0.4007488
18	0x3f4916a8	0.78550196
19	0x3f4a07a6	0.7891792
20	0x3f283378	0.65703535
21	0x3e3161f2	0.1732252
22	0x3f49c5d1	0.7881747
23	0x3ebf1fe6	0.37329024
24	0xbe4dc6dd	-0.20095392
25	0x3f5e3321	0.86796767
26	0x3e9891d2	0.29798752
27	0x3f281245	0.6565288
28	0x3e326114	0.17419845
29	0x3f7eb358	0.99492407
30	0x3eed9834	0.46405184
31	0x3f225862	0.6341611
32	0x3f4f70db	0.8103158
33	0x3ee79375	0.45229688
34	0x3ed6e35b	0.41970333
35	0x3ea0e616	0.31425542
36	0x3ead55e7	0.338546
37	0x3e9aa12a	0.30201083
38	0x3f396020	0.724123
39	0x3eee1354	0.4649912
40	0x3ea91a4e	0.3302788
41	0x3eb9de3f	0.36302373
42	0x3ef92b93	0.48666057
43	0x3e17090e	0.14749548
44	0x3f4079b4	0.75185704
45	0x3edc8be6	0.43075484
46	0x3f8918da	1.0710709
47	0x3fa60703	1.297089
48	0x3f485c8e	0.7826623
49	0x3ec77cf0	0.38962507
50	0x3fadc6d4	1.3576303
51	0x3f0fe51b	0.5620896
52	0x3e7a05d6	0.24416289
53	0xbeb080f8	-0.34473395
54	0x3f3f20e5	0.7465957
55	0x3f1b6132	0.60695183
56	0x3f48e4bf	0.7847404
57	0x3e6a79d1	0.22898032
58	0xbe5b9238	-0.21442497
59	0x3f94c469	1.162244
60	0x3f6cfd9b	0.9257447
61	0x3eb28b69	0.34871987
62	0x3f4e279b	0.80529183
63	0x3f266035	0.6499055
64	0x3f04133d	0.51591855
65	0x3f53aa56	0.82681787
66	0x3e98a919	0.2981651
67	0x3f0fe243	0.56204623
68	0x3f74099b	0.95327157
69	0x3ed94a54	0.4243952
70	0x3ed9ea7a	0.42561704
71	0x3f51f6b4	0.82017064
72	0x3f048a31	0.51773363
73	0x3f0b2305	0.5435031
74	0x3f45ebfe	0.7731322
75	0x3eeb1239	0.4591234
76	0x3f5767eb	0.8414294
77	0x3f8915e5	1.0709807
78	0x3eb9e7ab	0.3630956
79	0x3e8563e7	0.26052782
80	0x3eb69711	0.3566213
81	0x3eb067b6	0.34454125
82	0x3eb0e903	0.34552774
83	0x3f02a2dc	0.51029754
84	0x3f1e64ab	0.6187236
85	0x3ee0e69d	0.43925944
86	0x3c3c25fc	0.011483666
87	0x3ebfc715	0.37456575
88	0x3f142f2d	0.57884485
89	0x3f589ac8	0.8461118
90	0x3ebcaed3	0.3685213
91	0x3ecfe039	0.40600756
92	0x3e43afdf	0.19110058
93	0x3f4e9fbe	0.807125
94	0x3ed05fc4	0.40698063
95	0x3ec5f8e4	0.3866645
96	0x3eb650c8	0.35608506
97	0x3f0df8f9	0.5545803
98	0x3ebc948e	0.36832088
99	0x3f02eb14	0.5113995
100	0x3f1b3458	0.60626745
101	0x3eb82ee3	0.35973272
102	0x3f0f2ef2	0.5593101
103	0x3f2a827c	0.66605353
104	0x3f50d963	0.81581706
105	0x3f2cf226	0.6755699
106	0x3f20e0e5	0.6284316
107	0x3ec8bd61	0.39206985
108	0x3f3a3b6e	0.7274693
109	0x3f432a12	0.7623607
110	0x3f4de9c9	0.8043485
111	0x3f241eb1	0.6410933
112	0x3f08f59b	0.53499764
113	0x3e2f6f1f	0.17132233
114	0x401d9bee	2.4626422
115	0x3f215516	0.63020456
116	0x3f17a846	0.5924114
117	0x3f51ab28	0.8190179
118	0x3f4f68bc	0.81019187
119	0x3e819efd	0.2531661
120	0x3f0f3f12	0.5595561
121	0x3f8f699c	1.1204104
122	0x3f64565d	0.8919428
123	0x3ecbd182	0.3980828
124	0xbe13db0d	-0.1443903
125	0x3faae6b4	1.3351655
126	0x3f0b6a86	0.54459417
127	0xbf0985a2	-0.5371953

gnn_layers.0.bn.bias f4 [128]
0	0xbeae57a2	-0.34051234
1	0xbe6b39f5	-0.22971328
2	0x3ee2f7b9	0.44329622
3	0x3db60564	0.08887747
4	0x3f207389	0.6267629
5	0xbd42af7a	-0.04753063
6	0x3f0ef6e2	0.55845463
7	0x3e364463	0.17799525
8	0x3e6ecfdb	0.23321478
9	0x3f146ce3	0.5797865
10	0x3f4441e9	0.7666307
11	0xbf2f9ba2	-0.6859685
12	0x3f09823e	0.5371436
13	0x3f0b7f76	0.54491365
14	0x3f3af1f9	0.7302547
15	0x3eb92644	0.36162007
16	0x3edea8ef	0.4348826
17	0xbeaa9bef	-0.33322093
18	0xbe9ada6f	-0.30244777
19	0x3e90c589	0.28275707
20	0x3eaf3faf	0.34228274
21	0x3f3eee25	0.7458213
22	0xbeca2364	-0.39480126
23	0xbe13fef2	-0.14452723
24	0x3f4cd61b	0.800142
25	0xbe955d16	-0.2917258
26	0xbefb3230	-0.49061728
27	0xbec4d3d3	-0.3844286
28	0x3f4757f3	0.77868575
29	0xbe07621f	-0.13221024
30	0x3ef1a49b	0.47195897
31	0xbea4b4e8	-0.3216927
32	0xbeb20059	-0.3476589
33	0x3f1ed9ab	0.62050885
34	0x3f436810	0.7633066
35	0x3f049048	0.51782656
36	0x3f0cf07c	0.5505445
37	0x3f48cc53	0.78436774
38	0x3eaa099c	0.33210456
39	0x3ef8a1e5	0.48561016
40	0x3f2bdb87	0.6713185
41	0xbea8910a	-0.32923156
42	0x3ef8029a	0.48439485
43	0xbf3fd68e	-0.7493676
44	0x3e95ee07	0.29283163
45	0xbf446d22	-0.76729023
46	0x3e87d159	0.26526907
47	0x3e68a2a0	0.22718287
48	0x3e89904e	0.26867908
49	0x3f262e27	0.6491417
50	0xbe616709	-0.22011961
51	0x3f4036af	0.7508344
52	0x3f1cc9d9	0.61245495
53	0x3f1479bd	0.5799826
54	0xbee910ce	-0.45520633
55	0xbebdc417	-0.37063667
56	0xbe63b9c6	-0.22238836
57	0xbf3fd238	-0.74930143
58	0x3f5a2405	0.8521121
59	0xbdec468f	-0.115368955
60	0x3e011b84	0.12608153
61	0x3f34c7d5	0.7061742
62	0xbe824675	-0.2544438
63	0xbeda41d5	-0.4262835
64	0xbeec6f45	-0.46178642
65	0xbef21d77	-0.47288105
66	0x3f1bbd10	0.6083536
67	0x3f1293de	0.5725688
68	0x3e30ea60	0.17276907
69	0x3ebc7165	0.36805263
70	0xbf81f4ac	-1.0152793
71	0x3ed599d1	0.41718915
72	0xbefba904	-0.49152386
73	0x3ea7846b	0.32718214
74	0x3f1466b3	0.57969207
75	0x3f0d3522	0.551592
76	0xbe402723	-0.1876493
77	0x3e55ed55	0.20891316
78	0x3f04039c	0.5156801
79	0xbec9a51f	-0.3938379
80	0x3f240f76	0.6408609
81	0x3f2811f8	0.6565242
82	0x3f1b0ecd	0.6056946
83	0xbef518cb	-0.47870478
84	0xbecbf31c	-0.39833915
85	0xbe46a6a7	-0.1939951
86	0xbf1249c3	-0.571438
87	0x3f24414a	0.64162123
88	0xbebbc4c2	-0.36673552
89	0xbe5f0a97	-0.21781383
90	0x3f22daa1	0.6361485
91	0xbefc13c0	-0.49233818
92	0x3f464ff7	0.77465767
93	0xbea38cc5	-0.31943336
94	0xbf0ce3c4	-0.5503504
95	0x3f0b5dc6	0.5443996
96	0x3f0cfda7	0.5507454
97	0xbf152dc6	-0.5827297
98	0x3f17f054	0.59351087
99	0xbef6ac05	-0.48178115
100	0x3eef3c9a	0.46725923
101	0x3f29fc3e	0.66400516
102	0xbe9c152c	-0.30484903
103	0x3ed92aa0	0.42415333
104	0x3e81806f	0.252933
105	0x3ec471dd	0.3836812
106	0x3ebe89ab	0.37214407
107	0x3f0522e9	0.52006394
108	0xbed8745d	-0.42276278
109	0xbe6a1967	-0.22861253
110	0xbf1fe66e	-0.6246098
111	0xbee694a5	-0.45035282
112	0x3ee34271	0.44386628
113	0xbf6f8406	-0.93560827
114	0x3b2dd01a	0.0026521743
115	0xbe301c00	-0.17198181
116	0x3ed6ae8e	0.4193005
117	0xbe0e6bbf	-0.1390829
118	0x3ea807b5	0.3281838
119	0x3f6563ef	0.8960561
120	0x3eeddf2a	0.46459323
121	0x3d55ea5e	0.052225463
122	0xbe8bb278	-0.27284598
123	0x3f22b1cc	0.63552547
124	0x3f886435	1.0655581
125	0x3e3e3876	0.18576226
126	0x3f003ff0	0.5009756
127	0x3eff937c	0.4991721
