model_normal/gdn_smd_w_150_epoch20.pth (torch, 110984 bytes, 16 tensors)

embedding.weight f4 [38, 128]
0	0xbdef60d9	-0.11688394
1	0x3b2a6ad9	0.0026003628
2	0x3ca1511a	0.019691993
3	0xbf1a2029	-0.6020532
4	0x3e39ae6f	0.18132947
5	0xbced96fa	-0.029002655
6	0xbf134e36	-0.57541215
7	0xbdf4c05a	-0.11950751
8	0xbdb2784e	-0.087143525
9	0xbd8554e5	-0.06510333
10	0x3e184760	0.14870977
11	0xbe1c3659	-0.15255107
12	0x3d119639	0.035543654
13	0x3e54ab75	0.2076853
14	0xbd8bc3ae	-0.06824432
15	0xbd7b3646	-0.061331056
16	0xbccb989c	-0.024853043
17	0xbdda061d	-0.10645697
18	0x3e4ab29a	0.19794694
19	0x3d80cf1b	0.06289502
20	0x3d4db00b	0.050216716
21	0xbee741b4	-0.45167315
22	0xbdaf3ba2	-0.08556296
23	0xbdc396c2	-0.09550239
24	0xbf03998a	-0.51406157
25	0x3d7b7cc8	0.061398298
26	0xbe877a76	-0.26460618
27	0x3e5103e6	0.20411643
28	0xbd7525f8	-0.059850663
29	0xbdf60640	-0.12012911
30	0xbc6e79bf	-0.014555394
31	0xbec0bfaa	-0.37646228
32	0xbd093b90	-0.03350407
33	0xbd9029ab	-0.070391975
34	0x3e8cad76	0.2747609
35	0xbd467b72	-0.04845757
36	0x3ca87298	0.020562455
37	0xbd8010b8	-0.06253189
38	0x3e4b84ca	0.19874874
39	0x3e3c8518	0.18410146
40	0x3dd7dab8	0.10539764
41	0xbdfa18f8	-0.12211794
42	0x3d802541	0.062571056
43	0xbd1a1fc4	-0.03762795
44	0xbca96279	-0.020676838
45	0xbe5633eb	-0.20918243
46	0xbe4157b6	-0.18881115
47	0xbd48733e	-0.04893803
48	0x3d35f016	0.044418417
49	0x3e5c52aa	0.21515909
50	0xbdca1320	-0.09866929
51	0xbea1bcf2	-0.31589466
52	0x3e6c619f	0.23084114
53	0x3c5cf4e5	0.013486122
54	0xbe827ae8	-0.25484395
55	0x3dd7e24b	0.10541209
56	0xbdc1af02	-0.09457208
57	0xbe68d448	-0.22737229
58	0xbd4ec801	-0.050483707
59	0xbe3f56af	-0.18685411
60	0x3d0235b5	0.0317895
61	0x3cc9d834	0.024639226
62	0xbe385beb	-0.18003814
63	0xbe7e54d9	-0.24837054
64	0x3ce81920	0.028332293
65	0x3e6d0bf6	0.23149094
66	0x3c1f3350	0.009716824
67	0xbd7025f0	-0.05862993
68	0xbd014f84	-0.031569973
69	0x3e79b3f3	0.24385051
70	0xbdaffe42	-0.08593418
71	0x3d93d02f	0.07217442
72	0xbe3d7a24	-0.18503624
73	0xbaa8e34b	-0.0012885121
74	0xbf16b2cd	-0.5886658
75	0x3e0b1323	0.13581519
76	0x3ca98688	0.020694032
77	0x3e60e2dc	0.2196154
78	0x3e7490f0	0.23883414
79	0x3daca502	0.0842991
80	0xbe708309	-0.23487486
81	0xbea6ff0c	-0.3261646
82	0xbef463e1	-0.47732452
83	0xbe407c8f	-0.18797515
84	0x3dd9a042	0.1062627
85	0x3d1a56c0	0.037680387
86	0x3df6bf30	0.12048185
87	0xbd87424b	-0.06604441
88	0xbd98ec91	-0.074669965
89	0xbd1798d0	-0.037010968
90	0x3c4dc991	0.012560264
91	0x3e23cf2e	0.15997002
92	0xbdc228fb	-0.09480473
93	0xbdf19ff4	-0.11798087
94	0xbe7cf251	-0.24701811
95	0xbdb0aec3	-0.08627083
96	0x3dcbfcc6	0.09960322
97	0xbc8e1550	-0.017344147
98	0xbe51a202	-0.20471957
99	0xbd0c9e1e	-0.03433048
100	0xbe9e7290	-0.3094678
101	0x3e0e0837	0.13870321
102	0xbde244c2	-0.11048271
103	0x3c7e642d	0.015526813
104	0xbd956ba5	-0.07295922
105	0xbe90fcd3	-0.2831789
106	0x3e258386	0.16163453
107	0xbaab669f	-0.0013076848
108	0xbd5b7d6a	-0.0535864
109	0x3d5f99f2	0.054590173
110	0x3e62a8e2	0.22134736
111	0xbde77e41	-0.11303378
112	0xbe62360c	-0.2209093
113	0xbe84a5d8	-0.2590778
114	0xbd0f68c2	-0.035012014
115	0xbd9ce0e3	-0.07660081
116	0xbcc235bf	-0.023707269
117	0x3dc02ec9	0.093839236
118	0x3d2ec0ac	0.042664215
119	0xbd1c7306	-0.038195632
120	0xbec34f50	-0.38146448
121	0x3d2324ea	0.039830126
122	0xbe4aa737	-0.1979035
123	0xbd6be471	-0.057590906
124	0x3e2648cb	0.16238706
125	0x3dae8d41	0.08523036
126	0xbed4bc4e	-0.41549915
127	0xbd0b4509	-0.034001384
128	0x3e0cb300	0.13740158
129	0xbe99a434	-0.3000809
130	0xbd2d42ad	-0.042299915
131	0x3e1cbb24	0.15305763
132	0x3cb18c0e	0.021673229
133	0xbd3e7820	-0.04650128
134	0x3db77a2b	0.089588486
135	0xbd838770	-0.06422317
136	0xbf052b52	-0.52019227
137	0xbc228cb9	-0.009921246
138	0x3d82df16	0.063902065
139	0xbe118e0b	-0.14214341
140	0xbe5c6041	-0.21521093
141	0x3ceba301	0.02876425
142	0xbec7f339	-0.39052752
143	0xbee26c33	-0.44223174
144	0xbebe1d45	-0.37131706
145	0xbef1ed3b	-0.47251305
146	0x3df06a13	0.11738982
147	0xbf27fbdc	-0.6561868
148	0xbdd3727a	-0.10324569
149	0xbe3ca693	-0.18422918
150	0xbebc00d7	-0.3671939
151	0xbd9c3ee5	-0.07629184
152	0x3d7e4a6e	0.0620827
153	0xbdebd506	-0.1151524
154	0xbe0dbb48	-0.13840973
155	0xbc31e8dc	-0.010858741
156	0xbe7c6549	-0.24648012
157	0xbe3df107	-0.18548976
158	0xbc32985f	-0.010900586
159	0xbcdd7c4f	-0.027036814
160	0xbd843e72	-0.06457223
161	0xbe0f538b	-0.13996713
162	0x3e5bd3c5	0.21467502
163	0xbeba4443	-0.36380205
164	0x3d74723b	0.05967925
165	0x3e14da02	0.14536288
166	0xbe1ad258	-0.15119302
167	0xbd0c099f	-0.034188863
168	0xbed69efd	-0.41918173
169	0xbdd7c2a1	-0.105351694
170	0xbe13efc6	-0.14446935
171	0xbe60f486	-0.21968278
172	0xbbd42cc1	-0.0064750616
173	0xbe606c18	-0.21916234
174	0xbec79a4c	-0.38984907
175	0xbe8c06ce	-0.27348942
176	0xbeacf5c4	-0.33781254
177	0x3df0af67	0.11752205
178	0xbedf32e8	-0.43593526
179	0xbeac7b25	-0.33687702
180	0x3d6099ac	0.054834053
181	0xbe9e3c00	-0.3090515
182	0xbe803747	-0.25042173
183	0xbe0573c1	-0.13032438
184	0xbde590d4	-0.112092644
185	0xbebdf208	-0.37098718
186	0x3e9700a2	0.2949267
187	0xbe61f6d2	-0.2206681
188	0xbd68ca0c	-0.056833312
189	0xbcfa86c7	-0.030581845
190	0xbd5a64dc	-0.053318843
191	0xbe8ae65e	-0.2712888
192	0x3d8e8062	0.06958081
193	0xbcd58033	-0.026062107
194	0x3d637876	0.055534802
195	0xbe9c0d79	-0.3047903
196	0xbe4787f8	-0.19485462
197	0x3e31195e	0.17294833
198	0x3dd8d2c3	0.105870746
199	0xbdeb50a6	-0.11489992
200	0x3d0da235	0.03457852
201	0xbb80eae3	-0.0039342507
202	0xbc22bada	-0.009932244
203	0xbe9b9aa2	-0.30391413
204	0x3da1a4f1	0.07892788
205	0x3c34d82d	0.011037868
206	0x3df6b684	0.12046531
207	0x3d0dbed9	0.034605835
208	0xbdaaf99d	-0.08348391
209	0xbebba488	-0.36648965
210	0xbf47d06e	-0.78052413
211	0xbdbd637d	-0.092474915
212	0xbeb31ead	-0.3498434
213	0xbe5d0a03	-0.2158585
214	0xbe11b7bc	-0.14230245
215	0xbe5e1d96	-0.21690974
216	0xbf270302	-0.65238965
217	0xbcfba9ba	-0.03072058
218	0xbebc507f	-0.36780164
219	0xbea5711e	-0.32312864
220	0xbc67643d	-0.01412302
221	0xbc0901d5	-0.008362253
222	0x3d70868e	0.05872207
223	0x3dbc275a	0.09187193
224	0x3db6767b	0.08909317
225	0x3f2973ec	0.6619251
226	0xbe080324	-0.13282448
227	0xbea07d41	-0.3134556
228	0xbe1e312f	-0.1544845
229	0xbcb9ad95	-0.022665778
230	0x3cd17da4	0.025572605
231	0xbc27bf4a	-0.010238478
232	0xbef1e549	-0.47245243
233	0xbec1f20c	-0.3787998
234	0xbee69b80	-0.45040512
235	0x3ddc3cb9	0.107537694
236	0x3d96cad1	0.07362903
237	0xbe124118	-0.14282644
238	0x3d91ecbf	0.07125234
239	0xbe8ffbbd	-0.2812175
240	0xbc8b867d	-0.017031902
241	0xbd7e6106	-0.062104248
242	0xbd13fa69	-0.03612748
243	0xbd066ddb	-0.03281961
244	0xbe41efea	-0.18939176
245	0xbe045fc4	-0.12927157
246	0xbf006ed2	-0.501691
247	0xbd1c1526	-0.038106106
248	0xbe5361ad	-0.20642729
249	0x3c61b0b4	0.013775039
250	0xbe1129bb	-0.14176075
251	0xbf0e576c	-0.55602145
252	0xbe910434	-0.2832352
253	0xbd895c71	-0.06707085
254	0xbed456ce	-0.41472477
255	0xbe29be15	-0.16576417

bn_outlayer_in.weight f4 [128]
0	0x3f0ac0c4	0.54200387
1	0x3ef25165	0.47327724
2	0x3f0cf8d1	0.55067164
3	0x3ebf67ae	0.3738379
4	0x3f06640a	0.524964
5	0x3ef1aaf0	0.47200727
6	0x3eea7cdc	0.45798385
7	0x3f188c14	0.5958874
8	0x3ef9d31c	0.48793876
9	0x3eddb0b3	0.43298873
10	0x3f0448b2	0.51673424
11	0x3efbe682	0.491993
12	0x3eba115e	0.36341375
13	0x3efe3d69	0.49656227
14	0x3f01dc85	0.5072711
15	0x3f39d7a6	0.7259468
16	0x3f544d59	0.82930523
17	0x3eeae383	0.45876703
18	0x3ef2e851	0.47442868
19	0x3ece35f7	0.40275547
20	0x3f002093	0.50049704
21	0x3f450f13	0.76976126
22	0x3f3a5400	0.72784424
23	0x3f21bc28	0.6317773
24	0x3ef062e1	0.4695044
25	0x3e9e1913	0.30878505
26	0x3f269dbe	0.65084445
27	0x3f054a77	0.5206675
28	0x3f098da0	0.5373173
29	0x3f12f13f	0.5739936
30	0x3e1327e1	0.14370681
31	0x3ef7ba53	0.48384342
32	0x3f07ff04	0.531235
33	0x3ee4b641	0.446703
34	0x3f05198c	0.51992106
35	0x3f4028d8	0.7506232
36	0x3f067e0a	0.5253607
37	0x3ef1e66a	0.47246104
38	0x3f007f35	0.501941
39	0x3ed73f15	0.42040315
40	0x3f042c96	0.5163053
41	0x3eb9f4b4	0.36319506
42	0x3f1470d4	0.5798466
43	0x3f0251b0	0.50905895
44	0x3ec1d316	0.37856358
45	0x3f064e01	0.52462775
46	0x3ecd5fa6	0.40112036
47	0x3f3f5ced	0.7475117
48	0x3f0806dc	0.53135467
49	0x3ed18d56	0.40928143
50	0x3f44cbe1	0.76873595
51	0x3f09ccc4	0.5382807
52	0x3f0a5054	0.5402882
53	0x3f09914b	0.53737324
54	0x3f40ba26	0.7528404
55	0x3ede8e0c	0.43467748
56	0x3f21ce05	0.63204986
57	0x3de07885	0.10960487
58	0x3ec938ed	0.39301243
59	0x3f0fcfa4	0.5617621
60	0x3f09d981	0.5384751
61	0x3f02d4fb	0.5110623
62	0x3e8811e1	0.2657614
63	0x3f324e44	0.69650674
64	0x3f00b70a	0.50279295
65	0x3ef18b72	0.471767
66	0x3eef2c61	0.46713546
67	0x3f1f5f11	0.62254435
68	0x3f4f357d	0.8094099
69	0x3eda7feb	0.4267572
70	0x3f06e14a	0.52687514
71	0x3eee84a1	0.46585563
72	0x3e91322a	0.28358585
73	0x3e84a783	0.2590905
74	0x3f3cc28d	0.7373436
75	0x3f13504c	0.575444
76	0x3dba733f	0.09104013
77	0x3ee9ce42	0.45665175
78	0x3ec04828	0.3755505
79	0x3ef6ff73	0.48241767
80	0x3f57ad2f	0.8424863
81	0x3f1babdb	0.60809106
82	0x3ebf5837	0.3737199
83	0x3f1e26b7	0.61777824
84	0x3f04b301	0.5183564
85	0x3f0c9448	0.5491376
86	0x3eff52d2	0.49867874
87	0x3f35c06a	0.70996726
88	0x3ef11b0a	0.47090942
89	0x3f0f19dc	0.55898833
90	0x3f040366	0.51567686
91	0x3f226473	0.63434523
92	0x3e0a499d	0.13504644
93	0x3e40f1e7	0.18842278
94	0x3ebd3e59	0.3696163
95	0x3ed52ffa	0.41638166
96	0x3ec12a00	0.37727356
97	0x3e3d6c57	0.1849836
98	0x3f16267e	0.58652484
99	0x3f3ffa9a	0.7499176
100	0x3f3ef3d0	0.7459078
101	0x3e0e2d84	0.1388455
102	0x3f27f562	0.656088
103	0x3f452314	0.7700665
104	0x3f3d0da9	0.7384897
105	0x3f233fe0	0.6376934
106	0x3eda739d	0.4266633
107	0x3ef56370	0.47927427
108	0x3ef8a984	0.4856683
109	0x3f114b81	0.56755835
110	0x3f09aa37	0.5377535
111	0x3f2d097e	0.6759261
112	0x3f382924	0.71937776
113	0x3f1e14be	0.617504
114	0x3e819e96	0.25316304
115	0x3e8f9abf	0.2804775
116	0x3f189042	0.5959512
117	0x3eeb922a	0.46009952
118	0x3f154252	0.5830432
119	0x3e418eb4	0.18902093
120	0x3f1e7c3d	0.6190832
121	0x3ed5b059	0.41736105
122	0x3eebb481	0.4603615
123	0x3f35af2e	0.7097043
124	0x3ee255a9	0.4420598
125	0x3f060133	0.5234558
126	0x3f3e9ee2	0.74461186
127	0x3f49b8a9	0.78797394

bn_outlayer_in.bias f4 [128]
0	0xbf86a724	-1.0519757
1	0xbfa75ee6	-1.3075836
2	0xbe3ee0c8	-0.18640435
3	0xbe620355	-0.22071584
4	0xbed001a1	-0.40626243
5	0xbec58680	-0.38579178
6	0xbf30103b	-0.68774766
7	0xbf39e37f	-0.72612756
8	0xbe5bd3d3	-0.21467523
9	0xbe7c736d	-0.24653406
10	0xbea5338f	-0.322659
11	0xbe2c9da9	-0.16857018
12	0xbe4391d3	-0.19098596
13	0xbeb88d9e	-0.36045545
14	0xbe68e732	-0.22744444
15	0xbe9bc382	-0.30422598
16	0xbe6e1880	-0.23251534
17	0xbe408a74	-0.18802816
18	0xbeae1dd9	-0.34007147
19	0xbe5b8413	-0.21437101
20	0xbe825786	-0.254574
21	0xbebc6688	-0.36796975
22	0xbec0bd91	-0.37644628
23	0xbe8746c6	-0.26421183
24	0xbe5ec2a8	-0.21753943
25	0xbf015345	-0.50517684
26	0xbeb85a2c	-0.36006296
27	0xbec6da47	-0.38838407
28	0xbe8f493a	-0.27985555
29	0xbe10e1b1	-0.14148594
30	0xbf049b43	-0.5179941
31	0xbe853768	-0.26018834
32	0xbe6e259f	-0.23256539
33	0xbf1dc7b0	-0.61632824
34	0xbee353e8	-0.44399953
35	0xbec6317c	-0.3870963
36	0xbecd5d55	-0.4011027
37	0xbf232098	-0.6372161
38	0xbeaa269d	-0.33232585
39	0xbea18e3f	-0.31553838
40	0xbe883e9b	-0.26610264
41	0xbd952076	-0.07281582
42	0xbeef3e38	-0.46727157
43	0xbeb364cc	-0.3503784
44	0xbea2cc2a	-0.3179639
45	0xbef6f814	-0.48236144
46	0xbe03fd87	-0.12889682
47	0xbe9198fa	-0.28437024
48	0xbe922818	-0.28546214
49	0xbe7d4afe	-0.24735638
50	0xbea7c122	-0.32764536
51	0xbe3c90a5	-0.18414553
52	0xbee30017	-0.44336006
53	0xbeb7f710	-0.3593068
54	0xbecdac62	-0.4017058
55	0xbd8d92e4	-0.06912783
56	0xbe21bad7	-0.1579393
57	0x3c3eb15c	0.011638965
58	0xbe622397	-0.22083889
59	0xbeaa5a00	-0.3327179
60	0xbeb484a4	-0.35257447
61	0xbf3adef5	-0.72996455
62	0xbd06287a	-0.032753445
63	0xbec2dc18	-0.38058543
64	0xbeca455a	-0.39506036
65	0xbea86975	-0.32892957
66	0xbeab88be	-0.33502764
67	0xbe8eb544	-0.2787267
68	0xbe94d18a	-0.29066116
69	0xbe8e2899	-0.2776535
70	0xbf372be5	-0.7155135
71	0xbd8810cf	-0.06643831
72	0xbd4687e6	-0.048469447
73	0xbf85f927	-1.046666
74	0xbeb996a1	-0.36247733
75	0xbe918190	-0.2841916
76	0x3cc36305	0.023850927
77	0xbea8d858	-0.32977557
78	0xbed1dc93	-0.40988597
79	0xbf401c2a	-0.75042975
80	0xbe51f07a	-0.20501891
81	0xbea6a84b	-0.32550272
82	0xbd513527	-0.05107608
83	0xbf674fa4	-0.90355897
84	0xbe9f379d	-0.31097117
85	0xbe80f9b4	-0.25190508
86	0xbe098273	-0.13428669
87	0xbe9ed919	-0.31025007
88	0xbe4121e0	-0.18860579
89	0xbef7adc1	-0.4837475
90	0xbeca4835	-0.39508215
91	0xbea5e76a	-0.32403117
92	0xbf51af56	-0.81908166
93	0xbf75a1af	-0.95949835
94	0xbd1ac81f	-0.037788507
95	0xbe42125a	-0.18952313
96	0xbf07eabc	-0.5309255
97	0xbf829e50	-1.0204563
98	0xbeacd529	-0.33756378
99	0xbec07c44	-0.37594807
100	0xbed7bde6	-0.4213707
101	0xbc6e17b8	-0.014532022
102	0xbf583c2b	-0.8446681
103	0xbe68d675	-0.22738059
104	0xbea7ad4c	-0.32749403
105	0xbebfaf49	-0.3743842
106	0xbe972fe5	-0.29528728
107	0xbeca8873	-0.39557227
108	0xbee8096a	-0.45319682
109	0xbdadeb00	-0.08492088
110	0xbeccaa4f	-0.39973685
111	0xbeac3041	-0.33630565
112	0xbe00f882	-0.12594798
113	0xbe3c421f	-0.18384598
114	0xbf90a0fb	-1.1299127
115	0xbdb532bc	-0.088475674
116	0xbea903b3	-0.33010635
117	0xbd896e94	-0.06710544
118	0xbea1d7b0	-0.3160987
119	0xbf844a8a	-1.0335248
120	0xbeb87e92	-0.36034065
121	0xbe880911	-0.26569417
122	0xbe85bd7d	-0.2612113
123	0xbeaaea59	-0.33381918
124	0xbe53ebe9	-0.20695461
125	0xbe5469d1	-0.20743491
126	0xbebdbb18	-0.37056804
127	0xbea5e8a3	-0.3240405

bn_outlayer_in.running_mean f4 [128]
0	0xbba482d8	-0.0050204806
1	0xbada39cb	-0.0016649304
2	0xbc6b0931	-0.014345453
3	0xbb8a5356	-0.00422136
4	0xbd1f304e	-0.038864426
5	0xbcce3b6a	-0.025174815
6	0x3cd249b6	0.025669914
7	0xbb1982c0	-0.002342388
8	0xbd81c1b3	-0.06335773
9	0xbc9c30d7	-0.019066257
10	0xbd0618d7	-0.032738533
11	0xbd35d13b	-0.04438899
12	0xbda5536f	-0.08072554
13	0xbcc9f548	-0.024653092
14	0xbcfa63a2	-0.030565087
15	0xbd481d99	-0.04885635
16	0xbba59353	-0.005052963
17	0xbda5d066	-0.080963895
18	0xba1bd960	-0.0005945172
19	0xbc8de782	-0.017322306
20	0xbdac0ee3	-0.08401277
21	0xbe0c031e	-0.13673064
22	0xbe036f59	-0.12835445
23	0xbd2d188f	-0.04225975
24	0xbc82ae49	-0.015952246
25	0x3c1b4f02	0.009479286
26	0xbdde157b	-0.10843941
27	0x3b4f5eab	0.003164212
28	0xbd1a22c8	-0.037630826
29	0xbd35f74d	-0.044425298
30	0x3bb42c81	0.0054984693
31	0xbbdefdee	-0.006805173
32	0xb949cd9f	-0.00019245454
33	0x3bcc2842	0.006230385
34	0xbd001714	-0.03127201
35	0xbd82a1b0	-0.06378496
36	0x3c4931d0	0.012279943
37	0xbb3d028d	-0.0028840632
38	0x3b1fb371	0.002436843
39	0xbd1e293e	-0.03861355
40	0xbd3b4f2e	-0.04572981
41	0xbd140726	-0.03613963
42	0xbdb17c1d	-0.08666251
43	0xbba4d73d	-0.005030541
44	0xbc70411e	-0.014663963
45	0x3b52d26f	0.0032168885
46	0xbd32aad3	-0.043619942
47	0xbcf53106	-0.029930603
48	0xbceb3584	-0.028712042
49	0x3ae1e92d	0.001723563
50	0xbdfd7097	-0.123749904
51	0xbe2de05f	-0.16980122
52	0x3bf37830	0.007430099
53	0xbbcc1355	-0.0062278905
54	0xbe00c447	-0.12574874
55	0xbccdda7d	-0.025128597
56	0xbd5862dd	-0.05282866
57	0xbd920163	-0.07129171
58	0x3caea50c	0.021318935
59	0xbbce8fd1	-0.0063037653
60	0xbcd46fad	-0.025932157
61	0x3c2b2f5e	0.010448305
62	0xbc7e1fa2	-0.015510472
63	0xbdafe19c	-0.085879534
64	0x3c13c34b	0.009018729
65	0xbc5ea0cc	-0.013588142
66	0xbc248dbb	-0.010043557
67	0xbd2c20e4	-0.042023554
68	0xbc684b7d	-0.014178154
69	0x3b6766a0	0.0035308972
70	0xbb0f2254	-0.002184053
71	0xbcee641a	-0.029100467
72	0xbdc13edc	-0.094358176
73	0x3c6e5b08	0.014548071
74	0xbdbdba21	-0.09264017
75	0xbc1e424a	-0.009659359
76	0x3d1c11c6	0.038102888
77	0xbd344f65	-0.04402103
78	0xbcc99b16	-0.024610084
79	0xbd05516d	-0.032548357
80	0xbd875006	-0.0660706
81	0xbcbe46c6	-0.023227107
82	0xbe0bcf1b	-0.13653223
83	0xbb916431	-0.0044369926
84	0xbab7b093	-0.0014014415
85	0xbd38cfa4	-0.045119897
86	0xbd4a34e0	-0.04936683
87	0xbd5fb915	-0.054619867
88	0xbd989446	-0.07450156
89	0x3ac22966	0.0014813363
90	0xbb8b230b	-0.004246121
91	0xbc8ce742	-0.017200116
92	0xbc915845	-0.017742286
93	0xbd7f1b84	-0.0622821
94	0xbdc33120	-0.09530854
95	0xbd31e8d0	-0.043434918
96	0x3c0ed4b7	0.008717707
97	0xbbe0068a	-0.006836717
98	0xbdb9dfad	-0.09075866
99	0xbcc2a925	-0.023762295
100	0xbe0ec2b3	-0.1394146
101	0x37203d94	9.55108e-06
102	0xbaa07b83	-0.0012243841
103	0xbd8aad82	-0.06771375
104	0xbdd8702b	-0.10568269
105	0xbe17418d	-0.147711
106	0xbd33cfaf	-0.043899234
107	0x3ad03420	0.0015884675
108	0xbb025823	-0.001988896
109	0xbcbd3791	-0.023097785
110	0x39c20254	0.00037004298
111	0xbe12e9d0	-0.14347005
112	0xbd7aff4f	-0.061278637
113	0xbdbdeb37	-0.09273379
114	0x3c3ddec4	0.011588756
115	0xbb3109fb	-0.0027014005
116	0xbde865e0	-0.11347556
117	0xbcf87419	-0.030328797
118	0xbd1841c4	-0.037172094
119	0xbc8eb48f	-0.017420081
120	0xbd075c35	-0.03304692
121	0x3c0c5e87	0.008567459
122	0xba6af7ad	-0.0008963298
123	0xbd9b9d19	-0.075983234
124	0x3abf9039	0.0014615125
125	0xbd58ef58	-0.05296263
126	0xbe00d5e0	-0.12581587
127	0xbc4205bc	-0.0118421875

bn_outlayer_in.running_var f4 [128]
0	0x39f356c2	0.0004641321
1	0x3c1625c8	0.009164281
2	0x3c87ced4	0.016578116
3	0x3dca4bf6	0.0987777
4	0x3cb7e9d9	0.022450374
5	0x3ca32ec4	0.01991976
6	0x3d463caf	0.048397716
7	0x39eb23d5	0.0004484939
8	0x3bb45379	0.005503115
9	0x3c9b5f8f	0.018966464
10	0x3dd37063	0.103241704
11	0x3d050459	0.03247485
12	0x3d886901	0.06660653
13	0x3cd47a82	0.025937323
14	0x3ca97517	0.020685716
15	0x3b5b3ea8	0.0033454094
16	0x3921a40d	0.0001541527
17	0x3c1bdc44	0.009512965
18	0x3b07090e	0.0020604762
19	0x3c2db44f	0.010602071
20	0x3cf649f4	0.03006456
21	0x3c6b74b8	0.01437109
22	0x3c3bb58c	0.011456858
23	0x3bb20f24	0.005433934
24	0x3c9043c3	0.017610436
25	0x3979dfbf	0.00023829842
26	0x3be9c067	0.007133532
27	0x3c831c2d	0.016004646
28	0x3ac77931	0.0015218613
29	0x3d29211f	0.041291352
30	0x3c33f76f	0.010984286
31	0x3b2b3ea5	0.0026129868
32	0x3b295a66	0.0025841235
33	0x3a5ff8e7	0.0008543864
34	0x3d39b51f	0.045338746
35	0x3bd1d1d5	0.0064031878
36	0x3cec9f7d	0.028884644
37	0x39b84463	0.00035146167
38	0x3a8c5a98	0.0010708151
39	0x3cb7544d	0.022379065
40	0x3cf025ca	0.029314894
41	0x3d386afc	0.045023903
42	0x3c641c7b	0.013922806
43	0x3c858472	0.016298506
44	0x3ca407ca	0.020023245
45	0x3a32a3be	0.00068145606
46	0x3d105784	0.03523971
47	0x3afd3979	0.0019319496
48	0x3d64e909	0.055886302
49	0x3b0bac2b	0.0021312337
50	0x3c2d79da	0.010588134
51	0x3ceadb77	0.028669102
52	0x3cf845d2	0.03030673
53	0x3ca38b0c	0.019963764
54	0x3c2a442c	0.01039223
55	0x3cf81ae1	0.030286254
56	0x3d6082c5	0.05481221
57	0x3dac9c14	0.08428207
58	0x3d80f302	0.0629635
59	0x3b0bada5	0.0021313217
60	0x3d20c533	0.039250564
61	0x39e80c58	0.00044259685
62	0x3cb40712	0.021976028
63	0x3bcc62fe	0.0062373867
64	0x3c91c38b	0.017793437
65	0x3cc8a84c	0.024494313
66	0x3d01d301	0.03169537
67	0x3b16ace9	0.0022991246
68	0x3a2bfd88	0.00065609114
69	0x3b2bbed7	0.0026206279
70	0x3a029d3c	0.0004982536
71	0x3d500cae	0.050793342
72	0x3d33fcaf	0.04394215
73	0x3c78d992	0.015188592
74	0x3cc68110	0.024231464
75	0x3bf2c665	0.0074089044
76	0x3cc01a15	0.023449937
77	0x3d3cff22	0.04614175
78	0x3d0d8dec	0.034559175
79	0x3d8a11ff	0.06741714
80	0x3d8bdc1c	0.06829092
81	0x3c163e80	0.009170175
82	0x3e0aea98	0.13566053
83	0x3a0911cf	0.0005228789
84	0x3e3c780a	0.18405166
85	0x3d8448a9	0.06459171
86	0x3d307518	0.04308042
87	0x3baf234a	0.005344783
88	0x3c0670eb	0.008205633
89	0x3a2cf35c	0.00065975427
90	0x3cb3779e	0.021907624
91	0x3c2a9110	0.010410562
92	0x3b13440e	0.0022470984
93	0x3d5be451	0.053684536
94	0x3d9629b6	0.073321745
95	0x3d3e8e83	0.04652263
96	0x39176bff	0.00014440714
97	0x3c31ed4f	0.010859801
98	0x3bcee610	0.0063140467
99	0x3a8ba7ae	0.0010654831
100	0x3c55cfb1	0.013050006
101	0x3cdbbd2c	0.026823603
102	0x3a7a44af	0.0009546978
103	0x3d5f4b4a	0.05451516
104	0x3c2a16f8	0.010381453
105	0x3cd728f5	0.026264647
106	0x3c9d46ab	0.019198736
107	0x3a37e965	0.00070156745
108	0x3a0dc881	0.00054086006
109	0x3d080b62	0.03321398
110	0x3aee4a83	0.0018180165
111	0x3c419124	0.011814389
112	0x3cd61a25	0.026135514
113	0x3c6b9c75	0.014380564
114	0x3d8ed796	0.069747135
115	0x3c81657b	0.01579546
116	0x3c9c8814	0.019107856
117	0x3d690ef2	0.05689902
118	0x3d1b63bd	0.037936915
119	0x3c967735	0.01836739
120	0x3c011c8e	0.007880343
121	0x3d784fad	0.06062286
122	0x3aaf392b	0.0013368478
123	0x3beebdaa	0.0072857933
124	0x3b0175ce	0.0019754055
125	0x3d07e5ec	0.033178255
126	0x3c4481d7	0.011993847
127	0x39bf2fc1	0.00036465938

gnn_layers.0.gnn.att_i f4 [1, 1, 128]
0	0x3e6773bc	0.22602743
1	0xbe143901	-0.1447487
2	0x39e2b4c0	0.00043240748
3	0xbc524c66	-0.012835598
4	0xbb3312f1	-0.0027324522
5	0xbbda278f	-0.006657548
6	0xbc81c013	-0.015838658
7	0x3d1b9089	0.037979636
8	0x3bf49e5b	0.0074651665
9	0xbb41921f	-0.0029536558
10	0x3959dc22	0.00020776739
11	0xbbca41ee	-0.00617241
12	0x3de5d1df	0.1122167
13	0xbe0345e9	-0.12819637
14	0xbd507226	-0.05089011
15	0x3d04c743	0.032416593
16	0x3cd116fa	0.025523651
17	0xbe4fa6b0	-0.2027843
18	0x3c01d3bf	0.007924019
19	0xb9e1fe3a	-0.00043104758
20	0x3e15e93f	0.14639758
21	0x3c106f4e	0.0088156
22	0x3b161efd	0.0022906654
23	0xbccfd556	-0.025370281
24	0xbac65fa0	-0.00151347
25	0x3e3d1ef8	0.18468845
26	0x3b3035fd	0.0026887648
27	0xbd2b995d	-0.041894305
28	0x3cfaaa19	0.030598687
29	0xbcf658a5	-0.030071566
30	0xbb17ef5e	-0.0023183445
31	0x3cb5311f	0.02211815
32	0xb9d85847	-0.00041264502
33	0xbc2cad33	-0.010539341
34	0xba6ab117	-0.000895278
35	0xbaa98c85	-0.0012935555
36	0xbe6ca02b	-0.23107974
37	0x3ce910d6	0.02845041
38	0x3e8a87ad	0.27056637
39	0x37ac3e67	2.0533056e-05
40	0xbb9f9d21	-0.004871026
41	0xb9c641a2	-0.00037814403
42	0xbb74ff5f	-0.0037383658
43	0xbb48808d	-0.00305942
44	0x3a8db969	0.0010812703
45	0xbbd96d4b	-0.006635343
46	0xbc818779	-0.015811669
47	0x3dd4600b	0.10369881
48	0xb9b601f5	-0.00034715203
49	0x3c97d33c	0.018533342
50	0xbd2b9b05	-0.041895885
51	0x3d3aee7a	0.045637585
52	0xbc281ba0	-0.010260493
53	0x3a40b627	0.00073513616
54	0x3dc09e1c	0.09405157
55	0xbd0c4965	-0.034249682
56	0xbab92fa4	-0.0014128578
57	0xbbefd003	-0.007318498
58	0xbbec9ce2	-0.0072208503
59	0x3bb03740	0.00537768
60	0xbbbe61fa	-0.0058100196
61	0x3c86bebf	0.016448377
62	0x3d5aefdb	0.0534514
63	0xbbb4beb8	-0.0055158995
64	0xba33dcd0	-0.0006861212
65	0xbdf699d2	-0.12041058
66	0x3ba78321	0.0051120673
67	0x3ccd9101	0.025093557
68	0x3ca2e29e	0.01988345
69	0x3cfbdd28	0.030745104
70	0xbd3b3df9	-0.0457134
71	0xbb5f7b8e	-0.0034100744
72	0x3db09f5b	0.08624145
73	0x3b803987	0.003913108
74	0x3e74946f	0.23884748
75	0x3cbe8613	0.023257291
76	0xbe5d2b16	-0.21598467
77	0xbdf387b1	-0.118911155
78	0x3a273133	0.00063778757
79	0x3a05e86f	0.00051081827
80	0x3b7af223	0.0038291297
81	0xbda14bfc	-0.07875821
82	0xbbd07394	-0.0063614342
83	0x3d5fcf16	0.054640852
84	0xbb043efc	-0.0020179143
85	0x3b66940a	0.0035183453
86	0xbe4c05c5	-0.19924076
87	0x3b8ee058	0.00436024
88	0x3c815b94	0.015790738
89	0x3c171746	0.009221857
90	0xbbcffcb5	-0.0063472637
91	0x3c86c2d2	0.01645032
92	0x3c322c41	0.010874809
93	0xbc0af6eb	-0.008481721
94	0xbc25b2c2	-0.01011342
95	0x3f16540c	0.58721995
96	0xbdb07f02	-0.08617975
97	0xbddb6c37	-0.10714
98	0x3b094dd9	0.0020950942
99	0x3e13af10	0.1442225
100	0xbbb96a83	-0.005658449
101	0xbd0f9257	-0.03505167
102	0x3ca66b73	0.020314908
103	0x3c85ee82	0.016349081
104	0x3dcffd45	0.10155729
105	0xbb94d5db	-0.004542095
106	0xbb744c1b	-0.0037276808
107	0xbd70daf8	-0.058802575
108	0xbc4603e0	-0.012085885
109	0xb9e378f1	-0.00043386922
110	0xba1a69c0	-0.0005890392
111	0x3c5511f1	0.013004766
112	0x3d95c6b3	0.073132895
113	0x3d662665	0.05618896
114	0x3b9df4e5	0.0048204535
115	0xbcf1b492	-0.029505048
116	0xbbc02720	-0.005864039
117	0x3aec5a48	0.0018032277
118	0x3bb53373	0.005529815
119	0xbc1ca934	-0.009561826
120	0x3bf377e4	0.0074300636
121	0x3e24160e	0.16024038
122	0x3cebb9e8	0.02877517
123	0xbb7d8ccd	-0.003868866
124	0x3b085c78	0.0020807069
125	0x3b07d7f6	0.0020728088
126	0x3d9e9558	0.07743329
127	0x3d77b5b8	0.060476035

gnn_layers.0.gnn.att_j f4 [1, 1, 128]
0	0x3da5e27b	0.08099838
1	0x3ce65359	0.028115915
2	0xbcb2b5a3	-0.021815127
3	0xbc903414	-0.017602958
4	0x3c084159	0.008316361
5	0xbd02cf36	-0.031935893
6	0xbc93621b	-0.017991116
7	0xbd0e0e89	-0.03468183
8	0xbc22fd17	-0.009948037
9	0xbbec28b7	-0.007207002
10	0x39bd793d	0.0003613922
11	0x3a418702	0.00073824835
12	0x3d4738b4	0.04863806
13	0xbb143fe9	-0.0022621101
14	0x3c2f7c5c	0.010710802
15	0x3c86a563	0.016436284
16	0x3b24db39	0.002515508
17	0xbcbe0877	-0.023197396
18	0x3c48aded	0.012248498
19	0xbb2f5e10	-0.0026758946
20	0xbcd09787	-0.025462879
21	0x39e3fdc8	0.00043485896
22	0x3c9afa40	0.018918157
23	0xbce91c65	-0.028455922
24	0x3d0c81da	0.034303524
25	0x3d49a98f	0.04923397
26	0xbbfda681	-0.007740796
27	0xbd86f380	-0.06589413
28	0x3d1ce456	0.038303696
29	0x3c4dc85c	0.012559976
30	0xbbd371a2	-0.006452755
31	0x3cb5aafc	0.022176258
32	0xbc0ae207	-0.008476741
33	0x3bd9287c	0.0066271406
34	0xbd01adec	-0.031660005
35	0x3ba1c563	0.0049368604
36	0xbdfde2f3	-0.12396803
37	0x3d0c5082	0.034256466
38	0xbca92553	-0.02064768
39	0xbca710fc	-0.020393841
40	0xbcbe249a	-0.023210812
41	0x3b56255f	0.0032676084
42	0xbca51ddf	-0.020155845
43	0xbb8c60c1	-0.004283995
44	0xbb94d329	-0.004541774
45	0xbc2941cb	-0.010330628
46	0x3cb84b5b	0.02249687
47	0x3dc9776b	0.0983723
48	0xbc97d365	-0.018533418
49	0x3cc8f0be	0.024528857
50	0x3cc8c79a	0.02450924
51	0xb919acbc	-0.00014655566
52	0xbc99debe	-0.01878297
53	0xbd22e1bf	-0.03976607
54	0xb9c10a8d	-0.0003681969
55	0xbb08ebef	-0.002089258
56	0x3b254db7	0.0025223324
57	0xbcc5e6ce	-0.024157908
58	0xbc0d73b8	-0.0086335465
59	0xbbc9fd7d	-0.0061642514
60	0xbbfb8c61	-0.0076766466
61	0x3d1e55fe	0.038656227
62	0x3bcee358	0.0063137226
63	0x3c546db9	0.012965613
64	0xbade8b87	-0.0016978838
65	0xbd477a46	-0.048700593
66	0xbcc0ce51	-0.02353588
67	0x3d3cb530	0.04607123
68	0x3cb18e9e	0.02167445
69	0x3d57a261	0.05264509
70	0x3d638be4	0.055553332
71	0x3c31e74d	0.010858369
72	0xbc997b7e	-0.018735643
73	0xbc852f01	-0.016257765
74	0x3a400ac6	0.0007325824
75	0x3c7ee37a	0.015557164
76	0x3d85d7f6	0.06535332
77	0xbd36f3a5	-0.04466595
78	0xbbda42ff	-0.0066608186
79	0xbc65cd50	-0.014026001
80	0xbb640f6f	-0.0034799238
81	0x3d874b57	0.06606167
82	0xbd133037	-0.035934653
83	0x3d8bdccd	0.06829224
84	0xba48a110	-0.0007653395
85	0xbb8f85a9	-0.004379947
86	0xbd4c2a50	-0.04984504
87	0xbb3a6412	-0.0028440994
88	0xbc601966	-0.01367793
89	0x3bc3c697	0.0059746015
90	0xbcd9c80b	-0.026584646
91	0x3ca8284c	0.020527028
92	0x3c424d89	0.011859306
93	0xbc5d7397	-0.013516328
94	0x3c742046	0.014900273
95	0xbda82081	-0.08209325
96	0x3d8a1b1a	0.067434505
97	0xbdccea6f	-0.10005652
98	0xbc00716b	-0.007839541
99	0xbd334ccc	-0.04377441
100	0x3cf5c52a	0.030001242
101	0xbd48201c	-0.048858747
102	0x3dc2559a	0.094889835
103	0xbcd9967b	-0.026561012
104	0x3cae986b	0.021312913
105	0xbbbe4b8d	-0.005807346
106	0xbcb95852	-0.022625122
107	0x3d9d0a08	0.07667929
108	0xbd0567f3	-0.032569837
109	0x3cd7bfe6	0.026336621
110	0x3b9c9952	0.0047790194
111	0x3c3de664	0.011590574
112	0xbcca730a	-0.024713058
113	0xbb243371	-0.0025055076
114	0xbce28446	-0.027650964
115	0xbd3e8a56	-0.046518646
116	0xbb85a98e	-0.0040790504
117	0xbbcfbdcd	-0.0063397647
118	0xbb56306e	-0.0032682675
119	0xbc643055	-0.013927539
120	0x3d25e378	0.040500134
121	0xbddc5b6b	-0.10759624
122	0x3c783329	0.015148916
123	0x3b50647a	0.003179817
124	0x39bf4f79	0.0003648957
125	0x3c6e1396	0.014531037
126	0x3d231822	0.039817937
127	0x3dadbde9	0.08483488

gnn_layers.0.gnn.att_em_i f4 [1, 1, 128]
0	0x3e0ddc72	0.13853624
1	0x3eae5502	0.3404923
2	0x3d078c51	0.0330928
3	0xbd9dfbec	-0.07714066
4	0x3e36b129	0.17841019
5	0x3e7aa1ac	0.24475735
6	0x3cf8d7b9	0.030376302
7	0xbb43fe0b	-0.002990606
8	0xbdb036a1	-0.0860417
9	0xbcf44957	-0.029820127
10	0x3e2665bf	0.1624975
11	0xbe436fa4	-0.19085556
12	0xbe30561b	-0.17220347
13	0x3e271389	0.16316046
14	0xbe3e7170	-0.1859796
15	0x3defd960	0.11711383
16	0xbcbffbef	-0.023435561
17	0xbecef4ab	-0.40421042
18	0xbcc6428e	-0.024201658
19	0xbe4f8431	-0.20265271
20	0xbe7a527d	-0.2444553
21	0x3e56c863	0.20974879
22	0x3ed01c1f	0.40646455
23	0xbe989008	-0.29797387
24	0x3d036e04	0.03208734
25	0xbdaf52cd	-0.08560715
26	0x3ecd5acd	0.40108338
27	0xbbe9c88f	-0.007134504
28	0x3cc6befd	0.024260992
29	0xbe6eb073	-0.23309498
30	0xbe16b358	-0.14716852
31	0xbb509966	-0.0031829714
32	0xbdcfde1c	-0.10149786
33	0xbda3c1c7	-0.079959445
34	0x3ee99c79	0.45627192
35	0xbc52f1b9	-0.012875014
36	0x3eb8f2ee	0.3612284
37	0xbd039c35	-0.032131393
38	0xbbfd32c8	-0.007727001
39	0x3f140337	0.57817405
40	0xbcd28084	-0.025696047
41	0xbdb07a04	-0.08617023
42	0x3dfb8eac	0.12283072
43	0x3cc2164f	0.023692278
44	0x3e71b69a	0.23604813
45	0xbdba0f01	-0.09084893
46	0xbe6afd63	-0.22948222
47	0x3cb20edd	0.021735603
48	0x3e484295	0.19556649
49	0xbc052ee2	-0.0081288535
50	0x3e17fe62	0.14843133
51	0xbe9e43c0	-0.30911064
52	0x3e0d7543	0.13814263
53	0x3e6b05f2	0.22951487
54	0x3e3adba3	0.18247847
55	0xbe5350d9	-0.2063631
56	0x3d5ca5f7	0.053869214
57	0xbf30c7da	-0.6905495
58	0xbe16af45	-0.14715298
59	0xbd2842e0	-0.041079402
60	0x3cfb6587	0.03068806
61	0xbb2827d6	-0.002565851
62	0xbf4e193e	-0.80507267
63	0x3e939734	0.28826296
64	0x3ea1a67f	0.3157234
65	0x3f0ff1ee	0.5622853
66	0xbc26b3a6	-0.010174667
67	0x3d72f673	0.059317064
68	0x3d944a1a	0.07240696
69	0x3e24b3e8	0.16084254
70	0xbd570990	-0.052499354
71	0x3c658a18	0.014009975
72	0xbe986e98	-0.29771876
73	0x3c4d74e2	0.012540074
74	0xbceec57d	-0.029146904
75	0xbe546dd0	-0.20745015
76	0xbdb3597a	-0.08757301
77	0xbdfc68c5	-0.12324671
78	0x3c400da4	0.011722002
79	0xbe1b3da5	-0.15160234
80	0x3d054acf	0.032542046
81	0xbdcffc31	-0.101555236
82	0xbd27e34c	-0.04098825
83	0xbc1e831b	-0.009674813
84	0x3e0fec61	0.14055015
85	0x3ad2e39e	0.0016089564
86	0x3cb1b897	0.021694465
87	0x3d4185e8	0.047246844
88	0xbdd9b50e	-0.106302366
89	0xbc3ef48b	-0.011654983
90	0x3de7be45	0.11315588
91	0xbe1995b7	-0.14998518
92	0x3c9d0498	0.01916723
93	0x3e1aee4c	0.15129966
94	0xbdad6f47	-0.0846849
95	0xbea4b889	-0.3217204
96	0xbdc6e9ad	-0.09712539
97	0x3c847439	0.0161687
98	0x3e777901	0.24167253
99	0xbdd694ac	-0.10477576
100	0x3e94672e	0.2898497
101	0xbea7e63f	-0.3279285
102	0x3ee8f994	0.45502913
103	0xbc24b896	-0.010053774
104	0x3dc94ba1	0.09828878
105	0x3e7c1c4d	0.24620171
106	0x3db86560	0.09003711
107	0xbce071da	-0.027398039
108	0xbe0bd721	-0.13656284
109	0xbd5d8594	-0.05408247
110	0xbd1f32c8	-0.03886679
111	0x3f347b21	0.7050038
112	0xbd845133	-0.064608
113	0xbe5c8c7c	-0.21537966
114	0x3e3c2e51	0.18377043
115	0xbdd8d31f	-0.10587143
116	0xbdef777e	-0.11692713
117	0xbe6a54a6	-0.22883853
118	0xbdb6920d	-0.08914576
119	0xba8ebc60	-0.001088988
120	0xbd867f80	-0.065672874
121	0xbe726597	-0.23671566
122	0xbd1114ca	-0.035420217
123	0x3d1fd249	0.039018903
124	0xbdea9d50	-0.11455786
125	0x3c3643b1	0.011124537
126	0x3e044b21	0.12919284
127	0x3d84de81	0.06487752

gnn_layers.0.gnn.att_em_j f4 [1, 1, 128]
0	0xbf42f92d	-0.7616146
1	0x3f1e622e	0.6186856
2	0x3db8456e	0.08997618
3	0xbdf14c2d	-0.117821075
4	0x3cf97918	0.03045325
5	0xbea1ffaf	-0.31640384
6	0xbeae1943	-0.34003648
7	0xbda63267	-0.08115082
8	0xbbec6d0c	-0.007215148
9	0xbebac387	-0.364773
10	0xbe8278d9	-0.25482824
11	0x3dabf3be	0.083960995
12	0xbc1b7cdb	-0.009490217
13	0xbe8a09ae	-0.2696051
14	0x3d0491c2	0.032365568
15	0xbeaa51e7	-0.33265612
16	0xbd2951c1	-0.041337732
17	0xbf0dac8d	-0.55341417
18	0xbebeb46e	-0.37247032
19	0x3f0bca83	0.54605883
20	0xbf01da60	-0.5072384
21	0xbc99b513	-0.0187631
22	0xbd87019a	-0.06592102
23	0xbd8ad0c8	-0.06778103
24	0x3c5e3039	0.013561302
25	0x3f416fdc	0.7556131
26	0x3c95fab4	0.018308021
27	0xbecb1e4b	-0.3967155
28	0xbe81bc18	-0.25338817
29	0x3ebd0f93	0.36925945
30	0xbebedf53	-0.37279758
31	0x3e29749d	0.1654839
32	0x3d7b9188	0.061418086
33	0x3f347078	0.70484114
34	0xbf2f48e1	-0.6847058
35	0xbde41dbe	-0.11138485
36	0xbdd4a7fa	-0.103836015
37	0xbf26c4ea	-0.65144217
38	0x3e148954	0.14505512
39	0xbead8b4a	-0.33895332
40	0x3e57cb13	0.2107356
41	0x3bac6bac	0.005261859
42	0x3ca2212e	0.019791212
43	0xbe86d8ce	-0.26337284
44	0xbea0a692	-0.31377083
45	0x3d8ccf7e	0.068755135
46	0x3e4a43ef	0.19752477
47	0xbe330212	-0.17481259
48	0xbdee272f	-0.116285674
49	0xbe41ca68	-0.18924868
50	0xbbb74251	-0.0055926223
51	0x3d705e06	0.058683418
52	0xbed7b382	-0.4212914
53	0xbe2ce179	-0.16882886
54	0xbddd0d04	-0.10793498
55	0x3eacd841	0.3375874
56	0xbba285c5	-0.004959794
57	0x3f8af3e0	1.0855675
58	0xbe72d601	-0.23714449
59	0x3ead7e2c	0.33885324
60	0xbd8e15af	-0.069377296
61	0x3c918966	0.017765712
62	0xbd023b5e	-0.0317949
63	0x3dd7ae7e	0.105313286
64	0xbefa3860	-0.48871136
65	0xbe8d0bf1	-0.27548173
66	0xbdee12ae	-0.116246566
67	0xbe679c98	-0.2261833
68	0xbced9bab	-0.029004892
69	0xbed8ce8f	-0.42345092
70	0xbf0cfe2b	-0.5507533
71	0x3e98260c	0.29716527
72	0xbea21a66	-0.31660765
73	0xbb1500c2	-0.0022736047
74	0xbef38fba	-0.47570592
75	0x3ea33b6d	0.31881276
76	0x3ef75c7c	0.48312747
77	0xbeefae6e	-0.46812767
78	0x3c566bb7	0.013087205
79	0x3ee53d36	0.44773263
80	0xbce250c3	-0.0276264
81	0x3f8c993d	1.0984265
82	0x3f242f1e	0.64134395
83	0xbdb652a7	-0.089024834
84	0xbcb99858	-0.022655651
85	0x3da46f86	0.08029084
86	0xbbcd8f52	-0.0062731886
87	0xbef36716	-0.47539586
88	0x3dcd084c	0.10011348
89	0xbd322fc9	-0.043502603
90	0xbcdcddb0	-0.026961178
91	0x3f682cab	0.9069316
92	0xbea92809	-0.33038357
93	0xbf3b755f	-0.7322597
94	0xbccd45cc	-0.025057696
95	0xbf0313b1	-0.5120192
96	0x3e036acb	0.12833707
97	0xbbe98197	-0.007126044
98	0x3d0af037	0.033920493
99	0xbec70ac2	-0.38875395
100	0xbc0ac832	-0.008470582
101	0xbee4b0ea	-0.44666225
102	0xbe839bf6	-0.25704926
103	0xbd500970	-0.05079025
104	0xbea25058	-0.31701922
105	0x3f3e883b	0.7442662
106	0xbb935a85	-0.0044968748
107	0xbde46d2e	-0.11153637
108	0xbecd5836	-0.40106362
109	0x3e854e95	0.26036516
110	0xbeb94e8d	-0.36192742
111	0xbe31f39d	-0.17378087
112	0xbee03b85	-0.4379541
113	0xbd94f06c	-0.07272419
114	0xbd822206	-0.06354146
115	0xbe7d5c09	-0.2474214
116	0x3e49fd27	0.19725476
117	0x3ec11968	0.37714696
118	0x3ec0e8e2	0.37677675
119	0xbb1c75a7	-0.0023873837
120	0x3f4c6f4b	0.7985732
121	0xbe877380	-0.26455307
122	0x3efba4a1	0.4914904
123	0x3c4c260e	0.012460245
124	0x3e77f89b	0.24215929
125	0x3e8cd0a0	0.27502918
126	0xbe4771de	-0.1947703
127	0xbe4835e2	-0.19551805

gnn_layers.0.gnn.bias f4 [128]
0	0x3d000399	0.03125343
1	0xbc674d80	-0.0141175985
2	0xbb8f835f	-0.0043796743
3	0xba7ca434	-0.0009637505
4	0xbb8a763d	-0.004225521
5	0xbbf6dc3d	-0.0075335787
6	0xbba54ad0	-0.0050443187
7	0xbbb3ee37	-0.005491044
8	0xba84952e	-0.001011526
9	0xbb531e83	-0.0032214231
10	0xbb5ce2d5	-0.0033704538
11	0xbba49e29	-0.005023737
12	0xbbe32f86	-0.0069331555
13	0xbb847593	-0.0040423363
14	0x3b4224c1	0.0029623958
15	0xbbb68e4c	-0.0055711623
16	0x3d1012a3	0.035174023
17	0xbc08f79c	-0.008359816
18	0xba93b9ce	-0.0011270584
19	0xba4a33e3	-0.000771342
20	0x3a29395c	0.00064553856
21	0x3c3b9e09	0.011451253
22	0x3c686328	0.014183797
23	0xbc483c1e	-0.012221364
24	0x3abe2089	0.0014505546
25	0xbb341b0b	-0.002748194
26	0xbc3e4d82	-0.011615159
27	0xbc1ddecb	-0.0096356375
28	0xba8c3b39	-0.0010698802
29	0x3b848c67	0.0040450576
30	0x3aed44b7	0.0018102144
31	0xbc150c03	-0.009097102
32	0xbb0ace31	-0.0021180029
33	0xba0bb84a	-0.00053298904
34	0xbc1770ec	-0.009243231
35	0x3b2589b9	0.002525909
36	0xbc3a8a61	-0.011385531
37	0xbbfae9a1	-0.0076572453
38	0xbacda51f	-0.0015689469
39	0xbba811d7	-0.00512908
40	0xbb43920b	-0.0029841687
41	0xb9c1c6b9	-0.00036959889
42	0xbb1e5990	-0.002416227
43	0xbb020db8	-0.0019844603
44	0xbbb53bcd	-0.0055308104
45	0xbac88fa6	-0.00153016
46	0xbb571ebc	-0.0032824716
47	0xbb3387c4	-0.0027394155
48	0xbbc9f061	-0.0061626886
49	0xbb552698	-0.0032524224
50	0x3bb71120	0.0055867583
51	0x3cbdee31	0.023184868
52	0xbc1d23f8	-0.009591095
53	0xbbed14e3	-0.007235156
54	0x3c653ba0	0.0139912665
55	0x39b73057	0.00034940496
56	0x3c27b5dd	0.010236231
57	0xbbac5c0f	-0.0052599977
58	0x39c1e8f4	0.00036985392
59	0xbc2399ca	-0.009985397
60	0xbbd81cfe	-0.006595253
61	0x3c9ed9bd	0.019390935
62	0x3b699fa0	0.0035648122
63	0x3c13811f	0.009002953
64	0xbba480b4	-0.0050202254
65	0xbc0380d8	-0.008026324
66	0xb9ea1903	-0.00044650593
67	0xbaeef9a2	-0.0018232355
68	0x3c3d268a	0.011544833
69	0xbc380ca6	-0.011233484
70	0xbca7b5da	-0.020472456
71	0x3ba4e014	0.005031595
72	0x3b4c5138	0.003117634
73	0xbc1ae2ce	-0.0094534885
74	0xbb0dc4db	-0.0021632228
75	0x3b280726	0.0025639026
76	0xbb17ad93	-0.002314423
77	0xbb5268b4	-0.0032105865
78	0xbc10872f	-0.008821293
79	0xbb3e885b	-0.0029072973
80	0x3cb807d8	0.022464678
81	0xbb493fa7	-0.0030708106
82	0x3cbc3fa0	0.022979558
83	0xbd0f2efd	-0.03495692
84	0xbb206b54	-0.0024478035
85	0xbbc8d4d6	-0.0061288876
86	0xbb1a00ac	-0.0023498936
87	0xbb30708c	-0.0026922552
88	0xb8cb06cc	-9.68106e-05
89	0xbc2e9de8	-0.010657765
90	0xbbf4cb06	-0.0074704913
91	0xbc03e5ab	-0.008050363
92	0xbb614d23	-0.0034378252
93	0xbb969264	-0.004595088
94	0x38b8680d	8.793185e-05
95	0xbc853ec4	-0.01626528
96	0x3d1a8080	0.037720203
97	0xbbd79f43	-0.006580265
98	0xbc3812eb	-0.011234979
99	0xbbce152f	-0.0062891464
100	0x3c69ea10	0.014276996
101	0x3c8c9f32	0.017165754
102	0xbc3f387d	-0.011671183
103	0x3a4332d5	0.0007446234
104	0x3bbda33d	0.005787282
105	0x3bb932ce	0.0056518083
106	0xbaac983a	-0.0013167926
107	0xbb3471fc	-0.002753376
108	0xbb2cd493	-0.0026371821
109	0x3b009988	0.0019622762
110	0xbbf1be97	-0.0073774564
111	0x3bcb5d73	0.0062062084
112	0xbb056b81	-0.0020358267
113	0xbc347b89	-0.011015781
114	0xbc026ca4	-0.007960472
115	0xbaa39fa6	-0.0012483492
116	0xb8e8369f	-0.00011072796
117	0x3ae664d8	0.0017577661
118	0xbbec2dba	-0.0072075995
119	0xbbf67743	-0.0075215413
120	0xba0cec28	-0.0005375766
121	0xbadb75d2	-0.0016743487
122	0xbc059cf9	-0.008155101
123	0x3c175773	0.009237158
124	0xbc0e9ff0	-0.008705124
125	0xbb23ad28	-0.0024975035
126	0x3c3b115b	0.011417712
127	0x3cad4b5a	0.021154094

gnn_layers.0.gnn.lin.weight f4 [128, 150]
0	0xbe6295cd	-0.22127457
1	0xbe4f39e4	-0.20236927
2	0xbe481a7a	-0.1954135
3	0xbbd24148	-0.0064164735
4	0xbb7f2927	-0.003893444
5	0xbccd1769	-0.025035577
6	0xbc57fdec	-0.013183098
7	0xbe604781	-0.21902277
8	0xbca52405	-0.020158777
9	0x3c354c2a	0.011065522
10	0xbe35562f	-0.17708658
11	0xbe09e4af	-0.13466142
12	0xbd2205b8	-0.039556235
13	0xbc4f76d6	-0.01266261
14	0xbd42f429	-0.04759613
15	0xbcfa361d	-0.030543381
16	0xbe1590e0	-0.14606047
17	0xbdb1fb7a	-0.086905435
18	0xbe3eddaa	-0.18639246
19	0x3a85d0d7	0.0010209334
20	0xbc10d537	-0.008839897
21	0xbca5a25a	-0.020219017
22	0xbe44dc94	-0.19224769
23	0xbcfdd7c8	-0.030986682
24	0xbcaabca9	-0.020841913
25	0xbc3bfe43	-0.011474195
26	0xbca2cbb2	-0.01987252
27	0xbc8a86c8	-0.016909972
28	0xbde32ecd	-0.11092911
29	0x3b31a2c7	0.002710508
30	0xbe7d0470	-0.24708724
31	0xbe8224c5	-0.25418678
32	0xbe1f82b5	-0.15577205
33	0xbe2bbab7	-0.16770445
34	0xbc4de3d2	-0.012566524
35	0xbd1f7a6f	-0.03893512
36	0xbe275410	-0.16340661
37	0xbc879340	-0.016549706
38	0xbe3fe8ad	-0.18741103
39	0xbcabb7b5	-0.020961622
40	0xbe0c72aa	-0.13715616
41	0xbcea44d4	-0.028597273
42	0xbc93caa1	-0.018040957
43	0xbd5ee227	-0.054414894
44	0xbd5bc1db	-0.05365167
45	0xbd86e910	-0.06587422
46	0xbca0b17c	-0.019615881
47	0x3a969172	0.0011487438
48	0xbdc6ebb7	-0.09712928
49	0xbc95ba80	-0.018277407
50	0xbc253e5a	-0.010085667
51	0xbc4d53cf	-0.012532189
52	0xbc71a80b	-0.014749537
53	0xbd46edca	-0.048566617
54	0xbddd506a	-0.108063534
55	0xbdcda504	-0.1004124
56	0xbc8bb302	-0.017053131
57	0x3ad56560	0.0016280822
58	0xbc904dde	-0.017615255
59	0x3a7889bc	0.0009480973
60	0xbdf99a75	-0.121876635
61	0xbd2b0629	-0.04175392
62	0xbbe04019	-0.0068435785
63	0xbd8d8dfd	-0.06911848
64	0xbe0a8637	-0.13527761
65	0xbb784267	-0.0037881376
66	0xbd76fbe4	-0.060298815
67	0xbccfbff9	-0.025360094
68	0xbca2c3cc	-0.019868754
69	0xbc6f4674	-0.0146042
70	0xbd075cfc	-0.03304766
71	0xbdc90ca3	-0.098168634
72	0xbba06747	-0.004895124
73	0xbe0db5a6	-0.13838825
74	0xbc380659	-0.011231982
75	0xbe016ef6	-0.12639984
76	0xbdb7bd11	-0.089716084
77	0xbc26abdb	-0.0101728095
78	0xbb3636b7	-0.0027803609
79	0xbd2e8e89	-0.0426164
80	0xbdb58ce2	-0.08864762
81	0xbd1dc51d	-0.03851806
82	0xbd6a8a34	-0.057260707
83	0xbd359031	-0.044326965
84	0xbe03ed41	-0.12883474
85	0xbd152945	-0.03641631
86	0xbc706c80	-0.014674306
87	0xbc2da632	-0.010598706
88	0xbc847da5	-0.016173193
89	0x3b66e8d8	0.0035234
90	0xbe1a7f9d	-0.15087743
91	0xbe0cb1cc	-0.13739699
92	0xbda922fc	-0.08258626
93	0xbd3d0c88	-0.04615453
94	0xbe689dd3	-0.22716455
95	0x3b724d64	0.0036972398
96	0xbd12f0cb	-0.03587417
97	0xbd5080e2	-0.050904162
98	0x3d029248	0.031877786
99	0xbe060dd8	-0.13091218
100	0xbcf5d557	-0.030008955
101	0xbc38f771	-0.011289463
102	0xbc669816	-0.014074346
103	0xbb94a94a	-0.0045367824
104	0xbe6700a6	-0.22558841
105	0xbb25c911	-0.0025296847
106	0xbd5339ef	-0.05156892
107	0xbcafe8e6	-0.02147336
108	0x3b235989	0.0024925193
109	0xbc4c8f32	-0.012485312
110	0xbdf52647	-0.119701914
111	0xbc2734b3	-0.010205436
112	0xbc67a62d	-0.0141387405
113	0xbc502b6d	-0.012705666
114	0xbe0b13c1	-0.13581754
115	0xbe2c9c22	-0.16856435
116	0xbdb1a038	-0.086731374
117	0xbc9b6a47	-0.018971575
118	0xbcd0f760	-0.025508583
119	0x3b0d070d	0.0021519095
120	0xbe7ebbbf	-0.24876307
121	0xbd972020	-0.07379174
122	0xbcaa7e75	-0.020812253
123	0x3b16967f	0.0022977886
124	0xbd78a62f	-0.06070536
125	0xbc1737af	-0.009229585
126	0xbc727f81	-0.014800907
127	0xbc1bb521	-0.009503634
128	0xbd4d53cb	-0.05012874
129	0xbdd26c51	-0.10274566
130	0xbe37d4f5	-0.1795233
131	0xbe050563	-0.12990336
132	0xbc78b37c	-0.015179511
133	0xbe0ab52f	-0.13545679
134	0xbe0c53b0	-0.13703799
135	0xbeb24aeb	-0.34822783
136	0xbd8dab1b	-0.069174014
137	0xbcd1973d	-0.025584811
138	0xbe07a533	-0.13246612
139	0xbc0b2d01	-0.0084946165
140	0xbec5f6d4	-0.38664877
141	0xbd734ac3	-0.05939747
142	0xbe632521	-0.22182132
143	0xbd5eb317	-0.054370012
144	0xbdf98f79	-0.12185568
145	0xbe9fb605	-0.31193557
146	0xbc09de25	-0.00841478
147	0xbe18578a	-0.14877144
148	0xbef10b96	-0.47079152
149	0xbfa66e18	-1.3002348
150	0x3e7eb0c9	0.24872126
151	0x3e7b1df5	0.24523146
152	0x3e9cf369	0.30654457
153	0x3d6ed822	0.05831159
154	0x3d2494c5	0.04018094
155	0x3e05d92b	0.13071124
156	0x3e271bbd	0.16319175
157	0x3e8344be	0.25638384
158	0x3e453473	0.19258289
159	0xbbc4bb81	-0.0060037975
160	0x3e93c0f1	0.2885814
161	0xbcd4d70b	-0.025981447
162	0x3e3b8841	0.18313695
163	0xbc298bc3	-0.010348263
164	0xbd558fc9	-0.052139077
165	0x3dca90ef	0.09890925
166	0x3d22a509	0.03970817
167	0x3deb4c96	0.11489217
168	0x3d8439fb	0.064563714
169	0xbb5e21ec	-0.003389473
170	0x3e1f2581	0.1554165
171	0x3db0746e	0.08615957
172	0xbcd2be2e	-0.02572545
173	0x3da2a2c9	0.07941205
174	0x3dace41d	0.08441947
175	0x3d0cf134	0.034409717
176	0xbd9deadc	-0.077108115
177	0xbda1adf3	-0.07894506
178	0xbd9d6fa6	-0.07687311
179	0xbe513e14	-0.20433837
180	0x3e90337d	0.28164282
181	0x3e12d880	0.143404
182	0x3cf1ef56	0.02953307
183	0x3e20b48a	0.1569387
184	0xbd68efb2	-0.056869216
185	0xbc67677f	-0.0141237965
186	0x3cb5a858	0.022175
187	0xbe067e9c	-0.13134235
188	0x3daade00	0.083431244
189	0xbe17404d	-0.14770623
190	0x3e459fae	0.19299194
191	0x3e03b4d3	0.12861948
192	0xbe179557	-0.14803062
193	0x3db3544d	0.087563135
194	0xbe2bf6c2	-0.1679335
195	0xbcc18b04	-0.023625858
196	0x3d6920f8	0.056916207
197	0x3d8bbfc0	0.06823683
198	0x3e319897	0.17343365
199	0xbe1d367d	-0.15352817
200	0x3e19c6f6	0.15017304
201	0xbdd4e233	-0.103947066
202	0xbd2cada7	-0.042157795
203	0x3e043b82	0.12913325
204	0xbda453b6	-0.08023779
205	0xbda2767c	-0.07932755
206	0xbc5582c6	-0.013031667
207	0xbdaf8861	-0.08570934
208	0xbd490d26	-0.049084805
209	0xbe088d9b	-0.13335268
210	0x3d975a6c	0.073902935
211	0xbd16fce4	-0.03686227
212	0x3d011610	0.03151518
213	0x3e511250	0.20417142
214	0x3c91246b	0.01771756
215	0xbd7b02d9	-0.061282013
216	0xbcc5dd1d	-0.024153287
217	0xbdbe50d6	-0.09292762
218	0xba02c2e0	-0.0004988145
219	0xbe198de3	-0.14995532
220	0x3e0a9721	0.13534214
221	0x3d097ac3	0.03356434
222	0x3ca313f0	0.019906968
223	0xbc36425b	-0.011124219
224	0xbda751da	-0.08169909
225	0x3d5e8c6e	0.054333143
226	0xbd0c1633	-0.03420086
227	0xbb45dc22	-0.0030191024
228	0xbd01480b	-0.031562846
229	0xbd83f929	-0.06444008
230	0x3e8288bb	0.25494942
231	0xbe0528ba	-0.13003817
232	0xbd29683e	-0.04135918
233	0xbd3d6f86	-0.046248935
234	0xbd0a0c19	-0.033702943
235	0xbdac2620	-0.08405709
236	0xbd83a7b4	-0.06428471
237	0xbce707fb	-0.028202048
238	0xbba0fe8f	-0.0049131582
239	0xbdd9dccc	-0.10637817
240	0x3e93e55e	0.2888593
241	0x3daa7210	0.08322537
242	0x3bcb754b	0.006209051
243	0xbdea3901	-0.11436654
244	0x3bbce3c5	0.005764457
245	0x3cab9d86	0.020949136
246	0x3c2a969c	0.010411885
247	0xbdf73ca2	-0.12072112
248	0xbd6c6915	-0.0577174
249	0x3c99fd3a	0.018797506
250	0x3d9e837b	0.07739922
251	0xbde9aa34	-0.11409417
252	0x3c80b264	0.015710063
253	0xbd426f21	-0.047469262
254	0x3dbd1a10	0.09233487
255	0xbd58263b	-0.052770834

gnn_layers.0.bn.weight f4 [128]
0	0x3f87c5d8	1.0607252
1	0x3f0aa246	0.5415386
2	0x3e0e8e33	0.13921432
3	0x3fb02b4f	1.3763217
4	0xbe349430	-0.17634654
5	0x3e25af0f	0.16180061
6	0x3ea533e7	0.3226616
7	0x3f940d7f	1.1566619
8	0x3f168ef3	0.58811873
9	0x3e5538e4	0.20822483
10	0x3b616295	0.0034391035
11	0x3e8186fb	0.25298294
12	0x3ef50ae1	0.47859862
13	0x3de6eadc	0.112752646
14	0x3f25c9f1	0.64761263
15	0x3f647a38	0.8924899
16	0x3f32e836	0.69885576
17	0x3f8e0eef	1.1098307
18	0x3f8fd33a	1.1236336
19	0x3eb55aa3	0.35420713
20	0x3eb2c4be	0.34915727
21	0x3e33ea48	0.1756984
22	0x3e1f6a95	0.15568002
23	0x3f27d072	0.6555244
24	0x3f9f5953	1.2449135
25	0x3f60864f	0.8770494
26	0xbda5375f	-0.08067202
27	0x3e0404e6	0.12892494
28	0x3f0b85d4	0.5450108
29	0x3f33a77e	0.7017745
30	0x3ed0ce1e	0.40782255
31	0x3f954005	1.1660162
32	0x3f84f318	1.0386686
33	0x3f7b79df	0.98232836
34	0x3e1ac10e	0.15112707
35	0x3ed5a109	0.41724423
36	0x3def0f6f	0.116728656
37	0x3f85310b	1.0405592
38	0x3f8aa8d6	1.0832775
39	0x3e2bd07c	0.16778749
40	0x3d859727	0.06522971
41	0x3f0dad8b	0.5534293
42	0x3e4e3d99	0.20140685
43	0x3dcea9c7	0.10090976
44	0x3ddf56e2	0.109052435
45	0x3f7d1b28	0.9886956
46	0x3f16adb9	0.5885883
47	0x3f6ff5f8	0.93734694
48	0x3db0789c	0.086167544
49	0x3f92da47	1.1472863
50	0x3e0727fb	0.13198845
51	0x3edff4ed	0.4374155
52	0x3e0438e2	0.12912324
53	0x3dbeb2e8	0.093114674
54	0x3e01a8b9	0.12662019
55	0x3ee24bfb	0.44198593
56	0x3f290cae	0.6603497
57	0x3f280062	0.65625584
58	0x3dcf1ec1	0.10113288
59	0x3f8f77b6	1.1208408
60	0x3a78f90e	0.0009497561
61	0x3f953992	1.1658194
62	0x3f0ffed2	0.562482
63	0x3e519627	0.20467435
64	0xbde7019f	-0.11279606
65	0x3df76192	0.12079157
66	0x3d285cc0	0.04110408
67	0x3f83459b	1.0255617
68	0x3f530895	0.8243497
69	0x3f8bb2c8	1.0913935
70	0x3f8f0bc1	1.1175462
71	0x3f3a8865	0.7286437
72	0x3ed3389c	0.41254127
73	0x3e36946e	0.17830059
74	0x3ed272f3	0.41103324
75	0x3fa2d2bd	1.2720562
76	0x3f2cc9e2	0.6749555
77	0x3e73d84e	0.23812982
78	0x3c982adf	0.01857513
79	0x3f42395d	0.7586878
80	0x3f3c309e	0.73511684
81	0x3f91d052	1.1391699
82	0x3f2f9417	0.6858534
83	0x3f9cff47	1.2265404
84	0xbb1f9fb0	-0.0024356656
85	0x3db2badc	0.08727047
86	0x3ef796c1	0.48357204
87	0x3f3efcce	0.746045
88	0x3ea16665	0.31523433
89	0x3f85e36a	1.0460026
90	0x3dcb4972	0.09926118
91	0x3f95c861	1.1701776
92	0x3f1c0901	0.6095124
93	0x3e1dde44	0.15416819
94	0x3f2b7dcf	0.66988844
95	0x3f47e004	0.78076196
96	0x3f59a86e	0.8502263
97	0x3ef25b37	0.47335216
98	0xbde45e6e	-0.111508235
99	0x3f6728c6	0.9029659
100	0x3e120d3e	0.14262864
101	0x3f3d6dd1	0.7399569
102	0x3f82ea5e	1.0227773
103	0x3f252038	0.64502287
104	0x3e6b5168	0.22980273
105	0x3d81bec5	0.063352145
106	0x3dfe160a	0.12406547
107	0x3f858457	1.0431012
108	0x3f8302ac	1.023519
109	0x3f0602e0	0.52348137
110	0x3f8e1144	1.1099019
111	0x3e0703c7	0.13185035
112	0x3f418828	0.7559838
113	0x3efe1ae5	0.49629894
114	0x3e706107	0.23474513
115	0x3ea48dc9	0.32139423
116	0x3d9e17a2	0.07719351
117	0x3f208535	0.6270326
118	0xbdda9e7e	-0.10674761
119	0x3e08e060	0.13366842
120	0x3f873b28	1.0564928
121	0x3e3ddf5d	0.18542238
122	0x3f766b2a	0.9625727
123	0x3e97a9a3	0.2962161
124	0x3f89159a	1.0709717
125	0xbdf9bc82	-0.12194158
126	0x3e1722f2	0.14759424
127	0x3f3a289d	0.7271822
