model_normal/gdn_smd_w_100_epoch20.pth (torch, 85384 bytes, 16 tensors)

embedding.weight f4 [38, 128]
00000000: 8464 06be 1aee c7bd b860 123f e8c8 32be
00000010: 3ac7 10be 6c84 46be 580e c0be 16f2 57be
00000020: 4991 4e3e d0b7 84be fcb1 693e 5d36 853c
00000030: b7b3 2d3e d6cb e6bd f5bb 933c 3f39 56be
00000040: 6687 4dbe 9a1c dbbe 14f3 28bf 872b 58be
00000050: a3a8 b83e 0315 46be 4545 84be da0c c8be
00000060: bba4 dcbe 5270 1b3e a760 71be 329c a93e
00000070: 25a3 51be 9a02 183e 0913 a9bd 23f6 293f
00000080: be57 10be 0433 e8be 8f90 cbbb bd2b b4be
00000090: 1d9d 7dbe 546e 89bc 869a 3fbc e97c d43d
000000a0: 706a efbe 66c3 9dbe 7d55 fe3d e5a0 383e
000000b0: b52e 91be 4690 dfbd 9923 e6be 8a44 0cbc
000000c0: 6edd aabd 527e 303e 7b5d e6bc b4d0 93bd
000000d0: e7c1 8abe 133c 94bd d27f c7be e36e 3a3e
000000e0: 9625 57bd 5cb3 cbbd 7d54 26be 8f27 c3bc
000000f0: ae9b 9ebd 77f3 07bf 16a8 f3bd a5f7 79be
00000100: 4a20 8cbd 2d97 ad3e 1199 1a3f af73 56be
00000110: 9d71 52be 5104 65bd 548a 863c ccf3 723d
00000120: e1f7 813f 7c50 33be 137e 7abe 3dbe 02bf
00000130: 8b11 74be d345 04bf eeef a8bd e97d 28be
00000140: 08fa 62be 2386 efbd 6c41 52be b6ef 5abe
00000150: a37c 0d3d 7e4b 9fbe 5a8f 2abd 668a 953c
00000160: 4610 0abf fc45 a6be 1761 4cbe 3ab7 8fbe
00000170: 6951 dfbd 5d7c 01bf 3530 d4bd 1b9a 9e3d
00000180: a7a1 18be f939 5abd fa4f c03d d087 21be
00000190: 4694 493f 4576 32bd 084e 24be dead 2ebc
000001a0: 7e6a cebd 7131 d7be 147c 693e 8f47 0abe
000001b0: 7857 c3bc ac30 18be 8c86 85bd a08d e3be
000001c0: 19fb c7bc 6c1f 9ebe 673f eb3d 99b1 3ebe
000001d0: 056c 2c3e 9b09 09bf a697 e1bd 80d8 05bd
000001e0: d550 b7be f25c 41bd e2e3 7f3e 7f05 00bf
000001f0: 1b6d 813d d2e8 adbe 1901 2c3e 8c42 5fbd
00000200: a5b2 9dbd 7886 70be 7672 063f 63bb 5dbd
00000210: 0ac9 d9bd 6942 42be 4c35 8cbe b6eb 58be
00000220: 6064 a83e a7fa 85bd 5e38 123c bac9 5fbe
00000230: 967f 8d3c 4adb 2ebf 2899 4fbd 1743 6cbc
00000240: 59a9 08bd 14a6 e9be a21d abbd 26b0 a1bd
00000250: 854d 1b3c c284 2c3d ca11 93be e134 5fbe
00000260: 4da8 bfbe a980 643e 0f27 c23d 1192 10bf
00000270: ce33 8dbd 5274 3ebd 56f6 b3bc e3a1 a43e
00000280: 1848 14be a8d7 0abf febd 4ebd d6a9 ebbd
00000290: 68a2 3abd 8899 8cbe 11c2 a8be 127e 88be
000002a0: c110 d9bd 7e8b 77bd 228f 52be 2209 aabc
000002b0: 8fbe 2cbe efa0 a8bb 3988 a9be a81d c0be
000002c0: 0267 91bd 7e54 533e dfa1 9cbe e07e adbd
000002d0: f4cd 8fbe f5f5 acbe 7802 8dbd 2cf0 643d
000002e0: a987 03bd a436 32be 6c08 16be 4bd8 f63d
000002f0: 2a60 103c 04a6 4cb9 3163 9a3e e84b 0abe
00000300: 61f6 9abd f2a9 d73c 1496 1a3f df84 bbbd
00000310: 8aff 94bd 8457 a2bd dbc8 e43e e50d 23bd
00000320: 8141 2d3f 5f1d 25be 7d50 bebe 18f5 33be
00000330: e285 34be ace3 56bb 7665 423e 015a 26be
00000340: 1c81 04be f8e6 e0bd ad59 37be 9e5e 82bd
00000350: 6c82 633e 5fe8 83be 486f 353e c006 99bd
00000360: 7e9d 0bbf e03c 95bd 7b25 24be 5da4 55bd
00000370: 4b68 05bf bf15 be3e 52cf b5bd 9922 34bd
00000380: 6bce 023f f780 473d c2cc 3bbe c73d 83bd
00000390: 3eb9 84bd 5b33 69bd db55 2e3e 1e21 b3be
000003a0: f99e a8bd 753e 56be 83ca 8c3e 522e 8cbd
000003b0: 677f c23d 2f78 be3c 635a 4bbe 88b4 c8bd
000003c0: 1072 033d 1f0e d13d a8d7 fabd 69db 6fbd
000003d0: e7fa 173e fd66 d2bd 7420 703e c0af 01bf
000003e0: 0a8b 9dbd 9802 04be 17d9 993e 4592 c3bd
000003f0: e7e0 26bd 8548 a9bd 0016 a7bc 20a6 20be
-0.13124281 -0.09762211 0.5717883 -0.17459452 -0.14138499 -0.19386452 -0.37510943 -0.21088442
0.2017261 -0.25921488 0.22821802 0.016261274 0.16963087 -0.11269347 0.01803396 -0.20920275
-0.20071182 -0.4279526 -0.6599591 -0.21110354 0.3606616 -0.19343953 -0.25834098 -0.39072305
-0.4309443 0.15179566 -0.23572026 0.3312698 -0.20472391 0.14844742 -0.08255584 0.663912
-0.14095971 -0.45351422 -0.006212301 -0.3518962 -0.24766965 -0.016776241 -0.011694556 0.10375387
-0.46760893 -0.3081314 0.12418649 0.18030126 -0.28355947 -0.1091619 -0.44949034 -0.008561263
-0.083430156 0.17235687 -0.028120747 -0.07217541 -0.2710106 -0.07238021 -0.38964707 0.18206362
-0.05252608 -0.099463195 -0.16243167 -0.023822574 -0.07744537 -0.5310587 -0.11897294 -0.24410875
-0.06842096 0.339044 0.6038981 -0.20942567 -0.20551153 -0.05591232 0.016423382 0.059314534
1.0153772 -0.17511171 -0.24462156 -0.5107153 -0.23834817 -0.51669043 -0.08248888 -0.16454281
-0.22165692 -0.116955064 -0.20532769 -0.21380505 0.03454269 -0.31112283 -0.041640617 0.01825447
-0.5393108 -0.3247527 -0.19958912 -0.28069478 -0.109042 -0.5058039 -0.10360757 0.07744237
-0.14905415 -0.053277943 0.09390254 -0.15774465 0.7874187 -0.043569822 -0.16045392 -0.01066157
-0.100789055 -0.42029908 0.22801238 -0.1350386 -0.02384542 -0.14862317 -0.065198034 -0.4444399
-0.024411725 -0.30883348 0.114867024 -0.18622436 0.16838081 -0.5353028 -0.11015253 -0.032677174
-0.35803857 -0.04720778 0.24989274 -0.50008386 0.06319638 -0.3396669 0.16797294 -0.054506823
-0.07700089 -0.23488796 0.52518404 -0.054133784 -0.10634048 -0.18970646 -0.27384412 -0.21183667
0.3288908 -0.06541949 0.008924572 -0.21854296 0.017272752 -0.6830336 -0.05068317 -0.014420292
-0.033364628 -0.4563452 -0.083552614 -0.07894926 0.009478931 0.042118795 -0.2872451 -0.21797515
-0.3743309 0.22314705 0.09480106 -0.5647288 -0.068946466 -0.04649765 -0.021968048 0.3215476
-0.14480627 -0.54235315 -0.05047416 -0.11507003 -0.04556504 -0.27460885 -0.3296056 -0.26658684
-0.10598899 -0.060435764 -0.20562413 -0.020756308 -0.16869567 -0.005146138 -0.33111742 -0.37522626
-0.07099725 0.206377 -0.30592248 -0.08471465 -0.28086817 -0.337814 -0.068852365 0.05589311
-0.032111797 -0.17403656 -0.1465165 0.12052973 0.00881199 -0.00019516802 0.30153802 -0.13505518
-0.07566524 0.026326153 0.6038525 -0.091562025 -0.07275303 -0.079268485 0.4468449 -0.039808173
0.67678076 -0.16124485 -0.37170783 -0.17573965 -0.17629197 -0.0032789512 0.18984017 -0.16245271
-0.12939876 -0.10981554 -0.17905302 -0.06365703 0.22217721 -0.25763223 0.17718232 -0.074719906
-0.5453719 -0.072870016 -0.16029923 -0.052158702 -0.52112263 0.37125966 -0.08877434 -0.043978307
0.5109622 0.048706975 -0.18339828 -0.064082675 -0.06480645 -0.056933742 0.17024939 -0.34986204
-0.08233447 -0.20922263 0.27498254 -0.068447724 0.09496956 0.023250667 -0.19858699 -0.098000586
0.0320912 0.102077715 -0.122481644 -0.058558855 0.14841805 -0.1027355 0.2344988 -0.506588
-0.07692535 -0.12891614 0.3004844 -0.09549383 -0.040741827 -0.08265785 -0.020396233 -0.15688372

bn_outlayer_in.weight f4 [128]
00000000: e914 0d3f 386e 4d3f 88e5 9f3e 1db4 273f
00000010: ecbe fc3e 6803 1d3f 831d 313f 157e 243f
00000020: 1c2a 223f 490b 223f f6a6 c63e a917 503e
00000030: 93c6 c53e df72 d43e def7 0c3f 22ab 613f
00000040: e932 333f eef6 493f 965a f33e 7f41 0b3f
00000050: 8d89 bf3e e027 bf3e 9463 553f c496 213f
00000060: 5122 463f 4fc0 033f 2969 253f 1c3b 913e
00000070: d452 0e3f 3e0b 073f ab11 093f 3c3a 883e
00000080: 06c7 403f ed5d 133f c391 e53e 00af e33e
00000090: 382d 393f c8a7 433f 0440 1a3f c954 2e3e
000000a0: c337 233f 0559 363f 7631 ff3e 6028 103e
000000b0: cf55 253f a98f 753f e55b 583f 7feb ee3e
000000c0: d1cb bc3e 5d15 373e f6e4 0c3e 6db5 d93e
000000d0: 10c2 2e3f 5361 ba3e fd42 243f 6ef4 203f
000000e0: 1dd7 0e3f 207a 953e f9c6 383f 12d5 1d3f
000000f0: 38e0 c13e 214f 283f 38fc 0e3f 49c1 103f
00000100: dd73 a63e 5c25 f23e 86b4 e03d c5c5 323f
00000110: e5a4 c93e 272c 103f 91f4 7a3e 8d27 073f
00000120: 0696 803e 9abe db3e 0e57 453f b896 e03e
00000130: f190 003f 33de 033f 91d4 0b3f a8f0 3f3f
00000140: 9bff 2a3f 9f8f 283f 71bf 0e3f 155f 333f
00000150: 8475 cc3e a234 363f a135 773e dadd ff3e
00000160: 9aa2 193f 4bf8 133f fe28 1f3f d890 313f
00000170: 42b9 063f d116 983e 9512 f83e 0592 0e3f
00000180: 4451 433e bdf7 7e3e 0c13 e73e d658 2c3f
00000190: 644b 1b3e 4ee2 203e d77b 2e3f 1cc3 083f
000001a0: 32ae 303f 4367 323f d669 9d3e fa47 013f
000001b0: 52df dc3d 359a d73e dedd df3e f02a 153f
000001c0: 5a74 b33e d4ee 3a3f 4203 b33e aad3 3a3f
000001d0: d577 a63e d126 233f d93e f43e 179e fe3d
000001e0: f084 3d3f d3d2 313f 3feb 6c3e 1134 333f
000001f0: 3041 143f 7f97 fa3e 0ab7 3e3e a546 163f
0.5511003 0.80246305 0.31229806 0.65509206 0.49364412 0.6133332 0.69185656 0.64254886
0.63345504 0.6329847 0.38799256 0.20321526 0.38628063 0.4149389 0.55065715 0.8815175
0.6999956 0.7889241 0.4753005 0.54396814 0.3740963 0.3733511 0.8335507 0.63120675
0.7739611 0.51465315 0.64613587 0.2836541 0.55595136 0.5275153 0.53542584 0.2660693
0.75303686 0.57565194 0.4483777 0.44469452 0.72334623 0.7642789 0.6025393 0.1702453
0.6375696 0.71229583 0.49842423 0.14077902 0.6458406 0.95922333 0.8451522 0.46664044
0.3687425 0.17879243 0.13759217 0.4252123 0.68264866 0.36402377 0.64164716 0.6287297
0.55796987 0.29194736 0.7217861 0.61653244 0.37866378 0.6574574 0.55853605 0.5654493
0.32510272 0.47294128 0.10971932 0.6983302 0.39383617 0.5631737 0.24507357 0.52794725
0.2511446 0.42918855 0.7708596 0.4386499 0.50221163 0.51510924 0.54621226 0.7497659
0.66796273 0.6584415 0.55760866 0.7006696 0.39933407 0.7117406 0.24141552 0.49973947
0.60013735 0.5780074 0.62171924 0.6936164 0.5262643 0.29704908 0.48451677 0.5569156
0.19073969 0.24899192 0.4513172 0.6732305 0.15165478 0.15711328 0.68157715 0.53422713
0.690158 0.69688815 0.3074481 0.5050045 0.107847825 0.42109838 0.4372396 0.5826864
0.35049707 0.7302067 0.34963423 0.72979224 0.325133 0.63731104 0.477042 0.12432497
0.7403097 0.6946232 0.23136614 0.7000132 0.5791197 0.48943707 0.18624511 0.58701545

bn_outlayer_in.bias f4 [128]
00000000: 2453 e5bd b6c0 dcbb 49d3 2dbf 6319 3ebe
00000010: d72d 81be d5ee f5be 3bb3 81be f272 b9be
00000020: d429 9bbe 2c65 fcbd 93d2 b7be 3a59 b1bf
00000030: ab00 8ebe a2c2 1cbf 0dde e4be c873 22be
00000040: b619 c4be 9847 94be 80ae b6bd c9ba cabd
00000050: f4f3 e9be f6b4 e7bd 5c62 a5be 54ae 80be
00000060: 7899 93be fb73 a8be acee a7be afc0 c6be
00000070: bdef dbbd 0170 0bbf f47b adbe d5f1 82bf
00000080: bf7b dcbe ddf1 2fbf 836e 41bf 960b 7ebe
00000090: dcce 8ebe fdb8 5cbe 1351 63be 3371 a4ba
000000a0: a1a1 ebbe c798 dbbe 6d97 94bf d5f7 3abb
000000b0: f4bc 08be a271 e7bb e7a8 8dbe 9c5f 76be
000000c0: 1629 03bf 2c04 44bc cdd4 81bc 4319 81bd
000000d0: 602e 9ebe 468f 05bf 5c6a e1bd 0fb9 58be
000000e0: 69d1 acbe 09ad 2cbe 7800 3bbe ccf3 07bf
000000f0: 2c6e 22bf d081 54be 71c5 bebe b2f5 38be
00000100: 80cc 93be 73bb 11be f1e9 b8bf 06e0 01bf
00000110: 377d f5bd 9e76 99be 273f 91be 9b12 37be
00000120: 2a8f 0dbf b509 d8bd 17dc 08bf 4f21 d2bd
00000130: 950d 94be a8ae 14bf 6276 93be 4c78 6fbe
00000140: 1d09 a7be 752a d6be 66da 8ebe 44c8 c2be
00000150: ab4b a5be f823 74be 40fd f4bd 188b 93bd
00000160: f248 30be c00f e0bd c91a 49be 5ff9 e3be
00000170: 22b4 13be 4059 5abf a2f4 b0be 5df7 60bf
00000180: e2be 0abf afa8 64bd 94c6 d7be 0309 bebe
00000190: f1a8 36bf f1c3 c3bc 5cfc abbe 8dd7 50be
000001a0: c198 c9be f276 98be bf06 03bf 86ab efbe
000001b0: e6cb 9ebb 22ed 45be 4d5c 89bd 77af bebd
000001c0: 77cd c8bd f5ae 8cbe 604a 67be 508c c6be
000001d0: 2a73 dabe f330 b7be 8234 96be 58d1 53bb
000001e0: 3e13 dcbe fab2 b8be 8982 15bf 29a8 c7be
000001f0: 49a7 ebbd 41d6 37bd 9ad6 45be efe1 84be
-0.111974984 -0.00673684 -0.6790052 -0.18564372 -0.25230286 -0.48033777 -0.25332054 -0.3622051
-0.3030535 -0.123239845 -0.35902843 -1.3855355 -0.27734885 -0.61234486 -0.4470066 -0.1586448
-0.38300866 -0.28960872 -0.08920002 -0.09898908 -0.45693934 -0.113138124 -0.32301605 -0.25133002
-0.28828025 -0.32900986 -0.3279928 -0.3881888 -0.10739086 -0.5446778 -0.3388363 -1.0230051
-0.4306316 -0.6872843 -0.7555925 -0.24809107 -0.27892196 -0.21554942 -0.22198896 -0.0012545943
-0.4602175 -0.42889997 -1.1608711 -0.0028529067 -0.1335333 -0.0070631066 -0.27667925 -0.2405991
-0.5123457 -0.011963885 -0.015848542 -0.063036464 -0.30894756 -0.5217174 -0.110066146 -0.21164344
-0.33753517 -0.16862883 -0.18261898 -0.5310638 -0.6344936 -0.20752645 -0.3726001 -0.18062475
-0.2886696 -0.14231662 -1.4446393 -0.5073246 -0.119867735 -0.2997331 -0.28368494 -0.17878191
-0.55296576 -0.105487265 -0.5346083 -0.10260259 -0.28916612 -0.58079004 -0.28801256 -0.23385733
-0.3262414 -0.41829267 -0.27901 -0.38043416 -0.32284293 -0.23841846 -0.11962366 -0.072042644
-0.17215326 -0.10940504 -0.19639124 -0.44526193 -0.14424184 -0.85292435 -0.3456164 -0.87877446
-0.54197514 -0.05582493 -0.4214369 -0.3711625 -0.71351534 -0.023897143 -0.33590972 -0.20394726
-0.39374354 -0.29778248 -0.5118217 -0.4681055 -0.004846084 -0.1932874 -0.06707058 -0.09310811
-0.09804814 -0.27477232 -0.22586966 -0.38778925 -0.42665988 -0.35779533 -0.29336935 -0.0032320824
-0.4298343 -0.36074048 -0.58402306 -0.38995484 -0.115065165 -0.044882063 -0.19320145 -0.25953624

bn_outlayer_in.running_mean f4 [128]
00000000: f228 bebd 7be5 23b8 2b00 173c 1e31 69bd
00000010: 6fbd 90bd 82b2 1cbc d0a8 0bbe 3ac5 5abd
00000020: e8e6 bd3d 3795 e4bd fcff a13c ca2d b9bc
00000030: 2f3d 0cbc f647 c9b9 c764 f3b1 a81f 8cba
00000040: 4eb6 40bd 6935 0bbe 9c41 b0bd 634c d3bd
00000050: f847 2c3d 2b11 51bd ce01 33be a87e b9bd
00000060: 4135 04be a245 a73a d54a c6bd 6584 033c
00000070: 714c dabd 48a5 17bb 30fa efbc 8c51 963d
00000080: 0422 0abe 92d2 71be 1723 1bbb ad27 f9bd
00000090: 4acf 02be 80d3 c1bd 2aaa 8abd 48c6 833c
000000a0: 8650 0bbe bd37 d5bd b84f 0a96 b223 2d3a
000000b0: 79ef 5ebc c47a 28b9 dab6 60bd f8f4 2ebd
000000c0: 590f a2bc f981 78b9 89d1 51ba d5b2 6fbb
000000d0: 5717 10be 18e1 d0bb a2d9 d6bd ae09 e790
000000e0: 6320 64bd 5256 d4bb ee9a 36bd 0b13 b7bc
000000f0: 8f49 393c 2ff0 9fbc 9f3b 4a3d e96b abbd
00000100: 9e8f 80bc 0400 0080 ecfb 0f3d 035a 0ebe
00000110: 1bd7 a8bd 426b bbbd bfd7 813d 0400 0000
00000120: b478 d93c c4e6 bcbc 5dad edbd 1425 30bd
00000130: 31ed abbd 486d 0abd 4550 96bd 5801 8fbd
00000140: 33d5 28bd 8045 11be 8ba2 cfbd 124a 9dbd
00000150: 3ea6 a13b 1717 e7bd 926c 01bd 5c43 03bc
00000160: 8c6e c5bd f40d c4bd ca56 89bd 7868 acbd
00000170: 9a42 bcbd 7c86 793c a42d edbc e60d 63bd
00000180: 5d13 923d bb39 52bc cf89 53be 182d 17bd
00000190: f089 bd3b fca3 e6bb 43cc 24bc ade9 a4bd
000001a0: c9ab 9139 97aa 2ebe 990a 103e d6af 28bd
000001b0: f911 9cba b05b 34bd fa90 c7b5 8e98 b4bd
000001c0: 1e7a 14bd 47b2 d9bd 5af7 b1bc 8113 91bd
000001d0: 84aa 3dbc 4de2 bfbd 41d5 be3c 91c3 093c
000001e0: 863e bcbd 034f 9dbd 0c6f 85b9 4ce7 4dbe
000001f0: b14b 66bd 862f e1bd 644c 273d 5673 d2bd
-0.092851534 -3.907595e-05 0.009216349 -0.056931607 -0.070673816 -0.009564044 -0.13638616 -0.053410746
0.092725575 -0.11161273 0.019775383 -0.022604842 -0.008559509 -0.00038391323 -7.083688e-09 -0.0010690587
-0.04704886 -0.13594593 -0.08606264 -0.10317304 0.042060822 -0.051041763 -0.17481157 -0.09057361
-0.1291094 0.0012761841 -0.09682242 0.008027171 -0.10659111 -0.0023139287 -0.029294103 0.073397726
-0.13489538 -0.23615482 -0.0023672038 -0.12165771 -0.12774387 -0.094641685 -0.067707375 0.016085759
-0.13604936 -0.10411022 -1.1172706e-25 0.0006604745 -0.013606899 -0.00016067462 -0.05486188 -0.04271409
-0.019782709 -0.00023699542 -0.00080039405 -0.0036575098 -0.14071403 -0.0063744895 -0.10490729 -9.112835e-29
-0.05569495 -0.0064800167 -0.044581346 -0.022347948 0.011309042 -0.019523708 0.049373265 -0.083701916
-0.015693482 -6e-45 0.03515236 -0.13901524 -0.08244153 -0.09151317 0.063399784 6e-45
0.026546814 -0.023059256 -0.11605332 -0.04300411 -0.0839485 -0.033795625 -0.07339529 -0.06982678
-0.041218948 -0.14186668 -0.101384245 -0.076801434 0.0049331477 -0.11283701 -0.03159768 -0.008011665
-0.09640226 -0.09572974 -0.06706007 -0.08418363 -0.09192391 0.0152298175 -0.028952427 -0.055433176
0.071325995 -0.012831147 -0.20658039 -0.03690824 0.0057842657 -0.0070385914 -0.010058465 -0.080523826
0.00027784545 -0.17057262 0.14066543 -0.041183315 -0.0011907212 -0.044032753 -1.4868849e-06 -0.0881816
-0.036249273 -0.10629707 -0.021724392 -0.07083798 -0.011576299 -0.09369335 0.023295047 0.008408443
-0.09191613 -0.07681086 -0.00025450473 -0.20107764 -0.05622453 -0.109953925 0.040844336 -0.10275905

bn_outlayer_in.running_var f4 [128]
00000000: ab59 5f3d bb10 6d35 7490 d03a e312 4b3d
00000010: 847a 0f3d 718b 383b fe3c 293e 8e85 5c3d
00000020: 5aca 4f3d 7be3 c93d ef24 253c 80ae 9c3c
00000030: d483 993b 38cb 1d3b 1094 932e a661 0937
00000040: 926c 3e3b fad6 1f3e 7255 a43d 82a2 9a3d
00000050: eaaf 213d 9396 083d 9049 7a3e 620b 013d
00000060: e438 143e 6a24 523d 4325 303d 60c5 963c
00000070: 5c39 b33d 050a 123a c434 eb3c 6613 c63c
00000080: 70f5 023d 2bcd a63c cfde eb39 f4bf 8d3c
00000090: eabc 0a3e c8bd 143e a6a6 783c 0ca0 313d
000000a0: ed53 3f3c f639 553c 84e9 0c12 0bee 453c
000000b0: 0db2 ac3b 1859 8a35 d701 103d 34bf e93c
000000c0: 620c d33c fb01 e33d ff42 a439 17d1 ce3a
000000d0: d925 d33d 6def 523a 9930 d73d 9db0 4f0d
000000e0: ab61 233d fa9b dc3a 5b77 ea3c 042b 2b3c
000000f0: 59d6 d63c 012c 9f3b 77e2 233d 902f bc3d
00000100: 756a 0a3d 0400 0000 73f5 5e3d 427b 433c
00000110: dc7e b33c 89ee 273c b06d 723c 0400 0000
00000120: a197 b93b 82d8 133c a07b 103c 9040 d43c
00000130: 3516 5d3d 3565 aa3c d8eb 5b3d b323 513d
00000140: a653 373d ef11 683c 1196 3b3d cc66 023c
00000150: 4bcd 0b3d e43f 053e 8912 353d f647 893b
00000160: ccf9 193d 0a2d a83d e320 6c3d 6ae7 f93b
00000170: dbea 383d b935 833d 66a4 ab3c 46dd bc3c
00000180: bf61 1c3d 991f 0e3c b70f 013f bc39 6b3d
00000190: 8253 073c 490e 723b 8bdc 263d 89d2 933c
000001a0: 3e11 1c3d aeae ed3d 18ea da3c 5266 ed3c
000001b0: b3e1 623b 20b8 303c 14be a034 c2bb 8b3d
000001c0: ec96 a63c 7a88 c53d ae7c 2c3c 3e6a f63b
000001d0: 32d7 5a3b 06c2 dc3c 7297 813c 8350 8e3c
000001e0: 9bd9 133c c1ea 473d 9a62 9139 3b1e 873d
000001f0: fa26 d83d 3895 153e 14e0 5e3c 86c7 873c
0.054528873 8.8313726e-07 0.0015912191 0.04957856 0.03502895 0.0028159285 0.16527173 0.053838305
0.050730087 0.098578416 0.010079606 0.019126177 0.0046849046 0.0024077427 6.711087e-11 8.188572e-06
0.0029056412 0.15609351 0.0802411 0.07550527 0.039474405 0.033346724 0.24442124 0.031504996
0.14474827 0.05130426 0.043004286 0.018404663 0.08751175 0.0005570951 0.028711684 0.024179172
0.03197235 0.020361504 0.00044988698 0.017303444 0.13548627 0.14525521 0.015176451 0.043365523
0.011677724 0.013014307 4.446404e-28 0.01208068 0.0052702487 1.0307731e-06 0.035158005 0.028533556
0.02576274 0.11084362 0.00031330434 0.0015778866 0.10309953 0.00080465415 0.10507316 6.399939e-31
0.039888065 0.0016831153 0.028621366 0.010447267 0.026225256 0.0048575406 0.040010896 0.09188759
0.03379293 6e-45 0.054433297 0.011931242 0.021911077 0.010249742 0.014796659 6e-45
0.0056638275 0.009023787 0.008818537 0.025909692 0.053976256 0.020800212 0.053691715 0.051059436
0.044757508 0.014164432 0.04579741 0.007959079 0.03413133 0.13012654 0.04420713 0.0041894866
0.03759174 0.082117155 0.05764855 0.0076264637 0.04514585 0.06406731 0.020952415 0.02305473
0.038179155 0.008674526 0.50414604 0.057428107 0.008259656 0.0036934784 0.04073767 0.018044727
0.03810238 0.11605583 0.026722953 0.028979454 0.003461939 0.010786086 2.9940622e-07 0.06822921
0.020335637 0.096451715 0.010527773 0.0075199893 0.0033392427 0.026947986 0.015819285 0.017372375
0.009024049 0.048807863 0.0002773002 0.06597563 0.10554309 0.14607704 0.013603229 0.016574632

gnn_layers.0.gnn.att_i f4 [1, 1, 128]
00000000: 7697 4fbd 729a e73d 40f7 36bc fde3 733e
00000010: ebc0 b03d e9f7 e63c f16e 8a3d 1524 633d
00000020: 963f d73d 6aaa 773c dadd 913d 3181 b7bb
00000030: ee54 ddbc 8cc0 55bd 2cce 3a3c 0f9a 43bd
00000040: 5038 63be c80d f63e 12f4 043b e729 28bc
00000050: 6965 febe 31f9 f4be 4ff0 9a3b 6922 6bbd
00000060: fd11 4f3c d60f 833c 0b9d c63d b867 1ebe
00000070: 703e 833c fad5 6b3d 5574 153d b792 04bf
00000080: b3d9 d73c 87b4 19be 371f 443d 4446 58bc
00000090: 9ed6 5d3d ca81 553e 5648 aabc b1fb fa3d
000000a0: 0ab4 3ebe 66d2 babc 22a7 24be 44dd 933f
000000b0: c70d 723e 0b8d 13be 51b5 1e3d e3f3 eabc
000000c0: f457 803c 8610 b53e f3d6 22be afbc c13d
000000d0: dfcb 093d 7e89 69bd ea1b 413c dd3a 533d
000000e0: bb70 4bbc 0564 54bb 9294 e1bd 711d 033b
000000f0: 31c0 70be 25b5 58bd 6151 363e 8b82 683b
00000100: 51f7 3a3e 5553 f93a dda8 6ebd 6733 75be
00000110: 2fe9 0b3c 6640 cdbd aa61 bb3d d0c4 713b
00000120: 4d28 8bbe 955c 8f3a 2fed fabd 5548 debd
00000130: ae14 963c 85e8 5c3d 9938 0e3d 2237 673c
00000140: 4769 f33e f729 b4be 6951 fb3c 0f79 07be
00000150: 5d2e 893c 1db4 1f3e 9c0d 6ebe 8685 cc3d
00000160: efd1 6b3d 87c3 a83e 49f0 bd3a 431c 91bb
00000170: 5bd6 043c 29d6 003d b7f2 c73c cbc2 b7bd
00000180: 4912 103d 50f7 09bd 16d0 88bc 4190 b73d
00000190: 20cb 7dbd 6d99 243e ec67 323d edc5 62bd
000001a0: 4b35 ab3e 7a3d 0f3d 0c8a fc3a 5965 0fbc
000001b0: 3742 063f 0f8d 8cbc ea65 68bc b226 453b
000001c0: 1c94 ccbc 54eb 4d3e 1150 e53d 9700 d4bd
000001d0: 7bbb 11be e488 733c d32e 18bc 1913 0c3f
000001e0: 07e9 a5be fad8 0a3d 291b 49be 1a7c a5bd
000001f0: ab9c 863c 9366 943a a908 f73d dcb2 57bc
-0.050681554 0.11308755 -0.011167347 0.2381744 0.08630546 0.028194385 0.06759442 0.055454332
0.10510175 0.0151163135 0.07122393 -0.0056001176 -0.027018037 -0.05218558 0.011401694 -0.047754344
-0.2218945 0.4805739 0.0020287079 -0.010263897 -0.49686745 -0.47846368 0.004728354 -0.057405863
0.012638566 0.015998762 0.09697922 -0.15469253 0.016020983 0.05757711 0.036487896 -0.5178637
0.026348924 -0.15010272 0.04788133 -0.013200346 0.054159753 0.20850292 -0.020786446 0.122550376
-0.18623367 -0.022805404 -0.16079381 1.15519 0.23638068 -0.14409272 0.038747136 -0.028680747
0.01566694 0.3536417 -0.15902309 0.09459817 0.033641692 -0.05701589 0.01178644 0.05156981
-0.012417014 -0.003240825 -0.11014666 0.0020006562 -0.23510815 -0.052907128 0.17804481 0.00354782
0.18258406 0.0019022027 -0.05826651 -0.2394539 0.008539482 -0.10022049 0.09149487 0.003689099
-0.27179185 0.0010937626 -0.122522704 -0.1085364 0.018320408 0.053932685 0.034721944 0.014112266
0.47541258 -0.35188267 0.030678468 -0.13229774 0.01674574 0.15596052 -0.23247379 0.09986405
0.057573255 0.32961676 0.0014491166 -0.004428418 0.008107747 0.03145424 0.024407728 -0.08972701
0.035173688 -0.03368312 -0.016700786 0.08963061 -0.061961293 0.16074152 0.04355614 -0.055364538
0.33439097 0.034970738 0.0019267215 -0.0087521905 0.52444786 -0.017157106 -0.014184454 0.0030082879
-0.024972968 0.20109302 0.11196912 -0.10351675 -0.14231674 0.01486418 -0.0092885075 0.5471664
-0.32404348 0.03389833 -0.19639267 -0.08080311 0.016432127 0.0011322073 0.12062199 -0.013165202

gnn_layers.0.gnn.att_j f4 [1, 1, 128]
00000000: 343e 463b d84c 923c 8f66 66bb eee2 a4bc
00000010: 0a03 823c f42a 67bb 88cf 273b 3175 8b3a
00000020: 484a 28bd 5994 51ba 6dc3 fcbb a518 853b
00000030: 9de1 5d3a f74e d738 4c79 1bbb 6920 133b
00000040: e33d 6bbd 1256 b33d ffe4 b5ba f48c ce3a
00000050: 0e01 13bd efdc b2bd 148a 0cbb 0f24 f43b
00000060: d49a 853b 04df ff3a c2b0 81bb 07e4 423d
00000070: c5bf b638 b86b a23b 3882 f33a f1a2 03be
00000080: 93e0 36bb 65f1 04be 7681 65bb 1ec1 24bc
00000090: dde2 a23b 4e49 84bc 4dca a2ba a44e d53c
000000a0: 7ffc c33d ad5a 03bc 32ef 813c 1804 8b3e
000000b0: 4dd4 9d3c efdf dfba 4d5c d63b fedd bbbc
000000c0: 1225 283c c50b 803d 694b 8c3d 701f 0bbc
000000d0: 1f4e 5fbb edf4 163c ee9f 87ba 8cbb 23bc
000000e0: dd98 893b bcc6 1f3c 0cd1 163c 6dc6 073d
000000f0: 01a3 e4bc 401c 6d3c c18f 173a 0ef7 f33a
00000100: 22b7 223c 5b41 aeba 043c f73b f75b 68be
00000110: 4d88 5039 fc4a 48bc 3a26 393d 8bc0 a8ba
00000120: 506b 8e3a 4337 f4bb 297f 5fbd 7435 113d
00000130: ed23 063b 9ce1 5c3c 565b afb9 80e8 0cb9
00000140: e9a1 50bc eaf3 12be da96 26bc d0af 88bb
00000150: e571 2d3c 29bb 1f3a 0636 3c3c 4277 af3c
00000160: 900e b3bb d5c1 033e 07c6 043d 7e1c 15bd
00000170: c043 193b 885d f93c dae6 2b3c 9bdb 8e3c
00000180: 9274 28bc 6237 373c ed97 283b ca2d 80bb
00000190: 1fad 0a3d ec45 0f3e c66e 6bbc 1fa2 413a
000001a0: 29aa e2bb 8199 283b 33f2 ce3a 520c 10bc
000001b0: d0b5 9e3b c0d4 9abb f8d2 803b c40c 503b
000001c0: bdfc 25bc e5a0 7f3c 4b48 20bc bae5 babd
000001d0: 5bea 03bc 0d76 39bb f069 33bc 78af 0f3e
000001e0: 236e 9abd 9038 9dba f8d4 05bc 7196 9c3c
000001f0: e117 103e d1b7 b7ba d89a 843b 6035 02bb
0.0030249478 0.017858908 -0.0035156345 -0.02012774 0.01587059 -0.0035273405 0.0025605876 0.0010639784
-0.041086465 -0.0007994823 -0.0077137263 0.0040617757 0.00084641 0.00010266707 -0.0023723422 0.0022449738
-0.057432067 0.08756651 -0.001387745 0.001575856 -0.035889678 -0.08733546 -0.0021444606 0.0074505876
0.004077295 0.001952142 -0.0039578388 0.047580745 8.714156e-05 0.0049566887 0.0018578237 -0.12855126
-0.0027904853 -0.1298271 -0.0035019792 -0.010055808 0.004970892 -0.016148236 -0.001241991 0.026038475
0.09569644 -0.008017224 0.015861128 0.2715156 0.019266272 -0.0017080287 0.006541765 -0.022933003
0.0102627445 0.06252245 0.06850321 -0.008491382 -0.0034073663 0.009213668 -0.0010347345 -0.009993445
0.004199131 0.009751972 0.009205114 0.033148218 -0.027909758 0.014472067 0.0005781614 0.0018613057
0.009931358 -0.0013294624 0.007544996 -0.22691332 0.00019887202 -0.012224909 0.04520247 -0.0012874765
0.0010865722 -0.007452877 -0.05456463 0.035451367 0.002046819 0.013481524 -0.00033446652 -0.00013438053
-0.012733915 -0.14350858 -0.010167802 -0.004171349 0.010586237 0.00060932577 0.01148749 0.021419171
-0.0054643825 0.1286691 0.032415416 -0.036404125 0.002338633 0.030440107 0.010492051 0.0174387
-0.010281699 0.011182638 0.002572532 -0.0039117085 0.033856507 0.13991517 -0.014369672 0.00073865236
-0.0069172573 0.002572626 0.0015788734 -0.008792 0.004843451 -0.004725069 0.0039313994 0.003174589
-0.010131058 0.015602325 -0.009782861 -0.09125848 -0.00805148 -0.0028299124 -0.01095055 0.1403178
-0.07540538 -0.0011995006 -0.0081684515 0.019114705 0.14071609 -0.0014016574 0.004046779 -0.001986824

gnn_layers.0.gnn.att_em_i f4 [1, 1, 128]
00000000: 0502 713f 217c 76bf e868 7c3f 0d53 113f
00000010: 618a 253e 2edb 7a3b 3e52 353d 2eed 89be
00000020: e9a7 13bf 22c8 613f f0d6 44bf 7c73 c5be
00000030: 2e59 a23e dfc4 aebe ac8c e6bd 1131 623e
00000040: c8d2 403d 36d4 673e 9773 57bd f164 e63e
00000050: b2d3 39bf 7856 c2be d5b3 e13e 4aab 1c3f
00000060: c29f 913e 2da2 44bf c520 fabb 7825 3fbf
00000070: 59d3 083f 079d 2bbe 5848 c33e f9a3 21bf
00000080: f003 343f 850d 173f 4be2 dc3c 52f8 153f
00000090: eb98 cf3e 5d9a b73e d144 8f3e f1a9 fcbe
000000a0: a022 79bf aa99 0a3f 888e db3d 1262 593e
000000b0: 1755 c1bc a022 e23c bb93 0a3e 96fe 0b3f
000000c0: a73d 2fbf 7273 ad3e 9616 a0be 87d0 a1be
000000d0: 8a1d 6d3e ccb8 69bd 3d7d 3c3f 50a3 1b3e
000000e0: 1fd7 ac3e 353e 883e ca7d 53bf 2070 633e
000000f0: 2d63 d6be 0bad ca3e 3da0 57bf 9040 c7be
00000100: 09b1 c63b b738 e7bd 308d 1ebf e356 893e
00000110: 1ec1 513f 27cc d63c d92d 31be 7738 75be
00000120: 64f9 14bf dbaf 56bf a15d 253e 46a3 7f3e
00000130: 87f7 9cbb 3d5f bfbe 6e1d 543f 3490 91bd
00000140: 3d23 52bf 0577 453e 6cf3 953d d345 053f
00000150: c3b7 2e3f ba49 d33e 4136 873f bdfb 56bd
00000160: 0287 0f3f 656a 903e 59b5 ab3e 1986 a03e
00000170: 3b63 5f3f c0bf 723d 9378 b03d cde4 1d3f
00000180: 4be6 c0be 0940 6f3e 8d5e 97bf c757 69bd
00000190: f42a c6bd 818b dd3e 322e 05bf 4e7c d53e
000001a0: 5b65 24be 5e49 713f 0a07 473d 2efa 76be
000001b0: 7322 f6be cad2 543f 4291 50bf fd62 523f
000001c0: 495f 163f dca9 b43e a519 05bf 531c cf3e
000001d0: c267 b63a 3772 623f 9430 05bf 8da2 c9be
000001e0: a024 1f3f 1ec6 3e3f cd99 733f 716b 8cbe
000001f0: 19aa e63d a4f8 053f 91e5 15bf dd4b 5d3d
0.94143707 -0.96283156 0.98597574 0.5676735 0.16166069 0.0038277614 0.044267885 -0.26938766
-0.57678086 0.88196003 -0.7689047 -0.3856467 0.31708664 -0.34134576 -0.112573 0.2208903
0.047076017 0.22639546 -0.05260047 0.44998887 -0.72588646 -0.37956595 0.44082513 0.61198866
0.28442198 -0.7680996 -0.007633301 -0.7466655 0.5344749 -0.1675912 0.3814113 -0.6314083
0.7031851 0.59005004 0.026963374 0.5858203 0.40546355 0.35859957 0.2798219 -0.49348405
-0.9731846 0.5414072 0.10720545 0.21228817 -0.023600144 0.027604401 0.13532917 0.5468534
-0.6845345 0.3387714 -0.31267232 -0.31604406 0.231558 -0.057061 0.736286 0.15199018
0.33757874 0.2660996 -0.82613814 0.22210741 -0.4187254 0.39585146 -0.8422888 -0.38916445
0.0060635847 -0.112901144 -0.61934185 0.26824102 0.819353 0.026220394 -0.17302646 -0.23947321
-0.5819304 -0.83862084 0.16148998 0.24964628 -0.0047902497 -0.3737735 0.82857406 -0.07107583
-0.8208502 0.19283684 0.0732182 0.5205967 0.6824915 0.41267186 1.0563432 -0.05248617
0.5606538 0.28206173 0.33536795 0.31352308 0.8726079 0.0592649 0.08616748 0.6167725
-0.376757 0.23364271 -1.182573 -0.056968477 -0.096761614 0.43270496 -0.52023613 0.416964
-0.16054289 0.94252574 0.048590697 -0.24118873 -0.48073158 0.8313414 -0.81471646 0.82182294
0.58739144 0.35285842 -0.51992255 0.40451297 0.001391642 0.8845553 -0.5202725 -0.3938183
0.6216526 0.7452105 0.95156556 -0.2742572 0.11262912 0.5233252 -0.58553416 0.054027427

gnn_layers.0.gnn.att_em_j f4 [1, 1, 128]
00000000: 2e37 013d 0d32 9e3e 3515 15bf da02 9fbd
00000010: bc61 6abd 63fe b33a bcf4 9f3e 19d6 e2bd
00000020: 5773 3dbf cd2d 69bd c5e5 a63e 98a1 9ebd
00000030: ce36 9f3d 34a9 923d daf2 1e3e ea49 d63d
00000040: d6c1 58bd 2746 6c3d 163c 953f c8be 8c3d
00000050: cd81 b5bd d743 f03d 4609 763f 830b b83f
00000060: 924f c53e 2f58 353e b6f4 743e c277 b2be
00000070: 3a74 973e 6e0a 543f 9ecf 36bd 939a a8bf
00000080: b6da 843e 3846 1b3f 68cb 1cbd 1fc1 863e
00000090: 2c50 2f3d 204e e73c f022 623c 5774 533f
000000a0: 75f1 0d3f e64c e6bd 8155 68ba e376 5b3e
000000b0: e3ad 9e3c 0116 6e3e e03b 7a3e f2e7 a63e
000000c0: 4563 203e ef94 1bbd 959f 72bb 6f68 27be
000000d0: 1f25 873d 6140 943b 689a 133f 8de2 c63d
000000e0: 8b86 c43c 8d53 6c3e 4741 7f3f 2c34 103d
000000f0: 6af8 11be 2a2f c73f 6e16 143f 9539 973e
00000100: fac4 483e 057b 223f 70a2 8dbf 3431 e53e
00000110: b6a0 d3bd 375b b53e ec70 ac3d a344 02bd
00000120: de83 86bf 1a0a 0e3e 25bf 4e3e 93b5 ca3d
00000130: 0c4e 623c 3624 8c3e 73cf 32bd 137f ba3e
00000140: 3daa bb3e 6f27 143e 94c3 75bc e681 233e
00000150: 9451 29be 4af9 353d 892b e5be f273 823f
00000160: 9cf3 a23e 07f6 0f3f fab6 1a3f c31a 533e
00000170: b138 893d 0daa 37bf 685f 37bc 7659 b3bd
00000180: 6662 aabf 1c56 053f ea3a 703f cbdf e73c
00000190: af11 67bf b28a 243f 48ce b8be a734 683e
000001a0: 5466 93be d356 1d3e 89ef 2dbe 5960 193d
000001b0: 913b 623e 68f2 2cbe 1276 1c3f 5b27 bd3e
000001c0: b52e 573e fffb b13e f8ea 903d fc12 393e
000001d0: 555b 4fbd f36f b3be b7f8 0a3c cc66 b9be
000001e0: 29e3 a83e 309b 92be 3320 e6be 1222 a73f
000001f0: 6fe1 a63f 0b4c 8f3f 3c40 3c3d 430d 2c3d
0.031546764 0.3089756 -0.58235484 -0.07764216 -0.057222113 0.0013732429 0.31241405 -0.11075992
-0.7400412 -0.056928445 0.32597175 -0.07745665 0.07774125 0.07161179 0.15522328 0.10463317
-0.05291923 0.05768409 1.1658962 0.06872326 -0.08862648 0.117316894 0.961079 1.4378513
0.3853727 0.1770942 0.23921475 -0.34856993 0.2958086 0.82828414 -0.044631593 -1.3172172
0.25948113 0.6065402 -0.03827992 0.26319215 0.042801067 0.028235495 0.013802275 0.82599396
0.5544656 -0.11245136 -0.0008862839 0.2143207 0.019370025 0.23250581 0.24436903 0.32598835
0.15662868 -0.03798383 -0.0037021388 -0.16348432 0.06598877 0.004524276 0.5765748 0.0971118
0.023989936 0.23078747 0.9970898 0.035206005 -0.14254919 1.5561268 0.57846725 0.2953612
0.1960639 0.6346896 -1.1065197 0.44764102 -0.103333876 0.35421154 0.08419976 -0.03180374
-1.0508993 0.13871041 0.20190103 0.09897914 0.013812553 0.27371377 -0.04365487 0.36425075
0.3665332 0.14468168 -0.015000243 0.15967521 -0.16535026 0.044427194 -0.44759777 1.0191634
0.31826484 0.5623478 0.6043545 0.20615678 0.06700266 -0.7174385 -0.01119218 -0.08757298
-1.3311279 0.5208452 0.93839896 0.028304955 -0.9026136 0.6427413 -0.3609488 0.22676335
-0.28789008 0.15365152 -0.16985907 0.0374454 0.22093035 -0.16889346 0.6111766 0.36944088
0.21013911 0.3476257 0.07076067 0.18073648 -0.05062421 -0.35046348 0.00848215 -0.3621124
0.3298581 -0.28634024 -0.4494644 1.3057272 1.3037547 1.1195081 0.045959696 0.042004835

gnn_layers.0.gnn.bias f4 [128]
00000000: 8f21 0dba 9c36 b2bb acd4 a9b8 72f4 133b
00000010: 646c 91bb 76a1 f4ba 43d5 6a3a 5858 813b
00000020: c717 cfbb aaf0 383b e673 debb 08b4 10bb
00000030: 6217 f1ba f8b0 b8b9 4944 9a3b 6762 c93b
00000040: 403f 9139 2429 0e39 5b5f 0db9 b96e 873a
00000050: 7c45 b03a 949c d939 d1cd f039 4d6e 7c3a
00000060: b5f0 7ab9 7e79 18bc 891a 0c38 5ccc 62bb
00000070: 6080 cf3a 463c 77bb 15c8 ddbb 0f68 46ba
00000080: ccfe 1a3a 120a 473a 0e40 1f3b a54a 37ba
00000090: cc5c 67b9 35af 693b 579f 6eba 17a3 32bb
000000a0: 0af9 0dbc 14f0 01bb f7be 85ba 2ef1 7bbb
000000b0: 68a2 b6b9 d9e2 843c b4d2 09ba 9b86 5fbb
000000c0: 1c3f f63a 4112 c939 8e56 d6ba 6e70 b63a
000000d0: 73d8 963a 73aa ebb9 0c4e ac3a e7bb 10bb
000000e0: 12c3 21bb 5857 f93b f832 91b8 7af8 4fbb
000000f0: 34bf 3fba efd5 ba39 4a52 5cbc bd3b d33a
00000100: 3c0e 833a ff3e 723a 56cf 6aba 6f45 75bb
00000110: c77b b63a b6ca 03ba 498b 20bb d38b 073b
00000120: d0b3 a4ba 73bc 623a fcd2 87bc a886 d93a
00000130: 94d9 6bba cad1 d437 d1a4 3c3a 4d48 e1bb
00000140: 2f20 e1ba 96aa c93b 6968 77ba c887 053b
00000150: 4d09 8a3b 8be6 84b9 04d7 46b9 4027 563a
00000160: eead e339 97fa c3b8 4457 773a e6e2 b1b9
00000170: e38b 2b3b 1006 0f3a 0250 e0bb 4a0b f13a
00000180: 51c9 c1b9 413e a0bb 19b4 d7ba 994a 39ba
00000190: 2483 c23a 4f6b 17bc 637a f9ba 0bcc 6238
000001a0: 56d9 36bb b401 1d3b 4f0f e03a d837 7dba
000001b0: 0328 68bc 8217 063b 6ac3 253a c401 023b
000001c0: dca8 fab9 1dc7 a33a 5206 9a39 1f40 4739
000001d0: f9d2 bdbb 785b 073a 7187 123b 0086 cdba
000001e0: 2f11 03bb 3f92 94ba 6566 1639 ac91 46ba
000001f0: 3386 4e38 288a 55ba ce1e 8dbb 1824 a6b9
-0.0005383724 -0.005438639 -8.098161e-05 0.002257612 -0.00443797 -0.0018663842 0.000895817 0.003947299
-0.006319973 0.0028219619 -0.0067887185 -0.0022079963 -0.001839381 -0.00035227067 0.0047078473 0.0061457637
0.0002770368 0.00013557501 -0.0001348233 0.001033268 0.0013448442 0.00041506125 0.00045929712 0.0009629473
-0.00023931528 -0.00930631 3.3403314e-05 -0.003460667 0.0015831105 -0.0037725135 -0.0067682364 -0.00075686065
0.00059126015 0.0007592748 0.0024299654 -0.0006992019 -0.00022064446 0.003565741 -0.0009102723 -0.0027257854
-0.008665333 -0.0019826936 -0.0010204007 -0.0038443315 -0.00034834747 0.01622145 -0.00052575325 -0.003410733
0.0018787119 0.00038351308 -0.00163527 0.0013919005 0.0011508599 -0.00044949687 0.0013145818 -0.0022084655
-0.0024682921 0.007609289 -6.9236325e-05 -0.0031733797 -0.0007314563 0.00035636078 -0.013447354 0.0016115826
0.0009998749 0.00092409545 -0.0008957287 -0.003742542 0.0013922387 -0.00050274597 -0.0024497083 0.0020682707
-0.0012565795 0.0008649297 -0.016580097 0.0016595917 -0.000899696 2.537006e-05 0.00071961904 -0.006875074
-0.0017175729 0.0061543686 -0.00094378606 0.0020375121 0.0042125345 -0.0002534877 -0.00018962851 0.0008169301
0.00043426402 -9.3450006e-05 0.0009435306 -0.00033929123 0.0026175908 0.00054559205 -0.006845475 0.0018390205
-0.0003696182 -0.0048902337 -0.0016456872 -0.0007068306 0.0014840108 -0.009241893 -0.0019033666 5.407263e-05
-0.0027900538 0.0023957314 0.0017094406 -0.00096595054 -0.014169696 0.002046079 0.00063233695 0.0019837478
-0.00047809526 0.0012495253 0.00029377878 0.00019002006 -0.005792972 0.0005163471 0.0022358561 -0.0015680194
-0.0019999256 -0.0011335089 0.0001434326 -0.00075748074 4.923921e-05 -0.0008145892 -0.0043066507 -0.0003168888

gnn_layers.0.gnn.lin.weight f4 [128, 100]
00000000: 861a 4dba 43fb ed3d 6a6f 163c af75 603e
00000010: cb61 dd3d 1e12 2b3e 92cf 643e de3a 2b3e
00000020: aca7 0d3e a9a8 d63a f010 c7be 45bb 88bd
00000030: 6bbf aa3d bbc5 383e 488a 1e3e 1645 033e
00000040: 8a94 d03b d555 363e be14 a33d 7cf9 943c
00000050: 0cbf 1cbe 3625 ce3c fd35 063d cad0 d93c
00000060: 5b6e 34bc ef61 0cbd 67c4 f03b 65b0 233e
00000070: 6eaf cabd 2679 5abc 1d16 94be aa47 a5bc
00000080: e3f8 e0bd 8c31 a7bd b2b4 7abd 2357 bbbd
00000090: 91bd 00be 7310 bbbd edba a1be 621c 96be
000000a0: 9c39 3cbf 52d0 1dbe 5306 0dbe bff7 c8bd
000000b0: 89d2 b93c 2f71 01bd 31a3 a2bb 6a97 69bb
000000c0: b377 f6bc 0be5 953d 9a4f bfbe bf5f c43b
000000d0: c0bf 00be ec06 0ebd 7475 5f3d 1a5d 56bd
000000e0: 922d d23d cc94 493e 1b34 91bb 062d c93d
000000f0: 3732 5bbe 0bb2 dd3c ed9b 993b d3e1 173e
00000100: baad e33d 6b71 3c3e 7700 023e ce10 5d3d
00000110: 0734 1cbd c14d 6ebd d3ac 61be 2693 773d
00000120: 4990 073e 15c8 203e 58e8 593e 1419 bb3e
00000130: b4e6 f43d 8cc0 063e 8166 ba3d 24e9 203e
00000140: 2b63 a9bd dad0 8b3e 45bd d33c 73bd d03d
00000150: 0772 c23d 4ce0 a53e fe93 7e3d 47e2 6e3e
00000160: 5d58 97bb c916 213d 7084 6abd 3c7c 69bd
00000170: 3ca4 a6bd 3c87 143d c4c0 08be 5ae6 0e3f
00000180: e28b 9e3d 71ea 123d 883b bdbe faee cebe
00000190: 6555 ea3e 1dbc fb3d c8b7 6b3e 5957 663e
000001a0: 56cf 963e 68a8 8b3e 0768 06bb 71fb c9bd
000001b0: fb5f efbd ab84 ccbe 7f70 e23d b4ba b5bd
000001c0: 2892 ebbc b45f e9bd fd42 c8bd 9016 3c3d
000001d0: 0959 efbd b843 4c3e d5ea 04bd 84d6 62bd
000001e0: 94bc b53b f725 d2bc c4ed 303c 26a3 3a3d
000001f0: 93b2 ddbd 3ee6 d0bd e684 20be e296 9b3d
00000200: ca0e 1e3e 513f 073e ce18 023e 8057 0dbd
00000210: 57c8 f53b 30a2 cbbc 287b 61bc 4681 fdbc
00000220: 656c 1abe 6a3c a3bd 5f14 53be 7a8a 91bc
00000230: cfe6 d13d 6504 4ebe 9fc6 a83d 17c4 ec3d
00000240: fa87 0f3e 3b6f 153d 7b57 583d 5ca3 b83d
00000250: 091d 0bbe eb47 35be b913 3e3e 41cc 03be
00000260: b6d4 d1bd e727 efbd 951c 643d 906b 1d3e
00000270: f66d 193d d758 32be 3ba4 dcbd f90f 40bd
00000280: 51bb 7c3c 46c4 b3bc eb42 073e 7176 053d
00000290: 506d 723b cd38 21bd 4dfe c9bc 0e1e 2abe
000002a0: ac9a 7bbe 7a8d d0bd 3213 0a3e eb9a bebc
000002b0: f4c7 8b3d 1a2e b1bc 06c7 313e 8a51 193e
000002c0: a2c7 86bd 4e40 c93d 4234 d53b 5671 933d
000002d0: aa60 c13d ff48 e4bd b377 d6bd 4ea0 97bd
000002e0: d6a2 973d d793 8b3d b5a6 943d 342b 0e3e
000002f0: 1f36 f13d 5a99 993d c617 e33d d8f0 06be
00000300: ee29 3bbe 752d 1abe 4369 9dbd d0a3 b4bb
00000310: fc9d b5bd c56d 073c 440d e63e 3ec7 9e3f
00000320: fcd6 2a3e 0f44 7abd 0090 51bd 3537 04bf
00000330: 9ae2 c23d 6564 5f3d 585b 07be fb8a 3fbd
00000340: a505 b0be f03d 9d3d 7f35 d43d c57a 3cbe
00000350: 8bbd 5dbd 1520 4bbe 56b8 273c 3833 a63d
00000360: b414 b1bd 7d42 2ebd 741b 9bbe 6588 183d
00000370: b85f 053e f6bb 8ebc 4217 1abc 07ef 91bd
00000380: baaa 583d f684 493d d7a8 0abd f52d 36bc
00000390: 1e38 83bd e334 da3c 8979 a43e b3dd c6bc
000003a0: 995f ad3c 6fce 65bb e769 15be d66a 233e
000003b0: 69fa 1d3d c97e e43c 9250 fb3d 5768 883d
000003c0: 5caf 333e af91 86bb 2df6 09bd f187 af3d
000003d0: 91a1 45be 4039 1d3e f7b4 603d c705 083c
000003e0: 9b1b 683d 4798 0dbe 3c65 3b3e 62b7 06bd
000003f0: 8d44 2f3b b936 c43d 7918 34be 53f5 ac3d
-0.00078240817 0.1162019 0.009181837 0.21919893 0.10809668 0.1670613 0.22344807 0.16721675
0.13833493 0.0016377169 -0.3888011 -0.06676344 0.08337291 0.18044178 0.15482438 0.12819323
0.0063653635 0.1780618 0.07962941 0.01818537 -0.15307254 0.025164228 0.03276633 0.026588816
-0.011012639 -0.034273084 0.0073476317 0.15985258 -0.09896742 -0.013334548 -0.2892312 -0.020175774
-0.109849714 -0.08163747 -0.06120748 -0.091474794 -0.12572314 -0.09133997 -0.31587926 -0.2931853
-0.73525405 -0.15411499 -0.13771944 -0.09812879 0.022683399 -0.03160208 -0.0049633016 -0.0035643228
-0.030086374 0.07319077 -0.3736542 0.005992859 -0.12573147 -0.03467457 0.05455537 -0.052334882
0.10262598 0.19685668 -0.0044312603 0.09823041 -0.21405874 0.027062437 0.0046877773 0.14832239
0.1111712 0.1840264 0.1269549 0.053971104 -0.038135555 -0.05817962 -0.22038583 0.060443066
0.13238634 0.15701325 0.21280038 0.3654257 0.11958066 0.13159388 0.09101582 0.15713936
-0.08270868 0.2730778 0.025847087 0.101923846 0.09494405 0.32397687 0.062152855 0.23328505
-0.004618688 0.03932837 -0.05725521 -0.057003245 -0.08136794 0.036261782 -0.13354784 0.5582024
0.07741524 0.035868112 -0.3695948 -0.404167 0.45768276 0.12291739 0.23019326 0.22494258
0.2945506 0.2727692 -0.0020508782 -0.09862412 -0.11688229 -0.39944968 0.11056613 -0.088735014
-0.028756216 -0.11395207 -0.09778402 0.045919955 -0.11686904 0.19947708 -0.032450516 -0.05538036
0.005546162 -0.025652869 0.010798875 0.045565747 -0.10825076 -0.10200165 -0.15675697 0.07597138
0.15435329 0.13207747 0.12704775 -0.034507275 0.007500689 -0.02485761 -0.013762273 -0.030945431
-0.15080412 -0.079705074 -0.2061324 -0.017766226 0.10249101 -0.20118864 0.08241009 0.11560839
0.14016715 0.03648303 0.052817803 0.09015533 -0.13585295 -0.17703216 0.18562211 -0.12870885
-0.102456495 -0.11677533 0.05569132 0.15373063 0.037458383 -0.17416702 -0.10773512 -0.046890233
0.015425519 -0.021944176 0.13209121 0.032583658 0.0036991425 -0.03936081 -0.024657393 -0.16613027
-0.24570721 -0.101832345 0.13483885 -0.02326723 0.068252474 -0.021628428 0.17361078 0.14972511
-0.06581046 0.09826718 0.0065064738 0.071993515 0.09442265 -0.111467354 -0.104720496 -0.074036226
0.07404105 0.068153076 0.07258359 0.13883668 0.11777901 0.074999526 0.11088519 -0.13177812
-0.18277714 -0.15056403 -0.07686093 -0.005512692 -0.08868024 0.008265917 0.44931996 1.2404554
0.16683573 -0.061100062 -0.05116272 -0.5164674 0.09515877 0.054539103 -0.13218439 -0.0467634
-0.34379306 0.07677829 0.10361766 -0.18406208 -0.05413584 -0.19836457 0.01023682 0.08115238
-0.08646527 -0.042543877 -0.30294383 0.03723945 0.13024795 -0.017423611 -0.009404959 -0.07125669
0.052897193 0.049199067 -0.033852424 -0.011119355 -0.06407188 0.026636546 0.32123974 -0.024275636
0.021163749 -0.003506567 -0.1459118 0.15958723 0.038568888 0.027892487 0.12271227 0.06660526
0.17547363 -0.0041067223 -0.033682037 0.08570851 -0.19299914 0.1535387 0.05486008 0.008302159
0.05666695 -0.1382762 0.18300337 -0.03288973 0.002674374 0.0958075 -0.1758746 0.084452294

gnn_layers.0.bn.weight f4 [128]
00000000: 9113 e03e 4316 443e 19b2 353f 4c4f 323f
00000010: f412 873e 14e0 b23e 189e 8c3f 7d6a 053f
00000020: e214 8f3e 0eff 303f 524a 823e 611b 493f
00000030: 1da4 a83e bdc2 3f3f b463 f33d 2457 013f
00000040: bf64 823e 4edd 413f 3d4d 433f 1464 013f
00000050: 62e4 8f3e 0943 a33e c6b0 653f 23a7 673f
00000060: 8a24 753f 5214 3e3e 7c36 d43e de3f 6e3f
00000070: b675 173f 9c3d c53e 3752 6a3e 917e 5b3f
00000080: 7bde a73e 7207 6d3e 9274 b93e 083c 223e
00000090: 75c8 873f 59e1 7b3f 8311 693f a387 7c3f
000000a0: 7453 2abe 6f11 b43e c8dd 9a3e 33f4 4e3f
000000b0: 64b0 c63e c0df e93e 99f0 183f 228d 093f
000000c0: 4326 2c3f 290c b83f 8760 f33e c35e dc3e
000000d0: bfde 1c3f 4648 083f e459 263f eba8 9a3d
000000e0: ce81 8c3e 0e81 8c3e 05e5 693f 5e07 953e
000000f0: 2c77 013f 5f8a 1b3f 525d 3d3e e60e 8d3f
00000100: 5380 b43e 5e1a 723c b217 173f 73ea 273e
00000110: 1673 8c3e cec0 f33e a17a d93e fc04 3e3c
00000120: 26af 313f 600f 6d3f e0f7 363e 7dc0 833f
00000130: 49b8 223f 2512 673f 1cec ed3e 71c2 413f
00000140: cff8 be3e 557c 383e 5b87 f53e 3caf ad3e
00000150: 584a ef3d e1a7 5d3f 8a60 823e ad3e f53e
00000160: 0116 e93e 8889 143f b496 3e3f 16a2 773e
00000170: 5632 db3e 3bb2 893f b5df 5b3e 19d5 573f
00000180: d80b 5a3f 78f3 3c3f ece7 193d ef7e e93e
00000190: 4dff b73e 9aba f93e 6f86 873e 09c9 5f3f
000001a0: bd09 953e 4b71 023f 5d8e 923e 14ee 243f
000001b0: e1f0 e73e 0795 963e 5f99 6c3e f47b 363f
000001c0: 6937 983e a2da 673f 8ada 013f 893b a93e
000001d0: 5d0e 423f 0304 c83e 6932 02be 6d7a 503f
000001e0: 74f0 8c3e de7b b43e 217b eb3e 36d3 973e
000001f0: d9cf 573f bda6 243f 621d e53e 0ade 213f
0.43764928 0.19149117 0.7097488 0.6965225 0.26381648 0.34936583 1.0985746 0.52115613
0.2794562 0.6913918 0.25447327 0.785574 0.32937708 0.7490652 0.11884251 0.5052359
0.25467488 0.7572831 0.7628973 0.5054333 0.2810393 0.3188708 0.8972286 0.90489405
0.9575888 0.18562439 0.41447818 0.93066204 0.5916399 0.38523567 0.22882925 0.8574
0.32786927 0.23147371 0.3622175 0.15843213 1.060805 0.9839073 0.91042346 0.98644465
-0.16633397 0.3516955 0.3024733 0.8084137 0.3880645 0.4567852 0.5974212 0.53730977
0.6724588 1.4378711 0.47534582 0.43041047 0.61277384 0.5323528 0.6498091 0.0755175
0.27442783 0.2744221 0.9136508 0.29107183 0.50572467 0.6075801 0.1849263 1.1020172
0.35254154 0.014776794 0.5902053 0.16398029 0.27431554 0.47608036 0.4247637 0.011597868
0.6940788 0.92601585 0.17867994 1.0293118 0.63562447 0.9026206 0.464692 0.7568732
0.372992 0.18016179 0.4795483 0.33922756 0.11684102 0.8658429 0.25464278 0.4789938
0.455246 0.58022356 0.74448705 0.24182925 0.4281184 1.0757517 0.21472056 0.84309536
0.8517432 0.73809004 0.037574694 0.45604655 0.35936967 0.48775178 0.26469752 0.8741613
0.29108992 0.5095412 0.2862424 0.6442578 0.45300964 0.29410574 0.23105381 0.7128289
0.29729775 0.9056798 0.5072409 0.33053234 0.75803167 0.3906556 -0.12714542 0.81436807
0.275272 0.35250753 0.45992377 0.2965333 0.84301525 0.6431692 0.4474898 0.6322943

gnn_layers.0.bn.bias f4 [128]
00000000: a90b ac3e 8e05 1bbf 701e b9be cf78 81bd
00000010: b843 1d3f ea50 15bf 9429 8c3d 39bc a53e
00000020: 5dc0 1a3f c1cf ba3e 6f4b ca3e 4dc0 d6bd
00000030: 9cb6 9ebe 3167 97be b378 11bf 069d b9be
00000040: 4a46 c23e 8ef1 323e 0eaa 8a3e e732 cb3e
00000050: aff3 1e3f 033e d83e 3dbb 533e 2473 1bbe
00000060: 8603 033e 9b65 343f e10f da3e caea dfbd
00000070: e64d b63e d536 44bf 463e 143f 9520 6fbe
00000080: 2359 0d3f b0b2 163f 7767 54bf 929d 133f
00000090: 49f5 983d fbbb 23bd 726e 723d c17e 8f3d
000000a0: 3a6a 103f 7914 013f 5a3f 11bf 9d22 05be
000000b0: 8d17 12bf 73ed d1be d634 52be dfe6 533e
000000c0: 75f3 483e 9763 603c b9fe f4be 9bf3 3fbf
000000d0: b8c1 d63e 0c43 89be 999b 9b3e f603 18bf
000000e0: 4c65 2e3f 2966 c3be e823 19be 63cb b33e
000000f0: 1ff0 9c3e b912 a9be c825 203f bac4 ebbd
00000100: 952e 173f b46d 08bf 5319 a0be 0ac7 113f
00000110: 08cb c53e 4b77 e73e c23e f53e f704 10bf
00000120: c009 acbe ae46 25be cf70 023f 8361 0fbe
00000130: 5386 8d3e d9d1 ffbd 6b6f ad3e 764e 8e3d
00000140: ae70 db3e 1579 133f 59f9 bb3e 0ce0 df3e
00000150: bea7 3b3f 8a77 093e 1617 393f 7abd f5be
00000160: b7a5 cc3e a93f 963e e676 2abe d85f dc3e
00000170: accb b33e 029b e23c 2f96 163f 7dfd d13a
00000180: 914a 22be 8f8d 68be 98d8 e13f c295 0d3f
00000190: b2b2 b3be a190 7fbe b7b9 1d3f c827 273e
000001a0: fcfb 123f b1c1 ec3e ac80 443f 91cc 8a3e
000001b0: ac20 dcbe 4b75 c23e 6c3d 39bf 26a2 6f3e
000001c0: c333 cc3e 5a6a 9d3d 8a5b a2be 1e5f c43e
000001d0: 239f 9abe 2a08 053f ce83 f53e c2ff 3ebe
000001e0: 362f d83e 90f4 073f 5060 9cbe af21 0d3f
000001f0: 7341 16bd e181 c33e d114 a93e 1880 ac3e
0.33602646 -0.6055535 -0.36156034 -0.063218705 0.61431456 -0.5832659 0.06843868 0.32370165
0.60449773 0.3648663 0.39510676 -0.10485897 -0.30998695 -0.29570916 -0.568248 -0.36252612
0.3794425 0.17474958 0.27082866 0.39687273 0.6209058 0.4223481 0.20676894 -0.15180641
0.12794313 0.7046754 0.4259024 -0.10933454 0.35606307 -0.7664617 0.5790752 -0.23352273
0.55214137 0.58866405 -0.82970375 0.5766231 0.074686594 -0.039974194 0.05918736 0.07006598
0.5641209 0.50421864 -0.5673729 -0.13001485 -0.57067186 -0.41001472 -0.20527968 0.20693539
0.19624121 0.013695619 -0.47850588 -0.7498109 0.4194467 -0.26808965 0.3039215 -0.59381044
0.68123317 -0.3816388 -0.14955103 0.3511611 0.30651948 -0.33022097 0.6255765 -0.11512132
0.59055454 -0.53292394 -0.3126932 0.56944335 0.38631463 0.452082 0.47899443 -0.56257576
-0.3360119 -0.16140243 0.5095338 -0.14002042 0.27641544 -0.12491197 0.33874068 0.06948559
0.42859405 0.5760663 0.36713675 0.43725622 0.7330283 0.13424507 0.7230085 -0.47996122
0.3997018 0.29345444 -0.16646919 0.43041873 0.35116327 0.027661804 0.5882291 0.001602098
-0.15848757 -0.2271025 1.7644224 0.5530664 -0.3509727 -0.24957515 0.61611503 0.16323769
0.5741575 0.46241525 0.7675884 0.27109197 -0.42993677 0.37980112 -0.7235935 0.23401698
0.3988324 0.076863006 -0.31710464 0.3835382 -0.30199537 0.5196558 0.47952121 -0.18652251
0.4222352 0.5310755 -0.3054223 0.5512952 -0.03668351 0.38185027 0.33023694 0.33691478

gnn_layers.0.bn.running_mean f4 [128]
00000000: bbc3 483e 5758 da3e 209a fbbe af0e a13d
00000010: 0035 9f3e d68b d83e cde1 d53e 92ef b23e
00000020: 7fe0 6b3d a911 b43e b952 6abe 8f22 dfbc
00000030: 157f cd3e 3654 ccbe 91fe 3abd 8116 2dbf
00000040: fa97 04bf e600 0b40 5720 0cbe 73a4 993e
00000050: 0c3f 67bf 511a e0bf cb11 c03e 35fa fcbe
00000060: a3b6 d93e 63dc 383e d505 bb3d 6bd3 15be
00000070: a5c1 a33e 3486 253f 5388 1b3f a843 fcbf
00000080: 998f ad3e 34d8 9c3e b56f 513f 9300 fbbe
00000090: dee7 c23e a0b7 ab3e f012 babe 427d 80bc
000000a0: 9753 d83d acf5 9bbe 0845 17bf d575 003c
000000b0: cafa 5a3f 5870 0dbf 0e56 d83e b7aa 1c3e
000000c0: 8125 f2be f488 a33c 6e82 9dbd a8e1 043f
000000d0: 8173 9d3e 88c6 83be 41d5 a03e 28f1 79be
000000e0: 1aeb 713e 14b7 a03e e13b a6be 6572 963b
000000f0: 97d8 b4be 2bde 54be 092c b03e 4ce6 9b3e
00000100: e814 813c 2437 be3b 72d9 d2bc fa8f 33be
00000110: eaba 103e 8b57 d9be 955e 923e 27ae 643c
00000120: 1bc5 90be 6349 62be 60be 193e c217 dcbc
00000130: 0fd3 b03e 95bd 9bbe 895f 263e 157d 80be
00000140: 4079 333f f131 2bbe 65c1 b73e bf20 e9be
00000150: 50a9 0d3e 4aea f93e 76fc 473e 43be 623e
00000160: 688d b33e 0c95 db3f 66cf 023e bb0a 02bf
00000170: b79b bc3e e761 c23e 9c2e a73e 1849 c2be
00000180: 8250 a7be 4576 a7ba a3c3 acbe 433d ac3e
00000190: 35c2 bd3e 9a56 81bc d944 9a3e fd69 d4be
000001a0: 9a1d 763f 47e7 953e 20ef 133f b316 2cbe
000001b0: 5706 803c c981 1cbe e85a e3bd 741c aa3e
000001c0: 1989 0ebe c0df ca3e 85c2 0d3f 1048 52be
000001d0: 5a51 00be d7a4 72be 4dfa b5be 6a25 a5bc
000001e0: f57f 4ebe 558d 633e f0f3 33bf 75d0 b6be
000001f0: d2be 0d3e 0b1d b63e 0049 493e ff6b efbe
0.19605915 0.42645523 -0.49141026 0.07864129 0.31095123 0.42294186 0.41773835 0.34948403
0.057587143 0.35169724 -0.22883119 -0.027238159 0.40136018 -0.39907998 -0.04565293 -0.67612463
-0.517944 2.1719298 -0.13684212 0.30008277 -0.90330577 -1.7508031 0.37513575 -0.49409643
0.42522153 0.18052821 0.09131972 -0.14631431 0.31983677 0.646579 0.6075489 -1.9708147
0.3389862 0.306337 0.81811076 -0.49023876 0.38067526 0.33538532 -0.36342573 -0.015684728
0.105628185 -0.3046087 -0.5908971 0.007840593 0.85538924 -0.5524955 0.42253155 0.15299498
-0.47294238 0.019962765 -0.07690893 0.51906824 0.30752185 -0.25737405 0.314127 -0.244084
0.2362484 0.31389678 -0.3246756 0.0045912736 -0.35321495 -0.20787875 0.34408596 0.3044914
0.01575704 0.005804913 -0.025738452 -0.17535391 0.14133802 -0.42449602 0.28587785 0.013957537
-0.2827538 -0.22098307 0.15014029 -0.026866797 0.34536025 -0.30418077 0.16247381 -0.2509543
0.7010689 -0.1671827 0.35889736 -0.45532796 0.13834119 0.4881156 0.195299 0.22142892
0.35068822 1.715486 0.12774429 -0.50797623 0.3683755 0.3796532 0.32652748 -0.3794639
-0.3267861 -0.0012776336 -0.3374301 0.3364049 0.3706223 -0.015788365 0.30130652 -0.41487113
0.9613892 0.29278013 0.5778675 -0.16805534 0.015628023 -0.15283884 -0.11101323 0.33224833
-0.13919486 0.39623833 0.5537494 -0.20535302 -0.12531033 -0.23695694 -0.35542527 -0.020159442
-0.20165999 0.22221883 -0.70294094 -0.35705915 0.13842323 0.35569033 0.19656754 -0.46762082
